…
    downsample_rate: 16
    downsample_rate: 32
    downsample_rate: 32
    downsample_rate: 64
    coord_num: 4
    field_h: 60
    field_h: 84
    field_h: 120
    field_h: 168
    field_h: 240
    field_h: 336
    field_h: 480
    field_w: 40
    field_w: 56
    field_w: 80
    field_w: 112
    field_w: 160
    field_w: 224
    field_w: 360
    fg_threshold: 0.5
    resize_width: 1920
    resize_height: 576
    crop_width: 768
    crop_height: 576
    do_multiple_scale: true
    min_scale: 60
    max_scale: 480
    min_gt_height: 30
    shuffle: true
  }
}
layer {
  name: "conv1_1"
  type: "Convolution"
  bottom: "data"
  top: "conv1_1"
  convolution_param {
    num_output: 64
    pad: 1
    kernel_size: 3
  }
}
layer {
  name: "relu1_1"
  type: "ReLU"
  bottom: "conv1_1"
  top: "conv1_1"
}
layer {
  name: "conv1_2"
  type: "Convolution"
  bottom: "conv1_1"
  top: "conv1_2"
  convolution_param {
    num_output: 64
    pad: 1
    kernel_size: 3
  }
}
layer {
  name: "relu1_2"
  type: "ReLU"
  bottom: "conv1_2"
  top: "conv1_2"
}
layer {
  name: "pool1"
  type: "Pooling"
  bottom: "conv1_2"
  top: "pool1"
  pooling_param {
    pool: MAX
    kernel_size: 2
    stride: 2
  }
}
layer {
  name: "conv2_1"
  type: "Convolution"
  bottom: "pool1"
  top: "conv2_1"
  convolution_param {
    num_output: 128
    pad: 1
    kernel_size: 3
  }
}
layer {
  name: "relu2_1"
  type: "ReLU"
  bottom: "conv2_1"
  top: "conv2_1"
}
layer {
  name: "conv2_2"
  type: "Convolution"
  bottom: "conv2_1"
  top: "conv2_2"
  convolution_param {
    num_output: 128
    pad: 1
    kernel_size: 3
  }
}
layer {
  name: "relu2_2"
  type: "ReLU"
  bottom: "conv2_2"
  top: "conv2_2"
}
layer {
  name: "pool2"
  type: "Pooling"
  bottom: "conv2_2"
  top: "pool2"
  pooling_param {
    pool: MAX
    kernel_size: 2
    stride: 2
  }
}
layer {
  name: "conv3_1"
  type: "Convolution"
  bottom: "pool2"
  top: "conv3_1"
  convolution_param {
    num_output: 256
    pad: 1
    kernel_size: 3
  }
}
layer {
  name: "relu3_1"
  type: "ReLU"
  bottom: "conv3_1"
  top: "conv3_1"
}
layer {
  name: "conv3_2"
  type: "Convolution"
  bottom: "conv3_1"
  top: "conv3_2"
  convolution_param {
    num_output: 256
    pad: 1
    kernel_size: 3
  }
}
layer {
  name: "relu3_2"
  type: "ReLU"
  bottom: "conv3_2"
  top: "conv3_2"
}
layer {
  name: "conv3_3"
  type: "Convolution"
  bottom: "conv3_2"
  top: "conv3_3"
  convolution_param {
    num_output: 256
    pad: 1
    kernel_size: 3
  }
}
layer {
  name: "relu3_3"
  type: "ReLU"
  bottom: "conv3_3"
  top: "conv3_3"
}
layer {
  name: "pool3"
  type: "Pooling"
  bottom: "conv3_3"
  top: "pool3"
  pooling_param {
    pool: MAX
    kernel_size: 2
    stride: 2
  }
}
layer {
  name: "conv4_1"
  type: "Convolution"
  bottom: "pool3"
  top: "conv4_1"
  convolution_param {
    num_output: 512
    pad: 1
    kernel_size: 3
  }
}
layer {
  name: "relu4_1"
  type: "ReLU"
  bottom: "conv4_1"
  top: "conv4_1"
}
layer {
  name: "conv4_2"
  type: "Convolution"
  bottom: "conv4_1"
  top: "conv4_2"
  convolution_param {
    num_output: 512
    pad: 1
    kernel_size: 3
  }
}
layer {
  name: "relu4_2"
  type: "ReLU"
  bottom: "conv4_2"
  top: "conv4_2"
}
layer {
  name: "conv4_3"
  type: "Convolution"
  bottom: "conv4_2"
  top: "conv4_3"
  convolution_param {
    num_output: 512
    pad: 1
    kernel_size: 3
  }
}
layer {
  name: "relu4_3"
  type: "ReLU"
  bottom: "conv4_3"
  top: "conv4_3"
}
layer {
  name: "loss1_conv1"
  type: "Convolution"
  bottom: "conv4_3"
  top: "loss1_conv1"
  param {
    lr_mult: 1
    decay_mult: 1
  }
  param {
    lr_mult: 2
    decay_mult: 0
  }
  convolution_param {
    num_output: 512
    pad: 1
    kernel_size: 3
    weight_filler {
      type: "gaussian"
      std: 0.01
    }
    bias_filler {
      type: "constant"
    }
  }
}
layer {
  name: "loss_relu1"
  type: "ReLU"
  bottom: "loss1_conv1"
  top: "loss1_conv1"
}
layer {
  name: "LFCN_1_3x5"
  type: "Convolution"
  bottom: "loss1_conv1"
  top: "LFCN_1_3x5"
  param {
    lr_mult: 1
    decay_mult: 1
  }
  param {
    lr_mult: 2
    decay_mult: 0
  }
  convolution_param {
    num_output: 7
    weight_filler {
      type: "gaussian"
      std: 0.001
    }
    bias_filler {
      type: "constant"
    }
    pad_h: 2
    pad_w: 1
    kernel_h: 5
    kernel_w: 3
  }
}
layer {
  name: "detection_loss_1_3x5"
  type: "DetectionLoss"
  bottom: "LFCN_1_3x5"
  bottom: "label_1_3x5"
  top: "loss_1_3x5"
  loss_weight: 0.9
  detection_loss_param {
    cls_num: 3
    coord_num: 4
    lambda: 0.5
    field_h: 60
    field_w: 40
    downsample_rate: 8
    bb_smooth: true
    field_whr: 2
    field_xyr: 2
    bg_threshold: 0.2
    bg_multiple: 2
    sample_mode: "random"
    pos_neg_weighted: true
  }
}
layer {
  name: "detection_accuracy_1_3x5"
  type: "DetectionAccuracy"
  bottom: "LFCN_1_3x5"
  bottom: "label_1_3x5"
  top: "accuracy_1_3x5"
  top: "boxiou_1_3x5"
  detection_accuracy_param {
    cls_num: 3
    coord_num: 4
    field_h: 60
    field_w: 40
    downsample_rate: 8
    field_whr: 2
    field_xyr: 2
  }
}
layer {
  name: "LFCN_1_5x7"
  type: "Convolution"
  bottom: "loss1_conv1"
  top: "LFCN_1_5x7"
  param {
    lr_mult: 1
    decay_mult: 1
  }
  param {
    lr_mult: 2
    decay_mult: 0
  }
  convolution_param {
    num_output: 7
    weight_filler {
      type: "gaussian"
      std: 0.001
    }
    bias_filler {
      type: "constant"
    }
    pad_h: 3
    pad_w: 2
    kernel_h: 7
    kernel_w: 5
  }
}
layer {
  name: "detection_loss_1_5x7"
  type: "DetectionLoss"
  bottom: "LFCN_1_5x7"
  bottom: "label_1_5x7"
  top: "loss_1_5x7"
  loss_weight: 0.9
  detection_loss_param {
    cls_num: 3
    coord_num: 4
    lambda: 0.5
    field_h: 84
    field_w: 56
    downsample_rate: 8
    bb_smooth: true
    field_whr: 2
    field_xyr: 2
    bg_threshold: 0.2
    bg_multiple: 2
    sample_mode: "random"
    pos_neg_weighted: true
  }
}
layer {
  name: "detection_accuracy_1_5x7"
  type: "DetectionAccuracy"
  bottom: "LFCN_1_5x7"
  bottom: "label_1_5x7"
  top: "accuracy_1_5x7"
  top: "boxiou_1_5x7"
  detection_accuracy_param {
    cls_num: 3
    coord_num: 4
    field_h: 84
    field_w: 56
    downsample_rate: 8
    field_whr: 2
    field_xyr: 2
  }
}
layer {
  name: "pool4"
  type: "Pooling"
  bottom: "conv4_3"
  top: "pool4"
  pooling_param {
    pool: MAX
    kernel_size: 2
    stride: 2
  }
}
layer {
  name: "conv5_1"
  type: "Convolution"
  bottom: "pool4"
  top: "conv5_1"
  convolution_param {
    num_output: 512
    pad: 1
    kernel_size: 3
  }
}
layer {
  name: "relu5_1"
  type: "ReLU"
  bottom: "conv5_1"
  top: "conv5_1"
}
layer {
  name: "conv5_2"
  type: "Convolution"
  bottom: "conv5_1"
  top: "conv5_2"
  convolution_param {
    num_output: 512
    pad: 1
    kernel_size: 3
  }
}
layer {
  name: "relu5_2"
  type: "ReLU"
  bottom: "conv5_2"
  top: "conv5_2"
}
layer {
  name: "conv5_3"
  type: "Convolution"
  bottom: "conv5_2"
  top: "conv5_3"
  convolution_param {
    num_output: 512
    pad: 1
    kernel_size: 3
  }
}
layer {
  name: "relu5_3"
  type: "ReLU"
  bottom: "conv5_3"
  top: "conv5_3"
}
layer {
  name: "LFCN_2_3x5"
  type: "Convolution"
  bottom: "conv5_3"
  top: "LFCN_2_3x5"
  param {
    lr_mult: 1
    decay_mult: 1
  }
  param {
    lr_mult: 2
    decay_mult: 0
  }
  convolution_param {
    num_output: 7
    weight_filler {
      type: "gaussian"
      std: 0.001
    }
    bias_filler {
      type: "constant"
    }
    pad_h: 2
    pad_w: 1
    kernel_h: 5
    kernel_w: 3
  }
}
layer {
  name: "detection_loss_2_3x5"
  type: "DetectionLoss"
  bottom: "LFCN_2_3x5"
  bottom: "label_2_3x5"
  top: "loss_2_3x5"
  detection_loss_param {
    cls_num: 3
    coord_num: 4
    lambda: 0.5
    field_h: 120
    field_w: 80
    downsample_rate: 16
    bb_smooth: true
    field_whr: 2
    field_xyr: 2
    bg_threshold: 0.2
    bg_multiple: 2
    sample_mode: "random"
    pos_neg_weighted: true
  }
}
layer {
  name: "detection_accuracy_2_3x5"
  type: "DetectionAccuracy"
  bottom: "LFCN_2_3x5"
  bottom: "label_2_3x5"
  top: "accuracy_2_3x5"
  top: "boxiou_2_3x5"
  detection_accuracy_param {
    cls_num: 3
    coord_num: 4
    field_h: 120
    field_w: 80
    downsample_rate: 16
    field_whr: 2
    field_xyr: 2
  }
}
layer {
  name: "LFCN_2_5x7"
  type: "Convolution"
  bottom: "conv5_3"
  top: "LFCN_2_5x7"
  param {
    lr_mult: 1
    decay_mult: 1
  }
  param {
    lr_mult: 2
    decay_mult: 0
  }
  convolution_param {
    num_output: 7
    weight_filler {
      type: "gaussian"
      std: 0.001
    }
    bias_filler {
      type: "constant"
    }
    pad_h: 3
    pad_w: 2
    kernel_h: 7
    kernel_w: 5
  }
}
layer {
  name: "detection_loss_2_5x7"
  type: "DetectionLoss"
  bottom: "LFCN_2_5x7"
  bottom: "label_2_5x7"
  top: "loss_2_5x7"
  detection_loss_param {
    cls_num: 3
    coord_num: 4
    lambda: 0.5
    field_h: 168
    field_w: 112
    downsample_rate: 16
    bb_smooth: true
    field_whr: 2
    field_xyr: 2
    bg_threshold: 0.2
    bg_multiple: 2
    sample_mode: "random"
    pos_neg_weighted: true
  }
}
layer {
  name: "detection_accuracy_2_5x7"
  type: "DetectionAccuracy"
  bottom: "LFCN_2_5x7"
  bottom: "label_2_5x7"
  top: "accuracy_2_5x7"
  top: "boxiou_2_5x7"
  detection_accuracy_param {
    cls_num: 3
    coord_num: 4
    field_h: 168
    field_w: 112
    downsample_rate: 16
    field_whr: 2
    field_xyr: 2
  }
}
layer {
  name: "pool5"
  type: "Pooling"
  bottom: "conv5_3"
  top: "pool5"
  pooling_param {
    pool: MAX
    kernel_size: 2
    stride: 2
  }
}
layer {
  name: "conv6_1"
  type: "Convolution"
  bottom: "pool5"
  top: "conv6_1"
  param {
    lr_mult: 1
    decay_mult: 1
  }
  param {
    lr_mult: 2
    decay_mult: 0
  }
  convolution_param {
    num_output: 512
    pad: 1
    kernel_size: 3
    weight_filler {
      type: "gaussian"
      std: 0.01
    }
    bias_filler {
      type: "constant"
    }
  }
}
layer {
  name: "relu6_1"
  type: "ReLU"
  bottom: "conv6_1"
  top: "conv6_1"
}
layer {
  name: "LFCN_3_3x5"
  type: "Convolution"
  bottom: "conv6_1"
  top: "LFCN_3_3x5"
  param {
    lr_mult: 1
    decay_mult: 1
  }
  param {
    lr_mult: 2
    decay_mult: 0
  }
  convolution_param {
    num_output: 7
    weight_filler {
      type: "gaussian"
      std: 0.001
    }
    bias_filler {
      type: "constant"
    }
    pad_h: 2
    pad_w: 1
    kernel_h: 5
    kernel_w: 3
  }
}
layer {
  name: "detection_loss_3_3x5"
  type: "DetectionLoss"
  bottom: "LFCN_3_3x5"
  bottom: "label_3_3x5"
  top: "loss_3_3x5"
  detection_loss_param {
    cls_num: 3
    coord_num: 4
    lambda: 0.5
    field_h: 240
    field_w: 160
    downsample_rate: 32
    bb_smooth: true
    field_whr: 2
    field_xyr: 2
    bg_threshold: 0.2
    bg_multiple: 2
    sample_mode: "random"
    pos_neg_weighted: true
  }
}
layer {
  name: "detection_accuracy_3_3x5"
  type: "DetectionAccuracy"
  bottom: "LFCN_3_3x5"
  bottom: "label_3_3x5"
  top: "accuracy_3_3x5"
  top: "boxiou_3_3x5"
  detection_accuracy_param {
    cls_num: 3
    coord_num: 4
    field_h: 240
    field_w: 160
    downsample_rate: 32
    field_whr: 2
    field_xyr: 2
  }
}
layer {
  name: "LFCN_3_5x7"
  type: "Convolution"
  bottom: "conv6_1"
  top: "LFCN_3_5x7"
  param {
    lr_mult: 1
    decay_mult: 1
  }
  param {
    lr_mult: 2
    decay_mult: 0
  }
  convolution_param {
    num_output: 7
    weight_filler {
      type: "gaussian"
      std: 0.001
    }
    bias_filler {
      type: "constant"
    }
    pad_h: 3
    pad_w: 2
    kernel_h: 7
    kernel_w: 5
  }
}
layer {
  name: "detection_loss_3_5x7"
  type: "DetectionLoss"
  bottom: "LFCN_3_5x7"
  bottom: "label_3_5x7"
  top: "loss_3_5x7"
  detection_loss_param {
    cls_num: 3
    coord_num: 4
    lambda: 0.5
    field_h: 336
    field_w: 224
    downsample_rate: 32
    bb_smooth: true
    field_whr: 2
    field_xyr: 2
    bg_threshold: 0.2
    bg_multiple: 2
    sample_mode: "random"
    pos_neg_weighted: true
  }
}
layer {
  name: "detection_accuracy_3_5x7"
  type: "DetectionAccuracy"
  bottom: "LFCN_3_5x7"
  bottom: "label_3_5x7"
  top: "accuracy_3_5x7"
  top: "boxiou_3_5x7"
  detection_accuracy_param {
    cls_num: 3
    coord_num: 4
    field_h: 336
    field_w: 224
    downsample_rate: 32
    field_whr: 2
    field_xyr: 2
  }
}
layer {
  name: "pool6"
  type: "Pooling"
  bottom: "conv6_1"
  top: "pool6"
  pooling_param {
    pool: MAX
    kernel_size: 2
    stride: 2
  }
}
layer {
  name: "LFCN_4_3x5"
  type: "Convolution"
  bottom: "pool6"
  top: "LFCN_4_3x5"
  param {
    lr_mult: 1
    decay_mult: 1
  }
  param {
    lr_mult: 2
    decay_mult: 0
  }
  convolution_param {
    num_output: 7
    weight_filler {
      type: "gaussian"
      std: 0.001
    }
    bias_filler {
      type: "constant"
    }
    pad_h: 2
    pad_w: 1
    kernel_h: 5
    kernel_w: 3
  }
}
layer {
  name: "detection_loss_4_3x5"
  type: "DetectionLoss"
  bottom: "LFCN_4_3x5"
  bottom: "label_4_3x5"
  top: "loss_4_3x5"
  detection_loss_param {
    cls_num: 3
    coord_num: 4
    lambda: 0.5
    field_h: 480
    field_w: 360
    downsample_rate: 64
    bb_smooth: true
    field_whr: 2
    field_xyr: 2
    bg_threshold: 0.2
    bg_multiple: 2
    sample_mode: "random"
    pos_neg_weighted: true
  }
}
layer {
  name: "detection_accuracy_4_3x5"
  type: "DetectionAccuracy"
  bottom: "LFCN_4_3x5"
  bottom: "label_4_3x5"
  top: "accuracy_4_3x5"
  top: "boxiou_4_3x5"
  detection_accuracy_param {
    cls_num: 3
    coord_num: 4
    field_h: 480
    field_w: 360
    downsample_rate: 64
    field_whr: 2
    field_xyr: 2
  }
}
I1021 14:31:50.860769 29824 layer_factory.hpp:77] Creating layer data
I1021 14:31:50.861174 29824 net.cpp:100] Creating Layer data
I1021 14:31:50.861182 29824 net.cpp:408] data -> data
…
I1021 14:31:50.984233 29824 image_gt_data_layer.cpp:235] output label size 1 : 4,6,72,96
I1021 14:31:50.984321 29824 image_gt_data_layer.cpp:235] output label size 2 : 4,6,36,48
I1021 14:31:50.984402 29824 image_gt_data_layer.cpp:235] output label size 3 : 4,6,36,48
I1021 14:31:50.984483 29824 image_gt_data_layer.cpp:235] output label size 4 : 4,6,18,24
I1021 14:31:50.984560 29824 image_gt_data_layer.cpp:235] output label size 5 : 4,6,18,24
I1021 14:31:50.984638 29824 image_gt_data_layer.cpp:235] output label size 6 : 4,6,9,12
I1021 14:31:51.041851 29824 net.cpp:150] Setting up data
I1021 14:31:51.041887 29824 net.cpp:157] Top shape: 4 3 576 768 (5308416)
I1021 14:31:51.041893 29824 net.cpp:157] Top shape: 4 6 72 96 (165888)
I1021 14:31:51.041898 29824 net.cpp:157] Top shape: 4 6 72 96 (165888)
I1021 14:31:51.041903 29824 net.cpp:157] Top shape: 4 6 36 48 (41472)
I1021 14:31:51.041908 29824 net.cpp:157] Top shape: 4 6 36 48 (41472)
I1021 14:31:51.041913 29824 net.cpp:157] Top shape: 4 6 18 24 (10368)
I1021 14:31:51.041918 29824 net.cpp:157] Top shape: 4 6 18 24 (10368)
I1021 14:31:51.041921 29824 net.cpp:157] Top shape: 4 6 9 12 (2592)
I1021 14:31:51.041924 29824 net.cpp:165] Memory required for data: 22985856
I1021 14:31:51.041934 29824 layer_factory.hpp:77] Creating layer label_1_3x5_data_1_split
I1021 14:31:51.041959 29824 net.cpp:100] Creating Layer label_1_3x5_data_1_split
I1021 14:31:51.041970 29824 net.cpp:434] label_1_3x5_data_1_split <- label_1_3x5
I1021 14:31:51.041990 29824 net.cpp:408] label_1_3x5_data_1_split -> label_1_3x5_data_1_split_0
I1021 14:31:51.042013 29824 net.cpp:408] label_1_3x5_data_1_split -> label_1_3x5_data_1_split_1
I1021 14:31:51.042093 29824 net.cpp:150] Setting up label_1_3x5_data_1_split
I1021 14:31:51.042104 29824 net.cpp:157] Top shape: 4 6 72 96 (165888)
I1021 14:31:51.042109 29824 net.cpp:157] Top shape: 4 6 72 96 (165888)
I1021 14:31:51.042114 29824 net.cpp:165] Memory required for data: 24312960
I1021 14:31:51.042119 29824 layer_factory.hpp:77] Creating layer label_1_5x7_data_2_split
I1021 14:31:51.042130 29824 net.cpp:100] Creating Layer label_1_5x7_data_2_split
I1021 14:31:51.042140 29824 net.cpp:434] label_1_5x7_data_2_split <- label_1_5x7
I1021 14:31:51.042150 29824 net.cpp:408] label_1_5x7_data_2_split -> label_1_5x7_data_2_split_0
I1021 14:31:51.042165 29824 net.cpp:408] label_1_5x7_data_2_split -> label_1_5x7_data_2_split_1
I1021 14:31:51.042219 29824 net.cpp:150] Setting up label_1_5x7_data_2_split
I1021 14:31:51.042228 29824 net.cpp:157] Top shape: 4 6 72 96 (165888)
I1021 14:31:51.042232 29824 net.cpp:157] Top shape: 4 6 72 96 (165888)
I1021 14:31:51.042235 29824 net.cpp:165] Memory required for data: 25640064
I1021 14:31:51.042239 29824 layer_factory.hpp:77] Creating layer label_2_3x5_data_3_split
I1021 14:31:51.042244 29824 net.cpp:100] Creating Layer label_2_3x5_data_3_split
I1021 14:31:51.042248 29824 net.cpp:434] label_2_3x5_data_3_split <- label_2_3x5
I1021 14:31:51.042254 29824 net.cpp:408] label_2_3x5_data_3_split -> label_2_3x5_data_3_split_0
I1021 14:31:51.042261 29824 net.cpp:408] label_2_3x5_data_3_split -> label_2_3x5_data_3_split_1
I1021 14:31:51.042304 29824 net.cpp:150] Setting up label_2_3x5_data_3_split
I1021 14:31:51.042313 29824 net.cpp:157] Top shape: 4 6 36 48 (41472)
I1021 14:31:51.042320 29824 net.cpp:157] Top shape: 4 6 36 48 (41472)
I1021 14:31:51.042326 29824 net.cpp:165] Memory required for data: 25971840
I1021 14:31:51.042331 29824 layer_factory.hpp:77] Creating layer label_2_5x7_data_4_split
I1021 14:31:51.042341 29824 net.cpp:100] Creating Layer label_2_5x7_data_4_split
I1021 14:31:51.042347 29824 net.cpp:434] label_2_5x7_data_4_split <- label_2_5x7
I1021 14:31:51.042357 29824 net.cpp:408] label_2_5x7_data_4_split -> label_2_5x7_data_4_split_0
I1021 14:31:51.042368 29824 net.cpp:408] label_2_5x7_data_4_split -> label_2_5x7_data_4_split_1
I1021 14:31:51.042423 29824 net.cpp:150] Setting up label_2_5x7_data_4_split
I1021 14:31:51.042431 29824 net.cpp:157] Top shape: 4 6 36 48 (41472)
I1021 14:31:51.042436 29824 net.cpp:157] Top shape: 4 6 36 48 (41472)
I1021 14:31:51.042438 29824 net.cpp:165] Memory required for data: 26303616
I1021 14:31:51.042443 29824 layer_factory.hpp:77] Creating layer label_3_3x5_data_5_split
I1021 14:31:51.042451 29824 net.cpp:100] Creating Layer label_3_3x5_data_5_split
I1021 14:31:51.042457 29824 net.cpp:434] label_3_3x5_data_5_split <- label_3_3x5
I1021 14:31:51.042465 29824 net.cpp:408] label_3_3x5_data_5_split -> label_3_3x5_data_5_split_0
I1021 14:31:51.042492 29824 net.cpp:408] label_3_3x5_data_5_split -> label_3_3x5_data_5_split_1
I1021 14:31:51.042542 29824 net.cpp:150] Setting up label_3_3x5_data_5_split
I1021 14:31:51.042551 29824 net.cpp:157] Top shape: 4 6 18 24 (10368)
I1021 14:31:51.042557 29824 net.cpp:157] Top shape: 4 6 18 24 (10368)
I1021 14:31:51.042559 29824 net.cpp:165] Memory required for data: 26386560
I1021 14:31:51.042562 29824 layer_factory.hpp:77] Creating layer label_3_5x7_data_6_split
I1021 14:31:51.042567 29824 net.cpp:100] Creating Layer label_3_5x7_data_6_split
I1021 14:31:51.042572 29824 net.cpp:434] label_3_5x7_data_6_split <- label_3_5x7
I1021 14:31:51.042577 29824 net.cpp:408] label_3_5x7_data_6_split -> label_3_5x7_data_6_split_0
I1021 14:31:51.042583 29824 net.cpp:408] label_3_5x7_data_6_split -> label_3_5x7_data_6_split_1
I1021 14:31:51.042616 29824 net.cpp:150] Setting up label_3_5x7_data_6_split
I1021 14:31:51.042623 29824 net.cpp:157] Top shape: 4 6 18 24 (10368)
I1021 14:31:51.042628 29824 net.cpp:157] Top shape: 4 6 18 24 (10368)
I1021 14:31:51.042630 29824 net.cpp:165] Memory required for data: 26469504
I1021 14:31:51.042634 29824 layer_factory.hpp:77] Creating layer label_4_3x5_data_7_split
I1021 14:31:51.042639 29824 net.cpp:100] Creating Layer label_4_3x5_data_7_split
I1021 14:31:51.042642 29824 net.cpp:434] label_4_3x5_data_7_split <- label_4_3x5
I1021 14:31:51.042647 29824 net.cpp:408] label_4_3x5_data_7_split -> label_4_3x5_data_7_split_0
I1021 14:31:51.042654 29824 net.cpp:408] label_4_3x5_data_7_split -> label_4_3x5_data_7_split_1
I1021 14:31:51.042685 29824 net.cpp:150] Setting up label_4_3x5_data_7_split
I1021 14:31:51.042692 29824 net.cpp:157] Top shape: 4 6 9 12 (2592)
I1021 14:31:51.042696 29824 net.cpp:157] Top shape: 4 6 9 12 (2592)
I1021 14:31:51.042699 29824 net.cpp:165] Memory required for data: 26490240
I1021 14:31:51.042702 29824 layer_factory.hpp:77] Creating layer conv1_1
I1021 14:31:51.042719 29824 net.cpp:100] Creating Layer conv1_1
I1021 14:31:51.042724 29824 net.cpp:434] conv1_1 <- data
I1021 14:31:51.042731 29824 net.cpp:408] conv1_1 -> conv1_1
I1021 14:31:53.398712 29824 net.cpp:150] Setting up conv1_1
I1021 14:31:53.398756 29824 net.cpp:157] Top shape: 4 64 576 768 (113246208)
I1021 14:31:53.398761 29824 net.cpp:165] Memory required for data: 479475072
I1021 14:31:53.398797 29824 layer_factory.hpp:77] Creating layer relu1_1
I1021 14:31:53.398813 29824 net.cpp:100] Creating Layer relu1_1
I1021 14:31:53.398819 29824 net.cpp:434] relu1_1 <- conv1_1
I1021 14:31:53.398828 29824 net.cpp:395] relu1_1 -> conv1_1 (in-place)
I1021 14:31:53.399193 29824 net.cpp:150] Setting up relu1_1
I1021 14:31:53.399210 29824 net.cpp:157] Top shape: 4 64 576 768 (113246208)
I1021 14:31:53.399214 29824 net.cpp:165] Memory required for data: 932459904
I1021 14:31:53.399219 29824 layer_factory.hpp:77] Creating layer conv1_2
I1021 14:31:53.399235 29824 net.cpp:100] Creating Layer conv1_2
I1021 14:31:53.399240 29824 net.cpp:434] conv1_2 <- conv1_1
I1021 14:31:53.399247 29824 net.cpp:408] conv1_2 -> conv1_2
I1021 14:31:53.410598 29824 net.cpp:150] Setting up conv1_2
I1021 14:31:53.410648 29824 net.cpp:157] Top shape: 4 64 576 768 (113246208)
I1021 14:31:53.410658 29824 net.cpp:165] Memory required for data: 1385444736
I1021 14:31:53.410691 29824 layer_factory.hpp:77] Creating layer relu1_2
I1021 14:31:53.410713 29824 net.cpp:100] Creating Layer relu1_2
I1021 14:31:53.410728 29824 net.cpp:434] relu1_2 <- conv1_2
I1021 14:31:53.410744 29824 net.cpp:395] relu1_2 -> conv1_2 (in-place)
I1021 14:31:53.411280 29824 net.cpp:150] Setting up relu1_2
I1021 14:31:53.411304 29824 net.cpp:157] Top shape: 4 64 576 768 (113246208)
I1021 14:31:53.411314 29824 net.cpp:165] Memory required for data: 1838429568
I1021 14:31:53.411321 29824 layer_factory.hpp:77] Creating layer pool1
I1021 14:31:53.411341 29824 net.cpp:100] Creating Layer pool1
I1021 14:31:53.411356 29824 net.cpp:434] pool1 <- conv1_2
I1021 14:31:53.411373 29824 net.cpp:408] pool1 -> pool1
I1021 14:31:53.411528 29824 net.cpp:150] Setting up pool1
I1021 14:31:53.411548 29824 net.cpp:157] Top shape: 4 64 288 384 (28311552)
I1021 14:31:53.411558 29824 net.cpp:165] Memory required for data: 1951675776
I1021 14:31:53.411569 29824 layer_factory.hpp:77] Creating layer conv2_1
I1021 14:31:53.411612 29824 net.cpp:100] Creating Layer conv2_1
I1021 14:31:53.411624 29824 net.cpp:434] conv2_1 <- pool1
I1021 14:31:53.411640 29824 net.cpp:408] conv2_1 -> conv2_1
I1021 14:31:53.415848 29824 net.cpp:150] Setting up conv2_1
I1021 14:31:53.415874 29824 net.cpp:157] Top shape: 4 128 288 384 (56623104)
I1021 14:31:53.415879 29824 net.cpp:165] Memory required for data: 2178168192
I1021 14:31:53.415896 29824 layer_factory.hpp:77] Creating layer relu2_1
I1021 14:31:53.415910 29824 net.cpp:100] Creating Layer relu2_1
I1021 14:31:53.415915 29824 net.cpp:434] relu2_1 <- conv2_1
I1021 14:31:53.415923 29824 net.cpp:395] relu2_1 -> conv2_1 (in-place)
I1021 14:31:53.416282 29824 net.cpp:150] Setting up relu2_1
I1021 14:31:53.416301 29824 net.cpp:157] Top shape: 4 128 288 384 (56623104)
I1021 14:31:53.416306 29824 net.cpp:165] Memory required for data: 2404660608
I1021 14:31:53.416311 29824 layer_factory.hpp:77] Creating layer conv2_2
I1021 14:31:53.416326 29824 net.cpp:100] Creating Layer conv2_2
I1021 14:31:53.416332 29824 net.cpp:434] conv2_2 <- conv2_1
I1021 14:31:53.416345 29824 net.cpp:408] conv2_2 -> conv2_2
I1021 14:31:53.419134 29824 net.cpp:150] Setting up conv2_2
I1021 14:31:53.419163 29824 net.cpp:157] Top shape: 4 128 288 384 (56623104)
I1021 14:31:53.419169 29824 net.cpp:165] Memory required for data: 2631153024
I1021 14:31:53.419181 29824 layer_factory.hpp:77] Creating layer relu2_2
I1021 14:31:53.419199 29824 net.cpp:100] Creating Layer relu2_2
I1021 14:31:53.419204 29824 net.cpp:434] relu2_2 <- conv2_2
I1021 14:31:53.419214 29824 net.cpp:395] relu2_2 -> conv2_2 (in-place)
I1021 14:31:53.419567 29824 net.cpp:150] Setting up relu2_2
I1021 14:31:53.419584 29824 net.cpp:157] Top shape: 4 128 288 384 (56623104)
I1021 14:31:53.419587 29824 net.cpp:165] Memory required for data: 2857645440
I1021 14:31:53.419592 29824 layer_factory.hpp:77] Creating layer pool2
I1021 14:31:53.419601 29824 net.cpp:100] Creating Layer pool2
I1021 14:31:53.419606 29824 net.cpp:434] pool2 <- conv2_2
I1021 14:31:53.419615 29824 net.cpp:408] pool2 -> pool2
I1021 14:31:53.419713 29824 net.cpp:150] Setting up pool2
I1021 14:31:53.419725 29824 net.cpp:157] Top shape: 4 128 144 192 (14155776)
I1021 14:31:53.419729 29824 net.cpp:165] Memory required for data: 2914268544
I1021 14:31:53.419734 29824 layer_factory.hpp:77] Creating layer conv3_1
I1021 14:31:53.419752 29824 net.cpp:100] Creating Layer conv3_1
I1021 14:31:53.419764 29824 net.cpp:434] conv3_1 <- pool2
I1021 14:31:53.419776 29824 net.cpp:408] conv3_1 -> conv3_1
I1021 14:31:53.423894 29824 net.cpp:150] Setting up conv3_1
I1021 14:31:53.423918 29824 net.cpp:157] Top shape: 4 256 144 192 (28311552)
I1021 14:31:53.423923 29824 net.cpp:165] Memory required for data: 3027514752
I1021 14:31:53.423940 29824 layer_factory.hpp:77] Creating layer relu3_1
I1021 14:31:53.423949 29824 net.cpp:100] Creating Layer relu3_1
I1021 14:31:53.423955 29824 net.cpp:434] relu3_1 <- conv3_1
I1021 14:31:53.423962 29824 net.cpp:395] relu3_1 -> conv3_1 (in-place)
I1021 14:31:53.424815 29824 net.cpp:150] Setting up relu3_1
I1021 14:31:53.424835 29824 net.cpp:157] Top shape: 4 256 144 192 (28311552)
I1021 14:31:53.424840 29824 net.cpp:165] Memory required for data: 3140760960
I1021 14:31:53.424845 29824 layer_factory.hpp:77] Creating layer conv3_2
I1021 14:31:53.424859 29824 net.cpp:100] Creating Layer conv3_2
I1021 14:31:53.424865 29824 net.cpp:434] conv3_2 <- conv3_1
I1021 14:31:53.424878 29824 net.cpp:408] conv3_2 -> conv3_2
I1021 14:31:53.430258 29824 net.cpp:150] Setting up conv3_2
I1021 14:31:53.430299 29824 net.cpp:157] Top shape: 4 256 144 192 (28311552)
I1021 14:31:53.430310 29824 net.cpp:165] Memory required for data: 3254007168
I1021 14:31:53.430322 29824 layer_factory.hpp:77] Creating layer relu3_2
I1021 14:31:53.430335 29824 net.cpp:100] Creating Layer relu3_2
I1021 14:31:53.430344 29824 net.cpp:434] relu3_2 <- conv3_2
I1021 14:31:53.430358 29824 net.cpp:395] relu3_2 -> conv3_2 (in-place)
I1021 14:31:53.431397 29824 net.cpp:150] Setting up relu3_2
I1021 14:31:53.431421 29824 net.cpp:157] Top shape: 4 256 144 192 (28311552)
I1021 14:31:53.431426 29824 net.cpp:165] Memory required for data: 3367253376
I1021 14:31:53.431430 29824 layer_factory.hpp:77] Creating layer conv3_3
I1021 14:31:53.431449 29824 net.cpp:100] Creating Layer conv3_3
I1021 14:31:53.431463 29824 net.cpp:434] conv3_3 <- conv3_2
I1021 14:31:53.431478 29824 net.cpp:408] conv3_3 -> conv3_3
I1021 14:31:53.436269 29824 net.cpp:150] Setting up conv3_3
I1021 14:31:53.436303 29824 net.cpp:157] Top shape: 4 256 144 192 (28311552)
I1021 14:31:53.436308 29824 net.cpp:165] Memory required for data: 3480499584
I1021 14:31:53.436321 29824 layer_factory.hpp:77] Creating layer relu3_3
I1021 14:31:53.436332 29824 net.cpp:100] Creating Layer relu3_3
I1021 14:31:53.436339 29824 net.cpp:434] relu3_3 <- conv3_3
I1021 14:31:53.436352 29824 net.cpp:395] relu3_3 -> conv3_3 (in-place)
I1021 14:31:53.436673 29824 net.cpp:150] Setting up relu3_3
I1021 14:31:53.436688 29824 net.cpp:157] Top shape: 4 256 144 192 (28311552)
I1021 14:31:53.436692 29824 net.cpp:165] Memory required for data: 3593745792
I1021 14:31:53.436697 29824 layer_factory.hpp:77] Creating layer pool3
I1021 14:31:53.436707 29824 net.cpp:100] Creating Layer pool3
I1021 14:31:53.436712 29824 net.cpp:434] pool3 <- conv3_3
I1021 14:31:53.436720 29824 net.cpp:408] pool3 -> pool3
I1021 14:31:53.436836 29824 net.cpp:150] Setting up pool3
I1021 14:31:53.436852 29824 net.cpp:157] Top shape: 4 256 72 96 (7077888)
I1021 14:31:53.436856 29824 net.cpp:165] Memory required for data: 3622057344
I1021 14:31:53.436861 29824 layer_factory.hpp:77] Creating layer conv4_1
I1021 14:31:53.436880 29824 net.cpp:100] Creating Layer conv4_1
I1021 14:31:53.436892 29824 net.cpp:434] conv4_1 <- pool3
I1021 14:31:53.436904 29824 net.cpp:408] conv4_1 -> conv4_1
I1021 14:31:53.444034 29824 net.cpp:150] Setting up conv4_1
I1021 14:31:53.444059 29824 net.cpp:157] Top shape: 4 512 72 96 (14155776)
I1021 14:31:53.444064 29824 net.cpp:165] Memory required for data: 3678680448
I1021 14:31:53.444074 29824 layer_factory.hpp:77] Creating layer relu4_1
I1021 14:31:53.444084 29824 net.cpp:100] Creating Layer relu4_1
I1021 14:31:53.444089 29824 net.cpp:434] relu4_1 <- conv4_1
I1021 14:31:53.444098 29824 net.cpp:395] relu4_1 -> conv4_1 (in-place)
I1021 14:31:53.444407 29824 net.cpp:150] Setting up relu4_1
I1021 14:31:53.444422 29824 net.cpp:157] Top shape: 4 512 72 96 (14155776)
I1021 14:31:53.444427 29824 net.cpp:165] Memory required for data: 3735303552
I1021 14:31:53.444430 29824 layer_factory.hpp:77] Creating layer conv4_2
I1021 14:31:53.444442 29824 net.cpp:100] Creating Layer conv4_2
I1021 14:31:53.444447 29824 net.cpp:434] conv4_2 <- conv4_1
I1021 14:31:53.444459 29824 net.cpp:408] conv4_2 -> conv4_2
I1021 14:31:53.453425 29824 net.cpp:150] Setting up conv4_2
I1021 14:31:53.453459 29824 net.cpp:157] Top shape: 4 512 72 96 (14155776)
I1021 14:31:53.453464 29824 net.cpp:165] Memory required for data: 3791926656
I1021 14:31:53.453483 29824 layer_factory.hpp:77] Creating layer relu4_2
I1021 14:31:53.453496 29824 net.cpp:100] Creating Layer relu4_2
I1021 14:31:53.453502 29824 net.cpp:434] relu4_2 <- conv4_2
I1021 14:31:53.453513 29824 net.cpp:395] relu4_2 -> conv4_2 (in-place)
I1021 14:31:53.453795 29824 net.cpp:150] Setting up relu4_2
I1021 14:31:53.453809 29824 net.cpp:157] Top shape: 4 512 72 96 (14155776)
I1021 14:31:53.453812 29824 net.cpp:165] Memory required for data: 3848549760
I1021 14:31:53.453817 29824 layer_factory.hpp:77] Creating layer conv4_3
I1021 14:31:53.453830 29824 net.cpp:100] Creating Layer conv4_3
I1021 14:31:53.453835 29824 net.cpp:434] conv4_3 <- conv4_2
I1021 14:31:53.453841 29824 net.cpp:408] conv4_3 -> conv4_3
I1021 14:31:53.461748 29824 net.cpp:150] Setting up conv4_3
I1021 14:31:53.461781 29824 net.cpp:157] Top shape: 4 512 72 96 (14155776)
I1021 14:31:53.461784 29824 net.cpp:165] Memory required for data: 3905172864
I1021 14:31:53.461796 29824 layer_factory.hpp:77] Creating layer relu4_3
I1021 14:31:53.461809 29824 net.cpp:100] Creating Layer relu4_3
I1021 14:31:53.461815 29824 net.cpp:434] relu4_3 <- conv4_3
I1021 14:31:53.461822 29824 net.cpp:395] relu4_3 -> conv4_3 (in-place)
I1021 14:31:53.462139 29824 net.cpp:150] Setting up relu4_3
I1021 14:31:53.462159 29824 net.cpp:157] Top shape: 4 512 72 96 (14155776)
I1021 14:31:53.462164 29824 net.cpp:165] Memory required for data: 3961795968
I1021 14:31:53.462172 29824 layer_factory.hpp:77] Creating layer conv4_3_relu4_3_0_split
I1021 14:31:53.462185 29824 net.cpp:100] Creating Layer conv4_3_relu4_3_0_split
I1021 14:31:53.462193 29824 net.cpp:434] conv4_3_relu4_3_0_split <- conv4_3
I1021 14:31:53.462204 29824 net.cpp:408] conv4_3_relu4_3_0_split -> conv4_3_relu4_3_0_split_0
I1021 14:31:53.462218 29824 net.cpp:408] conv4_3_relu4_3_0_split -> conv4_3_relu4_3_0_split_1
I1021 14:31:53.462301 29824 net.cpp:150] Setting up conv4_3_relu4_3_0_split
I1021 14:31:53.462316 29824 net.cpp:157] Top shape: 4 512 72 96 (14155776)
I1021 14:31:53.462323 29824 net.cpp:157] Top shape: 4 512 72 96 (14155776)
I1021 14:31:53.462329 29824 net.cpp:165] Memory required for data: 4075042176
I1021 14:31:53.462335 29824 layer_factory.hpp:77] Creating layer loss1_conv1
I1021 14:31:53.462366 29824 net.cpp:100] Creating Layer loss1_conv1
I1021 14:31:53.462376 29824 net.cpp:434] loss1_conv1 <- conv4_3_relu4_3_0_split_0
I1021 14:31:53.462389 29824 net.cpp:408] loss1_conv1 -> loss1_conv1
I1021 14:31:53.495525 29824 net.cpp:150] Setting up loss1_conv1
I1021 14:31:53.495566 29824 net.cpp:157] Top shape: 4 512 72 96 (14155776)
I1021 14:31:53.495571 29824 net.cpp:165] Memory required for data: 4131665280
I1021 14:31:53.495586 29824 layer_factory.hpp:77] Creating layer loss_relu1
I1021 14:31:53.495605 29824 net.cpp:100] Creating Layer loss_relu1
I1021 14:31:53.495617 29824 net.cpp:434] loss_relu1 <- loss1_conv1
I1021 14:31:53.495632 29824 net.cpp:395] loss_relu1 -> loss1_conv1 (in-place)
I1021 14:31:53.496491 29824 net.cpp:150] Setting up loss_relu1
I1021 14:31:53.496515 29824 net.cpp:157] Top shape: 4 512 72 96 (14155776)
I1021 14:31:53.496522 29824 net.cpp:165] Memory required for data: 4188288384
I1021 14:31:53.496528 29824 layer_factory.hpp:77] Creating layer loss1_conv1_loss_relu1_0_split
I1021 14:31:53.496538 29824 net.cpp:100] Creating Layer loss1_conv1_loss_relu1_0_split
I1021 14:31:53.496546 29824 net.cpp:434] loss1_conv1_loss_relu1_0_split <- loss1_conv1
I1021 14:31:53.496556 29824 net.cpp:408] loss1_conv1_loss_relu1_0_split -> loss1_conv1_loss_relu1_0_split_0
I1021 14:31:53.496572 29824 net.cpp:408] loss1_conv1_loss_relu1_0_split -> loss1_conv1_loss_relu1_0_split_1
I1021 14:31:53.496641 29824 net.cpp:150] Setting up loss1_conv1_loss_relu1_0_split
I1021 14:31:53.496650 29824 net.cpp:157] Top shape: 4 512 72 96 (14155776)
I1021 14:31:53.496654 29824 net.cpp:157] Top shape: 4 512 72 96 (14155776)
I1021 14:31:53.496656 29824 net.cpp:165] Memory required for data: 4301534592
I1021 14:31:53.496661 29824 layer_factory.hpp:77] Creating layer LFCN_1_3x5
I1021 14:31:53.496678 29824 net.cpp:100] Creating Layer LFCN_1_3x5
I1021 14:31:53.496688 29824 net.cpp:434] LFCN_1_3x5 <- loss1_conv1_loss_relu1_0_split_0
I1021 14:31:53.496698 29824 net.cpp:408] LFCN_1_3x5 -> LFCN_1_3x5
I1021 14:31:53.498211 29824 net.cpp:150] Setting up LFCN_1_3x5
I1021 14:31:53.498229 29824 net.cpp:157] Top shape: 4 7 72 96 (193536)
I1021 14:31:53.498232 29824 net.cpp:165] Memory required for data: 4302308736
I1021 14:31:53.498240 29824 layer_factory.hpp:77] Creating layer LFCN_1_3x5_LFCN_1_3x5_0_split
I1021 14:31:53.498250 29824 net.cpp:100] Creating Layer LFCN_1_3x5_LFCN_1_3x5_0_split
I1021 14:31:53.498258 29824 net.cpp:434] LFCN_1_3x5_LFCN_1_3x5_0_split <- LFCN_1_3x5
I1021 14:31:53.498268 29824 net.cpp:408] LFCN_1_3x5_LFCN_1_3x5_0_split -> LFCN_1_3x5_LFCN_1_3x5_0_split_0
I1021 14:31:53.498283 29824 net.cpp:408] LFCN_1_3x5_LFCN_1_3x5_0_split -> LFCN_1_3x5_LFCN_1_3x5_0_split_1
I1021 14:31:53.498350 29824 net.cpp:150] Setting up LFCN_1_3x5_LFCN_1_3x5_0_split
I1021 14:31:53.498359 29824 net.cpp:157] Top shape: 4 7 72 96 (193536)
I1021 14:31:53.498363 29824 net.cpp:157] Top shape: 4 7 72 96 (193536)
I1021 14:31:53.498368 29824 net.cpp:165] Memory required for data: 4303857024
I1021 14:31:53.498371 29824 layer_factory.hpp:77] Creating layer detection_loss_1_3x5
I1021 14:31:53.498389 29824 net.cpp:100] Creating Layer detection_loss_1_3x5
I1021 14:31:53.498397 29824 net.cpp:434] detection_loss_1_3x5 <- LFCN_1_3x5_LFCN_1_3x5_0_split_0
I1021 14:31:53.498406 29824 net.cpp:434] detection_loss_1_3x5 <- label_1_3x5_data_1_split_0
I1021 14:31:53.498417 29824 net.cpp:408] detection_loss_1_3x5 -> loss_1_3x5
I1021 14:31:53.498450 29824 layer_factory.hpp:77] Creating layer detection_loss_1_3x5
I1021 14:31:53.499378 29824 net.cpp:150] Setting up detection_loss_1_3x5
I1021 14:31:53.499395 29824 net.cpp:157] Top shape: 1 1 1 2 (2)
I1021 14:31:53.499398 29824 net.cpp:160]     with loss weight 0.9
I1021 14:31:53.499439 29824 net.cpp:165] Memory required for data: 4303857032
I1021 14:31:53.499445 29824 layer_factory.hpp:77] Creating layer detection_accuracy_1_3x5
I1021 14:31:53.499460 29824 net.cpp:100] Creating Layer detection_accuracy_1_3x5
I1021 14:31:53.499470 29824 net.cpp:434] detection_accuracy_1_3x5 <- LFCN_1_3x5_LFCN_1_3x5_0_split_1
I1021 14:31:53.499480 29824 net.cpp:434] detection_accuracy_1_3x5 <- label_1_3x5_data_1_split_1
I1021 14:31:53.499491 29824 net.cpp:408] detection_accuracy_1_3x5 -> accuracy_1_3x5
I1021 14:31:53.499510 29824 net.cpp:408] detection_accuracy_1_3x5 -> boxiou_1_3x5
I1021 14:31:53.499572 29824 net.cpp:150] Setting up detection_accuracy_1_3x5
I1021 14:31:53.499580 29824 net.cpp:157] Top shape: 1 1 1 2 (2)
I1021 14:31:53.499584 29824 net.cpp:157] Top shape: 1 1 1 1 (1)
I1021 14:31:53.499586 29824 net.cpp:165] Memory required for data: 4303857044
I1021 14:31:53.499590 29824 layer_factory.hpp:77] Creating layer LFCN_1_5x7
I1021 14:31:53.499600 29824 net.cpp:100] Creating Layer LFCN_1_5x7
I1021 14:31:53.499605 29824 net.cpp:434] LFCN_1_5x7 <- loss1_conv1_loss_relu1_0_split_1
I1021 14:31:53.499614 29824 net.cpp:408] LFCN_1_5x7 -> LFCN_1_5x7
I1021 14:31:53.502264 29824 net.cpp:150] Setting up LFCN_1_5x7
I1021 14:31:53.502280 29824 net.cpp:157] Top shape: 4 7 72 96 (193536)
I1021 14:31:53.502285 29824 net.cpp:165] Memory required for data: 4304631188
I1021 14:31:53.502291 29824 layer_factory.hpp:77] Creating layer LFCN_1_5x7_LFCN_1_5x7_0_split
I1021 14:31:53.502301 29824 net.cpp:100] Creating Layer LFCN_1_5x7_LFCN_1_5x7_0_split
I1021 14:31:53.502305 29824 net.cpp:434] LFCN_1_5x7_LFCN_1_5x7_0_split <- LFCN_1_5x7
I1021 14:31:53.502311 29824 net.cpp:408] LFCN_1_5x7_LFCN_1_5x7_0_split -> LFCN_1_5x7_LFCN_1_5x7_0_split_0
I1021 14:31:53.502319 29824 net.cpp:408] LFCN_1_5x7_LFCN_1_5x7_0_split -> LFCN_1_5x7_LFCN_1_5x7_0_split_1
I1021 14:31:53.502367 29824 net.cpp:150] Setting up LFCN_1_5x7_LFCN_1_5x7_0_split
I1021 14:31:53.502373 29824 net.cpp:157] Top shape: 4 7 72 96 (193536)
I1021 14:31:53.502377 29824 net.cpp:157] Top shape: 4 7 72 96 (193536)
I1021 14:31:53.502379 29824 net.cpp:165] Memory required for data: 4306179476
I1021 14:31:53.502382 29824 layer_factory.hpp:77] Creating layer detection_loss_1_5x7
I1021 14:31:53.502388 29824 net.cpp:100] Creating Layer detection_loss_1_5x7
I1021 14:31:53.502393 29824 net.cpp:434] detection_loss_1_5x7 <- LFCN_1_5x7_LFCN_1_5x7_0_split_0
I1021 14:31:53.502396 29824 net.cpp:434] detection_loss_1_5x7 <- label_1_5x7_data_2_split_0
I1021 14:31:53.502403 29824 net.cpp:408] detection_loss_1_5x7 -> loss_1_5x7
I1021 14:31:53.502410 29824 layer_factory.hpp:77] Creating layer detection_loss_1_5x7
I1021 14:31:53.502853 29824 net.cpp:150] Setting up detection_loss_1_5x7
I1021 14:31:53.502864 29824 net.cpp:157] Top shape: 1 1 1 2 (2)
I1021 14:31:53.502866 29824 net.cpp:160]     with loss weight 0.9
I1021 14:31:53.502873 29824 net.cpp:165] Memory required for data: 4306179484
I1021 14:31:53.502876 29824 layer_factory.hpp:77] Creating layer detection_accuracy_1_5x7
I1021 14:31:53.502883 29824 net.cpp:100] Creating Layer detection_accuracy_1_5x7
I1021 14:31:53.502887 29824 net.cpp:434] detection_accuracy_1_5x7 <- LFCN_1_5x7_LFCN_1_5x7_0_split_1
I1021 14:31:53.502892 29824 net.cpp:434] detection_accuracy_1_5x7 <- label_1_5x7_data_2_split_1
I1021 14:31:53.502897 29824 net.cpp:408] detection_accuracy_1_5x7 -> accuracy_1_5x7
I1021 14:31:53.502908 29824 net.cpp:408] detection_accuracy_1_5x7 -> boxiou_1_5x7
I1021 14:31:53.502951 29824 net.cpp:150] Setting up detection_accuracy_1_5x7
I1021 14:31:53.502957 29824 net.cpp:157] Top shape: 1 1 1 2 (2)
I1021 14:31:53.502961 29824 net.cpp:157] Top shape: 1 1 1 1 (1)
I1021 14:31:53.502964 29824 net.cpp:165] Memory required for data: 4306179496
I1021 14:31:53.502966 29824 layer_factory.hpp:77] Creating layer pool4
I1021 14:31:53.502976 29824 net.cpp:100] Creating Layer pool4
I1021 14:31:53.502980 29824 net.cpp:434] pool4 <- conv4_3_relu4_3_0_split_1
I1021 14:31:53.502985 29824 net.cpp:408] pool4 -> pool4
I1021 14:31:53.503027 29824 net.cpp:150] Setting up pool4
I1021 14:31:53.503034 29824 net.cpp:157] Top shape: 4 512 36 48 (3538944)
I1021 14:31:53.503036 29824 net.cpp:165] Memory required for data: 4320335272
I1021 14:31:53.503039 29824 layer_factory.hpp:77] Creating layer conv5_1
I1021 14:31:53.503047 29824 net.cpp:100] Creating Layer conv5_1
I1021 14:31:53.503051 29824 net.cpp:434] conv5_1 <- pool4
I1021 14:31:53.503056 29824 net.cpp:408] conv5_1 -> conv5_1
I1021 14:31:53.510588 29824 net.cpp:150] Setting up conv5_1
I1021 14:31:53.510619 29824 net.cpp:157] Top shape: 4 512 36 48 (3538944)
I1021 14:31:53.510622 29824 net.cpp:165] Memory required for data: 4334491048
I1021 14:31:53.510632 29824 layer_factory.hpp:77] Creating layer relu5_1
I1021 14:31:53.510643 29824 net.cpp:100] Creating Layer relu5_1
I1021 14:31:53.510649 29824 net.cpp:434] relu5_1 <- conv5_1
I1021 14:31:53.510658 29824 net.cpp:395] relu5_1 -> conv5_1 (in-place)
I1021 14:31:53.510896 29824 net.cpp:150] Setting up relu5_1
I1021 14:31:53.510906 29824 net.cpp:157] Top shape: 4 512 36 48 (3538944)
I1021 14:31:53.510910 29824 net.cpp:165] Memory required for data: 4348646824
I1021 14:31:53.510912 29824 layer_factory.hpp:77] Creating layer conv5_2
I1021 14:31:53.510922 29824 net.cpp:100] Creating Layer conv5_2
I1021 14:31:53.510927 29824 net.cpp:434] conv5_2 <- conv5_1
I1021 14:31:53.510934 29824 net.cpp:408] conv5_2 -> conv5_2
I1021 14:31:53.517065 29824 net.cpp:150] Setting up conv5_2
I1021 14:31:53.517086 29824 net.cpp:157] Top shape: 4 512 36 48 (3538944)
I1021 14:31:53.517088 29824 net.cpp:165] Memory required for data: 4362802600
I1021 14:31:53.517096 29824 layer_factory.hpp:77] Creating layer relu5_2
I1021 14:31:53.517102 29824 net.cpp:100] Creating Layer relu5_2
I1021 14:31:53.517107 29824 net.cpp:434] relu5_2 <- conv5_2
I1021 14:31:53.517113 29824 net.cpp:395] relu5_2 -> conv5_2 (in-place)
I1021 14:31:53.517307 29824 net.cpp:150] Setting up relu5_2
I1021 14:31:53.517315 29824 net.cpp:157] Top shape: 4 512 36 48 (3538944)
I1021 14:31:53.517318 29824 net.cpp:165] Memory required for data: 4376958376
I1021 14:31:53.517321 29824 layer_factory.hpp:77] Creating layer conv5_3
I1021 14:31:53.517329 29824 net.cpp:100] Creating Layer conv5_3
I1021 14:31:53.517333 29824 net.cpp:434] conv5_3 <- conv5_2
I1021 14:31:53.517338 29824 net.cpp:408] conv5_3 -> conv5_3
I1021 14:31:53.524950 29824 net.cpp:150] Setting up conv5_3
I1021 14:31:53.524984 29824 net.cpp:157] Top shape: 4 512 36 48 (3538944)
I1021 14:31:53.524991 29824 net.cpp:165] Memory required for data: 4391114152
I1021 14:31:53.525004 29824 layer_factory.hpp:77] Creating layer relu5_3
I1021 14:31:53.525020 29824 net.cpp:100] Creating Layer relu5_3
I1021 14:31:53.525030 29824 net.cpp:434] relu5_3 <- conv5_3
I1021 14:31:53.525040 29824 net.cpp:395] relu5_3 -> conv5_3 (in-place)
I1021 14:31:53.525290 29824 net.cpp:150] Setting up relu5_3
I1021 14:31:53.525306 29824 net.cpp:157] Top shape: 4 512 36 48 (3538944)
I1021 14:31:53.525315 29824 net.cpp:165] Memory required for data: 4405269928
I1021 14:31:53.525321 29824 layer_factory.hpp:77] Creating layer conv5_3_relu5_3_0_split
I1021 14:31:53.525331 29824 net.cpp:100] Creating Layer conv5_3_relu5_3_0_split
I1021 14:31:53.525338 29824 net.cpp:434] conv5_3_relu5_3_0_split <- conv5_3
I1021 14:31:53.525354 29824 net.cpp:408] conv5_3_relu5_3_0_split -> conv5_3_relu5_3_0_split_0
I1021 14:31:53.525367 29824 net.cpp:408] conv5_3_relu5_3_0_split -> conv5_3_relu5_3_0_split_1
I1021 14:31:53.525379 29824 net.cpp:408] conv5_3_relu5_3_0_split -> conv5_3_relu5_3_0_split_2
I1021 14:31:53.525454 29824 net.cpp:150] Setting up conv5_3_relu5_3_0_split
I1021 14:31:53.525465 29824 net.cpp:157] Top shape: 4 512 36 48 (3538944)
I1021 14:31:53.525471 29824 net.cpp:157] Top shape: 4 512 36 48 (3538944)
I1021 14:31:53.525476 29824 net.cpp:157] Top shape: 4 512 36 48 (3538944)
I1021 14:31:53.525480 29824 net.cpp:165] Memory required for data: 4447737256
I1021 14:31:53.525485 29824 layer_factory.hpp:77] Creating layer LFCN_2_3x5
I1021 14:31:53.525501 29824 net.cpp:100] Creating Layer LFCN_2_3x5
I1021 14:31:53.525509 29824 net.cpp:434] LFCN_2_3x5 <- conv5_3_relu5_3_0_split_0
I1021 14:31:53.525522 29824 net.cpp:408] LFCN_2_3x5 -> LFCN_2_3x5
I1021 14:31:53.527900 29824 net.cpp:150] Setting up LFCN_2_3x5
I1021 14:31:53.527916 29824 net.cpp:157] Top shape: 4 7 36 48 (48384)
I1021 14:31:53.527920 29824 net.cpp:165] Memory required for data: 4447930792
I1021 14:31:53.527938 29824 layer_factory.hpp:77] Creating layer LFCN_2_3x5_LFCN_2_3x5_0_split
I1021 14:31:53.527954 29824 net.cpp:100] Creating Layer LFCN_2_3x5_LFCN_2_3x5_0_split
I1021 14:31:53.527962 29824 net.cpp:434] LFCN_2_3x5_LFCN_2_3x5_0_split <- LFCN_2_3x5
I1021 14:31:53.527971 29824 net.cpp:408] LFCN_2_3x5_LFCN_2_3x5_0_split -> LFCN_2_3x5_LFCN_2_3x5_0_split_0
I1021 14:31:53.527983 29824 net.cpp:408] LFCN_2_3x5_LFCN_2_3x5_0_split -> LFCN_2_3x5_LFCN_2_3x5_0_split_1
I1021 14:31:53.528038 29824 net.cpp:150] Setting up LFCN_2_3x5_LFCN_2_3x5_0_split
I1021 14:31:53.528044 29824 net.cpp:157] Top shape: 4 7 36 48 (48384)
I1021 14:31:53.528048 29824 net.cpp:157] Top shape: 4 7 36 48 (48384)
I1021 14:31:53.528050 29824 net.cpp:165] Memory required for data: 4448317864
I1021 14:31:53.528053 29824 layer_factory.hpp:77] Creating layer detection_loss_2_3x5
I1021 14:31:53.528060 29824 net.cpp:100] Creating Layer detection_loss_2_3x5
I1021 14:31:53.528064 29824 net.cpp:434] detection_loss_2_3x5 <- LFCN_2_3x5_LFCN_2_3x5_0_split_0
I1021 14:31:53.528086 29824 net.cpp:434] detection_loss_2_3x5 <- label_2_3x5_data_3_split_0
I1021 14:31:53.528092 29824 net.cpp:408] detection_loss_2_3x5 -> loss_2_3x5
I1021 14:31:53.528101 29824 layer_factory.hpp:77] Creating layer detection_loss_2_3x5
I1021 14:31:53.528903 29824 net.cpp:150] Setting up detection_loss_2_3x5
I1021 14:31:53.528918 29824 net.cpp:157] Top shape: 1 1 1 2 (2)
I1021 14:31:53.528920 29824 net.cpp:160]     with loss weight 1
I1021 14:31:53.528931 29824 net.cpp:165] Memory required for data: 4448317872
I1021 14:31:53.528934 29824 layer_factory.hpp:77] Creating layer detection_accuracy_2_3x5
I1021 14:31:53.528942 29824 net.cpp:100] Creating Layer detection_accuracy_2_3x5
I1021 14:31:53.528945 29824 net.cpp:434] detection_accuracy_2_3x5 <- LFCN_2_3x5_LFCN_2_3x5_0_split_1
I1021 14:31:53.528950 29824 net.cpp:434] detection_accuracy_2_3x5 <- label_2_3x5_data_3_split_1
I1021 14:31:53.528957 29824 net.cpp:408] detection_accuracy_2_3x5 -> accuracy_2_3x5
I1021 14:31:53.528964 29824 net.cpp:408] detection_accuracy_2_3x5 -> boxiou_2_3x5
I1021 14:31:53.529019 29824 net.cpp:150] Setting up detection_accuracy_2_3x5
I1021 14:31:53.529026 29824 net.cpp:157] Top shape: 1 1 1 2 (2)
I1021 14:31:53.529029 29824 net.cpp:157] Top shape: 1 1 1 1 (1)
I1021 14:31:53.529032 29824 net.cpp:165] Memory required for data: 4448317884
I1021 14:31:53.529034 29824 layer_factory.hpp:77] Creating layer LFCN_2_5x7
I1021 14:31:53.529044 29824 net.cpp:100] Creating Layer LFCN_2_5x7
I1021 14:31:53.529047 29824 net.cpp:434] LFCN_2_5x7 <- conv5_3_relu5_3_0_split_1
I1021 14:31:53.529053 29824 net.cpp:408] LFCN_2_5x7 -> LFCN_2_5x7
I1021 14:31:53.532155 29824 net.cpp:150] Setting up LFCN_2_5x7
I1021 14:31:53.532184 29824 net.cpp:157] Top shape: 4 7 36 48 (48384)
I1021 14:31:53.532187 29824 net.cpp:165] Memory required for data: 4448511420
I1021 14:31:53.532196 29824 layer_factory.hpp:77] Creating layer LFCN_2_5x7_LFCN_2_5x7_0_split
I1021 14:31:53.532204 29824 net.cpp:100] Creating Layer LFCN_2_5x7_LFCN_2_5x7_0_split
I1021 14:31:53.532208 29824 net.cpp:434] LFCN_2_5x7_LFCN_2_5x7_0_split <- LFCN_2_5x7
I1021 14:31:53.532215 29824 net.cpp:408] LFCN_2_5x7_LFCN_2_5x7_0_split -> LFCN_2_5x7_LFCN_2_5x7_0_split_0
I1021 14:31:53.532223 29824 net.cpp:408] LFCN_2_5x7_LFCN_2_5x7_0_split -> LFCN_2_5x7_LFCN_2_5x7_0_split_1
I1021 14:31:53.532271 29824 net.cpp:150] Setting up LFCN_2_5x7_LFCN_2_5x7_0_split
I1021 14:31:53.532279 29824 net.cpp:157] Top shape: 4 7 36 48 (48384)
I1021 14:31:53.532281 29824 net.cpp:157] Top shape: 4 7 36 48 (48384)
I1021 14:31:53.532284 29824 net.cpp:165] Memory required for data: 4448898492
I1021 14:31:53.532286 29824 layer_factory.hpp:77] Creating layer detection_loss_2_5x7
I1021 14:31:53.532294 29824 net.cpp:100] Creating Layer detection_loss_2_5x7
I1021 14:31:53.532299 29824 net.cpp:434] detection_loss_2_5x7 <- LFCN_2_5x7_LFCN_2_5x7_0_split_0
I1021 14:31:53.532304 29824 net.cpp:434] detection_loss_2_5x7 <- label_2_5x7_data_4_split_0
I1021 14:31:53.532308 29824 net.cpp:408] detection_loss_2_5x7 -> loss_2_5x7
I1021 14:31:53.532316 29824 layer_factory.hpp:77] Creating layer detection_loss_2_5x7
I1021 14:31:53.533169 29824 net.cpp:150] Setting up detection_loss_2_5x7
I1021 14:31:53.533185 29824 net.cpp:157] Top shape: 1 1 1 2 (2)
I1021 14:31:53.533187 29824 net.cpp:160]     with loss weight 1
I1021 14:31:53.533198 29824 net.cpp:165] Memory required for data: 4448898500
I1021 14:31:53.533201 29824 layer_factory.hpp:77] Creating layer detection_accuracy_2_5x7
I1021 14:31:53.533210 29824 net.cpp:100] Creating Layer detection_accuracy_2_5x7
I1021 14:31:53.533215 29824 net.cpp:434] detection_accuracy_2_5x7 <- LFCN_2_5x7_LFCN_2_5x7_0_split_1
I1021 14:31:53.533219 29824 net.cpp:434] detection_accuracy_2_5x7 <- label_2_5x7_data_4_split_1
I1021 14:31:53.533226 29824 net.cpp:408] detection_accuracy_2_5x7 -> accuracy_2_5x7
I1021 14:31:53.533233 29824 net.cpp:408] detection_accuracy_2_5x7 -> boxiou_2_5x7
I1021 14:31:53.533280 29824 net.cpp:150] Setting up detection_accuracy_2_5x7
I1021 14:31:53.533288 29824 net.cpp:157] Top shape: 1 1 1 2 (2)
I1021 14:31:53.533291 29824 net.cpp:157] Top shape: 1 1 1 1 (1)
I1021 14:31:53.533293 29824 net.cpp:165] Memory required for data: 4448898512
I1021 14:31:53.533296 29824 layer_factory.hpp:77] Creating layer pool5
I1021 14:31:53.533303 29824 net.cpp:100] Creating Layer pool5
I1021 14:31:53.533305 29824 net.cpp:434] pool5 <- conv5_3_relu5_3_0_split_2
I1021 14:31:53.533311 29824 net.cpp:408] pool5 -> pool5
I1021 14:31:53.533350 29824 net.cpp:150] Setting up pool5
I1021 14:31:53.533356 29824 net.cpp:157] Top shape: 4 512 18 24 (884736)
I1021 14:31:53.533360 29824 net.cpp:165] Memory required for data: 4452437456
I1021 14:31:53.533361 29824 layer_factory.hpp:77] Creating layer conv6_1
I1021 14:31:53.533372 29824 net.cpp:100] Creating Layer conv6_1
I1021 14:31:53.533377 29824 net.cpp:434] conv6_1 <- pool5
I1021 14:31:53.533385 29824 net.cpp:408] conv6_1 -> conv6_1
I1021 14:31:53.560528 29824 net.cpp:150] Setting up conv6_1
I1021 14:31:53.560555 29824 net.cpp:157] Top shape: 4 512 18 24 (884736)
I1021 14:31:53.560557 29824 net.cpp:165] Memory required for data: 4455976400
I1021 14:31:53.560566 29824 layer_factory.hpp:77] Creating layer relu6_1
I1021 14:31:53.560575 29824 net.cpp:100] Creating Layer relu6_1
I1021 14:31:53.560580 29824 net.cpp:434] relu6_1 <- conv6_1
I1021 14:31:53.560587 29824 net.cpp:395] relu6_1 -> conv6_1 (in-place)
I1021 14:31:53.560787 29824 net.cpp:150] Setting up relu6_1
I1021 14:31:53.560798 29824 net.cpp:157] Top shape: 4 512 18 24 (884736)
I1021 14:31:53.560801 29824 net.cpp:165] Memory required for data: 4459515344
I1021 14:31:53.560803 29824 layer_factory.hpp:77] Creating layer conv6_1_relu6_1_0_split
I1021 14:31:53.560811 29824 net.cpp:100] Creating Layer conv6_1_relu6_1_0_split
I1021 14:31:53.560816 29824 net.cpp:434] conv6_1_relu6_1_0_split <- conv6_1
I1021 14:31:53.560825 29824 net.cpp:408] conv6_1_relu6_1_0_split -> conv6_1_relu6_1_0_split_0
I1021 14:31:53.560848 29824 net.cpp:408] conv6_1_relu6_1_0_split -> conv6_1_relu6_1_0_split_1
I1021 14:31:53.560859 29824 net.cpp:408] conv6_1_relu6_1_0_split -> conv6_1_relu6_1_0_split_2
I1021 14:31:53.560930 29824 net.cpp:150] Setting up conv6_1_relu6_1_0_split
I1021 14:31:53.560937 29824 net.cpp:157] Top shape: 4 512 18 24 (884736)
I1021 14:31:53.560940 29824 net.cpp:157] Top shape: 4 512 18 24 (884736)
I1021 14:31:53.560942 29824 net.cpp:157] Top shape: 4 512 18 24 (884736)
I1021 14:31:53.560945 29824 net.cpp:165] Memory required for data: 4470132176
I1021 14:31:53.560948 29824 layer_factory.hpp:77] Creating layer LFCN_3_3x5
I1021 14:31:53.560962 29824 net.cpp:100] Creating Layer LFCN_3_3x5
I1021 14:31:53.560968 29824 net.cpp:434] LFCN_3_3x5 <- conv6_1_relu6_1_0_split_0
I1021 14:31:53.560981 29824 net.cpp:408] LFCN_3_3x5 -> LFCN_3_3x5
I1021 14:31:53.563750 29824 net.cpp:150] Setting up LFCN_3_3x5
I1021 14:31:53.563777 29824 net.cpp:157] Top shape: 4 7 18 24 (12096)
I1021 14:31:53.563781 29824 net.cpp:165] Memory required for data: 4470180560
I1021 14:31:53.563789 29824 layer_factory.hpp:77] Creating layer LFCN_3_3x5_LFCN_3_3x5_0_split
I1021 14:31:53.563813 29824 net.cpp:100] Creating Layer LFCN_3_3x5_LFCN_3_3x5_0_split
I1021 14:31:53.563820 29824 net.cpp:434] LFCN_3_3x5_LFCN_3_3x5_0_split <- LFCN_3_3x5
I1021 14:31:53.563829 29824 net.cpp:408] LFCN_3_3x5_LFCN_3_3x5_0_split -> LFCN_3_3x5_LFCN_3_3x5_0_split_0
I1021 14:31:53.563840 29824 net.cpp:408] LFCN_3_3x5_LFCN_3_3x5_0_split -> LFCN_3_3x5_LFCN_3_3x5_0_split_1
I1021 14:31:53.563902 29824 net.cpp:150] Setting up LFCN_3_3x5_LFCN_3_3x5_0_split
I1021 14:31:53.563911 29824 net.cpp:157] Top shape: 4 7 18 24 (12096)
I1021 14:31:53.563915 29824 net.cpp:157] Top shape: 4 7 18 24 (12096)
I1021 14:31:53.563916 29824 net.cpp:165] Memory required for data: 4470277328
I1021 14:31:53.563918 29824 layer_factory.hpp:77] Creating layer detection_loss_3_3x5
I1021 14:31:53.563926 29824 net.cpp:100] Creating Layer detection_loss_3_3x5
I1021 14:31:53.563930 29824 net.cpp:434] detection_loss_3_3x5 <- LFCN_3_3x5_LFCN_3_3x5_0_split_0
I1021 14:31:53.563935 29824 net.cpp:434] detection_loss_3_3x5 <- label_3_3x5_data_5_split_0
I1021 14:31:53.563940 29824 net.cpp:408] detection_loss_3_3x5 -> loss_3_3x5
I1021 14:31:53.563947 29824 layer_factory.hpp:77] Creating layer detection_loss_3_3x5
I1021 14:31:53.564296 29824 net.cpp:150] Setting up detection_loss_3_3x5
I1021 14:31:53.564306 29824 net.cpp:157] Top shape: 1 1 1 2 (2)
I1021 14:31:53.564307 29824 net.cpp:160]     with loss weight 1
I1021 14:31:53.564319 29824 net.cpp:165] Memory required for data: 4470277336
I1021 14:31:53.564322 29824 layer_factory.hpp:77] Creating layer detection_accuracy_3_3x5
I1021 14:31:53.564329 29824 net.cpp:100] Creating Layer detection_accuracy_3_3x5
I1021 14:31:53.564332 29824 net.cpp:434] detection_accuracy_3_3x5 <- LFCN_3_3x5_LFCN_3_3x5_0_split_1
I1021 14:31:53.564337 29824 net.cpp:434] detection_accuracy_3_3x5 <- label_3_3x5_data_5_split_1
I1021 14:31:53.564343 29824 net.cpp:408] detection_accuracy_3_3x5 -> accuracy_3_3x5
I1021 14:31:53.564350 29824 net.cpp:408] detection_accuracy_3_3x5 -> boxiou_3_3x5
I1021 14:31:53.564394 29824 net.cpp:150] Setting up detection_accuracy_3_3x5
I1021 14:31:53.564402 29824 net.cpp:157] Top shape: 1 1 1 2 (2)
I1021 14:31:53.564405 29824 net.cpp:157] Top shape: 1 1 1 1 (1)
I1021 14:31:53.564407 29824 net.cpp:165] Memory required for data: 4470277348
I1021 14:31:53.564409 29824 layer_factory.hpp:77] Creating layer LFCN_3_5x7
I1021 14:31:53.564419 29824 net.cpp:100] Creating Layer LFCN_3_5x7
I1021 14:31:53.564424 29824 net.cpp:434] LFCN_3_5x7 <- conv6_1_relu6_1_0_split_1
I1021 14:31:53.564429 29824 net.cpp:408] LFCN_3_5x7 -> LFCN_3_5x7
I1021 14:31:53.566903 29824 net.cpp:150] Setting up LFCN_3_5x7
I1021 14:31:53.566941 29824 net.cpp:157] Top shape: 4 7 18 24 (12096)
I1021 14:31:53.566944 29824 net.cpp:165] Memory required for data: 4470325732
I1021 14:31:53.566954 29824 layer_factory.hpp:77] Creating layer LFCN_3_5x7_LFCN_3_5x7_0_split
I1021 14:31:53.566964 29824 net.cpp:100] Creating Layer LFCN_3_5x7_LFCN_3_5x7_0_split
I1021 14:31:53.566969 29824 net.cpp:434] LFCN_3_5x7_LFCN_3_5x7_0_split <- LFCN_3_5x7
I1021 14:31:53.566977 29824 net.cpp:408] LFCN_3_5x7_LFCN_3_5x7_0_split -> LFCN_3_5x7_LFCN_3_5x7_0_split_0
I1021 14:31:53.566987 29824 net.cpp:408] LFCN_3_5x7_LFCN_3_5x7_0_split -> LFCN_3_5x7_LFCN_3_5x7_0_split_1
I1021 14:31:53.567028 29824 net.cpp:150] Setting up LFCN_3_5x7_LFCN_3_5x7_0_split
I1021 14:31:53.567034 29824 net.cpp:157] Top shape: 4 7 18 24 (12096)
I1021 14:31:53.567037 29824 net.cpp:157] Top shape: 4 7 18 24 (12096)
I1021 14:31:53.567039 29824 net.cpp:165] Memory required for data: 4470422500
I1021 14:31:53.567041 29824 layer_factory.hpp:77] Creating layer detection_loss_3_5x7
I1021 14:31:53.567047 29824 net.cpp:100] Creating Layer detection_loss_3_5x7
I1021 14:31:53.567050 29824 net.cpp:434] detection_loss_3_5x7 <- LFCN_3_5x7_LFCN_3_5x7_0_split_0
I1021 14:31:53.567054 29824 net.cpp:434] detection_loss_3_5x7 <- label_3_5x7_data_6_split_0
I1021 14:31:53.567060 29824 net.cpp:408] detection_loss_3_5x7 -> loss_3_5x7
I1021 14:31:53.567067 29824 layer_factory.hpp:77] Creating layer detection_loss_3_5x7
I1021 14:31:53.567414 29824 net.cpp:150] Setting up detection_loss_3_5x7
I1021 14:31:53.567423 29824 net.cpp:157] Top shape: 1 1 1 2 (2)
I1021 14:31:53.567425 29824 net.cpp:160]     with loss weight 1
I1021 14:31:53.567436 29824 net.cpp:165] Memory required for data: 4470422508
I1021 14:31:53.567440 29824 layer_factory.hpp:77] Creating layer detection_accuracy_3_5x7
I1021 14:31:53.567445 29824 net.cpp:100] Creating Layer detection_accuracy_3_5x7
I1021 14:31:53.567448 29824 net.cpp:434] detection_accuracy_3_5x7 <- LFCN_3_5x7_LFCN_3_5x7_0_split_1
I1021 14:31:53.567452 29824 net.cpp:434] detection_accuracy_3_5x7 <- label_3_5x7_data_6_split_1
I1021 14:31:53.567458 29824 net.cpp:408] detection_accuracy_3_5x7 -> accuracy_3_5x7
I1021 14:31:53.567466 29824 net.cpp:408] detection_accuracy_3_5x7 -> boxiou_3_5x7
I1021 14:31:53.567509 29824 net.cpp:150] Setting up detection_accuracy_3_5x7
I1021 14:31:53.567517 29824 net.cpp:157] Top shape: 1 1 1 2 (2)
I1021 14:31:53.567518 29824 net.cpp:157] Top shape: 1 1 1 1 (1)
I1021 14:31:53.567522 29824 net.cpp:165] Memory required for data: 4470422520
I1021 14:31:53.567523 29824 layer_factory.hpp:77] Creating layer pool6
I1021 14:31:53.567528 29824 net.cpp:100] Creating Layer pool6
I1021 14:31:53.567531 29824 net.cpp:434] pool6 <- conv6_1_relu6_1_0_split_2
I1021 14:31:53.567536 29824 net.cpp:408] pool6 -> pool6
I1021 14:31:53.567572 29824 net.cpp:150] Setting up pool6
I1021 14:31:53.567579 29824 net.cpp:157] Top shape: 4 512 9 12 (221184)
I1021 14:31:53.567580 29824 net.cpp:165] Memory required for data: 4471307256
I1021 14:31:53.567582 29824 layer_factory.hpp:77] Creating layer LFCN_4_3x5
I1021 14:31:53.567591 29824 net.cpp:100] Creating Layer LFCN_4_3x5
I1021 14:31:53.567595 29824 net.cpp:434] LFCN_4_3x5 <- pool6
I1021 14:31:53.567600 29824 net.cpp:408] LFCN_4_3x5 -> LFCN_4_3x5
I1021 14:31:53.569186 29824 net.cpp:150] Setting up LFCN_4_3x5
I1021 14:31:53.569200 29824 net.cpp:157] Top shape: 4 7 9 12 (3024)
I1021 14:31:53.569202 29824 net.cpp:165] Memory required for data: 4471319352
I1021 14:31:53.569211 29824 layer_factory.hpp:77] Creating layer LFCN_4_3x5_LFCN_4_3x5_0_split
I1021 14:31:53.569217 29824 net.cpp:100] Creating Layer LFCN_4_3x5_LFCN_4_3x5_0_split
I1021 14:31:53.569221 29824 net.cpp:434] LFCN_4_3x5_LFCN_4_3x5_0_split <- LFCN_4_3x5
I1021 14:31:53.569226 29824 net.cpp:408] LFCN_4_3x5_LFCN_4_3x5_0_split -> LFCN_4_3x5_LFCN_4_3x5_0_split_0
I1021 14:31:53.569231 29824 net.cpp:408] LFCN_4_3x5_LFCN_4_3x5_0_split -> LFCN_4_3x5_LFCN_4_3x5_0_split_1
I1021 14:31:53.569277 29824 net.cpp:150] Setting up LFCN_4_3x5_LFCN_4_3x5_0_split
I1021 14:31:53.569283 29824 net.cpp:157] Top shape: 4 7 9 12 (3024)
I1021 14:31:53.569285 29824 net.cpp:157] Top shape: 4 7 9 12 (3024)
I1021 14:31:53.569288 29824 net.cpp:165] Memory required for data: 4471343544
I1021 14:31:53.569289 29824 layer_factory.hpp:77] Creating layer detection_loss_4_3x5
I1021 14:31:53.569295 29824 net.cpp:100] Creating Layer detection_loss_4_3x5
I1021 14:31:53.569298 29824 net.cpp:434] detection_loss_4_3x5 <- LFCN_4_3x5_LFCN_4_3x5_0_split_0
I1021 14:31:53.569301 29824 net.cpp:434] detection_loss_4_3x5 <- label_4_3x5_data_7_split_0
I1021 14:31:53.569306 29824 net.cpp:408] detection_loss_4_3x5 -> loss_4_3x5
I1021 14:31:53.569314 29824 layer_factory.hpp:77] Creating layer detection_loss_4_3x5
I1021 14:31:53.569643 29824 net.cpp:150] Setting up detection_loss_4_3x5
I1021 14:31:53.569653 29824 net.cpp:157] Top shape: 1 1 1 2 (2)
I1021 14:31:53.569654 29824 net.cpp:160]     with loss weight 1
I1021 14:31:53.569659 29824 net.cpp:165] Memory required for data: 4471343552
I1021 14:31:53.569663 29824 layer_factory.hpp:77] Creating layer detection_accuracy_4_3x5
I1021 14:31:53.569667 29824 net.cpp:100] Creating Layer detection_accuracy_4_3x5
I1021 14:31:53.569670 29824 net.cpp:434] detection_accuracy_4_3x5 <- LFCN_4_3x5_LFCN_4_3x5_0_split_1
I1021 14:31:53.569674 29824 net.cpp:434] detection_accuracy_4_3x5 <- label_4_3x5_data_7_split_1
I1021 14:31:53.569679 29824 net.cpp:408] detection_accuracy_4_3x5 -> accuracy_4_3x5
I1021 14:31:53.569684 29824 net.cpp:408] detection_accuracy_4_3x5 -> boxiou_4_3x5
I1021 14:31:53.569722 29824 net.cpp:150] Setting up detection_accuracy_4_3x5
I1021 14:31:53.569728 29824 net.cpp:157] Top shape: 1 1 1 2 (2)
I1021 14:31:53.569731 29824 net.cpp:157] Top shape: 1 1 1 1 (1)
I1021 14:31:53.569732 29824 net.cpp:165] Memory required for data: 4471343564
I1021 14:31:53.569736 29824 net.cpp:228] detection_accuracy_4_3x5 does not need backward computation.
I1021 14:31:53.569739 29824 net.cpp:226] detection_loss_4_3x5 needs backward computation.
I1021 14:31:53.569741 29824 net.cpp:226] LFCN_4_3x5_LFCN_4_3x5_0_split needs backward computation.
I1021 14:31:53.569744 29824 net.cpp:226] LFCN_4_3x5 needs backward computation.
…
I1021 14:31:53.582615 29824 image_gt_data_layer.cpp:235] output label size 1 : 2,6,72,96
I1021 14:31:53.582664 29824 image_gt_data_layer.cpp:235] output label size 2 : 2,6,36,48
I1021 14:31:53.582711 29824 image_gt_data_layer.cpp:235] output label size 3 : 2,6,36,48
I1021 14:31:53.582758 29824 image_gt_data_layer.cpp:235] output label size 4 : 2,6,18,24
I1021 14:31:53.582804 29824 image_gt_data_layer.cpp:235] output label size 5 : 2,6,18,24
I1021 14:31:53.582849 29824 image_gt_data_layer.cpp:235] output label size 6 : 2,6,9,12
I1021 14:31:53.601874 29824 net.cpp:150] Setting up data
I1021 14:31:53.601899 29824 net.cpp:157] Top shape: 2 3 576 768 (2654208)
I1021 14:31:53.601902 29824 net.cpp:157] Top shape: 2 6 72 96 (82944)
I1021 14:31:53.601905 29824 net.cpp:157] Top shape: 2 6 72 96 (82944)
I1021 14:31:53.601908 29824 net.cpp:157] Top shape: 2 6 36 48 (20736)
I1021 14:31:53.601912 29824 net.cpp:157] Top shape: 2 6 36 48 (20736)
I1021 14:31:53.601913 29824 net.cpp:157] Top shape: 2 6 18 24 (5184)
I1021 14:31:53.601915 29824 net.cpp:157] Top shape: 2 6 18 24 (5184)
I1021 14:31:53.601918 29824 net.cpp:157] Top shape: 2 6 9 12 (1296)
I1021 14:31:53.601920 29824 net.cpp:165] Memory required for data: 11492928
I1021 14:31:53.601925 29824 layer_factory.hpp:77] Creating layer label_1_3x5_data_1_split
I1021 14:31:53.601936 29824 net.cpp:100] Creating Layer label_1_3x5_data_1_split
I1021 14:31:53.601940 29824 net.cpp:434] label_1_3x5_data_1_split <- label_1_3x5
I1021 14:31:53.601949 29824 net.cpp:408] label_1_3x5_data_1_split -> label_1_3x5_data_1_split_0
I1021 14:31:53.601958 29824 net.cpp:408] label_1_3x5_data_1_split -> label_1_3x5_data_1_split_1
I1021 14:31:53.602128 29824 net.cpp:150] Setting up label_1_3x5_data_1_split
I1021 14:31:53.602133 29824 net.cpp:157] Top shape: 2 6 72 96 (82944)
I1021 14:31:53.602136 29824 net.cpp:157] Top shape: 2 6 72 96 (82944)
I1021 14:31:53.602138 29824 net.cpp:165] Memory required for data: 12156480
I1021 14:31:53.602139 29824 layer_factory.hpp:77] Creating layer label_1_5x7_data_2_split
I1021 14:31:53.602144 29824 net.cpp:100] Creating Layer label_1_5x7_data_2_split
I1021 14:31:53.602146 29824 net.cpp:434] label_1_5x7_data_2_split <- label_1_5x7
I1021 14:31:53.602151 29824 net.cpp:408] label_1_5x7_data_2_split -> label_1_5x7_data_2_split_0
I1021 14:31:53.602156 29824 net.cpp:408] label_1_5x7_data_2_split -> label_1_5x7_data_2_split_1
I1021 14:31:53.602210 29824 net.cpp:150] Setting up label_1_5x7_data_2_split
I1021 14:31:53.602216 29824 net.cpp:157] Top shape: 2 6 72 96 (82944)
I1021 14:31:53.602217 29824 net.cpp:157] Top shape: 2 6 72 96 (82944)
I1021 14:31:53.602219 29824 net.cpp:165] Memory required for data: 12820032
I1021 14:31:53.602221 29824 layer_factory.hpp:77] Creating layer label_2_3x5_data_3_split
I1021 14:31:53.602226 29824 net.cpp:100] Creating Layer label_2_3x5_data_3_split
I1021 14:31:53.602227 29824 net.cpp:434] label_2_3x5_data_3_split <- label_2_3x5
I1021 14:31:53.602231 29824 net.cpp:408] label_2_3x5_data_3_split -> label_2_3x5_data_3_split_0
I1021 14:31:53.602236 29824 net.cpp:408] label_2_3x5_data_3_split -> label_2_3x5_data_3_split_1
I1021 14:31:53.602293 29824 net.cpp:150] Setting up label_2_3x5_data_3_split
I1021 14:31:53.602298 29824 net.cpp:157] Top shape: 2 6 36 48 (20736)
I1021 14:31:53.602300 29824 net.cpp:157] Top shape: 2 6 36 48 (20736)
I1021 14:31:53.602303 29824 net.cpp:165] Memory required for data: 12985920
I1021 14:31:53.602304 29824 layer_factory.hpp:77] Creating layer label_2_5x7_data_4_split
I1021 14:31:53.602309 29824 net.cpp:100] Creating Layer label_2_5x7_data_4_split
I1021 14:31:53.602311 29824 net.cpp:434] label_2_5x7_data_4_split <- label_2_5x7
I1021 14:31:53.602315 29824 net.cpp:408] label_2_5x7_data_4_split -> label_2_5x7_data_4_split_0
I1021 14:31:53.602319 29824 net.cpp:408] label_2_5x7_data_4_split -> label_2_5x7_data_4_split_1
I1021 14:31:53.602347 29824 net.cpp:150] Setting up label_2_5x7_data_4_split
I1021 14:31:53.602350 29824 net.cpp:157] Top shape: 2 6 36 48 (20736)
I1021 14:31:53.602352 29824 net.cpp:157] Top shape: 2 6 36 48 (20736)
I1021 14:31:53.602355 29824 net.cpp:165] Memory required for data: 13151808
I1021 14:31:53.602356 29824 layer_factory.hpp:77] Creating layer label_3_3x5_data_5_split
I1021 14:31:53.602360 29824 net.cpp:100] Creating Layer label_3_3x5_data_5_split
I1021 14:31:53.602361 29824 net.cpp:434] label_3_3x5_data_5_split <- label_3_3x5
I1021 14:31:53.602366 29824 net.cpp:408] label_3_3x5_data_5_split -> label_3_3x5_data_5_split_0
I1021 14:31:53.602371 29824 net.cpp:408] label_3_3x5_data_5_split -> label_3_3x5_data_5_split_1
I1021 14:31:53.602398 29824 net.cpp:150] Setting up label_3_3x5_data_5_split
I1021 14:31:53.602402 29824 net.cpp:157] Top shape: 2 6 18 24 (5184)
I1021 14:31:53.602404 29824 net.cpp:157] Top shape: 2 6 18 24 (5184)
I1021 14:31:53.602406 29824 net.cpp:165] Memory required for data: 13193280
I1021 14:31:53.602408 29824 layer_factory.hpp:77] Creating layer label_3_5x7_data_6_split
I1021 14:31:53.602411 29824 net.cpp:100] Creating Layer label_3_5x7_data_6_split
I1021 14:31:53.602413 29824 net.cpp:434] label_3_5x7_data_6_split <- label_3_5x7
I1021 14:31:53.602416 29824 net.cpp:408] label_3_5x7_data_6_split -> label_3_5x7_data_6_split_0
I1021 14:31:53.602421 29824 net.cpp:408] label_3_5x7_data_6_split -> label_3_5x7_data_6_split_1
I1021 14:31:53.602447 29824 net.cpp:150] Setting up label_3_5x7_data_6_split
I1021 14:31:53.602449 29824 net.cpp:157] Top shape: 2 6 18 24 (5184)
I1021 14:31:53.602452 29824 net.cpp:157] Top shape: 2 6 18 24 (5184)
I1021 14:31:53.602453 29824 net.cpp:165] Memory required for data: 13234752
I1021 14:31:53.602455 29824 layer_factory.hpp:77] Creating layer label_4_3x5_data_7_split
I1021 14:31:53.602460 29824 net.cpp:100] Creating Layer label_4_3x5_data_7_split
I1021 14:31:53.602461 29824 net.cpp:434] label_4_3x5_data_7_split <- label_4_3x5
I1021 14:31:53.602464 29824 net.cpp:408] label_4_3x5_data_7_split -> label_4_3x5_data_7_split_0
I1021 14:31:53.602468 29824 net.cpp:408] label_4_3x5_data_7_split -> label_4_3x5_data_7_split_1
I1021 14:31:53.602494 29824 net.cpp:150] Setting up label_4_3x5_data_7_split
I1021 14:31:53.602497 29824 net.cpp:157] Top shape: 2 6 9 12 (1296)
I1021 14:31:53.602500 29824 net.cpp:157] Top shape: 2 6 9 12 (1296)
I1021 14:31:53.602501 29824 net.cpp:165] Memory required for data: 13245120
I1021 14:31:53.602504 29824 layer_factory.hpp:77] Creating layer conv1_1
I1021 14:31:53.602512 29824 net.cpp:100] Creating Layer conv1_1
I1021 14:31:53.602514 29824 net.cpp:434] conv1_1 <- data
I1021 14:31:53.602517 29824 net.cpp:408] conv1_1 -> conv1_1
I1021 14:31:53.605897 29824 net.cpp:150] Setting up conv1_1
I1021 14:31:53.605912 29824 net.cpp:157] Top shape: 2 64 576 768 (56623104)
I1021 14:31:53.605914 29824 net.cpp:165] Memory required for data: 239737536
I1021 14:31:53.605926 29824 layer_factory.hpp:77] Creating layer relu1_1
I1021 14:31:53.605931 29824 net.cpp:100] Creating Layer relu1_1
I1021 14:31:53.605934 29824 net.cpp:434] relu1_1 <- conv1_1
I1021 14:31:53.605938 29824 net.cpp:395] relu1_1 -> conv1_1 (in-place)
I1021 14:31:53.606458 29824 net.cpp:150] Setting up relu1_1
I1021 14:31:53.606467 29824 net.cpp:157] Top shape: 2 64 576 768 (56623104)
I1021 14:31:53.606469 29824 net.cpp:165] Memory required for data: 466229952
I1021 14:31:53.606472 29824 layer_factory.hpp:77] Creating layer conv1_2
I1021 14:31:53.606480 29824 net.cpp:100] Creating Layer conv1_2
I1021 14:31:53.606482 29824 net.cpp:434] conv1_2 <- conv1_1
I1021 14:31:53.606487 29824 net.cpp:408] conv1_2 -> conv1_2
I1021 14:31:53.608928 29824 net.cpp:150] Setting up conv1_2
I1021 14:31:53.608940 29824 net.cpp:157] Top shape: 2 64 576 768 (56623104)
I1021 14:31:53.608942 29824 net.cpp:165] Memory required for data: 692722368
I1021 14:31:53.608952 29824 layer_factory.hpp:77] Creating layer relu1_2
I1021 14:31:53.608959 29824 net.cpp:100] Creating Layer relu1_2
I1021 14:31:53.608963 29824 net.cpp:434] relu1_2 <- conv1_2
I1021 14:31:53.608966 29824 net.cpp:395] relu1_2 -> conv1_2 (in-place)
I1021 14:31:53.609127 29824 net.cpp:150] Setting up relu1_2
I1021 14:31:53.609133 29824 net.cpp:157] Top shape: 2 64 576 768 (56623104)
I1021 14:31:53.609135 29824 net.cpp:165] Memory required for data: 919214784
I1021 14:31:53.609138 29824 layer_factory.hpp:77] Creating layer pool1
I1021 14:31:53.609143 29824 net.cpp:100] Creating Layer pool1
I1021 14:31:53.609144 29824 net.cpp:434] pool1 <- conv1_2
I1021 14:31:53.609148 29824 net.cpp:408] pool1 -> pool1
I1021 14:31:53.609191 29824 net.cpp:150] Setting up pool1
I1021 14:31:53.609195 29824 net.cpp:157] Top shape: 2 64 288 384 (14155776)
I1021 14:31:53.609197 29824 net.cpp:165] Memory required for data: 975837888
I1021 14:31:53.609200 29824 layer_factory.hpp:77] Creating layer conv2_1
I1021 14:31:53.609206 29824 net.cpp:100] Creating Layer conv2_1
I1021 14:31:53.609208 29824 net.cpp:434] conv2_1 <- pool1
I1021 14:31:53.609212 29824 net.cpp:408] conv2_1 -> conv2_1
I1021 14:31:53.610671 29824 net.cpp:150] Setting up conv2_1
I1021 14:31:53.610685 29824 net.cpp:157] Top shape: 2 128 288 384 (28311552)
I1021 14:31:53.610687 29824 net.cpp:165] Memory required for data: 1089084096
I1021 14:31:53.610697 29824 layer_factory.hpp:77] Creating layer relu2_1
I1021 14:31:53.610702 29824 net.cpp:100] Creating Layer relu2_1
I1021 14:31:53.610704 29824 net.cpp:434] relu2_1 <- conv2_1
I1021 14:31:53.610709 29824 net.cpp:395] relu2_1 -> conv2_1 (in-place)
I1021 14:31:53.610868 29824 net.cpp:150] Setting up relu2_1
I1021 14:31:53.610874 29824 net.cpp:157] Top shape: 2 128 288 384 (28311552)
I1021 14:31:53.610877 29824 net.cpp:165] Memory required for data: 1202330304
I1021 14:31:53.610878 29824 layer_factory.hpp:77] Creating layer conv2_2
I1021 14:31:53.610885 29824 net.cpp:100] Creating Layer conv2_2
I1021 14:31:53.610888 29824 net.cpp:434] conv2_2 <- conv2_1
I1021 14:31:53.610891 29824 net.cpp:408] conv2_2 -> conv2_2
I1021 14:31:53.613204 29824 net.cpp:150] Setting up conv2_2
I1021 14:31:53.613214 29824 net.cpp:157] Top shape: 2 128 288 384 (28311552)
I1021 14:31:53.613216 29824 net.cpp:165] Memory required for data: 1315576512
I1021 14:31:53.613220 29824 layer_factory.hpp:77] Creating layer relu2_2
I1021 14:31:53.613229 29824 net.cpp:100] Creating Layer relu2_2
I1021 14:31:53.613231 29824 net.cpp:434] relu2_2 <- conv2_2
I1021 14:31:53.613236 29824 net.cpp:395] relu2_2 -> conv2_2 (in-place)
I1021 14:31:53.613399 29824 net.cpp:150] Setting up relu2_2
I1021 14:31:53.613404 29824 net.cpp:157] Top shape: 2 128 288 384 (28311552)
I1021 14:31:53.613405 29824 net.cpp:165] Memory required for data: 1428822720
I1021 14:31:53.613407 29824 layer_factory.hpp:77] Creating layer pool2
I1021 14:31:53.613412 29824 net.cpp:100] Creating Layer pool2
I1021 14:31:53.613415 29824 net.cpp:434] pool2 <- conv2_2
I1021 14:31:53.613420 29824 net.cpp:408] pool2 -> pool2
I1021 14:31:53.613461 29824 net.cpp:150] Setting up pool2
I1021 14:31:53.613466 29824 net.cpp:157] Top shape: 2 128 144 192 (7077888)
I1021 14:31:53.613468 29824 net.cpp:165] Memory required for data: 1457134272
I1021 14:31:53.613469 29824 layer_factory.hpp:77] Creating layer conv3_1
I1021 14:31:53.613474 29824 net.cpp:100] Creating Layer conv3_1
I1021 14:31:53.613476 29824 net.cpp:434] conv3_1 <- pool2
I1021 14:31:53.613481 29824 net.cpp:408] conv3_1 -> conv3_1
I1021 14:31:53.615607 29824 net.cpp:150] Setting up conv3_1
I1021 14:31:53.615619 29824 net.cpp:157] Top shape: 2 256 144 192 (14155776)
I1021 14:31:53.615623 29824 net.cpp:165] Memory required for data: 1513757376
I1021 14:31:53.615633 29824 layer_factory.hpp:77] Creating layer relu3_1
I1021 14:31:53.615639 29824 net.cpp:100] Creating Layer relu3_1
I1021 14:31:53.615643 29824 net.cpp:434] relu3_1 <- conv3_1
I1021 14:31:53.615650 29824 net.cpp:395] relu3_1 -> conv3_1 (in-place)
I1021 14:31:53.615861 29824 net.cpp:150] Setting up relu3_1
I1021 14:31:53.615870 29824 net.cpp:157] Top shape: 2 256 144 192 (14155776)
I1021 14:31:53.615873 29824 net.cpp:165] Memory required for data: 1570380480
I1021 14:31:53.615877 29824 layer_factory.hpp:77] Creating layer conv3_2
I1021 14:31:53.615885 29824 net.cpp:100] Creating Layer conv3_2
I1021 14:31:53.615890 29824 net.cpp:434] conv3_2 <- conv3_1
I1021 14:31:53.615895 29824 net.cpp:408] conv3_2 -> conv3_2
I1021 14:31:53.619010 29824 net.cpp:150] Setting up conv3_2
I1021 14:31:53.619021 29824 net.cpp:157] Top shape: 2 256 144 192 (14155776)
I1021 14:31:53.619024 29824 net.cpp:165] Memory required for data: 1627003584
I1021 14:31:53.619029 29824 layer_factory.hpp:77] Creating layer relu3_2
I1021 14:31:53.619035 29824 net.cpp:100] Creating Layer relu3_2
I1021 14:31:53.619036 29824 net.cpp:434] relu3_2 <- conv3_2
I1021 14:31:53.619040 29824 net.cpp:395] relu3_2 -> conv3_2 (in-place)
I1021 14:31:53.619197 29824 net.cpp:150] Setting up relu3_2
I1021 14:31:53.619204 29824 net.cpp:157] Top shape: 2 256 144 192 (14155776)
I1021 14:31:53.619204 29824 net.cpp:165] Memory required for data: 1683626688
I1021 14:31:53.619207 29824 layer_factory.hpp:77] Creating layer conv3_3
I1021 14:31:53.619213 29824 net.cpp:100] Creating Layer conv3_3
I1021 14:31:53.619215 29824 net.cpp:434] conv3_3 <- conv3_2
I1021 14:31:53.619220 29824 net.cpp:408] conv3_3 -> conv3_3
I1021 14:31:53.621727 29824 net.cpp:150] Setting up conv3_3
I1021 14:31:53.621739 29824 net.cpp:157] Top shape: 2 256 144 192 (14155776)
I1021 14:31:53.621742 29824 net.cpp:165] Memory required for data: 1740249792
I1021 14:31:53.621747 29824 layer_factory.hpp:77] Creating layer relu3_3
I1021 14:31:53.621752 29824 net.cpp:100] Creating Layer relu3_3
I1021 14:31:53.621753 29824 net.cpp:434] relu3_3 <- conv3_3
I1021 14:31:53.621758 29824 net.cpp:395] relu3_3 -> conv3_3 (in-place)
I1021 14:31:53.622252 29824 net.cpp:150] Setting up relu3_3
I1021 14:31:53.622261 29824 net.cpp:157] Top shape: 2 256 144 192 (14155776)
I1021 14:31:53.622262 29824 net.cpp:165] Memory required for data: 1796872896
I1021 14:31:53.622265 29824 layer_factory.hpp:77] Creating layer pool3
I1021 14:31:53.622272 29824 net.cpp:100] Creating Layer pool3
I1021 14:31:53.622273 29824 net.cpp:434] pool3 <- conv3_3
I1021 14:31:53.622278 29824 net.cpp:408] pool3 -> pool3
I1021 14:31:53.622328 29824 net.cpp:150] Setting up pool3
I1021 14:31:53.622331 29824 net.cpp:157] Top shape: 2 256 72 96 (3538944)
I1021 14:31:53.622333 29824 net.cpp:165] Memory required for data: 1811028672
I1021 14:31:53.622335 29824 layer_factory.hpp:77] Creating layer conv4_1
I1021 14:31:53.622340 29824 net.cpp:100] Creating Layer conv4_1
I1021 14:31:53.622344 29824 net.cpp:434] conv4_1 <- pool3
I1021 14:31:53.622346 29824 net.cpp:408] conv4_1 -> conv4_1
I1021 14:31:53.640944 29824 net.cpp:150] Setting up conv4_1
I1021 14:31:53.640969 29824 net.cpp:157] Top shape: 2 512 72 96 (7077888)
I1021 14:31:53.640974 29824 net.cpp:165] Memory required for data: 1839340224
I1021 14:31:53.640985 29824 layer_factory.hpp:77] Creating layer relu4_1
I1021 14:31:53.640997 29824 net.cpp:100] Creating Layer relu4_1
I1021 14:31:53.641002 29824 net.cpp:434] relu4_1 <- conv4_1
I1021 14:31:53.641011 29824 net.cpp:395] relu4_1 -> conv4_1 (in-place)
I1021 14:31:53.641280 29824 net.cpp:150] Setting up relu4_1
I1021 14:31:53.641289 29824 net.cpp:157] Top shape: 2 512 72 96 (7077888)
I1021 14:31:53.641293 29824 net.cpp:165] Memory required for data: 1867651776
I1021 14:31:53.641296 29824 layer_factory.hpp:77] Creating layer conv4_2
I1021 14:31:53.641309 29824 net.cpp:100] Creating Layer conv4_2
I1021 14:31:53.641312 29824 net.cpp:434] conv4_2 <- conv4_1
I1021 14:31:53.641319 29824 net.cpp:408] conv4_2 -> conv4_2
I1021 14:31:53.649247 29824 net.cpp:150] Setting up conv4_2
I1021 14:31:53.649271 29824 net.cpp:157] Top shape: 2 512 72 96 (7077888)
I1021 14:31:53.649274 29824 net.cpp:165] Memory required for data: 1895963328
I1021 14:31:53.649289 29824 layer_factory.hpp:77] Creating layer relu4_2
I1021 14:31:53.649302 29824 net.cpp:100] Creating Layer relu4_2
I1021 14:31:53.649307 29824 net.cpp:434] relu4_2 <- conv4_2
I1021 14:31:53.649313 29824 net.cpp:395] relu4_2 -> conv4_2 (in-place)
I1021 14:31:53.649507 29824 net.cpp:150] Setting up relu4_2
I1021 14:31:53.649515 29824 net.cpp:157] Top shape: 2 512 72 96 (7077888)
I1021 14:31:53.649518 29824 net.cpp:165] Memory required for data: 1924274880
I1021 14:31:53.649521 29824 layer_factory.hpp:77] Creating layer conv4_3
I1021 14:31:53.649530 29824 net.cpp:100] Creating Layer conv4_3
I1021 14:31:53.649533 29824 net.cpp:434] conv4_3 <- conv4_2
I1021 14:31:53.649539 29824 net.cpp:408] conv4_3 -> conv4_3
I1021 14:31:53.656271 29824 net.cpp:150] Setting up conv4_3
I1021 14:31:53.656297 29824 net.cpp:157] Top shape: 2 512 72 96 (7077888)
I1021 14:31:53.656301 29824 net.cpp:165] Memory required for data: 1952586432
I1021 14:31:53.656309 29824 layer_factory.hpp:77] Creating layer relu4_3
I1021 14:31:53.656318 29824 net.cpp:100] Creating Layer relu4_3
I1021 14:31:53.656323 29824 net.cpp:434] relu4_3 <- conv4_3
I1021 14:31:53.656332 29824 net.cpp:395] relu4_3 -> conv4_3 (in-place)
I1021 14:31:53.656572 29824 net.cpp:150] Setting up relu4_3
I1021 14:31:53.656582 29824 net.cpp:157] Top shape: 2 512 72 96 (7077888)
I1021 14:31:53.656585 29824 net.cpp:165] Memory required for data: 1980897984
I1021 14:31:53.656587 29824 layer_factory.hpp:77] Creating layer conv4_3_relu4_3_0_split
I1021 14:31:53.656594 29824 net.cpp:100] Creating Layer conv4_3_relu4_3_0_split
I1021 14:31:53.656599 29824 net.cpp:434] conv4_3_relu4_3_0_split <- conv4_3
I1021 14:31:53.656605 29824 net.cpp:408] conv4_3_relu4_3_0_split -> conv4_3_relu4_3_0_split_0
I1021 14:31:53.656611 29824 net.cpp:408] conv4_3_relu4_3_0_split -> conv4_3_relu4_3_0_split_1
I1021 14:31:53.656663 29824 net.cpp:150] Setting up conv4_3_relu4_3_0_split
I1021 14:31:53.656669 29824 net.cpp:157] Top shape: 2 512 72 96 (7077888)
I1021 14:31:53.656673 29824 net.cpp:157] Top shape: 2 512 72 96 (7077888)
I1021 14:31:53.656675 29824 net.cpp:165] Memory required for data: 2037521088
I1021 14:31:53.656678 29824 layer_factory.hpp:77] Creating layer loss1_conv1
I1021 14:31:53.656698 29824 net.cpp:100] Creating Layer loss1_conv1
I1021 14:31:53.656703 29824 net.cpp:434] loss1_conv1 <- conv4_3_relu4_3_0_split_0
I1021 14:31:53.656708 29824 net.cpp:408] loss1_conv1 -> loss1_conv1
I1021 14:31:53.682847 29824 net.cpp:150] Setting up loss1_conv1
I1021 14:31:53.682868 29824 net.cpp:157] Top shape: 2 512 72 96 (7077888)
I1021 14:31:53.682870 29824 net.cpp:165] Memory required for data: 2065832640
I1021 14:31:53.682878 29824 layer_factory.hpp:77] Creating layer loss_relu1
I1021 14:31:53.682886 29824 net.cpp:100] Creating Layer loss_relu1
I1021 14:31:53.682891 29824 net.cpp:434] loss_relu1 <- loss1_conv1
I1021 14:31:53.682896 29824 net.cpp:395] loss_relu1 -> loss1_conv1 (in-place)
I1021 14:31:53.683043 29824 net.cpp:150] Setting up loss_relu1
I1021 14:31:53.683051 29824 net.cpp:157] Top shape: 2 512 72 96 (7077888)
I1021 14:31:53.683053 29824 net.cpp:165] Memory required for data: 2094144192
I1021 14:31:53.683055 29824 layer_factory.hpp:77] Creating layer loss1_conv1_loss_relu1_0_split
I1021 14:31:53.683060 29824 net.cpp:100] Creating Layer loss1_conv1_loss_relu1_0_split
I1021 14:31:53.683063 29824 net.cpp:434] loss1_conv1_loss_relu1_0_split <- loss1_conv1
I1021 14:31:53.683066 29824 net.cpp:408] loss1_conv1_loss_relu1_0_split -> loss1_conv1_loss_relu1_0_split_0
I1021 14:31:53.683073 29824 net.cpp:408] loss1_conv1_loss_relu1_0_split -> loss1_conv1_loss_relu1_0_split_1
I1021 14:31:53.683112 29824 net.cpp:150] Setting up loss1_conv1_loss_relu1_0_split
I1021 14:31:53.683117 29824 net.cpp:157] Top shape: 2 512 72 96 (7077888)
I1021 14:31:53.683121 29824 net.cpp:157] Top shape: 2 512 72 96 (7077888)
I1021 14:31:53.683122 29824 net.cpp:165] Memory required for data: 2150767296
I1021 14:31:53.683125 29824 layer_factory.hpp:77] Creating layer LFCN_1_3x5
I1021 14:31:53.683135 29824 net.cpp:100] Creating Layer LFCN_1_3x5
I1021 14:31:53.683137 29824 net.cpp:434] LFCN_1_3x5 <- loss1_conv1_loss_relu1_0_split_0
I1021 14:31:53.683141 29824 net.cpp:408] LFCN_1_3x5 -> LFCN_1_3x5
I1021 14:31:53.684587 29824 net.cpp:150] Setting up LFCN_1_3x5
I1021 14:31:53.684598 29824 net.cpp:157] Top shape: 2 7 72 96 (96768)
I1021 14:31:53.684602 29824 net.cpp:165] Memory required for data: 2151154368
I1021 14:31:53.684605 29824 layer_factory.hpp:77] Creating layer LFCN_1_3x5_LFCN_1_3x5_0_split
I1021 14:31:53.684612 29824 net.cpp:100] Creating Layer LFCN_1_3x5_LFCN_1_3x5_0_split
I1021 14:31:53.684614 29824 net.cpp:434] LFCN_1_3x5_LFCN_1_3x5_0_split <- LFCN_1_3x5
I1021 14:31:53.684619 29824 net.cpp:408] LFCN_1_3x5_LFCN_1_3x5_0_split -> LFCN_1_3x5_LFCN_1_3x5_0_split_0
I1021 14:31:53.684625 29824 net.cpp:408] LFCN_1_3x5_LFCN_1_3x5_0_split -> LFCN_1_3x5_LFCN_1_3x5_0_split_1
I1021 14:31:53.684664 29824 net.cpp:150] Setting up LFCN_1_3x5_LFCN_1_3x5_0_split
I1021 14:31:53.684669 29824 net.cpp:157] Top shape: 2 7 72 96 (96768)
I1021 14:31:53.684672 29824 net.cpp:157] Top shape: 2 7 72 96 (96768)
I1021 14:31:53.684674 29824 net.cpp:165] Memory required for data: 2151928512
I1021 14:31:53.684675 29824 layer_factory.hpp:77] Creating layer detection_loss_1_3x5
I1021 14:31:53.684682 29824 net.cpp:100] Creating Layer detection_loss_1_3x5
I1021 14:31:53.684684 29824 net.cpp:434] detection_loss_1_3x5 <- LFCN_1_3x5_LFCN_1_3x5_0_split_0
I1021 14:31:53.684687 29824 net.cpp:434] detection_loss_1_3x5 <- label_1_3x5_data_1_split_0
I1021 14:31:53.684692 29824 net.cpp:408] detection_loss_1_3x5 -> loss_1_3x5
I1021 14:31:53.684698 29824 layer_factory.hpp:77] Creating layer detection_loss_1_3x5
I1021 14:31:53.685034 29824 net.cpp:150] Setting up detection_loss_1_3x5
I1021 14:31:53.685041 29824 net.cpp:157] Top shape: 1 1 1 2 (2)
I1021 14:31:53.685045 29824 net.cpp:160]     with loss weight 0.9
I1021 14:31:53.685055 29824 net.cpp:165] Memory required for data: 2151928520
I1021 14:31:53.685056 29824 layer_factory.hpp:77] Creating layer detection_accuracy_1_3x5
I1021 14:31:53.685063 29824 net.cpp:100] Creating Layer detection_accuracy_1_3x5
I1021 14:31:53.685067 29824 net.cpp:434] detection_accuracy_1_3x5 <- LFCN_1_3x5_LFCN_1_3x5_0_split_1
I1021 14:31:53.685070 29824 net.cpp:434] detection_accuracy_1_3x5 <- label_1_3x5_data_1_split_1
I1021 14:31:53.685075 29824 net.cpp:408] detection_accuracy_1_3x5 -> accuracy_1_3x5
I1021 14:31:53.685079 29824 net.cpp:408] detection_accuracy_1_3x5 -> boxiou_1_3x5
I1021 14:31:53.685115 29824 net.cpp:150] Setting up detection_accuracy_1_3x5
I1021 14:31:53.685122 29824 net.cpp:157] Top shape: 1 1 1 2 (2)
I1021 14:31:53.685124 29824 net.cpp:157] Top shape: 1 1 1 1 (1)
I1021 14:31:53.685125 29824 net.cpp:165] Memory required for data: 2151928532
I1021 14:31:53.685127 29824 layer_factory.hpp:77] Creating layer LFCN_1_5x7
I1021 14:31:53.685133 29824 net.cpp:100] Creating Layer LFCN_1_5x7
I1021 14:31:53.685137 29824 net.cpp:434] LFCN_1_5x7 <- loss1_conv1_loss_relu1_0_split_1
I1021 14:31:53.685140 29824 net.cpp:408] LFCN_1_5x7 -> LFCN_1_5x7
I1021 14:31:53.688309 29824 net.cpp:150] Setting up LFCN_1_5x7
I1021 14:31:53.688329 29824 net.cpp:157] Top shape: 2 7 72 96 (96768)
I1021 14:31:53.688334 29824 net.cpp:165] Memory required for data: 2152315604
I1021 14:31:53.688341 29824 layer_factory.hpp:77] Creating layer LFCN_1_5x7_LFCN_1_5x7_0_split
I1021 14:31:53.688347 29824 net.cpp:100] Creating Layer LFCN_1_5x7_LFCN_1_5x7_0_split
I1021 14:31:53.688351 29824 net.cpp:434] LFCN_1_5x7_LFCN_1_5x7_0_split <- LFCN_1_5x7
I1021 14:31:53.688359 29824 net.cpp:408] LFCN_1_5x7_LFCN_1_5x7_0_split -> LFCN_1_5x7_LFCN_1_5x7_0_split_0
I1021 14:31:53.688370 29824 net.cpp:408] LFCN_1_5x7_LFCN_1_5x7_0_split -> LFCN_1_5x7_LFCN_1_5x7_0_split_1
I1021 14:31:53.688416 29824 net.cpp:150] Setting up LFCN_1_5x7_LFCN_1_5x7_0_split
I1021 14:31:53.688421 29824 net.cpp:157] Top shape: 2 7 72 96 (96768)
I1021 14:31:53.688424 29824 net.cpp:157] Top shape: 2 7 72 96 (96768)
I1021 14:31:53.688426 29824 net.cpp:165] Memory required for data: 2153089748
I1021 14:31:53.688427 29824 layer_factory.hpp:77] Creating layer detection_loss_1_5x7
I1021 14:31:53.688433 29824 net.cpp:100] Creating Layer detection_loss_1_5x7
I1021 14:31:53.688437 29824 net.cpp:434] detection_loss_1_5x7 <- LFCN_1_5x7_LFCN_1_5x7_0_split_0
I1021 14:31:53.688441 29824 net.cpp:434] detection_loss_1_5x7 <- label_1_5x7_data_2_split_0
I1021 14:31:53.688444 29824 net.cpp:408] detection_loss_1_5x7 -> loss_1_5x7
I1021 14:31:53.688450 29824 layer_factory.hpp:77] Creating layer detection_loss_1_5x7
I1021 14:31:53.689153 29824 net.cpp:150] Setting up detection_loss_1_5x7
I1021 14:31:53.689164 29824 net.cpp:157] Top shape: 1 1 1 2 (2)
I1021 14:31:53.689167 29824 net.cpp:160]     with loss weight 0.9
I1021 14:31:53.689177 29824 net.cpp:165] Memory required for data: 2153089756
I1021 14:31:53.689178 29824 layer_factory.hpp:77] Creating layer detection_accuracy_1_5x7
I1021 14:31:53.689184 29824 net.cpp:100] Creating Layer detection_accuracy_1_5x7
I1021 14:31:53.689188 29824 net.cpp:434] detection_accuracy_1_5x7 <- LFCN_1_5x7_LFCN_1_5x7_0_split_1
I1021 14:31:53.689193 29824 net.cpp:434] detection_accuracy_1_5x7 <- label_1_5x7_data_2_split_1
I1021 14:31:53.689198 29824 net.cpp:408] detection_accuracy_1_5x7 -> accuracy_1_5x7
I1021 14:31:53.689203 29824 net.cpp:408] detection_accuracy_1_5x7 -> boxiou_1_5x7
I1021 14:31:53.689246 29824 net.cpp:150] Setting up detection_accuracy_1_5x7
I1021 14:31:53.689257 29824 net.cpp:157] Top shape: 1 1 1 2 (2)
I1021 14:31:53.689260 29824 net.cpp:157] Top shape: 1 1 1 1 (1)
I1021 14:31:53.689262 29824 net.cpp:165] Memory required for data: 2153089768
I1021 14:31:53.689263 29824 layer_factory.hpp:77] Creating layer pool4
I1021 14:31:53.689268 29824 net.cpp:100] Creating Layer pool4
I1021 14:31:53.689272 29824 net.cpp:434] pool4 <- conv4_3_relu4_3_0_split_1
I1021 14:31:53.689275 29824 net.cpp:408] pool4 -> pool4
I1021 14:31:53.689312 29824 net.cpp:150] Setting up pool4
I1021 14:31:53.689317 29824 net.cpp:157] Top shape: 2 512 36 48 (1769472)
I1021 14:31:53.689319 29824 net.cpp:165] Memory required for data: 2160167656
I1021 14:31:53.689321 29824 layer_factory.hpp:77] Creating layer conv5_1
I1021 14:31:53.689330 29824 net.cpp:100] Creating Layer conv5_1
I1021 14:31:53.689333 29824 net.cpp:434] conv5_1 <- pool4
I1021 14:31:53.689338 29824 net.cpp:408] conv5_1 -> conv5_1
I1021 14:31:53.696218 29824 net.cpp:150] Setting up conv5_1
I1021 14:31:53.696241 29824 net.cpp:157] Top shape: 2 512 36 48 (1769472)
I1021 14:31:53.696244 29824 net.cpp:165] Memory required for data: 2167245544
I1021 14:31:53.696251 29824 layer_factory.hpp:77] Creating layer relu5_1
I1021 14:31:53.696260 29824 net.cpp:100] Creating Layer relu5_1
I1021 14:31:53.696266 29824 net.cpp:434] relu5_1 <- conv5_1
I1021 14:31:53.696274 29824 net.cpp:395] relu5_1 -> conv5_1 (in-place)
I1021 14:31:53.696437 29824 net.cpp:150] Setting up relu5_1
I1021 14:31:53.696444 29824 net.cpp:157] Top shape: 2 512 36 48 (1769472)
I1021 14:31:53.696445 29824 net.cpp:165] Memory required for data: 2174323432
I1021 14:31:53.696447 29824 layer_factory.hpp:77] Creating layer conv5_2
I1021 14:31:53.696455 29824 net.cpp:100] Creating Layer conv5_2
I1021 14:31:53.696458 29824 net.cpp:434] conv5_2 <- conv5_1
I1021 14:31:53.696461 29824 net.cpp:408] conv5_2 -> conv5_2
I1021 14:31:53.701383 29824 net.cpp:150] Setting up conv5_2
I1021 14:31:53.701402 29824 net.cpp:157] Top shape: 2 512 36 48 (1769472)
I1021 14:31:53.701405 29824 net.cpp:165] Memory required for data: 2181401320
I1021 14:31:53.701411 29824 layer_factory.hpp:77] Creating layer relu5_2
I1021 14:31:53.701421 29824 net.cpp:100] Creating Layer relu5_2
I1021 14:31:53.701424 29824 net.cpp:434] relu5_2 <- conv5_2
I1021 14:31:53.701431 29824 net.cpp:395] relu5_2 -> conv5_2 (in-place)
I1021 14:31:53.701586 29824 net.cpp:150] Setting up relu5_2
I1021 14:31:53.701592 29824 net.cpp:157] Top shape: 2 512 36 48 (1769472)
I1021 14:31:53.701594 29824 net.cpp:165] Memory required for data: 2188479208
I1021 14:31:53.701596 29824 layer_factory.hpp:77] Creating layer conv5_3
I1021 14:31:53.701604 29824 net.cpp:100] Creating Layer conv5_3
I1021 14:31:53.701607 29824 net.cpp:434] conv5_3 <- conv5_2
I1021 14:31:53.701611 29824 net.cpp:408] conv5_3 -> conv5_3
I1021 14:31:53.707226 29824 net.cpp:150] Setting up conv5_3
I1021 14:31:53.707253 29824 net.cpp:157] Top shape: 2 512 36 48 (1769472)
I1021 14:31:53.707257 29824 net.cpp:165] Memory required for data: 2195557096
I1021 14:31:53.707264 29824 layer_factory.hpp:77] Creating layer relu5_3
I1021 14:31:53.707274 29824 net.cpp:100] Creating Layer relu5_3
I1021 14:31:53.707279 29824 net.cpp:434] relu5_3 <- conv5_3
I1021 14:31:53.707284 29824 net.cpp:395] relu5_3 -> conv5_3 (in-place)
I1021 14:31:53.707448 29824 net.cpp:150] Setting up relu5_3
I1021 14:31:53.707455 29824 net.cpp:157] Top shape: 2 512 36 48 (1769472)
I1021 14:31:53.707458 29824 net.cpp:165] Memory required for data: 2202634984
I1021 14:31:53.707459 29824 layer_factory.hpp:77] Creating layer conv5_3_relu5_3_0_split
I1021 14:31:53.707465 29824 net.cpp:100] Creating Layer conv5_3_relu5_3_0_split
I1021 14:31:53.707468 29824 net.cpp:434] conv5_3_relu5_3_0_split <- conv5_3
I1021 14:31:53.707473 29824 net.cpp:408] conv5_3_relu5_3_0_split -> conv5_3_relu5_3_0_split_0
I1021 14:31:53.707479 29824 net.cpp:408] conv5_3_relu5_3_0_split -> conv5_3_relu5_3_0_split_1
I1021 14:31:53.707484 29824 net.cpp:408] conv5_3_relu5_3_0_split -> conv5_3_relu5_3_0_split_2
I1021 14:31:53.707535 29824 net.cpp:150] Setting up conv5_3_relu5_3_0_split
I1021 14:31:53.707540 29824 net.cpp:157] Top shape: 2 512 36 48 (1769472)
I1021 14:31:53.707542 29824 net.cpp:157] Top shape: 2 512 36 48 (1769472)
I1021 14:31:53.707545 29824 net.cpp:157] Top shape: 2 512 36 48 (1769472)
I1021 14:31:53.707547 29824 net.cpp:165] Memory required for data: 2223868648
I1021 14:31:53.707548 29824 layer_factory.hpp:77] Creating layer LFCN_2_3x5
I1021 14:31:53.707558 29824 net.cpp:100] Creating Layer LFCN_2_3x5
I1021 14:31:53.707562 29824 net.cpp:434] LFCN_2_3x5 <- conv5_3_relu5_3_0_split_0
I1021 14:31:53.707577 29824 net.cpp:408] LFCN_2_3x5 -> LFCN_2_3x5
I1021 14:31:53.710039 29824 net.cpp:150] Setting up LFCN_2_3x5
I1021 14:31:53.710057 29824 net.cpp:157] Top shape: 2 7 36 48 (24192)
I1021 14:31:53.710060 29824 net.cpp:165] Memory required for data: 2223965416
I1021 14:31:53.710074 29824 layer_factory.hpp:77] Creating layer LFCN_2_3x5_LFCN_2_3x5_0_split
I1021 14:31:53.710083 29824 net.cpp:100] Creating Layer LFCN_2_3x5_LFCN_2_3x5_0_split
I1021 14:31:53.710086 29824 net.cpp:434] LFCN_2_3x5_LFCN_2_3x5_0_split <- LFCN_2_3x5
I1021 14:31:53.710091 29824 net.cpp:408] LFCN_2_3x5_LFCN_2_3x5_0_split -> LFCN_2_3x5_LFCN_2_3x5_0_split_0
I1021 14:31:53.710098 29824 net.cpp:408] LFCN_2_3x5_LFCN_2_3x5_0_split -> LFCN_2_3x5_LFCN_2_3x5_0_split_1
I1021 14:31:53.710142 29824 net.cpp:150] Setting up LFCN_2_3x5_LFCN_2_3x5_0_split
I1021 14:31:53.710147 29824 net.cpp:157] Top shape: 2 7 36 48 (24192)
I1021 14:31:53.710150 29824 net.cpp:157] Top shape: 2 7 36 48 (24192)
I1021 14:31:53.710151 29824 net.cpp:165] Memory required for data: 2224158952
I1021 14:31:53.710153 29824 layer_factory.hpp:77] Creating layer detection_loss_2_3x5
I1021 14:31:53.710160 29824 net.cpp:100] Creating Layer detection_loss_2_3x5
I1021 14:31:53.710163 29824 net.cpp:434] detection_loss_2_3x5 <- LFCN_2_3x5_LFCN_2_3x5_0_split_0
I1021 14:31:53.710167 29824 net.cpp:434] detection_loss_2_3x5 <- label_2_3x5_data_3_split_0
I1021 14:31:53.710172 29824 net.cpp:408] detection_loss_2_3x5 -> loss_2_3x5
I1021 14:31:53.710180 29824 layer_factory.hpp:77] Creating layer detection_loss_2_3x5
I1021 14:31:53.710508 29824 net.cpp:150] Setting up detection_loss_2_3x5
I1021 14:31:53.710516 29824 net.cpp:157] Top shape: 1 1 1 2 (2)
I1021 14:31:53.710518 29824 net.cpp:160]     with loss weight 1
I1021 14:31:53.710530 29824 net.cpp:165] Memory required for data: 2224158960
I1021 14:31:53.710532 29824 layer_factory.hpp:77] Creating layer detection_accuracy_2_3x5
I1021 14:31:53.710541 29824 net.cpp:100] Creating Layer detection_accuracy_2_3x5
I1021 14:31:53.710546 29824 net.cpp:434] detection_accuracy_2_3x5 <- LFCN_2_3x5_LFCN_2_3x5_0_split_1
I1021 14:31:53.710549 29824 net.cpp:434] detection_accuracy_2_3x5 <- label_2_3x5_data_3_split_1
I1021 14:31:53.710554 29824 net.cpp:408] detection_accuracy_2_3x5 -> accuracy_2_3x5
I1021 14:31:53.710559 29824 net.cpp:408] detection_accuracy_2_3x5 -> boxiou_2_3x5
I1021 14:31:53.710613 29824 net.cpp:150] Setting up detection_accuracy_2_3x5
I1021 14:31:53.710618 29824 net.cpp:157] Top shape: 1 1 1 2 (2)
I1021 14:31:53.710620 29824 net.cpp:157] Top shape: 1 1 1 1 (1)
I1021 14:31:53.710623 29824 net.cpp:165] Memory required for data: 2224158972
I1021 14:31:53.710625 29824 layer_factory.hpp:77] Creating layer LFCN_2_5x7
I1021 14:31:53.710633 29824 net.cpp:100] Creating Layer LFCN_2_5x7
I1021 14:31:53.710636 29824 net.cpp:434] LFCN_2_5x7 <- conv5_3_relu5_3_0_split_1
I1021 14:31:53.710640 29824 net.cpp:408] LFCN_2_5x7 -> LFCN_2_5x7
I1021 14:31:53.712807 29824 net.cpp:150] Setting up LFCN_2_5x7
I1021 14:31:53.712822 29824 net.cpp:157] Top shape: 2 7 36 48 (24192)
I1021 14:31:53.712826 29824 net.cpp:165] Memory required for data: 2224255740
I1021 14:31:53.712831 29824 layer_factory.hpp:77] Creating layer LFCN_2_5x7_LFCN_2_5x7_0_split
I1021 14:31:53.712836 29824 net.cpp:100] Creating Layer LFCN_2_5x7_LFCN_2_5x7_0_split
I1021 14:31:53.712839 29824 net.cpp:434] LFCN_2_5x7_LFCN_2_5x7_0_split <- LFCN_2_5x7
I1021 14:31:53.712846 29824 net.cpp:408] LFCN_2_5x7_LFCN_2_5x7_0_split -> LFCN_2_5x7_LFCN_2_5x7_0_split_0
I1021 14:31:53.712852 29824 net.cpp:408] LFCN_2_5x7_LFCN_2_5x7_0_split -> LFCN_2_5x7_LFCN_2_5x7_0_split_1
I1021 14:31:53.712894 29824 net.cpp:150] Setting up LFCN_2_5x7_LFCN_2_5x7_0_split
I1021 14:31:53.712899 29824 net.cpp:157] Top shape: 2 7 36 48 (24192)
I1021 14:31:53.712903 29824 net.cpp:157] Top shape: 2 7 36 48 (24192)
I1021 14:31:53.712904 29824 net.cpp:165] Memory required for data: 2224449276
I1021 14:31:53.712905 29824 layer_factory.hpp:77] Creating layer detection_loss_2_5x7
I1021 14:31:53.712911 29824 net.cpp:100] Creating Layer detection_loss_2_5x7
I1021 14:31:53.712914 29824 net.cpp:434] detection_loss_2_5x7 <- LFCN_2_5x7_LFCN_2_5x7_0_split_0
I1021 14:31:53.712918 29824 net.cpp:434] detection_loss_2_5x7 <- label_2_5x7_data_4_split_0
I1021 14:31:53.712923 29824 net.cpp:408] detection_loss_2_5x7 -> loss_2_5x7
I1021 14:31:53.712929 29824 layer_factory.hpp:77] Creating layer detection_loss_2_5x7
I1021 14:31:53.713253 29824 net.cpp:150] Setting up detection_loss_2_5x7
I1021 14:31:53.713263 29824 net.cpp:157] Top shape: 1 1 1 2 (2)
I1021 14:31:53.713264 29824 net.cpp:160]     with loss weight 1
I1021 14:31:53.713269 29824 net.cpp:165] Memory required for data: 2224449284
I1021 14:31:53.713273 29824 layer_factory.hpp:77] Creating layer detection_accuracy_2_5x7
I1021 14:31:53.713277 29824 net.cpp:100] Creating Layer detection_accuracy_2_5x7
I1021 14:31:53.713280 29824 net.cpp:434] detection_accuracy_2_5x7 <- LFCN_2_5x7_LFCN_2_5x7_0_split_1
I1021 14:31:53.713284 29824 net.cpp:434] detection_accuracy_2_5x7 <- label_2_5x7_data_4_split_1
I1021 14:31:53.713289 29824 net.cpp:408] detection_accuracy_2_5x7 -> accuracy_2_5x7
I1021 14:31:53.713294 29824 net.cpp:408] detection_accuracy_2_5x7 -> boxiou_2_5x7
I1021 14:31:53.713332 29824 net.cpp:150] Setting up detection_accuracy_2_5x7
I1021 14:31:53.713337 29824 net.cpp:157] Top shape: 1 1 1 2 (2)
I1021 14:31:53.713340 29824 net.cpp:157] Top shape: 1 1 1 1 (1)
I1021 14:31:53.713341 29824 net.cpp:165] Memory required for data: 2224449296
I1021 14:31:53.713343 29824 layer_factory.hpp:77] Creating layer pool5
I1021 14:31:53.713349 29824 net.cpp:100] Creating Layer pool5
I1021 14:31:53.713352 29824 net.cpp:434] pool5 <- conv5_3_relu5_3_0_split_2
I1021 14:31:53.713356 29824 net.cpp:408] pool5 -> pool5
I1021 14:31:53.713392 29824 net.cpp:150] Setting up pool5
I1021 14:31:53.713397 29824 net.cpp:157] Top shape: 2 512 18 24 (442368)
I1021 14:31:53.713399 29824 net.cpp:165] Memory required for data: 2226218768
I1021 14:31:53.713400 29824 layer_factory.hpp:77] Creating layer conv6_1
I1021 14:31:53.713408 29824 net.cpp:100] Creating Layer conv6_1
I1021 14:31:53.713412 29824 net.cpp:434] conv6_1 <- pool5
I1021 14:31:53.713416 29824 net.cpp:408] conv6_1 -> conv6_1
I1021 14:31:53.735648 29824 net.cpp:150] Setting up conv6_1
I1021 14:31:53.735673 29824 net.cpp:157] Top shape: 2 512 18 24 (442368)
I1021 14:31:53.735676 29824 net.cpp:165] Memory required for data: 2227988240
I1021 14:31:53.735684 29824 layer_factory.hpp:77] Creating layer relu6_1
I1021 14:31:53.735692 29824 net.cpp:100] Creating Layer relu6_1
I1021 14:31:53.735695 29824 net.cpp:434] relu6_1 <- conv6_1
I1021 14:31:53.735702 29824 net.cpp:395] relu6_1 -> conv6_1 (in-place)
I1021 14:31:53.736214 29824 net.cpp:150] Setting up relu6_1
I1021 14:31:53.736225 29824 net.cpp:157] Top shape: 2 512 18 24 (442368)
I1021 14:31:53.736228 29824 net.cpp:165] Memory required for data: 2229757712
I1021 14:31:53.736230 29824 layer_factory.hpp:77] Creating layer conv6_1_relu6_1_0_split
I1021 14:31:53.736237 29824 net.cpp:100] Creating Layer conv6_1_relu6_1_0_split
I1021 14:31:53.736240 29824 net.cpp:434] conv6_1_relu6_1_0_split <- conv6_1
I1021 14:31:53.736245 29824 net.cpp:408] conv6_1_relu6_1_0_split -> conv6_1_relu6_1_0_split_0
I1021 14:31:53.736253 29824 net.cpp:408] conv6_1_relu6_1_0_split -> conv6_1_relu6_1_0_split_1
I1021 14:31:53.736258 29824 net.cpp:408] conv6_1_relu6_1_0_split -> conv6_1_relu6_1_0_split_2
I1021 14:31:53.736315 29824 net.cpp:150] Setting up conv6_1_relu6_1_0_split
I1021 14:31:53.736321 29824 net.cpp:157] Top shape: 2 512 18 24 (442368)
I1021 14:31:53.736323 29824 net.cpp:157] Top shape: 2 512 18 24 (442368)
I1021 14:31:53.736326 29824 net.cpp:157] Top shape: 2 512 18 24 (442368)
I1021 14:31:53.736328 29824 net.cpp:165] Memory required for data: 2235066128
I1021 14:31:53.736330 29824 layer_factory.hpp:77] Creating layer LFCN_3_3x5
I1021 14:31:53.736338 29824 net.cpp:100] Creating Layer LFCN_3_3x5
I1021 14:31:53.736342 29824 net.cpp:434] LFCN_3_3x5 <- conv6_1_relu6_1_0_split_0
I1021 14:31:53.736347 29824 net.cpp:408] LFCN_3_3x5 -> LFCN_3_3x5
I1021 14:31:53.737823 29824 net.cpp:150] Setting up LFCN_3_3x5
I1021 14:31:53.737833 29824 net.cpp:157] Top shape: 2 7 18 24 (6048)
I1021 14:31:53.737835 29824 net.cpp:165] Memory required for data: 2235090320
I1021 14:31:53.737840 29824 layer_factory.hpp:77] Creating layer LFCN_3_3x5_LFCN_3_3x5_0_split
I1021 14:31:53.737857 29824 net.cpp:100] Creating Layer LFCN_3_3x5_LFCN_3_3x5_0_split
I1021 14:31:53.737860 29824 net.cpp:434] LFCN_3_3x5_LFCN_3_3x5_0_split <- LFCN_3_3x5
I1021 14:31:53.737865 29824 net.cpp:408] LFCN_3_3x5_LFCN_3_3x5_0_split -> LFCN_3_3x5_LFCN_3_3x5_0_split_0
I1021 14:31:53.737871 29824 net.cpp:408] LFCN_3_3x5_LFCN_3_3x5_0_split -> LFCN_3_3x5_LFCN_3_3x5_0_split_1
I1021 14:31:53.737911 29824 net.cpp:150] Setting up LFCN_3_3x5_LFCN_3_3x5_0_split
I1021 14:31:53.737916 29824 net.cpp:157] Top shape: 2 7 18 24 (6048)
I1021 14:31:53.737920 29824 net.cpp:157] Top shape: 2 7 18 24 (6048)
I1021 14:31:53.737921 29824 net.cpp:165] Memory required for data: 2235138704
I1021 14:31:53.737923 29824 layer_factory.hpp:77] Creating layer detection_loss_3_3x5
I1021 14:31:53.737928 29824 net.cpp:100] Creating Layer detection_loss_3_3x5
I1021 14:31:53.737931 29824 net.cpp:434] detection_loss_3_3x5 <- LFCN_3_3x5_LFCN_3_3x5_0_split_0
I1021 14:31:53.737936 29824 net.cpp:434] detection_loss_3_3x5 <- label_3_3x5_data_5_split_0
I1021 14:31:53.737939 29824 net.cpp:408] detection_loss_3_3x5 -> loss_3_3x5
I1021 14:31:53.737946 29824 layer_factory.hpp:77] Creating layer detection_loss_3_3x5
I1021 14:31:53.738265 29824 net.cpp:150] Setting up detection_loss_3_3x5
I1021 14:31:53.738271 29824 net.cpp:157] Top shape: 1 1 1 2 (2)
I1021 14:31:53.738273 29824 net.cpp:160]     with loss weight 1
I1021 14:31:53.738283 29824 net.cpp:165] Memory required for data: 2235138712
I1021 14:31:53.738286 29824 layer_factory.hpp:77] Creating layer detection_accuracy_3_3x5
I1021 14:31:53.738291 29824 net.cpp:100] Creating Layer detection_accuracy_3_3x5
I1021 14:31:53.738294 29824 net.cpp:434] detection_accuracy_3_3x5 <- LFCN_3_3x5_LFCN_3_3x5_0_split_1
I1021 14:31:53.738298 29824 net.cpp:434] detection_accuracy_3_3x5 <- label_3_3x5_data_5_split_1
I1021 14:31:53.738303 29824 net.cpp:408] detection_accuracy_3_3x5 -> accuracy_3_3x5
I1021 14:31:53.738309 29824 net.cpp:408] detection_accuracy_3_3x5 -> boxiou_3_3x5
I1021 14:31:53.738346 29824 net.cpp:150] Setting up detection_accuracy_3_3x5
I1021 14:31:53.738351 29824 net.cpp:157] Top shape: 1 1 1 2 (2)
I1021 14:31:53.738354 29824 net.cpp:157] Top shape: 1 1 1 1 (1)
I1021 14:31:53.738355 29824 net.cpp:165] Memory required for data: 2235138724
I1021 14:31:53.738358 29824 layer_factory.hpp:77] Creating layer LFCN_3_5x7
I1021 14:31:53.738364 29824 net.cpp:100] Creating Layer LFCN_3_5x7
I1021 14:31:53.738368 29824 net.cpp:434] LFCN_3_5x7 <- conv6_1_relu6_1_0_split_1
I1021 14:31:53.738373 29824 net.cpp:408] LFCN_3_5x7 -> LFCN_3_5x7
I1021 14:31:53.740376 29824 net.cpp:150] Setting up LFCN_3_5x7
I1021 14:31:53.740387 29824 net.cpp:157] Top shape: 2 7 18 24 (6048)
I1021 14:31:53.740389 29824 net.cpp:165] Memory required for data: 2235162916
I1021 14:31:53.740394 29824 layer_factory.hpp:77] Creating layer LFCN_3_5x7_LFCN_3_5x7_0_split
I1021 14:31:53.740401 29824 net.cpp:100] Creating Layer LFCN_3_5x7_LFCN_3_5x7_0_split
I1021 14:31:53.740404 29824 net.cpp:434] LFCN_3_5x7_LFCN_3_5x7_0_split <- LFCN_3_5x7
I1021 14:31:53.740411 29824 net.cpp:408] LFCN_3_5x7_LFCN_3_5x7_0_split -> LFCN_3_5x7_LFCN_3_5x7_0_split_0
I1021 14:31:53.740417 29824 net.cpp:408] LFCN_3_5x7_LFCN_3_5x7_0_split -> LFCN_3_5x7_LFCN_3_5x7_0_split_1
I1021 14:31:53.740456 29824 net.cpp:150] Setting up LFCN_3_5x7_LFCN_3_5x7_0_split
I1021 14:31:53.740463 29824 net.cpp:157] Top shape: 2 7 18 24 (6048)
I1021 14:31:53.740466 29824 net.cpp:157] Top shape: 2 7 18 24 (6048)
I1021 14:31:53.740468 29824 net.cpp:165] Memory required for data: 2235211300
I1021 14:31:53.740469 29824 layer_factory.hpp:77] Creating layer detection_loss_3_5x7
I1021 14:31:53.740475 29824 net.cpp:100] Creating Layer detection_loss_3_5x7
I1021 14:31:53.740478 29824 net.cpp:434] detection_loss_3_5x7 <- LFCN_3_5x7_LFCN_3_5x7_0_split_0
I1021 14:31:53.740481 29824 net.cpp:434] detection_loss_3_5x7 <- label_3_5x7_data_6_split_0
I1021 14:31:53.740486 29824 net.cpp:408] detection_loss_3_5x7 -> loss_3_5x7
I1021 14:31:53.740492 29824 layer_factory.hpp:77] Creating layer detection_loss_3_5x7
I1021 14:31:53.740815 29824 net.cpp:150] Setting up detection_loss_3_5x7
I1021 14:31:53.740823 29824 net.cpp:157] Top shape: 1 1 1 2 (2)
I1021 14:31:53.740825 29824 net.cpp:160]     with loss weight 1
I1021 14:31:53.740831 29824 net.cpp:165] Memory required for data: 2235211308
I1021 14:31:53.740833 29824 layer_factory.hpp:77] Creating layer detection_accuracy_3_5x7
I1021 14:31:53.740839 29824 net.cpp:100] Creating Layer detection_accuracy_3_5x7
I1021 14:31:53.740842 29824 net.cpp:434] detection_accuracy_3_5x7 <- LFCN_3_5x7_LFCN_3_5x7_0_split_1
I1021 14:31:53.740846 29824 net.cpp:434] detection_accuracy_3_5x7 <- label_3_5x7_data_6_split_1
I1021 14:31:53.740852 29824 net.cpp:408] detection_accuracy_3_5x7 -> accuracy_3_5x7
I1021 14:31:53.740859 29824 net.cpp:408] detection_accuracy_3_5x7 -> boxiou_3_5x7
I1021 14:31:53.740897 29824 net.cpp:150] Setting up detection_accuracy_3_5x7
I1021 14:31:53.740903 29824 net.cpp:157] Top shape: 1 1 1 2 (2)
I1021 14:31:53.740906 29824 net.cpp:157] Top shape: 1 1 1 1 (1)
I1021 14:31:53.740908 29824 net.cpp:165] Memory required for data: 2235211320
I1021 14:31:53.740911 29824 layer_factory.hpp:77] Creating layer pool6
I1021 14:31:53.740914 29824 net.cpp:100] Creating Layer pool6
I1021 14:31:53.740918 29824 net.cpp:434] pool6 <- conv6_1_relu6_1_0_split_2
I1021 14:31:53.740922 29824 net.cpp:408] pool6 -> pool6
I1021 14:31:53.740958 29824 net.cpp:150] Setting up pool6
I1021 14:31:53.740963 29824 net.cpp:157] Top shape: 2 512 9 12 (110592)
I1021 14:31:53.740965 29824 net.cpp:165] Memory required for data: 2235653688
I1021 14:31:53.740967 29824 layer_factory.hpp:77] Creating layer LFCN_4_3x5
I1021 14:31:53.740973 29824 net.cpp:100] Creating Layer LFCN_4_3x5
I1021 14:31:53.740978 29824 net.cpp:434] LFCN_4_3x5 <- pool6
I1021 14:31:53.740981 29824 net.cpp:408] LFCN_4_3x5 -> LFCN_4_3x5
I1021 14:31:53.742429 29824 net.cpp:150] Setting up LFCN_4_3x5
I1021 14:31:53.742439 29824 net.cpp:157] Top shape: 2 7 9 12 (1512)
I1021 14:31:53.742441 29824 net.cpp:165] Memory required for data: 2235659736
I1021 14:31:53.742446 29824 layer_factory.hpp:77] Creating layer LFCN_4_3x5_LFCN_4_3x5_0_split
I1021 14:31:53.742453 29824 net.cpp:100] Creating Layer LFCN_4_3x5_LFCN_4_3x5_0_split
I1021 14:31:53.742456 29824 net.cpp:434] LFCN_4_3x5_LFCN_4_3x5_0_split <- LFCN_4_3x5
I1021 14:31:53.742460 29824 net.cpp:408] LFCN_4_3x5_LFCN_4_3x5_0_split -> LFCN_4_3x5_LFCN_4_3x5_0_split_0
I1021 14:31:53.742467 29824 net.cpp:408] LFCN_4_3x5_LFCN_4_3x5_0_split -> LFCN_4_3x5_LFCN_4_3x5_0_split_1
I1021 14:31:53.742514 29824 net.cpp:150] Setting up LFCN_4_3x5_LFCN_4_3x5_0_split
I1021 14:31:53.742519 29824 net.cpp:157] Top shape: 2 7 9 12 (1512)
I1021 14:31:53.742522 29824 net.cpp:157] Top shape: 2 7 9 12 (1512)
I1021 14:31:53.742524 29824 net.cpp:165] Memory required for data: 2235671832
I1021 14:31:53.742527 29824 layer_factory.hpp:77] Creating layer detection_loss_4_3x5
I1021 14:31:53.742532 29824 net.cpp:100] Creating Layer detection_loss_4_3x5
I1021 14:31:53.742535 29824 net.cpp:434] detection_loss_4_3x5 <- LFCN_4_3x5_LFCN_4_3x5_0_split_0
I1021 14:31:53.742539 29824 net.cpp:434] detection_loss_4_3x5 <- label_4_3x5_data_7_split_0
I1021 14:31:53.742544 29824 net.cpp:408] detection_loss_4_3x5 -> loss_4_3x5
I1021 14:31:53.742550 29824 layer_factory.hpp:77] Creating layer detection_loss_4_3x5
I1021 14:31:53.742859 29824 net.cpp:150] Setting up detection_loss_4_3x5
I1021 14:31:53.742869 29824 net.cpp:157] Top shape: 1 1 1 2 (2)
I1021 14:31:53.742871 29824 net.cpp:160]     with loss weight 1
I1021 14:31:53.742877 29824 net.cpp:165] Memory required for data: 2235671840
I1021 14:31:53.742879 29824 layer_factory.hpp:77] Creating layer detection_accuracy_4_3x5
I1021 14:31:53.742884 29824 net.cpp:100] Creating Layer detection_accuracy_4_3x5
I1021 14:31:53.742888 29824 net.cpp:434] detection_accuracy_4_3x5 <- LFCN_4_3x5_LFCN_4_3x5_0_split_1
I1021 14:31:53.742892 29824 net.cpp:434] detection_accuracy_4_3x5 <- label_4_3x5_data_7_split_1
I1021 14:31:53.742894 29824 net.cpp:408] detection_accuracy_4_3x5 -> accuracy_4_3x5
I1021 14:31:53.742902 29824 net.cpp:408] detection_accuracy_4_3x5 -> boxiou_4_3x5
I1021 14:31:53.742940 29824 net.cpp:150] Setting up detection_accuracy_4_3x5
I1021 14:31:53.742945 29824 net.cpp:157] Top shape: 1 1 1 2 (2)
I1021 14:31:53.742947 29824 net.cpp:157] Top shape: 1 1 1 1 (1)
I1021 14:31:53.742949 29824 net.cpp:165] Memory required for data: 2235671852
I1021 14:31:53.742951 29824 net.cpp:228] detection_accuracy_4_3x5 does not need backward computation.
I1021 14:31:53.742954 29824 net.cpp:226] detection_loss_4_3x5 needs backward computation.
I1021 14:31:53.742956 29824 net.cpp:226] LFCN_4_3x5_LFCN_4_3x5_0_split needs backward computation.
I1021 14:31:53.742959 29824 net.cpp:226] LFCN_4_3x5 needs backward computation.
…
