…
    downsample_rate: 32
    downsample_rate: 32
    downsample_rate: 64
    coord_num: 4
    field_h: 60
    field_h: 84
    field_h: 120
    field_h: 168
    field_h: 240
    field_h: 336
    field_h: 480
    field_w: 40
    field_w: 56
    field_w: 80
    field_w: 112
    field_w: 160
    field_w: 224
    field_w: 320
    fg_threshold: 0.5
    resize_width: 1920
    resize_height: 576
    crop_width: 768
    crop_height: 576
    do_multiple_scale: true
    min_scale: 50
    max_scale: 420
    min_gt_height: 35
    shuffle: true
    output_gt_boxes: true
  }
}
layer {
  name: "conv1_1"
  type: "Convolution"
  bottom: "data"
  top: "conv1_1"
  param {
    lr_mult: 0
    decay_mult: 0
  }
  param {
    lr_mult: 0
    decay_mult: 0
  }
  convolution_param {
    num_output: 64
    pad: 1
    kernel_size: 3
  }
}
layer {
  name: "relu1_1"
  type: "ReLU"
  bottom: "conv1_1"
  top: "conv1_1"
}
layer {
  name: "conv1_2"
  type: "Convolution"
  bottom: "conv1_1"
  top: "conv1_2"
  param {
    lr_mult: 0
    decay_mult: 0
  }
  param {
    lr_mult: 0
    decay_mult: 0
  }
  convolution_param {
    num_output: 64
    pad: 1
    kernel_size: 3
  }
}
layer {
  name: "relu1_2"
  type: "ReLU"
  bottom: "conv1_2"
  top: "conv1_2"
}
layer {
  name: "pool1"
  type: "Pooling"
  bottom: "conv1_2"
  top: "pool1"
  pooling_param {
    pool: MAX
    kernel_size: 2
    stride: 2
  }
}
layer {
  name: "conv2_1"
  type: "Convolution"
  bottom: "pool1"
  top: "conv2_1"
  param {
    lr_mult: 0
    decay_mult: 0
  }
  param {
    lr_mult: 0
    decay_mult: 0
  }
  convolution_param {
    num_output: 128
    pad: 1
    kernel_size: 3
  }
}
layer {
  name: "relu2_1"
  type: "ReLU"
  bottom: "conv2_1"
  top: "conv2_1"
}
layer {
  name: "conv2_2"
  type: "Convolution"
  bottom: "conv2_1"
  top: "conv2_2"
  param {
    lr_mult: 0
    decay_mult: 0
  }
  param {
    lr_mult: 0
    decay_mult: 0
  }
  convolution_param {
    num_output: 128
    pad: 1
    kernel_size: 3
  }
}
layer {
  name: "relu2_2"
  type: "ReLU"
  bottom: "conv2_2"
  top: "conv2_2"
}
layer {
  name: "pool2"
  type: "Pooling"
  bottom: "conv2_2"
  top: "pool2"
  pooling_param {
    pool: MAX
    kernel_size: 2
    stride: 2
  }
}
layer {
  name: "conv3_1"
  type: "Convolution"
  bottom: "pool2"
  top: "conv3_1"
  convolution_param {
    num_output: 256
    pad: 1
    kernel_size: 3
  }
}
layer {
  name: "relu3_1"
  type: "ReLU"
  bottom: "conv3_1"
  top: "conv3_1"
}
layer {
  name: "conv3_2"
  type: "Convolution"
  bottom: "conv3_1"
  top: "conv3_2"
  convolution_param {
    num_output: 256
    pad: 1
    kernel_size: 3
  }
}
layer {
  name: "relu3_2"
  type: "ReLU"
  bottom: "conv3_2"
  top: "conv3_2"
}
layer {
  name: "conv3_3"
  type: "Convolution"
  bottom: "conv3_2"
  top: "conv3_3"
  convolution_param {
    num_output: 256
    pad: 1
    kernel_size: 3
  }
}
layer {
  name: "relu3_3"
  type: "ReLU"
  bottom: "conv3_3"
  top: "conv3_3"
}
layer {
  name: "pool3"
  type: "Pooling"
  bottom: "conv3_3"
  top: "pool3"
  pooling_param {
    pool: MAX
    kernel_size: 2
    stride: 2
  }
}
layer {
  name: "conv4_1"
  type: "Convolution"
  bottom: "pool3"
  top: "conv4_1"
  convolution_param {
    num_output: 512
    pad: 1
    kernel_size: 3
  }
}
layer {
  name: "relu4_1"
  type: "ReLU"
  bottom: "conv4_1"
  top: "conv4_1"
}
layer {
  name: "conv4_2"
  type: "Convolution"
  bottom: "conv4_1"
  top: "conv4_2"
  convolution_param {
    num_output: 512
    pad: 1
    kernel_size: 3
  }
}
layer {
  name: "relu4_2"
  type: "ReLU"
  bottom: "conv4_2"
  top: "conv4_2"
}
layer {
  name: "conv4_3"
  type: "Convolution"
  bottom: "conv4_2"
  top: "conv4_3"
  convolution_param {
    num_output: 512
    pad: 1
    kernel_size: 3
  }
}
layer {
  name: "relu4_3"
  type: "ReLU"
  bottom: "conv4_3"
  top: "conv4_3"
}
layer {
  name: "loss1_conv1"
  type: "Convolution"
  bottom: "conv4_3"
  top: "loss1_conv1"
  param {
    lr_mult: 1
    decay_mult: 1
  }
  param {
    lr_mult: 2
    decay_mult: 0
  }
  convolution_param {
    num_output: 512
    pad: 1
    kernel_size: 3
    weight_filler {
      type: "gaussian"
      std: 0.01
    }
    bias_filler {
      type: "constant"
    }
  }
}
layer {
  name: "loss_relu1"
  type: "ReLU"
  bottom: "loss1_conv1"
  top: "loss1_conv1"
}
layer {
  name: "LFCN_1_3x5"
  type: "Convolution"
  bottom: "loss1_conv1"
  top: "LFCN_1_3x5"
  param {
    lr_mult: 1
    decay_mult: 1
  }
  param {
    lr_mult: 2
    decay_mult: 0
  }
  convolution_param {
    num_output: 7
    weight_filler {
      type: "gaussian"
      std: 0.001
    }
    bias_filler {
      type: "constant"
    }
    pad_h: 2
    pad_w: 1
    kernel_h: 5
    kernel_w: 3
  }
}
layer {
  name: "detection_loss_1_3x5"
  type: "DetectionLoss"
  bottom: "LFCN_1_3x5"
  bottom: "label_1_3x5"
  top: "loss_1_3x5"
  loss_weight: 0.5
  detection_loss_param {
    cls_num: 3
    coord_num: 4
    lambda: 1
    field_h: 60
    field_w: 40
    downsample_rate: 8
    bb_smooth: true
    field_whr: 2
    field_xyr: 2
    bg_threshold: 0.2
    bg_multiple: 2
    sample_mode: "bootstrap"
    pos_neg_weighted: true
  }
}
layer {
  name: "detection_accuracy_1_3x5"
  type: "DetectionAccuracy"
  bottom: "LFCN_1_3x5"
  bottom: "label_1_3x5"
  top: "accuracy_1_3x5"
  top: "boxiou_1_3x5"
  detection_accuracy_param {
    cls_num: 3
    coord_num: 4
    field_h: 60
    field_w: 40
    downsample_rate: 8
    field_whr: 2
    field_xyr: 2
  }
}
layer {
  name: "LFCN_1_5x7"
  type: "Convolution"
  bottom: "loss1_conv1"
  top: "LFCN_1_5x7"
  param {
    lr_mult: 1
    decay_mult: 1
  }
  param {
    lr_mult: 2
    decay_mult: 0
  }
  convolution_param {
    num_output: 7
    weight_filler {
      type: "gaussian"
      std: 0.001
    }
    bias_filler {
      type: "constant"
    }
    pad_h: 3
    pad_w: 2
    kernel_h: 7
    kernel_w: 5
  }
}
layer {
  name: "detection_loss_1_5x7"
  type: "DetectionLoss"
  bottom: "LFCN_1_5x7"
  bottom: "label_1_5x7"
  top: "loss_1_5x7"
  loss_weight: 0.9
  detection_loss_param {
    cls_num: 3
    coord_num: 4
    lambda: 1
    field_h: 84
    field_w: 56
    downsample_rate: 8
    bb_smooth: true
    field_whr: 2
    field_xyr: 2
    bg_threshold: 0.2
    bg_multiple: 2
    sample_mode: "bootstrap"
    pos_neg_weighted: true
  }
}
layer {
  name: "detection_accuracy_1_5x7"
  type: "DetectionAccuracy"
  bottom: "LFCN_1_5x7"
  bottom: "label_1_5x7"
  top: "accuracy_1_5x7"
  top: "boxiou_1_5x7"
  detection_accuracy_param {
    cls_num: 3
    coord_num: 4
    field_h: 84
    field_w: 56
    downsample_rate: 8
    field_whr: 2
    field_xyr: 2
  }
}
layer {
  name: "pool4"
  type: "Pooling"
  bottom: "conv4_3"
  top: "pool4"
  pooling_param {
    pool: MAX
    kernel_size: 2
    stride: 2
  }
}
layer {
  name: "conv5_1"
  type: "Convolution"
  bottom: "pool4"
  top: "conv5_1"
  convolution_param {
    num_output: 512
    pad: 1
    kernel_size: 3
  }
}
layer {
  name: "relu5_1"
  type: "ReLU"
  bottom: "conv5_1"
  top: "conv5_1"
}
layer {
  name: "conv5_2"
  type: "Convolution"
  bottom: "conv5_1"
  top: "conv5_2"
  convolution_param {
    num_output: 512
    pad: 1
    kernel_size: 3
  }
}
layer {
  name: "relu5_2"
  type: "ReLU"
  bottom: "conv5_2"
  top: "conv5_2"
}
layer {
  name: "conv5_3"
  type: "Convolution"
  bottom: "conv5_2"
  top: "conv5_3"
  convolution_param {
    num_output: 512
    pad: 1
    kernel_size: 3
  }
}
layer {
  name: "relu5_3"
  type: "ReLU"
  bottom: "conv5_3"
  top: "conv5_3"
}
layer {
  name: "LFCN_2_3x5"
  type: "Convolution"
  bottom: "conv5_3"
  top: "LFCN_2_3x5"
  param {
    lr_mult: 1
    decay_mult: 1
  }
  param {
    lr_mult: 2
    decay_mult: 0
  }
  convolution_param {
    num_output: 7
    weight_filler {
      type: "gaussian"
      std: 0.001
    }
    bias_filler {
      type: "constant"
    }
    pad_h: 2
    pad_w: 1
    kernel_h: 5
    kernel_w: 3
  }
}
layer {
  name: "detection_loss_2_3x5"
  type: "DetectionLoss"
  bottom: "LFCN_2_3x5"
  bottom: "label_2_3x5"
  top: "loss_2_3x5"
  detection_loss_param {
    cls_num: 3
    coord_num: 4
    lambda: 1
    field_h: 120
    field_w: 80
    downsample_rate: 16
    bb_smooth: true
    field_whr: 2
    field_xyr: 2
    bg_threshold: 0.2
    bg_multiple: 2
    sample_mode: "bootstrap"
    pos_neg_weighted: true
  }
}
layer {
  name: "detection_accuracy_2_3x5"
  type: "DetectionAccuracy"
  bottom: "LFCN_2_3x5"
  bottom: "label_2_3x5"
  top: "accuracy_2_3x5"
  top: "boxiou_2_3x5"
  detection_accuracy_param {
    cls_num: 3
    coord_num: 4
    field_h: 120
    field_w: 80
    downsample_rate: 16
    field_whr: 2
    field_xyr: 2
  }
}
layer {
  name: "LFCN_2_5x7"
  type: "Convolution"
  bottom: "conv5_3"
  top: "LFCN_2_5x7"
  param {
    lr_mult: 1
    decay_mult: 1
  }
  param {
    lr_mult: 2
    decay_mult: 0
  }
  convolution_param {
    num_output: 7
    weight_filler {
      type: "gaussian"
      std: 0.001
    }
    bias_filler {
      type: "constant"
    }
    pad_h: 3
    pad_w: 2
    kernel_h: 7
    kernel_w: 5
  }
}
layer {
  name: "detection_loss_2_5x7"
  type: "DetectionLoss"
  bottom: "LFCN_2_5x7"
  bottom: "label_2_5x7"
  top: "loss_2_5x7"
  detection_loss_param {
    cls_num: 3
    coord_num: 4
    lambda: 1
    field_h: 168
    field_w: 112
    downsample_rate: 16
    bb_smooth: true
    field_whr: 2
    field_xyr: 2
    bg_threshold: 0.2
    bg_multiple: 2
    sample_mode: "bootstrap"
    pos_neg_weighted: true
  }
}
layer {
  name: "detection_accuracy_2_5x7"
  type: "DetectionAccuracy"
  bottom: "LFCN_2_5x7"
  bottom: "label_2_5x7"
  top: "accuracy_2_5x7"
  top: "boxiou_2_5x7"
  detection_accuracy_param {
    cls_num: 3
    coord_num: 4
    field_h: 168
    field_w: 112
    downsample_rate: 16
    field_whr: 2
    field_xyr: 2
  }
}
layer {
  name: "pool5"
  type: "Pooling"
  bottom: "conv5_3"
  top: "pool5"
  pooling_param {
    pool: MAX
    kernel_size: 2
    stride: 2
  }
}
layer {
  name: "conv6_1"
  type: "Convolution"
  bottom: "pool5"
  top: "conv6_1"
  param {
    lr_mult: 1
    decay_mult: 1
  }
  param {
    lr_mult: 2
    decay_mult: 0
  }
  convolution_param {
    num_output: 512
    pad: 1
    kernel_size: 3
    weight_filler {
      type: "gaussian"
      std: 0.01
    }
    bias_filler {
      type: "constant"
    }
  }
}
layer {
  name: "relu6_1"
  type: "ReLU"
  bottom: "conv6_1"
  top: "conv6_1"
}
layer {
  name: "LFCN_3_3x5"
  type: "Convolution"
  bottom: "conv6_1"
  top: "LFCN_3_3x5"
  param {
    lr_mult: 1
    decay_mult: 1
  }
  param {
    lr_mult: 2
    decay_mult: 0
  }
  convolution_param {
    num_output: 7
    weight_filler {
      type: "gaussian"
      std: 0.001
    }
    bias_filler {
      type: "constant"
    }
    pad_h: 2
    pad_w: 1
    kernel_h: 5
    kernel_w: 3
  }
}
layer {
  name: "detection_loss_3_3x5"
  type: "DetectionLoss"
  bottom: "LFCN_3_3x5"
  bottom: "label_3_3x5"
  top: "loss_3_3x5"
  detection_loss_param {
    cls_num: 3
    coord_num: 4
    lambda: 1
    field_h: 240
    field_w: 160
    downsample_rate: 32
    bb_smooth: true
    field_whr: 2
    field_xyr: 2
    bg_threshold: 0.2
    bg_multiple: 2
    sample_mode: "bootstrap"
    pos_neg_weighted: true
  }
}
layer {
  name: "detection_accuracy_3_3x5"
  type: "DetectionAccuracy"
  bottom: "LFCN_3_3x5"
  bottom: "label_3_3x5"
  top: "accuracy_3_3x5"
  top: "boxiou_3_3x5"
  detection_accuracy_param {
    cls_num: 3
    coord_num: 4
    field_h: 240
    field_w: 160
    downsample_rate: 32
    field_whr: 2
    field_xyr: 2
  }
}
layer {
  name: "LFCN_3_5x7"
  type: "Convolution"
  bottom: "conv6_1"
  top: "LFCN_3_5x7"
  param {
    lr_mult: 1
    decay_mult: 1
  }
  param {
    lr_mult: 2
    decay_mult: 0
  }
  convolution_param {
    num_output: 7
    weight_filler {
      type: "gaussian"
      std: 0.001
    }
    bias_filler {
      type: "constant"
    }
    pad_h: 3
    pad_w: 2
    kernel_h: 7
    kernel_w: 5
  }
}
layer {
  name: "detection_loss_3_5x7"
  type: "DetectionLoss"
  bottom: "LFCN_3_5x7"
  bottom: "label_3_5x7"
  top: "loss_3_5x7"
  detection_loss_param {
    cls_num: 3
    coord_num: 4
    lambda: 1
    field_h: 336
    field_w: 224
    downsample_rate: 32
    bb_smooth: true
    field_whr: 2
    field_xyr: 2
    bg_threshold: 0.2
    bg_multiple: 2
    sample_mode: "bootstrap"
    pos_neg_weighted: true
  }
}
layer {
  name: "detection_accuracy_3_5x7"
  type: "DetectionAccuracy"
  bottom: "LFCN_3_5x7"
  bottom: "label_3_5x7"
  top: "accuracy_3_5x7"
  top: "boxiou_3_5x7"
  detection_accuracy_param {
    cls_num: 3
    coord_num: 4
    field_h: 336
    field_w: 224
    downsample_rate: 32
    field_whr: 2
    field_xyr: 2
  }
}
layer {
  name: "pool6"
  type: "Pooling"
  bottom: "conv6_1"
  top: "pool6"
  pooling_param {
    pool: MAX
    kernel_size: 2
    stride: 2
  }
}
layer {
  name: "LFCN_4_3x5"
  type: "Convolution"
  bottom: "pool6"
  top: "LFCN_4_3x5"
  param {
    lr_mult: 1
    decay_mult: 1
  }
  param {
    lr_mult: 2
    decay_mult: 0
  }
  convolution_param {
    num_output: 7
    weight_filler {
      type: "gaussian"
      std: 0.001
    }
    bias_filler {
      type: "constant"
    }
    pad_h: 2
    pad_w: 1
    kernel_h: 5
    kernel_w: 3
  }
}
layer {
  name: "detection_loss_4_3x5"
  type: "DetectionLoss"
  bottom: "LFCN_4_3x5"
  bottom: "label_4_3x5"
  top: "loss_4_3x5"
  detection_loss_param {
    cls_num: 3
    coord_num: 4
    lambda: 1
    field_h: 480
    field_w: 320
    downsample_rate: 64
    bb_smooth: true
    field_whr: 2
    field_xyr: 2
    bg_threshold: 0.2
    bg_multiple: 2
    sample_mode: "bootstrap"
    pos_neg_weighted: true
  }
}
layer {
  name: "detection_accuracy_4_3x5"
  type: "DetectionAccuracy"
  bottom: "LFCN_4_3x5"
  bottom: "label_4_3x5"
  top: "accuracy_4_3x5"
  top: "boxiou_4_3x5"
  detection_accuracy_param {
    cls_num: 3
    coord_num: 4
    field_h: 480
    field_w: 320
    downsample_rate: 64
    field_whr: 2
    field_xyr: 2
  }
}
layer {
  name: "proposals"
  type: "BoxOutput"
  bottom: "LFCN_1_3x5"
  bottom: "LFCN_1_5x7"
  bottom: "LFCN_2_3x5"
  bottom: "LFCN_2_5x7"
  bottom: "LFCN_3_3x5"
  bottom: "LFCN_3_5x7"
  bottom: "LFCN_4_3x5"
  top: "proposals"
  propagate_down: false
  propagate_down: false
  propagate_down: false
  propagate_down: false
  propagate_down: false
  propagate_down: false
  propagate_down: false
  box_output_param {
    fg_thr: -15
    iou_thr: 0.65
    nms_type: "IOU"
    field_h: 60
    field_h: 84
    field_h: 120
    field_h: 168
    field_h: 240
    field_h: 336
    field_h: 480
    field_w: 40
    field_w: 56
    field_w: 80
    field_w: 112
    field_w: 160
    field_w: 224
    field_w: 320
    downsample_rate: 8
    downsample_rate: 8
    downsample_rate: 16
    downsample_rate: 16
    downsample_rate: 32
    downsample_rate: 32
    downsample_rate: 64
    field_whr: 2
    field_xyr: 2
    max_nms_num: 3000
  }
}
layer {
  name: "proposal_info"
  type: "ProposalTarget"
  bottom: "proposals"
  bottom: "gt_boxes"
  top: "rois"
  top: "proposal_labels"
  top: "proposal_targets"
  top: "box_inside_weights"
  top: "box_outside_weights"
  top: "match_gt_boxes"
  include {
    phase: TRAIN
  }
  propagate_down: false
  propagate_down: false
  proposal_target_param {
    cls_num: 3
    batch_size: 128
    fg_fraction: 0.25
    num_img_per_batch: 4
    fg_thr: 0.5
    bg_thr_hg: 0.45
    bg_thr_lw: 0.05
    img_width: 768
    img_height: 576
  }
  bbox_reg_param {
    bbox_mean: 0
    bbox_mean: 0
    bbox_mean: 0
    bbox_mean: 0
    bbox_std: 0.1
    bbox_std: 0.1
    bbox_std: 0.2
    bbox_std: 0.2
  }
}
layer {
  name: "conv4_3_2x"
  type: "Deconvolution"
  bottom: "conv4_3"
  top: "conv4_3_2x"
  param {
    lr_mult: 0
    decay_mult: 0
  }
  convolution_param {
    num_output: 512
    bias_term: false
    pad: 1
    kernel_size: 4
    group: 512
    stride: 2
    weight_filler {
      type: "bilinear"
    }
  }
}
layer {
  name: "roi_pool_org"
  type: "ROIPooling"
  bottom: "conv4_3_2x"
  bottom: "rois"
  top: "roi_pool_org"
  roi_pooling_param {
    pooled_h: 7
    pooled_w: 5
    spatial_scale: 0.25
    pad_ratio: 0
  }
}
layer {
  name: "roi_pool_ctx"
  type: "ROIPooling"
  bottom: "conv4_3_2x"
  bottom: "rois"
  top: "roi_pool_ctx"
  roi_pooling_param {
    pooled_h: 7
    pooled_w: 5
    spatial_scale: 0.25
    pad_ratio: 0.25
  }
}
layer {
  name: "roi_pool"
  type: "Concat"
  bottom: "roi_pool_org"
  bottom: "roi_pool_ctx"
  top: "roi_pool"
}
layer {
  name: "roi_c1"
  type: "Convolution"
  bottom: "roi_pool"
  top: "roi_c1"
  param {
    lr_mult: 1
    decay_mult: 1
  }
  param {
    lr_mult: 2
    decay_mult: 0
  }
  convolution_param {
    num_output: 512
    kernel_size: 3
    weight_filler {
      type: "gaussian"
      std: 0.01
    }
    bias_filler {
      type: "constant"
    }
  }
}
layer {
  name: "roi_c1_relu"
  type: "ReLU"
  bottom: "roi_c1"
  top: "roi_c1"
}
layer {
  name: "fc6"
  type: "InnerProduct"
  bottom: "roi_c1"
  top: "fc6"
  param {
    lr_mult: 1
  }
  param {
    lr_mult: 2
  }
  inner_product_param {
    num_output: 2048
    weight_filler {
      type: "gaussian"
      std: 0.001
    }
    bias_filler {
      type: "constant"
      value: 0
    }
  }
}
layer {
  name: "relu6"
  type: "ReLU"
  bottom: "fc6"
  top: "fc6"
}
layer {
  name: "drop6"
  type: "Dropout"
  bottom: "fc6"
  top: "fc6"
  dropout_param {
    dropout_ratio: 0.5
  }
}
layer {
  name: "cls_pred"
  type: "InnerProduct"
  bottom: "fc6"
  top: "cls_pred"
  param {
    lr_mult: 1
  }
  param {
    lr_mult: 2
  }
  inner_product_param {
    num_output: 3
    weight_filler {
      type: "gaussian"
      std: 0.01
    }
    bias_filler {
      type: "constant"
      value: 0
    }
  }
}
layer {
  name: "bbox_pred"
  type: "InnerProduct"
  bottom: "fc6"
  top: "bbox_pred"
  param {
    lr_mult: 1
  }
  param {
    lr_mult: 2
  }
  inner_product_param {
    num_output: 12
    weight_filler {
      type: "gaussian"
      std: 0.001
    }
    bias_filler {
      type: "constant"
      value: 0
    }
  }
}
layer {
  name: "loss_cls"
  type: "SoftmaxWithLoss"
  bottom: "cls_pred"
  bottom: "proposal_labels"
  top: "loss_cls"
  loss_weight: 1
  propagate_down: true
  propagate_down: false
}
layer {
  name: "cls_accuracy"
  type: "Accuracy"
  bottom: "cls_pred"
  bottom: "proposal_labels"
  top: "cls_accuracy"
}
layer {
  name: "loss_bbox"
  type: "SmoothL1Loss"
  bottom: "bbox_pred"
  bottom: "proposal_targets"
  bottom: "box_inside_weights"
  bottom: "box_outside_weights"
  top: "loss_bbox"
  loss_weight: 1
}
layer {
  name: "bbox_iou"
  type: "BboxAccuracy"
  bottom: "bbox_pred"
  bottom: "rois"
  bottom: "match_gt_boxes"
  top: "bbox_iou"
  top: "bbox_iou_pre"
  bbox_reg_param {
    bbox_mean: 0
    bbox_mean: 0
    bbox_mean: 0
    bbox_mean: 0
    bbox_std: 0.1
    bbox_std: 0.1
    bbox_std: 0.2
    bbox_std: 0.2
  }
}
I0113 00:17:30.742573 10951 layer_factory.hpp:77] Creating layer data
I0113 00:17:30.742599 10951 net.cpp:100] Creating Layer data
I0113 00:17:30.742605 10951 net.cpp:408] data -> data
…
I0113 00:17:30.945737 10951 image_gt_data_layer.cpp:235] output label size 2 : 4,6,36,48
I0113 00:17:30.945772 10951 image_gt_data_layer.cpp:235] output label size 3 : 4,6,36,48
I0113 00:17:30.945809 10951 image_gt_data_layer.cpp:235] output label size 4 : 4,6,18,24
I0113 00:17:30.945852 10951 image_gt_data_layer.cpp:235] output label size 5 : 4,6,18,24
I0113 00:17:30.945888 10951 image_gt_data_layer.cpp:235] output label size 6 : 4,6,9,12
I0113 00:17:30.945922 10951 image_gt_data_layer.cpp:250] output gt boxes size: 1,7,1,1
I0113 00:17:30.976667 10951 net.cpp:150] Setting up data
I0113 00:17:30.976696 10951 net.cpp:157] Top shape: 4 3 576 768 (5308416)
I0113 00:17:30.976701 10951 net.cpp:157] Top shape: 4 6 72 96 (165888)
I0113 00:17:30.976706 10951 net.cpp:157] Top shape: 4 6 72 96 (165888)
I0113 00:17:30.976711 10951 net.cpp:157] Top shape: 4 6 36 48 (41472)
I0113 00:17:30.976716 10951 net.cpp:157] Top shape: 4 6 36 48 (41472)
I0113 00:17:30.976719 10951 net.cpp:157] Top shape: 4 6 18 24 (10368)
I0113 00:17:30.976724 10951 net.cpp:157] Top shape: 4 6 18 24 (10368)
I0113 00:17:30.976729 10951 net.cpp:157] Top shape: 4 6 9 12 (2592)
I0113 00:17:30.976734 10951 net.cpp:157] Top shape: 1 7 1 1 (7)
I0113 00:17:30.976738 10951 net.cpp:165] Memory required for data: 22985884
I0113 00:17:30.976747 10951 layer_factory.hpp:77] Creating layer label_1_3x5_data_1_split
I0113 00:17:30.976761 10951 net.cpp:100] Creating Layer label_1_3x5_data_1_split
I0113 00:17:30.976768 10951 net.cpp:434] label_1_3x5_data_1_split <- label_1_3x5
I0113 00:17:30.976783 10951 net.cpp:408] label_1_3x5_data_1_split -> label_1_3x5_data_1_split_0
I0113 00:17:30.976795 10951 net.cpp:408] label_1_3x5_data_1_split -> label_1_3x5_data_1_split_1
I0113 00:17:30.976850 10951 net.cpp:150] Setting up label_1_3x5_data_1_split
I0113 00:17:30.976856 10951 net.cpp:157] Top shape: 4 6 72 96 (165888)
I0113 00:17:30.976861 10951 net.cpp:157] Top shape: 4 6 72 96 (165888)
I0113 00:17:30.976866 10951 net.cpp:165] Memory required for data: 24312988
I0113 00:17:30.976869 10951 layer_factory.hpp:77] Creating layer label_1_5x7_data_2_split
I0113 00:17:30.976877 10951 net.cpp:100] Creating Layer label_1_5x7_data_2_split
I0113 00:17:30.976881 10951 net.cpp:434] label_1_5x7_data_2_split <- label_1_5x7
I0113 00:17:30.976887 10951 net.cpp:408] label_1_5x7_data_2_split -> label_1_5x7_data_2_split_0
I0113 00:17:30.976897 10951 net.cpp:408] label_1_5x7_data_2_split -> label_1_5x7_data_2_split_1
I0113 00:17:30.976954 10951 net.cpp:150] Setting up label_1_5x7_data_2_split
I0113 00:17:30.976961 10951 net.cpp:157] Top shape: 4 6 72 96 (165888)
I0113 00:17:30.976965 10951 net.cpp:157] Top shape: 4 6 72 96 (165888)
I0113 00:17:30.976969 10951 net.cpp:165] Memory required for data: 25640092
I0113 00:17:30.976972 10951 layer_factory.hpp:77] Creating layer label_2_3x5_data_3_split
I0113 00:17:30.976979 10951 net.cpp:100] Creating Layer label_2_3x5_data_3_split
I0113 00:17:30.976982 10951 net.cpp:434] label_2_3x5_data_3_split <- label_2_3x5
I0113 00:17:30.976989 10951 net.cpp:408] label_2_3x5_data_3_split -> label_2_3x5_data_3_split_0
I0113 00:17:30.976999 10951 net.cpp:408] label_2_3x5_data_3_split -> label_2_3x5_data_3_split_1
I0113 00:17:30.977025 10951 net.cpp:150] Setting up label_2_3x5_data_3_split
I0113 00:17:30.977030 10951 net.cpp:157] Top shape: 4 6 36 48 (41472)
I0113 00:17:30.977035 10951 net.cpp:157] Top shape: 4 6 36 48 (41472)
I0113 00:17:30.977039 10951 net.cpp:165] Memory required for data: 25971868
I0113 00:17:30.977043 10951 layer_factory.hpp:77] Creating layer label_2_5x7_data_4_split
I0113 00:17:30.977051 10951 net.cpp:100] Creating Layer label_2_5x7_data_4_split
I0113 00:17:30.977053 10951 net.cpp:434] label_2_5x7_data_4_split <- label_2_5x7
I0113 00:17:30.977059 10951 net.cpp:408] label_2_5x7_data_4_split -> label_2_5x7_data_4_split_0
I0113 00:17:30.977067 10951 net.cpp:408] label_2_5x7_data_4_split -> label_2_5x7_data_4_split_1
I0113 00:17:30.977097 10951 net.cpp:150] Setting up label_2_5x7_data_4_split
I0113 00:17:30.977103 10951 net.cpp:157] Top shape: 4 6 36 48 (41472)
I0113 00:17:30.977109 10951 net.cpp:157] Top shape: 4 6 36 48 (41472)
I0113 00:17:30.977113 10951 net.cpp:165] Memory required for data: 26303644
I0113 00:17:30.977116 10951 layer_factory.hpp:77] Creating layer label_3_3x5_data_5_split
I0113 00:17:30.977123 10951 net.cpp:100] Creating Layer label_3_3x5_data_5_split
I0113 00:17:30.977126 10951 net.cpp:434] label_3_3x5_data_5_split <- label_3_3x5
I0113 00:17:30.977133 10951 net.cpp:408] label_3_3x5_data_5_split -> label_3_3x5_data_5_split_0
I0113 00:17:30.977141 10951 net.cpp:408] label_3_3x5_data_5_split -> label_3_3x5_data_5_split_1
I0113 00:17:30.977169 10951 net.cpp:150] Setting up label_3_3x5_data_5_split
I0113 00:17:30.977174 10951 net.cpp:157] Top shape: 4 6 18 24 (10368)
I0113 00:17:30.977179 10951 net.cpp:157] Top shape: 4 6 18 24 (10368)
I0113 00:17:30.977181 10951 net.cpp:165] Memory required for data: 26386588
I0113 00:17:30.977185 10951 layer_factory.hpp:77] Creating layer label_3_5x7_data_6_split
I0113 00:17:30.977190 10951 net.cpp:100] Creating Layer label_3_5x7_data_6_split
I0113 00:17:30.977195 10951 net.cpp:434] label_3_5x7_data_6_split <- label_3_5x7
I0113 00:17:30.977201 10951 net.cpp:408] label_3_5x7_data_6_split -> label_3_5x7_data_6_split_0
I0113 00:17:30.977210 10951 net.cpp:408] label_3_5x7_data_6_split -> label_3_5x7_data_6_split_1
I0113 00:17:30.977236 10951 net.cpp:150] Setting up label_3_5x7_data_6_split
I0113 00:17:30.977242 10951 net.cpp:157] Top shape: 4 6 18 24 (10368)
I0113 00:17:30.977246 10951 net.cpp:157] Top shape: 4 6 18 24 (10368)
I0113 00:17:30.977250 10951 net.cpp:165] Memory required for data: 26469532
I0113 00:17:30.977253 10951 layer_factory.hpp:77] Creating layer label_4_3x5_data_7_split
I0113 00:17:30.977259 10951 net.cpp:100] Creating Layer label_4_3x5_data_7_split
I0113 00:17:30.977263 10951 net.cpp:434] label_4_3x5_data_7_split <- label_4_3x5
I0113 00:17:30.977269 10951 net.cpp:408] label_4_3x5_data_7_split -> label_4_3x5_data_7_split_0
I0113 00:17:30.977277 10951 net.cpp:408] label_4_3x5_data_7_split -> label_4_3x5_data_7_split_1
I0113 00:17:30.977304 10951 net.cpp:150] Setting up label_4_3x5_data_7_split
I0113 00:17:30.977310 10951 net.cpp:157] Top shape: 4 6 9 12 (2592)
I0113 00:17:30.977314 10951 net.cpp:157] Top shape: 4 6 9 12 (2592)
I0113 00:17:30.977318 10951 net.cpp:165] Memory required for data: 26490268
I0113 00:17:30.977321 10951 layer_factory.hpp:77] Creating layer conv1_1
I0113 00:17:30.977336 10951 net.cpp:100] Creating Layer conv1_1
I0113 00:17:30.977339 10951 net.cpp:434] conv1_1 <- data
I0113 00:17:30.977346 10951 net.cpp:408] conv1_1 -> conv1_1
I0113 00:17:31.250917 10951 net.cpp:150] Setting up conv1_1
I0113 00:17:31.250939 10951 net.cpp:157] Top shape: 4 64 576 768 (113246208)
I0113 00:17:31.250942 10951 net.cpp:165] Memory required for data: 479475100
I0113 00:17:31.250963 10951 layer_factory.hpp:77] Creating layer relu1_1
I0113 00:17:31.250974 10951 net.cpp:100] Creating Layer relu1_1
I0113 00:17:31.250977 10951 net.cpp:434] relu1_1 <- conv1_1
I0113 00:17:31.250982 10951 net.cpp:395] relu1_1 -> conv1_1 (in-place)
I0113 00:17:31.251157 10951 net.cpp:150] Setting up relu1_1
I0113 00:17:31.251164 10951 net.cpp:157] Top shape: 4 64 576 768 (113246208)
I0113 00:17:31.251168 10951 net.cpp:165] Memory required for data: 932459932
I0113 00:17:31.251169 10951 layer_factory.hpp:77] Creating layer conv1_2
I0113 00:17:31.251178 10951 net.cpp:100] Creating Layer conv1_2
I0113 00:17:31.251183 10951 net.cpp:434] conv1_2 <- conv1_1
I0113 00:17:31.251188 10951 net.cpp:408] conv1_2 -> conv1_2
I0113 00:17:31.253342 10951 net.cpp:150] Setting up conv1_2
I0113 00:17:31.253355 10951 net.cpp:157] Top shape: 4 64 576 768 (113246208)
I0113 00:17:31.253357 10951 net.cpp:165] Memory required for data: 1385444764
I0113 00:17:31.253366 10951 layer_factory.hpp:77] Creating layer relu1_2
I0113 00:17:31.253371 10951 net.cpp:100] Creating Layer relu1_2
I0113 00:17:31.253373 10951 net.cpp:434] relu1_2 <- conv1_2
I0113 00:17:31.253377 10951 net.cpp:395] relu1_2 -> conv1_2 (in-place)
I0113 00:17:31.253520 10951 net.cpp:150] Setting up relu1_2
I0113 00:17:31.253527 10951 net.cpp:157] Top shape: 4 64 576 768 (113246208)
I0113 00:17:31.253530 10951 net.cpp:165] Memory required for data: 1838429596
I0113 00:17:31.253531 10951 layer_factory.hpp:77] Creating layer pool1
I0113 00:17:31.253537 10951 net.cpp:100] Creating Layer pool1
I0113 00:17:31.253540 10951 net.cpp:434] pool1 <- conv1_2
I0113 00:17:31.253545 10951 net.cpp:408] pool1 -> pool1
I0113 00:17:31.253593 10951 net.cpp:150] Setting up pool1
I0113 00:17:31.253599 10951 net.cpp:157] Top shape: 4 64 288 384 (28311552)
I0113 00:17:31.253602 10951 net.cpp:165] Memory required for data: 1951675804
I0113 00:17:31.253604 10951 layer_factory.hpp:77] Creating layer conv2_1
I0113 00:17:31.253610 10951 net.cpp:100] Creating Layer conv2_1
I0113 00:17:31.253613 10951 net.cpp:434] conv2_1 <- pool1
I0113 00:17:31.253618 10951 net.cpp:408] conv2_1 -> conv2_1
I0113 00:17:31.255565 10951 net.cpp:150] Setting up conv2_1
I0113 00:17:31.255579 10951 net.cpp:157] Top shape: 4 128 288 384 (56623104)
I0113 00:17:31.255581 10951 net.cpp:165] Memory required for data: 2178168220
I0113 00:17:31.255590 10951 layer_factory.hpp:77] Creating layer relu2_1
I0113 00:17:31.255595 10951 net.cpp:100] Creating Layer relu2_1
I0113 00:17:31.255599 10951 net.cpp:434] relu2_1 <- conv2_1
I0113 00:17:31.255602 10951 net.cpp:395] relu2_1 -> conv2_1 (in-place)
I0113 00:17:31.255743 10951 net.cpp:150] Setting up relu2_1
I0113 00:17:31.255750 10951 net.cpp:157] Top shape: 4 128 288 384 (56623104)
I0113 00:17:31.255753 10951 net.cpp:165] Memory required for data: 2404660636
I0113 00:17:31.255754 10951 layer_factory.hpp:77] Creating layer conv2_2
I0113 00:17:31.255761 10951 net.cpp:100] Creating Layer conv2_2
I0113 00:17:31.255764 10951 net.cpp:434] conv2_2 <- conv2_1
I0113 00:17:31.255767 10951 net.cpp:408] conv2_2 -> conv2_2
I0113 00:17:31.257007 10951 net.cpp:150] Setting up conv2_2
I0113 00:17:31.257017 10951 net.cpp:157] Top shape: 4 128 288 384 (56623104)
I0113 00:17:31.257020 10951 net.cpp:165] Memory required for data: 2631153052
I0113 00:17:31.257025 10951 layer_factory.hpp:77] Creating layer relu2_2
I0113 00:17:31.257033 10951 net.cpp:100] Creating Layer relu2_2
I0113 00:17:31.257036 10951 net.cpp:434] relu2_2 <- conv2_2
I0113 00:17:31.257040 10951 net.cpp:395] relu2_2 -> conv2_2 (in-place)
I0113 00:17:31.257177 10951 net.cpp:150] Setting up relu2_2
I0113 00:17:31.257184 10951 net.cpp:157] Top shape: 4 128 288 384 (56623104)
I0113 00:17:31.257186 10951 net.cpp:165] Memory required for data: 2857645468
I0113 00:17:31.257189 10951 layer_factory.hpp:77] Creating layer pool2
I0113 00:17:31.257194 10951 net.cpp:100] Creating Layer pool2
I0113 00:17:31.257196 10951 net.cpp:434] pool2 <- conv2_2
I0113 00:17:31.257200 10951 net.cpp:408] pool2 -> pool2
I0113 00:17:31.257232 10951 net.cpp:150] Setting up pool2
I0113 00:17:31.257237 10951 net.cpp:157] Top shape: 4 128 144 192 (14155776)
I0113 00:17:31.257241 10951 net.cpp:165] Memory required for data: 2914268572
I0113 00:17:31.257242 10951 layer_factory.hpp:77] Creating layer conv3_1
I0113 00:17:31.257248 10951 net.cpp:100] Creating Layer conv3_1
I0113 00:17:31.257251 10951 net.cpp:434] conv3_1 <- pool2
I0113 00:17:31.257253 10951 net.cpp:408] conv3_1 -> conv3_1
I0113 00:17:31.259275 10951 net.cpp:150] Setting up conv3_1
I0113 00:17:31.259287 10951 net.cpp:157] Top shape: 4 256 144 192 (28311552)
I0113 00:17:31.259289 10951 net.cpp:165] Memory required for data: 3027514780
I0113 00:17:31.259297 10951 layer_factory.hpp:77] Creating layer relu3_1
I0113 00:17:31.259302 10951 net.cpp:100] Creating Layer relu3_1
I0113 00:17:31.259305 10951 net.cpp:434] relu3_1 <- conv3_1
I0113 00:17:31.259308 10951 net.cpp:395] relu3_1 -> conv3_1 (in-place)
I0113 00:17:31.259727 10951 net.cpp:150] Setting up relu3_1
I0113 00:17:31.259737 10951 net.cpp:157] Top shape: 4 256 144 192 (28311552)
I0113 00:17:31.259739 10951 net.cpp:165] Memory required for data: 3140760988
I0113 00:17:31.259742 10951 layer_factory.hpp:77] Creating layer conv3_2
I0113 00:17:31.259747 10951 net.cpp:100] Creating Layer conv3_2
I0113 00:17:31.259749 10951 net.cpp:434] conv3_2 <- conv3_1
I0113 00:17:31.259754 10951 net.cpp:408] conv3_2 -> conv3_2
I0113 00:17:31.261704 10951 net.cpp:150] Setting up conv3_2
I0113 00:17:31.261716 10951 net.cpp:157] Top shape: 4 256 144 192 (28311552)
I0113 00:17:31.261718 10951 net.cpp:165] Memory required for data: 3254007196
I0113 00:17:31.261724 10951 layer_factory.hpp:77] Creating layer relu3_2
I0113 00:17:31.261729 10951 net.cpp:100] Creating Layer relu3_2
I0113 00:17:31.261731 10951 net.cpp:434] relu3_2 <- conv3_2
I0113 00:17:31.261735 10951 net.cpp:395] relu3_2 -> conv3_2 (in-place)
I0113 00:17:31.262159 10951 net.cpp:150] Setting up relu3_2
I0113 00:17:31.262171 10951 net.cpp:157] Top shape: 4 256 144 192 (28311552)
I0113 00:17:31.262172 10951 net.cpp:165] Memory required for data: 3367253404
I0113 00:17:31.262174 10951 layer_factory.hpp:77] Creating layer conv3_3
I0113 00:17:31.262181 10951 net.cpp:100] Creating Layer conv3_3
I0113 00:17:31.262183 10951 net.cpp:434] conv3_3 <- conv3_2
I0113 00:17:31.262188 10951 net.cpp:408] conv3_3 -> conv3_3
I0113 00:17:31.264421 10951 net.cpp:150] Setting up conv3_3
I0113 00:17:31.264432 10951 net.cpp:157] Top shape: 4 256 144 192 (28311552)
I0113 00:17:31.264436 10951 net.cpp:165] Memory required for data: 3480499612
I0113 00:17:31.264441 10951 layer_factory.hpp:77] Creating layer relu3_3
I0113 00:17:31.264446 10951 net.cpp:100] Creating Layer relu3_3
I0113 00:17:31.264448 10951 net.cpp:434] relu3_3 <- conv3_3
I0113 00:17:31.264452 10951 net.cpp:395] relu3_3 -> conv3_3 (in-place)
I0113 00:17:31.264590 10951 net.cpp:150] Setting up relu3_3
I0113 00:17:31.264596 10951 net.cpp:157] Top shape: 4 256 144 192 (28311552)
I0113 00:17:31.264600 10951 net.cpp:165] Memory required for data: 3593745820
I0113 00:17:31.264601 10951 layer_factory.hpp:77] Creating layer pool3
I0113 00:17:31.264605 10951 net.cpp:100] Creating Layer pool3
I0113 00:17:31.264608 10951 net.cpp:434] pool3 <- conv3_3
I0113 00:17:31.264612 10951 net.cpp:408] pool3 -> pool3
I0113 00:17:31.264653 10951 net.cpp:150] Setting up pool3
I0113 00:17:31.264659 10951 net.cpp:157] Top shape: 4 256 72 96 (7077888)
I0113 00:17:31.264662 10951 net.cpp:165] Memory required for data: 3622057372
I0113 00:17:31.264663 10951 layer_factory.hpp:77] Creating layer conv4_1
I0113 00:17:31.264668 10951 net.cpp:100] Creating Layer conv4_1
I0113 00:17:31.264670 10951 net.cpp:434] conv4_1 <- pool3
I0113 00:17:31.264674 10951 net.cpp:408] conv4_1 -> conv4_1
I0113 00:17:31.268973 10951 net.cpp:150] Setting up conv4_1
I0113 00:17:31.268992 10951 net.cpp:157] Top shape: 4 512 72 96 (14155776)
I0113 00:17:31.268995 10951 net.cpp:165] Memory required for data: 3678680476
I0113 00:17:31.269002 10951 layer_factory.hpp:77] Creating layer relu4_1
I0113 00:17:31.269011 10951 net.cpp:100] Creating Layer relu4_1
I0113 00:17:31.269013 10951 net.cpp:434] relu4_1 <- conv4_1
I0113 00:17:31.269021 10951 net.cpp:395] relu4_1 -> conv4_1 (in-place)
I0113 00:17:31.269165 10951 net.cpp:150] Setting up relu4_1
I0113 00:17:31.269171 10951 net.cpp:157] Top shape: 4 512 72 96 (14155776)
I0113 00:17:31.269174 10951 net.cpp:165] Memory required for data: 3735303580
I0113 00:17:31.269176 10951 layer_factory.hpp:77] Creating layer conv4_2
I0113 00:17:31.269183 10951 net.cpp:100] Creating Layer conv4_2
I0113 00:17:31.269186 10951 net.cpp:434] conv4_2 <- conv4_1
I0113 00:17:31.269191 10951 net.cpp:408] conv4_2 -> conv4_2
I0113 00:17:31.273589 10951 net.cpp:150] Setting up conv4_2
I0113 00:17:31.273609 10951 net.cpp:157] Top shape: 4 512 72 96 (14155776)
I0113 00:17:31.273612 10951 net.cpp:165] Memory required for data: 3791926684
I0113 00:17:31.273624 10951 layer_factory.hpp:77] Creating layer relu4_2
I0113 00:17:31.273630 10951 net.cpp:100] Creating Layer relu4_2
I0113 00:17:31.273634 10951 net.cpp:434] relu4_2 <- conv4_2
I0113 00:17:31.273639 10951 net.cpp:395] relu4_2 -> conv4_2 (in-place)
I0113 00:17:31.273772 10951 net.cpp:150] Setting up relu4_2
I0113 00:17:31.273778 10951 net.cpp:157] Top shape: 4 512 72 96 (14155776)
I0113 00:17:31.273780 10951 net.cpp:165] Memory required for data: 3848549788
I0113 00:17:31.273782 10951 layer_factory.hpp:77] Creating layer conv4_3
I0113 00:17:31.273789 10951 net.cpp:100] Creating Layer conv4_3
I0113 00:17:31.273792 10951 net.cpp:434] conv4_3 <- conv4_2
I0113 00:17:31.273797 10951 net.cpp:408] conv4_3 -> conv4_3
I0113 00:17:31.278192 10951 net.cpp:150] Setting up conv4_3
I0113 00:17:31.278213 10951 net.cpp:157] Top shape: 4 512 72 96 (14155776)
I0113 00:17:31.278215 10951 net.cpp:165] Memory required for data: 3905172892
I0113 00:17:31.278223 10951 layer_factory.hpp:77] Creating layer relu4_3
I0113 00:17:31.278232 10951 net.cpp:100] Creating Layer relu4_3
I0113 00:17:31.278239 10951 net.cpp:434] relu4_3 <- conv4_3
I0113 00:17:31.278246 10951 net.cpp:395] relu4_3 -> conv4_3 (in-place)
I0113 00:17:31.278446 10951 net.cpp:150] Setting up relu4_3
I0113 00:17:31.278486 10951 net.cpp:157] Top shape: 4 512 72 96 (14155776)
I0113 00:17:31.278504 10951 net.cpp:165] Memory required for data: 3961795996
I0113 00:17:31.278519 10951 layer_factory.hpp:77] Creating layer conv4_3_relu4_3_0_split
I0113 00:17:31.278538 10951 net.cpp:100] Creating Layer conv4_3_relu4_3_0_split
I0113 00:17:31.278553 10951 net.cpp:434] conv4_3_relu4_3_0_split <- conv4_3
I0113 00:17:31.278570 10951 net.cpp:408] conv4_3_relu4_3_0_split -> conv4_3_relu4_3_0_split_0
I0113 00:17:31.278591 10951 net.cpp:408] conv4_3_relu4_3_0_split -> conv4_3_relu4_3_0_split_1
I0113 00:17:31.278612 10951 net.cpp:408] conv4_3_relu4_3_0_split -> conv4_3_relu4_3_0_split_2
I0113 00:17:31.278697 10951 net.cpp:150] Setting up conv4_3_relu4_3_0_split
I0113 00:17:31.278715 10951 net.cpp:157] Top shape: 4 512 72 96 (14155776)
I0113 00:17:31.278730 10951 net.cpp:157] Top shape: 4 512 72 96 (14155776)
I0113 00:17:31.278745 10951 net.cpp:157] Top shape: 4 512 72 96 (14155776)
I0113 00:17:31.278759 10951 net.cpp:165] Memory required for data: 4131665308
I0113 00:17:31.278772 10951 layer_factory.hpp:77] Creating layer loss1_conv1
I0113 00:17:31.278802 10951 net.cpp:100] Creating Layer loss1_conv1
I0113 00:17:31.278816 10951 net.cpp:434] loss1_conv1 <- conv4_3_relu4_3_0_split_0
I0113 00:17:31.278836 10951 net.cpp:408] loss1_conv1 -> loss1_conv1
I0113 00:17:31.300005 10951 net.cpp:150] Setting up loss1_conv1
I0113 00:17:31.300029 10951 net.cpp:157] Top shape: 4 512 72 96 (14155776)
I0113 00:17:31.300031 10951 net.cpp:165] Memory required for data: 4188288412
I0113 00:17:31.300040 10951 layer_factory.hpp:77] Creating layer loss_relu1
I0113 00:17:31.300047 10951 net.cpp:100] Creating Layer loss_relu1
I0113 00:17:31.300051 10951 net.cpp:434] loss_relu1 <- loss1_conv1
I0113 00:17:31.300057 10951 net.cpp:395] loss_relu1 -> loss1_conv1 (in-place)
I0113 00:17:31.300506 10951 net.cpp:150] Setting up loss_relu1
I0113 00:17:31.300516 10951 net.cpp:157] Top shape: 4 512 72 96 (14155776)
I0113 00:17:31.300518 10951 net.cpp:165] Memory required for data: 4244911516
I0113 00:17:31.300532 10951 layer_factory.hpp:77] Creating layer loss1_conv1_loss_relu1_0_split
I0113 00:17:31.300537 10951 net.cpp:100] Creating Layer loss1_conv1_loss_relu1_0_split
I0113 00:17:31.300539 10951 net.cpp:434] loss1_conv1_loss_relu1_0_split <- loss1_conv1
I0113 00:17:31.300544 10951 net.cpp:408] loss1_conv1_loss_relu1_0_split -> loss1_conv1_loss_relu1_0_split_0
I0113 00:17:31.300550 10951 net.cpp:408] loss1_conv1_loss_relu1_0_split -> loss1_conv1_loss_relu1_0_split_1
I0113 00:17:31.300585 10951 net.cpp:150] Setting up loss1_conv1_loss_relu1_0_split
I0113 00:17:31.300591 10951 net.cpp:157] Top shape: 4 512 72 96 (14155776)
I0113 00:17:31.300593 10951 net.cpp:157] Top shape: 4 512 72 96 (14155776)
I0113 00:17:31.300595 10951 net.cpp:165] Memory required for data: 4358157724
I0113 00:17:31.300597 10951 layer_factory.hpp:77] Creating layer LFCN_1_3x5
I0113 00:17:31.300606 10951 net.cpp:100] Creating Layer LFCN_1_3x5
I0113 00:17:31.300608 10951 net.cpp:434] LFCN_1_3x5 <- loss1_conv1_loss_relu1_0_split_0
I0113 00:17:31.300613 10951 net.cpp:408] LFCN_1_3x5 -> LFCN_1_3x5
I0113 00:17:31.301604 10951 net.cpp:150] Setting up LFCN_1_3x5
I0113 00:17:31.301612 10951 net.cpp:157] Top shape: 4 7 72 96 (193536)
I0113 00:17:31.301614 10951 net.cpp:165] Memory required for data: 4358931868
I0113 00:17:31.301630 10951 layer_factory.hpp:77] Creating layer LFCN_1_3x5_LFCN_1_3x5_0_split
I0113 00:17:31.301635 10951 net.cpp:100] Creating Layer LFCN_1_3x5_LFCN_1_3x5_0_split
I0113 00:17:31.301637 10951 net.cpp:434] LFCN_1_3x5_LFCN_1_3x5_0_split <- LFCN_1_3x5
I0113 00:17:31.301641 10951 net.cpp:408] LFCN_1_3x5_LFCN_1_3x5_0_split -> LFCN_1_3x5_LFCN_1_3x5_0_split_0
I0113 00:17:31.301646 10951 net.cpp:408] LFCN_1_3x5_LFCN_1_3x5_0_split -> LFCN_1_3x5_LFCN_1_3x5_0_split_1
I0113 00:17:31.301651 10951 net.cpp:408] LFCN_1_3x5_LFCN_1_3x5_0_split -> LFCN_1_3x5_LFCN_1_3x5_0_split_2
I0113 00:17:31.301689 10951 net.cpp:150] Setting up LFCN_1_3x5_LFCN_1_3x5_0_split
I0113 00:17:31.301695 10951 net.cpp:157] Top shape: 4 7 72 96 (193536)
I0113 00:17:31.301698 10951 net.cpp:157] Top shape: 4 7 72 96 (193536)
I0113 00:17:31.301702 10951 net.cpp:157] Top shape: 4 7 72 96 (193536)
I0113 00:17:31.301703 10951 net.cpp:165] Memory required for data: 4361254300
I0113 00:17:31.301705 10951 layer_factory.hpp:77] Creating layer detection_loss_1_3x5
I0113 00:17:31.301712 10951 net.cpp:100] Creating Layer detection_loss_1_3x5
I0113 00:17:31.301714 10951 net.cpp:434] detection_loss_1_3x5 <- LFCN_1_3x5_LFCN_1_3x5_0_split_0
I0113 00:17:31.301718 10951 net.cpp:434] detection_loss_1_3x5 <- label_1_3x5_data_1_split_0
I0113 00:17:31.301723 10951 net.cpp:408] detection_loss_1_3x5 -> loss_1_3x5
I0113 00:17:31.301731 10951 layer_factory.hpp:77] Creating layer detection_loss_1_3x5
I0113 00:17:31.302378 10951 net.cpp:150] Setting up detection_loss_1_3x5
I0113 00:17:31.302389 10951 net.cpp:157] Top shape: 1 1 1 2 (2)
I0113 00:17:31.302392 10951 net.cpp:160]     with loss weight 0.5
I0113 00:17:31.302412 10951 net.cpp:165] Memory required for data: 4361254308
I0113 00:17:31.302415 10951 layer_factory.hpp:77] Creating layer detection_accuracy_1_3x5
I0113 00:17:31.302423 10951 net.cpp:100] Creating Layer detection_accuracy_1_3x5
I0113 00:17:31.302426 10951 net.cpp:434] detection_accuracy_1_3x5 <- LFCN_1_3x5_LFCN_1_3x5_0_split_1
I0113 00:17:31.302430 10951 net.cpp:434] detection_accuracy_1_3x5 <- label_1_3x5_data_1_split_1
I0113 00:17:31.302434 10951 net.cpp:408] detection_accuracy_1_3x5 -> accuracy_1_3x5
I0113 00:17:31.302441 10951 net.cpp:408] detection_accuracy_1_3x5 -> boxiou_1_3x5
I0113 00:17:31.302474 10951 net.cpp:150] Setting up detection_accuracy_1_3x5
I0113 00:17:31.302479 10951 net.cpp:157] Top shape: 1 1 1 2 (2)
I0113 00:17:31.302482 10951 net.cpp:157] Top shape: 1 1 1 1 (1)
I0113 00:17:31.302484 10951 net.cpp:165] Memory required for data: 4361254320
I0113 00:17:31.302486 10951 layer_factory.hpp:77] Creating layer LFCN_1_5x7
I0113 00:17:31.302495 10951 net.cpp:100] Creating Layer LFCN_1_5x7
I0113 00:17:31.302498 10951 net.cpp:434] LFCN_1_5x7 <- loss1_conv1_loss_relu1_0_split_1
I0113 00:17:31.302502 10951 net.cpp:408] LFCN_1_5x7 -> LFCN_1_5x7
I0113 00:17:31.304308 10951 net.cpp:150] Setting up LFCN_1_5x7
I0113 00:17:31.304318 10951 net.cpp:157] Top shape: 4 7 72 96 (193536)
I0113 00:17:31.304322 10951 net.cpp:165] Memory required for data: 4362028464
I0113 00:17:31.304327 10951 layer_factory.hpp:77] Creating layer LFCN_1_5x7_LFCN_1_5x7_0_split
I0113 00:17:31.304332 10951 net.cpp:100] Creating Layer LFCN_1_5x7_LFCN_1_5x7_0_split
I0113 00:17:31.304334 10951 net.cpp:434] LFCN_1_5x7_LFCN_1_5x7_0_split <- LFCN_1_5x7
I0113 00:17:31.304339 10951 net.cpp:408] LFCN_1_5x7_LFCN_1_5x7_0_split -> LFCN_1_5x7_LFCN_1_5x7_0_split_0
I0113 00:17:31.304344 10951 net.cpp:408] LFCN_1_5x7_LFCN_1_5x7_0_split -> LFCN_1_5x7_LFCN_1_5x7_0_split_1
I0113 00:17:31.304350 10951 net.cpp:408] LFCN_1_5x7_LFCN_1_5x7_0_split -> LFCN_1_5x7_LFCN_1_5x7_0_split_2
I0113 00:17:31.304390 10951 net.cpp:150] Setting up LFCN_1_5x7_LFCN_1_5x7_0_split
I0113 00:17:31.304394 10951 net.cpp:157] Top shape: 4 7 72 96 (193536)
I0113 00:17:31.304397 10951 net.cpp:157] Top shape: 4 7 72 96 (193536)
I0113 00:17:31.304399 10951 net.cpp:157] Top shape: 4 7 72 96 (193536)
I0113 00:17:31.304401 10951 net.cpp:165] Memory required for data: 4364350896
I0113 00:17:31.304404 10951 layer_factory.hpp:77] Creating layer detection_loss_1_5x7
I0113 00:17:31.304409 10951 net.cpp:100] Creating Layer detection_loss_1_5x7
I0113 00:17:31.304411 10951 net.cpp:434] detection_loss_1_5x7 <- LFCN_1_5x7_LFCN_1_5x7_0_split_0
I0113 00:17:31.304414 10951 net.cpp:434] detection_loss_1_5x7 <- label_1_5x7_data_2_split_0
I0113 00:17:31.304419 10951 net.cpp:408] detection_loss_1_5x7 -> loss_1_5x7
I0113 00:17:31.304425 10951 layer_factory.hpp:77] Creating layer detection_loss_1_5x7
I0113 00:17:31.304726 10951 net.cpp:150] Setting up detection_loss_1_5x7
I0113 00:17:31.304733 10951 net.cpp:157] Top shape: 1 1 1 2 (2)
I0113 00:17:31.304735 10951 net.cpp:160]     with loss weight 0.9
I0113 00:17:31.304740 10951 net.cpp:165] Memory required for data: 4364350904
I0113 00:17:31.304742 10951 layer_factory.hpp:77] Creating layer detection_accuracy_1_5x7
I0113 00:17:31.304747 10951 net.cpp:100] Creating Layer detection_accuracy_1_5x7
I0113 00:17:31.304750 10951 net.cpp:434] detection_accuracy_1_5x7 <- LFCN_1_5x7_LFCN_1_5x7_0_split_1
I0113 00:17:31.304754 10951 net.cpp:434] detection_accuracy_1_5x7 <- label_1_5x7_data_2_split_1
I0113 00:17:31.304757 10951 net.cpp:408] detection_accuracy_1_5x7 -> accuracy_1_5x7
I0113 00:17:31.304764 10951 net.cpp:408] detection_accuracy_1_5x7 -> boxiou_1_5x7
I0113 00:17:31.304792 10951 net.cpp:150] Setting up detection_accuracy_1_5x7
I0113 00:17:31.304796 10951 net.cpp:157] Top shape: 1 1 1 2 (2)
I0113 00:17:31.304800 10951 net.cpp:157] Top shape: 1 1 1 1 (1)
I0113 00:17:31.304800 10951 net.cpp:165] Memory required for data: 4364350916
I0113 00:17:31.304802 10951 layer_factory.hpp:77] Creating layer pool4
I0113 00:17:31.304808 10951 net.cpp:100] Creating Layer pool4
I0113 00:17:31.304811 10951 net.cpp:434] pool4 <- conv4_3_relu4_3_0_split_1
I0113 00:17:31.304816 10951 net.cpp:408] pool4 -> pool4
I0113 00:17:31.304842 10951 net.cpp:150] Setting up pool4
I0113 00:17:31.304847 10951 net.cpp:157] Top shape: 4 512 36 48 (3538944)
I0113 00:17:31.304849 10951 net.cpp:165] Memory required for data: 4378506692
I0113 00:17:31.304852 10951 layer_factory.hpp:77] Creating layer conv5_1
I0113 00:17:31.304857 10951 net.cpp:100] Creating Layer conv5_1
I0113 00:17:31.304858 10951 net.cpp:434] conv5_1 <- pool4
I0113 00:17:31.304862 10951 net.cpp:408] conv5_1 -> conv5_1
I0113 00:17:31.309798 10951 net.cpp:150] Setting up conv5_1
I0113 00:17:31.309826 10951 net.cpp:157] Top shape: 4 512 36 48 (3538944)
I0113 00:17:31.309829 10951 net.cpp:165] Memory required for data: 4392662468
I0113 00:17:31.309837 10951 layer_factory.hpp:77] Creating layer relu5_1
I0113 00:17:31.309845 10951 net.cpp:100] Creating Layer relu5_1
I0113 00:17:31.309849 10951 net.cpp:434] relu5_1 <- conv5_1
I0113 00:17:31.309855 10951 net.cpp:395] relu5_1 -> conv5_1 (in-place)
I0113 00:17:31.310005 10951 net.cpp:150] Setting up relu5_1
I0113 00:17:31.310014 10951 net.cpp:157] Top shape: 4 512 36 48 (3538944)
I0113 00:17:31.310015 10951 net.cpp:165] Memory required for data: 4406818244
I0113 00:17:31.310017 10951 layer_factory.hpp:77] Creating layer conv5_2
I0113 00:17:31.310024 10951 net.cpp:100] Creating Layer conv5_2
I0113 00:17:31.310026 10951 net.cpp:434] conv5_2 <- conv5_1
I0113 00:17:31.310030 10951 net.cpp:408] conv5_2 -> conv5_2
I0113 00:17:31.314393 10951 net.cpp:150] Setting up conv5_2
I0113 00:17:31.314411 10951 net.cpp:157] Top shape: 4 512 36 48 (3538944)
I0113 00:17:31.314414 10951 net.cpp:165] Memory required for data: 4420974020
I0113 00:17:31.314420 10951 layer_factory.hpp:77] Creating layer relu5_2
I0113 00:17:31.314427 10951 net.cpp:100] Creating Layer relu5_2
I0113 00:17:31.314430 10951 net.cpp:434] relu5_2 <- conv5_2
I0113 00:17:31.314435 10951 net.cpp:395] relu5_2 -> conv5_2 (in-place)
I0113 00:17:31.314570 10951 net.cpp:150] Setting up relu5_2
I0113 00:17:31.314576 10951 net.cpp:157] Top shape: 4 512 36 48 (3538944)
I0113 00:17:31.314579 10951 net.cpp:165] Memory required for data: 4435129796
I0113 00:17:31.314581 10951 layer_factory.hpp:77] Creating layer conv5_3
I0113 00:17:31.314589 10951 net.cpp:100] Creating Layer conv5_3
I0113 00:17:31.314591 10951 net.cpp:434] conv5_3 <- conv5_2
I0113 00:17:31.314594 10951 net.cpp:408] conv5_3 -> conv5_3
I0113 00:17:31.319008 10951 net.cpp:150] Setting up conv5_3
I0113 00:17:31.319026 10951 net.cpp:157] Top shape: 4 512 36 48 (3538944)
I0113 00:17:31.319030 10951 net.cpp:165] Memory required for data: 4449285572
I0113 00:17:31.319036 10951 layer_factory.hpp:77] Creating layer relu5_3
I0113 00:17:31.319042 10951 net.cpp:100] Creating Layer relu5_3
I0113 00:17:31.319046 10951 net.cpp:434] relu5_3 <- conv5_3
I0113 00:17:31.319051 10951 net.cpp:395] relu5_3 -> conv5_3 (in-place)
I0113 00:17:31.319190 10951 net.cpp:150] Setting up relu5_3
I0113 00:17:31.319197 10951 net.cpp:157] Top shape: 4 512 36 48 (3538944)
I0113 00:17:31.319200 10951 net.cpp:165] Memory required for data: 4463441348
I0113 00:17:31.319202 10951 layer_factory.hpp:77] Creating layer conv5_3_relu5_3_0_split
I0113 00:17:31.319209 10951 net.cpp:100] Creating Layer conv5_3_relu5_3_0_split
I0113 00:17:31.319211 10951 net.cpp:434] conv5_3_relu5_3_0_split <- conv5_3
I0113 00:17:31.319216 10951 net.cpp:408] conv5_3_relu5_3_0_split -> conv5_3_relu5_3_0_split_0
I0113 00:17:31.319221 10951 net.cpp:408] conv5_3_relu5_3_0_split -> conv5_3_relu5_3_0_split_1
I0113 00:17:31.319226 10951 net.cpp:408] conv5_3_relu5_3_0_split -> conv5_3_relu5_3_0_split_2
I0113 00:17:31.319269 10951 net.cpp:150] Setting up conv5_3_relu5_3_0_split
I0113 00:17:31.319274 10951 net.cpp:157] Top shape: 4 512 36 48 (3538944)
I0113 00:17:31.319278 10951 net.cpp:157] Top shape: 4 512 36 48 (3538944)
I0113 00:17:31.319279 10951 net.cpp:157] Top shape: 4 512 36 48 (3538944)
I0113 00:17:31.319281 10951 net.cpp:165] Memory required for data: 4505908676
I0113 00:17:31.319284 10951 layer_factory.hpp:77] Creating layer LFCN_2_3x5
I0113 00:17:31.319293 10951 net.cpp:100] Creating Layer LFCN_2_3x5
I0113 00:17:31.319295 10951 net.cpp:434] LFCN_2_3x5 <- conv5_3_relu5_3_0_split_0
I0113 00:17:31.319299 10951 net.cpp:408] LFCN_2_3x5 -> LFCN_2_3x5
I0113 00:17:31.320588 10951 net.cpp:150] Setting up LFCN_2_3x5
I0113 00:17:31.320600 10951 net.cpp:157] Top shape: 4 7 36 48 (48384)
I0113 00:17:31.320601 10951 net.cpp:165] Memory required for data: 4506102212
I0113 00:17:31.320612 10951 layer_factory.hpp:77] Creating layer LFCN_2_3x5_LFCN_2_3x5_0_split
I0113 00:17:31.320617 10951 net.cpp:100] Creating Layer LFCN_2_3x5_LFCN_2_3x5_0_split
I0113 00:17:31.320619 10951 net.cpp:434] LFCN_2_3x5_LFCN_2_3x5_0_split <- LFCN_2_3x5
I0113 00:17:31.320624 10951 net.cpp:408] LFCN_2_3x5_LFCN_2_3x5_0_split -> LFCN_2_3x5_LFCN_2_3x5_0_split_0
I0113 00:17:31.320639 10951 net.cpp:408] LFCN_2_3x5_LFCN_2_3x5_0_split -> LFCN_2_3x5_LFCN_2_3x5_0_split_1
I0113 00:17:31.320647 10951 net.cpp:408] LFCN_2_3x5_LFCN_2_3x5_0_split -> LFCN_2_3x5_LFCN_2_3x5_0_split_2
I0113 00:17:31.320688 10951 net.cpp:150] Setting up LFCN_2_3x5_LFCN_2_3x5_0_split
I0113 00:17:31.320694 10951 net.cpp:157] Top shape: 4 7 36 48 (48384)
I0113 00:17:31.320696 10951 net.cpp:157] Top shape: 4 7 36 48 (48384)
I0113 00:17:31.320699 10951 net.cpp:157] Top shape: 4 7 36 48 (48384)
I0113 00:17:31.320701 10951 net.cpp:165] Memory required for data: 4506682820
I0113 00:17:31.320703 10951 layer_factory.hpp:77] Creating layer detection_loss_2_3x5
I0113 00:17:31.320708 10951 net.cpp:100] Creating Layer detection_loss_2_3x5
I0113 00:17:31.320711 10951 net.cpp:434] detection_loss_2_3x5 <- LFCN_2_3x5_LFCN_2_3x5_0_split_0
I0113 00:17:31.320715 10951 net.cpp:434] detection_loss_2_3x5 <- label_2_3x5_data_3_split_0
I0113 00:17:31.320719 10951 net.cpp:408] detection_loss_2_3x5 -> loss_2_3x5
I0113 00:17:31.320726 10951 layer_factory.hpp:77] Creating layer detection_loss_2_3x5
I0113 00:17:31.321307 10951 net.cpp:150] Setting up detection_loss_2_3x5
I0113 00:17:31.321317 10951 net.cpp:157] Top shape: 1 1 1 2 (2)
I0113 00:17:31.321319 10951 net.cpp:160]     with loss weight 1
I0113 00:17:31.321327 10951 net.cpp:165] Memory required for data: 4506682828
I0113 00:17:31.321329 10951 layer_factory.hpp:77] Creating layer detection_accuracy_2_3x5
I0113 00:17:31.321336 10951 net.cpp:100] Creating Layer detection_accuracy_2_3x5
I0113 00:17:31.321338 10951 net.cpp:434] detection_accuracy_2_3x5 <- LFCN_2_3x5_LFCN_2_3x5_0_split_1
I0113 00:17:31.321342 10951 net.cpp:434] detection_accuracy_2_3x5 <- label_2_3x5_data_3_split_1
I0113 00:17:31.321346 10951 net.cpp:408] detection_accuracy_2_3x5 -> accuracy_2_3x5
I0113 00:17:31.321352 10951 net.cpp:408] detection_accuracy_2_3x5 -> boxiou_2_3x5
I0113 00:17:31.321384 10951 net.cpp:150] Setting up detection_accuracy_2_3x5
I0113 00:17:31.321390 10951 net.cpp:157] Top shape: 1 1 1 2 (2)
I0113 00:17:31.321393 10951 net.cpp:157] Top shape: 1 1 1 1 (1)
I0113 00:17:31.321395 10951 net.cpp:165] Memory required for data: 4506682840
I0113 00:17:31.321398 10951 layer_factory.hpp:77] Creating layer LFCN_2_5x7
I0113 00:17:31.321403 10951 net.cpp:100] Creating Layer LFCN_2_5x7
I0113 00:17:31.321406 10951 net.cpp:434] LFCN_2_5x7 <- conv5_3_relu5_3_0_split_1
I0113 00:17:31.321411 10951 net.cpp:408] LFCN_2_5x7 -> LFCN_2_5x7
I0113 00:17:31.323667 10951 net.cpp:150] Setting up LFCN_2_5x7
I0113 00:17:31.323678 10951 net.cpp:157] Top shape: 4 7 36 48 (48384)
I0113 00:17:31.323680 10951 net.cpp:165] Memory required for data: 4506876376
I0113 00:17:31.323686 10951 layer_factory.hpp:77] Creating layer LFCN_2_5x7_LFCN_2_5x7_0_split
I0113 00:17:31.323691 10951 net.cpp:100] Creating Layer LFCN_2_5x7_LFCN_2_5x7_0_split
I0113 00:17:31.323694 10951 net.cpp:434] LFCN_2_5x7_LFCN_2_5x7_0_split <- LFCN_2_5x7
I0113 00:17:31.323698 10951 net.cpp:408] LFCN_2_5x7_LFCN_2_5x7_0_split -> LFCN_2_5x7_LFCN_2_5x7_0_split_0
I0113 00:17:31.323706 10951 net.cpp:408] LFCN_2_5x7_LFCN_2_5x7_0_split -> LFCN_2_5x7_LFCN_2_5x7_0_split_1
I0113 00:17:31.323711 10951 net.cpp:408] LFCN_2_5x7_LFCN_2_5x7_0_split -> LFCN_2_5x7_LFCN_2_5x7_0_split_2
I0113 00:17:31.323753 10951 net.cpp:150] Setting up LFCN_2_5x7_LFCN_2_5x7_0_split
I0113 00:17:31.323758 10951 net.cpp:157] Top shape: 4 7 36 48 (48384)
I0113 00:17:31.323762 10951 net.cpp:157] Top shape: 4 7 36 48 (48384)
I0113 00:17:31.323765 10951 net.cpp:157] Top shape: 4 7 36 48 (48384)
I0113 00:17:31.323766 10951 net.cpp:165] Memory required for data: 4507456984
I0113 00:17:31.323770 10951 layer_factory.hpp:77] Creating layer detection_loss_2_5x7
I0113 00:17:31.323774 10951 net.cpp:100] Creating Layer detection_loss_2_5x7
I0113 00:17:31.323776 10951 net.cpp:434] detection_loss_2_5x7 <- LFCN_2_5x7_LFCN_2_5x7_0_split_0
I0113 00:17:31.323779 10951 net.cpp:434] detection_loss_2_5x7 <- label_2_5x7_data_4_split_0
I0113 00:17:31.323784 10951 net.cpp:408] detection_loss_2_5x7 -> loss_2_5x7
I0113 00:17:31.323789 10951 layer_factory.hpp:77] Creating layer detection_loss_2_5x7
I0113 00:17:31.324376 10951 net.cpp:150] Setting up detection_loss_2_5x7
I0113 00:17:31.324386 10951 net.cpp:157] Top shape: 1 1 1 2 (2)
I0113 00:17:31.324389 10951 net.cpp:160]     with loss weight 1
I0113 00:17:31.324393 10951 net.cpp:165] Memory required for data: 4507456992
I0113 00:17:31.324395 10951 layer_factory.hpp:77] Creating layer detection_accuracy_2_5x7
I0113 00:17:31.324401 10951 net.cpp:100] Creating Layer detection_accuracy_2_5x7
I0113 00:17:31.324404 10951 net.cpp:434] detection_accuracy_2_5x7 <- LFCN_2_5x7_LFCN_2_5x7_0_split_1
I0113 00:17:31.324409 10951 net.cpp:434] detection_accuracy_2_5x7 <- label_2_5x7_data_4_split_1
I0113 00:17:31.324412 10951 net.cpp:408] detection_accuracy_2_5x7 -> accuracy_2_5x7
I0113 00:17:31.324419 10951 net.cpp:408] detection_accuracy_2_5x7 -> boxiou_2_5x7
I0113 00:17:31.324450 10951 net.cpp:150] Setting up detection_accuracy_2_5x7
I0113 00:17:31.324455 10951 net.cpp:157] Top shape: 1 1 1 2 (2)
I0113 00:17:31.324457 10951 net.cpp:157] Top shape: 1 1 1 1 (1)
I0113 00:17:31.324460 10951 net.cpp:165] Memory required for data: 4507457004
I0113 00:17:31.324461 10951 layer_factory.hpp:77] Creating layer pool5
I0113 00:17:31.324466 10951 net.cpp:100] Creating Layer pool5
I0113 00:17:31.324468 10951 net.cpp:434] pool5 <- conv5_3_relu5_3_0_split_2
I0113 00:17:31.324472 10951 net.cpp:408] pool5 -> pool5
I0113 00:17:31.324501 10951 net.cpp:150] Setting up pool5
I0113 00:17:31.324506 10951 net.cpp:157] Top shape: 4 512 18 24 (884736)
I0113 00:17:31.324508 10951 net.cpp:165] Memory required for data: 4510995948
I0113 00:17:31.324510 10951 layer_factory.hpp:77] Creating layer conv6_1
I0113 00:17:31.324518 10951 net.cpp:100] Creating Layer conv6_1
I0113 00:17:31.324522 10951 net.cpp:434] conv6_1 <- pool5
I0113 00:17:31.324527 10951 net.cpp:408] conv6_1 -> conv6_1
I0113 00:17:31.344964 10951 net.cpp:150] Setting up conv6_1
I0113 00:17:31.344985 10951 net.cpp:157] Top shape: 4 512 18 24 (884736)
I0113 00:17:31.344987 10951 net.cpp:165] Memory required for data: 4514534892
I0113 00:17:31.344995 10951 layer_factory.hpp:77] Creating layer relu6_1
I0113 00:17:31.345002 10951 net.cpp:100] Creating Layer relu6_1
I0113 00:17:31.345006 10951 net.cpp:434] relu6_1 <- conv6_1
I0113 00:17:31.345011 10951 net.cpp:395] relu6_1 -> conv6_1 (in-place)
I0113 00:17:31.345144 10951 net.cpp:150] Setting up relu6_1
I0113 00:17:31.345150 10951 net.cpp:157] Top shape: 4 512 18 24 (884736)
I0113 00:17:31.345152 10951 net.cpp:165] Memory required for data: 4518073836
I0113 00:17:31.345155 10951 layer_factory.hpp:77] Creating layer conv6_1_relu6_1_0_split
I0113 00:17:31.345160 10951 net.cpp:100] Creating Layer conv6_1_relu6_1_0_split
I0113 00:17:31.345161 10951 net.cpp:434] conv6_1_relu6_1_0_split <- conv6_1
I0113 00:17:31.345167 10951 net.cpp:408] conv6_1_relu6_1_0_split -> conv6_1_relu6_1_0_split_0
I0113 00:17:31.345172 10951 net.cpp:408] conv6_1_relu6_1_0_split -> conv6_1_relu6_1_0_split_1
I0113 00:17:31.345177 10951 net.cpp:408] conv6_1_relu6_1_0_split -> conv6_1_relu6_1_0_split_2
I0113 00:17:31.345221 10951 net.cpp:150] Setting up conv6_1_relu6_1_0_split
I0113 00:17:31.345226 10951 net.cpp:157] Top shape: 4 512 18 24 (884736)
I0113 00:17:31.345228 10951 net.cpp:157] Top shape: 4 512 18 24 (884736)
I0113 00:17:31.345232 10951 net.cpp:157] Top shape: 4 512 18 24 (884736)
I0113 00:17:31.345232 10951 net.cpp:165] Memory required for data: 4528690668
I0113 00:17:31.345235 10951 layer_factory.hpp:77] Creating layer LFCN_3_3x5
I0113 00:17:31.345243 10951 net.cpp:100] Creating Layer LFCN_3_3x5
I0113 00:17:31.345245 10951 net.cpp:434] LFCN_3_3x5 <- conv6_1_relu6_1_0_split_0
I0113 00:17:31.345250 10951 net.cpp:408] LFCN_3_3x5 -> LFCN_3_3x5
I0113 00:17:31.347365 10951 net.cpp:150] Setting up LFCN_3_3x5
I0113 00:17:31.347378 10951 net.cpp:157] Top shape: 4 7 18 24 (12096)
I0113 00:17:31.347379 10951 net.cpp:165] Memory required for data: 4528739052
I0113 00:17:31.347384 10951 layer_factory.hpp:77] Creating layer LFCN_3_3x5_LFCN_3_3x5_0_split
I0113 00:17:31.347401 10951 net.cpp:100] Creating Layer LFCN_3_3x5_LFCN_3_3x5_0_split
I0113 00:17:31.347404 10951 net.cpp:434] LFCN_3_3x5_LFCN_3_3x5_0_split <- LFCN_3_3x5
I0113 00:17:31.347410 10951 net.cpp:408] LFCN_3_3x5_LFCN_3_3x5_0_split -> LFCN_3_3x5_LFCN_3_3x5_0_split_0
I0113 00:17:31.347416 10951 net.cpp:408] LFCN_3_3x5_LFCN_3_3x5_0_split -> LFCN_3_3x5_LFCN_3_3x5_0_split_1
I0113 00:17:31.347420 10951 net.cpp:408] LFCN_3_3x5_LFCN_3_3x5_0_split -> LFCN_3_3x5_LFCN_3_3x5_0_split_2
I0113 00:17:31.347466 10951 net.cpp:150] Setting up LFCN_3_3x5_LFCN_3_3x5_0_split
I0113 00:17:31.347471 10951 net.cpp:157] Top shape: 4 7 18 24 (12096)
I0113 00:17:31.347474 10951 net.cpp:157] Top shape: 4 7 18 24 (12096)
I0113 00:17:31.347476 10951 net.cpp:157] Top shape: 4 7 18 24 (12096)
I0113 00:17:31.347478 10951 net.cpp:165] Memory required for data: 4528884204
I0113 00:17:31.347481 10951 layer_factory.hpp:77] Creating layer detection_loss_3_3x5
I0113 00:17:31.347487 10951 net.cpp:100] Creating Layer detection_loss_3_3x5
I0113 00:17:31.347491 10951 net.cpp:434] detection_loss_3_3x5 <- LFCN_3_3x5_LFCN_3_3x5_0_split_0
I0113 00:17:31.347493 10951 net.cpp:434] detection_loss_3_3x5 <- label_3_3x5_data_5_split_0
I0113 00:17:31.347498 10951 net.cpp:408] detection_loss_3_3x5 -> loss_3_3x5
I0113 00:17:31.347506 10951 layer_factory.hpp:77] Creating layer detection_loss_3_3x5
I0113 00:17:31.347780 10951 net.cpp:150] Setting up detection_loss_3_3x5
I0113 00:17:31.347790 10951 net.cpp:157] Top shape: 1 1 1 2 (2)
I0113 00:17:31.347791 10951 net.cpp:160]     with loss weight 1
I0113 00:17:31.347800 10951 net.cpp:165] Memory required for data: 4528884212
I0113 00:17:31.347801 10951 layer_factory.hpp:77] Creating layer detection_accuracy_3_3x5
I0113 00:17:31.347806 10951 net.cpp:100] Creating Layer detection_accuracy_3_3x5
I0113 00:17:31.347810 10951 net.cpp:434] detection_accuracy_3_3x5 <- LFCN_3_3x5_LFCN_3_3x5_0_split_1
I0113 00:17:31.347812 10951 net.cpp:434] detection_accuracy_3_3x5 <- label_3_3x5_data_5_split_1
I0113 00:17:31.347817 10951 net.cpp:408] detection_accuracy_3_3x5 -> accuracy_3_3x5
I0113 00:17:31.347826 10951 net.cpp:408] detection_accuracy_3_3x5 -> boxiou_3_3x5
I0113 00:17:31.347858 10951 net.cpp:150] Setting up detection_accuracy_3_3x5
I0113 00:17:31.347862 10951 net.cpp:157] Top shape: 1 1 1 2 (2)
I0113 00:17:31.347865 10951 net.cpp:157] Top shape: 1 1 1 1 (1)
I0113 00:17:31.347867 10951 net.cpp:165] Memory required for data: 4528884224
I0113 00:17:31.347869 10951 layer_factory.hpp:77] Creating layer LFCN_3_5x7
I0113 00:17:31.347877 10951 net.cpp:100] Creating Layer LFCN_3_5x7
I0113 00:17:31.347880 10951 net.cpp:434] LFCN_3_5x7 <- conv6_1_relu6_1_0_split_1
I0113 00:17:31.347884 10951 net.cpp:408] LFCN_3_5x7 -> LFCN_3_5x7
I0113 00:17:31.349738 10951 net.cpp:150] Setting up LFCN_3_5x7
I0113 00:17:31.349750 10951 net.cpp:157] Top shape: 4 7 18 24 (12096)
I0113 00:17:31.349751 10951 net.cpp:165] Memory required for data: 4528932608
I0113 00:17:31.349756 10951 layer_factory.hpp:77] Creating layer LFCN_3_5x7_LFCN_3_5x7_0_split
I0113 00:17:31.349762 10951 net.cpp:100] Creating Layer LFCN_3_5x7_LFCN_3_5x7_0_split
I0113 00:17:31.349766 10951 net.cpp:434] LFCN_3_5x7_LFCN_3_5x7_0_split <- LFCN_3_5x7
I0113 00:17:31.349769 10951 net.cpp:408] LFCN_3_5x7_LFCN_3_5x7_0_split -> LFCN_3_5x7_LFCN_3_5x7_0_split_0
I0113 00:17:31.349776 10951 net.cpp:408] LFCN_3_5x7_LFCN_3_5x7_0_split -> LFCN_3_5x7_LFCN_3_5x7_0_split_1
I0113 00:17:31.349781 10951 net.cpp:408] LFCN_3_5x7_LFCN_3_5x7_0_split -> LFCN_3_5x7_LFCN_3_5x7_0_split_2
I0113 00:17:31.349831 10951 net.cpp:150] Setting up LFCN_3_5x7_LFCN_3_5x7_0_split
I0113 00:17:31.349836 10951 net.cpp:157] Top shape: 4 7 18 24 (12096)
I0113 00:17:31.349839 10951 net.cpp:157] Top shape: 4 7 18 24 (12096)
I0113 00:17:31.349843 10951 net.cpp:157] Top shape: 4 7 18 24 (12096)
I0113 00:17:31.349843 10951 net.cpp:165] Memory required for data: 4529077760
I0113 00:17:31.349845 10951 layer_factory.hpp:77] Creating layer detection_loss_3_5x7
I0113 00:17:31.349850 10951 net.cpp:100] Creating Layer detection_loss_3_5x7
I0113 00:17:31.349853 10951 net.cpp:434] detection_loss_3_5x7 <- LFCN_3_5x7_LFCN_3_5x7_0_split_0
I0113 00:17:31.349856 10951 net.cpp:434] detection_loss_3_5x7 <- label_3_5x7_data_6_split_0
I0113 00:17:31.349861 10951 net.cpp:408] detection_loss_3_5x7 -> loss_3_5x7
I0113 00:17:31.349867 10951 layer_factory.hpp:77] Creating layer detection_loss_3_5x7
I0113 00:17:31.350168 10951 net.cpp:150] Setting up detection_loss_3_5x7
I0113 00:17:31.350178 10951 net.cpp:157] Top shape: 1 1 1 2 (2)
I0113 00:17:31.350179 10951 net.cpp:160]     with loss weight 1
I0113 00:17:31.350183 10951 net.cpp:165] Memory required for data: 4529077768
I0113 00:17:31.350185 10951 layer_factory.hpp:77] Creating layer detection_accuracy_3_5x7
I0113 00:17:31.350190 10951 net.cpp:100] Creating Layer detection_accuracy_3_5x7
I0113 00:17:31.350193 10951 net.cpp:434] detection_accuracy_3_5x7 <- LFCN_3_5x7_LFCN_3_5x7_0_split_1
I0113 00:17:31.350196 10951 net.cpp:434] detection_accuracy_3_5x7 <- label_3_5x7_data_6_split_1
I0113 00:17:31.350201 10951 net.cpp:408] detection_accuracy_3_5x7 -> accuracy_3_5x7
I0113 00:17:31.350208 10951 net.cpp:408] detection_accuracy_3_5x7 -> boxiou_3_5x7
I0113 00:17:31.350239 10951 net.cpp:150] Setting up detection_accuracy_3_5x7
I0113 00:17:31.350244 10951 net.cpp:157] Top shape: 1 1 1 2 (2)
I0113 00:17:31.350247 10951 net.cpp:157] Top shape: 1 1 1 1 (1)
I0113 00:17:31.350248 10951 net.cpp:165] Memory required for data: 4529077780
I0113 00:17:31.350250 10951 layer_factory.hpp:77] Creating layer pool6
I0113 00:17:31.350255 10951 net.cpp:100] Creating Layer pool6
I0113 00:17:31.350258 10951 net.cpp:434] pool6 <- conv6_1_relu6_1_0_split_2
I0113 00:17:31.350261 10951 net.cpp:408] pool6 -> pool6
I0113 00:17:31.350294 10951 net.cpp:150] Setting up pool6
I0113 00:17:31.350299 10951 net.cpp:157] Top shape: 4 512 9 12 (221184)
I0113 00:17:31.350301 10951 net.cpp:165] Memory required for data: 4529962516
I0113 00:17:31.350303 10951 layer_factory.hpp:77] Creating layer LFCN_4_3x5
I0113 00:17:31.350311 10951 net.cpp:100] Creating Layer LFCN_4_3x5
I0113 00:17:31.350313 10951 net.cpp:434] LFCN_4_3x5 <- pool6
I0113 00:17:31.350318 10951 net.cpp:408] LFCN_4_3x5 -> LFCN_4_3x5
I0113 00:17:31.351668 10951 net.cpp:150] Setting up LFCN_4_3x5
I0113 00:17:31.351681 10951 net.cpp:157] Top shape: 4 7 9 12 (3024)
I0113 00:17:31.351683 10951 net.cpp:165] Memory required for data: 4529974612
I0113 00:17:31.351688 10951 layer_factory.hpp:77] Creating layer LFCN_4_3x5_LFCN_4_3x5_0_split
I0113 00:17:31.351694 10951 net.cpp:100] Creating Layer LFCN_4_3x5_LFCN_4_3x5_0_split
I0113 00:17:31.351697 10951 net.cpp:434] LFCN_4_3x5_LFCN_4_3x5_0_split <- LFCN_4_3x5
I0113 00:17:31.351701 10951 net.cpp:408] LFCN_4_3x5_LFCN_4_3x5_0_split -> LFCN_4_3x5_LFCN_4_3x5_0_split_0
I0113 00:17:31.351707 10951 net.cpp:408] LFCN_4_3x5_LFCN_4_3x5_0_split -> LFCN_4_3x5_LFCN_4_3x5_0_split_1
I0113 00:17:31.351713 10951 net.cpp:408] LFCN_4_3x5_LFCN_4_3x5_0_split -> LFCN_4_3x5_LFCN_4_3x5_0_split_2
I0113 00:17:31.351759 10951 net.cpp:150] Setting up LFCN_4_3x5_LFCN_4_3x5_0_split
I0113 00:17:31.351764 10951 net.cpp:157] Top shape: 4 7 9 12 (3024)
I0113 00:17:31.351768 10951 net.cpp:157] Top shape: 4 7 9 12 (3024)
I0113 00:17:31.351770 10951 net.cpp:157] Top shape: 4 7 9 12 (3024)
I0113 00:17:31.351773 10951 net.cpp:165] Memory required for data: 4530010900
I0113 00:17:31.351774 10951 layer_factory.hpp:77] Creating layer detection_loss_4_3x5
I0113 00:17:31.351779 10951 net.cpp:100] Creating Layer detection_loss_4_3x5
I0113 00:17:31.351783 10951 net.cpp:434] detection_loss_4_3x5 <- LFCN_4_3x5_LFCN_4_3x5_0_split_0
I0113 00:17:31.351786 10951 net.cpp:434] detection_loss_4_3x5 <- label_4_3x5_data_7_split_0
I0113 00:17:31.351790 10951 net.cpp:408] detection_loss_4_3x5 -> loss_4_3x5
I0113 00:17:31.351796 10951 layer_factory.hpp:77] Creating layer detection_loss_4_3x5
I0113 00:17:31.352078 10951 net.cpp:150] Setting up detection_loss_4_3x5
I0113 00:17:31.352087 10951 net.cpp:157] Top shape: 1 1 1 2 (2)
I0113 00:17:31.352088 10951 net.cpp:160]     with loss weight 1
I0113 00:17:31.352092 10951 net.cpp:165] Memory required for data: 4530010908
I0113 00:17:31.352094 10951 layer_factory.hpp:77] Creating layer detection_accuracy_4_3x5
I0113 00:17:31.352100 10951 net.cpp:100] Creating Layer detection_accuracy_4_3x5
I0113 00:17:31.352103 10951 net.cpp:434] detection_accuracy_4_3x5 <- LFCN_4_3x5_LFCN_4_3x5_0_split_1
I0113 00:17:31.352108 10951 net.cpp:434] detection_accuracy_4_3x5 <- label_4_3x5_data_7_split_1
I0113 00:17:31.352113 10951 net.cpp:408] detection_accuracy_4_3x5 -> accuracy_4_3x5
I0113 00:17:31.352118 10951 net.cpp:408] detection_accuracy_4_3x5 -> boxiou_4_3x5
I0113 00:17:31.352157 10951 net.cpp:150] Setting up detection_accuracy_4_3x5
I0113 00:17:31.352162 10951 net.cpp:157] Top shape: 1 1 1 2 (2)
I0113 00:17:31.352165 10951 net.cpp:157] Top shape: 1 1 1 1 (1)
I0113 00:17:31.352167 10951 net.cpp:165] Memory required for data: 4530010920
I0113 00:17:31.352169 10951 layer_factory.hpp:77] Creating layer proposals
I0113 00:17:31.352176 10951 net.cpp:100] Creating Layer proposals
I0113 00:17:31.352180 10951 net.cpp:434] proposals <- LFCN_1_3x5_LFCN_1_3x5_0_split_2
I0113 00:17:31.352183 10951 net.cpp:434] proposals <- LFCN_1_5x7_LFCN_1_5x7_0_split_2
I0113 00:17:31.352185 10951 net.cpp:434] proposals <- LFCN_2_3x5_LFCN_2_3x5_0_split_2
I0113 00:17:31.352188 10951 net.cpp:434] proposals <- LFCN_2_5x7_LFCN_2_5x7_0_split_2
I0113 00:17:31.352190 10951 net.cpp:434] proposals <- LFCN_3_3x5_LFCN_3_3x5_0_split_2
I0113 00:17:31.352193 10951 net.cpp:434] proposals <- LFCN_3_5x7_LFCN_3_5x7_0_split_2
I0113 00:17:31.352195 10951 net.cpp:434] proposals <- LFCN_4_3x5_LFCN_4_3x5_0_split_2
I0113 00:17:31.352200 10951 net.cpp:408] proposals -> proposals
I0113 00:17:31.352223 10951 net.cpp:150] Setting up proposals
I0113 00:17:31.352231 10951 net.cpp:157] Top shape: 1 5 1 1 (5)
I0113 00:17:31.352233 10951 net.cpp:165] Memory required for data: 4530010940
I0113 00:17:31.352236 10951 layer_factory.hpp:77] Creating layer proposal_info
I0113 00:17:31.352242 10951 net.cpp:100] Creating Layer proposal_info
I0113 00:17:31.352246 10951 net.cpp:434] proposal_info <- proposals
I0113 00:17:31.352248 10951 net.cpp:434] proposal_info <- gt_boxes
I0113 00:17:31.352254 10951 net.cpp:408] proposal_info -> rois
I0113 00:17:31.352263 10951 net.cpp:408] proposal_info -> proposal_labels
I0113 00:17:31.352268 10951 net.cpp:408] proposal_info -> proposal_targets
I0113 00:17:31.352274 10951 net.cpp:408] proposal_info -> box_inside_weights
I0113 00:17:31.352279 10951 net.cpp:408] proposal_info -> box_outside_weights
I0113 00:17:31.352286 10951 net.cpp:408] proposal_info -> match_gt_boxes
I0113 00:17:31.352358 10951 net.cpp:150] Setting up proposal_info
I0113 00:17:31.352363 10951 net.cpp:157] Top shape: 128 5 1 1 (640)
I0113 00:17:31.352367 10951 net.cpp:157] Top shape: 128 1 1 1 (128)
I0113 00:17:31.352370 10951 net.cpp:157] Top shape: 128 12 1 1 (1536)
I0113 00:17:31.352372 10951 net.cpp:157] Top shape: 128 12 1 1 (1536)
I0113 00:17:31.352375 10951 net.cpp:157] Top shape: 128 12 1 1 (1536)
I0113 00:17:31.352377 10951 net.cpp:157] Top shape: 128 6 1 1 (768)
I0113 00:17:31.352380 10951 net.cpp:165] Memory required for data: 4530035516
I0113 00:17:31.352381 10951 layer_factory.hpp:77] Creating layer rois_proposal_info_0_split
I0113 00:17:31.352385 10951 net.cpp:100] Creating Layer rois_proposal_info_0_split
I0113 00:17:31.352388 10951 net.cpp:434] rois_proposal_info_0_split <- rois
I0113 00:17:31.352393 10951 net.cpp:408] rois_proposal_info_0_split -> rois_proposal_info_0_split_0
I0113 00:17:31.352399 10951 net.cpp:408] rois_proposal_info_0_split -> rois_proposal_info_0_split_1
I0113 00:17:31.352403 10951 net.cpp:408] rois_proposal_info_0_split -> rois_proposal_info_0_split_2
I0113 00:17:31.352442 10951 net.cpp:150] Setting up rois_proposal_info_0_split
I0113 00:17:31.352447 10951 net.cpp:157] Top shape: 128 5 1 1 (640)
I0113 00:17:31.352449 10951 net.cpp:157] Top shape: 128 5 1 1 (640)
I0113 00:17:31.352452 10951 net.cpp:157] Top shape: 128 5 1 1 (640)
I0113 00:17:31.352453 10951 net.cpp:165] Memory required for data: 4530043196
I0113 00:17:31.352455 10951 layer_factory.hpp:77] Creating layer proposal_labels_proposal_info_1_split
I0113 00:17:31.352460 10951 net.cpp:100] Creating Layer proposal_labels_proposal_info_1_split
I0113 00:17:31.352463 10951 net.cpp:434] proposal_labels_proposal_info_1_split <- proposal_labels
I0113 00:17:31.352466 10951 net.cpp:408] proposal_labels_proposal_info_1_split -> proposal_labels_proposal_info_1_split_0
I0113 00:17:31.352471 10951 net.cpp:408] proposal_labels_proposal_info_1_split -> proposal_labels_proposal_info_1_split_1
I0113 00:17:31.352499 10951 net.cpp:150] Setting up proposal_labels_proposal_info_1_split
I0113 00:17:31.352504 10951 net.cpp:157] Top shape: 128 1 1 1 (128)
I0113 00:17:31.352506 10951 net.cpp:157] Top shape: 128 1 1 1 (128)
I0113 00:17:31.352509 10951 net.cpp:165] Memory required for data: 4530044220
I0113 00:17:31.352510 10951 layer_factory.hpp:77] Creating layer conv4_3_2x
I0113 00:17:31.352515 10951 net.cpp:100] Creating Layer conv4_3_2x
I0113 00:17:31.352519 10951 net.cpp:434] conv4_3_2x <- conv4_3_relu4_3_0_split_2
I0113 00:17:31.352524 10951 net.cpp:408] conv4_3_2x -> conv4_3_2x
I0113 00:17:31.352860 10951 net.cpp:150] Setting up conv4_3_2x
I0113 00:17:31.352866 10951 net.cpp:157] Top shape: 4 512 144 192 (56623104)
I0113 00:17:31.352869 10951 net.cpp:165] Memory required for data: 4756536636
I0113 00:17:31.352872 10951 layer_factory.hpp:77] Creating layer conv4_3_2x_conv4_3_2x_0_split
I0113 00:17:31.352876 10951 net.cpp:100] Creating Layer conv4_3_2x_conv4_3_2x_0_split
I0113 00:17:31.352879 10951 net.cpp:434] conv4_3_2x_conv4_3_2x_0_split <- conv4_3_2x
I0113 00:17:31.352882 10951 net.cpp:408] conv4_3_2x_conv4_3_2x_0_split -> conv4_3_2x_conv4_3_2x_0_split_0
I0113 00:17:31.352887 10951 net.cpp:408] conv4_3_2x_conv4_3_2x_0_split -> conv4_3_2x_conv4_3_2x_0_split_1
I0113 00:17:31.352917 10951 net.cpp:150] Setting up conv4_3_2x_conv4_3_2x_0_split
I0113 00:17:31.352921 10951 net.cpp:157] Top shape: 4 512 144 192 (56623104)
I0113 00:17:31.352924 10951 net.cpp:157] Top shape: 4 512 144 192 (56623104)
I0113 00:17:31.352926 10951 net.cpp:165] Memory required for data: 5209521468
I0113 00:17:31.352928 10951 layer_factory.hpp:77] Creating layer roi_pool_org
I0113 00:17:31.352933 10951 net.cpp:100] Creating Layer roi_pool_org
I0113 00:17:31.352936 10951 net.cpp:434] roi_pool_org <- conv4_3_2x_conv4_3_2x_0_split_0
I0113 00:17:31.352938 10951 net.cpp:434] roi_pool_org <- rois_proposal_info_0_split_0
I0113 00:17:31.352943 10951 net.cpp:408] roi_pool_org -> roi_pool_org
I0113 00:17:31.352949 10951 roi_pooling_layer.cpp:33] Spatial scale: 0.25
I0113 00:17:31.352980 10951 net.cpp:150] Setting up roi_pool_org
I0113 00:17:31.352985 10951 net.cpp:157] Top shape: 128 512 7 5 (2293760)
I0113 00:17:31.352988 10951 net.cpp:165] Memory required for data: 5218696508
I0113 00:17:31.352990 10951 layer_factory.hpp:77] Creating layer roi_pool_ctx
I0113 00:17:31.352995 10951 net.cpp:100] Creating Layer roi_pool_ctx
I0113 00:17:31.352998 10951 net.cpp:434] roi_pool_ctx <- conv4_3_2x_conv4_3_2x_0_split_1
I0113 00:17:31.353001 10951 net.cpp:434] roi_pool_ctx <- rois_proposal_info_0_split_1
I0113 00:17:31.353006 10951 net.cpp:408] roi_pool_ctx -> roi_pool_ctx
I0113 00:17:31.353010 10951 roi_pooling_layer.cpp:33] Spatial scale: 0.25
I0113 00:17:31.353037 10951 net.cpp:150] Setting up roi_pool_ctx
I0113 00:17:31.353044 10951 net.cpp:157] Top shape: 128 512 7 5 (2293760)
I0113 00:17:31.353045 10951 net.cpp:165] Memory required for data: 5227871548
I0113 00:17:31.353047 10951 layer_factory.hpp:77] Creating layer roi_pool
I0113 00:17:31.353051 10951 net.cpp:100] Creating Layer roi_pool
I0113 00:17:31.353055 10951 net.cpp:434] roi_pool <- roi_pool_org
I0113 00:17:31.353057 10951 net.cpp:434] roi_pool <- roi_pool_ctx
I0113 00:17:31.353060 10951 net.cpp:408] roi_pool -> roi_pool
I0113 00:17:31.353080 10951 net.cpp:150] Setting up roi_pool
I0113 00:17:31.353085 10951 net.cpp:157] Top shape: 128 1024 7 5 (4587520)
I0113 00:17:31.353087 10951 net.cpp:165] Memory required for data: 5246221628
I0113 00:17:31.353090 10951 layer_factory.hpp:77] Creating layer roi_c1
I0113 00:17:31.353096 10951 net.cpp:100] Creating Layer roi_c1
I0113 00:17:31.353099 10951 net.cpp:434] roi_c1 <- roi_pool
I0113 00:17:31.353104 10951 net.cpp:408] roi_c1 -> roi_c1
I0113 00:17:31.392956 10951 net.cpp:150] Setting up roi_c1
I0113 00:17:31.392978 10951 net.cpp:157] Top shape: 128 512 5 3 (983040)
I0113 00:17:31.392982 10951 net.cpp:165] Memory required for data: 5250153788
I0113 00:17:31.392988 10951 layer_factory.hpp:77] Creating layer roi_c1_relu
I0113 00:17:31.392997 10951 net.cpp:100] Creating Layer roi_c1_relu
I0113 00:17:31.392999 10951 net.cpp:434] roi_c1_relu <- roi_c1
I0113 00:17:31.393007 10951 net.cpp:395] roi_c1_relu -> roi_c1 (in-place)
I0113 00:17:31.393481 10951 net.cpp:150] Setting up roi_c1_relu
I0113 00:17:31.393491 10951 net.cpp:157] Top shape: 128 512 5 3 (983040)
I0113 00:17:31.393493 10951 net.cpp:165] Memory required for data: 5254085948
I0113 00:17:31.393507 10951 layer_factory.hpp:77] Creating layer fc6
I0113 00:17:31.393514 10951 net.cpp:100] Creating Layer fc6
I0113 00:17:31.393517 10951 net.cpp:434] fc6 <- roi_c1
I0113 00:17:31.393523 10951 net.cpp:408] fc6 -> fc6
I0113 00:17:31.524219 10951 net.cpp:150] Setting up fc6
I0113 00:17:31.524256 10951 net.cpp:157] Top shape: 128 2048 (262144)
I0113 00:17:31.524260 10951 net.cpp:165] Memory required for data: 5255134524
I0113 00:17:31.524267 10951 layer_factory.hpp:77] Creating layer relu6
I0113 00:17:31.524274 10951 net.cpp:100] Creating Layer relu6
I0113 00:17:31.524278 10951 net.cpp:434] relu6 <- fc6
I0113 00:17:31.524286 10951 net.cpp:395] relu6 -> fc6 (in-place)
I0113 00:17:31.524503 10951 net.cpp:150] Setting up relu6
I0113 00:17:31.524511 10951 net.cpp:157] Top shape: 128 2048 (262144)
I0113 00:17:31.524513 10951 net.cpp:165] Memory required for data: 5256183100
I0113 00:17:31.524515 10951 layer_factory.hpp:77] Creating layer drop6
I0113 00:17:31.524523 10951 net.cpp:100] Creating Layer drop6
I0113 00:17:31.524525 10951 net.cpp:434] drop6 <- fc6
I0113 00:17:31.524530 10951 net.cpp:395] drop6 -> fc6 (in-place)
I0113 00:17:31.524552 10951 net.cpp:150] Setting up drop6
I0113 00:17:31.524557 10951 net.cpp:157] Top shape: 128 2048 (262144)
I0113 00:17:31.524559 10951 net.cpp:165] Memory required for data: 5257231676
I0113 00:17:31.524561 10951 layer_factory.hpp:77] Creating layer fc6_drop6_0_split
I0113 00:17:31.524569 10951 net.cpp:100] Creating Layer fc6_drop6_0_split
I0113 00:17:31.524572 10951 net.cpp:434] fc6_drop6_0_split <- fc6
I0113 00:17:31.524576 10951 net.cpp:408] fc6_drop6_0_split -> fc6_drop6_0_split_0
I0113 00:17:31.524590 10951 net.cpp:408] fc6_drop6_0_split -> fc6_drop6_0_split_1
I0113 00:17:31.524626 10951 net.cpp:150] Setting up fc6_drop6_0_split
I0113 00:17:31.524634 10951 net.cpp:157] Top shape: 128 2048 (262144)
I0113 00:17:31.524637 10951 net.cpp:157] Top shape: 128 2048 (262144)
I0113 00:17:31.524639 10951 net.cpp:165] Memory required for data: 5259328828
I0113 00:17:31.524641 10951 layer_factory.hpp:77] Creating layer cls_pred
I0113 00:17:31.524649 10951 net.cpp:100] Creating Layer cls_pred
I0113 00:17:31.524652 10951 net.cpp:434] cls_pred <- fc6_drop6_0_split_0
I0113 00:17:31.524657 10951 net.cpp:408] cls_pred -> cls_pred
I0113 00:17:31.524808 10951 net.cpp:150] Setting up cls_pred
I0113 00:17:31.524816 10951 net.cpp:157] Top shape: 128 3 (384)
I0113 00:17:31.524818 10951 net.cpp:165] Memory required for data: 5259330364
I0113 00:17:31.524823 10951 layer_factory.hpp:77] Creating layer cls_pred_cls_pred_0_split
I0113 00:17:31.524827 10951 net.cpp:100] Creating Layer cls_pred_cls_pred_0_split
I0113 00:17:31.524830 10951 net.cpp:434] cls_pred_cls_pred_0_split <- cls_pred
I0113 00:17:31.524834 10951 net.cpp:408] cls_pred_cls_pred_0_split -> cls_pred_cls_pred_0_split_0
I0113 00:17:31.524839 10951 net.cpp:408] cls_pred_cls_pred_0_split -> cls_pred_cls_pred_0_split_1
I0113 00:17:31.524894 10951 net.cpp:150] Setting up cls_pred_cls_pred_0_split
I0113 00:17:31.524900 10951 net.cpp:157] Top shape: 128 3 (384)
I0113 00:17:31.524904 10951 net.cpp:157] Top shape: 128 3 (384)
I0113 00:17:31.524905 10951 net.cpp:165] Memory required for data: 5259333436
I0113 00:17:31.524907 10951 layer_factory.hpp:77] Creating layer bbox_pred
I0113 00:17:31.524912 10951 net.cpp:100] Creating Layer bbox_pred
I0113 00:17:31.524919 10951 net.cpp:434] bbox_pred <- fc6_drop6_0_split_1
I0113 00:17:31.524922 10951 net.cpp:408] bbox_pred -> bbox_pred
I0113 00:17:31.525202 10951 net.cpp:150] Setting up bbox_pred
I0113 00:17:31.525207 10951 net.cpp:157] Top shape: 128 12 (1536)
I0113 00:17:31.525209 10951 net.cpp:165] Memory required for data: 5259339580
I0113 00:17:31.525213 10951 layer_factory.hpp:77] Creating layer bbox_pred_bbox_pred_0_split
I0113 00:17:31.525218 10951 net.cpp:100] Creating Layer bbox_pred_bbox_pred_0_split
I0113 00:17:31.525220 10951 net.cpp:434] bbox_pred_bbox_pred_0_split <- bbox_pred
I0113 00:17:31.525224 10951 net.cpp:408] bbox_pred_bbox_pred_0_split -> bbox_pred_bbox_pred_0_split_0
I0113 00:17:31.525229 10951 net.cpp:408] bbox_pred_bbox_pred_0_split -> bbox_pred_bbox_pred_0_split_1
I0113 00:17:31.525259 10951 net.cpp:150] Setting up bbox_pred_bbox_pred_0_split
I0113 00:17:31.525264 10951 net.cpp:157] Top shape: 128 12 (1536)
I0113 00:17:31.525266 10951 net.cpp:157] Top shape: 128 12 (1536)
I0113 00:17:31.525269 10951 net.cpp:165] Memory required for data: 5259351868
I0113 00:17:31.525270 10951 layer_factory.hpp:77] Creating layer loss_cls
I0113 00:17:31.525276 10951 net.cpp:100] Creating Layer loss_cls
I0113 00:17:31.525279 10951 net.cpp:434] loss_cls <- cls_pred_cls_pred_0_split_0
I0113 00:17:31.525283 10951 net.cpp:434] loss_cls <- proposal_labels_proposal_info_1_split_0
…
I0113 00:17:31.539593 10951 image_gt_data_layer.cpp:235] output label size 2 : 2,6,36,48
I0113 00:17:31.539638 10951 image_gt_data_layer.cpp:235] output label size 3 : 2,6,36,48
I0113 00:17:31.539683 10951 image_gt_data_layer.cpp:235] output label size 4 : 2,6,18,24
I0113 00:17:31.539728 10951 image_gt_data_layer.cpp:235] output label size 5 : 2,6,18,24
I0113 00:17:31.539772 10951 image_gt_data_layer.cpp:235] output label size 6 : 2,6,9,12
I0113 00:17:31.539816 10951 image_gt_data_layer.cpp:250] output gt boxes size: 1,7,1,1
I0113 00:17:31.555184 10951 net.cpp:150] Setting up data
I0113 00:17:31.555210 10951 net.cpp:157] Top shape: 2 3 576 768 (2654208)
I0113 00:17:31.555224 10951 net.cpp:157] Top shape: 2 6 72 96 (82944)
I0113 00:17:31.555229 10951 net.cpp:157] Top shape: 2 6 72 96 (82944)
I0113 00:17:31.555232 10951 net.cpp:157] Top shape: 2 6 36 48 (20736)
I0113 00:17:31.555234 10951 net.cpp:157] Top shape: 2 6 36 48 (20736)
I0113 00:17:31.555238 10951 net.cpp:157] Top shape: 2 6 18 24 (5184)
I0113 00:17:31.555240 10951 net.cpp:157] Top shape: 2 6 18 24 (5184)
I0113 00:17:31.555243 10951 net.cpp:157] Top shape: 2 6 9 12 (1296)
I0113 00:17:31.555246 10951 net.cpp:157] Top shape: 1 7 1 1 (7)
I0113 00:17:31.555248 10951 net.cpp:165] Memory required for data: 11492956
I0113 00:17:31.555253 10951 layer_factory.hpp:77] Creating layer label_1_3x5_data_1_split
I0113 00:17:31.555265 10951 net.cpp:100] Creating Layer label_1_3x5_data_1_split
I0113 00:17:31.555269 10951 net.cpp:434] label_1_3x5_data_1_split <- label_1_3x5
I0113 00:17:31.555274 10951 net.cpp:408] label_1_3x5_data_1_split -> label_1_3x5_data_1_split_0
I0113 00:17:31.555285 10951 net.cpp:408] label_1_3x5_data_1_split -> label_1_3x5_data_1_split_1
I0113 00:17:31.555385 10951 net.cpp:150] Setting up label_1_3x5_data_1_split
I0113 00:17:31.555392 10951 net.cpp:157] Top shape: 2 6 72 96 (82944)
I0113 00:17:31.555393 10951 net.cpp:157] Top shape: 2 6 72 96 (82944)
I0113 00:17:31.555395 10951 net.cpp:165] Memory required for data: 12156508
I0113 00:17:31.555397 10951 layer_factory.hpp:77] Creating layer label_1_5x7_data_2_split
I0113 00:17:31.555403 10951 net.cpp:100] Creating Layer label_1_5x7_data_2_split
I0113 00:17:31.555407 10951 net.cpp:434] label_1_5x7_data_2_split <- label_1_5x7
I0113 00:17:31.555411 10951 net.cpp:408] label_1_5x7_data_2_split -> label_1_5x7_data_2_split_0
I0113 00:17:31.555416 10951 net.cpp:408] label_1_5x7_data_2_split -> label_1_5x7_data_2_split_1
I0113 00:17:31.555475 10951 net.cpp:150] Setting up label_1_5x7_data_2_split
I0113 00:17:31.555481 10951 net.cpp:157] Top shape: 2 6 72 96 (82944)
I0113 00:17:31.555485 10951 net.cpp:157] Top shape: 2 6 72 96 (82944)
I0113 00:17:31.555486 10951 net.cpp:165] Memory required for data: 12820060
I0113 00:17:31.555488 10951 layer_factory.hpp:77] Creating layer label_2_3x5_data_3_split
I0113 00:17:31.555492 10951 net.cpp:100] Creating Layer label_2_3x5_data_3_split
I0113 00:17:31.555495 10951 net.cpp:434] label_2_3x5_data_3_split <- label_2_3x5
I0113 00:17:31.555498 10951 net.cpp:408] label_2_3x5_data_3_split -> label_2_3x5_data_3_split_0
I0113 00:17:31.555503 10951 net.cpp:408] label_2_3x5_data_3_split -> label_2_3x5_data_3_split_1
I0113 00:17:31.555554 10951 net.cpp:150] Setting up label_2_3x5_data_3_split
I0113 00:17:31.555559 10951 net.cpp:157] Top shape: 2 6 36 48 (20736)
I0113 00:17:31.555562 10951 net.cpp:157] Top shape: 2 6 36 48 (20736)
I0113 00:17:31.555563 10951 net.cpp:165] Memory required for data: 12985948
I0113 00:17:31.555565 10951 layer_factory.hpp:77] Creating layer label_2_5x7_data_4_split
I0113 00:17:31.555572 10951 net.cpp:100] Creating Layer label_2_5x7_data_4_split
I0113 00:17:31.555574 10951 net.cpp:434] label_2_5x7_data_4_split <- label_2_5x7
I0113 00:17:31.555579 10951 net.cpp:408] label_2_5x7_data_4_split -> label_2_5x7_data_4_split_0
I0113 00:17:31.555584 10951 net.cpp:408] label_2_5x7_data_4_split -> label_2_5x7_data_4_split_1
I0113 00:17:31.555618 10951 net.cpp:150] Setting up label_2_5x7_data_4_split
I0113 00:17:31.555621 10951 net.cpp:157] Top shape: 2 6 36 48 (20736)
I0113 00:17:31.555624 10951 net.cpp:157] Top shape: 2 6 36 48 (20736)
I0113 00:17:31.555626 10951 net.cpp:165] Memory required for data: 13151836
I0113 00:17:31.555629 10951 layer_factory.hpp:77] Creating layer label_3_3x5_data_5_split
I0113 00:17:31.555632 10951 net.cpp:100] Creating Layer label_3_3x5_data_5_split
I0113 00:17:31.555634 10951 net.cpp:434] label_3_3x5_data_5_split <- label_3_3x5
I0113 00:17:31.555639 10951 net.cpp:408] label_3_3x5_data_5_split -> label_3_3x5_data_5_split_0
I0113 00:17:31.555644 10951 net.cpp:408] label_3_3x5_data_5_split -> label_3_3x5_data_5_split_1
I0113 00:17:31.555671 10951 net.cpp:150] Setting up label_3_3x5_data_5_split
I0113 00:17:31.555676 10951 net.cpp:157] Top shape: 2 6 18 24 (5184)
I0113 00:17:31.555680 10951 net.cpp:157] Top shape: 2 6 18 24 (5184)
I0113 00:17:31.555681 10951 net.cpp:165] Memory required for data: 13193308
I0113 00:17:31.555683 10951 layer_factory.hpp:77] Creating layer label_3_5x7_data_6_split
I0113 00:17:31.555686 10951 net.cpp:100] Creating Layer label_3_5x7_data_6_split
I0113 00:17:31.555688 10951 net.cpp:434] label_3_5x7_data_6_split <- label_3_5x7
I0113 00:17:31.555692 10951 net.cpp:408] label_3_5x7_data_6_split -> label_3_5x7_data_6_split_0
I0113 00:17:31.555697 10951 net.cpp:408] label_3_5x7_data_6_split -> label_3_5x7_data_6_split_1
I0113 00:17:31.555724 10951 net.cpp:150] Setting up label_3_5x7_data_6_split
I0113 00:17:31.555729 10951 net.cpp:157] Top shape: 2 6 18 24 (5184)
I0113 00:17:31.555732 10951 net.cpp:157] Top shape: 2 6 18 24 (5184)
I0113 00:17:31.555734 10951 net.cpp:165] Memory required for data: 13234780
I0113 00:17:31.555737 10951 layer_factory.hpp:77] Creating layer label_4_3x5_data_7_split
I0113 00:17:31.555739 10951 net.cpp:100] Creating Layer label_4_3x5_data_7_split
I0113 00:17:31.555742 10951 net.cpp:434] label_4_3x5_data_7_split <- label_4_3x5
I0113 00:17:31.555747 10951 net.cpp:408] label_4_3x5_data_7_split -> label_4_3x5_data_7_split_0
I0113 00:17:31.555750 10951 net.cpp:408] label_4_3x5_data_7_split -> label_4_3x5_data_7_split_1
I0113 00:17:31.555778 10951 net.cpp:150] Setting up label_4_3x5_data_7_split
I0113 00:17:31.555783 10951 net.cpp:157] Top shape: 2 6 9 12 (1296)
I0113 00:17:31.555784 10951 net.cpp:157] Top shape: 2 6 9 12 (1296)
I0113 00:17:31.555786 10951 net.cpp:165] Memory required for data: 13245148
I0113 00:17:31.555788 10951 layer_factory.hpp:77] Creating layer conv1_1
I0113 00:17:31.555797 10951 net.cpp:100] Creating Layer conv1_1
I0113 00:17:31.555799 10951 net.cpp:434] conv1_1 <- data
I0113 00:17:31.555804 10951 net.cpp:408] conv1_1 -> conv1_1
I0113 00:17:31.558929 10951 net.cpp:150] Setting up conv1_1
I0113 00:17:31.558945 10951 net.cpp:157] Top shape: 2 64 576 768 (56623104)
I0113 00:17:31.558948 10951 net.cpp:165] Memory required for data: 239737564
I0113 00:17:31.558959 10951 layer_factory.hpp:77] Creating layer relu1_1
I0113 00:17:31.558966 10951 net.cpp:100] Creating Layer relu1_1
I0113 00:17:31.558971 10951 net.cpp:434] relu1_1 <- conv1_1
I0113 00:17:31.558976 10951 net.cpp:395] relu1_1 -> conv1_1 (in-place)
I0113 00:17:31.559145 10951 net.cpp:150] Setting up relu1_1
I0113 00:17:31.559157 10951 net.cpp:157] Top shape: 2 64 576 768 (56623104)
I0113 00:17:31.559161 10951 net.cpp:165] Memory required for data: 466229980
I0113 00:17:31.559164 10951 layer_factory.hpp:77] Creating layer conv1_2
I0113 00:17:31.559170 10951 net.cpp:100] Creating Layer conv1_2
I0113 00:17:31.559173 10951 net.cpp:434] conv1_2 <- conv1_1
I0113 00:17:31.559180 10951 net.cpp:408] conv1_2 -> conv1_2
I0113 00:17:31.561455 10951 net.cpp:150] Setting up conv1_2
I0113 00:17:31.561466 10951 net.cpp:157] Top shape: 2 64 576 768 (56623104)
I0113 00:17:31.561468 10951 net.cpp:165] Memory required for data: 692722396
I0113 00:17:31.561478 10951 layer_factory.hpp:77] Creating layer relu1_2
I0113 00:17:31.561483 10951 net.cpp:100] Creating Layer relu1_2
I0113 00:17:31.561486 10951 net.cpp:434] relu1_2 <- conv1_2
I0113 00:17:31.561491 10951 net.cpp:395] relu1_2 -> conv1_2 (in-place)
I0113 00:17:31.561646 10951 net.cpp:150] Setting up relu1_2
I0113 00:17:31.561653 10951 net.cpp:157] Top shape: 2 64 576 768 (56623104)
I0113 00:17:31.561655 10951 net.cpp:165] Memory required for data: 919214812
I0113 00:17:31.561658 10951 layer_factory.hpp:77] Creating layer pool1
I0113 00:17:31.561664 10951 net.cpp:100] Creating Layer pool1
I0113 00:17:31.561667 10951 net.cpp:434] pool1 <- conv1_2
I0113 00:17:31.561671 10951 net.cpp:408] pool1 -> pool1
I0113 00:17:31.561713 10951 net.cpp:150] Setting up pool1
I0113 00:17:31.561718 10951 net.cpp:157] Top shape: 2 64 288 384 (14155776)
I0113 00:17:31.561720 10951 net.cpp:165] Memory required for data: 975837916
I0113 00:17:31.561722 10951 layer_factory.hpp:77] Creating layer conv2_1
I0113 00:17:31.561729 10951 net.cpp:100] Creating Layer conv2_1
I0113 00:17:31.561731 10951 net.cpp:434] conv2_1 <- pool1
I0113 00:17:31.561736 10951 net.cpp:408] conv2_1 -> conv2_1
I0113 00:17:31.563441 10951 net.cpp:150] Setting up conv2_1
I0113 00:17:31.563452 10951 net.cpp:157] Top shape: 2 128 288 384 (28311552)
I0113 00:17:31.563455 10951 net.cpp:165] Memory required for data: 1089084124
I0113 00:17:31.563462 10951 layer_factory.hpp:77] Creating layer relu2_1
I0113 00:17:31.563467 10951 net.cpp:100] Creating Layer relu2_1
I0113 00:17:31.563469 10951 net.cpp:434] relu2_1 <- conv2_1
I0113 00:17:31.563474 10951 net.cpp:395] relu2_1 -> conv2_1 (in-place)
I0113 00:17:31.563937 10951 net.cpp:150] Setting up relu2_1
I0113 00:17:31.563948 10951 net.cpp:157] Top shape: 2 128 288 384 (28311552)
I0113 00:17:31.563951 10951 net.cpp:165] Memory required for data: 1202330332
I0113 00:17:31.563952 10951 layer_factory.hpp:77] Creating layer conv2_2
I0113 00:17:31.563961 10951 net.cpp:100] Creating Layer conv2_2
I0113 00:17:31.563963 10951 net.cpp:434] conv2_2 <- conv2_1
I0113 00:17:31.563967 10951 net.cpp:408] conv2_2 -> conv2_2
I0113 00:17:31.566192 10951 net.cpp:150] Setting up conv2_2
I0113 00:17:31.566205 10951 net.cpp:157] Top shape: 2 128 288 384 (28311552)
I0113 00:17:31.566206 10951 net.cpp:165] Memory required for data: 1315576540
I0113 00:17:31.566212 10951 layer_factory.hpp:77] Creating layer relu2_2
I0113 00:17:31.566222 10951 net.cpp:100] Creating Layer relu2_2
I0113 00:17:31.566226 10951 net.cpp:434] relu2_2 <- conv2_2
I0113 00:17:31.566231 10951 net.cpp:395] relu2_2 -> conv2_2 (in-place)
I0113 00:17:31.566387 10951 net.cpp:150] Setting up relu2_2
I0113 00:17:31.566395 10951 net.cpp:157] Top shape: 2 128 288 384 (28311552)
I0113 00:17:31.566396 10951 net.cpp:165] Memory required for data: 1428822748
I0113 00:17:31.566399 10951 layer_factory.hpp:77] Creating layer pool2
I0113 00:17:31.566403 10951 net.cpp:100] Creating Layer pool2
I0113 00:17:31.566406 10951 net.cpp:434] pool2 <- conv2_2
I0113 00:17:31.566411 10951 net.cpp:408] pool2 -> pool2
I0113 00:17:31.566459 10951 net.cpp:150] Setting up pool2
I0113 00:17:31.566464 10951 net.cpp:157] Top shape: 2 128 144 192 (7077888)
I0113 00:17:31.566467 10951 net.cpp:165] Memory required for data: 1457134300
I0113 00:17:31.566468 10951 layer_factory.hpp:77] Creating layer conv3_1
I0113 00:17:31.566475 10951 net.cpp:100] Creating Layer conv3_1
I0113 00:17:31.566478 10951 net.cpp:434] conv3_1 <- pool2
I0113 00:17:31.566483 10951 net.cpp:408] conv3_1 -> conv3_1
I0113 00:17:31.567967 10951 net.cpp:150] Setting up conv3_1
I0113 00:17:31.567979 10951 net.cpp:157] Top shape: 2 256 144 192 (14155776)
I0113 00:17:31.567981 10951 net.cpp:165] Memory required for data: 1513757404
I0113 00:17:31.567991 10951 layer_factory.hpp:77] Creating layer relu3_1
I0113 00:17:31.567994 10951 net.cpp:100] Creating Layer relu3_1
I0113 00:17:31.567997 10951 net.cpp:434] relu3_1 <- conv3_1
I0113 00:17:31.568002 10951 net.cpp:395] relu3_1 -> conv3_1 (in-place)
I0113 00:17:31.568156 10951 net.cpp:150] Setting up relu3_1
I0113 00:17:31.568164 10951 net.cpp:157] Top shape: 2 256 144 192 (14155776)
I0113 00:17:31.568166 10951 net.cpp:165] Memory required for data: 1570380508
I0113 00:17:31.568168 10951 layer_factory.hpp:77] Creating layer conv3_2
I0113 00:17:31.568176 10951 net.cpp:100] Creating Layer conv3_2
I0113 00:17:31.568177 10951 net.cpp:434] conv3_2 <- conv3_1
I0113 00:17:31.568181 10951 net.cpp:408] conv3_2 -> conv3_2
I0113 00:17:31.570685 10951 net.cpp:150] Setting up conv3_2
I0113 00:17:31.570698 10951 net.cpp:157] Top shape: 2 256 144 192 (14155776)
I0113 00:17:31.570700 10951 net.cpp:165] Memory required for data: 1627003612
I0113 00:17:31.570705 10951 layer_factory.hpp:77] Creating layer relu3_2
I0113 00:17:31.570713 10951 net.cpp:100] Creating Layer relu3_2
I0113 00:17:31.570715 10951 net.cpp:434] relu3_2 <- conv3_2
I0113 00:17:31.570719 10951 net.cpp:395] relu3_2 -> conv3_2 (in-place)
I0113 00:17:31.570870 10951 net.cpp:150] Setting up relu3_2
I0113 00:17:31.570878 10951 net.cpp:157] Top shape: 2 256 144 192 (14155776)
I0113 00:17:31.570880 10951 net.cpp:165] Memory required for data: 1683626716
I0113 00:17:31.570883 10951 layer_factory.hpp:77] Creating layer conv3_3
I0113 00:17:31.570889 10951 net.cpp:100] Creating Layer conv3_3
I0113 00:17:31.570893 10951 net.cpp:434] conv3_3 <- conv3_2
I0113 00:17:31.570897 10951 net.cpp:408] conv3_3 -> conv3_3
I0113 00:17:31.573349 10951 net.cpp:150] Setting up conv3_3
I0113 00:17:31.573360 10951 net.cpp:157] Top shape: 2 256 144 192 (14155776)
I0113 00:17:31.573364 10951 net.cpp:165] Memory required for data: 1740249820
I0113 00:17:31.573369 10951 layer_factory.hpp:77] Creating layer relu3_3
I0113 00:17:31.573374 10951 net.cpp:100] Creating Layer relu3_3
I0113 00:17:31.573377 10951 net.cpp:434] relu3_3 <- conv3_3
I0113 00:17:31.573381 10951 net.cpp:395] relu3_3 -> conv3_3 (in-place)
I0113 00:17:31.573534 10951 net.cpp:150] Setting up relu3_3
I0113 00:17:31.573542 10951 net.cpp:157] Top shape: 2 256 144 192 (14155776)
I0113 00:17:31.573544 10951 net.cpp:165] Memory required for data: 1796872924
I0113 00:17:31.573547 10951 layer_factory.hpp:77] Creating layer pool3
I0113 00:17:31.573552 10951 net.cpp:100] Creating Layer pool3
I0113 00:17:31.573554 10951 net.cpp:434] pool3 <- conv3_3
I0113 00:17:31.573559 10951 net.cpp:408] pool3 -> pool3
I0113 00:17:31.573606 10951 net.cpp:150] Setting up pool3
I0113 00:17:31.573612 10951 net.cpp:157] Top shape: 2 256 72 96 (3538944)
I0113 00:17:31.573614 10951 net.cpp:165] Memory required for data: 1811028700
I0113 00:17:31.573616 10951 layer_factory.hpp:77] Creating layer conv4_1
I0113 00:17:31.573622 10951 net.cpp:100] Creating Layer conv4_1
I0113 00:17:31.573624 10951 net.cpp:434] conv4_1 <- pool3
I0113 00:17:31.573628 10951 net.cpp:408] conv4_1 -> conv4_1
I0113 00:17:31.576822 10951 net.cpp:150] Setting up conv4_1
I0113 00:17:31.576838 10951 net.cpp:157] Top shape: 2 512 72 96 (7077888)
I0113 00:17:31.576840 10951 net.cpp:165] Memory required for data: 1839340252
I0113 00:17:31.576845 10951 layer_factory.hpp:77] Creating layer relu4_1
I0113 00:17:31.576850 10951 net.cpp:100] Creating Layer relu4_1
I0113 00:17:31.576853 10951 net.cpp:434] relu4_1 <- conv4_1
I0113 00:17:31.576858 10951 net.cpp:395] relu4_1 -> conv4_1 (in-place)
I0113 00:17:31.577013 10951 net.cpp:150] Setting up relu4_1
I0113 00:17:31.577019 10951 net.cpp:157] Top shape: 2 512 72 96 (7077888)
I0113 00:17:31.577021 10951 net.cpp:165] Memory required for data: 1867651804
I0113 00:17:31.577024 10951 layer_factory.hpp:77] Creating layer conv4_2
I0113 00:17:31.577030 10951 net.cpp:100] Creating Layer conv4_2
I0113 00:17:31.577033 10951 net.cpp:434] conv4_2 <- conv4_1
I0113 00:17:31.577038 10951 net.cpp:408] conv4_2 -> conv4_2
I0113 00:17:31.581514 10951 net.cpp:150] Setting up conv4_2
I0113 00:17:31.581537 10951 net.cpp:157] Top shape: 2 512 72 96 (7077888)
I0113 00:17:31.581539 10951 net.cpp:165] Memory required for data: 1895963356
I0113 00:17:31.581552 10951 layer_factory.hpp:77] Creating layer relu4_2
I0113 00:17:31.581560 10951 net.cpp:100] Creating Layer relu4_2
I0113 00:17:31.581565 10951 net.cpp:434] relu4_2 <- conv4_2
I0113 00:17:31.581570 10951 net.cpp:395] relu4_2 -> conv4_2 (in-place)
I0113 00:17:31.582060 10951 net.cpp:150] Setting up relu4_2
I0113 00:17:31.582072 10951 net.cpp:157] Top shape: 2 512 72 96 (7077888)
I0113 00:17:31.582073 10951 net.cpp:165] Memory required for data: 1924274908
I0113 00:17:31.582077 10951 layer_factory.hpp:77] Creating layer conv4_3
I0113 00:17:31.582084 10951 net.cpp:100] Creating Layer conv4_3
I0113 00:17:31.582087 10951 net.cpp:434] conv4_3 <- conv4_2
I0113 00:17:31.582093 10951 net.cpp:408] conv4_3 -> conv4_3
I0113 00:17:31.587687 10951 net.cpp:150] Setting up conv4_3
I0113 00:17:31.587712 10951 net.cpp:157] Top shape: 2 512 72 96 (7077888)
I0113 00:17:31.587714 10951 net.cpp:165] Memory required for data: 1952586460
I0113 00:17:31.587723 10951 layer_factory.hpp:77] Creating layer relu4_3
I0113 00:17:31.587729 10951 net.cpp:100] Creating Layer relu4_3
I0113 00:17:31.587733 10951 net.cpp:434] relu4_3 <- conv4_3
I0113 00:17:31.587743 10951 net.cpp:395] relu4_3 -> conv4_3 (in-place)
I0113 00:17:31.587894 10951 net.cpp:150] Setting up relu4_3
I0113 00:17:31.587903 10951 net.cpp:157] Top shape: 2 512 72 96 (7077888)
I0113 00:17:31.587904 10951 net.cpp:165] Memory required for data: 1980898012
I0113 00:17:31.587908 10951 layer_factory.hpp:77] Creating layer conv4_3_relu4_3_0_split
I0113 00:17:31.587914 10951 net.cpp:100] Creating Layer conv4_3_relu4_3_0_split
I0113 00:17:31.587916 10951 net.cpp:434] conv4_3_relu4_3_0_split <- conv4_3
I0113 00:17:31.587921 10951 net.cpp:408] conv4_3_relu4_3_0_split -> conv4_3_relu4_3_0_split_0
I0113 00:17:31.587929 10951 net.cpp:408] conv4_3_relu4_3_0_split -> conv4_3_relu4_3_0_split_1
I0113 00:17:31.587932 10951 net.cpp:408] conv4_3_relu4_3_0_split -> conv4_3_relu4_3_0_split_2
I0113 00:17:31.587985 10951 net.cpp:150] Setting up conv4_3_relu4_3_0_split
I0113 00:17:31.587990 10951 net.cpp:157] Top shape: 2 512 72 96 (7077888)
I0113 00:17:31.587992 10951 net.cpp:157] Top shape: 2 512 72 96 (7077888)
I0113 00:17:31.587996 10951 net.cpp:157] Top shape: 2 512 72 96 (7077888)
I0113 00:17:31.587996 10951 net.cpp:165] Memory required for data: 2065832668
I0113 00:17:31.587998 10951 layer_factory.hpp:77] Creating layer loss1_conv1
I0113 00:17:31.588016 10951 net.cpp:100] Creating Layer loss1_conv1
I0113 00:17:31.588019 10951 net.cpp:434] loss1_conv1 <- conv4_3_relu4_3_0_split_0
I0113 00:17:31.588024 10951 net.cpp:408] loss1_conv1 -> loss1_conv1
I0113 00:17:31.608706 10951 net.cpp:150] Setting up loss1_conv1
I0113 00:17:31.608731 10951 net.cpp:157] Top shape: 2 512 72 96 (7077888)
I0113 00:17:31.608732 10951 net.cpp:165] Memory required for data: 2094144220
I0113 00:17:31.608741 10951 layer_factory.hpp:77] Creating layer loss_relu1
I0113 00:17:31.608748 10951 net.cpp:100] Creating Layer loss_relu1
I0113 00:17:31.608752 10951 net.cpp:434] loss_relu1 <- loss1_conv1
I0113 00:17:31.608757 10951 net.cpp:395] loss_relu1 -> loss1_conv1 (in-place)
I0113 00:17:31.608909 10951 net.cpp:150] Setting up loss_relu1
I0113 00:17:31.608916 10951 net.cpp:157] Top shape: 2 512 72 96 (7077888)
I0113 00:17:31.608919 10951 net.cpp:165] Memory required for data: 2122455772
I0113 00:17:31.608922 10951 layer_factory.hpp:77] Creating layer loss1_conv1_loss_relu1_0_split
I0113 00:17:31.608927 10951 net.cpp:100] Creating Layer loss1_conv1_loss_relu1_0_split
I0113 00:17:31.608929 10951 net.cpp:434] loss1_conv1_loss_relu1_0_split <- loss1_conv1
I0113 00:17:31.608934 10951 net.cpp:408] loss1_conv1_loss_relu1_0_split -> loss1_conv1_loss_relu1_0_split_0
I0113 00:17:31.608942 10951 net.cpp:408] loss1_conv1_loss_relu1_0_split -> loss1_conv1_loss_relu1_0_split_1
I0113 00:17:31.608980 10951 net.cpp:150] Setting up loss1_conv1_loss_relu1_0_split
I0113 00:17:31.608985 10951 net.cpp:157] Top shape: 2 512 72 96 (7077888)
I0113 00:17:31.608989 10951 net.cpp:157] Top shape: 2 512 72 96 (7077888)
I0113 00:17:31.608990 10951 net.cpp:165] Memory required for data: 2179078876
I0113 00:17:31.608992 10951 layer_factory.hpp:77] Creating layer LFCN_1_3x5
I0113 00:17:31.609001 10951 net.cpp:100] Creating Layer LFCN_1_3x5
I0113 00:17:31.609004 10951 net.cpp:434] LFCN_1_3x5 <- loss1_conv1_loss_relu1_0_split_0
I0113 00:17:31.609010 10951 net.cpp:408] LFCN_1_3x5 -> LFCN_1_3x5
I0113 00:17:31.610685 10951 net.cpp:150] Setting up LFCN_1_3x5
I0113 00:17:31.610720 10951 net.cpp:157] Top shape: 2 7 72 96 (96768)
I0113 00:17:31.610738 10951 net.cpp:165] Memory required for data: 2179465948
I0113 00:17:31.610754 10951 layer_factory.hpp:77] Creating layer LFCN_1_3x5_LFCN_1_3x5_0_split
I0113 00:17:31.610774 10951 net.cpp:100] Creating Layer LFCN_1_3x5_LFCN_1_3x5_0_split
I0113 00:17:31.610790 10951 net.cpp:434] LFCN_1_3x5_LFCN_1_3x5_0_split <- LFCN_1_3x5
I0113 00:17:31.610807 10951 net.cpp:408] LFCN_1_3x5_LFCN_1_3x5_0_split -> LFCN_1_3x5_LFCN_1_3x5_0_split_0
I0113 00:17:31.610831 10951 net.cpp:408] LFCN_1_3x5_LFCN_1_3x5_0_split -> LFCN_1_3x5_LFCN_1_3x5_0_split_1
I0113 00:17:31.610852 10951 net.cpp:408] LFCN_1_3x5_LFCN_1_3x5_0_split -> LFCN_1_3x5_LFCN_1_3x5_0_split_2
I0113 00:17:31.610944 10951 net.cpp:150] Setting up LFCN_1_3x5_LFCN_1_3x5_0_split
I0113 00:17:31.610963 10951 net.cpp:157] Top shape: 2 7 72 96 (96768)
I0113 00:17:31.610978 10951 net.cpp:157] Top shape: 2 7 72 96 (96768)
I0113 00:17:31.610993 10951 net.cpp:157] Top shape: 2 7 72 96 (96768)
I0113 00:17:31.611007 10951 net.cpp:165] Memory required for data: 2180627164
I0113 00:17:31.611047 10951 layer_factory.hpp:77] Creating layer detection_loss_1_3x5
I0113 00:17:31.611068 10951 net.cpp:100] Creating Layer detection_loss_1_3x5
I0113 00:17:31.611083 10951 net.cpp:434] detection_loss_1_3x5 <- LFCN_1_3x5_LFCN_1_3x5_0_split_0
I0113 00:17:31.611100 10951 net.cpp:434] detection_loss_1_3x5 <- label_1_3x5_data_1_split_0
I0113 00:17:31.611120 10951 net.cpp:408] detection_loss_1_3x5 -> loss_1_3x5
I0113 00:17:31.611145 10951 layer_factory.hpp:77] Creating layer detection_loss_1_3x5
I0113 00:17:31.611572 10951 net.cpp:150] Setting up detection_loss_1_3x5
I0113 00:17:31.611580 10951 net.cpp:157] Top shape: 1 1 1 2 (2)
I0113 00:17:31.611584 10951 net.cpp:160]     with loss weight 0.5
I0113 00:17:31.611593 10951 net.cpp:165] Memory required for data: 2180627172
I0113 00:17:31.611594 10951 layer_factory.hpp:77] Creating layer detection_accuracy_1_3x5
I0113 00:17:31.611601 10951 net.cpp:100] Creating Layer detection_accuracy_1_3x5
I0113 00:17:31.611604 10951 net.cpp:434] detection_accuracy_1_3x5 <- LFCN_1_3x5_LFCN_1_3x5_0_split_1
I0113 00:17:31.611608 10951 net.cpp:434] detection_accuracy_1_3x5 <- label_1_3x5_data_1_split_1
I0113 00:17:31.611613 10951 net.cpp:408] detection_accuracy_1_3x5 -> accuracy_1_3x5
I0113 00:17:31.611618 10951 net.cpp:408] detection_accuracy_1_3x5 -> boxiou_1_3x5
I0113 00:17:31.611657 10951 net.cpp:150] Setting up detection_accuracy_1_3x5
I0113 00:17:31.611663 10951 net.cpp:157] Top shape: 1 1 1 2 (2)
I0113 00:17:31.611665 10951 net.cpp:157] Top shape: 1 1 1 1 (1)
I0113 00:17:31.611667 10951 net.cpp:165] Memory required for data: 2180627184
I0113 00:17:31.611670 10951 layer_factory.hpp:77] Creating layer LFCN_1_5x7
I0113 00:17:31.611676 10951 net.cpp:100] Creating Layer LFCN_1_5x7
I0113 00:17:31.611680 10951 net.cpp:434] LFCN_1_5x7 <- loss1_conv1_loss_relu1_0_split_1
I0113 00:17:31.611685 10951 net.cpp:408] LFCN_1_5x7 -> LFCN_1_5x7
I0113 00:17:31.614531 10951 net.cpp:150] Setting up LFCN_1_5x7
I0113 00:17:31.614547 10951 net.cpp:157] Top shape: 2 7 72 96 (96768)
I0113 00:17:31.614549 10951 net.cpp:165] Memory required for data: 2181014256
I0113 00:17:31.614554 10951 layer_factory.hpp:77] Creating layer LFCN_1_5x7_LFCN_1_5x7_0_split
I0113 00:17:31.614560 10951 net.cpp:100] Creating Layer LFCN_1_5x7_LFCN_1_5x7_0_split
I0113 00:17:31.614564 10951 net.cpp:434] LFCN_1_5x7_LFCN_1_5x7_0_split <- LFCN_1_5x7
I0113 00:17:31.614572 10951 net.cpp:408] LFCN_1_5x7_LFCN_1_5x7_0_split -> LFCN_1_5x7_LFCN_1_5x7_0_split_0
I0113 00:17:31.614579 10951 net.cpp:408] LFCN_1_5x7_LFCN_1_5x7_0_split -> LFCN_1_5x7_LFCN_1_5x7_0_split_1
I0113 00:17:31.614585 10951 net.cpp:408] LFCN_1_5x7_LFCN_1_5x7_0_split -> LFCN_1_5x7_LFCN_1_5x7_0_split_2
I0113 00:17:31.614636 10951 net.cpp:150] Setting up LFCN_1_5x7_LFCN_1_5x7_0_split
I0113 00:17:31.614642 10951 net.cpp:157] Top shape: 2 7 72 96 (96768)
I0113 00:17:31.614645 10951 net.cpp:157] Top shape: 2 7 72 96 (96768)
I0113 00:17:31.614647 10951 net.cpp:157] Top shape: 2 7 72 96 (96768)
I0113 00:17:31.614650 10951 net.cpp:165] Memory required for data: 2182175472
I0113 00:17:31.614651 10951 layer_factory.hpp:77] Creating layer detection_loss_1_5x7
I0113 00:17:31.614658 10951 net.cpp:100] Creating Layer detection_loss_1_5x7
I0113 00:17:31.614661 10951 net.cpp:434] detection_loss_1_5x7 <- LFCN_1_5x7_LFCN_1_5x7_0_split_0
I0113 00:17:31.614665 10951 net.cpp:434] detection_loss_1_5x7 <- label_1_5x7_data_2_split_0
I0113 00:17:31.614670 10951 net.cpp:408] detection_loss_1_5x7 -> loss_1_5x7
I0113 00:17:31.614676 10951 layer_factory.hpp:77] Creating layer detection_loss_1_5x7
I0113 00:17:31.615015 10951 net.cpp:150] Setting up detection_loss_1_5x7
I0113 00:17:31.615022 10951 net.cpp:157] Top shape: 1 1 1 2 (2)
I0113 00:17:31.615025 10951 net.cpp:160]     with loss weight 0.9
I0113 00:17:31.615031 10951 net.cpp:165] Memory required for data: 2182175480
I0113 00:17:31.615032 10951 layer_factory.hpp:77] Creating layer detection_accuracy_1_5x7
I0113 00:17:31.615037 10951 net.cpp:100] Creating Layer detection_accuracy_1_5x7
I0113 00:17:31.615041 10951 net.cpp:434] detection_accuracy_1_5x7 <- LFCN_1_5x7_LFCN_1_5x7_0_split_1
I0113 00:17:31.615044 10951 net.cpp:434] detection_accuracy_1_5x7 <- label_1_5x7_data_2_split_1
I0113 00:17:31.615049 10951 net.cpp:408] detection_accuracy_1_5x7 -> accuracy_1_5x7
I0113 00:17:31.615056 10951 net.cpp:408] detection_accuracy_1_5x7 -> boxiou_1_5x7
I0113 00:17:31.615095 10951 net.cpp:150] Setting up detection_accuracy_1_5x7
I0113 00:17:31.615099 10951 net.cpp:157] Top shape: 1 1 1 2 (2)
I0113 00:17:31.615103 10951 net.cpp:157] Top shape: 1 1 1 1 (1)
I0113 00:17:31.615104 10951 net.cpp:165] Memory required for data: 2182175492
I0113 00:17:31.615106 10951 layer_factory.hpp:77] Creating layer pool4
I0113 00:17:31.615111 10951 net.cpp:100] Creating Layer pool4
I0113 00:17:31.615114 10951 net.cpp:434] pool4 <- conv4_3_relu4_3_0_split_1
I0113 00:17:31.615119 10951 net.cpp:408] pool4 -> pool4
I0113 00:17:31.615154 10951 net.cpp:150] Setting up pool4
I0113 00:17:31.615159 10951 net.cpp:157] Top shape: 2 512 36 48 (1769472)
I0113 00:17:31.615161 10951 net.cpp:165] Memory required for data: 2189253380
I0113 00:17:31.615164 10951 layer_factory.hpp:77] Creating layer conv5_1
I0113 00:17:31.615170 10951 net.cpp:100] Creating Layer conv5_1
I0113 00:17:31.615175 10951 net.cpp:434] conv5_1 <- pool4
I0113 00:17:31.615178 10951 net.cpp:408] conv5_1 -> conv5_1
I0113 00:17:31.620767 10951 net.cpp:150] Setting up conv5_1
I0113 00:17:31.620790 10951 net.cpp:157] Top shape: 2 512 36 48 (1769472)
I0113 00:17:31.620792 10951 net.cpp:165] Memory required for data: 2196331268
I0113 00:17:31.620801 10951 layer_factory.hpp:77] Creating layer relu5_1
I0113 00:17:31.620810 10951 net.cpp:100] Creating Layer relu5_1
I0113 00:17:31.620812 10951 net.cpp:434] relu5_1 <- conv5_1
I0113 00:17:31.620820 10951 net.cpp:395] relu5_1 -> conv5_1 (in-place)
I0113 00:17:31.620981 10951 net.cpp:150] Setting up relu5_1
I0113 00:17:31.620990 10951 net.cpp:157] Top shape: 2 512 36 48 (1769472)
I0113 00:17:31.620991 10951 net.cpp:165] Memory required for data: 2203409156
I0113 00:17:31.620993 10951 layer_factory.hpp:77] Creating layer conv5_2
I0113 00:17:31.621001 10951 net.cpp:100] Creating Layer conv5_2
I0113 00:17:31.621003 10951 net.cpp:434] conv5_2 <- conv5_1
I0113 00:17:31.621008 10951 net.cpp:408] conv5_2 -> conv5_2
I0113 00:17:31.625771 10951 net.cpp:150] Setting up conv5_2
I0113 00:17:31.625792 10951 net.cpp:157] Top shape: 2 512 36 48 (1769472)
I0113 00:17:31.625793 10951 net.cpp:165] Memory required for data: 2210487044
I0113 00:17:31.625800 10951 layer_factory.hpp:77] Creating layer relu5_2
I0113 00:17:31.625807 10951 net.cpp:100] Creating Layer relu5_2
I0113 00:17:31.625810 10951 net.cpp:434] relu5_2 <- conv5_2
I0113 00:17:31.625823 10951 net.cpp:395] relu5_2 -> conv5_2 (in-place)
I0113 00:17:31.626338 10951 net.cpp:150] Setting up relu5_2
I0113 00:17:31.626349 10951 net.cpp:157] Top shape: 2 512 36 48 (1769472)
I0113 00:17:31.626351 10951 net.cpp:165] Memory required for data: 2217564932
I0113 00:17:31.626354 10951 layer_factory.hpp:77] Creating layer conv5_3
I0113 00:17:31.626361 10951 net.cpp:100] Creating Layer conv5_3
I0113 00:17:31.626364 10951 net.cpp:434] conv5_3 <- conv5_2
I0113 00:17:31.626369 10951 net.cpp:408] conv5_3 -> conv5_3
I0113 00:17:31.630913 10951 net.cpp:150] Setting up conv5_3
I0113 00:17:31.630933 10951 net.cpp:157] Top shape: 2 512 36 48 (1769472)
I0113 00:17:31.630934 10951 net.cpp:165] Memory required for data: 2224642820
I0113 00:17:31.630941 10951 layer_factory.hpp:77] Creating layer relu5_3
I0113 00:17:31.630949 10951 net.cpp:100] Creating Layer relu5_3
I0113 00:17:31.630952 10951 net.cpp:434] relu5_3 <- conv5_3
I0113 00:17:31.630960 10951 net.cpp:395] relu5_3 -> conv5_3 (in-place)
I0113 00:17:31.631125 10951 net.cpp:150] Setting up relu5_3
I0113 00:17:31.631134 10951 net.cpp:157] Top shape: 2 512 36 48 (1769472)
I0113 00:17:31.631135 10951 net.cpp:165] Memory required for data: 2231720708
I0113 00:17:31.631139 10951 layer_factory.hpp:77] Creating layer conv5_3_relu5_3_0_split
I0113 00:17:31.631144 10951 net.cpp:100] Creating Layer conv5_3_relu5_3_0_split
I0113 00:17:31.631145 10951 net.cpp:434] conv5_3_relu5_3_0_split <- conv5_3
I0113 00:17:31.631151 10951 net.cpp:408] conv5_3_relu5_3_0_split -> conv5_3_relu5_3_0_split_0
I0113 00:17:31.631157 10951 net.cpp:408] conv5_3_relu5_3_0_split -> conv5_3_relu5_3_0_split_1
I0113 00:17:31.631162 10951 net.cpp:408] conv5_3_relu5_3_0_split -> conv5_3_relu5_3_0_split_2
I0113 00:17:31.631217 10951 net.cpp:150] Setting up conv5_3_relu5_3_0_split
I0113 00:17:31.631222 10951 net.cpp:157] Top shape: 2 512 36 48 (1769472)
I0113 00:17:31.631225 10951 net.cpp:157] Top shape: 2 512 36 48 (1769472)
I0113 00:17:31.631228 10951 net.cpp:157] Top shape: 2 512 36 48 (1769472)
I0113 00:17:31.631230 10951 net.cpp:165] Memory required for data: 2252954372
I0113 00:17:31.631232 10951 layer_factory.hpp:77] Creating layer LFCN_2_3x5
I0113 00:17:31.631242 10951 net.cpp:100] Creating Layer LFCN_2_3x5
I0113 00:17:31.631244 10951 net.cpp:434] LFCN_2_3x5 <- conv5_3_relu5_3_0_split_0
I0113 00:17:31.631250 10951 net.cpp:408] LFCN_2_3x5 -> LFCN_2_3x5
I0113 00:17:31.633504 10951 net.cpp:150] Setting up LFCN_2_3x5
I0113 00:17:31.633515 10951 net.cpp:157] Top shape: 2 7 36 48 (24192)
I0113 00:17:31.633518 10951 net.cpp:165] Memory required for data: 2253051140
I0113 00:17:31.633533 10951 layer_factory.hpp:77] Creating layer LFCN_2_3x5_LFCN_2_3x5_0_split
I0113 00:17:31.633538 10951 net.cpp:100] Creating Layer LFCN_2_3x5_LFCN_2_3x5_0_split
I0113 00:17:31.633540 10951 net.cpp:434] LFCN_2_3x5_LFCN_2_3x5_0_split <- LFCN_2_3x5
I0113 00:17:31.633546 10951 net.cpp:408] LFCN_2_3x5_LFCN_2_3x5_0_split -> LFCN_2_3x5_LFCN_2_3x5_0_split_0
I0113 00:17:31.633563 10951 net.cpp:408] LFCN_2_3x5_LFCN_2_3x5_0_split -> LFCN_2_3x5_LFCN_2_3x5_0_split_1
I0113 00:17:31.633569 10951 net.cpp:408] LFCN_2_3x5_LFCN_2_3x5_0_split -> LFCN_2_3x5_LFCN_2_3x5_0_split_2
I0113 00:17:31.633625 10951 net.cpp:150] Setting up LFCN_2_3x5_LFCN_2_3x5_0_split
I0113 00:17:31.633632 10951 net.cpp:157] Top shape: 2 7 36 48 (24192)
I0113 00:17:31.633635 10951 net.cpp:157] Top shape: 2 7 36 48 (24192)
I0113 00:17:31.633638 10951 net.cpp:157] Top shape: 2 7 36 48 (24192)
I0113 00:17:31.633641 10951 net.cpp:165] Memory required for data: 2253341444
I0113 00:17:31.633642 10951 layer_factory.hpp:77] Creating layer detection_loss_2_3x5
I0113 00:17:31.633647 10951 net.cpp:100] Creating Layer detection_loss_2_3x5
I0113 00:17:31.633651 10951 net.cpp:434] detection_loss_2_3x5 <- LFCN_2_3x5_LFCN_2_3x5_0_split_0
I0113 00:17:31.633653 10951 net.cpp:434] detection_loss_2_3x5 <- label_2_3x5_data_3_split_0
I0113 00:17:31.633658 10951 net.cpp:408] detection_loss_2_3x5 -> loss_2_3x5
I0113 00:17:31.633666 10951 layer_factory.hpp:77] Creating layer detection_loss_2_3x5
I0113 00:17:31.633991 10951 net.cpp:150] Setting up detection_loss_2_3x5
I0113 00:17:31.633998 10951 net.cpp:157] Top shape: 1 1 1 2 (2)
I0113 00:17:31.634001 10951 net.cpp:160]     with loss weight 1
I0113 00:17:31.634008 10951 net.cpp:165] Memory required for data: 2253341452
I0113 00:17:31.634011 10951 layer_factory.hpp:77] Creating layer detection_accuracy_2_3x5
I0113 00:17:31.634017 10951 net.cpp:100] Creating Layer detection_accuracy_2_3x5
I0113 00:17:31.634021 10951 net.cpp:434] detection_accuracy_2_3x5 <- LFCN_2_3x5_LFCN_2_3x5_0_split_1
I0113 00:17:31.634024 10951 net.cpp:434] detection_accuracy_2_3x5 <- label_2_3x5_data_3_split_1
I0113 00:17:31.634028 10951 net.cpp:408] detection_accuracy_2_3x5 -> accuracy_2_3x5
I0113 00:17:31.634037 10951 net.cpp:408] detection_accuracy_2_3x5 -> boxiou_2_3x5
I0113 00:17:31.634081 10951 net.cpp:150] Setting up detection_accuracy_2_3x5
I0113 00:17:31.634090 10951 net.cpp:157] Top shape: 1 1 1 2 (2)
I0113 00:17:31.634093 10951 net.cpp:157] Top shape: 1 1 1 1 (1)
I0113 00:17:31.634096 10951 net.cpp:165] Memory required for data: 2253341464
I0113 00:17:31.634099 10951 layer_factory.hpp:77] Creating layer LFCN_2_5x7
I0113 00:17:31.634105 10951 net.cpp:100] Creating Layer LFCN_2_5x7
I0113 00:17:31.634109 10951 net.cpp:434] LFCN_2_5x7 <- conv5_3_relu5_3_0_split_1
I0113 00:17:31.634114 10951 net.cpp:408] LFCN_2_5x7 -> LFCN_2_5x7
I0113 00:17:31.636413 10951 net.cpp:150] Setting up LFCN_2_5x7
I0113 00:17:31.636425 10951 net.cpp:157] Top shape: 2 7 36 48 (24192)
I0113 00:17:31.636427 10951 net.cpp:165] Memory required for data: 2253438232
I0113 00:17:31.636432 10951 layer_factory.hpp:77] Creating layer LFCN_2_5x7_LFCN_2_5x7_0_split
I0113 00:17:31.636440 10951 net.cpp:100] Creating Layer LFCN_2_5x7_LFCN_2_5x7_0_split
I0113 00:17:31.636442 10951 net.cpp:434] LFCN_2_5x7_LFCN_2_5x7_0_split <- LFCN_2_5x7
I0113 00:17:31.636446 10951 net.cpp:408] LFCN_2_5x7_LFCN_2_5x7_0_split -> LFCN_2_5x7_LFCN_2_5x7_0_split_0
I0113 00:17:31.636452 10951 net.cpp:408] LFCN_2_5x7_LFCN_2_5x7_0_split -> LFCN_2_5x7_LFCN_2_5x7_0_split_1
I0113 00:17:31.636458 10951 net.cpp:408] LFCN_2_5x7_LFCN_2_5x7_0_split -> LFCN_2_5x7_LFCN_2_5x7_0_split_2
I0113 00:17:31.636509 10951 net.cpp:150] Setting up LFCN_2_5x7_LFCN_2_5x7_0_split
I0113 00:17:31.636515 10951 net.cpp:157] Top shape: 2 7 36 48 (24192)
I0113 00:17:31.636518 10951 net.cpp:157] Top shape: 2 7 36 48 (24192)
I0113 00:17:31.636520 10951 net.cpp:157] Top shape: 2 7 36 48 (24192)
I0113 00:17:31.636523 10951 net.cpp:165] Memory required for data: 2253728536
I0113 00:17:31.636524 10951 layer_factory.hpp:77] Creating layer detection_loss_2_5x7
I0113 00:17:31.636530 10951 net.cpp:100] Creating Layer detection_loss_2_5x7
I0113 00:17:31.636533 10951 net.cpp:434] detection_loss_2_5x7 <- LFCN_2_5x7_LFCN_2_5x7_0_split_0
I0113 00:17:31.636536 10951 net.cpp:434] detection_loss_2_5x7 <- label_2_5x7_data_4_split_0
I0113 00:17:31.636541 10951 net.cpp:408] detection_loss_2_5x7 -> loss_2_5x7
I0113 00:17:31.636548 10951 layer_factory.hpp:77] Creating layer detection_loss_2_5x7
I0113 00:17:31.636879 10951 net.cpp:150] Setting up detection_loss_2_5x7
I0113 00:17:31.636888 10951 net.cpp:157] Top shape: 1 1 1 2 (2)
I0113 00:17:31.636889 10951 net.cpp:160]     with loss weight 1
I0113 00:17:31.636893 10951 net.cpp:165] Memory required for data: 2253728544
I0113 00:17:31.636896 10951 layer_factory.hpp:77] Creating layer detection_accuracy_2_5x7
I0113 00:17:31.636903 10951 net.cpp:100] Creating Layer detection_accuracy_2_5x7
I0113 00:17:31.636905 10951 net.cpp:434] detection_accuracy_2_5x7 <- LFCN_2_5x7_LFCN_2_5x7_0_split_1
I0113 00:17:31.636909 10951 net.cpp:434] detection_accuracy_2_5x7 <- label_2_5x7_data_4_split_1
I0113 00:17:31.636914 10951 net.cpp:408] detection_accuracy_2_5x7 -> accuracy_2_5x7
I0113 00:17:31.636919 10951 net.cpp:408] detection_accuracy_2_5x7 -> boxiou_2_5x7
I0113 00:17:31.636970 10951 net.cpp:150] Setting up detection_accuracy_2_5x7
I0113 00:17:31.636976 10951 net.cpp:157] Top shape: 1 1 1 2 (2)
I0113 00:17:31.636978 10951 net.cpp:157] Top shape: 1 1 1 1 (1)
I0113 00:17:31.636981 10951 net.cpp:165] Memory required for data: 2253728556
I0113 00:17:31.636982 10951 layer_factory.hpp:77] Creating layer pool5
I0113 00:17:31.636988 10951 net.cpp:100] Creating Layer pool5
I0113 00:17:31.636991 10951 net.cpp:434] pool5 <- conv5_3_relu5_3_0_split_2
I0113 00:17:31.636996 10951 net.cpp:408] pool5 -> pool5
I0113 00:17:31.637032 10951 net.cpp:150] Setting up pool5
I0113 00:17:31.637038 10951 net.cpp:157] Top shape: 2 512 18 24 (442368)
I0113 00:17:31.637040 10951 net.cpp:165] Memory required for data: 2255498028
I0113 00:17:31.637042 10951 layer_factory.hpp:77] Creating layer conv6_1
I0113 00:17:31.637048 10951 net.cpp:100] Creating Layer conv6_1
I0113 00:17:31.637050 10951 net.cpp:434] conv6_1 <- pool5
I0113 00:17:31.637055 10951 net.cpp:408] conv6_1 -> conv6_1
I0113 00:17:31.658210 10951 net.cpp:150] Setting up conv6_1
I0113 00:17:31.658231 10951 net.cpp:157] Top shape: 2 512 18 24 (442368)
I0113 00:17:31.658232 10951 net.cpp:165] Memory required for data: 2257267500
I0113 00:17:31.658241 10951 layer_factory.hpp:77] Creating layer relu6_1
I0113 00:17:31.658248 10951 net.cpp:100] Creating Layer relu6_1
I0113 00:17:31.658253 10951 net.cpp:434] relu6_1 <- conv6_1
I0113 00:17:31.658258 10951 net.cpp:395] relu6_1 -> conv6_1 (in-place)
I0113 00:17:31.658432 10951 net.cpp:150] Setting up relu6_1
I0113 00:17:31.658440 10951 net.cpp:157] Top shape: 2 512 18 24 (442368)
I0113 00:17:31.658443 10951 net.cpp:165] Memory required for data: 2259036972
I0113 00:17:31.658445 10951 layer_factory.hpp:77] Creating layer conv6_1_relu6_1_0_split
I0113 00:17:31.658452 10951 net.cpp:100] Creating Layer conv6_1_relu6_1_0_split
I0113 00:17:31.658454 10951 net.cpp:434] conv6_1_relu6_1_0_split <- conv6_1
I0113 00:17:31.658459 10951 net.cpp:408] conv6_1_relu6_1_0_split -> conv6_1_relu6_1_0_split_0
I0113 00:17:31.658465 10951 net.cpp:408] conv6_1_relu6_1_0_split -> conv6_1_relu6_1_0_split_1
I0113 00:17:31.658470 10951 net.cpp:408] conv6_1_relu6_1_0_split -> conv6_1_relu6_1_0_split_2
I0113 00:17:31.658525 10951 net.cpp:150] Setting up conv6_1_relu6_1_0_split
I0113 00:17:31.658530 10951 net.cpp:157] Top shape: 2 512 18 24 (442368)
I0113 00:17:31.658535 10951 net.cpp:157] Top shape: 2 512 18 24 (442368)
I0113 00:17:31.658536 10951 net.cpp:157] Top shape: 2 512 18 24 (442368)
I0113 00:17:31.658538 10951 net.cpp:165] Memory required for data: 2264345388
I0113 00:17:31.658540 10951 layer_factory.hpp:77] Creating layer LFCN_3_3x5
I0113 00:17:31.658550 10951 net.cpp:100] Creating Layer LFCN_3_3x5
I0113 00:17:31.658553 10951 net.cpp:434] LFCN_3_3x5 <- conv6_1_relu6_1_0_split_0
I0113 00:17:31.658560 10951 net.cpp:408] LFCN_3_3x5 -> LFCN_3_3x5
I0113 00:17:31.660032 10951 net.cpp:150] Setting up LFCN_3_3x5
I0113 00:17:31.660043 10951 net.cpp:157] Top shape: 2 7 18 24 (6048)
I0113 00:17:31.660045 10951 net.cpp:165] Memory required for data: 2264369580
I0113 00:17:31.660050 10951 layer_factory.hpp:77] Creating layer LFCN_3_3x5_LFCN_3_3x5_0_split
I0113 00:17:31.660065 10951 net.cpp:100] Creating Layer LFCN_3_3x5_LFCN_3_3x5_0_split
I0113 00:17:31.660068 10951 net.cpp:434] LFCN_3_3x5_LFCN_3_3x5_0_split <- LFCN_3_3x5
I0113 00:17:31.660073 10951 net.cpp:408] LFCN_3_3x5_LFCN_3_3x5_0_split -> LFCN_3_3x5_LFCN_3_3x5_0_split_0
I0113 00:17:31.660079 10951 net.cpp:408] LFCN_3_3x5_LFCN_3_3x5_0_split -> LFCN_3_3x5_LFCN_3_3x5_0_split_1
I0113 00:17:31.660084 10951 net.cpp:408] LFCN_3_3x5_LFCN_3_3x5_0_split -> LFCN_3_3x5_LFCN_3_3x5_0_split_2
I0113 00:17:31.660136 10951 net.cpp:150] Setting up LFCN_3_3x5_LFCN_3_3x5_0_split
I0113 00:17:31.660143 10951 net.cpp:157] Top shape: 2 7 18 24 (6048)
I0113 00:17:31.660146 10951 net.cpp:157] Top shape: 2 7 18 24 (6048)
I0113 00:17:31.660148 10951 net.cpp:157] Top shape: 2 7 18 24 (6048)
I0113 00:17:31.660151 10951 net.cpp:165] Memory required for data: 2264442156
I0113 00:17:31.660154 10951 layer_factory.hpp:77] Creating layer detection_loss_3_3x5
I0113 00:17:31.660159 10951 net.cpp:100] Creating Layer detection_loss_3_3x5
I0113 00:17:31.660162 10951 net.cpp:434] detection_loss_3_3x5 <- LFCN_3_3x5_LFCN_3_3x5_0_split_0
I0113 00:17:31.660166 10951 net.cpp:434] detection_loss_3_3x5 <- label_3_3x5_data_5_split_0
I0113 00:17:31.660172 10951 net.cpp:408] detection_loss_3_3x5 -> loss_3_3x5
I0113 00:17:31.660181 10951 layer_factory.hpp:77] Creating layer detection_loss_3_3x5
I0113 00:17:31.660501 10951 net.cpp:150] Setting up detection_loss_3_3x5
I0113 00:17:31.660508 10951 net.cpp:157] Top shape: 1 1 1 2 (2)
I0113 00:17:31.660511 10951 net.cpp:160]     with loss weight 1
I0113 00:17:31.660518 10951 net.cpp:165] Memory required for data: 2264442164
I0113 00:17:31.660521 10951 layer_factory.hpp:77] Creating layer detection_accuracy_3_3x5
I0113 00:17:31.660526 10951 net.cpp:100] Creating Layer detection_accuracy_3_3x5
I0113 00:17:31.660528 10951 net.cpp:434] detection_accuracy_3_3x5 <- LFCN_3_3x5_LFCN_3_3x5_0_split_1
I0113 00:17:31.660532 10951 net.cpp:434] detection_accuracy_3_3x5 <- label_3_3x5_data_5_split_1
I0113 00:17:31.660538 10951 net.cpp:408] detection_accuracy_3_3x5 -> accuracy_3_3x5
I0113 00:17:31.660545 10951 net.cpp:408] detection_accuracy_3_3x5 -> boxiou_3_3x5
I0113 00:17:31.660588 10951 net.cpp:150] Setting up detection_accuracy_3_3x5
I0113 00:17:31.660594 10951 net.cpp:157] Top shape: 1 1 1 2 (2)
I0113 00:17:31.660596 10951 net.cpp:157] Top shape: 1 1 1 1 (1)
I0113 00:17:31.660598 10951 net.cpp:165] Memory required for data: 2264442176
I0113 00:17:31.660600 10951 layer_factory.hpp:77] Creating layer LFCN_3_5x7
I0113 00:17:31.660609 10951 net.cpp:100] Creating Layer LFCN_3_5x7
I0113 00:17:31.660611 10951 net.cpp:434] LFCN_3_5x7 <- conv6_1_relu6_1_0_split_1
I0113 00:17:31.660615 10951 net.cpp:408] LFCN_3_5x7 -> LFCN_3_5x7
I0113 00:17:31.662581 10951 net.cpp:150] Setting up LFCN_3_5x7
I0113 00:17:31.662592 10951 net.cpp:157] Top shape: 2 7 18 24 (6048)
I0113 00:17:31.662595 10951 net.cpp:165] Memory required for data: 2264466368
I0113 00:17:31.662600 10951 layer_factory.hpp:77] Creating layer LFCN_3_5x7_LFCN_3_5x7_0_split
I0113 00:17:31.662606 10951 net.cpp:100] Creating Layer LFCN_3_5x7_LFCN_3_5x7_0_split
I0113 00:17:31.662611 10951 net.cpp:434] LFCN_3_5x7_LFCN_3_5x7_0_split <- LFCN_3_5x7
I0113 00:17:31.662616 10951 net.cpp:408] LFCN_3_5x7_LFCN_3_5x7_0_split -> LFCN_3_5x7_LFCN_3_5x7_0_split_0
I0113 00:17:31.662623 10951 net.cpp:408] LFCN_3_5x7_LFCN_3_5x7_0_split -> LFCN_3_5x7_LFCN_3_5x7_0_split_1
I0113 00:17:31.662628 10951 net.cpp:408] LFCN_3_5x7_LFCN_3_5x7_0_split -> LFCN_3_5x7_LFCN_3_5x7_0_split_2
I0113 00:17:31.662681 10951 net.cpp:150] Setting up LFCN_3_5x7_LFCN_3_5x7_0_split
I0113 00:17:31.662688 10951 net.cpp:157] Top shape: 2 7 18 24 (6048)
I0113 00:17:31.662690 10951 net.cpp:157] Top shape: 2 7 18 24 (6048)
I0113 00:17:31.662693 10951 net.cpp:157] Top shape: 2 7 18 24 (6048)
I0113 00:17:31.662695 10951 net.cpp:165] Memory required for data: 2264538944
I0113 00:17:31.662698 10951 layer_factory.hpp:77] Creating layer detection_loss_3_5x7
I0113 00:17:31.662703 10951 net.cpp:100] Creating Layer detection_loss_3_5x7
I0113 00:17:31.662705 10951 net.cpp:434] detection_loss_3_5x7 <- LFCN_3_5x7_LFCN_3_5x7_0_split_0
I0113 00:17:31.662709 10951 net.cpp:434] detection_loss_3_5x7 <- label_3_5x7_data_6_split_0
I0113 00:17:31.662714 10951 net.cpp:408] detection_loss_3_5x7 -> loss_3_5x7
I0113 00:17:31.662719 10951 layer_factory.hpp:77] Creating layer detection_loss_3_5x7
I0113 00:17:31.663614 10951 net.cpp:150] Setting up detection_loss_3_5x7
I0113 00:17:31.663646 10951 net.cpp:157] Top shape: 1 1 1 2 (2)
I0113 00:17:31.663662 10951 net.cpp:160]     with loss weight 1
I0113 00:17:31.663681 10951 net.cpp:165] Memory required for data: 2264538952
I0113 00:17:31.663697 10951 layer_factory.hpp:77] Creating layer detection_accuracy_3_5x7
I0113 00:17:31.663714 10951 net.cpp:100] Creating Layer detection_accuracy_3_5x7
I0113 00:17:31.663730 10951 net.cpp:434] detection_accuracy_3_5x7 <- LFCN_3_5x7_LFCN_3_5x7_0_split_1
I0113 00:17:31.663746 10951 net.cpp:434] detection_accuracy_3_5x7 <- label_3_5x7_data_6_split_1
I0113 00:17:31.663767 10951 net.cpp:408] detection_accuracy_3_5x7 -> accuracy_3_5x7
I0113 00:17:31.663789 10951 net.cpp:408] detection_accuracy_3_5x7 -> boxiou_3_5x7
I0113 00:17:31.663868 10951 net.cpp:150] Setting up detection_accuracy_3_5x7
I0113 00:17:31.663888 10951 net.cpp:157] Top shape: 1 1 1 2 (2)
I0113 00:17:31.663903 10951 net.cpp:157] Top shape: 1 1 1 1 (1)
I0113 00:17:31.663916 10951 net.cpp:165] Memory required for data: 2264538964
I0113 00:17:31.663931 10951 layer_factory.hpp:77] Creating layer pool6
I0113 00:17:31.663949 10951 net.cpp:100] Creating Layer pool6
I0113 00:17:31.663964 10951 net.cpp:434] pool6 <- conv6_1_relu6_1_0_split_2
I0113 00:17:31.663981 10951 net.cpp:408] pool6 -> pool6
I0113 00:17:31.664057 10951 net.cpp:150] Setting up pool6
I0113 00:17:31.664077 10951 net.cpp:157] Top shape: 2 512 9 12 (110592)
I0113 00:17:31.664091 10951 net.cpp:165] Memory required for data: 2264981332
I0113 00:17:31.664106 10951 layer_factory.hpp:77] Creating layer LFCN_4_3x5
I0113 00:17:31.664129 10951 net.cpp:100] Creating Layer LFCN_4_3x5
I0113 00:17:31.664144 10951 net.cpp:434] LFCN_4_3x5 <- pool6
I0113 00:17:31.664163 10951 net.cpp:408] LFCN_4_3x5 -> LFCN_4_3x5
I0113 00:17:31.665702 10951 net.cpp:150] Setting up LFCN_4_3x5
I0113 00:17:31.665714 10951 net.cpp:157] Top shape: 2 7 9 12 (1512)
I0113 00:17:31.665715 10951 net.cpp:165] Memory required for data: 2264987380
I0113 00:17:31.665721 10951 layer_factory.hpp:77] Creating layer LFCN_4_3x5_LFCN_4_3x5_0_split
I0113 00:17:31.665727 10951 net.cpp:100] Creating Layer LFCN_4_3x5_LFCN_4_3x5_0_split
I0113 00:17:31.665730 10951 net.cpp:434] LFCN_4_3x5_LFCN_4_3x5_0_split <- LFCN_4_3x5
I0113 00:17:31.665735 10951 net.cpp:408] LFCN_4_3x5_LFCN_4_3x5_0_split -> LFCN_4_3x5_LFCN_4_3x5_0_split_0
I0113 00:17:31.665742 10951 net.cpp:408] LFCN_4_3x5_LFCN_4_3x5_0_split -> LFCN_4_3x5_LFCN_4_3x5_0_split_1
I0113 00:17:31.665747 10951 net.cpp:408] LFCN_4_3x5_LFCN_4_3x5_0_split -> LFCN_4_3x5_LFCN_4_3x5_0_split_2
I0113 00:17:31.665802 10951 net.cpp:150] Setting up LFCN_4_3x5_LFCN_4_3x5_0_split
I0113 00:17:31.665808 10951 net.cpp:157] Top shape: 2 7 9 12 (1512)
I0113 00:17:31.665812 10951 net.cpp:157] Top shape: 2 7 9 12 (1512)
I0113 00:17:31.665830 10951 net.cpp:157] Top shape: 2 7 9 12 (1512)
I0113 00:17:31.665832 10951 net.cpp:165] Memory required for data: 2265005524
I0113 00:17:31.665834 10951 layer_factory.hpp:77] Creating layer detection_loss_4_3x5
I0113 00:17:31.665839 10951 net.cpp:100] Creating Layer detection_loss_4_3x5
I0113 00:17:31.665841 10951 net.cpp:434] detection_loss_4_3x5 <- LFCN_4_3x5_LFCN_4_3x5_0_split_0
I0113 00:17:31.665845 10951 net.cpp:434] detection_loss_4_3x5 <- label_4_3x5_data_7_split_0
I0113 00:17:31.665850 10951 net.cpp:408] detection_loss_4_3x5 -> loss_4_3x5
I0113 00:17:31.665858 10951 layer_factory.hpp:77] Creating layer detection_loss_4_3x5
I0113 00:17:31.666183 10951 net.cpp:150] Setting up detection_loss_4_3x5
I0113 00:17:31.666193 10951 net.cpp:157] Top shape: 1 1 1 2 (2)
I0113 00:17:31.666194 10951 net.cpp:160]     with loss weight 1
I0113 00:17:31.666198 10951 net.cpp:165] Memory required for data: 2265005532
I0113 00:17:31.666201 10951 layer_factory.hpp:77] Creating layer detection_accuracy_4_3x5
I0113 00:17:31.666206 10951 net.cpp:100] Creating Layer detection_accuracy_4_3x5
I0113 00:17:31.666209 10951 net.cpp:434] detection_accuracy_4_3x5 <- LFCN_4_3x5_LFCN_4_3x5_0_split_1
I0113 00:17:31.666213 10951 net.cpp:434] detection_accuracy_4_3x5 <- label_4_3x5_data_7_split_1
I0113 00:17:31.666218 10951 net.cpp:408] detection_accuracy_4_3x5 -> accuracy_4_3x5
I0113 00:17:31.666224 10951 net.cpp:408] detection_accuracy_4_3x5 -> boxiou_4_3x5
I0113 00:17:31.666262 10951 net.cpp:150] Setting up detection_accuracy_4_3x5
I0113 00:17:31.666270 10951 net.cpp:157] Top shape: 1 1 1 2 (2)
I0113 00:17:31.666271 10951 net.cpp:157] Top shape: 1 1 1 1 (1)
I0113 00:17:31.666273 10951 net.cpp:165] Memory required for data: 2265005544
I0113 00:17:31.666275 10951 layer_factory.hpp:77] Creating layer proposals
I0113 00:17:31.666282 10951 net.cpp:100] Creating Layer proposals
I0113 00:17:31.666285 10951 net.cpp:434] proposals <- LFCN_1_3x5_LFCN_1_3x5_0_split_2
I0113 00:17:31.666288 10951 net.cpp:434] proposals <- LFCN_1_5x7_LFCN_1_5x7_0_split_2
I0113 00:17:31.666291 10951 net.cpp:434] proposals <- LFCN_2_3x5_LFCN_2_3x5_0_split_2
I0113 00:17:31.666294 10951 net.cpp:434] proposals <- LFCN_2_5x7_LFCN_2_5x7_0_split_2
I0113 00:17:31.666297 10951 net.cpp:434] proposals <- LFCN_3_3x5_LFCN_3_3x5_0_split_2
I0113 00:17:31.666299 10951 net.cpp:434] proposals <- LFCN_3_5x7_LFCN_3_5x7_0_split_2
I0113 00:17:31.666302 10951 net.cpp:434] proposals <- LFCN_4_3x5_LFCN_4_3x5_0_split_2
I0113 00:17:31.666307 10951 net.cpp:408] proposals -> proposals
I0113 00:17:31.666333 10951 net.cpp:150] Setting up proposals
I0113 00:17:31.666338 10951 net.cpp:157] Top shape: 1 5 1 1 (5)
I0113 00:17:31.666340 10951 net.cpp:165] Memory required for data: 2265005564
I0113 00:17:31.666342 10951 layer_factory.hpp:77] Creating layer proposal_info
I0113 00:17:31.666349 10951 net.cpp:100] Creating Layer proposal_info
I0113 00:17:31.666352 10951 net.cpp:434] proposal_info <- proposals
I0113 00:17:31.666354 10951 net.cpp:434] proposal_info <- gt_boxes
I0113 00:17:31.666360 10951 net.cpp:408] proposal_info -> rois
I0113 00:17:31.666368 10951 net.cpp:408] proposal_info -> proposal_labels
I0113 00:17:31.666373 10951 net.cpp:408] proposal_info -> proposal_targets
I0113 00:17:31.666378 10951 net.cpp:408] proposal_info -> box_inside_weights
I0113 00:17:31.666388 10951 net.cpp:408] proposal_info -> box_outside_weights
I0113 00:17:31.666393 10951 net.cpp:408] proposal_info -> match_gt_boxes
I0113 00:17:31.666477 10951 net.cpp:150] Setting up proposal_info
I0113 00:17:31.666482 10951 net.cpp:157] Top shape: 64 5 1 1 (320)
I0113 00:17:31.666486 10951 net.cpp:157] Top shape: 64 1 1 1 (64)
I0113 00:17:31.666488 10951 net.cpp:157] Top shape: 64 12 1 1 (768)
I0113 00:17:31.666491 10951 net.cpp:157] Top shape: 64 12 1 1 (768)
I0113 00:17:31.666492 10951 net.cpp:157] Top shape: 64 12 1 1 (768)
I0113 00:17:31.666496 10951 net.cpp:157] Top shape: 64 6 1 1 (384)
I0113 00:17:31.666496 10951 net.cpp:165] Memory required for data: 2265017852
I0113 00:17:31.666498 10951 layer_factory.hpp:77] Creating layer rois_proposal_info_0_split
I0113 00:17:31.666503 10951 net.cpp:100] Creating Layer rois_proposal_info_0_split
I0113 00:17:31.666505 10951 net.cpp:434] rois_proposal_info_0_split <- rois
I0113 00:17:31.666510 10951 net.cpp:408] rois_proposal_info_0_split -> rois_proposal_info_0_split_0
I0113 00:17:31.666515 10951 net.cpp:408] rois_proposal_info_0_split -> rois_proposal_info_0_split_1
I0113 00:17:31.666519 10951 net.cpp:408] rois_proposal_info_0_split -> rois_proposal_info_0_split_2
I0113 00:17:31.666569 10951 net.cpp:150] Setting up rois_proposal_info_0_split
I0113 00:17:31.666574 10951 net.cpp:157] Top shape: 64 5 1 1 (320)
I0113 00:17:31.666576 10951 net.cpp:157] Top shape: 64 5 1 1 (320)
I0113 00:17:31.666579 10951 net.cpp:157] Top shape: 64 5 1 1 (320)
I0113 00:17:31.666580 10951 net.cpp:165] Memory required for data: 2265021692
I0113 00:17:31.666582 10951 layer_factory.hpp:77] Creating layer proposal_labels_proposal_info_1_split
I0113 00:17:31.666586 10951 net.cpp:100] Creating Layer proposal_labels_proposal_info_1_split
I0113 00:17:31.666589 10951 net.cpp:434] proposal_labels_proposal_info_1_split <- proposal_labels
I0113 00:17:31.666594 10951 net.cpp:408] proposal_labels_proposal_info_1_split -> proposal_labels_proposal_info_1_split_0
I0113 00:17:31.666597 10951 net.cpp:408] proposal_labels_proposal_info_1_split -> proposal_labels_proposal_info_1_split_1
I0113 00:17:31.666630 10951 net.cpp:150] Setting up proposal_labels_proposal_info_1_split
I0113 00:17:31.666635 10951 net.cpp:157] Top shape: 64 1 1 1 (64)
I0113 00:17:31.666637 10951 net.cpp:157] Top shape: 64 1 1 1 (64)
I0113 00:17:31.666640 10951 net.cpp:165] Memory required for data: 2265022204
I0113 00:17:31.666640 10951 layer_factory.hpp:77] Creating layer conv4_3_2x
I0113 00:17:31.666646 10951 net.cpp:100] Creating Layer conv4_3_2x
I0113 00:17:31.666649 10951 net.cpp:434] conv4_3_2x <- conv4_3_relu4_3_0_split_2
I0113 00:17:31.666654 10951 net.cpp:408] conv4_3_2x -> conv4_3_2x
I0113 00:17:31.667009 10951 net.cpp:150] Setting up conv4_3_2x
I0113 00:17:31.667016 10951 net.cpp:157] Top shape: 2 512 144 192 (28311552)
I0113 00:17:31.667018 10951 net.cpp:165] Memory required for data: 2378268412
I0113 00:17:31.667022 10951 layer_factory.hpp:77] Creating layer conv4_3_2x_conv4_3_2x_0_split
I0113 00:17:31.667026 10951 net.cpp:100] Creating Layer conv4_3_2x_conv4_3_2x_0_split
I0113 00:17:31.667028 10951 net.cpp:434] conv4_3_2x_conv4_3_2x_0_split <- conv4_3_2x
I0113 00:17:31.667032 10951 net.cpp:408] conv4_3_2x_conv4_3_2x_0_split -> conv4_3_2x_conv4_3_2x_0_split_0
I0113 00:17:31.667037 10951 net.cpp:408] conv4_3_2x_conv4_3_2x_0_split -> conv4_3_2x_conv4_3_2x_0_split_1
I0113 00:17:31.667071 10951 net.cpp:150] Setting up conv4_3_2x_conv4_3_2x_0_split
I0113 00:17:31.667078 10951 net.cpp:157] Top shape: 2 512 144 192 (28311552)
I0113 00:17:31.667080 10951 net.cpp:157] Top shape: 2 512 144 192 (28311552)
I0113 00:17:31.667081 10951 net.cpp:165] Memory required for data: 2604760828
I0113 00:17:31.667083 10951 layer_factory.hpp:77] Creating layer roi_pool_org
I0113 00:17:31.667088 10951 net.cpp:100] Creating Layer roi_pool_org
I0113 00:17:31.667090 10951 net.cpp:434] roi_pool_org <- conv4_3_2x_conv4_3_2x_0_split_0
I0113 00:17:31.667093 10951 net.cpp:434] roi_pool_org <- rois_proposal_info_0_split_0
I0113 00:17:31.667098 10951 net.cpp:408] roi_pool_org -> roi_pool_org
I0113 00:17:31.667104 10951 roi_pooling_layer.cpp:33] Spatial scale: 0.25
I0113 00:17:31.667140 10951 net.cpp:150] Setting up roi_pool_org
I0113 00:17:31.667145 10951 net.cpp:157] Top shape: 64 512 7 5 (1146880)
I0113 00:17:31.667146 10951 net.cpp:165] Memory required for data: 2609348348
I0113 00:17:31.667148 10951 layer_factory.hpp:77] Creating layer roi_pool_ctx
I0113 00:17:31.667155 10951 net.cpp:100] Creating Layer roi_pool_ctx
I0113 00:17:31.667156 10951 net.cpp:434] roi_pool_ctx <- conv4_3_2x_conv4_3_2x_0_split_1
I0113 00:17:31.667160 10951 net.cpp:434] roi_pool_ctx <- rois_proposal_info_0_split_1
I0113 00:17:31.667162 10951 net.cpp:408] roi_pool_ctx -> roi_pool_ctx
I0113 00:17:31.667168 10951 roi_pooling_layer.cpp:33] Spatial scale: 0.25
I0113 00:17:31.667202 10951 net.cpp:150] Setting up roi_pool_ctx
I0113 00:17:31.667207 10951 net.cpp:157] Top shape: 64 512 7 5 (1146880)
I0113 00:17:31.667209 10951 net.cpp:165] Memory required for data: 2613935868
I0113 00:17:31.667212 10951 layer_factory.hpp:77] Creating layer roi_pool
I0113 00:17:31.667215 10951 net.cpp:100] Creating Layer roi_pool
I0113 00:17:31.667217 10951 net.cpp:434] roi_pool <- roi_pool_org
I0113 00:17:31.667220 10951 net.cpp:434] roi_pool <- roi_pool_ctx
I0113 00:17:31.667224 10951 net.cpp:408] roi_pool -> roi_pool
I0113 00:17:31.667248 10951 net.cpp:150] Setting up roi_pool
I0113 00:17:31.667253 10951 net.cpp:157] Top shape: 64 1024 7 5 (2293760)
I0113 00:17:31.667253 10951 net.cpp:165] Memory required for data: 2623110908
I0113 00:17:31.667256 10951 layer_factory.hpp:77] Creating layer roi_c1
I0113 00:17:31.667263 10951 net.cpp:100] Creating Layer roi_c1
I0113 00:17:31.667266 10951 net.cpp:434] roi_c1 <- roi_pool
I0113 00:17:31.667270 10951 net.cpp:408] roi_c1 -> roi_c1
I0113 00:17:31.708250 10951 net.cpp:150] Setting up roi_c1
I0113 00:17:31.708272 10951 net.cpp:157] Top shape: 64 512 5 3 (491520)
I0113 00:17:31.708276 10951 net.cpp:165] Memory required for data: 2625076988
I0113 00:17:31.708282 10951 layer_factory.hpp:77] Creating layer roi_c1_relu
I0113 00:17:31.708292 10951 net.cpp:100] Creating Layer roi_c1_relu
I0113 00:17:31.708295 10951 net.cpp:434] roi_c1_relu <- roi_c1
I0113 00:17:31.708302 10951 net.cpp:395] roi_c1_relu -> roi_c1 (in-place)
I0113 00:17:31.708469 10951 net.cpp:150] Setting up roi_c1_relu
I0113 00:17:31.708477 10951 net.cpp:157] Top shape: 64 512 5 3 (491520)
I0113 00:17:31.708479 10951 net.cpp:165] Memory required for data: 2627043068
I0113 00:17:31.708482 10951 layer_factory.hpp:77] Creating layer fc6
I0113 00:17:31.708488 10951 net.cpp:100] Creating Layer fc6
I0113 00:17:31.708492 10951 net.cpp:434] fc6 <- roi_c1
I0113 00:17:31.708497 10951 net.cpp:408] fc6 -> fc6
I0113 00:17:31.838582 10951 net.cpp:150] Setting up fc6
I0113 00:17:31.838609 10951 net.cpp:157] Top shape: 64 2048 (131072)
I0113 00:17:31.838611 10951 net.cpp:165] Memory required for data: 2627567356
I0113 00:17:31.838620 10951 layer_factory.hpp:77] Creating layer relu6
I0113 00:17:31.838629 10951 net.cpp:100] Creating Layer relu6
I0113 00:17:31.838632 10951 net.cpp:434] relu6 <- fc6
I0113 00:17:31.838639 10951 net.cpp:395] relu6 -> fc6 (in-place)
I0113 00:17:31.838863 10951 net.cpp:150] Setting up relu6
I0113 00:17:31.838871 10951 net.cpp:157] Top shape: 64 2048 (131072)
I0113 00:17:31.838873 10951 net.cpp:165] Memory required for data: 2628091644
I0113 00:17:31.838876 10951 layer_factory.hpp:77] Creating layer drop6
I0113 00:17:31.838881 10951 net.cpp:100] Creating Layer drop6
I0113 00:17:31.838883 10951 net.cpp:434] drop6 <- fc6
I0113 00:17:31.838888 10951 net.cpp:395] drop6 -> fc6 (in-place)
I0113 00:17:31.838918 10951 net.cpp:150] Setting up drop6
I0113 00:17:31.838923 10951 net.cpp:157] Top shape: 64 2048 (131072)
I0113 00:17:31.838925 10951 net.cpp:165] Memory required for data: 2628615932
I0113 00:17:31.838927 10951 layer_factory.hpp:77] Creating layer fc6_drop6_0_split
I0113 00:17:31.838933 10951 net.cpp:100] Creating Layer fc6_drop6_0_split
I0113 00:17:31.838935 10951 net.cpp:434] fc6_drop6_0_split <- fc6
I0113 00:17:31.838940 10951 net.cpp:408] fc6_drop6_0_split -> fc6_drop6_0_split_0
I0113 00:17:31.838946 10951 net.cpp:408] fc6_drop6_0_split -> fc6_drop6_0_split_1
I0113 00:17:31.838984 10951 net.cpp:150] Setting up fc6_drop6_0_split
I0113 00:17:31.838989 10951 net.cpp:157] Top shape: 64 2048 (131072)
I0113 00:17:31.838991 10951 net.cpp:157] Top shape: 64 2048 (131072)
I0113 00:17:31.838994 10951 net.cpp:165] Memory required for data: 2629664508
I0113 00:17:31.838995 10951 layer_factory.hpp:77] Creating layer cls_pred
I0113 00:17:31.839001 10951 net.cpp:100] Creating Layer cls_pred
I0113 00:17:31.839004 10951 net.cpp:434] cls_pred <- fc6_drop6_0_split_0
I0113 00:17:31.839010 10951 net.cpp:408] cls_pred -> cls_pred
I0113 00:17:31.839184 10951 net.cpp:150] Setting up cls_pred
I0113 00:17:31.839190 10951 net.cpp:157] Top shape: 64 3 (192)
I0113 00:17:31.839192 10951 net.cpp:165] Memory required for data: 2629665276
I0113 00:17:31.839196 10951 layer_factory.hpp:77] Creating layer cls_pred_cls_pred_0_split
I0113 00:17:31.839201 10951 net.cpp:100] Creating Layer cls_pred_cls_pred_0_split
I0113 00:17:31.839205 10951 net.cpp:434] cls_pred_cls_pred_0_split <- cls_pred
I0113 00:17:31.839207 10951 net.cpp:408] cls_pred_cls_pred_0_split -> cls_pred_cls_pred_0_split_0
I0113 00:17:31.839212 10951 net.cpp:408] cls_pred_cls_pred_0_split -> cls_pred_cls_pred_0_split_1
I0113 00:17:31.839275 10951 net.cpp:150] Setting up cls_pred_cls_pred_0_split
I0113 00:17:31.839282 10951 net.cpp:157] Top shape: 64 3 (192)
I0113 00:17:31.839284 10951 net.cpp:157] Top shape: 64 3 (192)
I0113 00:17:31.839287 10951 net.cpp:165] Memory required for data: 2629666812
I0113 00:17:31.839288 10951 layer_factory.hpp:77] Creating layer bbox_pred
I0113 00:17:31.839293 10951 net.cpp:100] Creating Layer bbox_pred
I0113 00:17:31.839295 10951 net.cpp:434] bbox_pred <- fc6_drop6_0_split_1
I0113 00:17:31.839300 10951 net.cpp:408] bbox_pred -> bbox_pred
I0113 00:17:31.839597 10951 net.cpp:150] Setting up bbox_pred
I0113 00:17:31.839603 10951 net.cpp:157] Top shape: 64 12 (768)
I0113 00:17:31.839606 10951 net.cpp:165] Memory required for data: 2629669884
I0113 00:17:31.839609 10951 layer_factory.hpp:77] Creating layer bbox_pred_bbox_pred_0_split
I0113 00:17:31.839613 10951 net.cpp:100] Creating Layer bbox_pred_bbox_pred_0_split
I0113 00:17:31.839615 10951 net.cpp:434] bbox_pred_bbox_pred_0_split <- bbox_pred
I0113 00:17:31.839622 10951 net.cpp:408] bbox_pred_bbox_pred_0_split -> bbox_pred_bbox_pred_0_split_0
I0113 00:17:31.839627 10951 net.cpp:408] bbox_pred_bbox_pred_0_split -> bbox_pred_bbox_pred_0_split_1
I0113 00:17:31.839661 10951 net.cpp:150] Setting up bbox_pred_bbox_pred_0_split
I0113 00:17:31.839666 10951 net.cpp:157] Top shape: 64 12 (768)
I0113 00:17:31.839669 10951 net.cpp:157] Top shape: 64 12 (768)
I0113 00:17:31.839670 10951 net.cpp:165] Memory required for data: 2629676028
I0113 00:17:31.839673 10951 layer_factory.hpp:77] Creating layer loss_cls
I0113 00:17:31.839679 10951 net.cpp:100] Creating Layer loss_cls
I0113 00:17:31.839682 10951 net.cpp:434] loss_cls <- cls_pred_cls_pred_0_split_0
I0113 00:17:31.839687 10951 net.cpp:434] loss_cls <- proposal_labels_proposal_info_1_split_0
…
