…
    downsample_rate: 32
    downsample_rate: 32
    downsample_rate: 64
    coord_num: 4
    field_h: 60
    field_h: 84
    field_h: 120
    field_h: 168
    field_h: 240
    field_h: 336
    field_h: 480
    field_w: 40
    field_w: 56
    field_w: 80
    field_w: 112
    field_w: 160
    field_w: 224
    field_w: 320
    fg_threshold: 0.5
    resize_width: 1920
    resize_height: 576
    crop_width: 768
    crop_height: 576
    do_multiple_scale: true
    min_scale: 50
    max_scale: 420
    min_gt_height: 35
    shuffle: true
    output_gt_boxes: true
  }
}
layer {
  name: "conv1_1"
  type: "Convolution"
  bottom: "data"
  top: "conv1_1"
  param {
    lr_mult: 0
    decay_mult: 0
  }
  param {
    lr_mult: 0
    decay_mult: 0
  }
  convolution_param {
    num_output: 64
    pad: 1
    kernel_size: 3
  }
}
layer {
  name: "relu1_1"
  type: "ReLU"
  bottom: "conv1_1"
  top: "conv1_1"
}
layer {
  name: "conv1_2"
  type: "Convolution"
  bottom: "conv1_1"
  top: "conv1_2"
  param {
    lr_mult: 0
    decay_mult: 0
  }
  param {
    lr_mult: 0
    decay_mult: 0
  }
  convolution_param {
    num_output: 64
    pad: 1
    kernel_size: 3
  }
}
layer {
  name: "relu1_2"
  type: "ReLU"
  bottom: "conv1_2"
  top: "conv1_2"
}
layer {
  name: "pool1"
  type: "Pooling"
  bottom: "conv1_2"
  top: "pool1"
  pooling_param {
    pool: MAX
    kernel_size: 2
    stride: 2
  }
}
layer {
  name: "conv2_1"
  type: "Convolution"
  bottom: "pool1"
  top: "conv2_1"
  param {
    lr_mult: 0
    decay_mult: 0
  }
  param {
    lr_mult: 0
    decay_mult: 0
  }
  convolution_param {
    num_output: 128
    pad: 1
    kernel_size: 3
  }
}
layer {
  name: "relu2_1"
  type: "ReLU"
  bottom: "conv2_1"
  top: "conv2_1"
}
layer {
  name: "conv2_2"
  type: "Convolution"
  bottom: "conv2_1"
  top: "conv2_2"
  param {
    lr_mult: 0
    decay_mult: 0
  }
  param {
    lr_mult: 0
    decay_mult: 0
  }
  convolution_param {
    num_output: 128
    pad: 1
    kernel_size: 3
  }
}
layer {
  name: "relu2_2"
  type: "ReLU"
  bottom: "conv2_2"
  top: "conv2_2"
}
layer {
  name: "pool2"
  type: "Pooling"
  bottom: "conv2_2"
  top: "pool2"
  pooling_param {
    pool: MAX
    kernel_size: 2
    stride: 2
  }
}
layer {
  name: "conv3_1"
  type: "Convolution"
  bottom: "pool2"
  top: "conv3_1"
  convolution_param {
    num_output: 256
    pad: 1
    kernel_size: 3
  }
}
layer {
  name: "relu3_1"
  type: "ReLU"
  bottom: "conv3_1"
  top: "conv3_1"
}
layer {
  name: "conv3_2"
  type: "Convolution"
  bottom: "conv3_1"
  top: "conv3_2"
  convolution_param {
    num_output: 256
    pad: 1
    kernel_size: 3
  }
}
layer {
  name: "relu3_2"
  type: "ReLU"
  bottom: "conv3_2"
  top: "conv3_2"
}
layer {
  name: "conv3_3"
  type: "Convolution"
  bottom: "conv3_2"
  top: "conv3_3"
  convolution_param {
    num_output: 256
    pad: 1
    kernel_size: 3
  }
}
layer {
  name: "relu3_3"
  type: "ReLU"
  bottom: "conv3_3"
  top: "conv3_3"
}
layer {
  name: "pool3"
  type: "Pooling"
  bottom: "conv3_3"
  top: "pool3"
  pooling_param {
    pool: MAX
    kernel_size: 2
    stride: 2
  }
}
layer {
  name: "conv4_1"
  type: "Convolution"
  bottom: "pool3"
  top: "conv4_1"
  convolution_param {
    num_output: 512
    pad: 1
    kernel_size: 3
  }
}
layer {
  name: "relu4_1"
  type: "ReLU"
  bottom: "conv4_1"
  top: "conv4_1"
}
layer {
  name: "conv4_2"
  type: "Convolution"
  bottom: "conv4_1"
  top: "conv4_2"
  convolution_param {
    num_output: 512
    pad: 1
    kernel_size: 3
  }
}
layer {
  name: "relu4_2"
  type: "ReLU"
  bottom: "conv4_2"
  top: "conv4_2"
}
layer {
  name: "conv4_3"
  type: "Convolution"
  bottom: "conv4_2"
  top: "conv4_3"
  convolution_param {
    num_output: 512
    pad: 1
    kernel_size: 3
  }
}
layer {
  name: "relu4_3"
  type: "ReLU"
  bottom: "conv4_3"
  top: "conv4_3"
}
layer {
  name: "loss1_conv1"
  type: "Convolution"
  bottom: "conv4_3"
  top: "loss1_conv1"
  param {
    lr_mult: 1
    decay_mult: 1
  }
  param {
    lr_mult: 2
    decay_mult: 0
  }
  convolution_param {
    num_output: 512
    pad: 1
    kernel_size: 3
    weight_filler {
      type: "gaussian"
      std: 0.01
    }
    bias_filler {
      type: "constant"
    }
  }
}
layer {
  name: "loss_relu1"
  type: "ReLU"
  bottom: "loss1_conv1"
  top: "loss1_conv1"
}
layer {
  name: "LFCN_1_3x5"
  type: "Convolution"
  bottom: "loss1_conv1"
  top: "LFCN_1_3x5"
  param {
    lr_mult: 1
    decay_mult: 1
  }
  param {
    lr_mult: 2
    decay_mult: 0
  }
  convolution_param {
    num_output: 7
    weight_filler {
      type: "gaussian"
      std: 0.001
    }
    bias_filler {
      type: "constant"
    }
    pad_h: 2
    pad_w: 1
    kernel_h: 5
    kernel_w: 3
  }
}
layer {
  name: "detection_loss_1_3x5"
  type: "DetectionLoss"
  bottom: "LFCN_1_3x5"
  bottom: "label_1_3x5"
  top: "loss_1_3x5"
  loss_weight: 0.5
  detection_loss_param {
    cls_num: 3
    coord_num: 4
    lambda: 1
    field_h: 60
    field_w: 40
    downsample_rate: 8
    bb_smooth: true
    field_whr: 2
    field_xyr: 2
    bg_threshold: 0.2
    bg_multiple: 2
    sample_mode: "bootstrap"
    pos_neg_weighted: true
  }
}
layer {
  name: "detection_accuracy_1_3x5"
  type: "DetectionAccuracy"
  bottom: "LFCN_1_3x5"
  bottom: "label_1_3x5"
  top: "accuracy_1_3x5"
  top: "boxiou_1_3x5"
  detection_accuracy_param {
    cls_num: 3
    coord_num: 4
    field_h: 60
    field_w: 40
    downsample_rate: 8
    field_whr: 2
    field_xyr: 2
  }
}
layer {
  name: "LFCN_1_5x7"
  type: "Convolution"
  bottom: "loss1_conv1"
  top: "LFCN_1_5x7"
  param {
    lr_mult: 1
    decay_mult: 1
  }
  param {
    lr_mult: 2
    decay_mult: 0
  }
  convolution_param {
    num_output: 7
    weight_filler {
      type: "gaussian"
      std: 0.001
    }
    bias_filler {
      type: "constant"
    }
    pad_h: 3
    pad_w: 2
    kernel_h: 7
    kernel_w: 5
  }
}
layer {
  name: "detection_loss_1_5x7"
  type: "DetectionLoss"
  bottom: "LFCN_1_5x7"
  bottom: "label_1_5x7"
  top: "loss_1_5x7"
  loss_weight: 0.9
  detection_loss_param {
    cls_num: 3
    coord_num: 4
    lambda: 1
    field_h: 84
    field_w: 56
    downsample_rate: 8
    bb_smooth: true
    field_whr: 2
    field_xyr: 2
    bg_threshold: 0.2
    bg_multiple: 2
    sample_mode: "bootstrap"
    pos_neg_weighted: true
  }
}
layer {
  name: "detection_accuracy_1_5x7"
  type: "DetectionAccuracy"
  bottom: "LFCN_1_5x7"
  bottom: "label_1_5x7"
  top: "accuracy_1_5x7"
  top: "boxiou_1_5x7"
  detection_accuracy_param {
    cls_num: 3
    coord_num: 4
    field_h: 84
    field_w: 56
    downsample_rate: 8
    field_whr: 2
    field_xyr: 2
  }
}
layer {
  name: "pool4"
  type: "Pooling"
  bottom: "conv4_3"
  top: "pool4"
  pooling_param {
    pool: MAX
    kernel_size: 2
    stride: 2
  }
}
layer {
  name: "conv5_1"
  type: "Convolution"
  bottom: "pool4"
  top: "conv5_1"
  convolution_param {
    num_output: 512
    pad: 1
    kernel_size: 3
  }
}
layer {
  name: "relu5_1"
  type: "ReLU"
  bottom: "conv5_1"
  top: "conv5_1"
}
layer {
  name: "conv5_2"
  type: "Convolution"
  bottom: "conv5_1"
  top: "conv5_2"
  convolution_param {
    num_output: 512
    pad: 1
    kernel_size: 3
  }
}
layer {
  name: "relu5_2"
  type: "ReLU"
  bottom: "conv5_2"
  top: "conv5_2"
}
layer {
  name: "conv5_3"
  type: "Convolution"
  bottom: "conv5_2"
  top: "conv5_3"
  convolution_param {
    num_output: 512
    pad: 1
    kernel_size: 3
  }
}
layer {
  name: "relu5_3"
  type: "ReLU"
  bottom: "conv5_3"
  top: "conv5_3"
}
layer {
  name: "LFCN_2_3x5"
  type: "Convolution"
  bottom: "conv5_3"
  top: "LFCN_2_3x5"
  param {
    lr_mult: 1
    decay_mult: 1
  }
  param {
    lr_mult: 2
    decay_mult: 0
  }
  convolution_param {
    num_output: 7
    weight_filler {
      type: "gaussian"
      std: 0.001
    }
    bias_filler {
      type: "constant"
    }
    pad_h: 2
    pad_w: 1
    kernel_h: 5
    kernel_w: 3
  }
}
layer {
  name: "detection_loss_2_3x5"
  type: "DetectionLoss"
  bottom: "LFCN_2_3x5"
  bottom: "label_2_3x5"
  top: "loss_2_3x5"
  detection_loss_param {
    cls_num: 3
    coord_num: 4
    lambda: 1
    field_h: 120
    field_w: 80
    downsample_rate: 16
    bb_smooth: true
    field_whr: 2
    field_xyr: 2
    bg_threshold: 0.2
    bg_multiple: 2
    sample_mode: "bootstrap"
    pos_neg_weighted: true
  }
}
layer {
  name: "detection_accuracy_2_3x5"
  type: "DetectionAccuracy"
  bottom: "LFCN_2_3x5"
  bottom: "label_2_3x5"
  top: "accuracy_2_3x5"
  top: "boxiou_2_3x5"
  detection_accuracy_param {
    cls_num: 3
    coord_num: 4
    field_h: 120
    field_w: 80
    downsample_rate: 16
    field_whr: 2
    field_xyr: 2
  }
}
layer {
  name: "LFCN_2_5x7"
  type: "Convolution"
  bottom: "conv5_3"
  top: "LFCN_2_5x7"
  param {
    lr_mult: 1
    decay_mult: 1
  }
  param {
    lr_mult: 2
    decay_mult: 0
  }
  convolution_param {
    num_output: 7
    weight_filler {
      type: "gaussian"
      std: 0.001
    }
    bias_filler {
      type: "constant"
    }
    pad_h: 3
    pad_w: 2
    kernel_h: 7
    kernel_w: 5
  }
}
layer {
  name: "detection_loss_2_5x7"
  type: "DetectionLoss"
  bottom: "LFCN_2_5x7"
  bottom: "label_2_5x7"
  top: "loss_2_5x7"
  detection_loss_param {
    cls_num: 3
    coord_num: 4
    lambda: 1
    field_h: 168
    field_w: 112
    downsample_rate: 16
    bb_smooth: true
    field_whr: 2
    field_xyr: 2
    bg_threshold: 0.2
    bg_multiple: 2
    sample_mode: "bootstrap"
    pos_neg_weighted: true
  }
}
layer {
  name: "detection_accuracy_2_5x7"
  type: "DetectionAccuracy"
  bottom: "LFCN_2_5x7"
  bottom: "label_2_5x7"
  top: "accuracy_2_5x7"
  top: "boxiou_2_5x7"
  detection_accuracy_param {
    cls_num: 3
    coord_num: 4
    field_h: 168
    field_w: 112
    downsample_rate: 16
    field_whr: 2
    field_xyr: 2
  }
}
layer {
  name: "pool5"
  type: "Pooling"
  bottom: "conv5_3"
  top: "pool5"
  pooling_param {
    pool: MAX
    kernel_size: 2
    stride: 2
  }
}
layer {
  name: "conv6_1"
  type: "Convolution"
  bottom: "pool5"
  top: "conv6_1"
  param {
    lr_mult: 1
    decay_mult: 1
  }
  param {
    lr_mult: 2
    decay_mult: 0
  }
  convolution_param {
    num_output: 512
    pad: 1
    kernel_size: 3
    weight_filler {
      type: "gaussian"
      std: 0.01
    }
    bias_filler {
      type: "constant"
    }
  }
}
layer {
  name: "relu6_1"
  type: "ReLU"
  bottom: "conv6_1"
  top: "conv6_1"
}
layer {
  name: "LFCN_3_3x5"
  type: "Convolution"
  bottom: "conv6_1"
  top: "LFCN_3_3x5"
  param {
    lr_mult: 1
    decay_mult: 1
  }
  param {
    lr_mult: 2
    decay_mult: 0
  }
  convolution_param {
    num_output: 7
    weight_filler {
      type: "gaussian"
      std: 0.001
    }
    bias_filler {
      type: "constant"
    }
    pad_h: 2
    pad_w: 1
    kernel_h: 5
    kernel_w: 3
  }
}
layer {
  name: "detection_loss_3_3x5"
  type: "DetectionLoss"
  bottom: "LFCN_3_3x5"
  bottom: "label_3_3x5"
  top: "loss_3_3x5"
  detection_loss_param {
    cls_num: 3
    coord_num: 4
    lambda: 1
    field_h: 240
    field_w: 160
    downsample_rate: 32
    bb_smooth: true
    field_whr: 2
    field_xyr: 2
    bg_threshold: 0.2
    bg_multiple: 2
    sample_mode: "bootstrap"
    pos_neg_weighted: true
  }
}
layer {
  name: "detection_accuracy_3_3x5"
  type: "DetectionAccuracy"
  bottom: "LFCN_3_3x5"
  bottom: "label_3_3x5"
  top: "accuracy_3_3x5"
  top: "boxiou_3_3x5"
  detection_accuracy_param {
    cls_num: 3
    coord_num: 4
    field_h: 240
    field_w: 160
    downsample_rate: 32
    field_whr: 2
    field_xyr: 2
  }
}
layer {
  name: "LFCN_3_5x7"
  type: "Convolution"
  bottom: "conv6_1"
  top: "LFCN_3_5x7"
  param {
    lr_mult: 1
    decay_mult: 1
  }
  param {
    lr_mult: 2
    decay_mult: 0
  }
  convolution_param {
    num_output: 7
    weight_filler {
      type: "gaussian"
      std: 0.001
    }
    bias_filler {
      type: "constant"
    }
    pad_h: 3
    pad_w: 2
    kernel_h: 7
    kernel_w: 5
  }
}
layer {
  name: "detection_loss_3_5x7"
  type: "DetectionLoss"
  bottom: "LFCN_3_5x7"
  bottom: "label_3_5x7"
  top: "loss_3_5x7"
  detection_loss_param {
    cls_num: 3
    coord_num: 4
    lambda: 1
    field_h: 336
    field_w: 224
    downsample_rate: 32
    bb_smooth: true
    field_whr: 2
    field_xyr: 2
    bg_threshold: 0.2
    bg_multiple: 2
    sample_mode: "bootstrap"
    pos_neg_weighted: true
  }
}
layer {
  name: "detection_accuracy_3_5x7"
  type: "DetectionAccuracy"
  bottom: "LFCN_3_5x7"
  bottom: "label_3_5x7"
  top: "accuracy_3_5x7"
  top: "boxiou_3_5x7"
  detection_accuracy_param {
    cls_num: 3
    coord_num: 4
    field_h: 336
    field_w: 224
    downsample_rate: 32
    field_whr: 2
    field_xyr: 2
  }
}
layer {
  name: "pool6"
  type: "Pooling"
  bottom: "conv6_1"
  top: "pool6"
  pooling_param {
    pool: MAX
    kernel_size: 2
    stride: 2
  }
}
layer {
  name: "LFCN_4_3x5"
  type: "Convolution"
  bottom: "pool6"
  top: "LFCN_4_3x5"
  param {
    lr_mult: 1
    decay_mult: 1
  }
  param {
    lr_mult: 2
    decay_mult: 0
  }
  convolution_param {
    num_output: 7
    weight_filler {
      type: "gaussian"
      std: 0.001
    }
    bias_filler {
      type: "constant"
    }
    pad_h: 2
    pad_w: 1
    kernel_h: 5
    kernel_w: 3
  }
}
layer {
  name: "detection_loss_4_3x5"
  type: "DetectionLoss"
  bottom: "LFCN_4_3x5"
  bottom: "label_4_3x5"
  top: "loss_4_3x5"
  detection_loss_param {
    cls_num: 3
    coord_num: 4
    lambda: 1
    field_h: 480
    field_w: 320
    downsample_rate: 64
    bb_smooth: true
    field_whr: 2
    field_xyr: 2
    bg_threshold: 0.2
    bg_multiple: 2
    sample_mode: "bootstrap"
    pos_neg_weighted: true
  }
}
layer {
  name: "detection_accuracy_4_3x5"
  type: "DetectionAccuracy"
  bottom: "LFCN_4_3x5"
  bottom: "label_4_3x5"
  top: "accuracy_4_3x5"
  top: "boxiou_4_3x5"
  detection_accuracy_param {
    cls_num: 3
    coord_num: 4
    field_h: 480
    field_w: 320
    downsample_rate: 64
    field_whr: 2
    field_xyr: 2
  }
}
layer {
  name: "proposals"
  type: "BoxOutput"
  bottom: "LFCN_1_3x5"
  bottom: "LFCN_1_5x7"
  bottom: "LFCN_2_3x5"
  bottom: "LFCN_2_5x7"
  bottom: "LFCN_3_3x5"
  bottom: "LFCN_3_5x7"
  bottom: "LFCN_4_3x5"
  top: "proposals"
  propagate_down: false
  propagate_down: false
  propagate_down: false
  propagate_down: false
  propagate_down: false
  propagate_down: false
  propagate_down: false
  box_output_param {
    fg_thr: -15
    iou_thr: 0.65
    nms_type: "IOU"
    field_h: 60
    field_h: 84
    field_h: 120
    field_h: 168
    field_h: 240
    field_h: 336
    field_h: 480
    field_w: 40
    field_w: 56
    field_w: 80
    field_w: 112
    field_w: 160
    field_w: 224
    field_w: 320
    downsample_rate: 8
    downsample_rate: 8
    downsample_rate: 16
    downsample_rate: 16
    downsample_rate: 32
    downsample_rate: 32
    downsample_rate: 64
    field_whr: 2
    field_xyr: 2
    max_nms_num: 3000
  }
}
layer {
  name: "proposal_info"
  type: "ProposalTarget"
  bottom: "proposals"
  bottom: "gt_boxes"
  top: "rois"
  top: "proposal_labels"
  top: "proposal_targets"
  top: "box_inside_weights"
  top: "box_outside_weights"
  top: "match_gt_boxes"
  include {
    phase: TRAIN
  }
  propagate_down: false
  propagate_down: false
  proposal_target_param {
    cls_num: 3
    batch_size: 128
    fg_fraction: 0.25
    num_img_per_batch: 4
    fg_thr: 0.5
    bg_thr_hg: 0.45
    bg_thr_lw: 0.05
    img_width: 768
    img_height: 576
  }
  bbox_reg_param {
    bbox_mean: 0
    bbox_mean: 0
    bbox_mean: 0
    bbox_mean: 0
    bbox_std: 0.1
    bbox_std: 0.1
    bbox_std: 0.2
    bbox_std: 0.2
  }
}
layer {
  name: "conv4_3_2x"
  type: "Deconvolution"
  bottom: "conv4_3"
  top: "conv4_3_2x"
  param {
    lr_mult: 0
    decay_mult: 0
  }
  convolution_param {
    num_output: 512
    bias_term: false
    pad: 1
    kernel_size: 4
    group: 512
    stride: 2
    weight_filler {
      type: "bilinear"
    }
  }
}
layer {
  name: "roi_pool_org"
  type: "ROIPooling"
  bottom: "conv4_3_2x"
  bottom: "rois"
  top: "roi_pool_org"
  roi_pooling_param {
    pooled_h: 7
    pooled_w: 5
    spatial_scale: 0.25
    pad_ratio: 0
  }
}
layer {
  name: "roi_pool_ctx"
  type: "ROIPooling"
  bottom: "conv4_3_2x"
  bottom: "rois"
  top: "roi_pool_ctx"
  roi_pooling_param {
    pooled_h: 7
    pooled_w: 5
    spatial_scale: 0.25
    pad_ratio: 0.25
  }
}
layer {
  name: "roi_pool"
  type: "Concat"
  bottom: "roi_pool_org"
  bottom: "roi_pool_ctx"
  top: "roi_pool"
}
layer {
  name: "roi_c1"
  type: "Convolution"
  bottom: "roi_pool"
  top: "roi_c1"
  param {
    lr_mult: 1
    decay_mult: 1
  }
  param {
    lr_mult: 2
    decay_mult: 0
  }
  convolution_param {
    num_output: 512
    kernel_size: 3
    weight_filler {
      type: "gaussian"
      std: 0.01
    }
    bias_filler {
      type: "constant"
    }
  }
}
layer {
  name: "roi_c1_relu"
  type: "ReLU"
  bottom: "roi_c1"
  top: "roi_c1"
}
layer {
  name: "fc6"
  type: "InnerProduct"
  bottom: "roi_c1"
  top: "fc6"
  param {
    lr_mult: 1
  }
  param {
    lr_mult: 2
  }
  inner_product_param {
    num_output: 2048
    weight_filler {
      type: "gaussian"
      std: 0.001
    }
    bias_filler {
      type: "constant"
      value: 0
    }
  }
}
layer {
  name: "relu6"
  type: "ReLU"
  bottom: "fc6"
  top: "fc6"
}
layer {
  name: "drop6"
  type: "Dropout"
  bottom: "fc6"
  top: "fc6"
  dropout_param {
    dropout_ratio: 0.5
  }
}
layer {
  name: "cls_pred"
  type: "InnerProduct"
  bottom: "fc6"
  top: "cls_pred"
  param {
    lr_mult: 1
  }
  param {
    lr_mult: 2
  }
  inner_product_param {
    num_output: 3
    weight_filler {
      type: "gaussian"
      std: 0.01
    }
    bias_filler {
      type: "constant"
      value: 0
    }
  }
}
layer {
  name: "bbox_pred"
  type: "InnerProduct"
  bottom: "fc6"
  top: "bbox_pred"
  param {
    lr_mult: 1
  }
  param {
    lr_mult: 2
  }
  inner_product_param {
    num_output: 12
    weight_filler {
      type: "gaussian"
      std: 0.001
    }
    bias_filler {
      type: "constant"
      value: 0
    }
  }
}
layer {
  name: "loss_cls"
  type: "SoftmaxWithLoss"
  bottom: "cls_pred"
  bottom: "proposal_labels"
  top: "loss_cls"
  loss_weight: 1
  propagate_down: true
  propagate_down: false
}
layer {
  name: "cls_accuracy"
  type: "Accuracy"
  bottom: "cls_pred"
  bottom: "proposal_labels"
  top: "cls_accuracy"
}
layer {
  name: "loss_bbox"
  type: "SmoothL1Loss"
  bottom: "bbox_pred"
  bottom: "proposal_targets"
  bottom: "box_inside_weights"
  bottom: "box_outside_weights"
  top: "loss_bbox"
  loss_weight: 1
}
layer {
  name: "bbox_iou"
  type: "BboxAccuracy"
  bottom: "bbox_pred"
  bottom: "rois"
  bottom: "match_gt_boxes"
  top: "bbox_iou"
  top: "bbox_iou_pre"
  bbox_reg_param {
    bbox_mean: 0
    bbox_mean: 0
    bbox_mean: 0
    bbox_mean: 0
    bbox_std: 0.1
    bbox_std: 0.1
    bbox_std: 0.2
    bbox_std: 0.2
  }
}
I0123 22:58:21.021441 10628 layer_factory.hpp:77] Creating layer data
I0123 22:58:21.021487 10628 net.cpp:100] Creating Layer data
I0123 22:58:21.021499 10628 net.cpp:408] data -> data
…
I0123 22:58:21.278209 10628 image_gt_data_layer.cpp:235] output label size 2 : 2,6,36,48
I0123 22:58:21.278241 10628 image_gt_data_layer.cpp:235] output label size 3 : 2,6,36,48
I0123 22:58:21.278282 10628 image_gt_data_layer.cpp:235] output label size 4 : 2,6,18,24
I0123 22:58:21.278326 10628 image_gt_data_layer.cpp:235] output label size 5 : 2,6,18,24
I0123 22:58:21.278358 10628 image_gt_data_layer.cpp:235] output label size 6 : 2,6,9,12
I0123 22:58:21.278389 10628 image_gt_data_layer.cpp:250] output gt boxes size: 1,7,1,1
I0123 22:58:21.310561 10628 net.cpp:150] Setting up data
I0123 22:58:21.310595 10628 net.cpp:157] Top shape: 2 3 576 768 (2654208)
I0123 22:58:21.310602 10628 net.cpp:157] Top shape: 2 6 72 96 (82944)
I0123 22:58:21.310607 10628 net.cpp:157] Top shape: 2 6 72 96 (82944)
I0123 22:58:21.310611 10628 net.cpp:157] Top shape: 2 6 36 48 (20736)
I0123 22:58:21.310617 10628 net.cpp:157] Top shape: 2 6 36 48 (20736)
I0123 22:58:21.310622 10628 net.cpp:157] Top shape: 2 6 18 24 (5184)
I0123 22:58:21.310627 10628 net.cpp:157] Top shape: 2 6 18 24 (5184)
I0123 22:58:21.310631 10628 net.cpp:157] Top shape: 2 6 9 12 (1296)
I0123 22:58:21.310652 10628 net.cpp:157] Top shape: 1 7 1 1 (7)
I0123 22:58:21.310662 10628 net.cpp:165] Memory required for data: 11492956
I0123 22:58:21.310672 10628 layer_factory.hpp:77] Creating layer label_1_3x5_data_1_split
I0123 22:58:21.310690 10628 net.cpp:100] Creating Layer label_1_3x5_data_1_split
I0123 22:58:21.310699 10628 net.cpp:434] label_1_3x5_data_1_split <- label_1_3x5
I0123 22:58:21.310721 10628 net.cpp:408] label_1_3x5_data_1_split -> label_1_3x5_data_1_split_0
I0123 22:58:21.310734 10628 net.cpp:408] label_1_3x5_data_1_split -> label_1_3x5_data_1_split_1
I0123 22:58:21.310807 10628 net.cpp:150] Setting up label_1_3x5_data_1_split
I0123 22:58:21.310817 10628 net.cpp:157] Top shape: 2 6 72 96 (82944)
I0123 22:58:21.310822 10628 net.cpp:157] Top shape: 2 6 72 96 (82944)
I0123 22:58:21.310825 10628 net.cpp:165] Memory required for data: 12156508
I0123 22:58:21.310829 10628 layer_factory.hpp:77] Creating layer label_1_5x7_data_2_split
I0123 22:58:21.310837 10628 net.cpp:100] Creating Layer label_1_5x7_data_2_split
I0123 22:58:21.310842 10628 net.cpp:434] label_1_5x7_data_2_split <- label_1_5x7
I0123 22:58:21.310848 10628 net.cpp:408] label_1_5x7_data_2_split -> label_1_5x7_data_2_split_0
I0123 22:58:21.310856 10628 net.cpp:408] label_1_5x7_data_2_split -> label_1_5x7_data_2_split_1
I0123 22:58:21.310885 10628 net.cpp:150] Setting up label_1_5x7_data_2_split
I0123 22:58:21.310892 10628 net.cpp:157] Top shape: 2 6 72 96 (82944)
I0123 22:58:21.310897 10628 net.cpp:157] Top shape: 2 6 72 96 (82944)
I0123 22:58:21.310901 10628 net.cpp:165] Memory required for data: 12820060
I0123 22:58:21.310905 10628 layer_factory.hpp:77] Creating layer label_2_3x5_data_3_split
I0123 22:58:21.310911 10628 net.cpp:100] Creating Layer label_2_3x5_data_3_split
I0123 22:58:21.310915 10628 net.cpp:434] label_2_3x5_data_3_split <- label_2_3x5
I0123 22:58:21.310921 10628 net.cpp:408] label_2_3x5_data_3_split -> label_2_3x5_data_3_split_0
I0123 22:58:21.310930 10628 net.cpp:408] label_2_3x5_data_3_split -> label_2_3x5_data_3_split_1
I0123 22:58:21.310957 10628 net.cpp:150] Setting up label_2_3x5_data_3_split
I0123 22:58:21.310964 10628 net.cpp:157] Top shape: 2 6 36 48 (20736)
I0123 22:58:21.310969 10628 net.cpp:157] Top shape: 2 6 36 48 (20736)
I0123 22:58:21.310974 10628 net.cpp:165] Memory required for data: 12985948
I0123 22:58:21.310977 10628 layer_factory.hpp:77] Creating layer label_2_5x7_data_4_split
I0123 22:58:21.310986 10628 net.cpp:100] Creating Layer label_2_5x7_data_4_split
I0123 22:58:21.310989 10628 net.cpp:434] label_2_5x7_data_4_split <- label_2_5x7
I0123 22:58:21.310995 10628 net.cpp:408] label_2_5x7_data_4_split -> label_2_5x7_data_4_split_0
I0123 22:58:21.311003 10628 net.cpp:408] label_2_5x7_data_4_split -> label_2_5x7_data_4_split_1
I0123 22:58:21.311033 10628 net.cpp:150] Setting up label_2_5x7_data_4_split
I0123 22:58:21.311039 10628 net.cpp:157] Top shape: 2 6 36 48 (20736)
I0123 22:58:21.311045 10628 net.cpp:157] Top shape: 2 6 36 48 (20736)
I0123 22:58:21.311049 10628 net.cpp:165] Memory required for data: 13151836
I0123 22:58:21.311054 10628 layer_factory.hpp:77] Creating layer label_3_3x5_data_5_split
I0123 22:58:21.311062 10628 net.cpp:100] Creating Layer label_3_3x5_data_5_split
I0123 22:58:21.311066 10628 net.cpp:434] label_3_3x5_data_5_split <- label_3_3x5
I0123 22:58:21.311074 10628 net.cpp:408] label_3_3x5_data_5_split -> label_3_3x5_data_5_split_0
I0123 22:58:21.311081 10628 net.cpp:408] label_3_3x5_data_5_split -> label_3_3x5_data_5_split_1
I0123 22:58:21.311107 10628 net.cpp:150] Setting up label_3_3x5_data_5_split
I0123 22:58:21.311115 10628 net.cpp:157] Top shape: 2 6 18 24 (5184)
I0123 22:58:21.311118 10628 net.cpp:157] Top shape: 2 6 18 24 (5184)
I0123 22:58:21.311122 10628 net.cpp:165] Memory required for data: 13193308
I0123 22:58:21.311125 10628 layer_factory.hpp:77] Creating layer label_3_5x7_data_6_split
I0123 22:58:21.311132 10628 net.cpp:100] Creating Layer label_3_5x7_data_6_split
I0123 22:58:21.311137 10628 net.cpp:434] label_3_5x7_data_6_split <- label_3_5x7
I0123 22:58:21.311143 10628 net.cpp:408] label_3_5x7_data_6_split -> label_3_5x7_data_6_split_0
I0123 22:58:21.311151 10628 net.cpp:408] label_3_5x7_data_6_split -> label_3_5x7_data_6_split_1
I0123 22:58:21.311177 10628 net.cpp:150] Setting up label_3_5x7_data_6_split
I0123 22:58:21.311184 10628 net.cpp:157] Top shape: 2 6 18 24 (5184)
I0123 22:58:21.311188 10628 net.cpp:157] Top shape: 2 6 18 24 (5184)
I0123 22:58:21.311193 10628 net.cpp:165] Memory required for data: 13234780
I0123 22:58:21.311197 10628 layer_factory.hpp:77] Creating layer label_4_3x5_data_7_split
I0123 22:58:21.311203 10628 net.cpp:100] Creating Layer label_4_3x5_data_7_split
I0123 22:58:21.311208 10628 net.cpp:434] label_4_3x5_data_7_split <- label_4_3x5
I0123 22:58:21.311213 10628 net.cpp:408] label_4_3x5_data_7_split -> label_4_3x5_data_7_split_0
I0123 22:58:21.311223 10628 net.cpp:408] label_4_3x5_data_7_split -> label_4_3x5_data_7_split_1
I0123 22:58:21.311249 10628 net.cpp:150] Setting up label_4_3x5_data_7_split
I0123 22:58:21.311254 10628 net.cpp:157] Top shape: 2 6 9 12 (1296)
I0123 22:58:21.311259 10628 net.cpp:157] Top shape: 2 6 9 12 (1296)
I0123 22:58:21.311264 10628 net.cpp:165] Memory required for data: 13245148
I0123 22:58:21.311267 10628 layer_factory.hpp:77] Creating layer conv1_1
I0123 22:58:21.311285 10628 net.cpp:100] Creating Layer conv1_1
I0123 22:58:21.311288 10628 net.cpp:434] conv1_1 <- data
I0123 22:58:21.311295 10628 net.cpp:408] conv1_1 -> conv1_1
I0123 22:58:21.682893 10628 net.cpp:150] Setting up conv1_1
I0123 22:58:21.682921 10628 net.cpp:157] Top shape: 2 64 576 768 (56623104)
I0123 22:58:21.682926 10628 net.cpp:165] Memory required for data: 239737564
I0123 22:58:21.682952 10628 layer_factory.hpp:77] Creating layer relu1_1
I0123 22:58:21.682966 10628 net.cpp:100] Creating Layer relu1_1
I0123 22:58:21.682971 10628 net.cpp:434] relu1_1 <- conv1_1
I0123 22:58:21.682981 10628 net.cpp:395] relu1_1 -> conv1_1 (in-place)
I0123 22:58:21.683132 10628 net.cpp:150] Setting up relu1_1
I0123 22:58:21.683142 10628 net.cpp:157] Top shape: 2 64 576 768 (56623104)
I0123 22:58:21.683145 10628 net.cpp:165] Memory required for data: 466229980
I0123 22:58:21.683149 10628 layer_factory.hpp:77] Creating layer conv1_2
I0123 22:58:21.683162 10628 net.cpp:100] Creating Layer conv1_2
I0123 22:58:21.683167 10628 net.cpp:434] conv1_2 <- conv1_1
I0123 22:58:21.683174 10628 net.cpp:408] conv1_2 -> conv1_2
I0123 22:58:21.689071 10628 net.cpp:150] Setting up conv1_2
I0123 22:58:21.689086 10628 net.cpp:157] Top shape: 2 64 576 768 (56623104)
I0123 22:58:21.689090 10628 net.cpp:165] Memory required for data: 692722396
I0123 22:58:21.689102 10628 layer_factory.hpp:77] Creating layer relu1_2
I0123 22:58:21.689110 10628 net.cpp:100] Creating Layer relu1_2
I0123 22:58:21.689116 10628 net.cpp:434] relu1_2 <- conv1_2
I0123 22:58:21.689122 10628 net.cpp:395] relu1_2 -> conv1_2 (in-place)
I0123 22:58:21.689762 10628 net.cpp:150] Setting up relu1_2
I0123 22:58:21.689772 10628 net.cpp:157] Top shape: 2 64 576 768 (56623104)
I0123 22:58:21.689776 10628 net.cpp:165] Memory required for data: 919214812
I0123 22:58:21.689780 10628 layer_factory.hpp:77] Creating layer pool1
I0123 22:58:21.689790 10628 net.cpp:100] Creating Layer pool1
I0123 22:58:21.689795 10628 net.cpp:434] pool1 <- conv1_2
I0123 22:58:21.689801 10628 net.cpp:408] pool1 -> pool1
I0123 22:58:21.689848 10628 net.cpp:150] Setting up pool1
I0123 22:58:21.689855 10628 net.cpp:157] Top shape: 2 64 288 384 (14155776)
I0123 22:58:21.689858 10628 net.cpp:165] Memory required for data: 975837916
I0123 22:58:21.689862 10628 layer_factory.hpp:77] Creating layer conv2_1
I0123 22:58:21.689872 10628 net.cpp:100] Creating Layer conv2_1
I0123 22:58:21.689877 10628 net.cpp:434] conv2_1 <- pool1
I0123 22:58:21.689883 10628 net.cpp:408] conv2_1 -> conv2_1
I0123 22:58:21.697782 10628 net.cpp:150] Setting up conv2_1
I0123 22:58:21.697798 10628 net.cpp:157] Top shape: 2 128 288 384 (28311552)
I0123 22:58:21.697801 10628 net.cpp:165] Memory required for data: 1089084124
I0123 22:58:21.697813 10628 layer_factory.hpp:77] Creating layer relu2_1
I0123 22:58:21.697823 10628 net.cpp:100] Creating Layer relu2_1
I0123 22:58:21.697829 10628 net.cpp:434] relu2_1 <- conv2_1
I0123 22:58:21.697834 10628 net.cpp:395] relu2_1 -> conv2_1 (in-place)
I0123 22:58:21.697984 10628 net.cpp:150] Setting up relu2_1
I0123 22:58:21.697993 10628 net.cpp:157] Top shape: 2 128 288 384 (28311552)
I0123 22:58:21.697996 10628 net.cpp:165] Memory required for data: 1202330332
I0123 22:58:21.697999 10628 layer_factory.hpp:77] Creating layer conv2_2
I0123 22:58:21.698005 10628 net.cpp:100] Creating Layer conv2_2
I0123 22:58:21.698009 10628 net.cpp:434] conv2_2 <- conv2_1
I0123 22:58:21.698014 10628 net.cpp:408] conv2_2 -> conv2_2
I0123 22:58:21.704795 10628 net.cpp:150] Setting up conv2_2
I0123 22:58:21.704808 10628 net.cpp:157] Top shape: 2 128 288 384 (28311552)
I0123 22:58:21.704812 10628 net.cpp:165] Memory required for data: 1315576540
I0123 22:58:21.704816 10628 layer_factory.hpp:77] Creating layer relu2_2
I0123 22:58:21.704828 10628 net.cpp:100] Creating Layer relu2_2
I0123 22:58:21.704831 10628 net.cpp:434] relu2_2 <- conv2_2
I0123 22:58:21.704835 10628 net.cpp:395] relu2_2 -> conv2_2 (in-place)
I0123 22:58:21.705917 10628 net.cpp:150] Setting up relu2_2
I0123 22:58:21.705927 10628 net.cpp:157] Top shape: 2 128 288 384 (28311552)
I0123 22:58:21.705930 10628 net.cpp:165] Memory required for data: 1428822748
I0123 22:58:21.705932 10628 layer_factory.hpp:77] Creating layer pool2
I0123 22:58:21.705938 10628 net.cpp:100] Creating Layer pool2
I0123 22:58:21.705942 10628 net.cpp:434] pool2 <- conv2_2
I0123 22:58:21.705946 10628 net.cpp:408] pool2 -> pool2
I0123 22:58:21.705983 10628 net.cpp:150] Setting up pool2
I0123 22:58:21.705988 10628 net.cpp:157] Top shape: 2 128 144 192 (7077888)
I0123 22:58:21.705991 10628 net.cpp:165] Memory required for data: 1457134300
I0123 22:58:21.705992 10628 layer_factory.hpp:77] Creating layer conv3_1
I0123 22:58:21.706001 10628 net.cpp:100] Creating Layer conv3_1
I0123 22:58:21.706002 10628 net.cpp:434] conv3_1 <- pool2
I0123 22:58:21.706007 10628 net.cpp:408] conv3_1 -> conv3_1
I0123 22:58:21.712472 10628 net.cpp:150] Setting up conv3_1
I0123 22:58:21.712484 10628 net.cpp:157] Top shape: 2 256 144 192 (14155776)
I0123 22:58:21.712488 10628 net.cpp:165] Memory required for data: 1513757404
I0123 22:58:21.712497 10628 layer_factory.hpp:77] Creating layer relu3_1
I0123 22:58:21.712504 10628 net.cpp:100] Creating Layer relu3_1
I0123 22:58:21.712508 10628 net.cpp:434] relu3_1 <- conv3_1
I0123 22:58:21.712513 10628 net.cpp:395] relu3_1 -> conv3_1 (in-place)
F0123 22:58:21.714004 10628 cudnn_relu_layer.cpp:13] Check failed: status == CUDNN_STATUS_SUCCESS (4 vs. 0)  CUDNN_STATUS_INTERNAL_ERROR
…
