…
    downsample_rate: 32
    downsample_rate: 32
    downsample_rate: 64
    coord_num: 4
    field_h: 60
    field_h: 84
    field_h: 120
    field_h: 168
    field_h: 240
    field_h: 336
    field_h: 480
    field_w: 40
    field_w: 56
    field_w: 80
    field_w: 112
    field_w: 160
    field_w: 224
    field_w: 320
    fg_threshold: 0.5
    resize_width: 1920
    resize_height: 576
    crop_width: 768
    crop_height: 576
    do_multiple_scale: true
    min_scale: 50
    max_scale: 420
    min_gt_height: 35
    shuffle: true
    output_gt_boxes: true
  }
}
layer {
  name: "conv1_1"
  type: "Convolution"
  bottom: "data"
  top: "conv1_1"
  param {
    lr_mult: 0
    decay_mult: 0
  }
  param {
    lr_mult: 0
    decay_mult: 0
  }
  convolution_param {
    num_output: 64
    pad: 1
    kernel_size: 3
  }
}
layer {
  name: "relu1_1"
  type: "ReLU"
  bottom: "conv1_1"
  top: "conv1_1"
}
layer {
  name: "conv1_2"
  type: "Convolution"
  bottom: "conv1_1"
  top: "conv1_2"
  param {
    lr_mult: 0
    decay_mult: 0
  }
  param {
    lr_mult: 0
    decay_mult: 0
  }
  convolution_param {
    num_output: 64
    pad: 1
    kernel_size: 3
  }
}
layer {
  name: "relu1_2"
  type: "ReLU"
  bottom: "conv1_2"
  top: "conv1_2"
}
layer {
  name: "pool1"
  type: "Pooling"
  bottom: "conv1_2"
  top: "pool1"
  pooling_param {
    pool: MAX
    kernel_size: 2
    stride: 2
  }
}
layer {
  name: "conv2_1"
  type: "Convolution"
  bottom: "pool1"
  top: "conv2_1"
  param {
    lr_mult: 0
    decay_mult: 0
  }
  param {
    lr_mult: 0
    decay_mult: 0
  }
  convolution_param {
    num_output: 128
    pad: 1
    kernel_size: 3
  }
}
layer {
  name: "relu2_1"
  type: "ReLU"
  bottom: "conv2_1"
  top: "conv2_1"
}
layer {
  name: "conv2_2"
  type: "Convolution"
  bottom: "conv2_1"
  top: "conv2_2"
  param {
    lr_mult: 0
    decay_mult: 0
  }
  param {
    lr_mult: 0
    decay_mult: 0
  }
  convolution_param {
    num_output: 128
    pad: 1
    kernel_size: 3
  }
}
layer {
  name: "relu2_2"
  type: "ReLU"
  bottom: "conv2_2"
  top: "conv2_2"
}
layer {
  name: "pool2"
  type: "Pooling"
  bottom: "conv2_2"
  top: "pool2"
  pooling_param {
    pool: MAX
    kernel_size: 2
    stride: 2
  }
}
layer {
  name: "conv3_1"
  type: "Convolution"
  bottom: "pool2"
  top: "conv3_1"
  convolution_param {
    num_output: 256
    pad: 1
    kernel_size: 3
  }
}
layer {
  name: "relu3_1"
  type: "ReLU"
  bottom: "conv3_1"
  top: "conv3_1"
}
layer {
  name: "conv3_2"
  type: "Convolution"
  bottom: "conv3_1"
  top: "conv3_2"
  convolution_param {
    num_output: 256
    pad: 1
    kernel_size: 3
  }
}
layer {
  name: "relu3_2"
  type: "ReLU"
  bottom: "conv3_2"
  top: "conv3_2"
}
layer {
  name: "conv3_3"
  type: "Convolution"
  bottom: "conv3_2"
  top: "conv3_3"
  convolution_param {
    num_output: 256
    pad: 1
    kernel_size: 3
  }
}
layer {
  name: "relu3_3"
  type: "ReLU"
  bottom: "conv3_3"
  top: "conv3_3"
}
layer {
  name: "pool3"
  type: "Pooling"
  bottom: "conv3_3"
  top: "pool3"
  pooling_param {
    pool: MAX
    kernel_size: 2
    stride: 2
  }
}
layer {
  name: "conv4_1"
  type: "Convolution"
  bottom: "pool3"
  top: "conv4_1"
  convolution_param {
    num_output: 512
    pad: 1
    kernel_size: 3
  }
}
layer {
  name: "relu4_1"
  type: "ReLU"
  bottom: "conv4_1"
  top: "conv4_1"
}
layer {
  name: "conv4_2"
  type: "Convolution"
  bottom: "conv4_1"
  top: "conv4_2"
  convolution_param {
    num_output: 512
    pad: 1
    kernel_size: 3
  }
}
layer {
  name: "relu4_2"
  type: "ReLU"
  bottom: "conv4_2"
  top: "conv4_2"
}
layer {
  name: "conv4_3"
  type: "Convolution"
  bottom: "conv4_2"
  top: "conv4_3"
  convolution_param {
    num_output: 512
    pad: 1
    kernel_size: 3
  }
}
layer {
  name: "relu4_3"
  type: "ReLU"
  bottom: "conv4_3"
  top: "conv4_3"
}
layer {
  name: "loss1_conv1"
  type: "Convolution"
  bottom: "conv4_3"
  top: "loss1_conv1"
  param {
    lr_mult: 1
    decay_mult: 1
  }
  param {
    lr_mult: 2
    decay_mult: 0
  }
  convolution_param {
    num_output: 512
    pad: 1
    kernel_size: 3
    weight_filler {
      type: "gaussian"
      std: 0.01
    }
    bias_filler {
      type: "constant"
    }
  }
}
layer {
  name: "loss_relu1"
  type: "ReLU"
  bottom: "loss1_conv1"
  top: "loss1_conv1"
}
layer {
  name: "LFCN_1_3x5"
  type: "Convolution"
  bottom: "loss1_conv1"
  top: "LFCN_1_3x5"
  param {
    lr_mult: 1
    decay_mult: 1
  }
  param {
    lr_mult: 2
    decay_mult: 0
  }
  convolution_param {
    num_output: 7
    weight_filler {
      type: "gaussian"
      std: 0.001
    }
    bias_filler {
      type: "constant"
    }
    pad_h: 2
    pad_w: 1
    kernel_h: 5
    kernel_w: 3
  }
}
layer {
  name: "detection_loss_1_3x5"
  type: "DetectionLoss"
  bottom: "LFCN_1_3x5"
  bottom: "label_1_3x5"
  top: "loss_1_3x5"
  loss_weight: 0.5
  detection_loss_param {
    cls_num: 3
    coord_num: 4
    lambda: 1
    field_h: 60
    field_w: 40
    downsample_rate: 8
    bb_smooth: true
    field_whr: 2
    field_xyr: 2
    bg_threshold: 0.2
    bg_multiple: 2
    sample_mode: "bootstrap"
    pos_neg_weighted: true
  }
}
layer {
  name: "detection_accuracy_1_3x5"
  type: "DetectionAccuracy"
  bottom: "LFCN_1_3x5"
  bottom: "label_1_3x5"
  top: "accuracy_1_3x5"
  top: "boxiou_1_3x5"
  detection_accuracy_param {
    cls_num: 3
    coord_num: 4
    field_h: 60
    field_w: 40
    downsample_rate: 8
    field_whr: 2
    field_xyr: 2
  }
}
layer {
  name: "LFCN_1_5x7"
  type: "Convolution"
  bottom: "loss1_conv1"
  top: "LFCN_1_5x7"
  param {
    lr_mult: 1
    decay_mult: 1
  }
  param {
    lr_mult: 2
    decay_mult: 0
  }
  convolution_param {
    num_output: 7
    weight_filler {
      type: "gaussian"
      std: 0.001
    }
    bias_filler {
      type: "constant"
    }
    pad_h: 3
    pad_w: 2
    kernel_h: 7
    kernel_w: 5
  }
}
layer {
  name: "detection_loss_1_5x7"
  type: "DetectionLoss"
  bottom: "LFCN_1_5x7"
  bottom: "label_1_5x7"
  top: "loss_1_5x7"
  loss_weight: 0.9
  detection_loss_param {
    cls_num: 3
    coord_num: 4
    lambda: 1
    field_h: 84
    field_w: 56
    downsample_rate: 8
    bb_smooth: true
    field_whr: 2
    field_xyr: 2
    bg_threshold: 0.2
    bg_multiple: 2
    sample_mode: "bootstrap"
    pos_neg_weighted: true
  }
}
layer {
  name: "detection_accuracy_1_5x7"
  type: "DetectionAccuracy"
  bottom: "LFCN_1_5x7"
  bottom: "label_1_5x7"
  top: "accuracy_1_5x7"
  top: "boxiou_1_5x7"
  detection_accuracy_param {
    cls_num: 3
    coord_num: 4
    field_h: 84
    field_w: 56
    downsample_rate: 8
    field_whr: 2
    field_xyr: 2
  }
}
layer {
  name: "pool4"
  type: "Pooling"
  bottom: "conv4_3"
  top: "pool4"
  pooling_param {
    pool: MAX
    kernel_size: 2
    stride: 2
  }
}
layer {
  name: "conv5_1"
  type: "Convolution"
  bottom: "pool4"
  top: "conv5_1"
  convolution_param {
    num_output: 512
    pad: 1
    kernel_size: 3
  }
}
layer {
  name: "relu5_1"
  type: "ReLU"
  bottom: "conv5_1"
  top: "conv5_1"
}
layer {
  name: "conv5_2"
  type: "Convolution"
  bottom: "conv5_1"
  top: "conv5_2"
  convolution_param {
    num_output: 512
    pad: 1
    kernel_size: 3
  }
}
layer {
  name: "relu5_2"
  type: "ReLU"
  bottom: "conv5_2"
  top: "conv5_2"
}
layer {
  name: "conv5_3"
  type: "Convolution"
  bottom: "conv5_2"
  top: "conv5_3"
  convolution_param {
    num_output: 512
    pad: 1
    kernel_size: 3
  }
}
layer {
  name: "relu5_3"
  type: "ReLU"
  bottom: "conv5_3"
  top: "conv5_3"
}
layer {
  name: "LFCN_2_3x5"
  type: "Convolution"
  bottom: "conv5_3"
  top: "LFCN_2_3x5"
  param {
    lr_mult: 1
    decay_mult: 1
  }
  param {
    lr_mult: 2
    decay_mult: 0
  }
  convolution_param {
    num_output: 7
    weight_filler {
      type: "gaussian"
      std: 0.001
    }
    bias_filler {
      type: "constant"
    }
    pad_h: 2
    pad_w: 1
    kernel_h: 5
    kernel_w: 3
  }
}
layer {
  name: "detection_loss_2_3x5"
  type: "DetectionLoss"
  bottom: "LFCN_2_3x5"
  bottom: "label_2_3x5"
  top: "loss_2_3x5"
  detection_loss_param {
    cls_num: 3
    coord_num: 4
    lambda: 1
    field_h: 120
    field_w: 80
    downsample_rate: 16
    bb_smooth: true
    field_whr: 2
    field_xyr: 2
    bg_threshold: 0.2
    bg_multiple: 2
    sample_mode: "bootstrap"
    pos_neg_weighted: true
  }
}
layer {
  name: "detection_accuracy_2_3x5"
  type: "DetectionAccuracy"
  bottom: "LFCN_2_3x5"
  bottom: "label_2_3x5"
  top: "accuracy_2_3x5"
  top: "boxiou_2_3x5"
  detection_accuracy_param {
    cls_num: 3
    coord_num: 4
    field_h: 120
    field_w: 80
    downsample_rate: 16
    field_whr: 2
    field_xyr: 2
  }
}
layer {
  name: "LFCN_2_5x7"
  type: "Convolution"
  bottom: "conv5_3"
  top: "LFCN_2_5x7"
  param {
    lr_mult: 1
    decay_mult: 1
  }
  param {
    lr_mult: 2
    decay_mult: 0
  }
  convolution_param {
    num_output: 7
    weight_filler {
      type: "gaussian"
      std: 0.001
    }
    bias_filler {
      type: "constant"
    }
    pad_h: 3
    pad_w: 2
    kernel_h: 7
    kernel_w: 5
  }
}
layer {
  name: "detection_loss_2_5x7"
  type: "DetectionLoss"
  bottom: "LFCN_2_5x7"
  bottom: "label_2_5x7"
  top: "loss_2_5x7"
  detection_loss_param {
    cls_num: 3
    coord_num: 4
    lambda: 1
    field_h: 168
    field_w: 112
    downsample_rate: 16
    bb_smooth: true
    field_whr: 2
    field_xyr: 2
    bg_threshold: 0.2
    bg_multiple: 2
    sample_mode: "bootstrap"
    pos_neg_weighted: true
  }
}
layer {
  name: "detection_accuracy_2_5x7"
  type: "DetectionAccuracy"
  bottom: "LFCN_2_5x7"
  bottom: "label_2_5x7"
  top: "accuracy_2_5x7"
  top: "boxiou_2_5x7"
  detection_accuracy_param {
    cls_num: 3
    coord_num: 4
    field_h: 168
    field_w: 112
    downsample_rate: 16
    field_whr: 2
    field_xyr: 2
  }
}
layer {
  name: "pool5"
  type: "Pooling"
  bottom: "conv5_3"
  top: "pool5"
  pooling_param {
    pool: MAX
    kernel_size: 2
    stride: 2
  }
}
layer {
  name: "conv6_1"
  type: "Convolution"
  bottom: "pool5"
  top: "conv6_1"
  param {
    lr_mult: 1
    decay_mult: 1
  }
  param {
    lr_mult: 2
    decay_mult: 0
  }
  convolution_param {
    num_output: 512
    pad: 1
    kernel_size: 3
    weight_filler {
      type: "gaussian"
      std: 0.01
    }
    bias_filler {
      type: "constant"
    }
  }
}
layer {
  name: "relu6_1"
  type: "ReLU"
  bottom: "conv6_1"
  top: "conv6_1"
}
layer {
  name: "LFCN_3_3x5"
  type: "Convolution"
  bottom: "conv6_1"
  top: "LFCN_3_3x5"
  param {
    lr_mult: 1
    decay_mult: 1
  }
  param {
    lr_mult: 2
    decay_mult: 0
  }
  convolution_param {
    num_output: 7
    weight_filler {
      type: "gaussian"
      std: 0.001
    }
    bias_filler {
      type: "constant"
    }
    pad_h: 2
    pad_w: 1
    kernel_h: 5
    kernel_w: 3
  }
}
layer {
  name: "detection_loss_3_3x5"
  type: "DetectionLoss"
  bottom: "LFCN_3_3x5"
  bottom: "label_3_3x5"
  top: "loss_3_3x5"
  detection_loss_param {
    cls_num: 3
    coord_num: 4
    lambda: 1
    field_h: 240
    field_w: 160
    downsample_rate: 32
    bb_smooth: true
    field_whr: 2
    field_xyr: 2
    bg_threshold: 0.2
    bg_multiple: 2
    sample_mode: "bootstrap"
    pos_neg_weighted: true
  }
}
layer {
  name: "detection_accuracy_3_3x5"
  type: "DetectionAccuracy"
  bottom: "LFCN_3_3x5"
  bottom: "label_3_3x5"
  top: "accuracy_3_3x5"
  top: "boxiou_3_3x5"
  detection_accuracy_param {
    cls_num: 3
    coord_num: 4
    field_h: 240
    field_w: 160
    downsample_rate: 32
    field_whr: 2
    field_xyr: 2
  }
}
layer {
  name: "LFCN_3_5x7"
  type: "Convolution"
  bottom: "conv6_1"
  top: "LFCN_3_5x7"
  param {
    lr_mult: 1
    decay_mult: 1
  }
  param {
    lr_mult: 2
    decay_mult: 0
  }
  convolution_param {
    num_output: 7
    weight_filler {
      type: "gaussian"
      std: 0.001
    }
    bias_filler {
      type: "constant"
    }
    pad_h: 3
    pad_w: 2
    kernel_h: 7
    kernel_w: 5
  }
}
layer {
  name: "detection_loss_3_5x7"
  type: "DetectionLoss"
  bottom: "LFCN_3_5x7"
  bottom: "label_3_5x7"
  top: "loss_3_5x7"
  detection_loss_param {
    cls_num: 3
    coord_num: 4
    lambda: 1
    field_h: 336
    field_w: 224
    downsample_rate: 32
    bb_smooth: true
    field_whr: 2
    field_xyr: 2
    bg_threshold: 0.2
    bg_multiple: 2
    sample_mode: "bootstrap"
    pos_neg_weighted: true
  }
}
layer {
  name: "detection_accuracy_3_5x7"
  type: "DetectionAccuracy"
  bottom: "LFCN_3_5x7"
  bottom: "label_3_5x7"
  top: "accuracy_3_5x7"
  top: "boxiou_3_5x7"
  detection_accuracy_param {
    cls_num: 3
    coord_num: 4
    field_h: 336
    field_w: 224
    downsample_rate: 32
    field_whr: 2
    field_xyr: 2
  }
}
layer {
  name: "pool6"
  type: "Pooling"
  bottom: "conv6_1"
  top: "pool6"
  pooling_param {
    pool: MAX
    kernel_size: 2
    stride: 2
  }
}
layer {
  name: "LFCN_4_3x5"
  type: "Convolution"
  bottom: "pool6"
  top: "LFCN_4_3x5"
  param {
    lr_mult: 1
    decay_mult: 1
  }
  param {
    lr_mult: 2
    decay_mult: 0
  }
  convolution_param {
    num_output: 7
    weight_filler {
      type: "gaussian"
      std: 0.001
    }
    bias_filler {
      type: "constant"
    }
    pad_h: 2
    pad_w: 1
    kernel_h: 5
    kernel_w: 3
  }
}
layer {
  name: "detection_loss_4_3x5"
  type: "DetectionLoss"
  bottom: "LFCN_4_3x5"
  bottom: "label_4_3x5"
  top: "loss_4_3x5"
  detection_loss_param {
    cls_num: 3
    coord_num: 4
    lambda: 1
    field_h: 480
    field_w: 320
    downsample_rate: 64
    bb_smooth: true
    field_whr: 2
    field_xyr: 2
    bg_threshold: 0.2
    bg_multiple: 2
    sample_mode: "bootstrap"
    pos_neg_weighted: true
  }
}
layer {
  name: "detection_accuracy_4_3x5"
  type: "DetectionAccuracy"
  bottom: "LFCN_4_3x5"
  bottom: "label_4_3x5"
  top: "accuracy_4_3x5"
  top: "boxiou_4_3x5"
  detection_accuracy_param {
    cls_num: 3
    coord_num: 4
    field_h: 480
    field_w: 320
    downsample_rate: 64
    field_whr: 2
    field_xyr: 2
  }
}
layer {
  name: "proposals"
  type: "BoxOutput"
  bottom: "LFCN_1_3x5"
  bottom: "LFCN_1_5x7"
  bottom: "LFCN_2_3x5"
  bottom: "LFCN_2_5x7"
  bottom: "LFCN_3_3x5"
  bottom: "LFCN_3_5x7"
  bottom: "LFCN_4_3x5"
  top: "proposals"
  propagate_down: false
  propagate_down: false
  propagate_down: false
  propagate_down: false
  propagate_down: false
  propagate_down: false
  propagate_down: false
  box_output_param {
    fg_thr: -15
    iou_thr: 0.65
    nms_type: "IOU"
    field_h: 60
    field_h: 84
    field_h: 120
    field_h: 168
    field_h: 240
    field_h: 336
    field_h: 480
    field_w: 40
    field_w: 56
    field_w: 80
    field_w: 112
    field_w: 160
    field_w: 224
    field_w: 320
    downsample_rate: 8
    downsample_rate: 8
    downsample_rate: 16
    downsample_rate: 16
    downsample_rate: 32
    downsample_rate: 32
    downsample_rate: 64
    field_whr: 2
    field_xyr: 2
    max_nms_num: 3000
  }
}
layer {
  name: "proposal_info"
  type: "ProposalTarget"
  bottom: "proposals"
  bottom: "gt_boxes"
  top: "rois"
  top: "proposal_labels"
  top: "proposal_targets"
  top: "box_inside_weights"
  top: "box_outside_weights"
  top: "match_gt_boxes"
  include {
    phase: TRAIN
  }
  propagate_down: false
  propagate_down: false
  proposal_target_param {
    cls_num: 3
    batch_size: 128
    fg_fraction: 0.25
    num_img_per_batch: 4
    fg_thr: 0.5
    bg_thr_hg: 0.45
    bg_thr_lw: 0.05
    img_width: 768
    img_height: 576
  }
  bbox_reg_param {
    bbox_mean: 0
    bbox_mean: 0
    bbox_mean: 0
    bbox_mean: 0
    bbox_std: 0.1
    bbox_std: 0.1
    bbox_std: 0.2
    bbox_std: 0.2
  }
}
layer {
  name: "conv4_3_2x"
  type: "Deconvolution"
  bottom: "conv4_3"
  top: "conv4_3_2x"
  param {
    lr_mult: 0
    decay_mult: 0
  }
  convolution_param {
    num_output: 512
    bias_term: false
    pad: 1
    kernel_size: 4
    group: 512
    stride: 2
    weight_filler {
      type: "bilinear"
    }
  }
}
layer {
  name: "roi_pool_org"
  type: "ROIPooling"
  bottom: "conv4_3_2x"
  bottom: "rois"
  top: "roi_pool_org"
  roi_pooling_param {
    pooled_h: 7
    pooled_w: 5
    spatial_scale: 0.25
    pad_ratio: 0
  }
}
layer {
  name: "roi_pool_ctx"
  type: "ROIPooling"
  bottom: "conv4_3_2x"
  bottom: "rois"
  top: "roi_pool_ctx"
  roi_pooling_param {
    pooled_h: 7
    pooled_w: 5
    spatial_scale: 0.25
    pad_ratio: 0.25
  }
}
layer {
  name: "roi_pool"
  type: "Concat"
  bottom: "roi_pool_org"
  bottom: "roi_pool_ctx"
  top: "roi_pool"
}
layer {
  name: "roi_c1"
  type: "Convolution"
  bottom: "roi_pool"
  top: "roi_c1"
  param {
    lr_mult: 1
    decay_mult: 1
  }
  param {
    lr_mult: 2
    decay_mult: 0
  }
  convolution_param {
    num_output: 512
    kernel_size: 3
    weight_filler {
      type: "gaussian"
      std: 0.01
    }
    bias_filler {
      type: "constant"
    }
  }
}
layer {
  name: "roi_c1_relu"
  type: "ReLU"
  bottom: "roi_c1"
  top: "roi_c1"
}
layer {
  name: "fc6"
  type: "InnerProduct"
  bottom: "roi_c1"
  top: "fc6"
  param {
    lr_mult: 1
  }
  param {
    lr_mult: 2
  }
  inner_product_param {
    num_output: 2048
    weight_filler {
      type: "gaussian"
      std: 0.001
    }
    bias_filler {
      type: "constant"
      value: 0
    }
  }
}
layer {
  name: "relu6"
  type: "ReLU"
  bottom: "fc6"
  top: "fc6"
}
layer {
  name: "drop6"
  type: "Dropout"
  bottom: "fc6"
  top: "fc6"
  dropout_param {
    dropout_ratio: 0.5
  }
}
layer {
  name: "cls_pred"
  type: "InnerProduct"
  bottom: "fc6"
  top: "cls_pred"
  param {
    lr_mult: 1
  }
  param {
    lr_mult: 2
  }
  inner_product_param {
    num_output: 3
    weight_filler {
      type: "gaussian"
      std: 0.01
    }
    bias_filler {
      type: "constant"
      value: 0
    }
  }
}
layer {
  name: "bbox_pred"
  type: "InnerProduct"
  bottom: "fc6"
  top: "bbox_pred"
  param {
    lr_mult: 1
  }
  param {
    lr_mult: 2
  }
  inner_product_param {
    num_output: 12
    weight_filler {
      type: "gaussian"
      std: 0.001
    }
    bias_filler {
      type: "constant"
      value: 0
    }
  }
}
layer {
  name: "loss_cls"
  type: "SoftmaxWithLoss"
  bottom: "cls_pred"
  bottom: "proposal_labels"
  top: "loss_cls"
  loss_weight: 1
  propagate_down: true
  propagate_down: false
}
layer {
  name: "cls_accuracy"
  type: "Accuracy"
  bottom: "cls_pred"
  bottom: "proposal_labels"
  top: "cls_accuracy"
}
layer {
  name: "loss_bbox"
  type: "SmoothL1Loss"
  bottom: "bbox_pred"
  bottom: "proposal_targets"
  bottom: "box_inside_weights"
  bottom: "box_outside_weights"
  top: "loss_bbox"
  loss_weight: 1
}
layer {
  name: "bbox_iou"
  type: "BboxAccuracy"
  bottom: "bbox_pred"
  bottom: "rois"
  bottom: "match_gt_boxes"
  top: "bbox_iou"
  top: "bbox_iou_pre"
  bbox_reg_param {
    bbox_mean: 0
    bbox_mean: 0
    bbox_mean: 0
    bbox_mean: 0
    bbox_std: 0.1
    bbox_std: 0.1
    bbox_std: 0.2
    bbox_std: 0.2
  }
}
I0124 16:49:45.085084 30596 layer_factory.hpp:77] Creating layer data
I0124 16:49:45.085127 30596 net.cpp:100] Creating Layer data
I0124 16:49:45.085139 30596 net.cpp:408] data -> data
…
I0124 16:49:45.124274 30596 image_gt_data_layer.cpp:235] output label size 2 : 4,6,36,48
I0124 16:49:45.124303 30596 image_gt_data_layer.cpp:235] output label size 3 : 4,6,36,48
I0124 16:49:45.124334 30596 image_gt_data_layer.cpp:235] output label size 4 : 4,6,18,24
I0124 16:49:45.124364 30596 image_gt_data_layer.cpp:235] output label size 5 : 4,6,18,24
I0124 16:49:45.124395 30596 image_gt_data_layer.cpp:235] output label size 6 : 4,6,9,12
I0124 16:49:45.124426 30596 image_gt_data_layer.cpp:250] output gt boxes size: 1,7,1,1
I0124 16:49:45.157100 30596 net.cpp:150] Setting up data
I0124 16:49:45.157138 30596 net.cpp:157] Top shape: 4 3 576 768 (5308416)
I0124 16:49:45.157145 30596 net.cpp:157] Top shape: 4 6 72 96 (165888)
I0124 16:49:45.157150 30596 net.cpp:157] Top shape: 4 6 72 96 (165888)
I0124 16:49:45.157153 30596 net.cpp:157] Top shape: 4 6 36 48 (41472)
I0124 16:49:45.157158 30596 net.cpp:157] Top shape: 4 6 36 48 (41472)
I0124 16:49:45.157163 30596 net.cpp:157] Top shape: 4 6 18 24 (10368)
I0124 16:49:45.157167 30596 net.cpp:157] Top shape: 4 6 18 24 (10368)
I0124 16:49:45.157214 30596 net.cpp:157] Top shape: 4 6 9 12 (2592)
I0124 16:49:45.157229 30596 net.cpp:157] Top shape: 1 7 1 1 (7)
I0124 16:49:45.157243 30596 net.cpp:165] Memory required for data: 22985884
I0124 16:49:45.157259 30596 layer_factory.hpp:77] Creating layer label_1_3x5_data_1_split
I0124 16:49:45.157275 30596 net.cpp:100] Creating Layer label_1_3x5_data_1_split
I0124 16:49:45.157284 30596 net.cpp:434] label_1_3x5_data_1_split <- label_1_3x5
I0124 16:49:45.157305 30596 net.cpp:408] label_1_3x5_data_1_split -> label_1_3x5_data_1_split_0
I0124 16:49:45.157320 30596 net.cpp:408] label_1_3x5_data_1_split -> label_1_3x5_data_1_split_1
I0124 16:49:45.157367 30596 net.cpp:150] Setting up label_1_3x5_data_1_split
I0124 16:49:45.157374 30596 net.cpp:157] Top shape: 4 6 72 96 (165888)
I0124 16:49:45.157379 30596 net.cpp:157] Top shape: 4 6 72 96 (165888)
I0124 16:49:45.157390 30596 net.cpp:165] Memory required for data: 24312988
I0124 16:49:45.157395 30596 layer_factory.hpp:77] Creating layer label_1_5x7_data_2_split
I0124 16:49:45.157408 30596 net.cpp:100] Creating Layer label_1_5x7_data_2_split
I0124 16:49:45.157413 30596 net.cpp:434] label_1_5x7_data_2_split <- label_1_5x7
I0124 16:49:45.157420 30596 net.cpp:408] label_1_5x7_data_2_split -> label_1_5x7_data_2_split_0
I0124 16:49:45.157429 30596 net.cpp:408] label_1_5x7_data_2_split -> label_1_5x7_data_2_split_1
I0124 16:49:45.157461 30596 net.cpp:150] Setting up label_1_5x7_data_2_split
I0124 16:49:45.157467 30596 net.cpp:157] Top shape: 4 6 72 96 (165888)
I0124 16:49:45.157480 30596 net.cpp:157] Top shape: 4 6 72 96 (165888)
I0124 16:49:45.157483 30596 net.cpp:165] Memory required for data: 25640092
I0124 16:49:45.157487 30596 layer_factory.hpp:77] Creating layer label_2_3x5_data_3_split
I0124 16:49:45.157500 30596 net.cpp:100] Creating Layer label_2_3x5_data_3_split
I0124 16:49:45.157503 30596 net.cpp:434] label_2_3x5_data_3_split <- label_2_3x5
I0124 16:49:45.157510 30596 net.cpp:408] label_2_3x5_data_3_split -> label_2_3x5_data_3_split_0
I0124 16:49:45.157521 30596 net.cpp:408] label_2_3x5_data_3_split -> label_2_3x5_data_3_split_1
I0124 16:49:45.157549 30596 net.cpp:150] Setting up label_2_3x5_data_3_split
I0124 16:49:45.157555 30596 net.cpp:157] Top shape: 4 6 36 48 (41472)
I0124 16:49:45.157572 30596 net.cpp:157] Top shape: 4 6 36 48 (41472)
I0124 16:49:45.157577 30596 net.cpp:165] Memory required for data: 25971868
I0124 16:49:45.157579 30596 layer_factory.hpp:77] Creating layer label_2_5x7_data_4_split
I0124 16:49:45.157593 30596 net.cpp:100] Creating Layer label_2_5x7_data_4_split
I0124 16:49:45.157598 30596 net.cpp:434] label_2_5x7_data_4_split <- label_2_5x7
I0124 16:49:45.157604 30596 net.cpp:408] label_2_5x7_data_4_split -> label_2_5x7_data_4_split_0
I0124 16:49:45.157613 30596 net.cpp:408] label_2_5x7_data_4_split -> label_2_5x7_data_4_split_1
I0124 16:49:45.157652 30596 net.cpp:150] Setting up label_2_5x7_data_4_split
I0124 16:49:45.157658 30596 net.cpp:157] Top shape: 4 6 36 48 (41472)
I0124 16:49:45.157670 30596 net.cpp:157] Top shape: 4 6 36 48 (41472)
I0124 16:49:45.157675 30596 net.cpp:165] Memory required for data: 26303644
I0124 16:49:45.157678 30596 layer_factory.hpp:77] Creating layer label_3_3x5_data_5_split
I0124 16:49:45.157690 30596 net.cpp:100] Creating Layer label_3_3x5_data_5_split
I0124 16:49:45.157694 30596 net.cpp:434] label_3_3x5_data_5_split <- label_3_3x5
I0124 16:49:45.157701 30596 net.cpp:408] label_3_3x5_data_5_split -> label_3_3x5_data_5_split_0
I0124 16:49:45.157711 30596 net.cpp:408] label_3_3x5_data_5_split -> label_3_3x5_data_5_split_1
I0124 16:49:45.157738 30596 net.cpp:150] Setting up label_3_3x5_data_5_split
I0124 16:49:45.157745 30596 net.cpp:157] Top shape: 4 6 18 24 (10368)
I0124 16:49:45.157757 30596 net.cpp:157] Top shape: 4 6 18 24 (10368)
I0124 16:49:45.157760 30596 net.cpp:165] Memory required for data: 26386588
I0124 16:49:45.157764 30596 layer_factory.hpp:77] Creating layer label_3_5x7_data_6_split
I0124 16:49:45.157771 30596 net.cpp:100] Creating Layer label_3_5x7_data_6_split
I0124 16:49:45.157776 30596 net.cpp:434] label_3_5x7_data_6_split <- label_3_5x7
I0124 16:49:45.157783 30596 net.cpp:408] label_3_5x7_data_6_split -> label_3_5x7_data_6_split_0
I0124 16:49:45.157791 30596 net.cpp:408] label_3_5x7_data_6_split -> label_3_5x7_data_6_split_1
I0124 16:49:45.157819 30596 net.cpp:150] Setting up label_3_5x7_data_6_split
I0124 16:49:45.157824 30596 net.cpp:157] Top shape: 4 6 18 24 (10368)
I0124 16:49:45.157836 30596 net.cpp:157] Top shape: 4 6 18 24 (10368)
I0124 16:49:45.157840 30596 net.cpp:165] Memory required for data: 26469532
I0124 16:49:45.157843 30596 layer_factory.hpp:77] Creating layer label_4_3x5_data_7_split
I0124 16:49:45.157850 30596 net.cpp:100] Creating Layer label_4_3x5_data_7_split
I0124 16:49:45.157855 30596 net.cpp:434] label_4_3x5_data_7_split <- label_4_3x5
I0124 16:49:45.157861 30596 net.cpp:408] label_4_3x5_data_7_split -> label_4_3x5_data_7_split_0
I0124 16:49:45.157871 30596 net.cpp:408] label_4_3x5_data_7_split -> label_4_3x5_data_7_split_1
I0124 16:49:45.157897 30596 net.cpp:150] Setting up label_4_3x5_data_7_split
I0124 16:49:45.157903 30596 net.cpp:157] Top shape: 4 6 9 12 (2592)
I0124 16:49:45.157915 30596 net.cpp:157] Top shape: 4 6 9 12 (2592)
I0124 16:49:45.157918 30596 net.cpp:165] Memory required for data: 26490268
I0124 16:49:45.157922 30596 layer_factory.hpp:77] Creating layer conv1_1
I0124 16:49:45.157944 30596 net.cpp:100] Creating Layer conv1_1
I0124 16:49:45.157948 30596 net.cpp:434] conv1_1 <- data
I0124 16:49:45.157956 30596 net.cpp:408] conv1_1 -> conv1_1
I0124 16:49:45.411310 30596 net.cpp:150] Setting up conv1_1
I0124 16:49:45.411337 30596 net.cpp:157] Top shape: 4 64 576 768 (113246208)
I0124 16:49:45.411342 30596 net.cpp:165] Memory required for data: 479475100
I0124 16:49:45.411368 30596 layer_factory.hpp:77] Creating layer relu1_1
I0124 16:49:45.411449 30596 net.cpp:100] Creating Layer relu1_1
I0124 16:49:45.411475 30596 net.cpp:434] relu1_1 <- conv1_1
I0124 16:49:45.411504 30596 net.cpp:395] relu1_1 -> conv1_1 (in-place)
I0124 16:49:45.411718 30596 net.cpp:150] Setting up relu1_1
I0124 16:49:45.411748 30596 net.cpp:157] Top shape: 4 64 576 768 (113246208)
I0124 16:49:45.411767 30596 net.cpp:165] Memory required for data: 932459932
I0124 16:49:45.411787 30596 layer_factory.hpp:77] Creating layer conv1_2
I0124 16:49:45.411813 30596 net.cpp:100] Creating Layer conv1_2
I0124 16:49:45.411834 30596 net.cpp:434] conv1_2 <- conv1_1
I0124 16:49:45.411855 30596 net.cpp:408] conv1_2 -> conv1_2
I0124 16:49:45.414793 30596 net.cpp:150] Setting up conv1_2
I0124 16:49:45.414850 30596 net.cpp:157] Top shape: 4 64 576 768 (113246208)
I0124 16:49:45.414891 30596 net.cpp:165] Memory required for data: 1385444764
I0124 16:49:45.414919 30596 layer_factory.hpp:77] Creating layer relu1_2
I0124 16:49:45.414943 30596 net.cpp:100] Creating Layer relu1_2
I0124 16:49:45.414961 30596 net.cpp:434] relu1_2 <- conv1_2
I0124 16:49:45.414980 30596 net.cpp:395] relu1_2 -> conv1_2 (in-place)
I0124 16:49:45.415210 30596 net.cpp:150] Setting up relu1_2
I0124 16:49:45.415237 30596 net.cpp:157] Top shape: 4 64 576 768 (113246208)
I0124 16:49:45.415251 30596 net.cpp:165] Memory required for data: 1838429596
I0124 16:49:45.415263 30596 layer_factory.hpp:77] Creating layer pool1
I0124 16:49:45.415282 30596 net.cpp:100] Creating Layer pool1
I0124 16:49:45.415295 30596 net.cpp:434] pool1 <- conv1_2
I0124 16:49:45.415313 30596 net.cpp:408] pool1 -> pool1
I0124 16:49:45.415391 30596 net.cpp:150] Setting up pool1
I0124 16:49:45.415412 30596 net.cpp:157] Top shape: 4 64 288 384 (28311552)
I0124 16:49:45.415424 30596 net.cpp:165] Memory required for data: 1951675804
I0124 16:49:45.415437 30596 layer_factory.hpp:77] Creating layer conv2_1
I0124 16:49:45.415457 30596 net.cpp:100] Creating Layer conv2_1
I0124 16:49:45.415472 30596 net.cpp:434] conv2_1 <- pool1
I0124 16:49:45.415488 30596 net.cpp:408] conv2_1 -> conv2_1
I0124 16:49:45.418422 30596 net.cpp:150] Setting up conv2_1
I0124 16:49:45.418491 30596 net.cpp:157] Top shape: 4 128 288 384 (56623104)
I0124 16:49:45.418511 30596 net.cpp:165] Memory required for data: 2178168220
I0124 16:49:45.418560 30596 layer_factory.hpp:77] Creating layer relu2_1
I0124 16:49:45.418588 30596 net.cpp:100] Creating Layer relu2_1
I0124 16:49:45.418611 30596 net.cpp:434] relu2_1 <- conv2_1
I0124 16:49:45.418637 30596 net.cpp:395] relu2_1 -> conv2_1 (in-place)
I0124 16:49:45.418889 30596 net.cpp:150] Setting up relu2_1
I0124 16:49:45.418920 30596 net.cpp:157] Top shape: 4 128 288 384 (56623104)
I0124 16:49:45.418941 30596 net.cpp:165] Memory required for data: 2404660636
I0124 16:49:45.418962 30596 layer_factory.hpp:77] Creating layer conv2_2
I0124 16:49:45.418985 30596 net.cpp:100] Creating Layer conv2_2
I0124 16:49:45.419001 30596 net.cpp:434] conv2_2 <- conv2_1
I0124 16:49:45.419020 30596 net.cpp:408] conv2_2 -> conv2_2
I0124 16:49:45.420938 30596 net.cpp:150] Setting up conv2_2
I0124 16:49:45.420969 30596 net.cpp:157] Top shape: 4 128 288 384 (56623104)
I0124 16:49:45.420987 30596 net.cpp:165] Memory required for data: 2631153052
I0124 16:49:45.421007 30596 layer_factory.hpp:77] Creating layer relu2_2
I0124 16:49:45.421031 30596 net.cpp:100] Creating Layer relu2_2
I0124 16:49:45.421048 30596 net.cpp:434] relu2_2 <- conv2_2
I0124 16:49:45.421066 30596 net.cpp:395] relu2_2 -> conv2_2 (in-place)
I0124 16:49:45.421283 30596 net.cpp:150] Setting up relu2_2
I0124 16:49:45.421314 30596 net.cpp:157] Top shape: 4 128 288 384 (56623104)
I0124 16:49:45.421331 30596 net.cpp:165] Memory required for data: 2857645468
I0124 16:49:45.421346 30596 layer_factory.hpp:77] Creating layer pool2
I0124 16:49:45.421366 30596 net.cpp:100] Creating Layer pool2
I0124 16:49:45.421382 30596 net.cpp:434] pool2 <- conv2_2
I0124 16:49:45.421399 30596 net.cpp:408] pool2 -> pool2
I0124 16:49:45.421466 30596 net.cpp:150] Setting up pool2
I0124 16:49:45.421488 30596 net.cpp:157] Top shape: 4 128 144 192 (14155776)
I0124 16:49:45.421501 30596 net.cpp:165] Memory required for data: 2914268572
I0124 16:49:45.421515 30596 layer_factory.hpp:77] Creating layer conv3_1
I0124 16:49:45.421535 30596 net.cpp:100] Creating Layer conv3_1
I0124 16:49:45.421551 30596 net.cpp:434] conv3_1 <- pool2
I0124 16:49:45.421569 30596 net.cpp:408] conv3_1 -> conv3_1
I0124 16:49:45.424721 30596 net.cpp:150] Setting up conv3_1
I0124 16:49:45.424772 30596 net.cpp:157] Top shape: 4 256 144 192 (28311552)
I0124 16:49:45.424789 30596 net.cpp:165] Memory required for data: 3027514780
I0124 16:49:45.424818 30596 layer_factory.hpp:77] Creating layer relu3_1
I0124 16:49:45.424839 30596 net.cpp:100] Creating Layer relu3_1
I0124 16:49:45.424854 30596 net.cpp:434] relu3_1 <- conv3_1
I0124 16:49:45.424875 30596 net.cpp:395] relu3_1 -> conv3_1 (in-place)
I0124 16:49:45.425570 30596 net.cpp:150] Setting up relu3_1
I0124 16:49:45.425586 30596 net.cpp:157] Top shape: 4 256 144 192 (28311552)
I0124 16:49:45.425591 30596 net.cpp:165] Memory required for data: 3140760988
I0124 16:49:45.425596 30596 layer_factory.hpp:77] Creating layer conv3_2
I0124 16:49:45.425607 30596 net.cpp:100] Creating Layer conv3_2
I0124 16:49:45.425613 30596 net.cpp:434] conv3_2 <- conv3_1
I0124 16:49:45.425621 30596 net.cpp:408] conv3_2 -> conv3_2
I0124 16:49:45.428565 30596 net.cpp:150] Setting up conv3_2
I0124 16:49:45.428586 30596 net.cpp:157] Top shape: 4 256 144 192 (28311552)
I0124 16:49:45.428591 30596 net.cpp:165] Memory required for data: 3254007196
I0124 16:49:45.428601 30596 layer_factory.hpp:77] Creating layer relu3_2
I0124 16:49:45.428611 30596 net.cpp:100] Creating Layer relu3_2
I0124 16:49:45.428617 30596 net.cpp:434] relu3_2 <- conv3_2
I0124 16:49:45.428624 30596 net.cpp:395] relu3_2 -> conv3_2 (in-place)
I0124 16:49:45.429441 30596 net.cpp:150] Setting up relu3_2
I0124 16:49:45.429455 30596 net.cpp:157] Top shape: 4 256 144 192 (28311552)
I0124 16:49:45.429460 30596 net.cpp:165] Memory required for data: 3367253404
I0124 16:49:45.429463 30596 layer_factory.hpp:77] Creating layer conv3_3
I0124 16:49:45.429474 30596 net.cpp:100] Creating Layer conv3_3
I0124 16:49:45.429479 30596 net.cpp:434] conv3_3 <- conv3_2
I0124 16:49:45.429486 30596 net.cpp:408] conv3_3 -> conv3_3
I0124 16:49:45.432972 30596 net.cpp:150] Setting up conv3_3
I0124 16:49:45.432996 30596 net.cpp:157] Top shape: 4 256 144 192 (28311552)
I0124 16:49:45.432999 30596 net.cpp:165] Memory required for data: 3480499612
I0124 16:49:45.433010 30596 layer_factory.hpp:77] Creating layer relu3_3
I0124 16:49:45.433019 30596 net.cpp:100] Creating Layer relu3_3
I0124 16:49:45.433025 30596 net.cpp:434] relu3_3 <- conv3_3
I0124 16:49:45.433032 30596 net.cpp:395] relu3_3 -> conv3_3 (in-place)
I0124 16:49:45.433224 30596 net.cpp:150] Setting up relu3_3
I0124 16:49:45.433234 30596 net.cpp:157] Top shape: 4 256 144 192 (28311552)
I0124 16:49:45.433238 30596 net.cpp:165] Memory required for data: 3593745820
I0124 16:49:45.433243 30596 layer_factory.hpp:77] Creating layer pool3
I0124 16:49:45.433250 30596 net.cpp:100] Creating Layer pool3
I0124 16:49:45.433254 30596 net.cpp:434] pool3 <- conv3_3
I0124 16:49:45.433261 30596 net.cpp:408] pool3 -> pool3
I0124 16:49:45.433349 30596 net.cpp:150] Setting up pool3
I0124 16:49:45.433359 30596 net.cpp:157] Top shape: 4 256 72 96 (7077888)
I0124 16:49:45.433363 30596 net.cpp:165] Memory required for data: 3622057372
I0124 16:49:45.433367 30596 layer_factory.hpp:77] Creating layer conv4_1
I0124 16:49:45.433377 30596 net.cpp:100] Creating Layer conv4_1
I0124 16:49:45.433380 30596 net.cpp:434] conv4_1 <- pool3
I0124 16:49:45.433387 30596 net.cpp:408] conv4_1 -> conv4_1
I0124 16:49:45.439591 30596 net.cpp:150] Setting up conv4_1
I0124 16:49:45.439620 30596 net.cpp:157] Top shape: 4 512 72 96 (14155776)
I0124 16:49:45.439625 30596 net.cpp:165] Memory required for data: 3678680476
I0124 16:49:45.439637 30596 layer_factory.hpp:77] Creating layer relu4_1
I0124 16:49:45.439651 30596 net.cpp:100] Creating Layer relu4_1
I0124 16:49:45.439656 30596 net.cpp:434] relu4_1 <- conv4_1
I0124 16:49:45.439664 30596 net.cpp:395] relu4_1 -> conv4_1 (in-place)
I0124 16:49:45.439864 30596 net.cpp:150] Setting up relu4_1
I0124 16:49:45.439874 30596 net.cpp:157] Top shape: 4 512 72 96 (14155776)
I0124 16:49:45.439878 30596 net.cpp:165] Memory required for data: 3735303580
I0124 16:49:45.439882 30596 layer_factory.hpp:77] Creating layer conv4_2
I0124 16:49:45.439893 30596 net.cpp:100] Creating Layer conv4_2
I0124 16:49:45.439898 30596 net.cpp:434] conv4_2 <- conv4_1
I0124 16:49:45.439904 30596 net.cpp:408] conv4_2 -> conv4_2
I0124 16:49:45.446697 30596 net.cpp:150] Setting up conv4_2
I0124 16:49:45.446728 30596 net.cpp:157] Top shape: 4 512 72 96 (14155776)
I0124 16:49:45.446733 30596 net.cpp:165] Memory required for data: 3791926684
I0124 16:49:45.446753 30596 layer_factory.hpp:77] Creating layer relu4_2
I0124 16:49:45.446764 30596 net.cpp:100] Creating Layer relu4_2
I0124 16:49:45.446769 30596 net.cpp:434] relu4_2 <- conv4_2
I0124 16:49:45.446779 30596 net.cpp:395] relu4_2 -> conv4_2 (in-place)
I0124 16:49:45.446964 30596 net.cpp:150] Setting up relu4_2
I0124 16:49:45.446974 30596 net.cpp:157] Top shape: 4 512 72 96 (14155776)
I0124 16:49:45.446977 30596 net.cpp:165] Memory required for data: 3848549788
I0124 16:49:45.446981 30596 layer_factory.hpp:77] Creating layer conv4_3
I0124 16:49:45.446991 30596 net.cpp:100] Creating Layer conv4_3
I0124 16:49:45.446995 30596 net.cpp:434] conv4_3 <- conv4_2
I0124 16:49:45.447002 30596 net.cpp:408] conv4_3 -> conv4_3
I0124 16:49:45.454711 30596 net.cpp:150] Setting up conv4_3
I0124 16:49:45.454744 30596 net.cpp:157] Top shape: 4 512 72 96 (14155776)
I0124 16:49:45.454748 30596 net.cpp:165] Memory required for data: 3905172892
I0124 16:49:45.454761 30596 layer_factory.hpp:77] Creating layer relu4_3
I0124 16:49:45.454774 30596 net.cpp:100] Creating Layer relu4_3
I0124 16:49:45.454815 30596 net.cpp:434] relu4_3 <- conv4_3
I0124 16:49:45.454828 30596 net.cpp:395] relu4_3 -> conv4_3 (in-place)
I0124 16:49:45.455025 30596 net.cpp:150] Setting up relu4_3
I0124 16:49:45.455036 30596 net.cpp:157] Top shape: 4 512 72 96 (14155776)
I0124 16:49:45.455040 30596 net.cpp:165] Memory required for data: 3961795996
I0124 16:49:45.455044 30596 layer_factory.hpp:77] Creating layer conv4_3_relu4_3_0_split
I0124 16:49:45.455051 30596 net.cpp:100] Creating Layer conv4_3_relu4_3_0_split
I0124 16:49:45.455060 30596 net.cpp:434] conv4_3_relu4_3_0_split <- conv4_3
I0124 16:49:45.455066 30596 net.cpp:408] conv4_3_relu4_3_0_split -> conv4_3_relu4_3_0_split_0
I0124 16:49:45.455080 30596 net.cpp:408] conv4_3_relu4_3_0_split -> conv4_3_relu4_3_0_split_1
I0124 16:49:45.455088 30596 net.cpp:408] conv4_3_relu4_3_0_split -> conv4_3_relu4_3_0_split_2
I0124 16:49:45.455150 30596 net.cpp:150] Setting up conv4_3_relu4_3_0_split
I0124 16:49:45.455158 30596 net.cpp:157] Top shape: 4 512 72 96 (14155776)
I0124 16:49:45.455163 30596 net.cpp:157] Top shape: 4 512 72 96 (14155776)
I0124 16:49:45.455168 30596 net.cpp:157] Top shape: 4 512 72 96 (14155776)
I0124 16:49:45.455173 30596 net.cpp:165] Memory required for data: 4131665308
I0124 16:49:45.455175 30596 layer_factory.hpp:77] Creating layer loss1_conv1
I0124 16:49:45.455198 30596 net.cpp:100] Creating Layer loss1_conv1
I0124 16:49:45.455202 30596 net.cpp:434] loss1_conv1 <- conv4_3_relu4_3_0_split_0
I0124 16:49:45.455211 30596 net.cpp:408] loss1_conv1 -> loss1_conv1
I0124 16:49:45.490943 30596 net.cpp:150] Setting up loss1_conv1
I0124 16:49:45.490967 30596 net.cpp:157] Top shape: 4 512 72 96 (14155776)
I0124 16:49:45.490972 30596 net.cpp:165] Memory required for data: 4188288412
I0124 16:49:45.490983 30596 layer_factory.hpp:77] Creating layer loss_relu1
I0124 16:49:45.490994 30596 net.cpp:100] Creating Layer loss_relu1
I0124 16:49:45.490999 30596 net.cpp:434] loss_relu1 <- loss1_conv1
I0124 16:49:45.491009 30596 net.cpp:395] loss_relu1 -> loss1_conv1 (in-place)
I0124 16:49:45.491633 30596 net.cpp:150] Setting up loss_relu1
I0124 16:49:45.491647 30596 net.cpp:157] Top shape: 4 512 72 96 (14155776)
I0124 16:49:45.491672 30596 net.cpp:165] Memory required for data: 4244911516
I0124 16:49:45.491678 30596 layer_factory.hpp:77] Creating layer loss1_conv1_loss_relu1_0_split
I0124 16:49:45.491688 30596 net.cpp:100] Creating Layer loss1_conv1_loss_relu1_0_split
I0124 16:49:45.491693 30596 net.cpp:434] loss1_conv1_loss_relu1_0_split <- loss1_conv1
I0124 16:49:45.491699 30596 net.cpp:408] loss1_conv1_loss_relu1_0_split -> loss1_conv1_loss_relu1_0_split_0
I0124 16:49:45.491710 30596 net.cpp:408] loss1_conv1_loss_relu1_0_split -> loss1_conv1_loss_relu1_0_split_1
I0124 16:49:45.491762 30596 net.cpp:150] Setting up loss1_conv1_loss_relu1_0_split
I0124 16:49:45.491770 30596 net.cpp:157] Top shape: 4 512 72 96 (14155776)
I0124 16:49:45.491788 30596 net.cpp:157] Top shape: 4 512 72 96 (14155776)
I0124 16:49:45.491799 30596 net.cpp:165] Memory required for data: 4358157724
I0124 16:49:45.491811 30596 layer_factory.hpp:77] Creating layer LFCN_1_3x5
I0124 16:49:45.491830 30596 net.cpp:100] Creating Layer LFCN_1_3x5
I0124 16:49:45.491837 30596 net.cpp:434] LFCN_1_3x5 <- loss1_conv1_loss_relu1_0_split_0
I0124 16:49:45.491844 30596 net.cpp:408] LFCN_1_3x5 -> LFCN_1_3x5
I0124 16:49:45.493245 30596 net.cpp:150] Setting up LFCN_1_3x5
I0124 16:49:45.493257 30596 net.cpp:157] Top shape: 4 7 72 96 (193536)
I0124 16:49:45.493260 30596 net.cpp:165] Memory required for data: 4358931868
I0124 16:49:45.493268 30596 layer_factory.hpp:77] Creating layer LFCN_1_3x5_LFCN_1_3x5_0_split
I0124 16:49:45.493276 30596 net.cpp:100] Creating Layer LFCN_1_3x5_LFCN_1_3x5_0_split
I0124 16:49:45.493289 30596 net.cpp:434] LFCN_1_3x5_LFCN_1_3x5_0_split <- LFCN_1_3x5
I0124 16:49:45.493325 30596 net.cpp:408] LFCN_1_3x5_LFCN_1_3x5_0_split -> LFCN_1_3x5_LFCN_1_3x5_0_split_0
I0124 16:49:45.493338 30596 net.cpp:408] LFCN_1_3x5_LFCN_1_3x5_0_split -> LFCN_1_3x5_LFCN_1_3x5_0_split_1
I0124 16:49:45.493347 30596 net.cpp:408] LFCN_1_3x5_LFCN_1_3x5_0_split -> LFCN_1_3x5_LFCN_1_3x5_0_split_2
I0124 16:49:45.493392 30596 net.cpp:150] Setting up LFCN_1_3x5_LFCN_1_3x5_0_split
I0124 16:49:45.493399 30596 net.cpp:157] Top shape: 4 7 72 96 (193536)
I0124 16:49:45.493403 30596 net.cpp:157] Top shape: 4 7 72 96 (193536)
I0124 16:49:45.493409 30596 net.cpp:157] Top shape: 4 7 72 96 (193536)
I0124 16:49:45.493413 30596 net.cpp:165] Memory required for data: 4361254300
I0124 16:49:45.493417 30596 layer_factory.hpp:77] Creating layer detection_loss_1_3x5
I0124 16:49:45.493429 30596 net.cpp:100] Creating Layer detection_loss_1_3x5
I0124 16:49:45.493433 30596 net.cpp:434] detection_loss_1_3x5 <- LFCN_1_3x5_LFCN_1_3x5_0_split_0
I0124 16:49:45.493439 30596 net.cpp:434] detection_loss_1_3x5 <- label_1_3x5_data_1_split_0
I0124 16:49:45.493448 30596 net.cpp:408] detection_loss_1_3x5 -> loss_1_3x5
I0124 16:49:45.493460 30596 layer_factory.hpp:77] Creating layer detection_loss_1_3x5
I0124 16:49:45.495108 30596 net.cpp:150] Setting up detection_loss_1_3x5
I0124 16:49:45.495121 30596 net.cpp:157] Top shape: 1 1 1 2 (2)
I0124 16:49:45.495126 30596 net.cpp:160]     with loss weight 0.5
I0124 16:49:45.495151 30596 net.cpp:165] Memory required for data: 4361254308
I0124 16:49:45.495156 30596 layer_factory.hpp:77] Creating layer detection_accuracy_1_3x5
I0124 16:49:45.495167 30596 net.cpp:100] Creating Layer detection_accuracy_1_3x5
I0124 16:49:45.495170 30596 net.cpp:434] detection_accuracy_1_3x5 <- LFCN_1_3x5_LFCN_1_3x5_0_split_1
I0124 16:49:45.495177 30596 net.cpp:434] detection_accuracy_1_3x5 <- label_1_3x5_data_1_split_1
I0124 16:49:45.495184 30596 net.cpp:408] detection_accuracy_1_3x5 -> accuracy_1_3x5
I0124 16:49:45.495195 30596 net.cpp:408] detection_accuracy_1_3x5 -> boxiou_1_3x5
I0124 16:49:45.495232 30596 net.cpp:150] Setting up detection_accuracy_1_3x5
I0124 16:49:45.495239 30596 net.cpp:157] Top shape: 1 1 1 2 (2)
I0124 16:49:45.495244 30596 net.cpp:157] Top shape: 1 1 1 1 (1)
I0124 16:49:45.495249 30596 net.cpp:165] Memory required for data: 4361254320
I0124 16:49:45.495251 30596 layer_factory.hpp:77] Creating layer LFCN_1_5x7
I0124 16:49:45.495261 30596 net.cpp:100] Creating Layer LFCN_1_5x7
I0124 16:49:45.495265 30596 net.cpp:434] LFCN_1_5x7 <- loss1_conv1_loss_relu1_0_split_1
I0124 16:49:45.495273 30596 net.cpp:408] LFCN_1_5x7 -> LFCN_1_5x7
I0124 16:49:45.505563 30596 net.cpp:150] Setting up LFCN_1_5x7
I0124 16:49:45.505591 30596 net.cpp:157] Top shape: 4 7 72 96 (193536)
I0124 16:49:45.505595 30596 net.cpp:165] Memory required for data: 4362028464
I0124 16:49:45.505609 30596 layer_factory.hpp:77] Creating layer LFCN_1_5x7_LFCN_1_5x7_0_split
I0124 16:49:45.505621 30596 net.cpp:100] Creating Layer LFCN_1_5x7_LFCN_1_5x7_0_split
I0124 16:49:45.505628 30596 net.cpp:434] LFCN_1_5x7_LFCN_1_5x7_0_split <- LFCN_1_5x7
I0124 16:49:45.505638 30596 net.cpp:408] LFCN_1_5x7_LFCN_1_5x7_0_split -> LFCN_1_5x7_LFCN_1_5x7_0_split_0
I0124 16:49:45.505650 30596 net.cpp:408] LFCN_1_5x7_LFCN_1_5x7_0_split -> LFCN_1_5x7_LFCN_1_5x7_0_split_1
I0124 16:49:45.505658 30596 net.cpp:408] LFCN_1_5x7_LFCN_1_5x7_0_split -> LFCN_1_5x7_LFCN_1_5x7_0_split_2
I0124 16:49:45.505712 30596 net.cpp:150] Setting up LFCN_1_5x7_LFCN_1_5x7_0_split
I0124 16:49:45.505719 30596 net.cpp:157] Top shape: 4 7 72 96 (193536)
I0124 16:49:45.505724 30596 net.cpp:157] Top shape: 4 7 72 96 (193536)
I0124 16:49:45.505728 30596 net.cpp:157] Top shape: 4 7 72 96 (193536)
I0124 16:49:45.505733 30596 net.cpp:165] Memory required for data: 4364350896
I0124 16:49:45.505736 30596 layer_factory.hpp:77] Creating layer detection_loss_1_5x7
I0124 16:49:45.505744 30596 net.cpp:100] Creating Layer detection_loss_1_5x7
I0124 16:49:45.505749 30596 net.cpp:434] detection_loss_1_5x7 <- LFCN_1_5x7_LFCN_1_5x7_0_split_0
I0124 16:49:45.505754 30596 net.cpp:434] detection_loss_1_5x7 <- label_1_5x7_data_2_split_0
I0124 16:49:45.505762 30596 net.cpp:408] detection_loss_1_5x7 -> loss_1_5x7
I0124 16:49:45.505772 30596 layer_factory.hpp:77] Creating layer detection_loss_1_5x7
I0124 16:49:45.506162 30596 net.cpp:150] Setting up detection_loss_1_5x7
I0124 16:49:45.506173 30596 net.cpp:157] Top shape: 1 1 1 2 (2)
I0124 16:49:45.506177 30596 net.cpp:160]     with loss weight 0.9
I0124 16:49:45.506191 30596 net.cpp:165] Memory required for data: 4364350904
I0124 16:49:45.506194 30596 layer_factory.hpp:77] Creating layer detection_accuracy_1_5x7
I0124 16:49:45.506202 30596 net.cpp:100] Creating Layer detection_accuracy_1_5x7
I0124 16:49:45.506207 30596 net.cpp:434] detection_accuracy_1_5x7 <- LFCN_1_5x7_LFCN_1_5x7_0_split_1
I0124 16:49:45.506212 30596 net.cpp:434] detection_accuracy_1_5x7 <- label_1_5x7_data_2_split_1
I0124 16:49:45.506219 30596 net.cpp:408] detection_accuracy_1_5x7 -> accuracy_1_5x7
I0124 16:49:45.506229 30596 net.cpp:408] detection_accuracy_1_5x7 -> boxiou_1_5x7
I0124 16:49:45.506273 30596 net.cpp:150] Setting up detection_accuracy_1_5x7
I0124 16:49:45.506280 30596 net.cpp:157] Top shape: 1 1 1 2 (2)
I0124 16:49:45.506285 30596 net.cpp:157] Top shape: 1 1 1 1 (1)
I0124 16:49:45.506289 30596 net.cpp:165] Memory required for data: 4364350916
I0124 16:49:45.506294 30596 layer_factory.hpp:77] Creating layer pool4
I0124 16:49:45.506300 30596 net.cpp:100] Creating Layer pool4
I0124 16:49:45.506305 30596 net.cpp:434] pool4 <- conv4_3_relu4_3_0_split_1
I0124 16:49:45.506311 30596 net.cpp:408] pool4 -> pool4
I0124 16:49:45.506350 30596 net.cpp:150] Setting up pool4
I0124 16:49:45.506357 30596 net.cpp:157] Top shape: 4 512 36 48 (3538944)
I0124 16:49:45.506361 30596 net.cpp:165] Memory required for data: 4378506692
I0124 16:49:45.506366 30596 layer_factory.hpp:77] Creating layer conv5_1
I0124 16:49:45.506373 30596 net.cpp:100] Creating Layer conv5_1
I0124 16:49:45.506378 30596 net.cpp:434] conv5_1 <- pool4
I0124 16:49:45.506386 30596 net.cpp:408] conv5_1 -> conv5_1
I0124 16:49:45.523870 30596 net.cpp:150] Setting up conv5_1
I0124 16:49:45.523900 30596 net.cpp:157] Top shape: 4 512 36 48 (3538944)
I0124 16:49:45.523903 30596 net.cpp:165] Memory required for data: 4392662468
I0124 16:49:45.523916 30596 layer_factory.hpp:77] Creating layer relu5_1
I0124 16:49:45.523931 30596 net.cpp:100] Creating Layer relu5_1
I0124 16:49:45.523972 30596 net.cpp:434] relu5_1 <- conv5_1
I0124 16:49:45.523991 30596 net.cpp:395] relu5_1 -> conv5_1 (in-place)
I0124 16:49:45.524271 30596 net.cpp:150] Setting up relu5_1
I0124 16:49:45.524286 30596 net.cpp:157] Top shape: 4 512 36 48 (3538944)
I0124 16:49:45.524289 30596 net.cpp:165] Memory required for data: 4406818244
I0124 16:49:45.524296 30596 layer_factory.hpp:77] Creating layer conv5_2
I0124 16:49:45.524308 30596 net.cpp:100] Creating Layer conv5_2
I0124 16:49:45.524319 30596 net.cpp:434] conv5_2 <- conv5_1
I0124 16:49:45.524329 30596 net.cpp:408] conv5_2 -> conv5_2
I0124 16:49:45.545711 30596 net.cpp:150] Setting up conv5_2
I0124 16:49:45.545738 30596 net.cpp:157] Top shape: 4 512 36 48 (3538944)
I0124 16:49:45.545742 30596 net.cpp:165] Memory required for data: 4420974020
I0124 16:49:45.545753 30596 layer_factory.hpp:77] Creating layer relu5_2
I0124 16:49:45.545766 30596 net.cpp:100] Creating Layer relu5_2
I0124 16:49:45.545783 30596 net.cpp:434] relu5_2 <- conv5_2
I0124 16:49:45.545791 30596 net.cpp:395] relu5_2 -> conv5_2 (in-place)
I0124 16:49:45.546108 30596 net.cpp:150] Setting up relu5_2
I0124 16:49:45.546135 30596 net.cpp:157] Top shape: 4 512 36 48 (3538944)
I0124 16:49:45.546144 30596 net.cpp:165] Memory required for data: 4435129796
I0124 16:49:45.546988 30596 layer_factory.hpp:77] Creating layer conv5_3
I0124 16:49:45.547044 30596 net.cpp:100] Creating Layer conv5_3
I0124 16:49:45.547051 30596 net.cpp:434] conv5_3 <- conv5_2
I0124 16:49:45.547062 30596 net.cpp:408] conv5_3 -> conv5_3
I0124 16:49:45.569290 30596 net.cpp:150] Setting up conv5_3
I0124 16:49:45.569342 30596 net.cpp:157] Top shape: 4 512 36 48 (3538944)
I0124 16:49:45.569345 30596 net.cpp:165] Memory required for data: 4449285572
I0124 16:49:45.569355 30596 layer_factory.hpp:77] Creating layer relu5_3
I0124 16:49:45.569365 30596 net.cpp:100] Creating Layer relu5_3
I0124 16:49:45.569370 30596 net.cpp:434] relu5_3 <- conv5_3
I0124 16:49:45.569380 30596 net.cpp:395] relu5_3 -> conv5_3 (in-place)
I0124 16:49:45.569553 30596 net.cpp:150] Setting up relu5_3
I0124 16:49:45.569562 30596 net.cpp:157] Top shape: 4 512 36 48 (3538944)
I0124 16:49:45.569566 30596 net.cpp:165] Memory required for data: 4463441348
I0124 16:49:45.569567 30596 layer_factory.hpp:77] Creating layer conv5_3_relu5_3_0_split
I0124 16:49:45.569573 30596 net.cpp:100] Creating Layer conv5_3_relu5_3_0_split
I0124 16:49:45.569577 30596 net.cpp:434] conv5_3_relu5_3_0_split <- conv5_3
I0124 16:49:45.569586 30596 net.cpp:408] conv5_3_relu5_3_0_split -> conv5_3_relu5_3_0_split_0
I0124 16:49:45.569599 30596 net.cpp:408] conv5_3_relu5_3_0_split -> conv5_3_relu5_3_0_split_1
I0124 16:49:45.569612 30596 net.cpp:408] conv5_3_relu5_3_0_split -> conv5_3_relu5_3_0_split_2
I0124 16:49:45.569667 30596 net.cpp:150] Setting up conv5_3_relu5_3_0_split
I0124 16:49:45.569674 30596 net.cpp:157] Top shape: 4 512 36 48 (3538944)
I0124 16:49:45.569677 30596 net.cpp:157] Top shape: 4 512 36 48 (3538944)
I0124 16:49:45.569680 30596 net.cpp:157] Top shape: 4 512 36 48 (3538944)
I0124 16:49:45.569681 30596 net.cpp:165] Memory required for data: 4505908676
I0124 16:49:45.569684 30596 layer_factory.hpp:77] Creating layer LFCN_2_3x5
I0124 16:49:45.569699 30596 net.cpp:100] Creating Layer LFCN_2_3x5
I0124 16:49:45.569705 30596 net.cpp:434] LFCN_2_3x5 <- conv5_3_relu5_3_0_split_0
I0124 16:49:45.569713 30596 net.cpp:408] LFCN_2_3x5 -> LFCN_2_3x5
I0124 16:49:45.572614 30596 net.cpp:150] Setting up LFCN_2_3x5
I0124 16:49:45.572639 30596 net.cpp:157] Top shape: 4 7 36 48 (48384)
I0124 16:49:45.572641 30596 net.cpp:165] Memory required for data: 4506102212
I0124 16:49:45.572659 30596 layer_factory.hpp:77] Creating layer LFCN_2_3x5_LFCN_2_3x5_0_split
I0124 16:49:45.572667 30596 net.cpp:100] Creating Layer LFCN_2_3x5_LFCN_2_3x5_0_split
I0124 16:49:45.572674 30596 net.cpp:434] LFCN_2_3x5_LFCN_2_3x5_0_split <- LFCN_2_3x5
I0124 16:49:45.572685 30596 net.cpp:408] LFCN_2_3x5_LFCN_2_3x5_0_split -> LFCN_2_3x5_LFCN_2_3x5_0_split_0
I0124 16:49:45.572715 30596 net.cpp:408] LFCN_2_3x5_LFCN_2_3x5_0_split -> LFCN_2_3x5_LFCN_2_3x5_0_split_1
I0124 16:49:45.572727 30596 net.cpp:408] LFCN_2_3x5_LFCN_2_3x5_0_split -> LFCN_2_3x5_LFCN_2_3x5_0_split_2
I0124 16:49:45.572784 30596 net.cpp:150] Setting up LFCN_2_3x5_LFCN_2_3x5_0_split
I0124 16:49:45.572793 30596 net.cpp:157] Top shape: 4 7 36 48 (48384)
I0124 16:49:45.572796 30596 net.cpp:157] Top shape: 4 7 36 48 (48384)
I0124 16:49:45.572800 30596 net.cpp:157] Top shape: 4 7 36 48 (48384)
I0124 16:49:45.572803 30596 net.cpp:165] Memory required for data: 4506682820
I0124 16:49:45.572808 30596 layer_factory.hpp:77] Creating layer detection_loss_2_3x5
I0124 16:49:45.572818 30596 net.cpp:100] Creating Layer detection_loss_2_3x5
I0124 16:49:45.572824 30596 net.cpp:434] detection_loss_2_3x5 <- LFCN_2_3x5_LFCN_2_3x5_0_split_0
I0124 16:49:45.572829 30596 net.cpp:434] detection_loss_2_3x5 <- label_2_3x5_data_3_split_0
I0124 16:49:45.572839 30596 net.cpp:408] detection_loss_2_3x5 -> loss_2_3x5
I0124 16:49:45.572852 30596 layer_factory.hpp:77] Creating layer detection_loss_2_3x5
I0124 16:49:45.573495 30596 net.cpp:150] Setting up detection_loss_2_3x5
I0124 16:49:45.573508 30596 net.cpp:157] Top shape: 1 1 1 2 (2)
I0124 16:49:45.573510 30596 net.cpp:160]     with loss weight 1
I0124 16:49:45.573523 30596 net.cpp:165] Memory required for data: 4506682828
I0124 16:49:45.573529 30596 layer_factory.hpp:77] Creating layer detection_accuracy_2_3x5
I0124 16:49:45.573542 30596 net.cpp:100] Creating Layer detection_accuracy_2_3x5
I0124 16:49:45.573549 30596 net.cpp:434] detection_accuracy_2_3x5 <- LFCN_2_3x5_LFCN_2_3x5_0_split_1
I0124 16:49:45.573557 30596 net.cpp:434] detection_accuracy_2_3x5 <- label_2_3x5_data_3_split_1
I0124 16:49:45.573568 30596 net.cpp:408] detection_accuracy_2_3x5 -> accuracy_2_3x5
I0124 16:49:45.573578 30596 net.cpp:408] detection_accuracy_2_3x5 -> boxiou_2_3x5
I0124 16:49:45.573621 30596 net.cpp:150] Setting up detection_accuracy_2_3x5
I0124 16:49:45.573626 30596 net.cpp:157] Top shape: 1 1 1 2 (2)
I0124 16:49:45.573631 30596 net.cpp:157] Top shape: 1 1 1 1 (1)
I0124 16:49:45.573632 30596 net.cpp:165] Memory required for data: 4506682840
I0124 16:49:45.573634 30596 layer_factory.hpp:77] Creating layer LFCN_2_5x7
I0124 16:49:45.573643 30596 net.cpp:100] Creating Layer LFCN_2_5x7
I0124 16:49:45.573647 30596 net.cpp:434] LFCN_2_5x7 <- conv5_3_relu5_3_0_split_1
I0124 16:49:45.573653 30596 net.cpp:408] LFCN_2_5x7 -> LFCN_2_5x7
I0124 16:49:45.576488 30596 net.cpp:150] Setting up LFCN_2_5x7
I0124 16:49:45.576521 30596 net.cpp:157] Top shape: 4 7 36 48 (48384)
I0124 16:49:45.576526 30596 net.cpp:165] Memory required for data: 4506876376
I0124 16:49:45.576539 30596 layer_factory.hpp:77] Creating layer LFCN_2_5x7_LFCN_2_5x7_0_split
I0124 16:49:45.576555 30596 net.cpp:100] Creating Layer LFCN_2_5x7_LFCN_2_5x7_0_split
I0124 16:49:45.576562 30596 net.cpp:434] LFCN_2_5x7_LFCN_2_5x7_0_split <- LFCN_2_5x7
I0124 16:49:45.576577 30596 net.cpp:408] LFCN_2_5x7_LFCN_2_5x7_0_split -> LFCN_2_5x7_LFCN_2_5x7_0_split_0
I0124 16:49:45.576591 30596 net.cpp:408] LFCN_2_5x7_LFCN_2_5x7_0_split -> LFCN_2_5x7_LFCN_2_5x7_0_split_1
I0124 16:49:45.576596 30596 net.cpp:408] LFCN_2_5x7_LFCN_2_5x7_0_split -> LFCN_2_5x7_LFCN_2_5x7_0_split_2
I0124 16:49:45.576668 30596 net.cpp:150] Setting up LFCN_2_5x7_LFCN_2_5x7_0_split
I0124 16:49:45.576678 30596 net.cpp:157] Top shape: 4 7 36 48 (48384)
I0124 16:49:45.576684 30596 net.cpp:157] Top shape: 4 7 36 48 (48384)
I0124 16:49:45.576689 30596 net.cpp:157] Top shape: 4 7 36 48 (48384)
I0124 16:49:45.576692 30596 net.cpp:165] Memory required for data: 4507456984
I0124 16:49:45.576696 30596 layer_factory.hpp:77] Creating layer detection_loss_2_5x7
I0124 16:49:45.576712 30596 net.cpp:100] Creating Layer detection_loss_2_5x7
I0124 16:49:45.576719 30596 net.cpp:434] detection_loss_2_5x7 <- LFCN_2_5x7_LFCN_2_5x7_0_split_0
I0124 16:49:45.576726 30596 net.cpp:434] detection_loss_2_5x7 <- label_2_5x7_data_4_split_0
I0124 16:49:45.576736 30596 net.cpp:408] detection_loss_2_5x7 -> loss_2_5x7
I0124 16:49:45.576750 30596 layer_factory.hpp:77] Creating layer detection_loss_2_5x7
I0124 16:49:45.578071 30596 net.cpp:150] Setting up detection_loss_2_5x7
I0124 16:49:45.578088 30596 net.cpp:157] Top shape: 1 1 1 2 (2)
I0124 16:49:45.578089 30596 net.cpp:160]     with loss weight 1
I0124 16:49:45.578104 30596 net.cpp:165] Memory required for data: 4507456992
I0124 16:49:45.578109 30596 layer_factory.hpp:77] Creating layer detection_accuracy_2_5x7
I0124 16:49:45.578119 30596 net.cpp:100] Creating Layer detection_accuracy_2_5x7
I0124 16:49:45.578125 30596 net.cpp:434] detection_accuracy_2_5x7 <- LFCN_2_5x7_LFCN_2_5x7_0_split_1
I0124 16:49:45.578135 30596 net.cpp:434] detection_accuracy_2_5x7 <- label_2_5x7_data_4_split_1
I0124 16:49:45.578145 30596 net.cpp:408] detection_accuracy_2_5x7 -> accuracy_2_5x7
I0124 16:49:45.578157 30596 net.cpp:408] detection_accuracy_2_5x7 -> boxiou_2_5x7
I0124 16:49:45.578204 30596 net.cpp:150] Setting up detection_accuracy_2_5x7
I0124 16:49:45.578212 30596 net.cpp:157] Top shape: 1 1 1 2 (2)
I0124 16:49:45.578217 30596 net.cpp:157] Top shape: 1 1 1 1 (1)
I0124 16:49:45.578222 30596 net.cpp:165] Memory required for data: 4507457004
I0124 16:49:45.578227 30596 layer_factory.hpp:77] Creating layer pool5
I0124 16:49:45.578236 30596 net.cpp:100] Creating Layer pool5
I0124 16:49:45.578243 30596 net.cpp:434] pool5 <- conv5_3_relu5_3_0_split_2
I0124 16:49:45.578249 30596 net.cpp:408] pool5 -> pool5
I0124 16:49:45.578296 30596 net.cpp:150] Setting up pool5
I0124 16:49:45.578302 30596 net.cpp:157] Top shape: 4 512 18 24 (884736)
I0124 16:49:45.578305 30596 net.cpp:165] Memory required for data: 4510995948
I0124 16:49:45.578307 30596 layer_factory.hpp:77] Creating layer conv6_1
I0124 16:49:45.578325 30596 net.cpp:100] Creating Layer conv6_1
I0124 16:49:45.578330 30596 net.cpp:434] conv6_1 <- pool5
I0124 16:49:45.578338 30596 net.cpp:408] conv6_1 -> conv6_1
I0124 16:49:45.599293 30596 net.cpp:150] Setting up conv6_1
I0124 16:49:45.599320 30596 net.cpp:157] Top shape: 4 512 18 24 (884736)
I0124 16:49:45.599323 30596 net.cpp:165] Memory required for data: 4514534892
I0124 16:49:45.599331 30596 layer_factory.hpp:77] Creating layer relu6_1
I0124 16:49:45.599340 30596 net.cpp:100] Creating Layer relu6_1
I0124 16:49:45.599345 30596 net.cpp:434] relu6_1 <- conv6_1
I0124 16:49:45.599355 30596 net.cpp:395] relu6_1 -> conv6_1 (in-place)
I0124 16:49:45.599514 30596 net.cpp:150] Setting up relu6_1
I0124 16:49:45.599521 30596 net.cpp:157] Top shape: 4 512 18 24 (884736)
I0124 16:49:45.599524 30596 net.cpp:165] Memory required for data: 4518073836
I0124 16:49:45.599529 30596 layer_factory.hpp:77] Creating layer conv6_1_relu6_1_0_split
I0124 16:49:45.599537 30596 net.cpp:100] Creating Layer conv6_1_relu6_1_0_split
I0124 16:49:45.599544 30596 net.cpp:434] conv6_1_relu6_1_0_split <- conv6_1
I0124 16:49:45.599553 30596 net.cpp:408] conv6_1_relu6_1_0_split -> conv6_1_relu6_1_0_split_0
I0124 16:49:45.599565 30596 net.cpp:408] conv6_1_relu6_1_0_split -> conv6_1_relu6_1_0_split_1
I0124 16:49:45.599572 30596 net.cpp:408] conv6_1_relu6_1_0_split -> conv6_1_relu6_1_0_split_2
I0124 16:49:45.599624 30596 net.cpp:150] Setting up conv6_1_relu6_1_0_split
I0124 16:49:45.599630 30596 net.cpp:157] Top shape: 4 512 18 24 (884736)
I0124 16:49:45.599633 30596 net.cpp:157] Top shape: 4 512 18 24 (884736)
I0124 16:49:45.599635 30596 net.cpp:157] Top shape: 4 512 18 24 (884736)
I0124 16:49:45.599637 30596 net.cpp:165] Memory required for data: 4528690668
I0124 16:49:45.599640 30596 layer_factory.hpp:77] Creating layer LFCN_3_3x5
I0124 16:49:45.599651 30596 net.cpp:100] Creating Layer LFCN_3_3x5
I0124 16:49:45.599654 30596 net.cpp:434] LFCN_3_3x5 <- conv6_1_relu6_1_0_split_0
I0124 16:49:45.599661 30596 net.cpp:408] LFCN_3_3x5 -> LFCN_3_3x5
I0124 16:49:45.602167 30596 net.cpp:150] Setting up LFCN_3_3x5
I0124 16:49:45.602193 30596 net.cpp:157] Top shape: 4 7 18 24 (12096)
I0124 16:49:45.602196 30596 net.cpp:165] Memory required for data: 4528739052
I0124 16:49:45.602205 30596 layer_factory.hpp:77] Creating layer LFCN_3_3x5_LFCN_3_3x5_0_split
I0124 16:49:45.602234 30596 net.cpp:100] Creating Layer LFCN_3_3x5_LFCN_3_3x5_0_split
I0124 16:49:45.602242 30596 net.cpp:434] LFCN_3_3x5_LFCN_3_3x5_0_split <- LFCN_3_3x5
I0124 16:49:45.602254 30596 net.cpp:408] LFCN_3_3x5_LFCN_3_3x5_0_split -> LFCN_3_3x5_LFCN_3_3x5_0_split_0
I0124 16:49:45.602267 30596 net.cpp:408] LFCN_3_3x5_LFCN_3_3x5_0_split -> LFCN_3_3x5_LFCN_3_3x5_0_split_1
I0124 16:49:45.602277 30596 net.cpp:408] LFCN_3_3x5_LFCN_3_3x5_0_split -> LFCN_3_3x5_LFCN_3_3x5_0_split_2
I0124 16:49:45.602332 30596 net.cpp:150] Setting up LFCN_3_3x5_LFCN_3_3x5_0_split
I0124 16:49:45.602337 30596 net.cpp:157] Top shape: 4 7 18 24 (12096)
I0124 16:49:45.602339 30596 net.cpp:157] Top shape: 4 7 18 24 (12096)
I0124 16:49:45.602342 30596 net.cpp:157] Top shape: 4 7 18 24 (12096)
I0124 16:49:45.602344 30596 net.cpp:165] Memory required for data: 4528884204
I0124 16:49:45.602346 30596 layer_factory.hpp:77] Creating layer detection_loss_3_3x5
I0124 16:49:45.602354 30596 net.cpp:100] Creating Layer detection_loss_3_3x5
I0124 16:49:45.602356 30596 net.cpp:434] detection_loss_3_3x5 <- LFCN_3_3x5_LFCN_3_3x5_0_split_0
I0124 16:49:45.602360 30596 net.cpp:434] detection_loss_3_3x5 <- label_3_3x5_data_5_split_0
I0124 16:49:45.602365 30596 net.cpp:408] detection_loss_3_3x5 -> loss_3_3x5
I0124 16:49:45.602375 30596 layer_factory.hpp:77] Creating layer detection_loss_3_3x5
I0124 16:49:45.602656 30596 net.cpp:150] Setting up detection_loss_3_3x5
I0124 16:49:45.602663 30596 net.cpp:157] Top shape: 1 1 1 2 (2)
I0124 16:49:45.602665 30596 net.cpp:160]     with loss weight 1
I0124 16:49:45.602674 30596 net.cpp:165] Memory required for data: 4528884212
I0124 16:49:45.602676 30596 layer_factory.hpp:77] Creating layer detection_accuracy_3_3x5
I0124 16:49:45.602681 30596 net.cpp:100] Creating Layer detection_accuracy_3_3x5
I0124 16:49:45.602684 30596 net.cpp:434] detection_accuracy_3_3x5 <- LFCN_3_3x5_LFCN_3_3x5_0_split_1
I0124 16:49:45.602687 30596 net.cpp:434] detection_accuracy_3_3x5 <- label_3_3x5_data_5_split_1
I0124 16:49:45.602694 30596 net.cpp:408] detection_accuracy_3_3x5 -> accuracy_3_3x5
I0124 16:49:45.602700 30596 net.cpp:408] detection_accuracy_3_3x5 -> boxiou_3_3x5
I0124 16:49:45.602737 30596 net.cpp:150] Setting up detection_accuracy_3_3x5
I0124 16:49:45.602741 30596 net.cpp:157] Top shape: 1 1 1 2 (2)
I0124 16:49:45.602744 30596 net.cpp:157] Top shape: 1 1 1 1 (1)
I0124 16:49:45.602746 30596 net.cpp:165] Memory required for data: 4528884224
I0124 16:49:45.602747 30596 layer_factory.hpp:77] Creating layer LFCN_3_5x7
I0124 16:49:45.602758 30596 net.cpp:100] Creating Layer LFCN_3_5x7
I0124 16:49:45.602762 30596 net.cpp:434] LFCN_3_5x7 <- conv6_1_relu6_1_0_split_1
I0124 16:49:45.602768 30596 net.cpp:408] LFCN_3_5x7 -> LFCN_3_5x7
I0124 16:49:45.604817 30596 net.cpp:150] Setting up LFCN_3_5x7
I0124 16:49:45.604840 30596 net.cpp:157] Top shape: 4 7 18 24 (12096)
I0124 16:49:45.604842 30596 net.cpp:165] Memory required for data: 4528932608
I0124 16:49:45.604849 30596 layer_factory.hpp:77] Creating layer LFCN_3_5x7_LFCN_3_5x7_0_split
I0124 16:49:45.604856 30596 net.cpp:100] Creating Layer LFCN_3_5x7_LFCN_3_5x7_0_split
I0124 16:49:45.604861 30596 net.cpp:434] LFCN_3_5x7_LFCN_3_5x7_0_split <- LFCN_3_5x7
I0124 16:49:45.604867 30596 net.cpp:408] LFCN_3_5x7_LFCN_3_5x7_0_split -> LFCN_3_5x7_LFCN_3_5x7_0_split_0
I0124 16:49:45.604876 30596 net.cpp:408] LFCN_3_5x7_LFCN_3_5x7_0_split -> LFCN_3_5x7_LFCN_3_5x7_0_split_1
I0124 16:49:45.604881 30596 net.cpp:408] LFCN_3_5x7_LFCN_3_5x7_0_split -> LFCN_3_5x7_LFCN_3_5x7_0_split_2
I0124 16:49:45.604925 30596 net.cpp:150] Setting up LFCN_3_5x7_LFCN_3_5x7_0_split
I0124 16:49:45.604930 30596 net.cpp:157] Top shape: 4 7 18 24 (12096)
I0124 16:49:45.604933 30596 net.cpp:157] Top shape: 4 7 18 24 (12096)
I0124 16:49:45.604934 30596 net.cpp:157] Top shape: 4 7 18 24 (12096)
I0124 16:49:45.604936 30596 net.cpp:165] Memory required for data: 4529077760
I0124 16:49:45.604939 30596 layer_factory.hpp:77] Creating layer detection_loss_3_5x7
I0124 16:49:45.604945 30596 net.cpp:100] Creating Layer detection_loss_3_5x7
I0124 16:49:45.604948 30596 net.cpp:434] detection_loss_3_5x7 <- LFCN_3_5x7_LFCN_3_5x7_0_split_0
I0124 16:49:45.604952 30596 net.cpp:434] detection_loss_3_5x7 <- label_3_5x7_data_6_split_0
I0124 16:49:45.604956 30596 net.cpp:408] detection_loss_3_5x7 -> loss_3_5x7
I0124 16:49:45.604964 30596 layer_factory.hpp:77] Creating layer detection_loss_3_5x7
I0124 16:49:45.605254 30596 net.cpp:150] Setting up detection_loss_3_5x7
I0124 16:49:45.605262 30596 net.cpp:157] Top shape: 1 1 1 2 (2)
I0124 16:49:45.605263 30596 net.cpp:160]     with loss weight 1
I0124 16:49:45.605270 30596 net.cpp:165] Memory required for data: 4529077768
I0124 16:49:45.605273 30596 layer_factory.hpp:77] Creating layer detection_accuracy_3_5x7
I0124 16:49:45.605279 30596 net.cpp:100] Creating Layer detection_accuracy_3_5x7
I0124 16:49:45.605283 30596 net.cpp:434] detection_accuracy_3_5x7 <- LFCN_3_5x7_LFCN_3_5x7_0_split_1
I0124 16:49:45.605285 30596 net.cpp:434] detection_accuracy_3_5x7 <- label_3_5x7_data_6_split_1
I0124 16:49:45.605290 30596 net.cpp:408] detection_accuracy_3_5x7 -> accuracy_3_5x7
I0124 16:49:45.605295 30596 net.cpp:408] detection_accuracy_3_5x7 -> boxiou_3_5x7
I0124 16:49:45.605360 30596 net.cpp:150] Setting up detection_accuracy_3_5x7
I0124 16:49:45.605367 30596 net.cpp:157] Top shape: 1 1 1 2 (2)
I0124 16:49:45.605372 30596 net.cpp:157] Top shape: 1 1 1 1 (1)
I0124 16:49:45.605376 30596 net.cpp:165] Memory required for data: 4529077780
I0124 16:49:45.605379 30596 layer_factory.hpp:77] Creating layer pool6
I0124 16:49:45.605386 30596 net.cpp:100] Creating Layer pool6
I0124 16:49:45.605391 30596 net.cpp:434] pool6 <- conv6_1_relu6_1_0_split_2
I0124 16:49:45.605399 30596 net.cpp:408] pool6 -> pool6
I0124 16:49:45.605448 30596 net.cpp:150] Setting up pool6
I0124 16:49:45.605455 30596 net.cpp:157] Top shape: 4 512 9 12 (221184)
I0124 16:49:45.605458 30596 net.cpp:165] Memory required for data: 4529962516
I0124 16:49:45.605463 30596 layer_factory.hpp:77] Creating layer LFCN_4_3x5
I0124 16:49:45.605478 30596 net.cpp:100] Creating Layer LFCN_4_3x5
I0124 16:49:45.605482 30596 net.cpp:434] LFCN_4_3x5 <- pool6
I0124 16:49:45.605490 30596 net.cpp:408] LFCN_4_3x5 -> LFCN_4_3x5
I0124 16:49:45.607094 30596 net.cpp:150] Setting up LFCN_4_3x5
I0124 16:49:45.607137 30596 net.cpp:157] Top shape: 4 7 9 12 (3024)
I0124 16:49:45.607151 30596 net.cpp:165] Memory required for data: 4529974612
I0124 16:49:45.607168 30596 layer_factory.hpp:77] Creating layer LFCN_4_3x5_LFCN_4_3x5_0_split
I0124 16:49:45.607185 30596 net.cpp:100] Creating Layer LFCN_4_3x5_LFCN_4_3x5_0_split
I0124 16:49:45.607199 30596 net.cpp:434] LFCN_4_3x5_LFCN_4_3x5_0_split <- LFCN_4_3x5
I0124 16:49:45.607218 30596 net.cpp:408] LFCN_4_3x5_LFCN_4_3x5_0_split -> LFCN_4_3x5_LFCN_4_3x5_0_split_0
I0124 16:49:45.607237 30596 net.cpp:408] LFCN_4_3x5_LFCN_4_3x5_0_split -> LFCN_4_3x5_LFCN_4_3x5_0_split_1
I0124 16:49:45.607256 30596 net.cpp:408] LFCN_4_3x5_LFCN_4_3x5_0_split -> LFCN_4_3x5_LFCN_4_3x5_0_split_2
I0124 16:49:45.607345 30596 net.cpp:150] Setting up LFCN_4_3x5_LFCN_4_3x5_0_split
I0124 16:49:45.607363 30596 net.cpp:157] Top shape: 4 7 9 12 (3024)
I0124 16:49:45.607376 30596 net.cpp:157] Top shape: 4 7 9 12 (3024)
I0124 16:49:45.607388 30596 net.cpp:157] Top shape: 4 7 9 12 (3024)
I0124 16:49:45.607398 30596 net.cpp:165] Memory required for data: 4530010900
I0124 16:49:45.607409 30596 layer_factory.hpp:77] Creating layer detection_loss_4_3x5
I0124 16:49:45.607424 30596 net.cpp:100] Creating Layer detection_loss_4_3x5
I0124 16:49:45.607436 30596 net.cpp:434] detection_loss_4_3x5 <- LFCN_4_3x5_LFCN_4_3x5_0_split_0
I0124 16:49:45.607450 30596 net.cpp:434] detection_loss_4_3x5 <- label_4_3x5_data_7_split_0
I0124 16:49:45.607467 30596 net.cpp:408] detection_loss_4_3x5 -> loss_4_3x5
I0124 16:49:45.607488 30596 layer_factory.hpp:77] Creating layer detection_loss_4_3x5
I0124 16:49:45.607918 30596 net.cpp:150] Setting up detection_loss_4_3x5
I0124 16:49:45.607949 30596 net.cpp:157] Top shape: 1 1 1 2 (2)
I0124 16:49:45.607962 30596 net.cpp:160]     with loss weight 1
I0124 16:49:45.607978 30596 net.cpp:165] Memory required for data: 4530010908
I0124 16:49:45.607983 30596 layer_factory.hpp:77] Creating layer detection_accuracy_4_3x5
I0124 16:49:45.607993 30596 net.cpp:100] Creating Layer detection_accuracy_4_3x5
I0124 16:49:45.608007 30596 net.cpp:434] detection_accuracy_4_3x5 <- LFCN_4_3x5_LFCN_4_3x5_0_split_1
I0124 16:49:45.608017 30596 net.cpp:434] detection_accuracy_4_3x5 <- label_4_3x5_data_7_split_1
I0124 16:49:45.608033 30596 net.cpp:408] detection_accuracy_4_3x5 -> accuracy_4_3x5
I0124 16:49:45.608045 30596 net.cpp:408] detection_accuracy_4_3x5 -> boxiou_4_3x5
I0124 16:49:45.608094 30596 net.cpp:150] Setting up detection_accuracy_4_3x5
I0124 16:49:45.608101 30596 net.cpp:157] Top shape: 1 1 1 2 (2)
I0124 16:49:45.608106 30596 net.cpp:157] Top shape: 1 1 1 1 (1)
I0124 16:49:45.608109 30596 net.cpp:165] Memory required for data: 4530010920
I0124 16:49:45.608113 30596 layer_factory.hpp:77] Creating layer proposals
I0124 16:49:45.608126 30596 net.cpp:100] Creating Layer proposals
I0124 16:49:45.608131 30596 net.cpp:434] proposals <- LFCN_1_3x5_LFCN_1_3x5_0_split_2
I0124 16:49:45.608139 30596 net.cpp:434] proposals <- LFCN_1_5x7_LFCN_1_5x7_0_split_2
I0124 16:49:45.608145 30596 net.cpp:434] proposals <- LFCN_2_3x5_LFCN_2_3x5_0_split_2
I0124 16:49:45.608150 30596 net.cpp:434] proposals <- LFCN_2_5x7_LFCN_2_5x7_0_split_2
I0124 16:49:45.608156 30596 net.cpp:434] proposals <- LFCN_3_3x5_LFCN_3_3x5_0_split_2
I0124 16:49:45.608162 30596 net.cpp:434] proposals <- LFCN_3_5x7_LFCN_3_5x7_0_split_2
I0124 16:49:45.608167 30596 net.cpp:434] proposals <- LFCN_4_3x5_LFCN_4_3x5_0_split_2
I0124 16:49:45.608176 30596 net.cpp:408] proposals -> proposals
I0124 16:49:45.608207 30596 net.cpp:150] Setting up proposals
I0124 16:49:45.608214 30596 net.cpp:157] Top shape: 1 5 1 1 (5)
I0124 16:49:45.608217 30596 net.cpp:165] Memory required for data: 4530010940
I0124 16:49:45.608229 30596 layer_factory.hpp:77] Creating layer proposal_info
I0124 16:49:45.608242 30596 net.cpp:100] Creating Layer proposal_info
I0124 16:49:45.608247 30596 net.cpp:434] proposal_info <- proposals
I0124 16:49:45.608259 30596 net.cpp:434] proposal_info <- gt_boxes
I0124 16:49:45.608270 30596 net.cpp:408] proposal_info -> rois
I0124 16:49:45.608284 30596 net.cpp:408] proposal_info -> proposal_labels
I0124 16:49:45.608296 30596 net.cpp:408] proposal_info -> proposal_targets
I0124 16:49:45.608306 30596 net.cpp:408] proposal_info -> box_inside_weights
I0124 16:49:45.608315 30596 net.cpp:408] proposal_info -> box_outside_weights
I0124 16:49:45.608325 30596 net.cpp:408] proposal_info -> match_gt_boxes
I0124 16:49:45.608410 30596 net.cpp:150] Setting up proposal_info
I0124 16:49:45.608417 30596 net.cpp:157] Top shape: 128 5 1 1 (640)
I0124 16:49:45.608422 30596 net.cpp:157] Top shape: 128 1 1 1 (128)
I0124 16:49:45.608428 30596 net.cpp:157] Top shape: 128 12 1 1 (1536)
I0124 16:49:45.608433 30596 net.cpp:157] Top shape: 128 12 1 1 (1536)
I0124 16:49:45.608438 30596 net.cpp:157] Top shape: 128 12 1 1 (1536)
I0124 16:49:45.608444 30596 net.cpp:157] Top shape: 128 6 1 1 (768)
I0124 16:49:45.608448 30596 net.cpp:165] Memory required for data: 4530035516
I0124 16:49:45.608453 30596 layer_factory.hpp:77] Creating layer rois_proposal_info_0_split
I0124 16:49:45.608463 30596 net.cpp:100] Creating Layer rois_proposal_info_0_split
I0124 16:49:45.608466 30596 net.cpp:434] rois_proposal_info_0_split <- rois
I0124 16:49:45.608474 30596 net.cpp:408] rois_proposal_info_0_split -> rois_proposal_info_0_split_0
I0124 16:49:45.608482 30596 net.cpp:408] rois_proposal_info_0_split -> rois_proposal_info_0_split_1
I0124 16:49:45.608491 30596 net.cpp:408] rois_proposal_info_0_split -> rois_proposal_info_0_split_2
I0124 16:49:45.608536 30596 net.cpp:150] Setting up rois_proposal_info_0_split
I0124 16:49:45.608541 30596 net.cpp:157] Top shape: 128 5 1 1 (640)
I0124 16:49:45.608554 30596 net.cpp:157] Top shape: 128 5 1 1 (640)
I0124 16:49:45.608558 30596 net.cpp:157] Top shape: 128 5 1 1 (640)
I0124 16:49:45.608562 30596 net.cpp:165] Memory required for data: 4530043196
I0124 16:49:45.608566 30596 layer_factory.hpp:77] Creating layer proposal_labels_proposal_info_1_split
I0124 16:49:45.608577 30596 net.cpp:100] Creating Layer proposal_labels_proposal_info_1_split
I0124 16:49:45.608580 30596 net.cpp:434] proposal_labels_proposal_info_1_split <- proposal_labels
I0124 16:49:45.608593 30596 net.cpp:408] proposal_labels_proposal_info_1_split -> proposal_labels_proposal_info_1_split_0
I0124 16:49:45.608603 30596 net.cpp:408] proposal_labels_proposal_info_1_split -> proposal_labels_proposal_info_1_split_1
I0124 16:49:45.608640 30596 net.cpp:150] Setting up proposal_labels_proposal_info_1_split
I0124 16:49:45.608647 30596 net.cpp:157] Top shape: 128 1 1 1 (128)
I0124 16:49:45.608651 30596 net.cpp:157] Top shape: 128 1 1 1 (128)
I0124 16:49:45.608655 30596 net.cpp:165] Memory required for data: 4530044220
I0124 16:49:45.608659 30596 layer_factory.hpp:77] Creating layer conv4_3_2x
I0124 16:49:45.608669 30596 net.cpp:100] Creating Layer conv4_3_2x
I0124 16:49:45.608674 30596 net.cpp:434] conv4_3_2x <- conv4_3_relu4_3_0_split_2
I0124 16:49:45.608690 30596 net.cpp:408] conv4_3_2x -> conv4_3_2x
I0124 16:49:45.609046 30596 net.cpp:150] Setting up conv4_3_2x
I0124 16:49:45.609055 30596 net.cpp:157] Top shape: 4 512 144 192 (56623104)
I0124 16:49:45.609058 30596 net.cpp:165] Memory required for data: 4756536636
I0124 16:49:45.609064 30596 layer_factory.hpp:77] Creating layer conv4_3_2x_conv4_3_2x_0_split
I0124 16:49:45.609071 30596 net.cpp:100] Creating Layer conv4_3_2x_conv4_3_2x_0_split
I0124 16:49:45.609076 30596 net.cpp:434] conv4_3_2x_conv4_3_2x_0_split <- conv4_3_2x
I0124 16:49:45.609081 30596 net.cpp:408] conv4_3_2x_conv4_3_2x_0_split -> conv4_3_2x_conv4_3_2x_0_split_0
I0124 16:49:45.609089 30596 net.cpp:408] conv4_3_2x_conv4_3_2x_0_split -> conv4_3_2x_conv4_3_2x_0_split_1
I0124 16:49:45.609127 30596 net.cpp:150] Setting up conv4_3_2x_conv4_3_2x_0_split
I0124 16:49:45.609134 30596 net.cpp:157] Top shape: 4 512 144 192 (56623104)
I0124 16:49:45.609139 30596 net.cpp:157] Top shape: 4 512 144 192 (56623104)
I0124 16:49:45.609143 30596 net.cpp:165] Memory required for data: 5209521468
I0124 16:49:45.609148 30596 layer_factory.hpp:77] Creating layer roi_pool_org
I0124 16:49:45.609158 30596 net.cpp:100] Creating Layer roi_pool_org
I0124 16:49:45.609161 30596 net.cpp:434] roi_pool_org <- conv4_3_2x_conv4_3_2x_0_split_0
I0124 16:49:45.609166 30596 net.cpp:434] roi_pool_org <- rois_proposal_info_0_split_0
I0124 16:49:45.609174 30596 net.cpp:408] roi_pool_org -> roi_pool_org
I0124 16:49:45.609184 30596 roi_pooling_layer.cpp:33] Spatial scale: 0.25
I0124 16:49:45.609226 30596 net.cpp:150] Setting up roi_pool_org
I0124 16:49:45.609233 30596 net.cpp:157] Top shape: 128 512 7 5 (2293760)
I0124 16:49:45.609237 30596 net.cpp:165] Memory required for data: 5218696508
I0124 16:49:45.609241 30596 layer_factory.hpp:77] Creating layer roi_pool_ctx
I0124 16:49:45.609249 30596 net.cpp:100] Creating Layer roi_pool_ctx
I0124 16:49:45.609253 30596 net.cpp:434] roi_pool_ctx <- conv4_3_2x_conv4_3_2x_0_split_1
I0124 16:49:45.609258 30596 net.cpp:434] roi_pool_ctx <- rois_proposal_info_0_split_1
I0124 16:49:45.609267 30596 net.cpp:408] roi_pool_ctx -> roi_pool_ctx
I0124 16:49:45.609274 30596 roi_pooling_layer.cpp:33] Spatial scale: 0.25
I0124 16:49:45.609328 30596 net.cpp:150] Setting up roi_pool_ctx
I0124 16:49:45.609338 30596 net.cpp:157] Top shape: 128 512 7 5 (2293760)
I0124 16:49:45.609342 30596 net.cpp:165] Memory required for data: 5227871548
I0124 16:49:45.609346 30596 layer_factory.hpp:77] Creating layer roi_pool
I0124 16:49:45.609354 30596 net.cpp:100] Creating Layer roi_pool
I0124 16:49:45.609359 30596 net.cpp:434] roi_pool <- roi_pool_org
I0124 16:49:45.609364 30596 net.cpp:434] roi_pool <- roi_pool_ctx
I0124 16:49:45.609370 30596 net.cpp:408] roi_pool -> roi_pool
I0124 16:49:45.609397 30596 net.cpp:150] Setting up roi_pool
I0124 16:49:45.609405 30596 net.cpp:157] Top shape: 128 1024 7 5 (4587520)
I0124 16:49:45.609407 30596 net.cpp:165] Memory required for data: 5246221628
I0124 16:49:45.609411 30596 layer_factory.hpp:77] Creating layer roi_c1
I0124 16:49:45.609422 30596 net.cpp:100] Creating Layer roi_c1
I0124 16:49:45.609427 30596 net.cpp:434] roi_c1 <- roi_pool
I0124 16:49:45.609436 30596 net.cpp:408] roi_c1 -> roi_c1
I0124 16:49:45.650384 30596 net.cpp:150] Setting up roi_c1
I0124 16:49:45.650408 30596 net.cpp:157] Top shape: 128 512 5 3 (983040)
I0124 16:49:45.650413 30596 net.cpp:165] Memory required for data: 5250153788
I0124 16:49:45.650424 30596 layer_factory.hpp:77] Creating layer roi_c1_relu
I0124 16:49:45.650439 30596 net.cpp:100] Creating Layer roi_c1_relu
I0124 16:49:45.650445 30596 net.cpp:434] roi_c1_relu <- roi_c1
I0124 16:49:45.650454 30596 net.cpp:395] roi_c1_relu -> roi_c1 (in-place)
I0124 16:49:45.650930 30596 net.cpp:150] Setting up roi_c1_relu
I0124 16:49:45.650941 30596 net.cpp:157] Top shape: 128 512 5 3 (983040)
I0124 16:49:45.650945 30596 net.cpp:165] Memory required for data: 5254085948
I0124 16:49:45.650950 30596 layer_factory.hpp:77] Creating layer fc6
I0124 16:49:45.650964 30596 net.cpp:100] Creating Layer fc6
I0124 16:49:45.650969 30596 net.cpp:434] fc6 <- roi_c1
I0124 16:49:45.650979 30596 net.cpp:408] fc6 -> fc6
I0124 16:49:45.777073 30596 net.cpp:150] Setting up fc6
I0124 16:49:45.777101 30596 net.cpp:157] Top shape: 128 2048 (262144)
I0124 16:49:45.777104 30596 net.cpp:165] Memory required for data: 5255134524
I0124 16:49:45.777117 30596 layer_factory.hpp:77] Creating layer relu6
I0124 16:49:45.777138 30596 net.cpp:100] Creating Layer relu6
I0124 16:49:45.777145 30596 net.cpp:434] relu6 <- fc6
I0124 16:49:45.777154 30596 net.cpp:395] relu6 -> fc6 (in-place)
I0124 16:49:45.777386 30596 net.cpp:150] Setting up relu6
I0124 16:49:45.777397 30596 net.cpp:157] Top shape: 128 2048 (262144)
I0124 16:49:45.777400 30596 net.cpp:165] Memory required for data: 5256183100
I0124 16:49:45.777405 30596 layer_factory.hpp:77] Creating layer drop6
I0124 16:49:45.777415 30596 net.cpp:100] Creating Layer drop6
I0124 16:49:45.777426 30596 net.cpp:434] drop6 <- fc6
I0124 16:49:45.777432 30596 net.cpp:395] drop6 -> fc6 (in-place)
I0124 16:49:45.777464 30596 net.cpp:150] Setting up drop6
I0124 16:49:45.777472 30596 net.cpp:157] Top shape: 128 2048 (262144)
I0124 16:49:45.777475 30596 net.cpp:165] Memory required for data: 5257231676
I0124 16:49:45.777478 30596 layer_factory.hpp:77] Creating layer fc6_drop6_0_split
I0124 16:49:45.777487 30596 net.cpp:100] Creating Layer fc6_drop6_0_split
I0124 16:49:45.777492 30596 net.cpp:434] fc6_drop6_0_split <- fc6
I0124 16:49:45.777500 30596 net.cpp:408] fc6_drop6_0_split -> fc6_drop6_0_split_0
I0124 16:49:45.777511 30596 net.cpp:408] fc6_drop6_0_split -> fc6_drop6_0_split_1
I0124 16:49:45.777549 30596 net.cpp:150] Setting up fc6_drop6_0_split
I0124 16:49:45.777555 30596 net.cpp:157] Top shape: 128 2048 (262144)
I0124 16:49:45.777560 30596 net.cpp:157] Top shape: 128 2048 (262144)
I0124 16:49:45.777565 30596 net.cpp:165] Memory required for data: 5259328828
I0124 16:49:45.777567 30596 layer_factory.hpp:77] Creating layer cls_pred
I0124 16:49:45.777578 30596 net.cpp:100] Creating Layer cls_pred
I0124 16:49:45.777582 30596 net.cpp:434] cls_pred <- fc6_drop6_0_split_0
I0124 16:49:45.777591 30596 net.cpp:408] cls_pred -> cls_pred
I0124 16:49:45.777740 30596 net.cpp:150] Setting up cls_pred
I0124 16:49:45.777746 30596 net.cpp:157] Top shape: 128 3 (384)
I0124 16:49:45.777750 30596 net.cpp:165] Memory required for data: 5259330364
I0124 16:49:45.777756 30596 layer_factory.hpp:77] Creating layer cls_pred_cls_pred_0_split
I0124 16:49:45.777763 30596 net.cpp:100] Creating Layer cls_pred_cls_pred_0_split
I0124 16:49:45.777768 30596 net.cpp:434] cls_pred_cls_pred_0_split <- cls_pred
I0124 16:49:45.777776 30596 net.cpp:408] cls_pred_cls_pred_0_split -> cls_pred_cls_pred_0_split_0
I0124 16:49:45.777786 30596 net.cpp:408] cls_pred_cls_pred_0_split -> cls_pred_cls_pred_0_split_1
I0124 16:49:45.777833 30596 net.cpp:150] Setting up cls_pred_cls_pred_0_split
I0124 16:49:45.777839 30596 net.cpp:157] Top shape: 128 3 (384)
I0124 16:49:45.777845 30596 net.cpp:157] Top shape: 128 3 (384)
I0124 16:49:45.777849 30596 net.cpp:165] Memory required for data: 5259333436
I0124 16:49:45.777853 30596 layer_factory.hpp:77] Creating layer bbox_pred
I0124 16:49:45.777860 30596 net.cpp:100] Creating Layer bbox_pred
I0124 16:49:45.777865 30596 net.cpp:434] bbox_pred <- fc6_drop6_0_split_1
I0124 16:49:45.777873 30596 net.cpp:408] bbox_pred -> bbox_pred
I0124 16:49:45.778148 30596 net.cpp:150] Setting up bbox_pred
I0124 16:49:45.778156 30596 net.cpp:157] Top shape: 128 12 (1536)
I0124 16:49:45.778158 30596 net.cpp:165] Memory required for data: 5259339580
I0124 16:49:45.778165 30596 layer_factory.hpp:77] Creating layer bbox_pred_bbox_pred_0_split
I0124 16:49:45.778172 30596 net.cpp:100] Creating Layer bbox_pred_bbox_pred_0_split
I0124 16:49:45.778177 30596 net.cpp:434] bbox_pred_bbox_pred_0_split <- bbox_pred
I0124 16:49:45.778184 30596 net.cpp:408] bbox_pred_bbox_pred_0_split -> bbox_pred_bbox_pred_0_split_0
I0124 16:49:45.778193 30596 net.cpp:408] bbox_pred_bbox_pred_0_split -> bbox_pred_bbox_pred_0_split_1
I0124 16:49:45.778226 30596 net.cpp:150] Setting up bbox_pred_bbox_pred_0_split
I0124 16:49:45.778232 30596 net.cpp:157] Top shape: 128 12 (1536)
I0124 16:49:45.778236 30596 net.cpp:157] Top shape: 128 12 (1536)
I0124 16:49:45.778240 30596 net.cpp:165] Memory required for data: 5259351868
I0124 16:49:45.778244 30596 layer_factory.hpp:77] Creating layer loss_cls
I0124 16:49:45.778251 30596 net.cpp:100] Creating Layer loss_cls
I0124 16:49:45.778255 30596 net.cpp:434] loss_cls <- cls_pred_cls_pred_0_split_0
I0124 16:49:45.778261 30596 net.cpp:434] loss_cls <- proposal_labels_proposal_info_1_split_0
…
I0124 16:49:45.795377 30596 image_gt_data_layer.cpp:235] output label size 2 : 2,6,36,48
I0124 16:49:45.795420 30596 image_gt_data_layer.cpp:235] output label size 3 : 2,6,36,48
I0124 16:49:45.795464 30596 image_gt_data_layer.cpp:235] output label size 4 : 2,6,18,24
I0124 16:49:45.795507 30596 image_gt_data_layer.cpp:235] output label size 5 : 2,6,18,24
I0124 16:49:45.795550 30596 image_gt_data_layer.cpp:235] output label size 6 : 2,6,9,12
I0124 16:49:45.795593 30596 image_gt_data_layer.cpp:250] output gt boxes size: 1,7,1,1
I0124 16:49:45.815316 30596 net.cpp:150] Setting up data
I0124 16:49:45.815340 30596 net.cpp:157] Top shape: 2 3 576 768 (2654208)
I0124 16:49:45.815346 30596 net.cpp:157] Top shape: 2 6 72 96 (82944)
I0124 16:49:45.815351 30596 net.cpp:157] Top shape: 2 6 72 96 (82944)
I0124 16:49:45.815356 30596 net.cpp:157] Top shape: 2 6 36 48 (20736)
I0124 16:49:45.815361 30596 net.cpp:157] Top shape: 2 6 36 48 (20736)
I0124 16:49:45.815366 30596 net.cpp:157] Top shape: 2 6 18 24 (5184)
I0124 16:49:45.815371 30596 net.cpp:157] Top shape: 2 6 18 24 (5184)
I0124 16:49:45.815378 30596 net.cpp:157] Top shape: 2 6 9 12 (1296)
I0124 16:49:45.815383 30596 net.cpp:157] Top shape: 1 7 1 1 (7)
I0124 16:49:45.815387 30596 net.cpp:165] Memory required for data: 11492956
I0124 16:49:45.815395 30596 layer_factory.hpp:77] Creating layer label_1_3x5_data_1_split
I0124 16:49:45.815412 30596 net.cpp:100] Creating Layer label_1_3x5_data_1_split
I0124 16:49:45.815416 30596 net.cpp:434] label_1_3x5_data_1_split <- label_1_3x5
I0124 16:49:45.815426 30596 net.cpp:408] label_1_3x5_data_1_split -> label_1_3x5_data_1_split_0
I0124 16:49:45.815438 30596 net.cpp:408] label_1_3x5_data_1_split -> label_1_3x5_data_1_split_1
I0124 16:49:45.815501 30596 net.cpp:150] Setting up label_1_3x5_data_1_split
I0124 16:49:45.815508 30596 net.cpp:157] Top shape: 2 6 72 96 (82944)
I0124 16:49:45.815513 30596 net.cpp:157] Top shape: 2 6 72 96 (82944)
I0124 16:49:45.815517 30596 net.cpp:165] Memory required for data: 12156508
I0124 16:49:45.815521 30596 layer_factory.hpp:77] Creating layer label_1_5x7_data_2_split
I0124 16:49:45.815527 30596 net.cpp:100] Creating Layer label_1_5x7_data_2_split
I0124 16:49:45.815531 30596 net.cpp:434] label_1_5x7_data_2_split <- label_1_5x7
I0124 16:49:45.815534 30596 net.cpp:408] label_1_5x7_data_2_split -> label_1_5x7_data_2_split_0
I0124 16:49:45.815539 30596 net.cpp:408] label_1_5x7_data_2_split -> label_1_5x7_data_2_split_1
I0124 16:49:45.815577 30596 net.cpp:150] Setting up label_1_5x7_data_2_split
I0124 16:49:45.815582 30596 net.cpp:157] Top shape: 2 6 72 96 (82944)
I0124 16:49:45.815584 30596 net.cpp:157] Top shape: 2 6 72 96 (82944)
I0124 16:49:45.815585 30596 net.cpp:165] Memory required for data: 12820060
I0124 16:49:45.815587 30596 layer_factory.hpp:77] Creating layer label_2_3x5_data_3_split
I0124 16:49:45.815593 30596 net.cpp:100] Creating Layer label_2_3x5_data_3_split
I0124 16:49:45.815595 30596 net.cpp:434] label_2_3x5_data_3_split <- label_2_3x5
I0124 16:49:45.815599 30596 net.cpp:408] label_2_3x5_data_3_split -> label_2_3x5_data_3_split_0
I0124 16:49:45.815604 30596 net.cpp:408] label_2_3x5_data_3_split -> label_2_3x5_data_3_split_1
I0124 16:49:45.815634 30596 net.cpp:150] Setting up label_2_3x5_data_3_split
I0124 16:49:45.815639 30596 net.cpp:157] Top shape: 2 6 36 48 (20736)
I0124 16:49:45.815640 30596 net.cpp:157] Top shape: 2 6 36 48 (20736)
I0124 16:49:45.815642 30596 net.cpp:165] Memory required for data: 12985948
I0124 16:49:45.815644 30596 layer_factory.hpp:77] Creating layer label_2_5x7_data_4_split
I0124 16:49:45.815650 30596 net.cpp:100] Creating Layer label_2_5x7_data_4_split
I0124 16:49:45.815652 30596 net.cpp:434] label_2_5x7_data_4_split <- label_2_5x7
I0124 16:49:45.815656 30596 net.cpp:408] label_2_5x7_data_4_split -> label_2_5x7_data_4_split_0
I0124 16:49:45.815661 30596 net.cpp:408] label_2_5x7_data_4_split -> label_2_5x7_data_4_split_1
I0124 16:49:45.815692 30596 net.cpp:150] Setting up label_2_5x7_data_4_split
I0124 16:49:45.815696 30596 net.cpp:157] Top shape: 2 6 36 48 (20736)
I0124 16:49:45.815699 30596 net.cpp:157] Top shape: 2 6 36 48 (20736)
I0124 16:49:45.815701 30596 net.cpp:165] Memory required for data: 13151836
I0124 16:49:45.815702 30596 layer_factory.hpp:77] Creating layer label_3_3x5_data_5_split
I0124 16:49:45.815706 30596 net.cpp:100] Creating Layer label_3_3x5_data_5_split
I0124 16:49:45.815708 30596 net.cpp:434] label_3_3x5_data_5_split <- label_3_3x5
I0124 16:49:45.815713 30596 net.cpp:408] label_3_3x5_data_5_split -> label_3_3x5_data_5_split_0
I0124 16:49:45.815718 30596 net.cpp:408] label_3_3x5_data_5_split -> label_3_3x5_data_5_split_1
I0124 16:49:45.815744 30596 net.cpp:150] Setting up label_3_3x5_data_5_split
I0124 16:49:45.815747 30596 net.cpp:157] Top shape: 2 6 18 24 (5184)
I0124 16:49:45.815750 30596 net.cpp:157] Top shape: 2 6 18 24 (5184)
I0124 16:49:45.815752 30596 net.cpp:165] Memory required for data: 13193308
I0124 16:49:45.815753 30596 layer_factory.hpp:77] Creating layer label_3_5x7_data_6_split
I0124 16:49:45.815758 30596 net.cpp:100] Creating Layer label_3_5x7_data_6_split
I0124 16:49:45.815760 30596 net.cpp:434] label_3_5x7_data_6_split <- label_3_5x7
I0124 16:49:45.815764 30596 net.cpp:408] label_3_5x7_data_6_split -> label_3_5x7_data_6_split_0
I0124 16:49:45.815768 30596 net.cpp:408] label_3_5x7_data_6_split -> label_3_5x7_data_6_split_1
I0124 16:49:45.815798 30596 net.cpp:150] Setting up label_3_5x7_data_6_split
I0124 16:49:45.815801 30596 net.cpp:157] Top shape: 2 6 18 24 (5184)
I0124 16:49:45.815804 30596 net.cpp:157] Top shape: 2 6 18 24 (5184)
I0124 16:49:45.815805 30596 net.cpp:165] Memory required for data: 13234780
I0124 16:49:45.815807 30596 layer_factory.hpp:77] Creating layer label_4_3x5_data_7_split
I0124 16:49:45.815810 30596 net.cpp:100] Creating Layer label_4_3x5_data_7_split
I0124 16:49:45.815814 30596 net.cpp:434] label_4_3x5_data_7_split <- label_4_3x5
I0124 16:49:45.815817 30596 net.cpp:408] label_4_3x5_data_7_split -> label_4_3x5_data_7_split_0
I0124 16:49:45.815822 30596 net.cpp:408] label_4_3x5_data_7_split -> label_4_3x5_data_7_split_1
I0124 16:49:45.815847 30596 net.cpp:150] Setting up label_4_3x5_data_7_split
I0124 16:49:45.815851 30596 net.cpp:157] Top shape: 2 6 9 12 (1296)
I0124 16:49:45.815853 30596 net.cpp:157] Top shape: 2 6 9 12 (1296)
I0124 16:49:45.815855 30596 net.cpp:165] Memory required for data: 13245148
I0124 16:49:45.815857 30596 layer_factory.hpp:77] Creating layer conv1_1
I0124 16:49:45.815868 30596 net.cpp:100] Creating Layer conv1_1
I0124 16:49:45.815871 30596 net.cpp:434] conv1_1 <- data
I0124 16:49:45.815876 30596 net.cpp:408] conv1_1 -> conv1_1
I0124 16:49:45.819686 30596 net.cpp:150] Setting up conv1_1
I0124 16:49:45.819703 30596 net.cpp:157] Top shape: 2 64 576 768 (56623104)
I0124 16:49:45.819705 30596 net.cpp:165] Memory required for data: 239737564
I0124 16:49:45.819718 30596 layer_factory.hpp:77] Creating layer relu1_1
I0124 16:49:45.819726 30596 net.cpp:100] Creating Layer relu1_1
I0124 16:49:45.819730 30596 net.cpp:434] relu1_1 <- conv1_1
I0124 16:49:45.819736 30596 net.cpp:395] relu1_1 -> conv1_1 (in-place)
I0124 16:49:45.819917 30596 net.cpp:150] Setting up relu1_1
I0124 16:49:45.819924 30596 net.cpp:157] Top shape: 2 64 576 768 (56623104)
I0124 16:49:45.819926 30596 net.cpp:165] Memory required for data: 466229980
I0124 16:49:45.819928 30596 layer_factory.hpp:77] Creating layer conv1_2
I0124 16:49:45.819938 30596 net.cpp:100] Creating Layer conv1_2
I0124 16:49:45.819941 30596 net.cpp:434] conv1_2 <- conv1_1
I0124 16:49:45.819948 30596 net.cpp:408] conv1_2 -> conv1_2
I0124 16:49:45.822268 30596 net.cpp:150] Setting up conv1_2
I0124 16:49:45.822278 30596 net.cpp:157] Top shape: 2 64 576 768 (56623104)
I0124 16:49:45.822280 30596 net.cpp:165] Memory required for data: 692722396
I0124 16:49:45.822288 30596 layer_factory.hpp:77] Creating layer relu1_2
I0124 16:49:45.822294 30596 net.cpp:100] Creating Layer relu1_2
I0124 16:49:45.822296 30596 net.cpp:434] relu1_2 <- conv1_2
I0124 16:49:45.822300 30596 net.cpp:395] relu1_2 -> conv1_2 (in-place)
I0124 16:49:45.822459 30596 net.cpp:150] Setting up relu1_2
I0124 16:49:45.822466 30596 net.cpp:157] Top shape: 2 64 576 768 (56623104)
I0124 16:49:45.822468 30596 net.cpp:165] Memory required for data: 919214812
I0124 16:49:45.822470 30596 layer_factory.hpp:77] Creating layer pool1
I0124 16:49:45.822475 30596 net.cpp:100] Creating Layer pool1
I0124 16:49:45.822479 30596 net.cpp:434] pool1 <- conv1_2
I0124 16:49:45.822484 30596 net.cpp:408] pool1 -> pool1
I0124 16:49:45.822526 30596 net.cpp:150] Setting up pool1
I0124 16:49:45.822530 30596 net.cpp:157] Top shape: 2 64 288 384 (14155776)
I0124 16:49:45.822532 30596 net.cpp:165] Memory required for data: 975837916
I0124 16:49:45.822535 30596 layer_factory.hpp:77] Creating layer conv2_1
I0124 16:49:45.822541 30596 net.cpp:100] Creating Layer conv2_1
I0124 16:49:45.822544 30596 net.cpp:434] conv2_1 <- pool1
I0124 16:49:45.822548 30596 net.cpp:408] conv2_1 -> conv2_1
I0124 16:49:45.824502 30596 net.cpp:150] Setting up conv2_1
I0124 16:49:45.824512 30596 net.cpp:157] Top shape: 2 128 288 384 (28311552)
I0124 16:49:45.824513 30596 net.cpp:165] Memory required for data: 1089084124
I0124 16:49:45.824522 30596 layer_factory.hpp:77] Creating layer relu2_1
I0124 16:49:45.824527 30596 net.cpp:100] Creating Layer relu2_1
I0124 16:49:45.824529 30596 net.cpp:434] relu2_1 <- conv2_1
I0124 16:49:45.824533 30596 net.cpp:395] relu2_1 -> conv2_1 (in-place)
I0124 16:49:45.825053 30596 net.cpp:150] Setting up relu2_1
I0124 16:49:45.825063 30596 net.cpp:157] Top shape: 2 128 288 384 (28311552)
I0124 16:49:45.825067 30596 net.cpp:165] Memory required for data: 1202330332
I0124 16:49:45.825068 30596 layer_factory.hpp:77] Creating layer conv2_2
I0124 16:49:45.825075 30596 net.cpp:100] Creating Layer conv2_2
I0124 16:49:45.825078 30596 net.cpp:434] conv2_2 <- conv2_1
I0124 16:49:45.825083 30596 net.cpp:408] conv2_2 -> conv2_2
I0124 16:49:45.827617 30596 net.cpp:150] Setting up conv2_2
I0124 16:49:45.827627 30596 net.cpp:157] Top shape: 2 128 288 384 (28311552)
I0124 16:49:45.827630 30596 net.cpp:165] Memory required for data: 1315576540
I0124 16:49:45.827635 30596 layer_factory.hpp:77] Creating layer relu2_2
I0124 16:49:45.827644 30596 net.cpp:100] Creating Layer relu2_2
I0124 16:49:45.827646 30596 net.cpp:434] relu2_2 <- conv2_2
I0124 16:49:45.827651 30596 net.cpp:395] relu2_2 -> conv2_2 (in-place)
I0124 16:49:45.827806 30596 net.cpp:150] Setting up relu2_2
I0124 16:49:45.827812 30596 net.cpp:157] Top shape: 2 128 288 384 (28311552)
I0124 16:49:45.827814 30596 net.cpp:165] Memory required for data: 1428822748
I0124 16:49:45.827816 30596 layer_factory.hpp:77] Creating layer pool2
I0124 16:49:45.827822 30596 net.cpp:100] Creating Layer pool2
I0124 16:49:45.827826 30596 net.cpp:434] pool2 <- conv2_2
I0124 16:49:45.827828 30596 net.cpp:408] pool2 -> pool2
I0124 16:49:45.827872 30596 net.cpp:150] Setting up pool2
I0124 16:49:45.827875 30596 net.cpp:157] Top shape: 2 128 144 192 (7077888)
I0124 16:49:45.827877 30596 net.cpp:165] Memory required for data: 1457134300
I0124 16:49:45.827879 30596 layer_factory.hpp:77] Creating layer conv3_1
I0124 16:49:45.827885 30596 net.cpp:100] Creating Layer conv3_1
I0124 16:49:45.827888 30596 net.cpp:434] conv3_1 <- pool2
I0124 16:49:45.827894 30596 net.cpp:408] conv3_1 -> conv3_1
I0124 16:49:45.829691 30596 net.cpp:150] Setting up conv3_1
I0124 16:49:45.829700 30596 net.cpp:157] Top shape: 2 256 144 192 (14155776)
I0124 16:49:45.829702 30596 net.cpp:165] Memory required for data: 1513757404
I0124 16:49:45.829712 30596 layer_factory.hpp:77] Creating layer relu3_1
I0124 16:49:45.829716 30596 net.cpp:100] Creating Layer relu3_1
I0124 16:49:45.829720 30596 net.cpp:434] relu3_1 <- conv3_1
I0124 16:49:45.829723 30596 net.cpp:395] relu3_1 -> conv3_1 (in-place)
I0124 16:49:45.829874 30596 net.cpp:150] Setting up relu3_1
I0124 16:49:45.829879 30596 net.cpp:157] Top shape: 2 256 144 192 (14155776)
I0124 16:49:45.829881 30596 net.cpp:165] Memory required for data: 1570380508
I0124 16:49:45.829883 30596 layer_factory.hpp:77] Creating layer conv3_2
I0124 16:49:45.829891 30596 net.cpp:100] Creating Layer conv3_2
I0124 16:49:45.829895 30596 net.cpp:434] conv3_2 <- conv3_1
I0124 16:49:45.829898 30596 net.cpp:408] conv3_2 -> conv3_2
I0124 16:49:45.832712 30596 net.cpp:150] Setting up conv3_2
I0124 16:49:45.832722 30596 net.cpp:157] Top shape: 2 256 144 192 (14155776)
I0124 16:49:45.832725 30596 net.cpp:165] Memory required for data: 1627003612
I0124 16:49:45.832729 30596 layer_factory.hpp:77] Creating layer relu3_2
I0124 16:49:45.832733 30596 net.cpp:100] Creating Layer relu3_2
I0124 16:49:45.832736 30596 net.cpp:434] relu3_2 <- conv3_2
I0124 16:49:45.832741 30596 net.cpp:395] relu3_2 -> conv3_2 (in-place)
I0124 16:49:45.832895 30596 net.cpp:150] Setting up relu3_2
I0124 16:49:45.832901 30596 net.cpp:157] Top shape: 2 256 144 192 (14155776)
I0124 16:49:45.832903 30596 net.cpp:165] Memory required for data: 1683626716
I0124 16:49:45.832906 30596 layer_factory.hpp:77] Creating layer conv3_3
I0124 16:49:45.832911 30596 net.cpp:100] Creating Layer conv3_3
I0124 16:49:45.832914 30596 net.cpp:434] conv3_3 <- conv3_2
I0124 16:49:45.832918 30596 net.cpp:408] conv3_3 -> conv3_3
I0124 16:49:45.836717 30596 net.cpp:150] Setting up conv3_3
I0124 16:49:45.836735 30596 net.cpp:157] Top shape: 2 256 144 192 (14155776)
I0124 16:49:45.836741 30596 net.cpp:165] Memory required for data: 1740249820
I0124 16:49:45.836752 30596 layer_factory.hpp:77] Creating layer relu3_3
I0124 16:49:45.836762 30596 net.cpp:100] Creating Layer relu3_3
I0124 16:49:45.836767 30596 net.cpp:434] relu3_3 <- conv3_3
I0124 16:49:45.836776 30596 net.cpp:395] relu3_3 -> conv3_3 (in-place)
I0124 16:49:45.837044 30596 net.cpp:150] Setting up relu3_3
I0124 16:49:45.837054 30596 net.cpp:157] Top shape: 2 256 144 192 (14155776)
I0124 16:49:45.837059 30596 net.cpp:165] Memory required for data: 1796872924
I0124 16:49:45.837064 30596 layer_factory.hpp:77] Creating layer pool3
I0124 16:49:45.837074 30596 net.cpp:100] Creating Layer pool3
I0124 16:49:45.837079 30596 net.cpp:434] pool3 <- conv3_3
I0124 16:49:45.837085 30596 net.cpp:408] pool3 -> pool3
I0124 16:49:45.837172 30596 net.cpp:150] Setting up pool3
I0124 16:49:45.837182 30596 net.cpp:157] Top shape: 2 256 72 96 (3538944)
I0124 16:49:45.837185 30596 net.cpp:165] Memory required for data: 1811028700
I0124 16:49:45.837188 30596 layer_factory.hpp:77] Creating layer conv4_1
I0124 16:49:45.837199 30596 net.cpp:100] Creating Layer conv4_1
I0124 16:49:45.837204 30596 net.cpp:434] conv4_1 <- pool3
I0124 16:49:45.837211 30596 net.cpp:408] conv4_1 -> conv4_1
I0124 16:49:45.841282 30596 net.cpp:150] Setting up conv4_1
I0124 16:49:45.841331 30596 net.cpp:157] Top shape: 2 512 72 96 (7077888)
I0124 16:49:45.841336 30596 net.cpp:165] Memory required for data: 1839340252
I0124 16:49:45.841347 30596 layer_factory.hpp:77] Creating layer relu4_1
I0124 16:49:45.841359 30596 net.cpp:100] Creating Layer relu4_1
I0124 16:49:45.841365 30596 net.cpp:434] relu4_1 <- conv4_1
I0124 16:49:45.841374 30596 net.cpp:395] relu4_1 -> conv4_1 (in-place)
I0124 16:49:45.841539 30596 net.cpp:150] Setting up relu4_1
I0124 16:49:45.841548 30596 net.cpp:157] Top shape: 2 512 72 96 (7077888)
I0124 16:49:45.841552 30596 net.cpp:165] Memory required for data: 1867651804
I0124 16:49:45.841555 30596 layer_factory.hpp:77] Creating layer conv4_2
I0124 16:49:45.841567 30596 net.cpp:100] Creating Layer conv4_2
I0124 16:49:45.841572 30596 net.cpp:434] conv4_2 <- conv4_1
I0124 16:49:45.841581 30596 net.cpp:408] conv4_2 -> conv4_2
I0124 16:49:45.849572 30596 net.cpp:150] Setting up conv4_2
I0124 16:49:45.849598 30596 net.cpp:157] Top shape: 2 512 72 96 (7077888)
I0124 16:49:45.849602 30596 net.cpp:165] Memory required for data: 1895963356
I0124 16:49:45.849623 30596 layer_factory.hpp:77] Creating layer relu4_2
I0124 16:49:45.849635 30596 net.cpp:100] Creating Layer relu4_2
I0124 16:49:45.849642 30596 net.cpp:434] relu4_2 <- conv4_2
I0124 16:49:45.849653 30596 net.cpp:395] relu4_2 -> conv4_2 (in-place)
I0124 16:49:45.851575 30596 net.cpp:150] Setting up relu4_2
I0124 16:49:45.851603 30596 net.cpp:157] Top shape: 2 512 72 96 (7077888)
I0124 16:49:45.851605 30596 net.cpp:165] Memory required for data: 1924274908
I0124 16:49:45.851611 30596 layer_factory.hpp:77] Creating layer conv4_3
I0124 16:49:45.851629 30596 net.cpp:100] Creating Layer conv4_3
I0124 16:49:45.851635 30596 net.cpp:434] conv4_3 <- conv4_2
I0124 16:49:45.851647 30596 net.cpp:408] conv4_3 -> conv4_3
I0124 16:49:45.862046 30596 net.cpp:150] Setting up conv4_3
I0124 16:49:45.862072 30596 net.cpp:157] Top shape: 2 512 72 96 (7077888)
I0124 16:49:45.862076 30596 net.cpp:165] Memory required for data: 1952586460
I0124 16:49:45.862088 30596 layer_factory.hpp:77] Creating layer relu4_3
I0124 16:49:45.862100 30596 net.cpp:100] Creating Layer relu4_3
I0124 16:49:45.862107 30596 net.cpp:434] relu4_3 <- conv4_3
I0124 16:49:45.862116 30596 net.cpp:395] relu4_3 -> conv4_3 (in-place)
I0124 16:49:45.862275 30596 net.cpp:150] Setting up relu4_3
I0124 16:49:45.862283 30596 net.cpp:157] Top shape: 2 512 72 96 (7077888)
I0124 16:49:45.862287 30596 net.cpp:165] Memory required for data: 1980898012
I0124 16:49:45.862291 30596 layer_factory.hpp:77] Creating layer conv4_3_relu4_3_0_split
I0124 16:49:45.862300 30596 net.cpp:100] Creating Layer conv4_3_relu4_3_0_split
I0124 16:49:45.862304 30596 net.cpp:434] conv4_3_relu4_3_0_split <- conv4_3
I0124 16:49:45.862313 30596 net.cpp:408] conv4_3_relu4_3_0_split -> conv4_3_relu4_3_0_split_0
I0124 16:49:45.862323 30596 net.cpp:408] conv4_3_relu4_3_0_split -> conv4_3_relu4_3_0_split_1
I0124 16:49:45.862332 30596 net.cpp:408] conv4_3_relu4_3_0_split -> conv4_3_relu4_3_0_split_2
I0124 16:49:45.862388 30596 net.cpp:150] Setting up conv4_3_relu4_3_0_split
I0124 16:49:45.862395 30596 net.cpp:157] Top shape: 2 512 72 96 (7077888)
I0124 16:49:45.862401 30596 net.cpp:157] Top shape: 2 512 72 96 (7077888)
I0124 16:49:45.862406 30596 net.cpp:157] Top shape: 2 512 72 96 (7077888)
I0124 16:49:45.862409 30596 net.cpp:165] Memory required for data: 2065832668
I0124 16:49:45.862413 30596 layer_factory.hpp:77] Creating layer loss1_conv1
I0124 16:49:45.862434 30596 net.cpp:100] Creating Layer loss1_conv1
I0124 16:49:45.862439 30596 net.cpp:434] loss1_conv1 <- conv4_3_relu4_3_0_split_0
I0124 16:49:45.862447 30596 net.cpp:408] loss1_conv1 -> loss1_conv1
I0124 16:49:45.898789 30596 net.cpp:150] Setting up loss1_conv1
I0124 16:49:45.898815 30596 net.cpp:157] Top shape: 2 512 72 96 (7077888)
I0124 16:49:45.898819 30596 net.cpp:165] Memory required for data: 2094144220
I0124 16:49:45.898831 30596 layer_factory.hpp:77] Creating layer loss_relu1
I0124 16:49:45.898843 30596 net.cpp:100] Creating Layer loss_relu1
I0124 16:49:45.898849 30596 net.cpp:434] loss_relu1 <- loss1_conv1
I0124 16:49:45.898859 30596 net.cpp:395] loss_relu1 -> loss1_conv1 (in-place)
I0124 16:49:45.899026 30596 net.cpp:150] Setting up loss_relu1
I0124 16:49:45.899035 30596 net.cpp:157] Top shape: 2 512 72 96 (7077888)
I0124 16:49:45.899039 30596 net.cpp:165] Memory required for data: 2122455772
I0124 16:49:45.899044 30596 layer_factory.hpp:77] Creating layer loss1_conv1_loss_relu1_0_split
I0124 16:49:45.899050 30596 net.cpp:100] Creating Layer loss1_conv1_loss_relu1_0_split
I0124 16:49:45.899054 30596 net.cpp:434] loss1_conv1_loss_relu1_0_split <- loss1_conv1
I0124 16:49:45.899063 30596 net.cpp:408] loss1_conv1_loss_relu1_0_split -> loss1_conv1_loss_relu1_0_split_0
I0124 16:49:45.899081 30596 net.cpp:408] loss1_conv1_loss_relu1_0_split -> loss1_conv1_loss_relu1_0_split_1
I0124 16:49:45.899129 30596 net.cpp:150] Setting up loss1_conv1_loss_relu1_0_split
I0124 16:49:45.899137 30596 net.cpp:157] Top shape: 2 512 72 96 (7077888)
I0124 16:49:45.899142 30596 net.cpp:157] Top shape: 2 512 72 96 (7077888)
I0124 16:49:45.899145 30596 net.cpp:165] Memory required for data: 2179078876
I0124 16:49:45.899148 30596 layer_factory.hpp:77] Creating layer LFCN_1_3x5
I0124 16:49:45.899163 30596 net.cpp:100] Creating Layer LFCN_1_3x5
I0124 16:49:45.899168 30596 net.cpp:434] LFCN_1_3x5 <- loss1_conv1_loss_relu1_0_split_0
I0124 16:49:45.899178 30596 net.cpp:408] LFCN_1_3x5 -> LFCN_1_3x5
I0124 16:49:45.901515 30596 net.cpp:150] Setting up LFCN_1_3x5
I0124 16:49:45.901530 30596 net.cpp:157] Top shape: 2 7 72 96 (96768)
I0124 16:49:45.901535 30596 net.cpp:165] Memory required for data: 2179465948
I0124 16:49:45.901543 30596 layer_factory.hpp:77] Creating layer LFCN_1_3x5_LFCN_1_3x5_0_split
I0124 16:49:45.901552 30596 net.cpp:100] Creating Layer LFCN_1_3x5_LFCN_1_3x5_0_split
I0124 16:49:45.901558 30596 net.cpp:434] LFCN_1_3x5_LFCN_1_3x5_0_split <- LFCN_1_3x5
I0124 16:49:45.901571 30596 net.cpp:408] LFCN_1_3x5_LFCN_1_3x5_0_split -> LFCN_1_3x5_LFCN_1_3x5_0_split_0
I0124 16:49:45.901582 30596 net.cpp:408] LFCN_1_3x5_LFCN_1_3x5_0_split -> LFCN_1_3x5_LFCN_1_3x5_0_split_1
I0124 16:49:45.901590 30596 net.cpp:408] LFCN_1_3x5_LFCN_1_3x5_0_split -> LFCN_1_3x5_LFCN_1_3x5_0_split_2
I0124 16:49:45.901646 30596 net.cpp:150] Setting up LFCN_1_3x5_LFCN_1_3x5_0_split
I0124 16:49:45.901654 30596 net.cpp:157] Top shape: 2 7 72 96 (96768)
I0124 16:49:45.901659 30596 net.cpp:157] Top shape: 2 7 72 96 (96768)
I0124 16:49:45.901662 30596 net.cpp:157] Top shape: 2 7 72 96 (96768)
I0124 16:49:45.901666 30596 net.cpp:165] Memory required for data: 2180627164
I0124 16:49:45.901670 30596 layer_factory.hpp:77] Creating layer detection_loss_1_3x5
I0124 16:49:45.901697 30596 net.cpp:100] Creating Layer detection_loss_1_3x5
I0124 16:49:45.901702 30596 net.cpp:434] detection_loss_1_3x5 <- LFCN_1_3x5_LFCN_1_3x5_0_split_0
I0124 16:49:45.901708 30596 net.cpp:434] detection_loss_1_3x5 <- label_1_3x5_data_1_split_0
I0124 16:49:45.901717 30596 net.cpp:408] detection_loss_1_3x5 -> loss_1_3x5
I0124 16:49:45.901731 30596 layer_factory.hpp:77] Creating layer detection_loss_1_3x5
I0124 16:49:45.902076 30596 net.cpp:150] Setting up detection_loss_1_3x5
I0124 16:49:45.902086 30596 net.cpp:157] Top shape: 1 1 1 2 (2)
I0124 16:49:45.902091 30596 net.cpp:160]     with loss weight 0.5
I0124 16:49:45.902102 30596 net.cpp:165] Memory required for data: 2180627172
I0124 16:49:45.902107 30596 layer_factory.hpp:77] Creating layer detection_accuracy_1_3x5
I0124 16:49:45.902114 30596 net.cpp:100] Creating Layer detection_accuracy_1_3x5
I0124 16:49:45.902119 30596 net.cpp:434] detection_accuracy_1_3x5 <- LFCN_1_3x5_LFCN_1_3x5_0_split_1
I0124 16:49:45.902125 30596 net.cpp:434] detection_accuracy_1_3x5 <- label_1_3x5_data_1_split_1
I0124 16:49:45.902133 30596 net.cpp:408] detection_accuracy_1_3x5 -> accuracy_1_3x5
I0124 16:49:45.902143 30596 net.cpp:408] detection_accuracy_1_3x5 -> boxiou_1_3x5
I0124 16:49:45.902187 30596 net.cpp:150] Setting up detection_accuracy_1_3x5
I0124 16:49:45.902195 30596 net.cpp:157] Top shape: 1 1 1 2 (2)
I0124 16:49:45.902199 30596 net.cpp:157] Top shape: 1 1 1 1 (1)
I0124 16:49:45.902204 30596 net.cpp:165] Memory required for data: 2180627184
I0124 16:49:45.902209 30596 layer_factory.hpp:77] Creating layer LFCN_1_5x7
I0124 16:49:45.902220 30596 net.cpp:100] Creating Layer LFCN_1_5x7
I0124 16:49:45.902225 30596 net.cpp:434] LFCN_1_5x7 <- loss1_conv1_loss_relu1_0_split_1
I0124 16:49:45.902232 30596 net.cpp:408] LFCN_1_5x7 -> LFCN_1_5x7
I0124 16:49:45.911427 30596 net.cpp:150] Setting up LFCN_1_5x7
I0124 16:49:45.911451 30596 net.cpp:157] Top shape: 2 7 72 96 (96768)
I0124 16:49:45.911455 30596 net.cpp:165] Memory required for data: 2181014256
I0124 16:49:45.911466 30596 layer_factory.hpp:77] Creating layer LFCN_1_5x7_LFCN_1_5x7_0_split
I0124 16:49:45.911478 30596 net.cpp:100] Creating Layer LFCN_1_5x7_LFCN_1_5x7_0_split
I0124 16:49:45.911490 30596 net.cpp:434] LFCN_1_5x7_LFCN_1_5x7_0_split <- LFCN_1_5x7
I0124 16:49:45.911505 30596 net.cpp:408] LFCN_1_5x7_LFCN_1_5x7_0_split -> LFCN_1_5x7_LFCN_1_5x7_0_split_0
I0124 16:49:45.911517 30596 net.cpp:408] LFCN_1_5x7_LFCN_1_5x7_0_split -> LFCN_1_5x7_LFCN_1_5x7_0_split_1
I0124 16:49:45.911527 30596 net.cpp:408] LFCN_1_5x7_LFCN_1_5x7_0_split -> LFCN_1_5x7_LFCN_1_5x7_0_split_2
I0124 16:49:45.911586 30596 net.cpp:150] Setting up LFCN_1_5x7_LFCN_1_5x7_0_split
I0124 16:49:45.911593 30596 net.cpp:157] Top shape: 2 7 72 96 (96768)
I0124 16:49:45.911598 30596 net.cpp:157] Top shape: 2 7 72 96 (96768)
I0124 16:49:45.911603 30596 net.cpp:157] Top shape: 2 7 72 96 (96768)
I0124 16:49:45.911608 30596 net.cpp:165] Memory required for data: 2182175472
I0124 16:49:45.911613 30596 layer_factory.hpp:77] Creating layer detection_loss_1_5x7
I0124 16:49:45.911625 30596 net.cpp:100] Creating Layer detection_loss_1_5x7
I0124 16:49:45.911629 30596 net.cpp:434] detection_loss_1_5x7 <- LFCN_1_5x7_LFCN_1_5x7_0_split_0
I0124 16:49:45.911636 30596 net.cpp:434] detection_loss_1_5x7 <- label_1_5x7_data_2_split_0
I0124 16:49:45.911645 30596 net.cpp:408] detection_loss_1_5x7 -> loss_1_5x7
I0124 16:49:45.911656 30596 layer_factory.hpp:77] Creating layer detection_loss_1_5x7
I0124 16:49:45.911996 30596 net.cpp:150] Setting up detection_loss_1_5x7
I0124 16:49:45.912005 30596 net.cpp:157] Top shape: 1 1 1 2 (2)
I0124 16:49:45.912009 30596 net.cpp:160]     with loss weight 0.9
I0124 16:49:45.912021 30596 net.cpp:165] Memory required for data: 2182175480
I0124 16:49:45.912026 30596 layer_factory.hpp:77] Creating layer detection_accuracy_1_5x7
I0124 16:49:45.912039 30596 net.cpp:100] Creating Layer detection_accuracy_1_5x7
I0124 16:49:45.912044 30596 net.cpp:434] detection_accuracy_1_5x7 <- LFCN_1_5x7_LFCN_1_5x7_0_split_1
I0124 16:49:45.912050 30596 net.cpp:434] detection_accuracy_1_5x7 <- label_1_5x7_data_2_split_1
I0124 16:49:45.912060 30596 net.cpp:408] detection_accuracy_1_5x7 -> accuracy_1_5x7
I0124 16:49:45.912070 30596 net.cpp:408] detection_accuracy_1_5x7 -> boxiou_1_5x7
I0124 16:49:45.912118 30596 net.cpp:150] Setting up detection_accuracy_1_5x7
I0124 16:49:45.912127 30596 net.cpp:157] Top shape: 1 1 1 2 (2)
I0124 16:49:45.912133 30596 net.cpp:157] Top shape: 1 1 1 1 (1)
I0124 16:49:45.912137 30596 net.cpp:165] Memory required for data: 2182175492
I0124 16:49:45.912142 30596 layer_factory.hpp:77] Creating layer pool4
I0124 16:49:45.912149 30596 net.cpp:100] Creating Layer pool4
I0124 16:49:45.912154 30596 net.cpp:434] pool4 <- conv4_3_relu4_3_0_split_1
I0124 16:49:45.912161 30596 net.cpp:408] pool4 -> pool4
I0124 16:49:45.912214 30596 net.cpp:150] Setting up pool4
I0124 16:49:45.912221 30596 net.cpp:157] Top shape: 2 512 36 48 (1769472)
I0124 16:49:45.912225 30596 net.cpp:165] Memory required for data: 2189253380
I0124 16:49:45.912230 30596 layer_factory.hpp:77] Creating layer conv5_1
I0124 16:49:45.912240 30596 net.cpp:100] Creating Layer conv5_1
I0124 16:49:45.912246 30596 net.cpp:434] conv5_1 <- pool4
I0124 16:49:45.912256 30596 net.cpp:408] conv5_1 -> conv5_1
I0124 16:49:45.921694 30596 net.cpp:150] Setting up conv5_1
I0124 16:49:45.921718 30596 net.cpp:157] Top shape: 2 512 36 48 (1769472)
I0124 16:49:45.921722 30596 net.cpp:165] Memory required for data: 2196331268
I0124 16:49:45.921733 30596 layer_factory.hpp:77] Creating layer relu5_1
I0124 16:49:45.921744 30596 net.cpp:100] Creating Layer relu5_1
I0124 16:49:45.921759 30596 net.cpp:434] relu5_1 <- conv5_1
I0124 16:49:45.921774 30596 net.cpp:395] relu5_1 -> conv5_1 (in-place)
I0124 16:49:45.922794 30596 net.cpp:150] Setting up relu5_1
I0124 16:49:45.922837 30596 net.cpp:157] Top shape: 2 512 36 48 (1769472)
I0124 16:49:45.922840 30596 net.cpp:165] Memory required for data: 2203409156
I0124 16:49:45.922847 30596 layer_factory.hpp:77] Creating layer conv5_2
I0124 16:49:45.922863 30596 net.cpp:100] Creating Layer conv5_2
I0124 16:49:45.922870 30596 net.cpp:434] conv5_2 <- conv5_1
I0124 16:49:45.922880 30596 net.cpp:408] conv5_2 -> conv5_2
I0124 16:49:45.933779 30596 net.cpp:150] Setting up conv5_2
I0124 16:49:45.933804 30596 net.cpp:157] Top shape: 2 512 36 48 (1769472)
I0124 16:49:45.933809 30596 net.cpp:165] Memory required for data: 2210487044
I0124 16:49:45.933820 30596 layer_factory.hpp:77] Creating layer relu5_2
I0124 16:49:45.933833 30596 net.cpp:100] Creating Layer relu5_2
I0124 16:49:45.933853 30596 net.cpp:434] relu5_2 <- conv5_2
I0124 16:49:45.933866 30596 net.cpp:395] relu5_2 -> conv5_2 (in-place)
I0124 16:49:45.936134 30596 net.cpp:150] Setting up relu5_2
I0124 16:49:45.936161 30596 net.cpp:157] Top shape: 2 512 36 48 (1769472)
I0124 16:49:45.936166 30596 net.cpp:165] Memory required for data: 2217564932
I0124 16:49:45.936172 30596 layer_factory.hpp:77] Creating layer conv5_3
I0124 16:49:45.936192 30596 net.cpp:100] Creating Layer conv5_3
I0124 16:49:45.936197 30596 net.cpp:434] conv5_3 <- conv5_2
I0124 16:49:45.936210 30596 net.cpp:408] conv5_3 -> conv5_3
I0124 16:49:45.947549 30596 net.cpp:150] Setting up conv5_3
I0124 16:49:45.947576 30596 net.cpp:157] Top shape: 2 512 36 48 (1769472)
I0124 16:49:45.947580 30596 net.cpp:165] Memory required for data: 2224642820
I0124 16:49:45.947592 30596 layer_factory.hpp:77] Creating layer relu5_3
I0124 16:49:45.947605 30596 net.cpp:100] Creating Layer relu5_3
I0124 16:49:45.947613 30596 net.cpp:434] relu5_3 <- conv5_3
I0124 16:49:45.947625 30596 net.cpp:395] relu5_3 -> conv5_3 (in-place)
I0124 16:49:45.947794 30596 net.cpp:150] Setting up relu5_3
I0124 16:49:45.947804 30596 net.cpp:157] Top shape: 2 512 36 48 (1769472)
I0124 16:49:45.947808 30596 net.cpp:165] Memory required for data: 2231720708
I0124 16:49:45.947814 30596 layer_factory.hpp:77] Creating layer conv5_3_relu5_3_0_split
I0124 16:49:45.947824 30596 net.cpp:100] Creating Layer conv5_3_relu5_3_0_split
I0124 16:49:45.947829 30596 net.cpp:434] conv5_3_relu5_3_0_split <- conv5_3
I0124 16:49:45.947836 30596 net.cpp:408] conv5_3_relu5_3_0_split -> conv5_3_relu5_3_0_split_0
I0124 16:49:45.947846 30596 net.cpp:408] conv5_3_relu5_3_0_split -> conv5_3_relu5_3_0_split_1
I0124 16:49:45.947854 30596 net.cpp:408] conv5_3_relu5_3_0_split -> conv5_3_relu5_3_0_split_2
I0124 16:49:45.947916 30596 net.cpp:150] Setting up conv5_3_relu5_3_0_split
I0124 16:49:45.947923 30596 net.cpp:157] Top shape: 2 512 36 48 (1769472)
I0124 16:49:45.947928 30596 net.cpp:157] Top shape: 2 512 36 48 (1769472)
I0124 16:49:45.947934 30596 net.cpp:157] Top shape: 2 512 36 48 (1769472)
I0124 16:49:45.947938 30596 net.cpp:165] Memory required for data: 2252954372
I0124 16:49:45.947942 30596 layer_factory.hpp:77] Creating layer LFCN_2_3x5
I0124 16:49:45.947959 30596 net.cpp:100] Creating Layer LFCN_2_3x5
I0124 16:49:45.947965 30596 net.cpp:434] LFCN_2_3x5 <- conv5_3_relu5_3_0_split_0
I0124 16:49:45.947975 30596 net.cpp:408] LFCN_2_3x5 -> LFCN_2_3x5
I0124 16:49:45.954648 30596 net.cpp:150] Setting up LFCN_2_3x5
I0124 16:49:45.954675 30596 net.cpp:157] Top shape: 2 7 36 48 (24192)
I0124 16:49:45.954679 30596 net.cpp:165] Memory required for data: 2253051140
I0124 16:49:45.954700 30596 layer_factory.hpp:77] Creating layer LFCN_2_3x5_LFCN_2_3x5_0_split
I0124 16:49:45.954720 30596 net.cpp:100] Creating Layer LFCN_2_3x5_LFCN_2_3x5_0_split
I0124 16:49:45.954726 30596 net.cpp:434] LFCN_2_3x5_LFCN_2_3x5_0_split <- LFCN_2_3x5
I0124 16:49:45.954740 30596 net.cpp:408] LFCN_2_3x5_LFCN_2_3x5_0_split -> LFCN_2_3x5_LFCN_2_3x5_0_split_0
I0124 16:49:45.954769 30596 net.cpp:408] LFCN_2_3x5_LFCN_2_3x5_0_split -> LFCN_2_3x5_LFCN_2_3x5_0_split_1
I0124 16:49:45.954782 30596 net.cpp:408] LFCN_2_3x5_LFCN_2_3x5_0_split -> LFCN_2_3x5_LFCN_2_3x5_0_split_2
I0124 16:49:45.954841 30596 net.cpp:150] Setting up LFCN_2_3x5_LFCN_2_3x5_0_split
I0124 16:49:45.954850 30596 net.cpp:157] Top shape: 2 7 36 48 (24192)
I0124 16:49:45.954856 30596 net.cpp:157] Top shape: 2 7 36 48 (24192)
I0124 16:49:45.954862 30596 net.cpp:157] Top shape: 2 7 36 48 (24192)
I0124 16:49:45.954866 30596 net.cpp:165] Memory required for data: 2253341444
I0124 16:49:45.954870 30596 layer_factory.hpp:77] Creating layer detection_loss_2_3x5
I0124 16:49:45.954883 30596 net.cpp:100] Creating Layer detection_loss_2_3x5
I0124 16:49:45.954888 30596 net.cpp:434] detection_loss_2_3x5 <- LFCN_2_3x5_LFCN_2_3x5_0_split_0
I0124 16:49:45.954895 30596 net.cpp:434] detection_loss_2_3x5 <- label_2_3x5_data_3_split_0
I0124 16:49:45.954902 30596 net.cpp:408] detection_loss_2_3x5 -> loss_2_3x5
I0124 16:49:45.954915 30596 layer_factory.hpp:77] Creating layer detection_loss_2_3x5
I0124 16:49:45.955246 30596 net.cpp:150] Setting up detection_loss_2_3x5
I0124 16:49:45.955255 30596 net.cpp:157] Top shape: 1 1 1 2 (2)
I0124 16:49:45.955260 30596 net.cpp:160]     with loss weight 1
I0124 16:49:45.955271 30596 net.cpp:165] Memory required for data: 2253341452
I0124 16:49:45.955274 30596 layer_factory.hpp:77] Creating layer detection_accuracy_2_3x5
I0124 16:49:45.955284 30596 net.cpp:100] Creating Layer detection_accuracy_2_3x5
I0124 16:49:45.955288 30596 net.cpp:434] detection_accuracy_2_3x5 <- LFCN_2_3x5_LFCN_2_3x5_0_split_1
I0124 16:49:45.955294 30596 net.cpp:434] detection_accuracy_2_3x5 <- label_2_3x5_data_3_split_1
I0124 16:49:45.955303 30596 net.cpp:408] detection_accuracy_2_3x5 -> accuracy_2_3x5
I0124 16:49:45.955314 30596 net.cpp:408] detection_accuracy_2_3x5 -> boxiou_2_3x5
I0124 16:49:45.955363 30596 net.cpp:150] Setting up detection_accuracy_2_3x5
I0124 16:49:45.955370 30596 net.cpp:157] Top shape: 1 1 1 2 (2)
I0124 16:49:45.955374 30596 net.cpp:157] Top shape: 1 1 1 1 (1)
I0124 16:49:45.955379 30596 net.cpp:165] Memory required for data: 2253341464
I0124 16:49:45.955384 30596 layer_factory.hpp:77] Creating layer LFCN_2_5x7
I0124 16:49:45.955399 30596 net.cpp:100] Creating Layer LFCN_2_5x7
I0124 16:49:45.955404 30596 net.cpp:434] LFCN_2_5x7 <- conv5_3_relu5_3_0_split_1
I0124 16:49:45.955412 30596 net.cpp:408] LFCN_2_5x7 -> LFCN_2_5x7
I0124 16:49:45.966080 30596 net.cpp:150] Setting up LFCN_2_5x7
I0124 16:49:45.966109 30596 net.cpp:157] Top shape: 2 7 36 48 (24192)
I0124 16:49:45.966114 30596 net.cpp:165] Memory required for data: 2253438232
I0124 16:49:45.966126 30596 layer_factory.hpp:77] Creating layer LFCN_2_5x7_LFCN_2_5x7_0_split
I0124 16:49:45.966137 30596 net.cpp:100] Creating Layer LFCN_2_5x7_LFCN_2_5x7_0_split
I0124 16:49:45.966142 30596 net.cpp:434] LFCN_2_5x7_LFCN_2_5x7_0_split <- LFCN_2_5x7
I0124 16:49:45.966156 30596 net.cpp:408] LFCN_2_5x7_LFCN_2_5x7_0_split -> LFCN_2_5x7_LFCN_2_5x7_0_split_0
I0124 16:49:45.966169 30596 net.cpp:408] LFCN_2_5x7_LFCN_2_5x7_0_split -> LFCN_2_5x7_LFCN_2_5x7_0_split_1
I0124 16:49:45.966178 30596 net.cpp:408] LFCN_2_5x7_LFCN_2_5x7_0_split -> LFCN_2_5x7_LFCN_2_5x7_0_split_2
I0124 16:49:45.966253 30596 net.cpp:150] Setting up LFCN_2_5x7_LFCN_2_5x7_0_split
I0124 16:49:45.966261 30596 net.cpp:157] Top shape: 2 7 36 48 (24192)
I0124 16:49:45.966266 30596 net.cpp:157] Top shape: 2 7 36 48 (24192)
I0124 16:49:45.966270 30596 net.cpp:157] Top shape: 2 7 36 48 (24192)
I0124 16:49:45.966274 30596 net.cpp:165] Memory required for data: 2253728536
I0124 16:49:45.966276 30596 layer_factory.hpp:77] Creating layer detection_loss_2_5x7
I0124 16:49:45.966286 30596 net.cpp:100] Creating Layer detection_loss_2_5x7
I0124 16:49:45.966290 30596 net.cpp:434] detection_loss_2_5x7 <- LFCN_2_5x7_LFCN_2_5x7_0_split_0
I0124 16:49:45.966296 30596 net.cpp:434] detection_loss_2_5x7 <- label_2_5x7_data_4_split_0
I0124 16:49:45.966303 30596 net.cpp:408] detection_loss_2_5x7 -> loss_2_5x7
I0124 16:49:45.966315 30596 layer_factory.hpp:77] Creating layer detection_loss_2_5x7
I0124 16:49:45.966769 30596 net.cpp:150] Setting up detection_loss_2_5x7
I0124 16:49:45.966781 30596 net.cpp:157] Top shape: 1 1 1 2 (2)
I0124 16:49:45.966784 30596 net.cpp:160]     with loss weight 1
I0124 16:49:45.966794 30596 net.cpp:165] Memory required for data: 2253728544
I0124 16:49:45.966799 30596 layer_factory.hpp:77] Creating layer detection_accuracy_2_5x7
I0124 16:49:45.966807 30596 net.cpp:100] Creating Layer detection_accuracy_2_5x7
I0124 16:49:45.966811 30596 net.cpp:434] detection_accuracy_2_5x7 <- LFCN_2_5x7_LFCN_2_5x7_0_split_1
I0124 16:49:45.966816 30596 net.cpp:434] detection_accuracy_2_5x7 <- label_2_5x7_data_4_split_1
I0124 16:49:45.966826 30596 net.cpp:408] detection_accuracy_2_5x7 -> accuracy_2_5x7
I0124 16:49:45.966836 30596 net.cpp:408] detection_accuracy_2_5x7 -> boxiou_2_5x7
I0124 16:49:45.966898 30596 net.cpp:150] Setting up detection_accuracy_2_5x7
I0124 16:49:45.966905 30596 net.cpp:157] Top shape: 1 1 1 2 (2)
I0124 16:49:45.966910 30596 net.cpp:157] Top shape: 1 1 1 1 (1)
I0124 16:49:45.966912 30596 net.cpp:165] Memory required for data: 2253728556
I0124 16:49:45.966917 30596 layer_factory.hpp:77] Creating layer pool5
I0124 16:49:45.966924 30596 net.cpp:100] Creating Layer pool5
I0124 16:49:45.966928 30596 net.cpp:434] pool5 <- conv5_3_relu5_3_0_split_2
I0124 16:49:45.966936 30596 net.cpp:408] pool5 -> pool5
I0124 16:49:45.967005 30596 net.cpp:150] Setting up pool5
I0124 16:49:45.967015 30596 net.cpp:157] Top shape: 2 512 18 24 (442368)
I0124 16:49:45.967020 30596 net.cpp:165] Memory required for data: 2255498028
I0124 16:49:45.967022 30596 layer_factory.hpp:77] Creating layer conv6_1
I0124 16:49:45.967037 30596 net.cpp:100] Creating Layer conv6_1
I0124 16:49:45.967041 30596 net.cpp:434] conv6_1 <- pool5
I0124 16:49:45.967048 30596 net.cpp:408] conv6_1 -> conv6_1
I0124 16:49:45.992893 30596 net.cpp:150] Setting up conv6_1
I0124 16:49:45.992925 30596 net.cpp:157] Top shape: 2 512 18 24 (442368)
I0124 16:49:45.992929 30596 net.cpp:165] Memory required for data: 2257267500
I0124 16:49:45.992939 30596 layer_factory.hpp:77] Creating layer relu6_1
I0124 16:49:45.992951 30596 net.cpp:100] Creating Layer relu6_1
I0124 16:49:45.992957 30596 net.cpp:434] relu6_1 <- conv6_1
I0124 16:49:45.992964 30596 net.cpp:395] relu6_1 -> conv6_1 (in-place)
I0124 16:49:45.993126 30596 net.cpp:150] Setting up relu6_1
I0124 16:49:45.993134 30596 net.cpp:157] Top shape: 2 512 18 24 (442368)
I0124 16:49:45.993136 30596 net.cpp:165] Memory required for data: 2259036972
I0124 16:49:45.993139 30596 layer_factory.hpp:77] Creating layer conv6_1_relu6_1_0_split
I0124 16:49:45.993149 30596 net.cpp:100] Creating Layer conv6_1_relu6_1_0_split
I0124 16:49:45.993152 30596 net.cpp:434] conv6_1_relu6_1_0_split <- conv6_1
I0124 16:49:45.993158 30596 net.cpp:408] conv6_1_relu6_1_0_split -> conv6_1_relu6_1_0_split_0
I0124 16:49:45.993170 30596 net.cpp:408] conv6_1_relu6_1_0_split -> conv6_1_relu6_1_0_split_1
I0124 16:49:45.993177 30596 net.cpp:408] conv6_1_relu6_1_0_split -> conv6_1_relu6_1_0_split_2
I0124 16:49:45.993235 30596 net.cpp:150] Setting up conv6_1_relu6_1_0_split
I0124 16:49:45.993242 30596 net.cpp:157] Top shape: 2 512 18 24 (442368)
I0124 16:49:45.993244 30596 net.cpp:157] Top shape: 2 512 18 24 (442368)
I0124 16:49:45.993248 30596 net.cpp:157] Top shape: 2 512 18 24 (442368)
I0124 16:49:45.993252 30596 net.cpp:165] Memory required for data: 2264345388
I0124 16:49:45.993254 30596 layer_factory.hpp:77] Creating layer LFCN_3_3x5
I0124 16:49:45.993268 30596 net.cpp:100] Creating Layer LFCN_3_3x5
I0124 16:49:45.993273 30596 net.cpp:434] LFCN_3_3x5 <- conv6_1_relu6_1_0_split_0
I0124 16:49:45.993279 30596 net.cpp:408] LFCN_3_3x5 -> LFCN_3_3x5
I0124 16:49:45.994940 30596 net.cpp:150] Setting up LFCN_3_3x5
I0124 16:49:45.994954 30596 net.cpp:157] Top shape: 2 7 18 24 (6048)
I0124 16:49:45.994957 30596 net.cpp:165] Memory required for data: 2264369580
I0124 16:49:45.994963 30596 layer_factory.hpp:77] Creating layer LFCN_3_3x5_LFCN_3_3x5_0_split
I0124 16:49:45.994979 30596 net.cpp:100] Creating Layer LFCN_3_3x5_LFCN_3_3x5_0_split
I0124 16:49:45.994985 30596 net.cpp:434] LFCN_3_3x5_LFCN_3_3x5_0_split <- LFCN_3_3x5
I0124 16:49:45.994993 30596 net.cpp:408] LFCN_3_3x5_LFCN_3_3x5_0_split -> LFCN_3_3x5_LFCN_3_3x5_0_split_0
I0124 16:49:45.995023 30596 net.cpp:408] LFCN_3_3x5_LFCN_3_3x5_0_split -> LFCN_3_3x5_LFCN_3_3x5_0_split_1
I0124 16:49:45.995028 30596 net.cpp:408] LFCN_3_3x5_LFCN_3_3x5_0_split -> LFCN_3_3x5_LFCN_3_3x5_0_split_2
I0124 16:49:45.995081 30596 net.cpp:150] Setting up LFCN_3_3x5_LFCN_3_3x5_0_split
I0124 16:49:45.995087 30596 net.cpp:157] Top shape: 2 7 18 24 (6048)
I0124 16:49:45.995090 30596 net.cpp:157] Top shape: 2 7 18 24 (6048)
I0124 16:49:45.995092 30596 net.cpp:157] Top shape: 2 7 18 24 (6048)
I0124 16:49:45.995095 30596 net.cpp:165] Memory required for data: 2264442156
I0124 16:49:45.995097 30596 layer_factory.hpp:77] Creating layer detection_loss_3_3x5
I0124 16:49:45.995103 30596 net.cpp:100] Creating Layer detection_loss_3_3x5
I0124 16:49:45.995107 30596 net.cpp:434] detection_loss_3_3x5 <- LFCN_3_3x5_LFCN_3_3x5_0_split_0
I0124 16:49:45.995112 30596 net.cpp:434] detection_loss_3_3x5 <- label_3_3x5_data_5_split_0
I0124 16:49:45.995118 30596 net.cpp:408] detection_loss_3_3x5 -> loss_3_3x5
I0124 16:49:45.995127 30596 layer_factory.hpp:77] Creating layer detection_loss_3_3x5
I0124 16:49:45.995442 30596 net.cpp:150] Setting up detection_loss_3_3x5
I0124 16:49:45.995450 30596 net.cpp:157] Top shape: 1 1 1 2 (2)
I0124 16:49:45.995451 30596 net.cpp:160]     with loss weight 1
I0124 16:49:45.995460 30596 net.cpp:165] Memory required for data: 2264442164
I0124 16:49:45.995461 30596 layer_factory.hpp:77] Creating layer detection_accuracy_3_3x5
I0124 16:49:45.995468 30596 net.cpp:100] Creating Layer detection_accuracy_3_3x5
I0124 16:49:45.995472 30596 net.cpp:434] detection_accuracy_3_3x5 <- LFCN_3_3x5_LFCN_3_3x5_0_split_1
I0124 16:49:45.995476 30596 net.cpp:434] detection_accuracy_3_3x5 <- label_3_3x5_data_5_split_1
I0124 16:49:45.995481 30596 net.cpp:408] detection_accuracy_3_3x5 -> accuracy_3_3x5
I0124 16:49:45.995489 30596 net.cpp:408] detection_accuracy_3_3x5 -> boxiou_3_3x5
I0124 16:49:45.995530 30596 net.cpp:150] Setting up detection_accuracy_3_3x5
I0124 16:49:45.995535 30596 net.cpp:157] Top shape: 1 1 1 2 (2)
I0124 16:49:45.995538 30596 net.cpp:157] Top shape: 1 1 1 1 (1)
I0124 16:49:45.995539 30596 net.cpp:165] Memory required for data: 2264442176
I0124 16:49:45.995543 30596 layer_factory.hpp:77] Creating layer LFCN_3_5x7
I0124 16:49:45.995551 30596 net.cpp:100] Creating Layer LFCN_3_5x7
I0124 16:49:45.995555 30596 net.cpp:434] LFCN_3_5x7 <- conv6_1_relu6_1_0_split_1
I0124 16:49:45.995560 30596 net.cpp:408] LFCN_3_5x7 -> LFCN_3_5x7
I0124 16:49:46.002936 30596 net.cpp:150] Setting up LFCN_3_5x7
I0124 16:49:46.002955 30596 net.cpp:157] Top shape: 2 7 18 24 (6048)
I0124 16:49:46.002959 30596 net.cpp:165] Memory required for data: 2264466368
I0124 16:49:46.002965 30596 layer_factory.hpp:77] Creating layer LFCN_3_5x7_LFCN_3_5x7_0_split
I0124 16:49:46.002972 30596 net.cpp:100] Creating Layer LFCN_3_5x7_LFCN_3_5x7_0_split
I0124 16:49:46.002975 30596 net.cpp:434] LFCN_3_5x7_LFCN_3_5x7_0_split <- LFCN_3_5x7
I0124 16:49:46.002982 30596 net.cpp:408] LFCN_3_5x7_LFCN_3_5x7_0_split -> LFCN_3_5x7_LFCN_3_5x7_0_split_0
I0124 16:49:46.002993 30596 net.cpp:408] LFCN_3_5x7_LFCN_3_5x7_0_split -> LFCN_3_5x7_LFCN_3_5x7_0_split_1
I0124 16:49:46.003003 30596 net.cpp:408] LFCN_3_5x7_LFCN_3_5x7_0_split -> LFCN_3_5x7_LFCN_3_5x7_0_split_2
I0124 16:49:46.003060 30596 net.cpp:150] Setting up LFCN_3_5x7_LFCN_3_5x7_0_split
I0124 16:49:46.003067 30596 net.cpp:157] Top shape: 2 7 18 24 (6048)
I0124 16:49:46.003069 30596 net.cpp:157] Top shape: 2 7 18 24 (6048)
I0124 16:49:46.003074 30596 net.cpp:157] Top shape: 2 7 18 24 (6048)
I0124 16:49:46.003077 30596 net.cpp:165] Memory required for data: 2264538944
I0124 16:49:46.003080 30596 layer_factory.hpp:77] Creating layer detection_loss_3_5x7
I0124 16:49:46.003089 30596 net.cpp:100] Creating Layer detection_loss_3_5x7
I0124 16:49:46.003094 30596 net.cpp:434] detection_loss_3_5x7 <- LFCN_3_5x7_LFCN_3_5x7_0_split_0
I0124 16:49:46.003099 30596 net.cpp:434] detection_loss_3_5x7 <- label_3_5x7_data_6_split_0
I0124 16:49:46.003108 30596 net.cpp:408] detection_loss_3_5x7 -> loss_3_5x7
I0124 16:49:46.003118 30596 layer_factory.hpp:77] Creating layer detection_loss_3_5x7
I0124 16:49:46.003851 30596 net.cpp:150] Setting up detection_loss_3_5x7
I0124 16:49:46.003862 30596 net.cpp:157] Top shape: 1 1 1 2 (2)
I0124 16:49:46.003865 30596 net.cpp:160]     with loss weight 1
I0124 16:49:46.003875 30596 net.cpp:165] Memory required for data: 2264538952
I0124 16:49:46.003878 30596 layer_factory.hpp:77] Creating layer detection_accuracy_3_5x7
I0124 16:49:46.003888 30596 net.cpp:100] Creating Layer detection_accuracy_3_5x7
I0124 16:49:46.003892 30596 net.cpp:434] detection_accuracy_3_5x7 <- LFCN_3_5x7_LFCN_3_5x7_0_split_1
I0124 16:49:46.003897 30596 net.cpp:434] detection_accuracy_3_5x7 <- label_3_5x7_data_6_split_1
I0124 16:49:46.003904 30596 net.cpp:408] detection_accuracy_3_5x7 -> accuracy_3_5x7
I0124 16:49:46.003916 30596 net.cpp:408] detection_accuracy_3_5x7 -> boxiou_3_5x7
I0124 16:49:46.003976 30596 net.cpp:150] Setting up detection_accuracy_3_5x7
I0124 16:49:46.003983 30596 net.cpp:157] Top shape: 1 1 1 2 (2)
I0124 16:49:46.003985 30596 net.cpp:157] Top shape: 1 1 1 1 (1)
I0124 16:49:46.003988 30596 net.cpp:165] Memory required for data: 2264538964
I0124 16:49:46.003991 30596 layer_factory.hpp:77] Creating layer pool6
I0124 16:49:46.003999 30596 net.cpp:100] Creating Layer pool6
I0124 16:49:46.004004 30596 net.cpp:434] pool6 <- conv6_1_relu6_1_0_split_2
I0124 16:49:46.004010 30596 net.cpp:408] pool6 -> pool6
I0124 16:49:46.004055 30596 net.cpp:150] Setting up pool6
I0124 16:49:46.004060 30596 net.cpp:157] Top shape: 2 512 9 12 (110592)
I0124 16:49:46.004061 30596 net.cpp:165] Memory required for data: 2264981332
I0124 16:49:46.004065 30596 layer_factory.hpp:77] Creating layer LFCN_4_3x5
I0124 16:49:46.004076 30596 net.cpp:100] Creating Layer LFCN_4_3x5
I0124 16:49:46.004079 30596 net.cpp:434] LFCN_4_3x5 <- pool6
I0124 16:49:46.004087 30596 net.cpp:408] LFCN_4_3x5 -> LFCN_4_3x5
I0124 16:49:46.005553 30596 net.cpp:150] Setting up LFCN_4_3x5
I0124 16:49:46.005564 30596 net.cpp:157] Top shape: 2 7 9 12 (1512)
I0124 16:49:46.005566 30596 net.cpp:165] Memory required for data: 2264987380
I0124 16:49:46.005573 30596 layer_factory.hpp:77] Creating layer LFCN_4_3x5_LFCN_4_3x5_0_split
I0124 16:49:46.005580 30596 net.cpp:100] Creating Layer LFCN_4_3x5_LFCN_4_3x5_0_split
I0124 16:49:46.005584 30596 net.cpp:434] LFCN_4_3x5_LFCN_4_3x5_0_split <- LFCN_4_3x5
I0124 16:49:46.005594 30596 net.cpp:408] LFCN_4_3x5_LFCN_4_3x5_0_split -> LFCN_4_3x5_LFCN_4_3x5_0_split_0
I0124 16:49:46.005604 30596 net.cpp:408] LFCN_4_3x5_LFCN_4_3x5_0_split -> LFCN_4_3x5_LFCN_4_3x5_0_split_1
I0124 16:49:46.005612 30596 net.cpp:408] LFCN_4_3x5_LFCN_4_3x5_0_split -> LFCN_4_3x5_LFCN_4_3x5_0_split_2
I0124 16:49:46.005671 30596 net.cpp:150] Setting up LFCN_4_3x5_LFCN_4_3x5_0_split
I0124 16:49:46.005676 30596 net.cpp:157] Top shape: 2 7 9 12 (1512)
I0124 16:49:46.005679 30596 net.cpp:157] Top shape: 2 7 9 12 (1512)
I0124 16:49:46.005683 30596 net.cpp:157] Top shape: 2 7 9 12 (1512)
I0124 16:49:46.005686 30596 net.cpp:165] Memory required for data: 2265005524
I0124 16:49:46.005688 30596 layer_factory.hpp:77] Creating layer detection_loss_4_3x5
I0124 16:49:46.005697 30596 net.cpp:100] Creating Layer detection_loss_4_3x5
I0124 16:49:46.005700 30596 net.cpp:434] detection_loss_4_3x5 <- LFCN_4_3x5_LFCN_4_3x5_0_split_0
I0124 16:49:46.005704 30596 net.cpp:434] detection_loss_4_3x5 <- label_4_3x5_data_7_split_0
I0124 16:49:46.005709 30596 net.cpp:408] detection_loss_4_3x5 -> loss_4_3x5
I0124 16:49:46.005718 30596 layer_factory.hpp:77] Creating layer detection_loss_4_3x5
I0124 16:49:46.006041 30596 net.cpp:150] Setting up detection_loss_4_3x5
I0124 16:49:46.006048 30596 net.cpp:157] Top shape: 1 1 1 2 (2)
I0124 16:49:46.006050 30596 net.cpp:160]     with loss weight 1
I0124 16:49:46.006057 30596 net.cpp:165] Memory required for data: 2265005532
I0124 16:49:46.006059 30596 layer_factory.hpp:77] Creating layer detection_accuracy_4_3x5
I0124 16:49:46.006068 30596 net.cpp:100] Creating Layer detection_accuracy_4_3x5
I0124 16:49:46.006072 30596 net.cpp:434] detection_accuracy_4_3x5 <- LFCN_4_3x5_LFCN_4_3x5_0_split_1
I0124 16:49:46.006078 30596 net.cpp:434] detection_accuracy_4_3x5 <- label_4_3x5_data_7_split_1
I0124 16:49:46.006083 30596 net.cpp:408] detection_accuracy_4_3x5 -> accuracy_4_3x5
I0124 16:49:46.006093 30596 net.cpp:408] detection_accuracy_4_3x5 -> boxiou_4_3x5
I0124 16:49:46.006134 30596 net.cpp:150] Setting up detection_accuracy_4_3x5
I0124 16:49:46.006140 30596 net.cpp:157] Top shape: 1 1 1 2 (2)
I0124 16:49:46.006142 30596 net.cpp:157] Top shape: 1 1 1 1 (1)
I0124 16:49:46.006145 30596 net.cpp:165] Memory required for data: 2265005544
I0124 16:49:46.006148 30596 layer_factory.hpp:77] Creating layer proposals
I0124 16:49:46.006158 30596 net.cpp:100] Creating Layer proposals
I0124 16:49:46.006162 30596 net.cpp:434] proposals <- LFCN_1_3x5_LFCN_1_3x5_0_split_2
I0124 16:49:46.006167 30596 net.cpp:434] proposals <- LFCN_1_5x7_LFCN_1_5x7_0_split_2
I0124 16:49:46.006172 30596 net.cpp:434] proposals <- LFCN_2_3x5_LFCN_2_3x5_0_split_2
I0124 16:49:46.006177 30596 net.cpp:434] proposals <- LFCN_2_5x7_LFCN_2_5x7_0_split_2
I0124 16:49:46.006181 30596 net.cpp:434] proposals <- LFCN_3_3x5_LFCN_3_3x5_0_split_2
I0124 16:49:46.006184 30596 net.cpp:434] proposals <- LFCN_3_5x7_LFCN_3_5x7_0_split_2
I0124 16:49:46.006188 30596 net.cpp:434] proposals <- LFCN_4_3x5_LFCN_4_3x5_0_split_2
I0124 16:49:46.006196 30596 net.cpp:408] proposals -> proposals
I0124 16:49:46.006224 30596 net.cpp:150] Setting up proposals
I0124 16:49:46.006230 30596 net.cpp:157] Top shape: 1 5 1 1 (5)
I0124 16:49:46.006233 30596 net.cpp:165] Memory required for data: 2265005564
I0124 16:49:46.006237 30596 layer_factory.hpp:77] Creating layer proposal_info
I0124 16:49:46.006247 30596 net.cpp:100] Creating Layer proposal_info
I0124 16:49:46.006250 30596 net.cpp:434] proposal_info <- proposals
I0124 16:49:46.006254 30596 net.cpp:434] proposal_info <- gt_boxes
I0124 16:49:46.006263 30596 net.cpp:408] proposal_info -> rois
I0124 16:49:46.006273 30596 net.cpp:408] proposal_info -> proposal_labels
I0124 16:49:46.006280 30596 net.cpp:408] proposal_info -> proposal_targets
I0124 16:49:46.006289 30596 net.cpp:408] proposal_info -> box_inside_weights
I0124 16:49:46.006296 30596 net.cpp:408] proposal_info -> box_outside_weights
I0124 16:49:46.006306 30596 net.cpp:408] proposal_info -> match_gt_boxes
I0124 16:49:46.006393 30596 net.cpp:150] Setting up proposal_info
I0124 16:49:46.006399 30596 net.cpp:157] Top shape: 64 5 1 1 (320)
I0124 16:49:46.006402 30596 net.cpp:157] Top shape: 64 1 1 1 (64)
I0124 16:49:46.006405 30596 net.cpp:157] Top shape: 64 12 1 1 (768)
I0124 16:49:46.006408 30596 net.cpp:157] Top shape: 64 12 1 1 (768)
I0124 16:49:46.006412 30596 net.cpp:157] Top shape: 64 12 1 1 (768)
I0124 16:49:46.006415 30596 net.cpp:157] Top shape: 64 6 1 1 (384)
I0124 16:49:46.006418 30596 net.cpp:165] Memory required for data: 2265017852
I0124 16:49:46.006422 30596 layer_factory.hpp:77] Creating layer rois_proposal_info_0_split
I0124 16:49:46.006428 30596 net.cpp:100] Creating Layer rois_proposal_info_0_split
I0124 16:49:46.006431 30596 net.cpp:434] rois_proposal_info_0_split <- rois
I0124 16:49:46.006438 30596 net.cpp:408] rois_proposal_info_0_split -> rois_proposal_info_0_split_0
I0124 16:49:46.006446 30596 net.cpp:408] rois_proposal_info_0_split -> rois_proposal_info_0_split_1
I0124 16:49:46.006453 30596 net.cpp:408] rois_proposal_info_0_split -> rois_proposal_info_0_split_2
I0124 16:49:46.006498 30596 net.cpp:150] Setting up rois_proposal_info_0_split
I0124 16:49:46.006503 30596 net.cpp:157] Top shape: 64 5 1 1 (320)
I0124 16:49:46.006506 30596 net.cpp:157] Top shape: 64 5 1 1 (320)
I0124 16:49:46.006510 30596 net.cpp:157] Top shape: 64 5 1 1 (320)
I0124 16:49:46.006513 30596 net.cpp:165] Memory required for data: 2265021692
I0124 16:49:46.006516 30596 layer_factory.hpp:77] Creating layer proposal_labels_proposal_info_1_split
I0124 16:49:46.006522 30596 net.cpp:100] Creating Layer proposal_labels_proposal_info_1_split
I0124 16:49:46.006526 30596 net.cpp:434] proposal_labels_proposal_info_1_split <- proposal_labels
I0124 16:49:46.006533 30596 net.cpp:408] proposal_labels_proposal_info_1_split -> proposal_labels_proposal_info_1_split_0
I0124 16:49:46.006541 30596 net.cpp:408] proposal_labels_proposal_info_1_split -> proposal_labels_proposal_info_1_split_1
I0124 16:49:46.006577 30596 net.cpp:150] Setting up proposal_labels_proposal_info_1_split
I0124 16:49:46.006582 30596 net.cpp:157] Top shape: 64 1 1 1 (64)
I0124 16:49:46.006584 30596 net.cpp:157] Top shape: 64 1 1 1 (64)
I0124 16:49:46.006587 30596 net.cpp:165] Memory required for data: 2265022204
I0124 16:49:46.006588 30596 layer_factory.hpp:77] Creating layer conv4_3_2x
I0124 16:49:46.006595 30596 net.cpp:100] Creating Layer conv4_3_2x
I0124 16:49:46.006602 30596 net.cpp:434] conv4_3_2x <- conv4_3_relu4_3_0_split_2
I0124 16:49:46.006610 30596 net.cpp:408] conv4_3_2x -> conv4_3_2x
I0124 16:49:46.006976 30596 net.cpp:150] Setting up conv4_3_2x
I0124 16:49:46.006983 30596 net.cpp:157] Top shape: 2 512 144 192 (28311552)
I0124 16:49:46.006988 30596 net.cpp:165] Memory required for data: 2378268412
I0124 16:49:46.006992 30596 layer_factory.hpp:77] Creating layer conv4_3_2x_conv4_3_2x_0_split
I0124 16:49:46.006999 30596 net.cpp:100] Creating Layer conv4_3_2x_conv4_3_2x_0_split
I0124 16:49:46.007004 30596 net.cpp:434] conv4_3_2x_conv4_3_2x_0_split <- conv4_3_2x
I0124 16:49:46.007009 30596 net.cpp:408] conv4_3_2x_conv4_3_2x_0_split -> conv4_3_2x_conv4_3_2x_0_split_0
I0124 16:49:46.007017 30596 net.cpp:408] conv4_3_2x_conv4_3_2x_0_split -> conv4_3_2x_conv4_3_2x_0_split_1
I0124 16:49:46.007055 30596 net.cpp:150] Setting up conv4_3_2x_conv4_3_2x_0_split
I0124 16:49:46.007061 30596 net.cpp:157] Top shape: 2 512 144 192 (28311552)
I0124 16:49:46.007066 30596 net.cpp:157] Top shape: 2 512 144 192 (28311552)
I0124 16:49:46.007068 30596 net.cpp:165] Memory required for data: 2604760828
I0124 16:49:46.007073 30596 layer_factory.hpp:77] Creating layer roi_pool_org
I0124 16:49:46.007079 30596 net.cpp:100] Creating Layer roi_pool_org
I0124 16:49:46.007083 30596 net.cpp:434] roi_pool_org <- conv4_3_2x_conv4_3_2x_0_split_0
I0124 16:49:46.007087 30596 net.cpp:434] roi_pool_org <- rois_proposal_info_0_split_0
I0124 16:49:46.007093 30596 net.cpp:408] roi_pool_org -> roi_pool_org
I0124 16:49:46.007102 30596 roi_pooling_layer.cpp:33] Spatial scale: 0.25
I0124 16:49:46.007143 30596 net.cpp:150] Setting up roi_pool_org
I0124 16:49:46.007148 30596 net.cpp:157] Top shape: 64 512 7 5 (1146880)
I0124 16:49:46.007151 30596 net.cpp:165] Memory required for data: 2609348348
I0124 16:49:46.007154 30596 layer_factory.hpp:77] Creating layer roi_pool_ctx
I0124 16:49:46.007161 30596 net.cpp:100] Creating Layer roi_pool_ctx
I0124 16:49:46.007165 30596 net.cpp:434] roi_pool_ctx <- conv4_3_2x_conv4_3_2x_0_split_1
I0124 16:49:46.007169 30596 net.cpp:434] roi_pool_ctx <- rois_proposal_info_0_split_1
I0124 16:49:46.007176 30596 net.cpp:408] roi_pool_ctx -> roi_pool_ctx
I0124 16:49:46.007184 30596 roi_pooling_layer.cpp:33] Spatial scale: 0.25
I0124 16:49:46.007222 30596 net.cpp:150] Setting up roi_pool_ctx
I0124 16:49:46.007228 30596 net.cpp:157] Top shape: 64 512 7 5 (1146880)
I0124 16:49:46.007232 30596 net.cpp:165] Memory required for data: 2613935868
I0124 16:49:46.007236 30596 layer_factory.hpp:77] Creating layer roi_pool
I0124 16:49:46.007243 30596 net.cpp:100] Creating Layer roi_pool
I0124 16:49:46.007246 30596 net.cpp:434] roi_pool <- roi_pool_org
I0124 16:49:46.007251 30596 net.cpp:434] roi_pool <- roi_pool_ctx
I0124 16:49:46.007257 30596 net.cpp:408] roi_pool -> roi_pool
I0124 16:49:46.007283 30596 net.cpp:150] Setting up roi_pool
I0124 16:49:46.007288 30596 net.cpp:157] Top shape: 64 1024 7 5 (2293760)
I0124 16:49:46.007292 30596 net.cpp:165] Memory required for data: 2623110908
I0124 16:49:46.007295 30596 layer_factory.hpp:77] Creating layer roi_c1
I0124 16:49:46.007308 30596 net.cpp:100] Creating Layer roi_c1
I0124 16:49:46.007311 30596 net.cpp:434] roi_c1 <- roi_pool
I0124 16:49:46.007318 30596 net.cpp:408] roi_c1 -> roi_c1
I0124 16:49:46.066128 30596 net.cpp:150] Setting up roi_c1
I0124 16:49:46.066159 30596 net.cpp:157] Top shape: 64 512 5 3 (491520)
I0124 16:49:46.066164 30596 net.cpp:165] Memory required for data: 2625076988
I0124 16:49:46.066175 30596 layer_factory.hpp:77] Creating layer roi_c1_relu
I0124 16:49:46.066186 30596 net.cpp:100] Creating Layer roi_c1_relu
I0124 16:49:46.066200 30596 net.cpp:434] roi_c1_relu <- roi_c1
I0124 16:49:46.066210 30596 net.cpp:395] roi_c1_relu -> roi_c1 (in-place)
I0124 16:49:46.066449 30596 net.cpp:150] Setting up roi_c1_relu
I0124 16:49:46.066462 30596 net.cpp:157] Top shape: 64 512 5 3 (491520)
I0124 16:49:46.066468 30596 net.cpp:165] Memory required for data: 2627043068
I0124 16:49:46.066473 30596 layer_factory.hpp:77] Creating layer fc6
I0124 16:49:46.066484 30596 net.cpp:100] Creating Layer fc6
I0124 16:49:46.066490 30596 net.cpp:434] fc6 <- roi_c1
I0124 16:49:46.066504 30596 net.cpp:408] fc6 -> fc6
I0124 16:49:46.273470 30596 net.cpp:150] Setting up fc6
I0124 16:49:46.273507 30596 net.cpp:157] Top shape: 64 2048 (131072)
I0124 16:49:46.273511 30596 net.cpp:165] Memory required for data: 2627567356
I0124 16:49:46.273525 30596 layer_factory.hpp:77] Creating layer relu6
I0124 16:49:46.273538 30596 net.cpp:100] Creating Layer relu6
I0124 16:49:46.273545 30596 net.cpp:434] relu6 <- fc6
I0124 16:49:46.273556 30596 net.cpp:395] relu6 -> fc6 (in-place)
I0124 16:49:46.273862 30596 net.cpp:150] Setting up relu6
I0124 16:49:46.273874 30596 net.cpp:157] Top shape: 64 2048 (131072)
I0124 16:49:46.273877 30596 net.cpp:165] Memory required for data: 2628091644
I0124 16:49:46.273881 30596 layer_factory.hpp:77] Creating layer drop6
I0124 16:49:46.273891 30596 net.cpp:100] Creating Layer drop6
I0124 16:49:46.273897 30596 net.cpp:434] drop6 <- fc6
I0124 16:49:46.273905 30596 net.cpp:395] drop6 -> fc6 (in-place)
I0124 16:49:46.273947 30596 net.cpp:150] Setting up drop6
I0124 16:49:46.273955 30596 net.cpp:157] Top shape: 64 2048 (131072)
I0124 16:49:46.273960 30596 net.cpp:165] Memory required for data: 2628615932
I0124 16:49:46.273963 30596 layer_factory.hpp:77] Creating layer fc6_drop6_0_split
I0124 16:49:46.273972 30596 net.cpp:100] Creating Layer fc6_drop6_0_split
I0124 16:49:46.273977 30596 net.cpp:434] fc6_drop6_0_split <- fc6
I0124 16:49:46.273985 30596 net.cpp:408] fc6_drop6_0_split -> fc6_drop6_0_split_0
I0124 16:49:46.273998 30596 net.cpp:408] fc6_drop6_0_split -> fc6_drop6_0_split_1
I0124 16:49:46.274056 30596 net.cpp:150] Setting up fc6_drop6_0_split
I0124 16:49:46.274065 30596 net.cpp:157] Top shape: 64 2048 (131072)
I0124 16:49:46.274070 30596 net.cpp:157] Top shape: 64 2048 (131072)
I0124 16:49:46.274075 30596 net.cpp:165] Memory required for data: 2629664508
I0124 16:49:46.274080 30596 layer_factory.hpp:77] Creating layer cls_pred
I0124 16:49:46.274091 30596 net.cpp:100] Creating Layer cls_pred
I0124 16:49:46.274096 30596 net.cpp:434] cls_pred <- fc6_drop6_0_split_0
I0124 16:49:46.274106 30596 net.cpp:408] cls_pred -> cls_pred
I0124 16:49:46.274360 30596 net.cpp:150] Setting up cls_pred
I0124 16:49:46.274370 30596 net.cpp:157] Top shape: 64 3 (192)
I0124 16:49:46.274374 30596 net.cpp:165] Memory required for data: 2629665276
I0124 16:49:46.274381 30596 layer_factory.hpp:77] Creating layer cls_pred_cls_pred_0_split
I0124 16:49:46.274389 30596 net.cpp:100] Creating Layer cls_pred_cls_pred_0_split
I0124 16:49:46.274394 30596 net.cpp:434] cls_pred_cls_pred_0_split <- cls_pred
I0124 16:49:46.274402 30596 net.cpp:408] cls_pred_cls_pred_0_split -> cls_pred_cls_pred_0_split_0
I0124 16:49:46.274411 30596 net.cpp:408] cls_pred_cls_pred_0_split -> cls_pred_cls_pred_0_split_1
I0124 16:49:46.274492 30596 net.cpp:150] Setting up cls_pred_cls_pred_0_split
I0124 16:49:46.274500 30596 net.cpp:157] Top shape: 64 3 (192)
I0124 16:49:46.274507 30596 net.cpp:157] Top shape: 64 3 (192)
I0124 16:49:46.274510 30596 net.cpp:165] Memory required for data: 2629666812
I0124 16:49:46.274515 30596 layer_factory.hpp:77] Creating layer bbox_pred
I0124 16:49:46.274523 30596 net.cpp:100] Creating Layer bbox_pred
I0124 16:49:46.274529 30596 net.cpp:434] bbox_pred <- fc6_drop6_0_split_1
I0124 16:49:46.274538 30596 net.cpp:408] bbox_pred -> bbox_pred
I0124 16:49:46.275012 30596 net.cpp:150] Setting up bbox_pred
I0124 16:49:46.275022 30596 net.cpp:157] Top shape: 64 12 (768)
I0124 16:49:46.275025 30596 net.cpp:165] Memory required for data: 2629669884
I0124 16:49:46.275032 30596 layer_factory.hpp:77] Creating layer bbox_pred_bbox_pred_0_split
I0124 16:49:46.275039 30596 net.cpp:100] Creating Layer bbox_pred_bbox_pred_0_split
I0124 16:49:46.275044 30596 net.cpp:434] bbox_pred_bbox_pred_0_split <- bbox_pred
I0124 16:49:46.275051 30596 net.cpp:408] bbox_pred_bbox_pred_0_split -> bbox_pred_bbox_pred_0_split_0
I0124 16:49:46.275063 30596 net.cpp:408] bbox_pred_bbox_pred_0_split -> bbox_pred_bbox_pred_0_split_1
I0124 16:49:46.275116 30596 net.cpp:150] Setting up bbox_pred_bbox_pred_0_split
I0124 16:49:46.275123 30596 net.cpp:157] Top shape: 64 12 (768)
I0124 16:49:46.275130 30596 net.cpp:157] Top shape: 64 12 (768)
I0124 16:49:46.275133 30596 net.cpp:165] Memory required for data: 2629676028
I0124 16:49:46.275137 30596 layer_factory.hpp:77] Creating layer loss_cls
I0124 16:49:46.275147 30596 net.cpp:100] Creating Layer loss_cls
I0124 16:49:46.275153 30596 net.cpp:434] loss_cls <- cls_pred_cls_pred_0_split_0
I0124 16:49:46.275161 30596 net.cpp:434] loss_cls <- proposal_labels_proposal_info_1_split_0
…
