…
    downsample_rate: 16
    downsample_rate: 32
    downsample_rate: 32
    downsample_rate: 64
    coord_num: 4
    field_h: 60
    field_h: 84
    field_h: 120
    field_h: 168
    field_h: 240
    field_h: 336
    field_h: 480
    field_w: 40
    field_w: 56
    field_w: 80
    field_w: 112
    field_w: 160
    field_w: 224
    field_w: 360
    fg_threshold: 0.5
    resize_width: 1920
    resize_height: 576
    crop_width: 768
    crop_height: 576
    do_multiple_scale: true
    min_scale: 60
    max_scale: 480
    min_gt_height: 30
    shuffle: true
  }
}
layer {
  name: "conv1_1"
  type: "Convolution"
  bottom: "data"
  top: "conv1_1"
  convolution_param {
    num_output: 64
    pad: 1
    kernel_size: 3
  }
}
layer {
  name: "relu1_1"
  type: "ReLU"
  bottom: "conv1_1"
  top: "conv1_1"
}
layer {
  name: "conv1_2"
  type: "Convolution"
  bottom: "conv1_1"
  top: "conv1_2"
  convolution_param {
    num_output: 64
    pad: 1
    kernel_size: 3
  }
}
layer {
  name: "relu1_2"
  type: "ReLU"
  bottom: "conv1_2"
  top: "conv1_2"
}
layer {
  name: "pool1"
  type: "Pooling"
  bottom: "conv1_2"
  top: "pool1"
  pooling_param {
    pool: MAX
    kernel_size: 2
    stride: 2
  }
}
layer {
  name: "conv2_1"
  type: "Convolution"
  bottom: "pool1"
  top: "conv2_1"
  convolution_param {
    num_output: 128
    pad: 1
    kernel_size: 3
  }
}
layer {
  name: "relu2_1"
  type: "ReLU"
  bottom: "conv2_1"
  top: "conv2_1"
}
layer {
  name: "conv2_2"
  type: "Convolution"
  bottom: "conv2_1"
  top: "conv2_2"
  convolution_param {
    num_output: 128
    pad: 1
    kernel_size: 3
  }
}
layer {
  name: "relu2_2"
  type: "ReLU"
  bottom: "conv2_2"
  top: "conv2_2"
}
layer {
  name: "pool2"
  type: "Pooling"
  bottom: "conv2_2"
  top: "pool2"
  pooling_param {
    pool: MAX
    kernel_size: 2
    stride: 2
  }
}
layer {
  name: "conv3_1"
  type: "Convolution"
  bottom: "pool2"
  top: "conv3_1"
  convolution_param {
    num_output: 256
    pad: 1
    kernel_size: 3
  }
}
layer {
  name: "relu3_1"
  type: "ReLU"
  bottom: "conv3_1"
  top: "conv3_1"
}
layer {
  name: "conv3_2"
  type: "Convolution"
  bottom: "conv3_1"
  top: "conv3_2"
  convolution_param {
    num_output: 256
    pad: 1
    kernel_size: 3
  }
}
layer {
  name: "relu3_2"
  type: "ReLU"
  bottom: "conv3_2"
  top: "conv3_2"
}
layer {
  name: "conv3_3"
  type: "Convolution"
  bottom: "conv3_2"
  top: "conv3_3"
  convolution_param {
    num_output: 256
    pad: 1
    kernel_size: 3
  }
}
layer {
  name: "relu3_3"
  type: "ReLU"
  bottom: "conv3_3"
  top: "conv3_3"
}
layer {
  name: "pool3"
  type: "Pooling"
  bottom: "conv3_3"
  top: "pool3"
  pooling_param {
    pool: MAX
    kernel_size: 2
    stride: 2
  }
}
layer {
  name: "conv4_1"
  type: "Convolution"
  bottom: "pool3"
  top: "conv4_1"
  convolution_param {
    num_output: 512
    pad: 1
    kernel_size: 3
  }
}
layer {
  name: "relu4_1"
  type: "ReLU"
  bottom: "conv4_1"
  top: "conv4_1"
}
layer {
  name: "conv4_2"
  type: "Convolution"
  bottom: "conv4_1"
  top: "conv4_2"
  convolution_param {
    num_output: 512
    pad: 1
    kernel_size: 3
  }
}
layer {
  name: "relu4_2"
  type: "ReLU"
  bottom: "conv4_2"
  top: "conv4_2"
}
layer {
  name: "conv4_3"
  type: "Convolution"
  bottom: "conv4_2"
  top: "conv4_3"
  convolution_param {
    num_output: 512
    pad: 1
    kernel_size: 3
  }
}
layer {
  name: "relu4_3"
  type: "ReLU"
  bottom: "conv4_3"
  top: "conv4_3"
}
layer {
  name: "loss1_conv1"
  type: "Convolution"
  bottom: "conv4_3"
  top: "loss1_conv1"
  param {
    lr_mult: 1
    decay_mult: 1
  }
  param {
    lr_mult: 2
    decay_mult: 0
  }
  convolution_param {
    num_output: 512
    pad: 1
    kernel_size: 3
    weight_filler {
      type: "gaussian"
      std: 0.01
    }
    bias_filler {
      type: "constant"
    }
  }
}
layer {
  name: "loss_relu1"
  type: "ReLU"
  bottom: "loss1_conv1"
  top: "loss1_conv1"
}
layer {
  name: "LFCN_1_3x5"
  type: "Convolution"
  bottom: "loss1_conv1"
  top: "LFCN_1_3x5"
  param {
    lr_mult: 1
    decay_mult: 1
  }
  param {
    lr_mult: 2
    decay_mult: 0
  }
  convolution_param {
    num_output: 7
    weight_filler {
      type: "gaussian"
      std: 0.001
    }
    bias_filler {
      type: "constant"
    }
    pad_h: 2
    pad_w: 1
    kernel_h: 5
    kernel_w: 3
  }
}
layer {
  name: "detection_loss_1_3x5"
  type: "DetectionLoss"
  bottom: "LFCN_1_3x5"
  bottom: "label_1_3x5"
  top: "loss_1_3x5"
  loss_weight: 0.9
  detection_loss_param {
    cls_num: 3
    coord_num: 4
    lambda: 0.5
    field_h: 60
    field_w: 40
    downsample_rate: 8
    bb_smooth: true
    field_whr: 2
    field_xyr: 2
    bg_threshold: 0.2
    bg_multiple: 2
    sample_mode: "random"
    pos_neg_weighted: true
  }
}
layer {
  name: "detection_accuracy_1_3x5"
  type: "DetectionAccuracy"
  bottom: "LFCN_1_3x5"
  bottom: "label_1_3x5"
  top: "accuracy_1_3x5"
  top: "boxiou_1_3x5"
  detection_accuracy_param {
    cls_num: 3
    coord_num: 4
    field_h: 60
    field_w: 40
    downsample_rate: 8
    field_whr: 2
    field_xyr: 2
  }
}
layer {
  name: "LFCN_1_5x7"
  type: "Convolution"
  bottom: "loss1_conv1"
  top: "LFCN_1_5x7"
  param {
    lr_mult: 1
    decay_mult: 1
  }
  param {
    lr_mult: 2
    decay_mult: 0
  }
  convolution_param {
    num_output: 7
    weight_filler {
      type: "gaussian"
      std: 0.001
    }
    bias_filler {
      type: "constant"
    }
    pad_h: 3
    pad_w: 2
    kernel_h: 7
    kernel_w: 5
  }
}
layer {
  name: "detection_loss_1_5x7"
  type: "DetectionLoss"
  bottom: "LFCN_1_5x7"
  bottom: "label_1_5x7"
  top: "loss_1_5x7"
  loss_weight: 0.9
  detection_loss_param {
    cls_num: 3
    coord_num: 4
    lambda: 0.5
    field_h: 84
    field_w: 56
    downsample_rate: 8
    bb_smooth: true
    field_whr: 2
    field_xyr: 2
    bg_threshold: 0.2
    bg_multiple: 2
    sample_mode: "random"
    pos_neg_weighted: true
  }
}
layer {
  name: "detection_accuracy_1_5x7"
  type: "DetectionAccuracy"
  bottom: "LFCN_1_5x7"
  bottom: "label_1_5x7"
  top: "accuracy_1_5x7"
  top: "boxiou_1_5x7"
  detection_accuracy_param {
    cls_num: 3
    coord_num: 4
    field_h: 84
    field_w: 56
    downsample_rate: 8
    field_whr: 2
    field_xyr: 2
  }
}
layer {
  name: "pool4"
  type: "Pooling"
  bottom: "conv4_3"
  top: "pool4"
  pooling_param {
    pool: MAX
    kernel_size: 2
    stride: 2
  }
}
layer {
  name: "conv5_1"
  type: "Convolution"
  bottom: "pool4"
  top: "conv5_1"
  convolution_param {
    num_output: 512
    pad: 1
    kernel_size: 3
  }
}
layer {
  name: "relu5_1"
  type: "ReLU"
  bottom: "conv5_1"
  top: "conv5_1"
}
layer {
  name: "conv5_2"
  type: "Convolution"
  bottom: "conv5_1"
  top: "conv5_2"
  convolution_param {
    num_output: 512
    pad: 1
    kernel_size: 3
  }
}
layer {
  name: "relu5_2"
  type: "ReLU"
  bottom: "conv5_2"
  top: "conv5_2"
}
layer {
  name: "conv5_3"
  type: "Convolution"
  bottom: "conv5_2"
  top: "conv5_3"
  convolution_param {
    num_output: 512
    pad: 1
    kernel_size: 3
  }
}
layer {
  name: "relu5_3"
  type: "ReLU"
  bottom: "conv5_3"
  top: "conv5_3"
}
layer {
  name: "LFCN_2_3x5"
  type: "Convolution"
  bottom: "conv5_3"
  top: "LFCN_2_3x5"
  param {
    lr_mult: 1
    decay_mult: 1
  }
  param {
    lr_mult: 2
    decay_mult: 0
  }
  convolution_param {
    num_output: 7
    weight_filler {
      type: "gaussian"
      std: 0.001
    }
    bias_filler {
      type: "constant"
    }
    pad_h: 2
    pad_w: 1
    kernel_h: 5
    kernel_w: 3
  }
}
layer {
  name: "detection_loss_2_3x5"
  type: "DetectionLoss"
  bottom: "LFCN_2_3x5"
  bottom: "label_2_3x5"
  top: "loss_2_3x5"
  detection_loss_param {
    cls_num: 3
    coord_num: 4
    lambda: 0.5
    field_h: 120
    field_w: 80
    downsample_rate: 16
    bb_smooth: true
    field_whr: 2
    field_xyr: 2
    bg_threshold: 0.2
    bg_multiple: 2
    sample_mode: "random"
    pos_neg_weighted: true
  }
}
layer {
  name: "detection_accuracy_2_3x5"
  type: "DetectionAccuracy"
  bottom: "LFCN_2_3x5"
  bottom: "label_2_3x5"
  top: "accuracy_2_3x5"
  top: "boxiou_2_3x5"
  detection_accuracy_param {
    cls_num: 3
    coord_num: 4
    field_h: 120
    field_w: 80
    downsample_rate: 16
    field_whr: 2
    field_xyr: 2
  }
}
layer {
  name: "LFCN_2_5x7"
  type: "Convolution"
  bottom: "conv5_3"
  top: "LFCN_2_5x7"
  param {
    lr_mult: 1
    decay_mult: 1
  }
  param {
    lr_mult: 2
    decay_mult: 0
  }
  convolution_param {
    num_output: 7
    weight_filler {
      type: "gaussian"
      std: 0.001
    }
    bias_filler {
      type: "constant"
    }
    pad_h: 3
    pad_w: 2
    kernel_h: 7
    kernel_w: 5
  }
}
layer {
  name: "detection_loss_2_5x7"
  type: "DetectionLoss"
  bottom: "LFCN_2_5x7"
  bottom: "label_2_5x7"
  top: "loss_2_5x7"
  detection_loss_param {
    cls_num: 3
    coord_num: 4
    lambda: 0.5
    field_h: 168
    field_w: 112
    downsample_rate: 16
    bb_smooth: true
    field_whr: 2
    field_xyr: 2
    bg_threshold: 0.2
    bg_multiple: 2
    sample_mode: "random"
    pos_neg_weighted: true
  }
}
layer {
  name: "detection_accuracy_2_5x7"
  type: "DetectionAccuracy"
  bottom: "LFCN_2_5x7"
  bottom: "label_2_5x7"
  top: "accuracy_2_5x7"
  top: "boxiou_2_5x7"
  detection_accuracy_param {
    cls_num: 3
    coord_num: 4
    field_h: 168
    field_w: 112
    downsample_rate: 16
    field_whr: 2
    field_xyr: 2
  }
}
layer {
  name: "pool5"
  type: "Pooling"
  bottom: "conv5_3"
  top: "pool5"
  pooling_param {
    pool: MAX
    kernel_size: 2
    stride: 2
  }
}
layer {
  name: "conv6_1"
  type: "Convolution"
  bottom: "pool5"
  top: "conv6_1"
  param {
    lr_mult: 1
    decay_mult: 1
  }
  param {
    lr_mult: 2
    decay_mult: 0
  }
  convolution_param {
    num_output: 512
    pad: 1
    kernel_size: 3
    weight_filler {
      type: "gaussian"
      std: 0.01
    }
    bias_filler {
      type: "constant"
    }
  }
}
layer {
  name: "relu6_1"
  type: "ReLU"
  bottom: "conv6_1"
  top: "conv6_1"
}
layer {
  name: "LFCN_3_3x5"
  type: "Convolution"
  bottom: "conv6_1"
  top: "LFCN_3_3x5"
  param {
    lr_mult: 1
    decay_mult: 1
  }
  param {
    lr_mult: 2
    decay_mult: 0
  }
  convolution_param {
    num_output: 7
    weight_filler {
      type: "gaussian"
      std: 0.001
    }
    bias_filler {
      type: "constant"
    }
    pad_h: 2
    pad_w: 1
    kernel_h: 5
    kernel_w: 3
  }
}
layer {
  name: "detection_loss_3_3x5"
  type: "DetectionLoss"
  bottom: "LFCN_3_3x5"
  bottom: "label_3_3x5"
  top: "loss_3_3x5"
  detection_loss_param {
    cls_num: 3
    coord_num: 4
    lambda: 0.5
    field_h: 240
    field_w: 160
    downsample_rate: 32
    bb_smooth: true
    field_whr: 2
    field_xyr: 2
    bg_threshold: 0.2
    bg_multiple: 2
    sample_mode: "random"
    pos_neg_weighted: true
  }
}
layer {
  name: "detection_accuracy_3_3x5"
  type: "DetectionAccuracy"
  bottom: "LFCN_3_3x5"
  bottom: "label_3_3x5"
  top: "accuracy_3_3x5"
  top: "boxiou_3_3x5"
  detection_accuracy_param {
    cls_num: 3
    coord_num: 4
    field_h: 240
    field_w: 160
    downsample_rate: 32
    field_whr: 2
    field_xyr: 2
  }
}
layer {
  name: "LFCN_3_5x7"
  type: "Convolution"
  bottom: "conv6_1"
  top: "LFCN_3_5x7"
  param {
    lr_mult: 1
    decay_mult: 1
  }
  param {
    lr_mult: 2
    decay_mult: 0
  }
  convolution_param {
    num_output: 7
    weight_filler {
      type: "gaussian"
      std: 0.001
    }
    bias_filler {
      type: "constant"
    }
    pad_h: 3
    pad_w: 2
    kernel_h: 7
    kernel_w: 5
  }
}
layer {
  name: "detection_loss_3_5x7"
  type: "DetectionLoss"
  bottom: "LFCN_3_5x7"
  bottom: "label_3_5x7"
  top: "loss_3_5x7"
  detection_loss_param {
    cls_num: 3
    coord_num: 4
    lambda: 0.5
    field_h: 336
    field_w: 224
    downsample_rate: 32
    bb_smooth: true
    field_whr: 2
    field_xyr: 2
    bg_threshold: 0.2
    bg_multiple: 2
    sample_mode: "random"
    pos_neg_weighted: true
  }
}
layer {
  name: "detection_accuracy_3_5x7"
  type: "DetectionAccuracy"
  bottom: "LFCN_3_5x7"
  bottom: "label_3_5x7"
  top: "accuracy_3_5x7"
  top: "boxiou_3_5x7"
  detection_accuracy_param {
    cls_num: 3
    coord_num: 4
    field_h: 336
    field_w: 224
    downsample_rate: 32
    field_whr: 2
    field_xyr: 2
  }
}
layer {
  name: "pool6"
  type: "Pooling"
  bottom: "conv6_1"
  top: "pool6"
  pooling_param {
    pool: MAX
    kernel_size: 2
    stride: 2
  }
}
layer {
  name: "LFCN_4_3x5"
  type: "Convolution"
  bottom: "pool6"
  top: "LFCN_4_3x5"
  param {
    lr_mult: 1
    decay_mult: 1
  }
  param {
    lr_mult: 2
    decay_mult: 0
  }
  convolution_param {
    num_output: 7
    weight_filler {
      type: "gaussian"
      std: 0.001
    }
    bias_filler {
      type: "constant"
    }
    pad_h: 2
    pad_w: 1
    kernel_h: 5
    kernel_w: 3
  }
}
layer {
  name: "detection_loss_4_3x5"
  type: "DetectionLoss"
  bottom: "LFCN_4_3x5"
  bottom: "label_4_3x5"
  top: "loss_4_3x5"
  detection_loss_param {
    cls_num: 3
    coord_num: 4
    lambda: 0.5
    field_h: 480
    field_w: 360
    downsample_rate: 64
    bb_smooth: true
    field_whr: 2
    field_xyr: 2
    bg_threshold: 0.2
    bg_multiple: 2
    sample_mode: "random"
    pos_neg_weighted: true
  }
}
layer {
  name: "detection_accuracy_4_3x5"
  type: "DetectionAccuracy"
  bottom: "LFCN_4_3x5"
  bottom: "label_4_3x5"
  top: "accuracy_4_3x5"
  top: "boxiou_4_3x5"
  detection_accuracy_param {
    cls_num: 3
    coord_num: 4
    field_h: 480
    field_w: 360
    downsample_rate: 64
    field_whr: 2
    field_xyr: 2
  }
}
I0124 14:57:53.418970  8370 layer_factory.hpp:77] Creating layer data
I0124 14:57:53.418998  8370 net.cpp:100] Creating Layer data
I0124 14:57:53.419005  8370 net.cpp:408] data -> data
…
I0124 14:57:53.446976  8370 image_gt_data_layer.cpp:235] output label size 1 : 4,6,72,96
I0124 14:57:53.447032  8370 image_gt_data_layer.cpp:235] output label size 2 : 4,6,36,48
I0124 14:57:53.447072  8370 image_gt_data_layer.cpp:235] output label size 3 : 4,6,36,48
I0124 14:57:53.447134  8370 image_gt_data_layer.cpp:235] output label size 4 : 4,6,18,24
I0124 14:57:53.447177  8370 image_gt_data_layer.cpp:235] output label size 5 : 4,6,18,24
I0124 14:57:53.447227  8370 image_gt_data_layer.cpp:235] output label size 6 : 4,6,9,12
I0124 14:57:53.478085  8370 net.cpp:150] Setting up data
I0124 14:57:53.478109  8370 net.cpp:157] Top shape: 4 3 576 768 (5308416)
I0124 14:57:53.478113  8370 net.cpp:157] Top shape: 4 6 72 96 (165888)
I0124 14:57:53.478116  8370 net.cpp:157] Top shape: 4 6 72 96 (165888)
I0124 14:57:53.478119  8370 net.cpp:157] Top shape: 4 6 36 48 (41472)
I0124 14:57:53.478122  8370 net.cpp:157] Top shape: 4 6 36 48 (41472)
I0124 14:57:53.478124  8370 net.cpp:157] Top shape: 4 6 18 24 (10368)
I0124 14:57:53.478127  8370 net.cpp:157] Top shape: 4 6 18 24 (10368)
I0124 14:57:53.478130  8370 net.cpp:157] Top shape: 4 6 9 12 (2592)
I0124 14:57:53.478132  8370 net.cpp:165] Memory required for data: 22985856
I0124 14:57:53.478138  8370 layer_factory.hpp:77] Creating layer label_1_3x5_data_1_split
I0124 14:57:53.478152  8370 net.cpp:100] Creating Layer label_1_3x5_data_1_split
I0124 14:57:53.478157  8370 net.cpp:434] label_1_3x5_data_1_split <- label_1_3x5
I0124 14:57:53.478174  8370 net.cpp:408] label_1_3x5_data_1_split -> label_1_3x5_data_1_split_0
I0124 14:57:53.478193  8370 net.cpp:408] label_1_3x5_data_1_split -> label_1_3x5_data_1_split_1
I0124 14:57:53.478276  8370 net.cpp:150] Setting up label_1_3x5_data_1_split
I0124 14:57:53.478283  8370 net.cpp:157] Top shape: 4 6 72 96 (165888)
I0124 14:57:53.478286  8370 net.cpp:157] Top shape: 4 6 72 96 (165888)
I0124 14:57:53.478288  8370 net.cpp:165] Memory required for data: 24312960
I0124 14:57:53.478291  8370 layer_factory.hpp:77] Creating layer label_1_5x7_data_2_split
I0124 14:57:53.478302  8370 net.cpp:100] Creating Layer label_1_5x7_data_2_split
I0124 14:57:53.478309  8370 net.cpp:434] label_1_5x7_data_2_split <- label_1_5x7
I0124 14:57:53.478318  8370 net.cpp:408] label_1_5x7_data_2_split -> label_1_5x7_data_2_split_0
I0124 14:57:53.478330  8370 net.cpp:408] label_1_5x7_data_2_split -> label_1_5x7_data_2_split_1
I0124 14:57:53.478368  8370 net.cpp:150] Setting up label_1_5x7_data_2_split
I0124 14:57:53.478374  8370 net.cpp:157] Top shape: 4 6 72 96 (165888)
I0124 14:57:53.478377  8370 net.cpp:157] Top shape: 4 6 72 96 (165888)
I0124 14:57:53.478380  8370 net.cpp:165] Memory required for data: 25640064
I0124 14:57:53.478384  8370 layer_factory.hpp:77] Creating layer label_2_3x5_data_3_split
I0124 14:57:53.478390  8370 net.cpp:100] Creating Layer label_2_3x5_data_3_split
I0124 14:57:53.478394  8370 net.cpp:434] label_2_3x5_data_3_split <- label_2_3x5
I0124 14:57:53.478401  8370 net.cpp:408] label_2_3x5_data_3_split -> label_2_3x5_data_3_split_0
I0124 14:57:53.478412  8370 net.cpp:408] label_2_3x5_data_3_split -> label_2_3x5_data_3_split_1
I0124 14:57:53.478451  8370 net.cpp:150] Setting up label_2_3x5_data_3_split
I0124 14:57:53.478458  8370 net.cpp:157] Top shape: 4 6 36 48 (41472)
I0124 14:57:53.478462  8370 net.cpp:157] Top shape: 4 6 36 48 (41472)
I0124 14:57:53.478466  8370 net.cpp:165] Memory required for data: 25971840
I0124 14:57:53.478469  8370 layer_factory.hpp:77] Creating layer label_2_5x7_data_4_split
I0124 14:57:53.478478  8370 net.cpp:100] Creating Layer label_2_5x7_data_4_split
I0124 14:57:53.478484  8370 net.cpp:434] label_2_5x7_data_4_split <- label_2_5x7
I0124 14:57:53.478493  8370 net.cpp:408] label_2_5x7_data_4_split -> label_2_5x7_data_4_split_0
I0124 14:57:53.478503  8370 net.cpp:408] label_2_5x7_data_4_split -> label_2_5x7_data_4_split_1
I0124 14:57:53.478538  8370 net.cpp:150] Setting up label_2_5x7_data_4_split
I0124 14:57:53.478555  8370 net.cpp:157] Top shape: 4 6 36 48 (41472)
I0124 14:57:53.478561  8370 net.cpp:157] Top shape: 4 6 36 48 (41472)
I0124 14:57:53.478564  8370 net.cpp:165] Memory required for data: 26303616
I0124 14:57:53.478569  8370 layer_factory.hpp:77] Creating layer label_3_3x5_data_5_split
I0124 14:57:53.478574  8370 net.cpp:100] Creating Layer label_3_3x5_data_5_split
I0124 14:57:53.478579  8370 net.cpp:434] label_3_3x5_data_5_split <- label_3_3x5
I0124 14:57:53.478586  8370 net.cpp:408] label_3_3x5_data_5_split -> label_3_3x5_data_5_split_0
I0124 14:57:53.478600  8370 net.cpp:408] label_3_3x5_data_5_split -> label_3_3x5_data_5_split_1
I0124 14:57:53.478633  8370 net.cpp:150] Setting up label_3_3x5_data_5_split
I0124 14:57:53.478641  8370 net.cpp:157] Top shape: 4 6 18 24 (10368)
I0124 14:57:53.478646  8370 net.cpp:157] Top shape: 4 6 18 24 (10368)
I0124 14:57:53.478651  8370 net.cpp:165] Memory required for data: 26386560
I0124 14:57:53.478653  8370 layer_factory.hpp:77] Creating layer label_3_5x7_data_6_split
I0124 14:57:53.478660  8370 net.cpp:100] Creating Layer label_3_5x7_data_6_split
I0124 14:57:53.478663  8370 net.cpp:434] label_3_5x7_data_6_split <- label_3_5x7
I0124 14:57:53.478669  8370 net.cpp:408] label_3_5x7_data_6_split -> label_3_5x7_data_6_split_0
I0124 14:57:53.478677  8370 net.cpp:408] label_3_5x7_data_6_split -> label_3_5x7_data_6_split_1
I0124 14:57:53.478713  8370 net.cpp:150] Setting up label_3_5x7_data_6_split
I0124 14:57:53.478720  8370 net.cpp:157] Top shape: 4 6 18 24 (10368)
I0124 14:57:53.478725  8370 net.cpp:157] Top shape: 4 6 18 24 (10368)
I0124 14:57:53.478729  8370 net.cpp:165] Memory required for data: 26469504
I0124 14:57:53.478732  8370 layer_factory.hpp:77] Creating layer label_4_3x5_data_7_split
I0124 14:57:53.478739  8370 net.cpp:100] Creating Layer label_4_3x5_data_7_split
I0124 14:57:53.478742  8370 net.cpp:434] label_4_3x5_data_7_split <- label_4_3x5
I0124 14:57:53.478749  8370 net.cpp:408] label_4_3x5_data_7_split -> label_4_3x5_data_7_split_0
I0124 14:57:53.478760  8370 net.cpp:408] label_4_3x5_data_7_split -> label_4_3x5_data_7_split_1
I0124 14:57:53.478794  8370 net.cpp:150] Setting up label_4_3x5_data_7_split
I0124 14:57:53.478801  8370 net.cpp:157] Top shape: 4 6 9 12 (2592)
I0124 14:57:53.478806  8370 net.cpp:157] Top shape: 4 6 9 12 (2592)
I0124 14:57:53.478809  8370 net.cpp:165] Memory required for data: 26490240
I0124 14:57:53.478812  8370 layer_factory.hpp:77] Creating layer conv1_1
I0124 14:57:53.478826  8370 net.cpp:100] Creating Layer conv1_1
I0124 14:57:53.478830  8370 net.cpp:434] conv1_1 <- data
I0124 14:57:53.478838  8370 net.cpp:408] conv1_1 -> conv1_1
I0124 14:57:53.689931  8370 net.cpp:150] Setting up conv1_1
I0124 14:57:53.689954  8370 net.cpp:157] Top shape: 4 64 576 768 (113246208)
I0124 14:57:53.689957  8370 net.cpp:165] Memory required for data: 479475072
I0124 14:57:53.689977  8370 layer_factory.hpp:77] Creating layer relu1_1
I0124 14:57:53.689988  8370 net.cpp:100] Creating Layer relu1_1
I0124 14:57:53.689993  8370 net.cpp:434] relu1_1 <- conv1_1
I0124 14:57:53.689999  8370 net.cpp:395] relu1_1 -> conv1_1 (in-place)
I0124 14:57:53.690146  8370 net.cpp:150] Setting up relu1_1
I0124 14:57:53.690153  8370 net.cpp:157] Top shape: 4 64 576 768 (113246208)
I0124 14:57:53.690155  8370 net.cpp:165] Memory required for data: 932459904
I0124 14:57:53.690158  8370 layer_factory.hpp:77] Creating layer conv1_2
I0124 14:57:53.690166  8370 net.cpp:100] Creating Layer conv1_2
I0124 14:57:53.690170  8370 net.cpp:434] conv1_2 <- conv1_1
I0124 14:57:53.690174  8370 net.cpp:408] conv1_2 -> conv1_2
I0124 14:57:53.692276  8370 net.cpp:150] Setting up conv1_2
I0124 14:57:53.692286  8370 net.cpp:157] Top shape: 4 64 576 768 (113246208)
I0124 14:57:53.692289  8370 net.cpp:165] Memory required for data: 1385444736
I0124 14:57:53.692297  8370 layer_factory.hpp:77] Creating layer relu1_2
I0124 14:57:53.692301  8370 net.cpp:100] Creating Layer relu1_2
I0124 14:57:53.692304  8370 net.cpp:434] relu1_2 <- conv1_2
I0124 14:57:53.692308  8370 net.cpp:395] relu1_2 -> conv1_2 (in-place)
I0124 14:57:53.692456  8370 net.cpp:150] Setting up relu1_2
I0124 14:57:53.692464  8370 net.cpp:157] Top shape: 4 64 576 768 (113246208)
I0124 14:57:53.692466  8370 net.cpp:165] Memory required for data: 1838429568
I0124 14:57:53.692469  8370 layer_factory.hpp:77] Creating layer pool1
I0124 14:57:53.692476  8370 net.cpp:100] Creating Layer pool1
I0124 14:57:53.692479  8370 net.cpp:434] pool1 <- conv1_2
I0124 14:57:53.692483  8370 net.cpp:408] pool1 -> pool1
I0124 14:57:53.692524  8370 net.cpp:150] Setting up pool1
I0124 14:57:53.692529  8370 net.cpp:157] Top shape: 4 64 288 384 (28311552)
I0124 14:57:53.692531  8370 net.cpp:165] Memory required for data: 1951675776
I0124 14:57:53.692533  8370 layer_factory.hpp:77] Creating layer conv2_1
I0124 14:57:53.692539  8370 net.cpp:100] Creating Layer conv2_1
I0124 14:57:53.692541  8370 net.cpp:434] conv2_1 <- pool1
I0124 14:57:53.692546  8370 net.cpp:408] conv2_1 -> conv2_1
I0124 14:57:53.694450  8370 net.cpp:150] Setting up conv2_1
I0124 14:57:53.694463  8370 net.cpp:157] Top shape: 4 128 288 384 (56623104)
I0124 14:57:53.694464  8370 net.cpp:165] Memory required for data: 2178168192
I0124 14:57:53.694473  8370 layer_factory.hpp:77] Creating layer relu2_1
I0124 14:57:53.694478  8370 net.cpp:100] Creating Layer relu2_1
I0124 14:57:53.694480  8370 net.cpp:434] relu2_1 <- conv2_1
I0124 14:57:53.694485  8370 net.cpp:395] relu2_1 -> conv2_1 (in-place)
I0124 14:57:53.694622  8370 net.cpp:150] Setting up relu2_1
I0124 14:57:53.694629  8370 net.cpp:157] Top shape: 4 128 288 384 (56623104)
I0124 14:57:53.694631  8370 net.cpp:165] Memory required for data: 2404660608
I0124 14:57:53.694634  8370 layer_factory.hpp:77] Creating layer conv2_2
I0124 14:57:53.694639  8370 net.cpp:100] Creating Layer conv2_2
I0124 14:57:53.694643  8370 net.cpp:434] conv2_2 <- conv2_1
I0124 14:57:53.694646  8370 net.cpp:408] conv2_2 -> conv2_2
I0124 14:57:53.695905  8370 net.cpp:150] Setting up conv2_2
I0124 14:57:53.695916  8370 net.cpp:157] Top shape: 4 128 288 384 (56623104)
I0124 14:57:53.695919  8370 net.cpp:165] Memory required for data: 2631153024
I0124 14:57:53.695924  8370 layer_factory.hpp:77] Creating layer relu2_2
I0124 14:57:53.695933  8370 net.cpp:100] Creating Layer relu2_2
I0124 14:57:53.695938  8370 net.cpp:434] relu2_2 <- conv2_2
I0124 14:57:53.695945  8370 net.cpp:395] relu2_2 -> conv2_2 (in-place)
I0124 14:57:53.696086  8370 net.cpp:150] Setting up relu2_2
I0124 14:57:53.696094  8370 net.cpp:157] Top shape: 4 128 288 384 (56623104)
I0124 14:57:53.696096  8370 net.cpp:165] Memory required for data: 2857645440
I0124 14:57:53.696099  8370 layer_factory.hpp:77] Creating layer pool2
I0124 14:57:53.696105  8370 net.cpp:100] Creating Layer pool2
I0124 14:57:53.696106  8370 net.cpp:434] pool2 <- conv2_2
I0124 14:57:53.696110  8370 net.cpp:408] pool2 -> pool2
I0124 14:57:53.696146  8370 net.cpp:150] Setting up pool2
I0124 14:57:53.696151  8370 net.cpp:157] Top shape: 4 128 144 192 (14155776)
I0124 14:57:53.696153  8370 net.cpp:165] Memory required for data: 2914268544
I0124 14:57:53.696156  8370 layer_factory.hpp:77] Creating layer conv3_1
I0124 14:57:53.696161  8370 net.cpp:100] Creating Layer conv3_1
I0124 14:57:53.696164  8370 net.cpp:434] conv3_1 <- pool2
I0124 14:57:53.696169  8370 net.cpp:408] conv3_1 -> conv3_1
I0124 14:57:53.698184  8370 net.cpp:150] Setting up conv3_1
I0124 14:57:53.698196  8370 net.cpp:157] Top shape: 4 256 144 192 (28311552)
I0124 14:57:53.698199  8370 net.cpp:165] Memory required for data: 3027514752
I0124 14:57:53.698206  8370 layer_factory.hpp:77] Creating layer relu3_1
I0124 14:57:53.698212  8370 net.cpp:100] Creating Layer relu3_1
I0124 14:57:53.698215  8370 net.cpp:434] relu3_1 <- conv3_1
I0124 14:57:53.698220  8370 net.cpp:395] relu3_1 -> conv3_1 (in-place)
I0124 14:57:53.698642  8370 net.cpp:150] Setting up relu3_1
I0124 14:57:53.698652  8370 net.cpp:157] Top shape: 4 256 144 192 (28311552)
I0124 14:57:53.698653  8370 net.cpp:165] Memory required for data: 3140760960
I0124 14:57:53.698657  8370 layer_factory.hpp:77] Creating layer conv3_2
I0124 14:57:53.698662  8370 net.cpp:100] Creating Layer conv3_2
I0124 14:57:53.698665  8370 net.cpp:434] conv3_2 <- conv3_1
I0124 14:57:53.698669  8370 net.cpp:408] conv3_2 -> conv3_2
I0124 14:57:53.700652  8370 net.cpp:150] Setting up conv3_2
I0124 14:57:53.700664  8370 net.cpp:157] Top shape: 4 256 144 192 (28311552)
I0124 14:57:53.700666  8370 net.cpp:165] Memory required for data: 3254007168
I0124 14:57:53.700672  8370 layer_factory.hpp:77] Creating layer relu3_2
I0124 14:57:53.700677  8370 net.cpp:100] Creating Layer relu3_2
I0124 14:57:53.700680  8370 net.cpp:434] relu3_2 <- conv3_2
I0124 14:57:53.700685  8370 net.cpp:395] relu3_2 -> conv3_2 (in-place)
I0124 14:57:53.701117  8370 net.cpp:150] Setting up relu3_2
I0124 14:57:53.701128  8370 net.cpp:157] Top shape: 4 256 144 192 (28311552)
I0124 14:57:53.701130  8370 net.cpp:165] Memory required for data: 3367253376
I0124 14:57:53.701133  8370 layer_factory.hpp:77] Creating layer conv3_3
I0124 14:57:53.701141  8370 net.cpp:100] Creating Layer conv3_3
I0124 14:57:53.701144  8370 net.cpp:434] conv3_3 <- conv3_2
I0124 14:57:53.701149  8370 net.cpp:408] conv3_3 -> conv3_3
I0124 14:57:53.705114  8370 net.cpp:150] Setting up conv3_3
I0124 14:57:53.705139  8370 net.cpp:157] Top shape: 4 256 144 192 (28311552)
I0124 14:57:53.705143  8370 net.cpp:165] Memory required for data: 3480499584
I0124 14:57:53.705152  8370 layer_factory.hpp:77] Creating layer relu3_3
I0124 14:57:53.705159  8370 net.cpp:100] Creating Layer relu3_3
I0124 14:57:53.705164  8370 net.cpp:434] relu3_3 <- conv3_3
I0124 14:57:53.705170  8370 net.cpp:395] relu3_3 -> conv3_3 (in-place)
I0124 14:57:53.705381  8370 net.cpp:150] Setting up relu3_3
I0124 14:57:53.705390  8370 net.cpp:157] Top shape: 4 256 144 192 (28311552)
I0124 14:57:53.705394  8370 net.cpp:165] Memory required for data: 3593745792
I0124 14:57:53.705395  8370 layer_factory.hpp:77] Creating layer pool3
I0124 14:57:53.705401  8370 net.cpp:100] Creating Layer pool3
I0124 14:57:53.705404  8370 net.cpp:434] pool3 <- conv3_3
I0124 14:57:53.705410  8370 net.cpp:408] pool3 -> pool3
I0124 14:57:53.705451  8370 net.cpp:150] Setting up pool3
I0124 14:57:53.705456  8370 net.cpp:157] Top shape: 4 256 72 96 (7077888)
I0124 14:57:53.705457  8370 net.cpp:165] Memory required for data: 3622057344
I0124 14:57:53.705459  8370 layer_factory.hpp:77] Creating layer conv4_1
I0124 14:57:53.705466  8370 net.cpp:100] Creating Layer conv4_1
I0124 14:57:53.705471  8370 net.cpp:434] conv4_1 <- pool3
I0124 14:57:53.705476  8370 net.cpp:408] conv4_1 -> conv4_1
I0124 14:57:53.711457  8370 net.cpp:150] Setting up conv4_1
I0124 14:57:53.711477  8370 net.cpp:157] Top shape: 4 512 72 96 (14155776)
I0124 14:57:53.711480  8370 net.cpp:165] Memory required for data: 3678680448
I0124 14:57:53.711489  8370 layer_factory.hpp:77] Creating layer relu4_1
I0124 14:57:53.711500  8370 net.cpp:100] Creating Layer relu4_1
I0124 14:57:53.711506  8370 net.cpp:434] relu4_1 <- conv4_1
I0124 14:57:53.711513  8370 net.cpp:395] relu4_1 -> conv4_1 (in-place)
I0124 14:57:53.711676  8370 net.cpp:150] Setting up relu4_1
I0124 14:57:53.711684  8370 net.cpp:157] Top shape: 4 512 72 96 (14155776)
I0124 14:57:53.711688  8370 net.cpp:165] Memory required for data: 3735303552
I0124 14:57:53.711690  8370 layer_factory.hpp:77] Creating layer conv4_2
I0124 14:57:53.711699  8370 net.cpp:100] Creating Layer conv4_2
I0124 14:57:53.711701  8370 net.cpp:434] conv4_2 <- conv4_1
I0124 14:57:53.711707  8370 net.cpp:408] conv4_2 -> conv4_2
I0124 14:57:53.716321  8370 net.cpp:150] Setting up conv4_2
I0124 14:57:53.716346  8370 net.cpp:157] Top shape: 4 512 72 96 (14155776)
I0124 14:57:53.716349  8370 net.cpp:165] Memory required for data: 3791926656
I0124 14:57:53.716367  8370 layer_factory.hpp:77] Creating layer relu4_2
I0124 14:57:53.716375  8370 net.cpp:100] Creating Layer relu4_2
I0124 14:57:53.716380  8370 net.cpp:434] relu4_2 <- conv4_2
I0124 14:57:53.716387  8370 net.cpp:395] relu4_2 -> conv4_2 (in-place)
I0124 14:57:53.716531  8370 net.cpp:150] Setting up relu4_2
I0124 14:57:53.716538  8370 net.cpp:157] Top shape: 4 512 72 96 (14155776)
I0124 14:57:53.716542  8370 net.cpp:165] Memory required for data: 3848549760
I0124 14:57:53.716544  8370 layer_factory.hpp:77] Creating layer conv4_3
I0124 14:57:53.716552  8370 net.cpp:100] Creating Layer conv4_3
I0124 14:57:53.716554  8370 net.cpp:434] conv4_3 <- conv4_2
I0124 14:57:53.716560  8370 net.cpp:408] conv4_3 -> conv4_3
I0124 14:57:53.721253  8370 net.cpp:150] Setting up conv4_3
I0124 14:57:53.721280  8370 net.cpp:157] Top shape: 4 512 72 96 (14155776)
I0124 14:57:53.721284  8370 net.cpp:165] Memory required for data: 3905172864
I0124 14:57:53.721302  8370 layer_factory.hpp:77] Creating layer relu4_3
I0124 14:57:53.721315  8370 net.cpp:100] Creating Layer relu4_3
I0124 14:57:53.721321  8370 net.cpp:434] relu4_3 <- conv4_3
I0124 14:57:53.721333  8370 net.cpp:395] relu4_3 -> conv4_3 (in-place)
I0124 14:57:53.721494  8370 net.cpp:150] Setting up relu4_3
I0124 14:57:53.721504  8370 net.cpp:157] Top shape: 4 512 72 96 (14155776)
I0124 14:57:53.721508  8370 net.cpp:165] Memory required for data: 3961795968
I0124 14:57:53.721511  8370 layer_factory.hpp:77] Creating layer conv4_3_relu4_3_0_split
I0124 14:57:53.721519  8370 net.cpp:100] Creating Layer conv4_3_relu4_3_0_split
I0124 14:57:53.721524  8370 net.cpp:434] conv4_3_relu4_3_0_split <- conv4_3
I0124 14:57:53.721534  8370 net.cpp:408] conv4_3_relu4_3_0_split -> conv4_3_relu4_3_0_split_0
I0124 14:57:53.721544  8370 net.cpp:408] conv4_3_relu4_3_0_split -> conv4_3_relu4_3_0_split_1
I0124 14:57:53.721583  8370 net.cpp:150] Setting up conv4_3_relu4_3_0_split
I0124 14:57:53.721590  8370 net.cpp:157] Top shape: 4 512 72 96 (14155776)
I0124 14:57:53.721596  8370 net.cpp:157] Top shape: 4 512 72 96 (14155776)
I0124 14:57:53.721601  8370 net.cpp:165] Memory required for data: 4075042176
I0124 14:57:53.721603  8370 layer_factory.hpp:77] Creating layer loss1_conv1
I0124 14:57:53.721623  8370 net.cpp:100] Creating Layer loss1_conv1
I0124 14:57:53.721633  8370 net.cpp:434] loss1_conv1 <- conv4_3_relu4_3_0_split_0
I0124 14:57:53.721642  8370 net.cpp:408] loss1_conv1 -> loss1_conv1
I0124 14:57:53.743383  8370 net.cpp:150] Setting up loss1_conv1
I0124 14:57:53.743408  8370 net.cpp:157] Top shape: 4 512 72 96 (14155776)
I0124 14:57:53.743412  8370 net.cpp:165] Memory required for data: 4131665280
I0124 14:57:53.743422  8370 layer_factory.hpp:77] Creating layer loss_relu1
I0124 14:57:53.743433  8370 net.cpp:100] Creating Layer loss_relu1
I0124 14:57:53.743439  8370 net.cpp:434] loss_relu1 <- loss1_conv1
I0124 14:57:53.743450  8370 net.cpp:395] loss_relu1 -> loss1_conv1 (in-place)
I0124 14:57:53.743926  8370 net.cpp:150] Setting up loss_relu1
I0124 14:57:53.743938  8370 net.cpp:157] Top shape: 4 512 72 96 (14155776)
I0124 14:57:53.743942  8370 net.cpp:165] Memory required for data: 4188288384
I0124 14:57:53.743947  8370 layer_factory.hpp:77] Creating layer loss1_conv1_loss_relu1_0_split
I0124 14:57:53.743954  8370 net.cpp:100] Creating Layer loss1_conv1_loss_relu1_0_split
I0124 14:57:53.743959  8370 net.cpp:434] loss1_conv1_loss_relu1_0_split <- loss1_conv1
I0124 14:57:53.743968  8370 net.cpp:408] loss1_conv1_loss_relu1_0_split -> loss1_conv1_loss_relu1_0_split_0
I0124 14:57:53.743978  8370 net.cpp:408] loss1_conv1_loss_relu1_0_split -> loss1_conv1_loss_relu1_0_split_1
I0124 14:57:53.744019  8370 net.cpp:150] Setting up loss1_conv1_loss_relu1_0_split
I0124 14:57:53.744026  8370 net.cpp:157] Top shape: 4 512 72 96 (14155776)
I0124 14:57:53.744031  8370 net.cpp:157] Top shape: 4 512 72 96 (14155776)
I0124 14:57:53.744035  8370 net.cpp:165] Memory required for data: 4301534592
I0124 14:57:53.744040  8370 layer_factory.hpp:77] Creating layer LFCN_1_3x5
I0124 14:57:53.744052  8370 net.cpp:100] Creating Layer LFCN_1_3x5
I0124 14:57:53.744056  8370 net.cpp:434] LFCN_1_3x5 <- loss1_conv1_loss_relu1_0_split_0
I0124 14:57:53.744065  8370 net.cpp:408] LFCN_1_3x5 -> LFCN_1_3x5
I0124 14:57:53.745115  8370 net.cpp:150] Setting up LFCN_1_3x5
I0124 14:57:53.745126  8370 net.cpp:157] Top shape: 4 7 72 96 (193536)
I0124 14:57:53.745131  8370 net.cpp:165] Memory required for data: 4302308736
I0124 14:57:53.745137  8370 layer_factory.hpp:77] Creating layer LFCN_1_3x5_LFCN_1_3x5_0_split
I0124 14:57:53.745144  8370 net.cpp:100] Creating Layer LFCN_1_3x5_LFCN_1_3x5_0_split
I0124 14:57:53.745147  8370 net.cpp:434] LFCN_1_3x5_LFCN_1_3x5_0_split <- LFCN_1_3x5
I0124 14:57:53.745152  8370 net.cpp:408] LFCN_1_3x5_LFCN_1_3x5_0_split -> LFCN_1_3x5_LFCN_1_3x5_0_split_0
I0124 14:57:53.745159  8370 net.cpp:408] LFCN_1_3x5_LFCN_1_3x5_0_split -> LFCN_1_3x5_LFCN_1_3x5_0_split_1
I0124 14:57:53.745193  8370 net.cpp:150] Setting up LFCN_1_3x5_LFCN_1_3x5_0_split
I0124 14:57:53.745198  8370 net.cpp:157] Top shape: 4 7 72 96 (193536)
I0124 14:57:53.745200  8370 net.cpp:157] Top shape: 4 7 72 96 (193536)
I0124 14:57:53.745204  8370 net.cpp:165] Memory required for data: 4303857024
I0124 14:57:53.745206  8370 layer_factory.hpp:77] Creating layer detection_loss_1_3x5
I0124 14:57:53.745215  8370 net.cpp:100] Creating Layer detection_loss_1_3x5
I0124 14:57:53.745218  8370 net.cpp:434] detection_loss_1_3x5 <- LFCN_1_3x5_LFCN_1_3x5_0_split_0
I0124 14:57:53.745221  8370 net.cpp:434] detection_loss_1_3x5 <- label_1_3x5_data_1_split_0
I0124 14:57:53.745226  8370 net.cpp:408] detection_loss_1_3x5 -> loss_1_3x5
I0124 14:57:53.745239  8370 layer_factory.hpp:77] Creating layer detection_loss_1_3x5
I0124 14:57:53.745898  8370 net.cpp:150] Setting up detection_loss_1_3x5
I0124 14:57:53.745908  8370 net.cpp:157] Top shape: 1 1 1 2 (2)
I0124 14:57:53.745910  8370 net.cpp:160]     with loss weight 0.9
I0124 14:57:53.745934  8370 net.cpp:165] Memory required for data: 4303857032
I0124 14:57:53.745936  8370 layer_factory.hpp:77] Creating layer detection_accuracy_1_3x5
I0124 14:57:53.745944  8370 net.cpp:100] Creating Layer detection_accuracy_1_3x5
I0124 14:57:53.745947  8370 net.cpp:434] detection_accuracy_1_3x5 <- LFCN_1_3x5_LFCN_1_3x5_0_split_1
I0124 14:57:53.745952  8370 net.cpp:434] detection_accuracy_1_3x5 <- label_1_3x5_data_1_split_1
I0124 14:57:53.745959  8370 net.cpp:408] detection_accuracy_1_3x5 -> accuracy_1_3x5
I0124 14:57:53.745968  8370 net.cpp:408] detection_accuracy_1_3x5 -> boxiou_1_3x5
I0124 14:57:53.746002  8370 net.cpp:150] Setting up detection_accuracy_1_3x5
I0124 14:57:53.746007  8370 net.cpp:157] Top shape: 1 1 1 2 (2)
I0124 14:57:53.746011  8370 net.cpp:157] Top shape: 1 1 1 1 (1)
I0124 14:57:53.746013  8370 net.cpp:165] Memory required for data: 4303857044
I0124 14:57:53.746016  8370 layer_factory.hpp:77] Creating layer LFCN_1_5x7
I0124 14:57:53.746024  8370 net.cpp:100] Creating Layer LFCN_1_5x7
I0124 14:57:53.746028  8370 net.cpp:434] LFCN_1_5x7 <- loss1_conv1_loss_relu1_0_split_1
I0124 14:57:53.746033  8370 net.cpp:408] LFCN_1_5x7 -> LFCN_1_5x7
I0124 14:57:53.747897  8370 net.cpp:150] Setting up LFCN_1_5x7
I0124 14:57:53.747908  8370 net.cpp:157] Top shape: 4 7 72 96 (193536)
I0124 14:57:53.747912  8370 net.cpp:165] Memory required for data: 4304631188
I0124 14:57:53.747917  8370 layer_factory.hpp:77] Creating layer LFCN_1_5x7_LFCN_1_5x7_0_split
I0124 14:57:53.747923  8370 net.cpp:100] Creating Layer LFCN_1_5x7_LFCN_1_5x7_0_split
I0124 14:57:53.747927  8370 net.cpp:434] LFCN_1_5x7_LFCN_1_5x7_0_split <- LFCN_1_5x7
I0124 14:57:53.747932  8370 net.cpp:408] LFCN_1_5x7_LFCN_1_5x7_0_split -> LFCN_1_5x7_LFCN_1_5x7_0_split_0
I0124 14:57:53.747941  8370 net.cpp:408] LFCN_1_5x7_LFCN_1_5x7_0_split -> LFCN_1_5x7_LFCN_1_5x7_0_split_1
I0124 14:57:53.747973  8370 net.cpp:150] Setting up LFCN_1_5x7_LFCN_1_5x7_0_split
I0124 14:57:53.747978  8370 net.cpp:157] Top shape: 4 7 72 96 (193536)
I0124 14:57:53.747982  8370 net.cpp:157] Top shape: 4 7 72 96 (193536)
I0124 14:57:53.747984  8370 net.cpp:165] Memory required for data: 4306179476
I0124 14:57:53.747987  8370 layer_factory.hpp:77] Creating layer detection_loss_1_5x7
I0124 14:57:53.747993  8370 net.cpp:100] Creating Layer detection_loss_1_5x7
I0124 14:57:53.747997  8370 net.cpp:434] detection_loss_1_5x7 <- LFCN_1_5x7_LFCN_1_5x7_0_split_0
I0124 14:57:53.748000  8370 net.cpp:434] detection_loss_1_5x7 <- label_1_5x7_data_2_split_0
I0124 14:57:53.748006  8370 net.cpp:408] detection_loss_1_5x7 -> loss_1_5x7
I0124 14:57:53.748013  8370 layer_factory.hpp:77] Creating layer detection_loss_1_5x7
I0124 14:57:53.748344  8370 net.cpp:150] Setting up detection_loss_1_5x7
I0124 14:57:53.748353  8370 net.cpp:157] Top shape: 1 1 1 2 (2)
I0124 14:57:53.748356  8370 net.cpp:160]     with loss weight 0.9
I0124 14:57:53.748363  8370 net.cpp:165] Memory required for data: 4306179484
I0124 14:57:53.748365  8370 layer_factory.hpp:77] Creating layer detection_accuracy_1_5x7
I0124 14:57:53.748371  8370 net.cpp:100] Creating Layer detection_accuracy_1_5x7
I0124 14:57:53.748375  8370 net.cpp:434] detection_accuracy_1_5x7 <- LFCN_1_5x7_LFCN_1_5x7_0_split_1
I0124 14:57:53.748378  8370 net.cpp:434] detection_accuracy_1_5x7 <- label_1_5x7_data_2_split_1
I0124 14:57:53.748384  8370 net.cpp:408] detection_accuracy_1_5x7 -> accuracy_1_5x7
I0124 14:57:53.748390  8370 net.cpp:408] detection_accuracy_1_5x7 -> boxiou_1_5x7
I0124 14:57:53.748425  8370 net.cpp:150] Setting up detection_accuracy_1_5x7
I0124 14:57:53.748430  8370 net.cpp:157] Top shape: 1 1 1 2 (2)
I0124 14:57:53.748431  8370 net.cpp:157] Top shape: 1 1 1 1 (1)
I0124 14:57:53.748433  8370 net.cpp:165] Memory required for data: 4306179496
I0124 14:57:53.748435  8370 layer_factory.hpp:77] Creating layer pool4
I0124 14:57:53.748441  8370 net.cpp:100] Creating Layer pool4
I0124 14:57:53.748445  8370 net.cpp:434] pool4 <- conv4_3_relu4_3_0_split_1
I0124 14:57:53.748450  8370 net.cpp:408] pool4 -> pool4
I0124 14:57:53.748481  8370 net.cpp:150] Setting up pool4
I0124 14:57:53.748486  8370 net.cpp:157] Top shape: 4 512 36 48 (3538944)
I0124 14:57:53.748487  8370 net.cpp:165] Memory required for data: 4320335272
I0124 14:57:53.748489  8370 layer_factory.hpp:77] Creating layer conv5_1
I0124 14:57:53.748497  8370 net.cpp:100] Creating Layer conv5_1
I0124 14:57:53.748499  8370 net.cpp:434] conv5_1 <- pool4
I0124 14:57:53.748504  8370 net.cpp:408] conv5_1 -> conv5_1
I0124 14:57:53.753804  8370 net.cpp:150] Setting up conv5_1
I0124 14:57:53.753830  8370 net.cpp:157] Top shape: 4 512 36 48 (3538944)
I0124 14:57:53.753834  8370 net.cpp:165] Memory required for data: 4334491048
I0124 14:57:53.753842  8370 layer_factory.hpp:77] Creating layer relu5_1
I0124 14:57:53.753851  8370 net.cpp:100] Creating Layer relu5_1
I0124 14:57:53.753855  8370 net.cpp:434] relu5_1 <- conv5_1
I0124 14:57:53.753861  8370 net.cpp:395] relu5_1 -> conv5_1 (in-place)
I0124 14:57:53.754034  8370 net.cpp:150] Setting up relu5_1
I0124 14:57:53.754041  8370 net.cpp:157] Top shape: 4 512 36 48 (3538944)
I0124 14:57:53.754045  8370 net.cpp:165] Memory required for data: 4348646824
I0124 14:57:53.754046  8370 layer_factory.hpp:77] Creating layer conv5_2
I0124 14:57:53.754055  8370 net.cpp:100] Creating Layer conv5_2
I0124 14:57:53.754058  8370 net.cpp:434] conv5_2 <- conv5_1
I0124 14:57:53.754063  8370 net.cpp:408] conv5_2 -> conv5_2
I0124 14:57:53.758807  8370 net.cpp:150] Setting up conv5_2
I0124 14:57:53.758831  8370 net.cpp:157] Top shape: 4 512 36 48 (3538944)
I0124 14:57:53.758833  8370 net.cpp:165] Memory required for data: 4362802600
I0124 14:57:53.758841  8370 layer_factory.hpp:77] Creating layer relu5_2
I0124 14:57:53.758852  8370 net.cpp:100] Creating Layer relu5_2
I0124 14:57:53.758858  8370 net.cpp:434] relu5_2 <- conv5_2
I0124 14:57:53.758867  8370 net.cpp:395] relu5_2 -> conv5_2 (in-place)
I0124 14:57:53.759023  8370 net.cpp:150] Setting up relu5_2
I0124 14:57:53.759032  8370 net.cpp:157] Top shape: 4 512 36 48 (3538944)
I0124 14:57:53.759034  8370 net.cpp:165] Memory required for data: 4376958376
I0124 14:57:53.759037  8370 layer_factory.hpp:77] Creating layer conv5_3
I0124 14:57:53.759043  8370 net.cpp:100] Creating Layer conv5_3
I0124 14:57:53.759047  8370 net.cpp:434] conv5_3 <- conv5_2
I0124 14:57:53.759052  8370 net.cpp:408] conv5_3 -> conv5_3
I0124 14:57:53.763459  8370 net.cpp:150] Setting up conv5_3
I0124 14:57:53.763484  8370 net.cpp:157] Top shape: 4 512 36 48 (3538944)
I0124 14:57:53.763486  8370 net.cpp:165] Memory required for data: 4391114152
I0124 14:57:53.763495  8370 layer_factory.hpp:77] Creating layer relu5_3
I0124 14:57:53.763504  8370 net.cpp:100] Creating Layer relu5_3
I0124 14:57:53.763510  8370 net.cpp:434] relu5_3 <- conv5_3
I0124 14:57:53.763516  8370 net.cpp:395] relu5_3 -> conv5_3 (in-place)
I0124 14:57:53.763669  8370 net.cpp:150] Setting up relu5_3
I0124 14:57:53.763676  8370 net.cpp:157] Top shape: 4 512 36 48 (3538944)
I0124 14:57:53.763679  8370 net.cpp:165] Memory required for data: 4405269928
I0124 14:57:53.763680  8370 layer_factory.hpp:77] Creating layer conv5_3_relu5_3_0_split
I0124 14:57:53.763687  8370 net.cpp:100] Creating Layer conv5_3_relu5_3_0_split
I0124 14:57:53.763691  8370 net.cpp:434] conv5_3_relu5_3_0_split <- conv5_3
I0124 14:57:53.763695  8370 net.cpp:408] conv5_3_relu5_3_0_split -> conv5_3_relu5_3_0_split_0
I0124 14:57:53.763701  8370 net.cpp:408] conv5_3_relu5_3_0_split -> conv5_3_relu5_3_0_split_1
I0124 14:57:53.763707  8370 net.cpp:408] conv5_3_relu5_3_0_split -> conv5_3_relu5_3_0_split_2
I0124 14:57:53.763752  8370 net.cpp:150] Setting up conv5_3_relu5_3_0_split
I0124 14:57:53.763757  8370 net.cpp:157] Top shape: 4 512 36 48 (3538944)
I0124 14:57:53.763761  8370 net.cpp:157] Top shape: 4 512 36 48 (3538944)
I0124 14:57:53.763763  8370 net.cpp:157] Top shape: 4 512 36 48 (3538944)
I0124 14:57:53.763764  8370 net.cpp:165] Memory required for data: 4447737256
I0124 14:57:53.763767  8370 layer_factory.hpp:77] Creating layer LFCN_2_3x5
I0124 14:57:53.763777  8370 net.cpp:100] Creating Layer LFCN_2_3x5
I0124 14:57:53.763782  8370 net.cpp:434] LFCN_2_3x5 <- conv5_3_relu5_3_0_split_0
I0124 14:57:53.763787  8370 net.cpp:408] LFCN_2_3x5 -> LFCN_2_3x5
I0124 14:57:53.765175  8370 net.cpp:150] Setting up LFCN_2_3x5
I0124 14:57:53.765187  8370 net.cpp:157] Top shape: 4 7 36 48 (48384)
I0124 14:57:53.765189  8370 net.cpp:165] Memory required for data: 4447930792
I0124 14:57:53.765204  8370 layer_factory.hpp:77] Creating layer LFCN_2_3x5_LFCN_2_3x5_0_split
I0124 14:57:53.765213  8370 net.cpp:100] Creating Layer LFCN_2_3x5_LFCN_2_3x5_0_split
I0124 14:57:53.765216  8370 net.cpp:434] LFCN_2_3x5_LFCN_2_3x5_0_split <- LFCN_2_3x5
I0124 14:57:53.765223  8370 net.cpp:408] LFCN_2_3x5_LFCN_2_3x5_0_split -> LFCN_2_3x5_LFCN_2_3x5_0_split_0
I0124 14:57:53.765230  8370 net.cpp:408] LFCN_2_3x5_LFCN_2_3x5_0_split -> LFCN_2_3x5_LFCN_2_3x5_0_split_1
I0124 14:57:53.765266  8370 net.cpp:150] Setting up LFCN_2_3x5_LFCN_2_3x5_0_split
I0124 14:57:53.765272  8370 net.cpp:157] Top shape: 4 7 36 48 (48384)
I0124 14:57:53.765275  8370 net.cpp:157] Top shape: 4 7 36 48 (48384)
I0124 14:57:53.765277  8370 net.cpp:165] Memory required for data: 4448317864
I0124 14:57:53.765280  8370 layer_factory.hpp:77] Creating layer detection_loss_2_3x5
I0124 14:57:53.765285  8370 net.cpp:100] Creating Layer detection_loss_2_3x5
I0124 14:57:53.765290  8370 net.cpp:434] detection_loss_2_3x5 <- LFCN_2_3x5_LFCN_2_3x5_0_split_0
I0124 14:57:53.765293  8370 net.cpp:434] detection_loss_2_3x5 <- label_2_3x5_data_3_split_0
I0124 14:57:53.765331  8370 net.cpp:408] detection_loss_2_3x5 -> loss_2_3x5
I0124 14:57:53.765341  8370 layer_factory.hpp:77] Creating layer detection_loss_2_3x5
I0124 14:57:53.765944  8370 net.cpp:150] Setting up detection_loss_2_3x5
I0124 14:57:53.765955  8370 net.cpp:157] Top shape: 1 1 1 2 (2)
I0124 14:57:53.765959  8370 net.cpp:160]     with loss weight 1
I0124 14:57:53.765969  8370 net.cpp:165] Memory required for data: 4448317872
I0124 14:57:53.765971  8370 layer_factory.hpp:77] Creating layer detection_accuracy_2_3x5
I0124 14:57:53.765978  8370 net.cpp:100] Creating Layer detection_accuracy_2_3x5
I0124 14:57:53.765981  8370 net.cpp:434] detection_accuracy_2_3x5 <- LFCN_2_3x5_LFCN_2_3x5_0_split_1
I0124 14:57:53.765985  8370 net.cpp:434] detection_accuracy_2_3x5 <- label_2_3x5_data_3_split_1
I0124 14:57:53.765992  8370 net.cpp:408] detection_accuracy_2_3x5 -> accuracy_2_3x5
I0124 14:57:53.766000  8370 net.cpp:408] detection_accuracy_2_3x5 -> boxiou_2_3x5
I0124 14:57:53.766046  8370 net.cpp:150] Setting up detection_accuracy_2_3x5
I0124 14:57:53.766052  8370 net.cpp:157] Top shape: 1 1 1 2 (2)
I0124 14:57:53.766054  8370 net.cpp:157] Top shape: 1 1 1 1 (1)
I0124 14:57:53.766057  8370 net.cpp:165] Memory required for data: 4448317884
I0124 14:57:53.766058  8370 layer_factory.hpp:77] Creating layer LFCN_2_5x7
I0124 14:57:53.766067  8370 net.cpp:100] Creating Layer LFCN_2_5x7
I0124 14:57:53.766070  8370 net.cpp:434] LFCN_2_5x7 <- conv5_3_relu5_3_0_split_1
I0124 14:57:53.766077  8370 net.cpp:408] LFCN_2_5x7 -> LFCN_2_5x7
I0124 14:57:53.768404  8370 net.cpp:150] Setting up LFCN_2_5x7
I0124 14:57:53.768414  8370 net.cpp:157] Top shape: 4 7 36 48 (48384)
I0124 14:57:53.768419  8370 net.cpp:165] Memory required for data: 4448511420
I0124 14:57:53.768424  8370 layer_factory.hpp:77] Creating layer LFCN_2_5x7_LFCN_2_5x7_0_split
I0124 14:57:53.768430  8370 net.cpp:100] Creating Layer LFCN_2_5x7_LFCN_2_5x7_0_split
I0124 14:57:53.768435  8370 net.cpp:434] LFCN_2_5x7_LFCN_2_5x7_0_split <- LFCN_2_5x7
I0124 14:57:53.768440  8370 net.cpp:408] LFCN_2_5x7_LFCN_2_5x7_0_split -> LFCN_2_5x7_LFCN_2_5x7_0_split_0
I0124 14:57:53.768445  8370 net.cpp:408] LFCN_2_5x7_LFCN_2_5x7_0_split -> LFCN_2_5x7_LFCN_2_5x7_0_split_1
I0124 14:57:53.768481  8370 net.cpp:150] Setting up LFCN_2_5x7_LFCN_2_5x7_0_split
I0124 14:57:53.768486  8370 net.cpp:157] Top shape: 4 7 36 48 (48384)
I0124 14:57:53.768488  8370 net.cpp:157] Top shape: 4 7 36 48 (48384)
I0124 14:57:53.768491  8370 net.cpp:165] Memory required for data: 4448898492
I0124 14:57:53.768492  8370 layer_factory.hpp:77] Creating layer detection_loss_2_5x7
I0124 14:57:53.768498  8370 net.cpp:100] Creating Layer detection_loss_2_5x7
I0124 14:57:53.768501  8370 net.cpp:434] detection_loss_2_5x7 <- LFCN_2_5x7_LFCN_2_5x7_0_split_0
I0124 14:57:53.768506  8370 net.cpp:434] detection_loss_2_5x7 <- label_2_5x7_data_4_split_0
I0124 14:57:53.768512  8370 net.cpp:408] detection_loss_2_5x7 -> loss_2_5x7
I0124 14:57:53.768518  8370 layer_factory.hpp:77] Creating layer detection_loss_2_5x7
I0124 14:57:53.769122  8370 net.cpp:150] Setting up detection_loss_2_5x7
I0124 14:57:53.769132  8370 net.cpp:157] Top shape: 1 1 1 2 (2)
I0124 14:57:53.769136  8370 net.cpp:160]     with loss weight 1
I0124 14:57:53.769142  8370 net.cpp:165] Memory required for data: 4448898500
I0124 14:57:53.769145  8370 layer_factory.hpp:77] Creating layer detection_accuracy_2_5x7
I0124 14:57:53.769152  8370 net.cpp:100] Creating Layer detection_accuracy_2_5x7
I0124 14:57:53.769156  8370 net.cpp:434] detection_accuracy_2_5x7 <- LFCN_2_5x7_LFCN_2_5x7_0_split_1
I0124 14:57:53.769160  8370 net.cpp:434] detection_accuracy_2_5x7 <- label_2_5x7_data_4_split_1
I0124 14:57:53.769165  8370 net.cpp:408] detection_accuracy_2_5x7 -> accuracy_2_5x7
I0124 14:57:53.769172  8370 net.cpp:408] detection_accuracy_2_5x7 -> boxiou_2_5x7
I0124 14:57:53.769207  8370 net.cpp:150] Setting up detection_accuracy_2_5x7
I0124 14:57:53.769212  8370 net.cpp:157] Top shape: 1 1 1 2 (2)
I0124 14:57:53.769215  8370 net.cpp:157] Top shape: 1 1 1 1 (1)
I0124 14:57:53.769217  8370 net.cpp:165] Memory required for data: 4448898512
I0124 14:57:53.769218  8370 layer_factory.hpp:77] Creating layer pool5
I0124 14:57:53.769224  8370 net.cpp:100] Creating Layer pool5
I0124 14:57:53.769229  8370 net.cpp:434] pool5 <- conv5_3_relu5_3_0_split_2
I0124 14:57:53.769233  8370 net.cpp:408] pool5 -> pool5
I0124 14:57:53.769266  8370 net.cpp:150] Setting up pool5
I0124 14:57:53.769271  8370 net.cpp:157] Top shape: 4 512 18 24 (884736)
I0124 14:57:53.769273  8370 net.cpp:165] Memory required for data: 4452437456
I0124 14:57:53.769275  8370 layer_factory.hpp:77] Creating layer conv6_1
I0124 14:57:53.769284  8370 net.cpp:100] Creating Layer conv6_1
I0124 14:57:53.769286  8370 net.cpp:434] conv6_1 <- pool5
I0124 14:57:53.769292  8370 net.cpp:408] conv6_1 -> conv6_1
I0124 14:57:53.790738  8370 net.cpp:150] Setting up conv6_1
I0124 14:57:53.790765  8370 net.cpp:157] Top shape: 4 512 18 24 (884736)
I0124 14:57:53.790767  8370 net.cpp:165] Memory required for data: 4455976400
I0124 14:57:53.790776  8370 layer_factory.hpp:77] Creating layer relu6_1
I0124 14:57:53.790784  8370 net.cpp:100] Creating Layer relu6_1
I0124 14:57:53.790791  8370 net.cpp:434] relu6_1 <- conv6_1
I0124 14:57:53.790797  8370 net.cpp:395] relu6_1 -> conv6_1 (in-place)
I0124 14:57:53.790946  8370 net.cpp:150] Setting up relu6_1
I0124 14:57:53.790952  8370 net.cpp:157] Top shape: 4 512 18 24 (884736)
I0124 14:57:53.790954  8370 net.cpp:165] Memory required for data: 4459515344
I0124 14:57:53.790957  8370 layer_factory.hpp:77] Creating layer conv6_1_relu6_1_0_split
I0124 14:57:53.790964  8370 net.cpp:100] Creating Layer conv6_1_relu6_1_0_split
I0124 14:57:53.790967  8370 net.cpp:434] conv6_1_relu6_1_0_split <- conv6_1
I0124 14:57:53.790973  8370 net.cpp:408] conv6_1_relu6_1_0_split -> conv6_1_relu6_1_0_split_0
I0124 14:57:53.790982  8370 net.cpp:408] conv6_1_relu6_1_0_split -> conv6_1_relu6_1_0_split_1
I0124 14:57:53.790987  8370 net.cpp:408] conv6_1_relu6_1_0_split -> conv6_1_relu6_1_0_split_2
I0124 14:57:53.791033  8370 net.cpp:150] Setting up conv6_1_relu6_1_0_split
I0124 14:57:53.791038  8370 net.cpp:157] Top shape: 4 512 18 24 (884736)
I0124 14:57:53.791041  8370 net.cpp:157] Top shape: 4 512 18 24 (884736)
I0124 14:57:53.791044  8370 net.cpp:157] Top shape: 4 512 18 24 (884736)
I0124 14:57:53.791046  8370 net.cpp:165] Memory required for data: 4470132176
I0124 14:57:53.791049  8370 layer_factory.hpp:77] Creating layer LFCN_3_3x5
I0124 14:57:53.791059  8370 net.cpp:100] Creating Layer LFCN_3_3x5
I0124 14:57:53.791061  8370 net.cpp:434] LFCN_3_3x5 <- conv6_1_relu6_1_0_split_0
I0124 14:57:53.791067  8370 net.cpp:408] LFCN_3_3x5 -> LFCN_3_3x5
I0124 14:57:53.793655  8370 net.cpp:150] Setting up LFCN_3_3x5
I0124 14:57:53.793680  8370 net.cpp:157] Top shape: 4 7 18 24 (12096)
I0124 14:57:53.793686  8370 net.cpp:165] Memory required for data: 4470180560
I0124 14:57:53.793697  8370 layer_factory.hpp:77] Creating layer LFCN_3_3x5_LFCN_3_3x5_0_split
I0124 14:57:53.793720  8370 net.cpp:100] Creating Layer LFCN_3_3x5_LFCN_3_3x5_0_split
I0124 14:57:53.793725  8370 net.cpp:434] LFCN_3_3x5_LFCN_3_3x5_0_split <- LFCN_3_3x5
I0124 14:57:53.793732  8370 net.cpp:408] LFCN_3_3x5_LFCN_3_3x5_0_split -> LFCN_3_3x5_LFCN_3_3x5_0_split_0
I0124 14:57:53.793741  8370 net.cpp:408] LFCN_3_3x5_LFCN_3_3x5_0_split -> LFCN_3_3x5_LFCN_3_3x5_0_split_1
I0124 14:57:53.793787  8370 net.cpp:150] Setting up LFCN_3_3x5_LFCN_3_3x5_0_split
I0124 14:57:53.793792  8370 net.cpp:157] Top shape: 4 7 18 24 (12096)
I0124 14:57:53.793797  8370 net.cpp:157] Top shape: 4 7 18 24 (12096)
I0124 14:57:53.793799  8370 net.cpp:165] Memory required for data: 4470277328
I0124 14:57:53.793802  8370 layer_factory.hpp:77] Creating layer detection_loss_3_3x5
I0124 14:57:53.793807  8370 net.cpp:100] Creating Layer detection_loss_3_3x5
I0124 14:57:53.793812  8370 net.cpp:434] detection_loss_3_3x5 <- LFCN_3_3x5_LFCN_3_3x5_0_split_0
I0124 14:57:53.793815  8370 net.cpp:434] detection_loss_3_3x5 <- label_3_3x5_data_5_split_0
I0124 14:57:53.793822  8370 net.cpp:408] detection_loss_3_3x5 -> loss_3_3x5
I0124 14:57:53.793830  8370 layer_factory.hpp:77] Creating layer detection_loss_3_3x5
I0124 14:57:53.794126  8370 net.cpp:150] Setting up detection_loss_3_3x5
I0124 14:57:53.794133  8370 net.cpp:157] Top shape: 1 1 1 2 (2)
I0124 14:57:53.794136  8370 net.cpp:160]     with loss weight 1
I0124 14:57:53.794145  8370 net.cpp:165] Memory required for data: 4470277336
I0124 14:57:53.794148  8370 layer_factory.hpp:77] Creating layer detection_accuracy_3_3x5
I0124 14:57:53.794155  8370 net.cpp:100] Creating Layer detection_accuracy_3_3x5
I0124 14:57:53.794159  8370 net.cpp:434] detection_accuracy_3_3x5 <- LFCN_3_3x5_LFCN_3_3x5_0_split_1
I0124 14:57:53.794163  8370 net.cpp:434] detection_accuracy_3_3x5 <- label_3_3x5_data_5_split_1
I0124 14:57:53.794168  8370 net.cpp:408] detection_accuracy_3_3x5 -> accuracy_3_3x5
I0124 14:57:53.794175  8370 net.cpp:408] detection_accuracy_3_3x5 -> boxiou_3_3x5
I0124 14:57:53.794214  8370 net.cpp:150] Setting up detection_accuracy_3_3x5
I0124 14:57:53.794219  8370 net.cpp:157] Top shape: 1 1 1 2 (2)
I0124 14:57:53.794222  8370 net.cpp:157] Top shape: 1 1 1 1 (1)
I0124 14:57:53.794224  8370 net.cpp:165] Memory required for data: 4470277348
I0124 14:57:53.794226  8370 layer_factory.hpp:77] Creating layer LFCN_3_5x7
I0124 14:57:53.794234  8370 net.cpp:100] Creating Layer LFCN_3_5x7
I0124 14:57:53.794239  8370 net.cpp:434] LFCN_3_5x7 <- conv6_1_relu6_1_0_split_1
I0124 14:57:53.794245  8370 net.cpp:408] LFCN_3_5x7 -> LFCN_3_5x7
I0124 14:57:53.796339  8370 net.cpp:150] Setting up LFCN_3_5x7
I0124 14:57:53.796353  8370 net.cpp:157] Top shape: 4 7 18 24 (12096)
I0124 14:57:53.796355  8370 net.cpp:165] Memory required for data: 4470325732
I0124 14:57:53.796363  8370 layer_factory.hpp:77] Creating layer LFCN_3_5x7_LFCN_3_5x7_0_split
I0124 14:57:53.796370  8370 net.cpp:100] Creating Layer LFCN_3_5x7_LFCN_3_5x7_0_split
I0124 14:57:53.796375  8370 net.cpp:434] LFCN_3_5x7_LFCN_3_5x7_0_split <- LFCN_3_5x7
I0124 14:57:53.796381  8370 net.cpp:408] LFCN_3_5x7_LFCN_3_5x7_0_split -> LFCN_3_5x7_LFCN_3_5x7_0_split_0
I0124 14:57:53.796389  8370 net.cpp:408] LFCN_3_5x7_LFCN_3_5x7_0_split -> LFCN_3_5x7_LFCN_3_5x7_0_split_1
I0124 14:57:53.796425  8370 net.cpp:150] Setting up LFCN_3_5x7_LFCN_3_5x7_0_split
I0124 14:57:53.796430  8370 net.cpp:157] Top shape: 4 7 18 24 (12096)
I0124 14:57:53.796433  8370 net.cpp:157] Top shape: 4 7 18 24 (12096)
I0124 14:57:53.796435  8370 net.cpp:165] Memory required for data: 4470422500
I0124 14:57:53.796437  8370 layer_factory.hpp:77] Creating layer detection_loss_3_5x7
I0124 14:57:53.796443  8370 net.cpp:100] Creating Layer detection_loss_3_5x7
I0124 14:57:53.796447  8370 net.cpp:434] detection_loss_3_5x7 <- LFCN_3_5x7_LFCN_3_5x7_0_split_0
I0124 14:57:53.796450  8370 net.cpp:434] detection_loss_3_5x7 <- label_3_5x7_data_6_split_0
I0124 14:57:53.796456  8370 net.cpp:408] detection_loss_3_5x7 -> loss_3_5x7
I0124 14:57:53.796464  8370 layer_factory.hpp:77] Creating layer detection_loss_3_5x7
I0124 14:57:53.796762  8370 net.cpp:150] Setting up detection_loss_3_5x7
I0124 14:57:53.796769  8370 net.cpp:157] Top shape: 1 1 1 2 (2)
I0124 14:57:53.796772  8370 net.cpp:160]     with loss weight 1
I0124 14:57:53.796782  8370 net.cpp:165] Memory required for data: 4470422508
I0124 14:57:53.796783  8370 layer_factory.hpp:77] Creating layer detection_accuracy_3_5x7
I0124 14:57:53.796790  8370 net.cpp:100] Creating Layer detection_accuracy_3_5x7
I0124 14:57:53.796794  8370 net.cpp:434] detection_accuracy_3_5x7 <- LFCN_3_5x7_LFCN_3_5x7_0_split_1
I0124 14:57:53.796797  8370 net.cpp:434] detection_accuracy_3_5x7 <- label_3_5x7_data_6_split_1
I0124 14:57:53.796802  8370 net.cpp:408] detection_accuracy_3_5x7 -> accuracy_3_5x7
I0124 14:57:53.796809  8370 net.cpp:408] detection_accuracy_3_5x7 -> boxiou_3_5x7
I0124 14:57:53.796845  8370 net.cpp:150] Setting up detection_accuracy_3_5x7
I0124 14:57:53.796850  8370 net.cpp:157] Top shape: 1 1 1 2 (2)
I0124 14:57:53.796854  8370 net.cpp:157] Top shape: 1 1 1 1 (1)
I0124 14:57:53.796854  8370 net.cpp:165] Memory required for data: 4470422520
I0124 14:57:53.796856  8370 layer_factory.hpp:77] Creating layer pool6
I0124 14:57:53.796862  8370 net.cpp:100] Creating Layer pool6
I0124 14:57:53.796866  8370 net.cpp:434] pool6 <- conv6_1_relu6_1_0_split_2
I0124 14:57:53.796870  8370 net.cpp:408] pool6 -> pool6
I0124 14:57:53.796905  8370 net.cpp:150] Setting up pool6
I0124 14:57:53.796910  8370 net.cpp:157] Top shape: 4 512 9 12 (221184)
I0124 14:57:53.796911  8370 net.cpp:165] Memory required for data: 4471307256
I0124 14:57:53.796913  8370 layer_factory.hpp:77] Creating layer LFCN_4_3x5
I0124 14:57:53.796921  8370 net.cpp:100] Creating Layer LFCN_4_3x5
I0124 14:57:53.796926  8370 net.cpp:434] LFCN_4_3x5 <- pool6
I0124 14:57:53.796931  8370 net.cpp:408] LFCN_4_3x5 -> LFCN_4_3x5
I0124 14:57:53.798382  8370 net.cpp:150] Setting up LFCN_4_3x5
I0124 14:57:53.798394  8370 net.cpp:157] Top shape: 4 7 9 12 (3024)
I0124 14:57:53.798396  8370 net.cpp:165] Memory required for data: 4471319352
I0124 14:57:53.798403  8370 layer_factory.hpp:77] Creating layer LFCN_4_3x5_LFCN_4_3x5_0_split
I0124 14:57:53.798409  8370 net.cpp:100] Creating Layer LFCN_4_3x5_LFCN_4_3x5_0_split
I0124 14:57:53.798413  8370 net.cpp:434] LFCN_4_3x5_LFCN_4_3x5_0_split <- LFCN_4_3x5
I0124 14:57:53.798418  8370 net.cpp:408] LFCN_4_3x5_LFCN_4_3x5_0_split -> LFCN_4_3x5_LFCN_4_3x5_0_split_0
I0124 14:57:53.798426  8370 net.cpp:408] LFCN_4_3x5_LFCN_4_3x5_0_split -> LFCN_4_3x5_LFCN_4_3x5_0_split_1
I0124 14:57:53.798465  8370 net.cpp:150] Setting up LFCN_4_3x5_LFCN_4_3x5_0_split
I0124 14:57:53.798470  8370 net.cpp:157] Top shape: 4 7 9 12 (3024)
I0124 14:57:53.798472  8370 net.cpp:157] Top shape: 4 7 9 12 (3024)
I0124 14:57:53.798475  8370 net.cpp:165] Memory required for data: 4471343544
I0124 14:57:53.798476  8370 layer_factory.hpp:77] Creating layer detection_loss_4_3x5
I0124 14:57:53.798482  8370 net.cpp:100] Creating Layer detection_loss_4_3x5
I0124 14:57:53.798485  8370 net.cpp:434] detection_loss_4_3x5 <- LFCN_4_3x5_LFCN_4_3x5_0_split_0
I0124 14:57:53.798488  8370 net.cpp:434] detection_loss_4_3x5 <- label_4_3x5_data_7_split_0
I0124 14:57:53.798496  8370 net.cpp:408] detection_loss_4_3x5 -> loss_4_3x5
I0124 14:57:53.798501  8370 layer_factory.hpp:77] Creating layer detection_loss_4_3x5
I0124 14:57:53.798790  8370 net.cpp:150] Setting up detection_loss_4_3x5
I0124 14:57:53.798799  8370 net.cpp:157] Top shape: 1 1 1 2 (2)
I0124 14:57:53.798800  8370 net.cpp:160]     with loss weight 1
I0124 14:57:53.798806  8370 net.cpp:165] Memory required for data: 4471343552
I0124 14:57:53.798810  8370 layer_factory.hpp:77] Creating layer detection_accuracy_4_3x5
I0124 14:57:53.798815  8370 net.cpp:100] Creating Layer detection_accuracy_4_3x5
I0124 14:57:53.798818  8370 net.cpp:434] detection_accuracy_4_3x5 <- LFCN_4_3x5_LFCN_4_3x5_0_split_1
I0124 14:57:53.798822  8370 net.cpp:434] detection_accuracy_4_3x5 <- label_4_3x5_data_7_split_1
I0124 14:57:53.798827  8370 net.cpp:408] detection_accuracy_4_3x5 -> accuracy_4_3x5
I0124 14:57:53.798835  8370 net.cpp:408] detection_accuracy_4_3x5 -> boxiou_4_3x5
I0124 14:57:53.798871  8370 net.cpp:150] Setting up detection_accuracy_4_3x5
I0124 14:57:53.798876  8370 net.cpp:157] Top shape: 1 1 1 2 (2)
I0124 14:57:53.798877  8370 net.cpp:157] Top shape: 1 1 1 1 (1)
I0124 14:57:53.798879  8370 net.cpp:165] Memory required for data: 4471343564
I0124 14:57:53.798882  8370 net.cpp:228] detection_accuracy_4_3x5 does not need backward computation.
I0124 14:57:53.798885  8370 net.cpp:226] detection_loss_4_3x5 needs backward computation.
I0124 14:57:53.798888  8370 net.cpp:226] LFCN_4_3x5_LFCN_4_3x5_0_split needs backward computation.
I0124 14:57:53.798890  8370 net.cpp:226] LFCN_4_3x5 needs backward computation.
…
I0124 14:57:53.814227  8370 image_gt_data_layer.cpp:235] output label size 1 : 2,6,72,96
I0124 14:57:53.814271  8370 image_gt_data_layer.cpp:235] output label size 2 : 2,6,36,48
I0124 14:57:53.814316  8370 image_gt_data_layer.cpp:235] output label size 3 : 2,6,36,48
I0124 14:57:53.814359  8370 image_gt_data_layer.cpp:235] output label size 4 : 2,6,18,24
I0124 14:57:53.814404  8370 image_gt_data_layer.cpp:235] output label size 5 : 2,6,18,24
I0124 14:57:53.814446  8370 image_gt_data_layer.cpp:235] output label size 6 : 2,6,9,12
I0124 14:57:53.831764  8370 net.cpp:150] Setting up data
I0124 14:57:53.831787  8370 net.cpp:157] Top shape: 2 3 576 768 (2654208)
I0124 14:57:53.831791  8370 net.cpp:157] Top shape: 2 6 72 96 (82944)
I0124 14:57:53.831794  8370 net.cpp:157] Top shape: 2 6 72 96 (82944)
I0124 14:57:53.831796  8370 net.cpp:157] Top shape: 2 6 36 48 (20736)
I0124 14:57:53.831799  8370 net.cpp:157] Top shape: 2 6 36 48 (20736)
I0124 14:57:53.831802  8370 net.cpp:157] Top shape: 2 6 18 24 (5184)
I0124 14:57:53.831805  8370 net.cpp:157] Top shape: 2 6 18 24 (5184)
I0124 14:57:53.831807  8370 net.cpp:157] Top shape: 2 6 9 12 (1296)
I0124 14:57:53.831809  8370 net.cpp:165] Memory required for data: 11492928
I0124 14:57:53.831815  8370 layer_factory.hpp:77] Creating layer label_1_3x5_data_1_split
I0124 14:57:53.831830  8370 net.cpp:100] Creating Layer label_1_3x5_data_1_split
I0124 14:57:53.831832  8370 net.cpp:434] label_1_3x5_data_1_split <- label_1_3x5
I0124 14:57:53.831840  8370 net.cpp:408] label_1_3x5_data_1_split -> label_1_3x5_data_1_split_0
I0124 14:57:53.831851  8370 net.cpp:408] label_1_3x5_data_1_split -> label_1_3x5_data_1_split_1
I0124 14:57:53.831928  8370 net.cpp:150] Setting up label_1_3x5_data_1_split
I0124 14:57:53.831933  8370 net.cpp:157] Top shape: 2 6 72 96 (82944)
I0124 14:57:53.831935  8370 net.cpp:157] Top shape: 2 6 72 96 (82944)
I0124 14:57:53.831938  8370 net.cpp:165] Memory required for data: 12156480
I0124 14:57:53.831940  8370 layer_factory.hpp:77] Creating layer label_1_5x7_data_2_split
I0124 14:57:53.831945  8370 net.cpp:100] Creating Layer label_1_5x7_data_2_split
I0124 14:57:53.831948  8370 net.cpp:434] label_1_5x7_data_2_split <- label_1_5x7
I0124 14:57:53.831953  8370 net.cpp:408] label_1_5x7_data_2_split -> label_1_5x7_data_2_split_0
I0124 14:57:53.831957  8370 net.cpp:408] label_1_5x7_data_2_split -> label_1_5x7_data_2_split_1
I0124 14:57:53.831986  8370 net.cpp:150] Setting up label_1_5x7_data_2_split
I0124 14:57:53.831991  8370 net.cpp:157] Top shape: 2 6 72 96 (82944)
I0124 14:57:53.831993  8370 net.cpp:157] Top shape: 2 6 72 96 (82944)
I0124 14:57:53.831995  8370 net.cpp:165] Memory required for data: 12820032
I0124 14:57:53.831998  8370 layer_factory.hpp:77] Creating layer label_2_3x5_data_3_split
I0124 14:57:53.832001  8370 net.cpp:100] Creating Layer label_2_3x5_data_3_split
I0124 14:57:53.832003  8370 net.cpp:434] label_2_3x5_data_3_split <- label_2_3x5
I0124 14:57:53.832007  8370 net.cpp:408] label_2_3x5_data_3_split -> label_2_3x5_data_3_split_0
I0124 14:57:53.832012  8370 net.cpp:408] label_2_3x5_data_3_split -> label_2_3x5_data_3_split_1
I0124 14:57:53.832041  8370 net.cpp:150] Setting up label_2_3x5_data_3_split
I0124 14:57:53.832044  8370 net.cpp:157] Top shape: 2 6 36 48 (20736)
I0124 14:57:53.832047  8370 net.cpp:157] Top shape: 2 6 36 48 (20736)
I0124 14:57:53.832048  8370 net.cpp:165] Memory required for data: 12985920
I0124 14:57:53.832051  8370 layer_factory.hpp:77] Creating layer label_2_5x7_data_4_split
I0124 14:57:53.832056  8370 net.cpp:100] Creating Layer label_2_5x7_data_4_split
I0124 14:57:53.832057  8370 net.cpp:434] label_2_5x7_data_4_split <- label_2_5x7
I0124 14:57:53.832062  8370 net.cpp:408] label_2_5x7_data_4_split -> label_2_5x7_data_4_split_0
I0124 14:57:53.832067  8370 net.cpp:408] label_2_5x7_data_4_split -> label_2_5x7_data_4_split_1
I0124 14:57:53.832093  8370 net.cpp:150] Setting up label_2_5x7_data_4_split
I0124 14:57:53.832098  8370 net.cpp:157] Top shape: 2 6 36 48 (20736)
I0124 14:57:53.832100  8370 net.cpp:157] Top shape: 2 6 36 48 (20736)
I0124 14:57:53.832103  8370 net.cpp:165] Memory required for data: 13151808
I0124 14:57:53.832104  8370 layer_factory.hpp:77] Creating layer label_3_3x5_data_5_split
I0124 14:57:53.832108  8370 net.cpp:100] Creating Layer label_3_3x5_data_5_split
I0124 14:57:53.832110  8370 net.cpp:434] label_3_3x5_data_5_split <- label_3_3x5
I0124 14:57:53.832113  8370 net.cpp:408] label_3_3x5_data_5_split -> label_3_3x5_data_5_split_0
I0124 14:57:53.832119  8370 net.cpp:408] label_3_3x5_data_5_split -> label_3_3x5_data_5_split_1
I0124 14:57:53.832149  8370 net.cpp:150] Setting up label_3_3x5_data_5_split
I0124 14:57:53.832152  8370 net.cpp:157] Top shape: 2 6 18 24 (5184)
I0124 14:57:53.832155  8370 net.cpp:157] Top shape: 2 6 18 24 (5184)
I0124 14:57:53.832157  8370 net.cpp:165] Memory required for data: 13193280
I0124 14:57:53.832159  8370 layer_factory.hpp:77] Creating layer label_3_5x7_data_6_split
I0124 14:57:53.832164  8370 net.cpp:100] Creating Layer label_3_5x7_data_6_split
I0124 14:57:53.832165  8370 net.cpp:434] label_3_5x7_data_6_split <- label_3_5x7
I0124 14:57:53.832170  8370 net.cpp:408] label_3_5x7_data_6_split -> label_3_5x7_data_6_split_0
I0124 14:57:53.832175  8370 net.cpp:408] label_3_5x7_data_6_split -> label_3_5x7_data_6_split_1
I0124 14:57:53.832203  8370 net.cpp:150] Setting up label_3_5x7_data_6_split
I0124 14:57:53.832207  8370 net.cpp:157] Top shape: 2 6 18 24 (5184)
I0124 14:57:53.832211  8370 net.cpp:157] Top shape: 2 6 18 24 (5184)
I0124 14:57:53.832212  8370 net.cpp:165] Memory required for data: 13234752
I0124 14:57:53.832214  8370 layer_factory.hpp:77] Creating layer label_4_3x5_data_7_split
I0124 14:57:53.832217  8370 net.cpp:100] Creating Layer label_4_3x5_data_7_split
I0124 14:57:53.832219  8370 net.cpp:434] label_4_3x5_data_7_split <- label_4_3x5
I0124 14:57:53.832224  8370 net.cpp:408] label_4_3x5_data_7_split -> label_4_3x5_data_7_split_0
I0124 14:57:53.832229  8370 net.cpp:408] label_4_3x5_data_7_split -> label_4_3x5_data_7_split_1
I0124 14:57:53.832258  8370 net.cpp:150] Setting up label_4_3x5_data_7_split
I0124 14:57:53.832262  8370 net.cpp:157] Top shape: 2 6 9 12 (1296)
I0124 14:57:53.832264  8370 net.cpp:157] Top shape: 2 6 9 12 (1296)
I0124 14:57:53.832267  8370 net.cpp:165] Memory required for data: 13245120
I0124 14:57:53.832268  8370 layer_factory.hpp:77] Creating layer conv1_1
I0124 14:57:53.832278  8370 net.cpp:100] Creating Layer conv1_1
I0124 14:57:53.832279  8370 net.cpp:434] conv1_1 <- data
I0124 14:57:53.832284  8370 net.cpp:408] conv1_1 -> conv1_1
I0124 14:57:53.835619  8370 net.cpp:150] Setting up conv1_1
I0124 14:57:53.835634  8370 net.cpp:157] Top shape: 2 64 576 768 (56623104)
I0124 14:57:53.835636  8370 net.cpp:165] Memory required for data: 239737536
I0124 14:57:53.835649  8370 layer_factory.hpp:77] Creating layer relu1_1
I0124 14:57:53.835656  8370 net.cpp:100] Creating Layer relu1_1
I0124 14:57:53.835659  8370 net.cpp:434] relu1_1 <- conv1_1
I0124 14:57:53.835664  8370 net.cpp:395] relu1_1 -> conv1_1 (in-place)
I0124 14:57:53.836146  8370 net.cpp:150] Setting up relu1_1
I0124 14:57:53.836155  8370 net.cpp:157] Top shape: 2 64 576 768 (56623104)
I0124 14:57:53.836158  8370 net.cpp:165] Memory required for data: 466229952
I0124 14:57:53.836160  8370 layer_factory.hpp:77] Creating layer conv1_2
I0124 14:57:53.836169  8370 net.cpp:100] Creating Layer conv1_2
I0124 14:57:53.836170  8370 net.cpp:434] conv1_2 <- conv1_1
I0124 14:57:53.836176  8370 net.cpp:408] conv1_2 -> conv1_2
I0124 14:57:53.838217  8370 net.cpp:150] Setting up conv1_2
I0124 14:57:53.838227  8370 net.cpp:157] Top shape: 2 64 576 768 (56623104)
I0124 14:57:53.838229  8370 net.cpp:165] Memory required for data: 692722368
I0124 14:57:53.838238  8370 layer_factory.hpp:77] Creating layer relu1_2
I0124 14:57:53.838243  8370 net.cpp:100] Creating Layer relu1_2
I0124 14:57:53.838244  8370 net.cpp:434] relu1_2 <- conv1_2
I0124 14:57:53.838249  8370 net.cpp:395] relu1_2 -> conv1_2 (in-place)
I0124 14:57:53.838419  8370 net.cpp:150] Setting up relu1_2
I0124 14:57:53.838428  8370 net.cpp:157] Top shape: 2 64 576 768 (56623104)
I0124 14:57:53.838428  8370 net.cpp:165] Memory required for data: 919214784
I0124 14:57:53.838431  8370 layer_factory.hpp:77] Creating layer pool1
I0124 14:57:53.838436  8370 net.cpp:100] Creating Layer pool1
I0124 14:57:53.838438  8370 net.cpp:434] pool1 <- conv1_2
I0124 14:57:53.838444  8370 net.cpp:408] pool1 -> pool1
I0124 14:57:53.838487  8370 net.cpp:150] Setting up pool1
I0124 14:57:53.838491  8370 net.cpp:157] Top shape: 2 64 288 384 (14155776)
I0124 14:57:53.838493  8370 net.cpp:165] Memory required for data: 975837888
I0124 14:57:53.838496  8370 layer_factory.hpp:77] Creating layer conv2_1
I0124 14:57:53.838502  8370 net.cpp:100] Creating Layer conv2_1
I0124 14:57:53.838505  8370 net.cpp:434] conv2_1 <- pool1
I0124 14:57:53.838508  8370 net.cpp:408] conv2_1 -> conv2_1
I0124 14:57:53.839912  8370 net.cpp:150] Setting up conv2_1
I0124 14:57:53.839921  8370 net.cpp:157] Top shape: 2 128 288 384 (28311552)
I0124 14:57:53.839923  8370 net.cpp:165] Memory required for data: 1089084096
I0124 14:57:53.839931  8370 layer_factory.hpp:77] Creating layer relu2_1
I0124 14:57:53.839936  8370 net.cpp:100] Creating Layer relu2_1
I0124 14:57:53.839939  8370 net.cpp:434] relu2_1 <- conv2_1
I0124 14:57:53.839943  8370 net.cpp:395] relu2_1 -> conv2_1 (in-place)
I0124 14:57:53.840104  8370 net.cpp:150] Setting up relu2_1
I0124 14:57:53.840111  8370 net.cpp:157] Top shape: 2 128 288 384 (28311552)
I0124 14:57:53.840112  8370 net.cpp:165] Memory required for data: 1202330304
I0124 14:57:53.840114  8370 layer_factory.hpp:77] Creating layer conv2_2
I0124 14:57:53.840121  8370 net.cpp:100] Creating Layer conv2_2
I0124 14:57:53.840124  8370 net.cpp:434] conv2_2 <- conv2_1
I0124 14:57:53.840128  8370 net.cpp:408] conv2_2 -> conv2_2
I0124 14:57:53.846585  8370 net.cpp:150] Setting up conv2_2
I0124 14:57:53.846597  8370 net.cpp:157] Top shape: 2 128 288 384 (28311552)
I0124 14:57:53.846601  8370 net.cpp:165] Memory required for data: 1315576512
I0124 14:57:53.846606  8370 layer_factory.hpp:77] Creating layer relu2_2
I0124 14:57:53.846616  8370 net.cpp:100] Creating Layer relu2_2
I0124 14:57:53.846618  8370 net.cpp:434] relu2_2 <- conv2_2
I0124 14:57:53.846623  8370 net.cpp:395] relu2_2 -> conv2_2 (in-place)
I0124 14:57:53.846801  8370 net.cpp:150] Setting up relu2_2
I0124 14:57:53.846807  8370 net.cpp:157] Top shape: 2 128 288 384 (28311552)
I0124 14:57:53.846808  8370 net.cpp:165] Memory required for data: 1428822720
I0124 14:57:53.846810  8370 layer_factory.hpp:77] Creating layer pool2
I0124 14:57:53.846815  8370 net.cpp:100] Creating Layer pool2
I0124 14:57:53.846817  8370 net.cpp:434] pool2 <- conv2_2
I0124 14:57:53.846822  8370 net.cpp:408] pool2 -> pool2
I0124 14:57:53.846869  8370 net.cpp:150] Setting up pool2
I0124 14:57:53.846873  8370 net.cpp:157] Top shape: 2 128 144 192 (7077888)
I0124 14:57:53.846875  8370 net.cpp:165] Memory required for data: 1457134272
I0124 14:57:53.846879  8370 layer_factory.hpp:77] Creating layer conv3_1
I0124 14:57:53.846884  8370 net.cpp:100] Creating Layer conv3_1
I0124 14:57:53.846886  8370 net.cpp:434] conv3_1 <- pool2
I0124 14:57:53.846889  8370 net.cpp:408] conv3_1 -> conv3_1
I0124 14:57:53.848660  8370 net.cpp:150] Setting up conv3_1
I0124 14:57:53.848670  8370 net.cpp:157] Top shape: 2 256 144 192 (14155776)
I0124 14:57:53.848671  8370 net.cpp:165] Memory required for data: 1513757376
I0124 14:57:53.848681  8370 layer_factory.hpp:77] Creating layer relu3_1
I0124 14:57:53.848686  8370 net.cpp:100] Creating Layer relu3_1
I0124 14:57:53.848690  8370 net.cpp:434] relu3_1 <- conv3_1
I0124 14:57:53.848693  8370 net.cpp:395] relu3_1 -> conv3_1 (in-place)
I0124 14:57:53.848857  8370 net.cpp:150] Setting up relu3_1
I0124 14:57:53.848863  8370 net.cpp:157] Top shape: 2 256 144 192 (14155776)
I0124 14:57:53.848865  8370 net.cpp:165] Memory required for data: 1570380480
I0124 14:57:53.848868  8370 layer_factory.hpp:77] Creating layer conv3_2
I0124 14:57:53.848873  8370 net.cpp:100] Creating Layer conv3_2
I0124 14:57:53.848875  8370 net.cpp:434] conv3_2 <- conv3_1
I0124 14:57:53.848881  8370 net.cpp:408] conv3_2 -> conv3_2
I0124 14:57:53.851339  8370 net.cpp:150] Setting up conv3_2
I0124 14:57:53.851351  8370 net.cpp:157] Top shape: 2 256 144 192 (14155776)
I0124 14:57:53.851353  8370 net.cpp:165] Memory required for data: 1627003584
I0124 14:57:53.851358  8370 layer_factory.hpp:77] Creating layer relu3_2
I0124 14:57:53.851363  8370 net.cpp:100] Creating Layer relu3_2
I0124 14:57:53.851366  8370 net.cpp:434] relu3_2 <- conv3_2
I0124 14:57:53.851371  8370 net.cpp:395] relu3_2 -> conv3_2 (in-place)
I0124 14:57:53.851522  8370 net.cpp:150] Setting up relu3_2
I0124 14:57:53.851528  8370 net.cpp:157] Top shape: 2 256 144 192 (14155776)
I0124 14:57:53.851531  8370 net.cpp:165] Memory required for data: 1683626688
I0124 14:57:53.851532  8370 layer_factory.hpp:77] Creating layer conv3_3
I0124 14:57:53.851539  8370 net.cpp:100] Creating Layer conv3_3
I0124 14:57:53.851541  8370 net.cpp:434] conv3_3 <- conv3_2
I0124 14:57:53.851546  8370 net.cpp:408] conv3_3 -> conv3_3
I0124 14:57:53.854594  8370 net.cpp:150] Setting up conv3_3
I0124 14:57:53.854616  8370 net.cpp:157] Top shape: 2 256 144 192 (14155776)
I0124 14:57:53.854619  8370 net.cpp:165] Memory required for data: 1740249792
I0124 14:57:53.854627  8370 layer_factory.hpp:77] Creating layer relu3_3
I0124 14:57:53.854635  8370 net.cpp:100] Creating Layer relu3_3
I0124 14:57:53.854640  8370 net.cpp:434] relu3_3 <- conv3_3
I0124 14:57:53.854646  8370 net.cpp:395] relu3_3 -> conv3_3 (in-place)
I0124 14:57:53.855124  8370 net.cpp:150] Setting up relu3_3
I0124 14:57:53.855134  8370 net.cpp:157] Top shape: 2 256 144 192 (14155776)
I0124 14:57:53.855137  8370 net.cpp:165] Memory required for data: 1796872896
I0124 14:57:53.855139  8370 layer_factory.hpp:77] Creating layer pool3
I0124 14:57:53.855145  8370 net.cpp:100] Creating Layer pool3
I0124 14:57:53.855147  8370 net.cpp:434] pool3 <- conv3_3
I0124 14:57:53.855154  8370 net.cpp:408] pool3 -> pool3
I0124 14:57:53.855199  8370 net.cpp:150] Setting up pool3
I0124 14:57:53.855203  8370 net.cpp:157] Top shape: 2 256 72 96 (3538944)
I0124 14:57:53.855206  8370 net.cpp:165] Memory required for data: 1811028672
I0124 14:57:53.855207  8370 layer_factory.hpp:77] Creating layer conv4_1
I0124 14:57:53.855214  8370 net.cpp:100] Creating Layer conv4_1
I0124 14:57:53.855216  8370 net.cpp:434] conv4_1 <- pool3
I0124 14:57:53.855221  8370 net.cpp:408] conv4_1 -> conv4_1
I0124 14:57:53.858469  8370 net.cpp:150] Setting up conv4_1
I0124 14:57:53.858480  8370 net.cpp:157] Top shape: 2 512 72 96 (7077888)
I0124 14:57:53.858482  8370 net.cpp:165] Memory required for data: 1839340224
I0124 14:57:53.858489  8370 layer_factory.hpp:77] Creating layer relu4_1
I0124 14:57:53.858494  8370 net.cpp:100] Creating Layer relu4_1
I0124 14:57:53.858496  8370 net.cpp:434] relu4_1 <- conv4_1
I0124 14:57:53.858500  8370 net.cpp:395] relu4_1 -> conv4_1 (in-place)
I0124 14:57:53.858657  8370 net.cpp:150] Setting up relu4_1
I0124 14:57:53.858664  8370 net.cpp:157] Top shape: 2 512 72 96 (7077888)
I0124 14:57:53.858664  8370 net.cpp:165] Memory required for data: 1867651776
I0124 14:57:53.858667  8370 layer_factory.hpp:77] Creating layer conv4_2
I0124 14:57:53.858675  8370 net.cpp:100] Creating Layer conv4_2
I0124 14:57:53.858676  8370 net.cpp:434] conv4_2 <- conv4_1
I0124 14:57:53.858681  8370 net.cpp:408] conv4_2 -> conv4_2
I0124 14:57:53.863680  8370 net.cpp:150] Setting up conv4_2
I0124 14:57:53.863696  8370 net.cpp:157] Top shape: 2 512 72 96 (7077888)
I0124 14:57:53.863699  8370 net.cpp:165] Memory required for data: 1895963328
I0124 14:57:53.863713  8370 layer_factory.hpp:77] Creating layer relu4_2
I0124 14:57:53.863719  8370 net.cpp:100] Creating Layer relu4_2
I0124 14:57:53.863723  8370 net.cpp:434] relu4_2 <- conv4_2
I0124 14:57:53.863729  8370 net.cpp:395] relu4_2 -> conv4_2 (in-place)
I0124 14:57:53.863878  8370 net.cpp:150] Setting up relu4_2
I0124 14:57:53.863883  8370 net.cpp:157] Top shape: 2 512 72 96 (7077888)
I0124 14:57:53.863884  8370 net.cpp:165] Memory required for data: 1924274880
I0124 14:57:53.863888  8370 layer_factory.hpp:77] Creating layer conv4_3
I0124 14:57:53.863894  8370 net.cpp:100] Creating Layer conv4_3
I0124 14:57:53.863896  8370 net.cpp:434] conv4_3 <- conv4_2
I0124 14:57:53.863901  8370 net.cpp:408] conv4_3 -> conv4_3
I0124 14:57:53.868324  8370 net.cpp:150] Setting up conv4_3
I0124 14:57:53.868337  8370 net.cpp:157] Top shape: 2 512 72 96 (7077888)
I0124 14:57:53.868340  8370 net.cpp:165] Memory required for data: 1952586432
I0124 14:57:53.868346  8370 layer_factory.hpp:77] Creating layer relu4_3
I0124 14:57:53.868352  8370 net.cpp:100] Creating Layer relu4_3
I0124 14:57:53.868355  8370 net.cpp:434] relu4_3 <- conv4_3
I0124 14:57:53.868360  8370 net.cpp:395] relu4_3 -> conv4_3 (in-place)
I0124 14:57:53.868523  8370 net.cpp:150] Setting up relu4_3
I0124 14:57:53.868530  8370 net.cpp:157] Top shape: 2 512 72 96 (7077888)
I0124 14:57:53.868531  8370 net.cpp:165] Memory required for data: 1980897984
I0124 14:57:53.868533  8370 layer_factory.hpp:77] Creating layer conv4_3_relu4_3_0_split
I0124 14:57:53.868540  8370 net.cpp:100] Creating Layer conv4_3_relu4_3_0_split
I0124 14:57:53.868541  8370 net.cpp:434] conv4_3_relu4_3_0_split <- conv4_3
I0124 14:57:53.868546  8370 net.cpp:408] conv4_3_relu4_3_0_split -> conv4_3_relu4_3_0_split_0
I0124 14:57:53.868552  8370 net.cpp:408] conv4_3_relu4_3_0_split -> conv4_3_relu4_3_0_split_1
I0124 14:57:53.868592  8370 net.cpp:150] Setting up conv4_3_relu4_3_0_split
I0124 14:57:53.868597  8370 net.cpp:157] Top shape: 2 512 72 96 (7077888)
I0124 14:57:53.868599  8370 net.cpp:157] Top shape: 2 512 72 96 (7077888)
I0124 14:57:53.868600  8370 net.cpp:165] Memory required for data: 2037521088
I0124 14:57:53.868603  8370 layer_factory.hpp:77] Creating layer loss1_conv1
I0124 14:57:53.868619  8370 net.cpp:100] Creating Layer loss1_conv1
I0124 14:57:53.868623  8370 net.cpp:434] loss1_conv1 <- conv4_3_relu4_3_0_split_0
I0124 14:57:53.868628  8370 net.cpp:408] loss1_conv1 -> loss1_conv1
I0124 14:57:53.889194  8370 net.cpp:150] Setting up loss1_conv1
I0124 14:57:53.889219  8370 net.cpp:157] Top shape: 2 512 72 96 (7077888)
I0124 14:57:53.889222  8370 net.cpp:165] Memory required for data: 2065832640
I0124 14:57:53.889233  8370 layer_factory.hpp:77] Creating layer loss_relu1
I0124 14:57:53.889245  8370 net.cpp:100] Creating Layer loss_relu1
I0124 14:57:53.889250  8370 net.cpp:434] loss_relu1 <- loss1_conv1
I0124 14:57:53.889261  8370 net.cpp:395] loss_relu1 -> loss1_conv1 (in-place)
I0124 14:57:53.889418  8370 net.cpp:150] Setting up loss_relu1
I0124 14:57:53.889427  8370 net.cpp:157] Top shape: 2 512 72 96 (7077888)
I0124 14:57:53.889431  8370 net.cpp:165] Memory required for data: 2094144192
I0124 14:57:53.889434  8370 layer_factory.hpp:77] Creating layer loss1_conv1_loss_relu1_0_split
I0124 14:57:53.889442  8370 net.cpp:100] Creating Layer loss1_conv1_loss_relu1_0_split
I0124 14:57:53.889446  8370 net.cpp:434] loss1_conv1_loss_relu1_0_split <- loss1_conv1
I0124 14:57:53.889456  8370 net.cpp:408] loss1_conv1_loss_relu1_0_split -> loss1_conv1_loss_relu1_0_split_0
I0124 14:57:53.889467  8370 net.cpp:408] loss1_conv1_loss_relu1_0_split -> loss1_conv1_loss_relu1_0_split_1
I0124 14:57:53.889510  8370 net.cpp:150] Setting up loss1_conv1_loss_relu1_0_split
I0124 14:57:53.889518  8370 net.cpp:157] Top shape: 2 512 72 96 (7077888)
I0124 14:57:53.889523  8370 net.cpp:157] Top shape: 2 512 72 96 (7077888)
I0124 14:57:53.889524  8370 net.cpp:165] Memory required for data: 2150767296
I0124 14:57:53.889526  8370 layer_factory.hpp:77] Creating layer LFCN_1_3x5
I0124 14:57:53.889536  8370 net.cpp:100] Creating Layer LFCN_1_3x5
I0124 14:57:53.889539  8370 net.cpp:434] LFCN_1_3x5 <- loss1_conv1_loss_relu1_0_split_0
I0124 14:57:53.889545  8370 net.cpp:408] LFCN_1_3x5 -> LFCN_1_3x5
I0124 14:57:53.890940  8370 net.cpp:150] Setting up LFCN_1_3x5
I0124 14:57:53.890949  8370 net.cpp:157] Top shape: 2 7 72 96 (96768)
I0124 14:57:53.890952  8370 net.cpp:165] Memory required for data: 2151154368
I0124 14:57:53.890956  8370 layer_factory.hpp:77] Creating layer LFCN_1_3x5_LFCN_1_3x5_0_split
I0124 14:57:53.890962  8370 net.cpp:100] Creating Layer LFCN_1_3x5_LFCN_1_3x5_0_split
I0124 14:57:53.890965  8370 net.cpp:434] LFCN_1_3x5_LFCN_1_3x5_0_split <- LFCN_1_3x5
I0124 14:57:53.890970  8370 net.cpp:408] LFCN_1_3x5_LFCN_1_3x5_0_split -> LFCN_1_3x5_LFCN_1_3x5_0_split_0
I0124 14:57:53.890976  8370 net.cpp:408] LFCN_1_3x5_LFCN_1_3x5_0_split -> LFCN_1_3x5_LFCN_1_3x5_0_split_1
I0124 14:57:53.891014  8370 net.cpp:150] Setting up LFCN_1_3x5_LFCN_1_3x5_0_split
I0124 14:57:53.891018  8370 net.cpp:157] Top shape: 2 7 72 96 (96768)
I0124 14:57:53.891021  8370 net.cpp:157] Top shape: 2 7 72 96 (96768)
I0124 14:57:53.891023  8370 net.cpp:165] Memory required for data: 2151928512
I0124 14:57:53.891024  8370 layer_factory.hpp:77] Creating layer detection_loss_1_3x5
I0124 14:57:53.891031  8370 net.cpp:100] Creating Layer detection_loss_1_3x5
I0124 14:57:53.891033  8370 net.cpp:434] detection_loss_1_3x5 <- LFCN_1_3x5_LFCN_1_3x5_0_split_0
I0124 14:57:53.891037  8370 net.cpp:434] detection_loss_1_3x5 <- label_1_3x5_data_1_split_0
I0124 14:57:53.891042  8370 net.cpp:408] detection_loss_1_3x5 -> loss_1_3x5
I0124 14:57:53.891049  8370 layer_factory.hpp:77] Creating layer detection_loss_1_3x5
I0124 14:57:53.891371  8370 net.cpp:150] Setting up detection_loss_1_3x5
I0124 14:57:53.891377  8370 net.cpp:157] Top shape: 1 1 1 2 (2)
I0124 14:57:53.891379  8370 net.cpp:160]     with loss weight 0.9
I0124 14:57:53.891389  8370 net.cpp:165] Memory required for data: 2151928520
I0124 14:57:53.891391  8370 layer_factory.hpp:77] Creating layer detection_accuracy_1_3x5
I0124 14:57:53.891398  8370 net.cpp:100] Creating Layer detection_accuracy_1_3x5
I0124 14:57:53.891400  8370 net.cpp:434] detection_accuracy_1_3x5 <- LFCN_1_3x5_LFCN_1_3x5_0_split_1
I0124 14:57:53.891404  8370 net.cpp:434] detection_accuracy_1_3x5 <- label_1_3x5_data_1_split_1
I0124 14:57:53.891409  8370 net.cpp:408] detection_accuracy_1_3x5 -> accuracy_1_3x5
I0124 14:57:53.891415  8370 net.cpp:408] detection_accuracy_1_3x5 -> boxiou_1_3x5
I0124 14:57:53.891450  8370 net.cpp:150] Setting up detection_accuracy_1_3x5
I0124 14:57:53.891455  8370 net.cpp:157] Top shape: 1 1 1 2 (2)
I0124 14:57:53.891458  8370 net.cpp:157] Top shape: 1 1 1 1 (1)
I0124 14:57:53.891459  8370 net.cpp:165] Memory required for data: 2151928532
I0124 14:57:53.891461  8370 layer_factory.hpp:77] Creating layer LFCN_1_5x7
I0124 14:57:53.891469  8370 net.cpp:100] Creating Layer LFCN_1_5x7
I0124 14:57:53.891471  8370 net.cpp:434] LFCN_1_5x7 <- loss1_conv1_loss_relu1_0_split_1
I0124 14:57:53.891476  8370 net.cpp:408] LFCN_1_5x7 -> LFCN_1_5x7
I0124 14:57:53.894127  8370 net.cpp:150] Setting up LFCN_1_5x7
I0124 14:57:53.894136  8370 net.cpp:157] Top shape: 2 7 72 96 (96768)
I0124 14:57:53.894140  8370 net.cpp:165] Memory required for data: 2152315604
I0124 14:57:53.894143  8370 layer_factory.hpp:77] Creating layer LFCN_1_5x7_LFCN_1_5x7_0_split
I0124 14:57:53.894150  8370 net.cpp:100] Creating Layer LFCN_1_5x7_LFCN_1_5x7_0_split
I0124 14:57:53.894152  8370 net.cpp:434] LFCN_1_5x7_LFCN_1_5x7_0_split <- LFCN_1_5x7
I0124 14:57:53.894157  8370 net.cpp:408] LFCN_1_5x7_LFCN_1_5x7_0_split -> LFCN_1_5x7_LFCN_1_5x7_0_split_0
I0124 14:57:53.894163  8370 net.cpp:408] LFCN_1_5x7_LFCN_1_5x7_0_split -> LFCN_1_5x7_LFCN_1_5x7_0_split_1
I0124 14:57:53.894201  8370 net.cpp:150] Setting up LFCN_1_5x7_LFCN_1_5x7_0_split
I0124 14:57:53.894207  8370 net.cpp:157] Top shape: 2 7 72 96 (96768)
I0124 14:57:53.894208  8370 net.cpp:157] Top shape: 2 7 72 96 (96768)
I0124 14:57:53.894210  8370 net.cpp:165] Memory required for data: 2153089748
I0124 14:57:53.894212  8370 layer_factory.hpp:77] Creating layer detection_loss_1_5x7
I0124 14:57:53.894218  8370 net.cpp:100] Creating Layer detection_loss_1_5x7
I0124 14:57:53.894220  8370 net.cpp:434] detection_loss_1_5x7 <- LFCN_1_5x7_LFCN_1_5x7_0_split_0
I0124 14:57:53.894224  8370 net.cpp:434] detection_loss_1_5x7 <- label_1_5x7_data_2_split_0
I0124 14:57:53.894232  8370 net.cpp:408] detection_loss_1_5x7 -> loss_1_5x7
I0124 14:57:53.894243  8370 layer_factory.hpp:77] Creating layer detection_loss_1_5x7
I0124 14:57:53.895121  8370 net.cpp:150] Setting up detection_loss_1_5x7
I0124 14:57:53.895131  8370 net.cpp:157] Top shape: 1 1 1 2 (2)
I0124 14:57:53.895133  8370 net.cpp:160]     with loss weight 0.9
I0124 14:57:53.895140  8370 net.cpp:165] Memory required for data: 2153089756
I0124 14:57:53.895143  8370 layer_factory.hpp:77] Creating layer detection_accuracy_1_5x7
I0124 14:57:53.895149  8370 net.cpp:100] Creating Layer detection_accuracy_1_5x7
I0124 14:57:53.895151  8370 net.cpp:434] detection_accuracy_1_5x7 <- LFCN_1_5x7_LFCN_1_5x7_0_split_1
I0124 14:57:53.895157  8370 net.cpp:434] detection_accuracy_1_5x7 <- label_1_5x7_data_2_split_1
I0124 14:57:53.895161  8370 net.cpp:408] detection_accuracy_1_5x7 -> accuracy_1_5x7
I0124 14:57:53.895167  8370 net.cpp:408] detection_accuracy_1_5x7 -> boxiou_1_5x7
I0124 14:57:53.895205  8370 net.cpp:150] Setting up detection_accuracy_1_5x7
I0124 14:57:53.895210  8370 net.cpp:157] Top shape: 1 1 1 2 (2)
I0124 14:57:53.895212  8370 net.cpp:157] Top shape: 1 1 1 1 (1)
I0124 14:57:53.895215  8370 net.cpp:165] Memory required for data: 2153089768
I0124 14:57:53.895216  8370 layer_factory.hpp:77] Creating layer pool4
I0124 14:57:53.895221  8370 net.cpp:100] Creating Layer pool4
I0124 14:57:53.895225  8370 net.cpp:434] pool4 <- conv4_3_relu4_3_0_split_1
I0124 14:57:53.895228  8370 net.cpp:408] pool4 -> pool4
I0124 14:57:53.895262  8370 net.cpp:150] Setting up pool4
I0124 14:57:53.895267  8370 net.cpp:157] Top shape: 2 512 36 48 (1769472)
I0124 14:57:53.895269  8370 net.cpp:165] Memory required for data: 2160167656
I0124 14:57:53.895272  8370 layer_factory.hpp:77] Creating layer conv5_1
I0124 14:57:53.895277  8370 net.cpp:100] Creating Layer conv5_1
I0124 14:57:53.895279  8370 net.cpp:434] conv5_1 <- pool4
I0124 14:57:53.895284  8370 net.cpp:408] conv5_1 -> conv5_1
I0124 14:57:53.899929  8370 net.cpp:150] Setting up conv5_1
I0124 14:57:53.899946  8370 net.cpp:157] Top shape: 2 512 36 48 (1769472)
I0124 14:57:53.899950  8370 net.cpp:165] Memory required for data: 2167245544
I0124 14:57:53.899957  8370 layer_factory.hpp:77] Creating layer relu5_1
I0124 14:57:53.899966  8370 net.cpp:100] Creating Layer relu5_1
I0124 14:57:53.899971  8370 net.cpp:434] relu5_1 <- conv5_1
I0124 14:57:53.899976  8370 net.cpp:395] relu5_1 -> conv5_1 (in-place)
I0124 14:57:53.900131  8370 net.cpp:150] Setting up relu5_1
I0124 14:57:53.900137  8370 net.cpp:157] Top shape: 2 512 36 48 (1769472)
I0124 14:57:53.900138  8370 net.cpp:165] Memory required for data: 2174323432
I0124 14:57:53.900141  8370 layer_factory.hpp:77] Creating layer conv5_2
I0124 14:57:53.900148  8370 net.cpp:100] Creating Layer conv5_2
I0124 14:57:53.900151  8370 net.cpp:434] conv5_2 <- conv5_1
I0124 14:57:53.900156  8370 net.cpp:408] conv5_2 -> conv5_2
I0124 14:57:53.907524  8370 net.cpp:150] Setting up conv5_2
I0124 14:57:53.907552  8370 net.cpp:157] Top shape: 2 512 36 48 (1769472)
I0124 14:57:53.907555  8370 net.cpp:165] Memory required for data: 2181401320
I0124 14:57:53.907567  8370 layer_factory.hpp:77] Creating layer relu5_2
I0124 14:57:53.907582  8370 net.cpp:100] Creating Layer relu5_2
I0124 14:57:53.907588  8370 net.cpp:434] relu5_2 <- conv5_2
I0124 14:57:53.907598  8370 net.cpp:395] relu5_2 -> conv5_2 (in-place)
I0124 14:57:53.907764  8370 net.cpp:150] Setting up relu5_2
I0124 14:57:53.907773  8370 net.cpp:157] Top shape: 2 512 36 48 (1769472)
I0124 14:57:53.907776  8370 net.cpp:165] Memory required for data: 2188479208
I0124 14:57:53.907780  8370 layer_factory.hpp:77] Creating layer conv5_3
I0124 14:57:53.907791  8370 net.cpp:100] Creating Layer conv5_3
I0124 14:57:53.907795  8370 net.cpp:434] conv5_3 <- conv5_2
I0124 14:57:53.907804  8370 net.cpp:408] conv5_3 -> conv5_3
I0124 14:57:53.912281  8370 net.cpp:150] Setting up conv5_3
I0124 14:57:53.912299  8370 net.cpp:157] Top shape: 2 512 36 48 (1769472)
I0124 14:57:53.912303  8370 net.cpp:165] Memory required for data: 2195557096
I0124 14:57:53.912313  8370 layer_factory.hpp:77] Creating layer relu5_3
I0124 14:57:53.912323  8370 net.cpp:100] Creating Layer relu5_3
I0124 14:57:53.912328  8370 net.cpp:434] relu5_3 <- conv5_3
I0124 14:57:53.912336  8370 net.cpp:395] relu5_3 -> conv5_3 (in-place)
I0124 14:57:53.912499  8370 net.cpp:150] Setting up relu5_3
I0124 14:57:53.912508  8370 net.cpp:157] Top shape: 2 512 36 48 (1769472)
I0124 14:57:53.912511  8370 net.cpp:165] Memory required for data: 2202634984
I0124 14:57:53.912515  8370 layer_factory.hpp:77] Creating layer conv5_3_relu5_3_0_split
I0124 14:57:53.912523  8370 net.cpp:100] Creating Layer conv5_3_relu5_3_0_split
I0124 14:57:53.912528  8370 net.cpp:434] conv5_3_relu5_3_0_split <- conv5_3
I0124 14:57:53.912536  8370 net.cpp:408] conv5_3_relu5_3_0_split -> conv5_3_relu5_3_0_split_0
I0124 14:57:53.912547  8370 net.cpp:408] conv5_3_relu5_3_0_split -> conv5_3_relu5_3_0_split_1
I0124 14:57:53.912556  8370 net.cpp:408] conv5_3_relu5_3_0_split -> conv5_3_relu5_3_0_split_2
I0124 14:57:53.912613  8370 net.cpp:150] Setting up conv5_3_relu5_3_0_split
I0124 14:57:53.912619  8370 net.cpp:157] Top shape: 2 512 36 48 (1769472)
I0124 14:57:53.912624  8370 net.cpp:157] Top shape: 2 512 36 48 (1769472)
I0124 14:57:53.912629  8370 net.cpp:157] Top shape: 2 512 36 48 (1769472)
I0124 14:57:53.912632  8370 net.cpp:165] Memory required for data: 2223868648
I0124 14:57:53.912636  8370 layer_factory.hpp:77] Creating layer LFCN_2_3x5
I0124 14:57:53.912648  8370 net.cpp:100] Creating Layer LFCN_2_3x5
I0124 14:57:53.912652  8370 net.cpp:434] LFCN_2_3x5 <- conv5_3_relu5_3_0_split_0
I0124 14:57:53.912662  8370 net.cpp:408] LFCN_2_3x5 -> LFCN_2_3x5
I0124 14:57:53.915180  8370 net.cpp:150] Setting up LFCN_2_3x5
I0124 14:57:53.915199  8370 net.cpp:157] Top shape: 2 7 36 48 (24192)
I0124 14:57:53.915204  8370 net.cpp:165] Memory required for data: 2223965416
I0124 14:57:53.915222  8370 layer_factory.hpp:77] Creating layer LFCN_2_3x5_LFCN_2_3x5_0_split
I0124 14:57:53.915232  8370 net.cpp:100] Creating Layer LFCN_2_3x5_LFCN_2_3x5_0_split
I0124 14:57:53.915238  8370 net.cpp:434] LFCN_2_3x5_LFCN_2_3x5_0_split <- LFCN_2_3x5
I0124 14:57:53.915249  8370 net.cpp:408] LFCN_2_3x5_LFCN_2_3x5_0_split -> LFCN_2_3x5_LFCN_2_3x5_0_split_0
I0124 14:57:53.915259  8370 net.cpp:408] LFCN_2_3x5_LFCN_2_3x5_0_split -> LFCN_2_3x5_LFCN_2_3x5_0_split_1
I0124 14:57:53.915303  8370 net.cpp:150] Setting up LFCN_2_3x5_LFCN_2_3x5_0_split
I0124 14:57:53.915310  8370 net.cpp:157] Top shape: 2 7 36 48 (24192)
I0124 14:57:53.915315  8370 net.cpp:157] Top shape: 2 7 36 48 (24192)
I0124 14:57:53.915319  8370 net.cpp:165] Memory required for data: 2224158952
I0124 14:57:53.915323  8370 layer_factory.hpp:77] Creating layer detection_loss_2_3x5
I0124 14:57:53.915333  8370 net.cpp:100] Creating Layer detection_loss_2_3x5
I0124 14:57:53.915338  8370 net.cpp:434] detection_loss_2_3x5 <- LFCN_2_3x5_LFCN_2_3x5_0_split_0
I0124 14:57:53.915344  8370 net.cpp:434] detection_loss_2_3x5 <- label_2_3x5_data_3_split_0
I0124 14:57:53.915352  8370 net.cpp:408] detection_loss_2_3x5 -> loss_2_3x5
I0124 14:57:53.915364  8370 layer_factory.hpp:77] Creating layer detection_loss_2_3x5
I0124 14:57:53.915697  8370 net.cpp:150] Setting up detection_loss_2_3x5
I0124 14:57:53.915707  8370 net.cpp:157] Top shape: 1 1 1 2 (2)
I0124 14:57:53.915710  8370 net.cpp:160]     with loss weight 1
I0124 14:57:53.915724  8370 net.cpp:165] Memory required for data: 2224158960
I0124 14:57:53.915727  8370 layer_factory.hpp:77] Creating layer detection_accuracy_2_3x5
I0124 14:57:53.915735  8370 net.cpp:100] Creating Layer detection_accuracy_2_3x5
I0124 14:57:53.915740  8370 net.cpp:434] detection_accuracy_2_3x5 <- LFCN_2_3x5_LFCN_2_3x5_0_split_1
I0124 14:57:53.915745  8370 net.cpp:434] detection_accuracy_2_3x5 <- label_2_3x5_data_3_split_1
I0124 14:57:53.915756  8370 net.cpp:408] detection_accuracy_2_3x5 -> accuracy_2_3x5
I0124 14:57:53.915766  8370 net.cpp:408] detection_accuracy_2_3x5 -> boxiou_2_3x5
I0124 14:57:53.915822  8370 net.cpp:150] Setting up detection_accuracy_2_3x5
I0124 14:57:53.915829  8370 net.cpp:157] Top shape: 1 1 1 2 (2)
I0124 14:57:53.915834  8370 net.cpp:157] Top shape: 1 1 1 1 (1)
I0124 14:57:53.915838  8370 net.cpp:165] Memory required for data: 2224158972
I0124 14:57:53.915843  8370 layer_factory.hpp:77] Creating layer LFCN_2_5x7
I0124 14:57:53.915856  8370 net.cpp:100] Creating Layer LFCN_2_5x7
I0124 14:57:53.915860  8370 net.cpp:434] LFCN_2_5x7 <- conv5_3_relu5_3_0_split_1
I0124 14:57:53.915869  8370 net.cpp:408] LFCN_2_5x7 -> LFCN_2_5x7
I0124 14:57:53.919440  8370 net.cpp:150] Setting up LFCN_2_5x7
I0124 14:57:53.919458  8370 net.cpp:157] Top shape: 2 7 36 48 (24192)
I0124 14:57:53.919462  8370 net.cpp:165] Memory required for data: 2224255740
I0124 14:57:53.919471  8370 layer_factory.hpp:77] Creating layer LFCN_2_5x7_LFCN_2_5x7_0_split
I0124 14:57:53.919478  8370 net.cpp:100] Creating Layer LFCN_2_5x7_LFCN_2_5x7_0_split
I0124 14:57:53.919484  8370 net.cpp:434] LFCN_2_5x7_LFCN_2_5x7_0_split <- LFCN_2_5x7
I0124 14:57:53.919495  8370 net.cpp:408] LFCN_2_5x7_LFCN_2_5x7_0_split -> LFCN_2_5x7_LFCN_2_5x7_0_split_0
I0124 14:57:53.919505  8370 net.cpp:408] LFCN_2_5x7_LFCN_2_5x7_0_split -> LFCN_2_5x7_LFCN_2_5x7_0_split_1
I0124 14:57:53.919550  8370 net.cpp:150] Setting up LFCN_2_5x7_LFCN_2_5x7_0_split
I0124 14:57:53.919558  8370 net.cpp:157] Top shape: 2 7 36 48 (24192)
I0124 14:57:53.919562  8370 net.cpp:157] Top shape: 2 7 36 48 (24192)
I0124 14:57:53.919566  8370 net.cpp:165] Memory required for data: 2224449276
I0124 14:57:53.919570  8370 layer_factory.hpp:77] Creating layer detection_loss_2_5x7
I0124 14:57:53.919579  8370 net.cpp:100] Creating Layer detection_loss_2_5x7
I0124 14:57:53.919584  8370 net.cpp:434] detection_loss_2_5x7 <- LFCN_2_5x7_LFCN_2_5x7_0_split_0
I0124 14:57:53.919589  8370 net.cpp:434] detection_loss_2_5x7 <- label_2_5x7_data_4_split_0
I0124 14:57:53.919598  8370 net.cpp:408] detection_loss_2_5x7 -> loss_2_5x7
I0124 14:57:53.919610  8370 layer_factory.hpp:77] Creating layer detection_loss_2_5x7
I0124 14:57:53.920076  8370 net.cpp:150] Setting up detection_loss_2_5x7
I0124 14:57:53.920086  8370 net.cpp:157] Top shape: 1 1 1 2 (2)
I0124 14:57:53.920089  8370 net.cpp:160]     with loss weight 1
I0124 14:57:53.920101  8370 net.cpp:165] Memory required for data: 2224449284
I0124 14:57:53.920105  8370 layer_factory.hpp:77] Creating layer detection_accuracy_2_5x7
I0124 14:57:53.920114  8370 net.cpp:100] Creating Layer detection_accuracy_2_5x7
I0124 14:57:53.920117  8370 net.cpp:434] detection_accuracy_2_5x7 <- LFCN_2_5x7_LFCN_2_5x7_0_split_1
I0124 14:57:53.920123  8370 net.cpp:434] detection_accuracy_2_5x7 <- label_2_5x7_data_4_split_1
I0124 14:57:53.920132  8370 net.cpp:408] detection_accuracy_2_5x7 -> accuracy_2_5x7
I0124 14:57:53.920142  8370 net.cpp:408] detection_accuracy_2_5x7 -> boxiou_2_5x7
I0124 14:57:53.920186  8370 net.cpp:150] Setting up detection_accuracy_2_5x7
I0124 14:57:53.920193  8370 net.cpp:157] Top shape: 1 1 1 2 (2)
I0124 14:57:53.920197  8370 net.cpp:157] Top shape: 1 1 1 1 (1)
I0124 14:57:53.920200  8370 net.cpp:165] Memory required for data: 2224449296
I0124 14:57:53.920204  8370 layer_factory.hpp:77] Creating layer pool5
I0124 14:57:53.920210  8370 net.cpp:100] Creating Layer pool5
I0124 14:57:53.920213  8370 net.cpp:434] pool5 <- conv5_3_relu5_3_0_split_2
I0124 14:57:53.920218  8370 net.cpp:408] pool5 -> pool5
I0124 14:57:53.920258  8370 net.cpp:150] Setting up pool5
I0124 14:57:53.920261  8370 net.cpp:157] Top shape: 2 512 18 24 (442368)
I0124 14:57:53.920262  8370 net.cpp:165] Memory required for data: 2226218768
I0124 14:57:53.920264  8370 layer_factory.hpp:77] Creating layer conv6_1
I0124 14:57:53.920274  8370 net.cpp:100] Creating Layer conv6_1
I0124 14:57:53.920276  8370 net.cpp:434] conv6_1 <- pool5
I0124 14:57:53.920280  8370 net.cpp:408] conv6_1 -> conv6_1
I0124 14:57:53.946166  8370 net.cpp:150] Setting up conv6_1
I0124 14:57:53.946190  8370 net.cpp:157] Top shape: 2 512 18 24 (442368)
I0124 14:57:53.946195  8370 net.cpp:165] Memory required for data: 2227988240
I0124 14:57:53.946205  8370 layer_factory.hpp:77] Creating layer relu6_1
I0124 14:57:53.946216  8370 net.cpp:100] Creating Layer relu6_1
I0124 14:57:53.946223  8370 net.cpp:434] relu6_1 <- conv6_1
I0124 14:57:53.946233  8370 net.cpp:395] relu6_1 -> conv6_1 (in-place)
I0124 14:57:53.946732  8370 net.cpp:150] Setting up relu6_1
I0124 14:57:53.946743  8370 net.cpp:157] Top shape: 2 512 18 24 (442368)
I0124 14:57:53.946748  8370 net.cpp:165] Memory required for data: 2229757712
I0124 14:57:53.946753  8370 layer_factory.hpp:77] Creating layer conv6_1_relu6_1_0_split
I0124 14:57:53.946761  8370 net.cpp:100] Creating Layer conv6_1_relu6_1_0_split
I0124 14:57:53.946766  8370 net.cpp:434] conv6_1_relu6_1_0_split <- conv6_1
I0124 14:57:53.946774  8370 net.cpp:408] conv6_1_relu6_1_0_split -> conv6_1_relu6_1_0_split_0
I0124 14:57:53.946785  8370 net.cpp:408] conv6_1_relu6_1_0_split -> conv6_1_relu6_1_0_split_1
I0124 14:57:53.946794  8370 net.cpp:408] conv6_1_relu6_1_0_split -> conv6_1_relu6_1_0_split_2
I0124 14:57:53.946853  8370 net.cpp:150] Setting up conv6_1_relu6_1_0_split
I0124 14:57:53.946863  8370 net.cpp:157] Top shape: 2 512 18 24 (442368)
I0124 14:57:53.946869  8370 net.cpp:157] Top shape: 2 512 18 24 (442368)
I0124 14:57:53.946874  8370 net.cpp:157] Top shape: 2 512 18 24 (442368)
I0124 14:57:53.946878  8370 net.cpp:165] Memory required for data: 2235066128
I0124 14:57:53.946882  8370 layer_factory.hpp:77] Creating layer LFCN_3_3x5
I0124 14:57:53.946894  8370 net.cpp:100] Creating Layer LFCN_3_3x5
I0124 14:57:53.946899  8370 net.cpp:434] LFCN_3_3x5 <- conv6_1_relu6_1_0_split_0
I0124 14:57:53.946907  8370 net.cpp:408] LFCN_3_3x5 -> LFCN_3_3x5
I0124 14:57:53.948351  8370 net.cpp:150] Setting up LFCN_3_3x5
I0124 14:57:53.948364  8370 net.cpp:157] Top shape: 2 7 18 24 (6048)
I0124 14:57:53.948367  8370 net.cpp:165] Memory required for data: 2235090320
I0124 14:57:53.948375  8370 layer_factory.hpp:77] Creating layer LFCN_3_3x5_LFCN_3_3x5_0_split
I0124 14:57:53.948396  8370 net.cpp:100] Creating Layer LFCN_3_3x5_LFCN_3_3x5_0_split
I0124 14:57:53.948400  8370 net.cpp:434] LFCN_3_3x5_LFCN_3_3x5_0_split <- LFCN_3_3x5
I0124 14:57:53.948408  8370 net.cpp:408] LFCN_3_3x5_LFCN_3_3x5_0_split -> LFCN_3_3x5_LFCN_3_3x5_0_split_0
I0124 14:57:53.948418  8370 net.cpp:408] LFCN_3_3x5_LFCN_3_3x5_0_split -> LFCN_3_3x5_LFCN_3_3x5_0_split_1
I0124 14:57:53.948462  8370 net.cpp:150] Setting up LFCN_3_3x5_LFCN_3_3x5_0_split
I0124 14:57:53.948470  8370 net.cpp:157] Top shape: 2 7 18 24 (6048)
I0124 14:57:53.948474  8370 net.cpp:157] Top shape: 2 7 18 24 (6048)
I0124 14:57:53.948478  8370 net.cpp:165] Memory required for data: 2235138704
I0124 14:57:53.948483  8370 layer_factory.hpp:77] Creating layer detection_loss_3_3x5
I0124 14:57:53.948493  8370 net.cpp:100] Creating Layer detection_loss_3_3x5
I0124 14:57:53.948498  8370 net.cpp:434] detection_loss_3_3x5 <- LFCN_3_3x5_LFCN_3_3x5_0_split_0
I0124 14:57:53.948503  8370 net.cpp:434] detection_loss_3_3x5 <- label_3_3x5_data_5_split_0
I0124 14:57:53.948511  8370 net.cpp:408] detection_loss_3_3x5 -> loss_3_3x5
I0124 14:57:53.948524  8370 layer_factory.hpp:77] Creating layer detection_loss_3_3x5
I0124 14:57:53.948838  8370 net.cpp:150] Setting up detection_loss_3_3x5
I0124 14:57:53.948848  8370 net.cpp:157] Top shape: 1 1 1 2 (2)
I0124 14:57:53.948850  8370 net.cpp:160]     with loss weight 1
I0124 14:57:53.948863  8370 net.cpp:165] Memory required for data: 2235138712
I0124 14:57:53.948868  8370 layer_factory.hpp:77] Creating layer detection_accuracy_3_3x5
I0124 14:57:53.948878  8370 net.cpp:100] Creating Layer detection_accuracy_3_3x5
I0124 14:57:53.948881  8370 net.cpp:434] detection_accuracy_3_3x5 <- LFCN_3_3x5_LFCN_3_3x5_0_split_1
I0124 14:57:53.948887  8370 net.cpp:434] detection_accuracy_3_3x5 <- label_3_3x5_data_5_split_1
I0124 14:57:53.948895  8370 net.cpp:408] detection_accuracy_3_3x5 -> accuracy_3_3x5
I0124 14:57:53.948906  8370 net.cpp:408] detection_accuracy_3_3x5 -> boxiou_3_3x5
I0124 14:57:53.948949  8370 net.cpp:150] Setting up detection_accuracy_3_3x5
I0124 14:57:53.948956  8370 net.cpp:157] Top shape: 1 1 1 2 (2)
I0124 14:57:53.948961  8370 net.cpp:157] Top shape: 1 1 1 1 (1)
I0124 14:57:53.948963  8370 net.cpp:165] Memory required for data: 2235138724
I0124 14:57:53.948967  8370 layer_factory.hpp:77] Creating layer LFCN_3_5x7
I0124 14:57:53.948978  8370 net.cpp:100] Creating Layer LFCN_3_5x7
I0124 14:57:53.948983  8370 net.cpp:434] LFCN_3_5x7 <- conv6_1_relu6_1_0_split_1
I0124 14:57:53.948992  8370 net.cpp:408] LFCN_3_5x7 -> LFCN_3_5x7
I0124 14:57:53.950908  8370 net.cpp:150] Setting up LFCN_3_5x7
I0124 14:57:53.950922  8370 net.cpp:157] Top shape: 2 7 18 24 (6048)
I0124 14:57:53.950925  8370 net.cpp:165] Memory required for data: 2235162916
I0124 14:57:53.950932  8370 layer_factory.hpp:77] Creating layer LFCN_3_5x7_LFCN_3_5x7_0_split
I0124 14:57:53.950940  8370 net.cpp:100] Creating Layer LFCN_3_5x7_LFCN_3_5x7_0_split
I0124 14:57:53.950945  8370 net.cpp:434] LFCN_3_5x7_LFCN_3_5x7_0_split <- LFCN_3_5x7
I0124 14:57:53.950954  8370 net.cpp:408] LFCN_3_5x7_LFCN_3_5x7_0_split -> LFCN_3_5x7_LFCN_3_5x7_0_split_0
I0124 14:57:53.950964  8370 net.cpp:408] LFCN_3_5x7_LFCN_3_5x7_0_split -> LFCN_3_5x7_LFCN_3_5x7_0_split_1
I0124 14:57:53.951009  8370 net.cpp:150] Setting up LFCN_3_5x7_LFCN_3_5x7_0_split
I0124 14:57:53.951015  8370 net.cpp:157] Top shape: 2 7 18 24 (6048)
I0124 14:57:53.951020  8370 net.cpp:157] Top shape: 2 7 18 24 (6048)
I0124 14:57:53.951025  8370 net.cpp:165] Memory required for data: 2235211300
I0124 14:57:53.951027  8370 layer_factory.hpp:77] Creating layer detection_loss_3_5x7
I0124 14:57:53.951037  8370 net.cpp:100] Creating Layer detection_loss_3_5x7
I0124 14:57:53.951041  8370 net.cpp:434] detection_loss_3_5x7 <- LFCN_3_5x7_LFCN_3_5x7_0_split_0
I0124 14:57:53.951047  8370 net.cpp:434] detection_loss_3_5x7 <- label_3_5x7_data_6_split_0
I0124 14:57:53.951055  8370 net.cpp:408] detection_loss_3_5x7 -> loss_3_5x7
I0124 14:57:53.951066  8370 layer_factory.hpp:77] Creating layer detection_loss_3_5x7
I0124 14:57:53.951378  8370 net.cpp:150] Setting up detection_loss_3_5x7
I0124 14:57:53.951387  8370 net.cpp:157] Top shape: 1 1 1 2 (2)
I0124 14:57:53.951390  8370 net.cpp:160]     with loss weight 1
I0124 14:57:53.951396  8370 net.cpp:165] Memory required for data: 2235211308
I0124 14:57:53.951402  8370 layer_factory.hpp:77] Creating layer detection_accuracy_3_5x7
I0124 14:57:53.951412  8370 net.cpp:100] Creating Layer detection_accuracy_3_5x7
I0124 14:57:53.951416  8370 net.cpp:434] detection_accuracy_3_5x7 <- LFCN_3_5x7_LFCN_3_5x7_0_split_1
I0124 14:57:53.951422  8370 net.cpp:434] detection_accuracy_3_5x7 <- label_3_5x7_data_6_split_1
I0124 14:57:53.951431  8370 net.cpp:408] detection_accuracy_3_5x7 -> accuracy_3_5x7
I0124 14:57:53.951439  8370 net.cpp:408] detection_accuracy_3_5x7 -> boxiou_3_5x7
I0124 14:57:53.951483  8370 net.cpp:150] Setting up detection_accuracy_3_5x7
I0124 14:57:53.951489  8370 net.cpp:157] Top shape: 1 1 1 2 (2)
I0124 14:57:53.951493  8370 net.cpp:157] Top shape: 1 1 1 1 (1)
I0124 14:57:53.951496  8370 net.cpp:165] Memory required for data: 2235211320
I0124 14:57:53.951500  8370 layer_factory.hpp:77] Creating layer pool6
I0124 14:57:53.951508  8370 net.cpp:100] Creating Layer pool6
I0124 14:57:53.951514  8370 net.cpp:434] pool6 <- conv6_1_relu6_1_0_split_2
I0124 14:57:53.951521  8370 net.cpp:408] pool6 -> pool6
I0124 14:57:53.951562  8370 net.cpp:150] Setting up pool6
I0124 14:57:53.951570  8370 net.cpp:157] Top shape: 2 512 9 12 (110592)
I0124 14:57:53.951572  8370 net.cpp:165] Memory required for data: 2235653688
I0124 14:57:53.951575  8370 layer_factory.hpp:77] Creating layer LFCN_4_3x5
I0124 14:57:53.951586  8370 net.cpp:100] Creating Layer LFCN_4_3x5
I0124 14:57:53.951591  8370 net.cpp:434] LFCN_4_3x5 <- pool6
I0124 14:57:53.951598  8370 net.cpp:408] LFCN_4_3x5 -> LFCN_4_3x5
I0124 14:57:53.953004  8370 net.cpp:150] Setting up LFCN_4_3x5
I0124 14:57:53.953016  8370 net.cpp:157] Top shape: 2 7 9 12 (1512)
I0124 14:57:53.953021  8370 net.cpp:165] Memory required for data: 2235659736
I0124 14:57:53.953028  8370 layer_factory.hpp:77] Creating layer LFCN_4_3x5_LFCN_4_3x5_0_split
I0124 14:57:53.953038  8370 net.cpp:100] Creating Layer LFCN_4_3x5_LFCN_4_3x5_0_split
I0124 14:57:53.953042  8370 net.cpp:434] LFCN_4_3x5_LFCN_4_3x5_0_split <- LFCN_4_3x5
I0124 14:57:53.953052  8370 net.cpp:408] LFCN_4_3x5_LFCN_4_3x5_0_split -> LFCN_4_3x5_LFCN_4_3x5_0_split_0
I0124 14:57:53.953063  8370 net.cpp:408] LFCN_4_3x5_LFCN_4_3x5_0_split -> LFCN_4_3x5_LFCN_4_3x5_0_split_1
I0124 14:57:53.953109  8370 net.cpp:150] Setting up LFCN_4_3x5_LFCN_4_3x5_0_split
I0124 14:57:53.953116  8370 net.cpp:157] Top shape: 2 7 9 12 (1512)
I0124 14:57:53.953121  8370 net.cpp:157] Top shape: 2 7 9 12 (1512)
I0124 14:57:53.953125  8370 net.cpp:165] Memory required for data: 2235671832
I0124 14:57:53.953130  8370 layer_factory.hpp:77] Creating layer detection_loss_4_3x5
I0124 14:57:53.953136  8370 net.cpp:100] Creating Layer detection_loss_4_3x5
I0124 14:57:53.953140  8370 net.cpp:434] detection_loss_4_3x5 <- LFCN_4_3x5_LFCN_4_3x5_0_split_0
I0124 14:57:53.953145  8370 net.cpp:434] detection_loss_4_3x5 <- label_4_3x5_data_7_split_0
I0124 14:57:53.953155  8370 net.cpp:408] detection_loss_4_3x5 -> loss_4_3x5
I0124 14:57:53.953164  8370 layer_factory.hpp:77] Creating layer detection_loss_4_3x5
I0124 14:57:53.953481  8370 net.cpp:150] Setting up detection_loss_4_3x5
I0124 14:57:53.953490  8370 net.cpp:157] Top shape: 1 1 1 2 (2)
I0124 14:57:53.953495  8370 net.cpp:160]     with loss weight 1
I0124 14:57:53.953500  8370 net.cpp:165] Memory required for data: 2235671840
I0124 14:57:53.953505  8370 layer_factory.hpp:77] Creating layer detection_accuracy_4_3x5
I0124 14:57:53.953512  8370 net.cpp:100] Creating Layer detection_accuracy_4_3x5
I0124 14:57:53.953516  8370 net.cpp:434] detection_accuracy_4_3x5 <- LFCN_4_3x5_LFCN_4_3x5_0_split_1
I0124 14:57:53.953522  8370 net.cpp:434] detection_accuracy_4_3x5 <- label_4_3x5_data_7_split_1
I0124 14:57:53.953531  8370 net.cpp:408] detection_accuracy_4_3x5 -> accuracy_4_3x5
I0124 14:57:53.953541  8370 net.cpp:408] detection_accuracy_4_3x5 -> boxiou_4_3x5
I0124 14:57:53.953584  8370 net.cpp:150] Setting up detection_accuracy_4_3x5
I0124 14:57:53.953591  8370 net.cpp:157] Top shape: 1 1 1 2 (2)
I0124 14:57:53.953595  8370 net.cpp:157] Top shape: 1 1 1 1 (1)
I0124 14:57:53.953600  8370 net.cpp:165] Memory required for data: 2235671852
I0124 14:57:53.953604  8370 net.cpp:228] detection_accuracy_4_3x5 does not need backward computation.
I0124 14:57:53.953609  8370 net.cpp:226] detection_loss_4_3x5 needs backward computation.
I0124 14:57:53.953615  8370 net.cpp:226] LFCN_4_3x5_LFCN_4_3x5_0_split needs backward computation.
I0124 14:57:53.953619  8370 net.cpp:226] LFCN_4_3x5 needs backward computation.
…
