…
    downsample_rate: 16
    downsample_rate: 32
    downsample_rate: 32
    downsample_rate: 64
    coord_num: 4
    field_h: 60
    field_h: 84
    field_h: 120
    field_h: 168
    field_h: 240
    field_h: 336
    field_h: 480
    field_w: 40
    field_w: 56
    field_w: 80
    field_w: 112
    field_w: 160
    field_w: 224
    field_w: 360
    fg_threshold: 0.5
    resize_width: 1920
    resize_height: 576
    crop_width: 768
    crop_height: 576
    do_multiple_scale: true
    min_scale: 60
    max_scale: 480
    min_gt_height: 30
    shuffle: true
  }
}
layer {
  name: "conv1_1"
  type: "Convolution"
  bottom: "data"
  top: "conv1_1"
  convolution_param {
    num_output: 64
    pad: 1
    kernel_size: 3
  }
}
layer {
  name: "relu1_1"
  type: "ReLU"
  bottom: "conv1_1"
  top: "conv1_1"
}
layer {
  name: "conv1_2"
  type: "Convolution"
  bottom: "conv1_1"
  top: "conv1_2"
  convolution_param {
    num_output: 64
    pad: 1
    kernel_size: 3
  }
}
layer {
  name: "relu1_2"
  type: "ReLU"
  bottom: "conv1_2"
  top: "conv1_2"
}
layer {
  name: "pool1"
  type: "Pooling"
  bottom: "conv1_2"
  top: "pool1"
  pooling_param {
    pool: MAX
    kernel_size: 2
    stride: 2
  }
}
layer {
  name: "conv2_1"
  type: "Convolution"
  bottom: "pool1"
  top: "conv2_1"
  convolution_param {
    num_output: 128
    pad: 1
    kernel_size: 3
  }
}
layer {
  name: "relu2_1"
  type: "ReLU"
  bottom: "conv2_1"
  top: "conv2_1"
}
layer {
  name: "conv2_2"
  type: "Convolution"
  bottom: "conv2_1"
  top: "conv2_2"
  convolution_param {
    num_output: 128
    pad: 1
    kernel_size: 3
  }
}
layer {
  name: "relu2_2"
  type: "ReLU"
  bottom: "conv2_2"
  top: "conv2_2"
}
layer {
  name: "pool2"
  type: "Pooling"
  bottom: "conv2_2"
  top: "pool2"
  pooling_param {
    pool: MAX
    kernel_size: 2
    stride: 2
  }
}
layer {
  name: "conv3_1"
  type: "Convolution"
  bottom: "pool2"
  top: "conv3_1"
  convolution_param {
    num_output: 256
    pad: 1
    kernel_size: 3
  }
}
layer {
  name: "relu3_1"
  type: "ReLU"
  bottom: "conv3_1"
  top: "conv3_1"
}
layer {
  name: "conv3_2"
  type: "Convolution"
  bottom: "conv3_1"
  top: "conv3_2"
  convolution_param {
    num_output: 256
    pad: 1
    kernel_size: 3
  }
}
layer {
  name: "relu3_2"
  type: "ReLU"
  bottom: "conv3_2"
  top: "conv3_2"
}
layer {
  name: "conv3_3"
  type: "Convolution"
  bottom: "conv3_2"
  top: "conv3_3"
  convolution_param {
    num_output: 256
    pad: 1
    kernel_size: 3
  }
}
layer {
  name: "relu3_3"
  type: "ReLU"
  bottom: "conv3_3"
  top: "conv3_3"
}
layer {
  name: "pool3"
  type: "Pooling"
  bottom: "conv3_3"
  top: "pool3"
  pooling_param {
    pool: MAX
    kernel_size: 2
    stride: 2
  }
}
layer {
  name: "conv4_1"
  type: "Convolution"
  bottom: "pool3"
  top: "conv4_1"
  convolution_param {
    num_output: 512
    pad: 1
    kernel_size: 3
  }
}
layer {
  name: "relu4_1"
  type: "ReLU"
  bottom: "conv4_1"
  top: "conv4_1"
}
layer {
  name: "conv4_2"
  type: "Convolution"
  bottom: "conv4_1"
  top: "conv4_2"
  convolution_param {
    num_output: 512
    pad: 1
    kernel_size: 3
  }
}
layer {
  name: "relu4_2"
  type: "ReLU"
  bottom: "conv4_2"
  top: "conv4_2"
}
layer {
  name: "conv4_3"
  type: "Convolution"
  bottom: "conv4_2"
  top: "conv4_3"
  convolution_param {
    num_output: 512
    pad: 1
    kernel_size: 3
  }
}
layer {
  name: "relu4_3"
  type: "ReLU"
  bottom: "conv4_3"
  top: "conv4_3"
}
layer {
  name: "loss1_conv1"
  type: "Convolution"
  bottom: "conv4_3"
  top: "loss1_conv1"
  param {
    lr_mult: 1
    decay_mult: 1
  }
  param {
    lr_mult: 2
    decay_mult: 0
  }
  convolution_param {
    num_output: 512
    pad: 1
    kernel_size: 3
    weight_filler {
      type: "gaussian"
      std: 0.01
    }
    bias_filler {
      type: "constant"
    }
  }
}
layer {
  name: "loss_relu1"
  type: "ReLU"
  bottom: "loss1_conv1"
  top: "loss1_conv1"
}
layer {
  name: "LFCN_1_3x5"
  type: "Convolution"
  bottom: "loss1_conv1"
  top: "LFCN_1_3x5"
  param {
    lr_mult: 1
    decay_mult: 1
  }
  param {
    lr_mult: 2
    decay_mult: 0
  }
  convolution_param {
    num_output: 7
    weight_filler {
      type: "gaussian"
      std: 0.001
    }
    bias_filler {
      type: "constant"
    }
    pad_h: 2
    pad_w: 1
    kernel_h: 5
    kernel_w: 3
  }
}
layer {
  name: "detection_loss_1_3x5"
  type: "DetectionLoss"
  bottom: "LFCN_1_3x5"
  bottom: "label_1_3x5"
  top: "loss_1_3x5"
  loss_weight: 0.9
  detection_loss_param {
    cls_num: 3
    coord_num: 4
    lambda: 0.5
    field_h: 60
    field_w: 40
    downsample_rate: 8
    bb_smooth: true
    field_whr: 2
    field_xyr: 2
    bg_threshold: 0.2
    bg_multiple: 2
    sample_mode: "random"
    pos_neg_weighted: true
  }
}
layer {
  name: "detection_accuracy_1_3x5"
  type: "DetectionAccuracy"
  bottom: "LFCN_1_3x5"
  bottom: "label_1_3x5"
  top: "accuracy_1_3x5"
  top: "boxiou_1_3x5"
  detection_accuracy_param {
    cls_num: 3
    coord_num: 4
    field_h: 60
    field_w: 40
    downsample_rate: 8
    field_whr: 2
    field_xyr: 2
  }
}
layer {
  name: "LFCN_1_5x7"
  type: "Convolution"
  bottom: "loss1_conv1"
  top: "LFCN_1_5x7"
  param {
    lr_mult: 1
    decay_mult: 1
  }
  param {
    lr_mult: 2
    decay_mult: 0
  }
  convolution_param {
    num_output: 7
    weight_filler {
      type: "gaussian"
      std: 0.001
    }
    bias_filler {
      type: "constant"
    }
    pad_h: 3
    pad_w: 2
    kernel_h: 7
    kernel_w: 5
  }
}
layer {
  name: "detection_loss_1_5x7"
  type: "DetectionLoss"
  bottom: "LFCN_1_5x7"
  bottom: "label_1_5x7"
  top: "loss_1_5x7"
  loss_weight: 0.9
  detection_loss_param {
    cls_num: 3
    coord_num: 4
    lambda: 0.5
    field_h: 84
    field_w: 56
    downsample_rate: 8
    bb_smooth: true
    field_whr: 2
    field_xyr: 2
    bg_threshold: 0.2
    bg_multiple: 2
    sample_mode: "random"
    pos_neg_weighted: true
  }
}
layer {
  name: "detection_accuracy_1_5x7"
  type: "DetectionAccuracy"
  bottom: "LFCN_1_5x7"
  bottom: "label_1_5x7"
  top: "accuracy_1_5x7"
  top: "boxiou_1_5x7"
  detection_accuracy_param {
    cls_num: 3
    coord_num: 4
    field_h: 84
    field_w: 56
    downsample_rate: 8
    field_whr: 2
    field_xyr: 2
  }
}
layer {
  name: "pool4"
  type: "Pooling"
  bottom: "conv4_3"
  top: "pool4"
  pooling_param {
    pool: MAX
    kernel_size: 2
    stride: 2
  }
}
layer {
  name: "conv5_1"
  type: "Convolution"
  bottom: "pool4"
  top: "conv5_1"
  convolution_param {
    num_output: 512
    pad: 1
    kernel_size: 3
  }
}
layer {
  name: "relu5_1"
  type: "ReLU"
  bottom: "conv5_1"
  top: "conv5_1"
}
layer {
  name: "conv5_2"
  type: "Convolution"
  bottom: "conv5_1"
  top: "conv5_2"
  convolution_param {
    num_output: 512
    pad: 1
    kernel_size: 3
  }
}
layer {
  name: "relu5_2"
  type: "ReLU"
  bottom: "conv5_2"
  top: "conv5_2"
}
layer {
  name: "conv5_3"
  type: "Convolution"
  bottom: "conv5_2"
  top: "conv5_3"
  convolution_param {
    num_output: 512
    pad: 1
    kernel_size: 3
  }
}
layer {
  name: "relu5_3"
  type: "ReLU"
  bottom: "conv5_3"
  top: "conv5_3"
}
layer {
  name: "LFCN_2_3x5"
  type: "Convolution"
  bottom: "conv5_3"
  top: "LFCN_2_3x5"
  param {
    lr_mult: 1
    decay_mult: 1
  }
  param {
    lr_mult: 2
    decay_mult: 0
  }
  convolution_param {
    num_output: 7
    weight_filler {
      type: "gaussian"
      std: 0.001
    }
    bias_filler {
      type: "constant"
    }
    pad_h: 2
    pad_w: 1
    kernel_h: 5
    kernel_w: 3
  }
}
layer {
  name: "detection_loss_2_3x5"
  type: "DetectionLoss"
  bottom: "LFCN_2_3x5"
  bottom: "label_2_3x5"
  top: "loss_2_3x5"
  detection_loss_param {
    cls_num: 3
    coord_num: 4
    lambda: 0.5
    field_h: 120
    field_w: 80
    downsample_rate: 16
    bb_smooth: true
    field_whr: 2
    field_xyr: 2
    bg_threshold: 0.2
    bg_multiple: 2
    sample_mode: "random"
    pos_neg_weighted: true
  }
}
layer {
  name: "detection_accuracy_2_3x5"
  type: "DetectionAccuracy"
  bottom: "LFCN_2_3x5"
  bottom: "label_2_3x5"
  top: "accuracy_2_3x5"
  top: "boxiou_2_3x5"
  detection_accuracy_param {
    cls_num: 3
    coord_num: 4
    field_h: 120
    field_w: 80
    downsample_rate: 16
    field_whr: 2
    field_xyr: 2
  }
}
layer {
  name: "LFCN_2_5x7"
  type: "Convolution"
  bottom: "conv5_3"
  top: "LFCN_2_5x7"
  param {
    lr_mult: 1
    decay_mult: 1
  }
  param {
    lr_mult: 2
    decay_mult: 0
  }
  convolution_param {
    num_output: 7
    weight_filler {
      type: "gaussian"
      std: 0.001
    }
    bias_filler {
      type: "constant"
    }
    pad_h: 3
    pad_w: 2
    kernel_h: 7
    kernel_w: 5
  }
}
layer {
  name: "detection_loss_2_5x7"
  type: "DetectionLoss"
  bottom: "LFCN_2_5x7"
  bottom: "label_2_5x7"
  top: "loss_2_5x7"
  detection_loss_param {
    cls_num: 3
    coord_num: 4
    lambda: 0.5
    field_h: 168
    field_w: 112
    downsample_rate: 16
    bb_smooth: true
    field_whr: 2
    field_xyr: 2
    bg_threshold: 0.2
    bg_multiple: 2
    sample_mode: "random"
    pos_neg_weighted: true
  }
}
layer {
  name: "detection_accuracy_2_5x7"
  type: "DetectionAccuracy"
  bottom: "LFCN_2_5x7"
  bottom: "label_2_5x7"
  top: "accuracy_2_5x7"
  top: "boxiou_2_5x7"
  detection_accuracy_param {
    cls_num: 3
    coord_num: 4
    field_h: 168
    field_w: 112
    downsample_rate: 16
    field_whr: 2
    field_xyr: 2
  }
}
layer {
  name: "pool5"
  type: "Pooling"
  bottom: "conv5_3"
  top: "pool5"
  pooling_param {
    pool: MAX
    kernel_size: 2
    stride: 2
  }
}
layer {
  name: "conv6_1"
  type: "Convolution"
  bottom: "pool5"
  top: "conv6_1"
  param {
    lr_mult: 1
    decay_mult: 1
  }
  param {
    lr_mult: 2
    decay_mult: 0
  }
  convolution_param {
    num_output: 512
    pad: 1
    kernel_size: 3
    weight_filler {
      type: "gaussian"
      std: 0.01
    }
    bias_filler {
      type: "constant"
    }
  }
}
layer {
  name: "relu6_1"
  type: "ReLU"
  bottom: "conv6_1"
  top: "conv6_1"
}
layer {
  name: "LFCN_3_3x5"
  type: "Convolution"
  bottom: "conv6_1"
  top: "LFCN_3_3x5"
  param {
    lr_mult: 1
    decay_mult: 1
  }
  param {
    lr_mult: 2
    decay_mult: 0
  }
  convolution_param {
    num_output: 7
    weight_filler {
      type: "gaussian"
      std: 0.001
    }
    bias_filler {
      type: "constant"
    }
    pad_h: 2
    pad_w: 1
    kernel_h: 5
    kernel_w: 3
  }
}
layer {
  name: "detection_loss_3_3x5"
  type: "DetectionLoss"
  bottom: "LFCN_3_3x5"
  bottom: "label_3_3x5"
  top: "loss_3_3x5"
  detection_loss_param {
    cls_num: 3
    coord_num: 4
    lambda: 0.5
    field_h: 240
    field_w: 160
    downsample_rate: 32
    bb_smooth: true
    field_whr: 2
    field_xyr: 2
    bg_threshold: 0.2
    bg_multiple: 2
    sample_mode: "random"
    pos_neg_weighted: true
  }
}
layer {
  name: "detection_accuracy_3_3x5"
  type: "DetectionAccuracy"
  bottom: "LFCN_3_3x5"
  bottom: "label_3_3x5"
  top: "accuracy_3_3x5"
  top: "boxiou_3_3x5"
  detection_accuracy_param {
    cls_num: 3
    coord_num: 4
    field_h: 240
    field_w: 160
    downsample_rate: 32
    field_whr: 2
    field_xyr: 2
  }
}
layer {
  name: "LFCN_3_5x7"
  type: "Convolution"
  bottom: "conv6_1"
  top: "LFCN_3_5x7"
  param {
    lr_mult: 1
    decay_mult: 1
  }
  param {
    lr_mult: 2
    decay_mult: 0
  }
  convolution_param {
    num_output: 7
    weight_filler {
      type: "gaussian"
      std: 0.001
    }
    bias_filler {
      type: "constant"
    }
    pad_h: 3
    pad_w: 2
    kernel_h: 7
    kernel_w: 5
  }
}
layer {
  name: "detection_loss_3_5x7"
  type: "DetectionLoss"
  bottom: "LFCN_3_5x7"
  bottom: "label_3_5x7"
  top: "loss_3_5x7"
  detection_loss_param {
    cls_num: 3
    coord_num: 4
    lambda: 0.5
    field_h: 336
    field_w: 224
    downsample_rate: 32
    bb_smooth: true
    field_whr: 2
    field_xyr: 2
    bg_threshold: 0.2
    bg_multiple: 2
    sample_mode: "random"
    pos_neg_weighted: true
  }
}
layer {
  name: "detection_accuracy_3_5x7"
  type: "DetectionAccuracy"
  bottom: "LFCN_3_5x7"
  bottom: "label_3_5x7"
  top: "accuracy_3_5x7"
  top: "boxiou_3_5x7"
  detection_accuracy_param {
    cls_num: 3
    coord_num: 4
    field_h: 336
    field_w: 224
    downsample_rate: 32
    field_whr: 2
    field_xyr: 2
  }
}
layer {
  name: "pool6"
  type: "Pooling"
  bottom: "conv6_1"
  top: "pool6"
  pooling_param {
    pool: MAX
    kernel_size: 2
    stride: 2
  }
}
layer {
  name: "LFCN_4_3x5"
  type: "Convolution"
  bottom: "pool6"
  top: "LFCN_4_3x5"
  param {
    lr_mult: 1
    decay_mult: 1
  }
  param {
    lr_mult: 2
    decay_mult: 0
  }
  convolution_param {
    num_output: 7
    weight_filler {
      type: "gaussian"
      std: 0.001
    }
    bias_filler {
      type: "constant"
    }
    pad_h: 2
    pad_w: 1
    kernel_h: 5
    kernel_w: 3
  }
}
layer {
  name: "detection_loss_4_3x5"
  type: "DetectionLoss"
  bottom: "LFCN_4_3x5"
  bottom: "label_4_3x5"
  top: "loss_4_3x5"
  detection_loss_param {
    cls_num: 3
    coord_num: 4
    lambda: 0.5
    field_h: 480
    field_w: 360
    downsample_rate: 64
    bb_smooth: true
    field_whr: 2
    field_xyr: 2
    bg_threshold: 0.2
    bg_multiple: 2
    sample_mode: "random"
    pos_neg_weighted: true
  }
}
layer {
  name: "detection_accuracy_4_3x5"
  type: "DetectionAccuracy"
  bottom: "LFCN_4_3x5"
  bottom: "label_4_3x5"
  top: "accuracy_4_3x5"
  top: "boxiou_4_3x5"
  detection_accuracy_param {
    cls_num: 3
    coord_num: 4
    field_h: 480
    field_w: 360
    downsample_rate: 64
    field_whr: 2
    field_xyr: 2
  }
}
I0112 16:14:50.532027  8748 layer_factory.hpp:77] Creating layer data
I0112 16:14:50.532063  8748 net.cpp:100] Creating Layer data
I0112 16:14:50.532069  8748 net.cpp:408] data -> data
…
I0112 16:14:50.557435  8748 image_gt_data_layer.cpp:235] output label size 1 : 4,6,72,96
I0112 16:14:50.557464  8748 image_gt_data_layer.cpp:235] output label size 2 : 4,6,36,48
I0112 16:14:50.557495  8748 image_gt_data_layer.cpp:235] output label size 3 : 4,6,36,48
I0112 16:14:50.557524  8748 image_gt_data_layer.cpp:235] output label size 4 : 4,6,18,24
I0112 16:14:50.557554  8748 image_gt_data_layer.cpp:235] output label size 5 : 4,6,18,24
I0112 16:14:50.557584  8748 image_gt_data_layer.cpp:235] output label size 6 : 4,6,9,12
I0112 16:14:50.588301  8748 net.cpp:150] Setting up data
I0112 16:14:50.588326  8748 net.cpp:157] Top shape: 4 3 576 768 (5308416)
I0112 16:14:50.588330  8748 net.cpp:157] Top shape: 4 6 72 96 (165888)
I0112 16:14:50.588333  8748 net.cpp:157] Top shape: 4 6 72 96 (165888)
I0112 16:14:50.588336  8748 net.cpp:157] Top shape: 4 6 36 48 (41472)
I0112 16:14:50.588340  8748 net.cpp:157] Top shape: 4 6 36 48 (41472)
I0112 16:14:50.588341  8748 net.cpp:157] Top shape: 4 6 18 24 (10368)
I0112 16:14:50.588344  8748 net.cpp:157] Top shape: 4 6 18 24 (10368)
I0112 16:14:50.588347  8748 net.cpp:157] Top shape: 4 6 9 12 (2592)
I0112 16:14:50.588349  8748 net.cpp:165] Memory required for data: 22985856
I0112 16:14:50.588356  8748 layer_factory.hpp:77] Creating layer label_1_3x5_data_1_split
I0112 16:14:50.588366  8748 net.cpp:100] Creating Layer label_1_3x5_data_1_split
I0112 16:14:50.588372  8748 net.cpp:434] label_1_3x5_data_1_split <- label_1_3x5
I0112 16:14:50.588384  8748 net.cpp:408] label_1_3x5_data_1_split -> label_1_3x5_data_1_split_0
I0112 16:14:50.588403  8748 net.cpp:408] label_1_3x5_data_1_split -> label_1_3x5_data_1_split_1
I0112 16:14:50.588445  8748 net.cpp:150] Setting up label_1_3x5_data_1_split
I0112 16:14:50.588451  8748 net.cpp:157] Top shape: 4 6 72 96 (165888)
I0112 16:14:50.588454  8748 net.cpp:157] Top shape: 4 6 72 96 (165888)
I0112 16:14:50.588456  8748 net.cpp:165] Memory required for data: 24312960
I0112 16:14:50.588459  8748 layer_factory.hpp:77] Creating layer label_1_5x7_data_2_split
I0112 16:14:50.588464  8748 net.cpp:100] Creating Layer label_1_5x7_data_2_split
I0112 16:14:50.588465  8748 net.cpp:434] label_1_5x7_data_2_split <- label_1_5x7
I0112 16:14:50.588469  8748 net.cpp:408] label_1_5x7_data_2_split -> label_1_5x7_data_2_split_0
I0112 16:14:50.588474  8748 net.cpp:408] label_1_5x7_data_2_split -> label_1_5x7_data_2_split_1
I0112 16:14:50.588495  8748 net.cpp:150] Setting up label_1_5x7_data_2_split
I0112 16:14:50.588500  8748 net.cpp:157] Top shape: 4 6 72 96 (165888)
I0112 16:14:50.588502  8748 net.cpp:157] Top shape: 4 6 72 96 (165888)
I0112 16:14:50.588505  8748 net.cpp:165] Memory required for data: 25640064
I0112 16:14:50.588507  8748 layer_factory.hpp:77] Creating layer label_2_3x5_data_3_split
I0112 16:14:50.588510  8748 net.cpp:100] Creating Layer label_2_3x5_data_3_split
I0112 16:14:50.588513  8748 net.cpp:434] label_2_3x5_data_3_split <- label_2_3x5
I0112 16:14:50.588516  8748 net.cpp:408] label_2_3x5_data_3_split -> label_2_3x5_data_3_split_0
I0112 16:14:50.588521  8748 net.cpp:408] label_2_3x5_data_3_split -> label_2_3x5_data_3_split_1
I0112 16:14:50.588541  8748 net.cpp:150] Setting up label_2_3x5_data_3_split
I0112 16:14:50.588544  8748 net.cpp:157] Top shape: 4 6 36 48 (41472)
I0112 16:14:50.588547  8748 net.cpp:157] Top shape: 4 6 36 48 (41472)
I0112 16:14:50.588549  8748 net.cpp:165] Memory required for data: 25971840
I0112 16:14:50.588551  8748 layer_factory.hpp:77] Creating layer label_2_5x7_data_4_split
I0112 16:14:50.588555  8748 net.cpp:100] Creating Layer label_2_5x7_data_4_split
I0112 16:14:50.588557  8748 net.cpp:434] label_2_5x7_data_4_split <- label_2_5x7
I0112 16:14:50.588562  8748 net.cpp:408] label_2_5x7_data_4_split -> label_2_5x7_data_4_split_0
I0112 16:14:50.588567  8748 net.cpp:408] label_2_5x7_data_4_split -> label_2_5x7_data_4_split_1
I0112 16:14:50.588587  8748 net.cpp:150] Setting up label_2_5x7_data_4_split
I0112 16:14:50.588590  8748 net.cpp:157] Top shape: 4 6 36 48 (41472)
I0112 16:14:50.588593  8748 net.cpp:157] Top shape: 4 6 36 48 (41472)
I0112 16:14:50.588595  8748 net.cpp:165] Memory required for data: 26303616
I0112 16:14:50.588598  8748 layer_factory.hpp:77] Creating layer label_3_3x5_data_5_split
I0112 16:14:50.588601  8748 net.cpp:100] Creating Layer label_3_3x5_data_5_split
I0112 16:14:50.588603  8748 net.cpp:434] label_3_3x5_data_5_split <- label_3_3x5
I0112 16:14:50.588608  8748 net.cpp:408] label_3_3x5_data_5_split -> label_3_3x5_data_5_split_0
I0112 16:14:50.588613  8748 net.cpp:408] label_3_3x5_data_5_split -> label_3_3x5_data_5_split_1
I0112 16:14:50.588634  8748 net.cpp:150] Setting up label_3_3x5_data_5_split
I0112 16:14:50.588639  8748 net.cpp:157] Top shape: 4 6 18 24 (10368)
I0112 16:14:50.588642  8748 net.cpp:157] Top shape: 4 6 18 24 (10368)
I0112 16:14:50.588644  8748 net.cpp:165] Memory required for data: 26386560
I0112 16:14:50.588646  8748 layer_factory.hpp:77] Creating layer label_3_5x7_data_6_split
I0112 16:14:50.588649  8748 net.cpp:100] Creating Layer label_3_5x7_data_6_split
I0112 16:14:50.588651  8748 net.cpp:434] label_3_5x7_data_6_split <- label_3_5x7
I0112 16:14:50.588655  8748 net.cpp:408] label_3_5x7_data_6_split -> label_3_5x7_data_6_split_0
I0112 16:14:50.588660  8748 net.cpp:408] label_3_5x7_data_6_split -> label_3_5x7_data_6_split_1
I0112 16:14:50.588678  8748 net.cpp:150] Setting up label_3_5x7_data_6_split
I0112 16:14:50.588682  8748 net.cpp:157] Top shape: 4 6 18 24 (10368)
I0112 16:14:50.588685  8748 net.cpp:157] Top shape: 4 6 18 24 (10368)
I0112 16:14:50.588687  8748 net.cpp:165] Memory required for data: 26469504
I0112 16:14:50.588690  8748 layer_factory.hpp:77] Creating layer label_4_3x5_data_7_split
I0112 16:14:50.588692  8748 net.cpp:100] Creating Layer label_4_3x5_data_7_split
I0112 16:14:50.588696  8748 net.cpp:434] label_4_3x5_data_7_split <- label_4_3x5
I0112 16:14:50.588699  8748 net.cpp:408] label_4_3x5_data_7_split -> label_4_3x5_data_7_split_0
I0112 16:14:50.588708  8748 net.cpp:408] label_4_3x5_data_7_split -> label_4_3x5_data_7_split_1
I0112 16:14:50.588739  8748 net.cpp:150] Setting up label_4_3x5_data_7_split
I0112 16:14:50.588748  8748 net.cpp:157] Top shape: 4 6 9 12 (2592)
I0112 16:14:50.588752  8748 net.cpp:157] Top shape: 4 6 9 12 (2592)
I0112 16:14:50.588757  8748 net.cpp:165] Memory required for data: 26490240
I0112 16:14:50.588759  8748 layer_factory.hpp:77] Creating layer conv1_1
I0112 16:14:50.588775  8748 net.cpp:100] Creating Layer conv1_1
I0112 16:14:50.588779  8748 net.cpp:434] conv1_1 <- data
I0112 16:14:50.588786  8748 net.cpp:408] conv1_1 -> conv1_1
I0112 16:14:50.815054  8748 net.cpp:150] Setting up conv1_1
I0112 16:14:50.815079  8748 net.cpp:157] Top shape: 4 64 576 768 (113246208)
I0112 16:14:50.815083  8748 net.cpp:165] Memory required for data: 479475072
I0112 16:14:50.815104  8748 layer_factory.hpp:77] Creating layer relu1_1
I0112 16:14:50.815116  8748 net.cpp:100] Creating Layer relu1_1
I0112 16:14:50.815122  8748 net.cpp:434] relu1_1 <- conv1_1
I0112 16:14:50.815131  8748 net.cpp:395] relu1_1 -> conv1_1 (in-place)
I0112 16:14:50.815309  8748 net.cpp:150] Setting up relu1_1
I0112 16:14:50.815316  8748 net.cpp:157] Top shape: 4 64 576 768 (113246208)
I0112 16:14:50.815320  8748 net.cpp:165] Memory required for data: 932459904
I0112 16:14:50.815325  8748 layer_factory.hpp:77] Creating layer conv1_2
I0112 16:14:50.815338  8748 net.cpp:100] Creating Layer conv1_2
I0112 16:14:50.815346  8748 net.cpp:434] conv1_2 <- conv1_1
I0112 16:14:50.815353  8748 net.cpp:408] conv1_2 -> conv1_2
I0112 16:14:50.817512  8748 net.cpp:150] Setting up conv1_2
I0112 16:14:50.817523  8748 net.cpp:157] Top shape: 4 64 576 768 (113246208)
I0112 16:14:50.817528  8748 net.cpp:165] Memory required for data: 1385444736
I0112 16:14:50.817541  8748 layer_factory.hpp:77] Creating layer relu1_2
I0112 16:14:50.817551  8748 net.cpp:100] Creating Layer relu1_2
I0112 16:14:50.817558  8748 net.cpp:434] relu1_2 <- conv1_2
I0112 16:14:50.817565  8748 net.cpp:395] relu1_2 -> conv1_2 (in-place)
I0112 16:14:50.817719  8748 net.cpp:150] Setting up relu1_2
I0112 16:14:50.817728  8748 net.cpp:157] Top shape: 4 64 576 768 (113246208)
I0112 16:14:50.817731  8748 net.cpp:165] Memory required for data: 1838429568
I0112 16:14:50.817734  8748 layer_factory.hpp:77] Creating layer pool1
I0112 16:14:50.817746  8748 net.cpp:100] Creating Layer pool1
I0112 16:14:50.817752  8748 net.cpp:434] pool1 <- conv1_2
I0112 16:14:50.817760  8748 net.cpp:408] pool1 -> pool1
I0112 16:14:50.817818  8748 net.cpp:150] Setting up pool1
I0112 16:14:50.817826  8748 net.cpp:157] Top shape: 4 64 288 384 (28311552)
I0112 16:14:50.817828  8748 net.cpp:165] Memory required for data: 1951675776
I0112 16:14:50.817833  8748 layer_factory.hpp:77] Creating layer conv2_1
I0112 16:14:50.817844  8748 net.cpp:100] Creating Layer conv2_1
I0112 16:14:50.817850  8748 net.cpp:434] conv2_1 <- pool1
I0112 16:14:50.817858  8748 net.cpp:408] conv2_1 -> conv2_1
I0112 16:14:50.819995  8748 net.cpp:150] Setting up conv2_1
I0112 16:14:50.820010  8748 net.cpp:157] Top shape: 4 128 288 384 (56623104)
I0112 16:14:50.820013  8748 net.cpp:165] Memory required for data: 2178168192
I0112 16:14:50.820022  8748 layer_factory.hpp:77] Creating layer relu2_1
I0112 16:14:50.820029  8748 net.cpp:100] Creating Layer relu2_1
I0112 16:14:50.820034  8748 net.cpp:434] relu2_1 <- conv2_1
I0112 16:14:50.820039  8748 net.cpp:395] relu2_1 -> conv2_1 (in-place)
I0112 16:14:50.820189  8748 net.cpp:150] Setting up relu2_1
I0112 16:14:50.820199  8748 net.cpp:157] Top shape: 4 128 288 384 (56623104)
I0112 16:14:50.820202  8748 net.cpp:165] Memory required for data: 2404660608
I0112 16:14:50.820205  8748 layer_factory.hpp:77] Creating layer conv2_2
I0112 16:14:50.820216  8748 net.cpp:100] Creating Layer conv2_2
I0112 16:14:50.820222  8748 net.cpp:434] conv2_2 <- conv2_1
I0112 16:14:50.820230  8748 net.cpp:408] conv2_2 -> conv2_2
I0112 16:14:50.821506  8748 net.cpp:150] Setting up conv2_2
I0112 16:14:50.821521  8748 net.cpp:157] Top shape: 4 128 288 384 (56623104)
I0112 16:14:50.821523  8748 net.cpp:165] Memory required for data: 2631153024
I0112 16:14:50.821532  8748 layer_factory.hpp:77] Creating layer relu2_2
I0112 16:14:50.821545  8748 net.cpp:100] Creating Layer relu2_2
I0112 16:14:50.821552  8748 net.cpp:434] relu2_2 <- conv2_2
I0112 16:14:50.821559  8748 net.cpp:395] relu2_2 -> conv2_2 (in-place)
I0112 16:14:50.821701  8748 net.cpp:150] Setting up relu2_2
I0112 16:14:50.821707  8748 net.cpp:157] Top shape: 4 128 288 384 (56623104)
I0112 16:14:50.821710  8748 net.cpp:165] Memory required for data: 2857645440
I0112 16:14:50.821713  8748 layer_factory.hpp:77] Creating layer pool2
I0112 16:14:50.821720  8748 net.cpp:100] Creating Layer pool2
I0112 16:14:50.821727  8748 net.cpp:434] pool2 <- conv2_2
I0112 16:14:50.821732  8748 net.cpp:408] pool2 -> pool2
I0112 16:14:50.821774  8748 net.cpp:150] Setting up pool2
I0112 16:14:50.821779  8748 net.cpp:157] Top shape: 4 128 144 192 (14155776)
I0112 16:14:50.821781  8748 net.cpp:165] Memory required for data: 2914268544
I0112 16:14:50.821784  8748 layer_factory.hpp:77] Creating layer conv3_1
I0112 16:14:50.821790  8748 net.cpp:100] Creating Layer conv3_1
I0112 16:14:50.821794  8748 net.cpp:434] conv3_1 <- pool2
I0112 16:14:50.821797  8748 net.cpp:408] conv3_1 -> conv3_1
I0112 16:14:50.824043  8748 net.cpp:150] Setting up conv3_1
I0112 16:14:50.824059  8748 net.cpp:157] Top shape: 4 256 144 192 (28311552)
I0112 16:14:50.824061  8748 net.cpp:165] Memory required for data: 3027514752
I0112 16:14:50.824074  8748 layer_factory.hpp:77] Creating layer relu3_1
I0112 16:14:50.824080  8748 net.cpp:100] Creating Layer relu3_1
I0112 16:14:50.824084  8748 net.cpp:434] relu3_1 <- conv3_1
I0112 16:14:50.824090  8748 net.cpp:395] relu3_1 -> conv3_1 (in-place)
I0112 16:14:50.824745  8748 net.cpp:150] Setting up relu3_1
I0112 16:14:50.824755  8748 net.cpp:157] Top shape: 4 256 144 192 (28311552)
I0112 16:14:50.824757  8748 net.cpp:165] Memory required for data: 3140760960
I0112 16:14:50.824760  8748 layer_factory.hpp:77] Creating layer conv3_2
I0112 16:14:50.824767  8748 net.cpp:100] Creating Layer conv3_2
I0112 16:14:50.824769  8748 net.cpp:434] conv3_2 <- conv3_1
I0112 16:14:50.824775  8748 net.cpp:408] conv3_2 -> conv3_2
I0112 16:14:50.827491  8748 net.cpp:150] Setting up conv3_2
I0112 16:14:50.827503  8748 net.cpp:157] Top shape: 4 256 144 192 (28311552)
I0112 16:14:50.827507  8748 net.cpp:165] Memory required for data: 3254007168
I0112 16:14:50.827512  8748 layer_factory.hpp:77] Creating layer relu3_2
I0112 16:14:50.827517  8748 net.cpp:100] Creating Layer relu3_2
I0112 16:14:50.827519  8748 net.cpp:434] relu3_2 <- conv3_2
I0112 16:14:50.827523  8748 net.cpp:395] relu3_2 -> conv3_2 (in-place)
I0112 16:14:50.827946  8748 net.cpp:150] Setting up relu3_2
I0112 16:14:50.827957  8748 net.cpp:157] Top shape: 4 256 144 192 (28311552)
I0112 16:14:50.827960  8748 net.cpp:165] Memory required for data: 3367253376
I0112 16:14:50.827962  8748 layer_factory.hpp:77] Creating layer conv3_3
I0112 16:14:50.827970  8748 net.cpp:100] Creating Layer conv3_3
I0112 16:14:50.827971  8748 net.cpp:434] conv3_3 <- conv3_2
I0112 16:14:50.827976  8748 net.cpp:408] conv3_3 -> conv3_3
I0112 16:14:50.830309  8748 net.cpp:150] Setting up conv3_3
I0112 16:14:50.830330  8748 net.cpp:157] Top shape: 4 256 144 192 (28311552)
I0112 16:14:50.830332  8748 net.cpp:165] Memory required for data: 3480499584
I0112 16:14:50.830340  8748 layer_factory.hpp:77] Creating layer relu3_3
I0112 16:14:50.830348  8748 net.cpp:100] Creating Layer relu3_3
I0112 16:14:50.830353  8748 net.cpp:434] relu3_3 <- conv3_3
I0112 16:14:50.830358  8748 net.cpp:395] relu3_3 -> conv3_3 (in-place)
I0112 16:14:50.830508  8748 net.cpp:150] Setting up relu3_3
I0112 16:14:50.830516  8748 net.cpp:157] Top shape: 4 256 144 192 (28311552)
I0112 16:14:50.830519  8748 net.cpp:165] Memory required for data: 3593745792
I0112 16:14:50.830523  8748 layer_factory.hpp:77] Creating layer pool3
I0112 16:14:50.830529  8748 net.cpp:100] Creating Layer pool3
I0112 16:14:50.830535  8748 net.cpp:434] pool3 <- conv3_3
I0112 16:14:50.830543  8748 net.cpp:408] pool3 -> pool3
I0112 16:14:50.830590  8748 net.cpp:150] Setting up pool3
I0112 16:14:50.830595  8748 net.cpp:157] Top shape: 4 256 72 96 (7077888)
I0112 16:14:50.830597  8748 net.cpp:165] Memory required for data: 3622057344
I0112 16:14:50.830600  8748 layer_factory.hpp:77] Creating layer conv4_1
I0112 16:14:50.830610  8748 net.cpp:100] Creating Layer conv4_1
I0112 16:14:50.830615  8748 net.cpp:434] conv4_1 <- pool3
I0112 16:14:50.830622  8748 net.cpp:408] conv4_1 -> conv4_1
I0112 16:14:50.834743  8748 net.cpp:150] Setting up conv4_1
I0112 16:14:50.834797  8748 net.cpp:157] Top shape: 4 512 72 96 (14155776)
I0112 16:14:50.834810  8748 net.cpp:165] Memory required for data: 3678680448
I0112 16:14:50.834826  8748 layer_factory.hpp:77] Creating layer relu4_1
I0112 16:14:50.834841  8748 net.cpp:100] Creating Layer relu4_1
I0112 16:14:50.834853  8748 net.cpp:434] relu4_1 <- conv4_1
I0112 16:14:50.834872  8748 net.cpp:395] relu4_1 -> conv4_1 (in-place)
I0112 16:14:50.835099  8748 net.cpp:150] Setting up relu4_1
I0112 16:14:50.835121  8748 net.cpp:157] Top shape: 4 512 72 96 (14155776)
I0112 16:14:50.835134  8748 net.cpp:165] Memory required for data: 3735303552
I0112 16:14:50.835144  8748 layer_factory.hpp:77] Creating layer conv4_2
I0112 16:14:50.835163  8748 net.cpp:100] Creating Layer conv4_2
I0112 16:14:50.835178  8748 net.cpp:434] conv4_2 <- conv4_1
I0112 16:14:50.835196  8748 net.cpp:408] conv4_2 -> conv4_2
I0112 16:14:50.840622  8748 net.cpp:150] Setting up conv4_2
I0112 16:14:50.840646  8748 net.cpp:157] Top shape: 4 512 72 96 (14155776)
I0112 16:14:50.840648  8748 net.cpp:165] Memory required for data: 3791926656
I0112 16:14:50.840663  8748 layer_factory.hpp:77] Creating layer relu4_2
I0112 16:14:50.840672  8748 net.cpp:100] Creating Layer relu4_2
I0112 16:14:50.840677  8748 net.cpp:434] relu4_2 <- conv4_2
I0112 16:14:50.840682  8748 net.cpp:395] relu4_2 -> conv4_2 (in-place)
I0112 16:14:50.840821  8748 net.cpp:150] Setting up relu4_2
I0112 16:14:50.840828  8748 net.cpp:157] Top shape: 4 512 72 96 (14155776)
I0112 16:14:50.840831  8748 net.cpp:165] Memory required for data: 3848549760
I0112 16:14:50.840832  8748 layer_factory.hpp:77] Creating layer conv4_3
I0112 16:14:50.840840  8748 net.cpp:100] Creating Layer conv4_3
I0112 16:14:50.840844  8748 net.cpp:434] conv4_3 <- conv4_2
I0112 16:14:50.840848  8748 net.cpp:408] conv4_3 -> conv4_3
I0112 16:14:50.846115  8748 net.cpp:150] Setting up conv4_3
I0112 16:14:50.846140  8748 net.cpp:157] Top shape: 4 512 72 96 (14155776)
I0112 16:14:50.846143  8748 net.cpp:165] Memory required for data: 3905172864
I0112 16:14:50.846153  8748 layer_factory.hpp:77] Creating layer relu4_3
I0112 16:14:50.846163  8748 net.cpp:100] Creating Layer relu4_3
I0112 16:14:50.846170  8748 net.cpp:434] relu4_3 <- conv4_3
I0112 16:14:50.846181  8748 net.cpp:395] relu4_3 -> conv4_3 (in-place)
I0112 16:14:50.846335  8748 net.cpp:150] Setting up relu4_3
I0112 16:14:50.846344  8748 net.cpp:157] Top shape: 4 512 72 96 (14155776)
I0112 16:14:50.846348  8748 net.cpp:165] Memory required for data: 3961795968
I0112 16:14:50.846351  8748 layer_factory.hpp:77] Creating layer conv4_3_relu4_3_0_split
I0112 16:14:50.846361  8748 net.cpp:100] Creating Layer conv4_3_relu4_3_0_split
I0112 16:14:50.846369  8748 net.cpp:434] conv4_3_relu4_3_0_split <- conv4_3
I0112 16:14:50.846377  8748 net.cpp:408] conv4_3_relu4_3_0_split -> conv4_3_relu4_3_0_split_0
I0112 16:14:50.846390  8748 net.cpp:408] conv4_3_relu4_3_0_split -> conv4_3_relu4_3_0_split_1
I0112 16:14:50.846433  8748 net.cpp:150] Setting up conv4_3_relu4_3_0_split
I0112 16:14:50.846441  8748 net.cpp:157] Top shape: 4 512 72 96 (14155776)
I0112 16:14:50.846446  8748 net.cpp:157] Top shape: 4 512 72 96 (14155776)
I0112 16:14:50.846451  8748 net.cpp:165] Memory required for data: 4075042176
I0112 16:14:50.846454  8748 layer_factory.hpp:77] Creating layer loss1_conv1
I0112 16:14:50.846493  8748 net.cpp:100] Creating Layer loss1_conv1
I0112 16:14:50.846499  8748 net.cpp:434] loss1_conv1 <- conv4_3_relu4_3_0_split_0
I0112 16:14:50.846505  8748 net.cpp:408] loss1_conv1 -> loss1_conv1
I0112 16:14:50.867249  8748 net.cpp:150] Setting up loss1_conv1
I0112 16:14:50.867286  8748 net.cpp:157] Top shape: 4 512 72 96 (14155776)
I0112 16:14:50.867290  8748 net.cpp:165] Memory required for data: 4131665280
I0112 16:14:50.867297  8748 layer_factory.hpp:77] Creating layer loss_relu1
I0112 16:14:50.867305  8748 net.cpp:100] Creating Layer loss_relu1
I0112 16:14:50.867310  8748 net.cpp:434] loss_relu1 <- loss1_conv1
I0112 16:14:50.867318  8748 net.cpp:395] loss_relu1 -> loss1_conv1 (in-place)
I0112 16:14:50.867780  8748 net.cpp:150] Setting up loss_relu1
I0112 16:14:50.867794  8748 net.cpp:157] Top shape: 4 512 72 96 (14155776)
I0112 16:14:50.867797  8748 net.cpp:165] Memory required for data: 4188288384
I0112 16:14:50.867801  8748 layer_factory.hpp:77] Creating layer loss1_conv1_loss_relu1_0_split
I0112 16:14:50.867810  8748 net.cpp:100] Creating Layer loss1_conv1_loss_relu1_0_split
I0112 16:14:50.867830  8748 net.cpp:434] loss1_conv1_loss_relu1_0_split <- loss1_conv1
I0112 16:14:50.867841  8748 net.cpp:408] loss1_conv1_loss_relu1_0_split -> loss1_conv1_loss_relu1_0_split_0
I0112 16:14:50.867849  8748 net.cpp:408] loss1_conv1_loss_relu1_0_split -> loss1_conv1_loss_relu1_0_split_1
I0112 16:14:50.867897  8748 net.cpp:150] Setting up loss1_conv1_loss_relu1_0_split
I0112 16:14:50.867904  8748 net.cpp:157] Top shape: 4 512 72 96 (14155776)
I0112 16:14:50.867909  8748 net.cpp:157] Top shape: 4 512 72 96 (14155776)
I0112 16:14:50.867913  8748 net.cpp:165] Memory required for data: 4301534592
I0112 16:14:50.867916  8748 layer_factory.hpp:77] Creating layer LFCN_1_3x5
I0112 16:14:50.867929  8748 net.cpp:100] Creating Layer LFCN_1_3x5
I0112 16:14:50.867935  8748 net.cpp:434] LFCN_1_3x5 <- loss1_conv1_loss_relu1_0_split_0
I0112 16:14:50.867946  8748 net.cpp:408] LFCN_1_3x5 -> LFCN_1_3x5
I0112 16:14:50.869017  8748 net.cpp:150] Setting up LFCN_1_3x5
I0112 16:14:50.869031  8748 net.cpp:157] Top shape: 4 7 72 96 (193536)
I0112 16:14:50.869037  8748 net.cpp:165] Memory required for data: 4302308736
I0112 16:14:50.869045  8748 layer_factory.hpp:77] Creating layer LFCN_1_3x5_LFCN_1_3x5_0_split
I0112 16:14:50.869055  8748 net.cpp:100] Creating Layer LFCN_1_3x5_LFCN_1_3x5_0_split
I0112 16:14:50.869060  8748 net.cpp:434] LFCN_1_3x5_LFCN_1_3x5_0_split <- LFCN_1_3x5
I0112 16:14:50.869069  8748 net.cpp:408] LFCN_1_3x5_LFCN_1_3x5_0_split -> LFCN_1_3x5_LFCN_1_3x5_0_split_0
I0112 16:14:50.869081  8748 net.cpp:408] LFCN_1_3x5_LFCN_1_3x5_0_split -> LFCN_1_3x5_LFCN_1_3x5_0_split_1
I0112 16:14:50.869132  8748 net.cpp:150] Setting up LFCN_1_3x5_LFCN_1_3x5_0_split
I0112 16:14:50.869141  8748 net.cpp:157] Top shape: 4 7 72 96 (193536)
I0112 16:14:50.869148  8748 net.cpp:157] Top shape: 4 7 72 96 (193536)
I0112 16:14:50.869153  8748 net.cpp:165] Memory required for data: 4303857024
I0112 16:14:50.869156  8748 layer_factory.hpp:77] Creating layer detection_loss_1_3x5
I0112 16:14:50.869166  8748 net.cpp:100] Creating Layer detection_loss_1_3x5
I0112 16:14:50.869173  8748 net.cpp:434] detection_loss_1_3x5 <- LFCN_1_3x5_LFCN_1_3x5_0_split_0
I0112 16:14:50.869181  8748 net.cpp:434] detection_loss_1_3x5 <- label_1_3x5_data_1_split_0
I0112 16:14:50.869191  8748 net.cpp:408] detection_loss_1_3x5 -> loss_1_3x5
I0112 16:14:50.869207  8748 layer_factory.hpp:77] Creating layer detection_loss_1_3x5
I0112 16:14:50.870162  8748 net.cpp:150] Setting up detection_loss_1_3x5
I0112 16:14:50.870195  8748 net.cpp:157] Top shape: 1 1 1 2 (2)
I0112 16:14:50.870209  8748 net.cpp:160]     with loss weight 0.9
I0112 16:14:50.870241  8748 net.cpp:165] Memory required for data: 4303857032
I0112 16:14:50.870255  8748 layer_factory.hpp:77] Creating layer detection_accuracy_1_3x5
I0112 16:14:50.870275  8748 net.cpp:100] Creating Layer detection_accuracy_1_3x5
I0112 16:14:50.870288  8748 net.cpp:434] detection_accuracy_1_3x5 <- LFCN_1_3x5_LFCN_1_3x5_0_split_1
I0112 16:14:50.870303  8748 net.cpp:434] detection_accuracy_1_3x5 <- label_1_3x5_data_1_split_1
I0112 16:14:50.870314  8748 net.cpp:408] detection_accuracy_1_3x5 -> accuracy_1_3x5
I0112 16:14:50.870329  8748 net.cpp:408] detection_accuracy_1_3x5 -> boxiou_1_3x5
I0112 16:14:50.870385  8748 net.cpp:150] Setting up detection_accuracy_1_3x5
I0112 16:14:50.870394  8748 net.cpp:157] Top shape: 1 1 1 2 (2)
I0112 16:14:50.870400  8748 net.cpp:157] Top shape: 1 1 1 1 (1)
I0112 16:14:50.870405  8748 net.cpp:165] Memory required for data: 4303857044
I0112 16:14:50.870409  8748 layer_factory.hpp:77] Creating layer LFCN_1_5x7
I0112 16:14:50.870424  8748 net.cpp:100] Creating Layer LFCN_1_5x7
I0112 16:14:50.870429  8748 net.cpp:434] LFCN_1_5x7 <- loss1_conv1_loss_relu1_0_split_1
I0112 16:14:50.870438  8748 net.cpp:408] LFCN_1_5x7 -> LFCN_1_5x7
I0112 16:14:50.873329  8748 net.cpp:150] Setting up LFCN_1_5x7
I0112 16:14:50.873347  8748 net.cpp:157] Top shape: 4 7 72 96 (193536)
I0112 16:14:50.873350  8748 net.cpp:165] Memory required for data: 4304631188
I0112 16:14:50.873356  8748 layer_factory.hpp:77] Creating layer LFCN_1_5x7_LFCN_1_5x7_0_split
I0112 16:14:50.873364  8748 net.cpp:100] Creating Layer LFCN_1_5x7_LFCN_1_5x7_0_split
I0112 16:14:50.873369  8748 net.cpp:434] LFCN_1_5x7_LFCN_1_5x7_0_split <- LFCN_1_5x7
I0112 16:14:50.873374  8748 net.cpp:408] LFCN_1_5x7_LFCN_1_5x7_0_split -> LFCN_1_5x7_LFCN_1_5x7_0_split_0
I0112 16:14:50.873381  8748 net.cpp:408] LFCN_1_5x7_LFCN_1_5x7_0_split -> LFCN_1_5x7_LFCN_1_5x7_0_split_1
I0112 16:14:50.873416  8748 net.cpp:150] Setting up LFCN_1_5x7_LFCN_1_5x7_0_split
I0112 16:14:50.873421  8748 net.cpp:157] Top shape: 4 7 72 96 (193536)
I0112 16:14:50.873425  8748 net.cpp:157] Top shape: 4 7 72 96 (193536)
I0112 16:14:50.873427  8748 net.cpp:165] Memory required for data: 4306179476
I0112 16:14:50.873430  8748 layer_factory.hpp:77] Creating layer detection_loss_1_5x7
I0112 16:14:50.873435  8748 net.cpp:100] Creating Layer detection_loss_1_5x7
I0112 16:14:50.873440  8748 net.cpp:434] detection_loss_1_5x7 <- LFCN_1_5x7_LFCN_1_5x7_0_split_0
I0112 16:14:50.873442  8748 net.cpp:434] detection_loss_1_5x7 <- label_1_5x7_data_2_split_0
I0112 16:14:50.873448  8748 net.cpp:408] detection_loss_1_5x7 -> loss_1_5x7
I0112 16:14:50.873456  8748 layer_factory.hpp:77] Creating layer detection_loss_1_5x7
I0112 16:14:50.873783  8748 net.cpp:150] Setting up detection_loss_1_5x7
I0112 16:14:50.873791  8748 net.cpp:157] Top shape: 1 1 1 2 (2)
I0112 16:14:50.873793  8748 net.cpp:160]     with loss weight 0.9
I0112 16:14:50.873801  8748 net.cpp:165] Memory required for data: 4306179484
I0112 16:14:50.873805  8748 layer_factory.hpp:77] Creating layer detection_accuracy_1_5x7
I0112 16:14:50.873809  8748 net.cpp:100] Creating Layer detection_accuracy_1_5x7
I0112 16:14:50.873821  8748 net.cpp:434] detection_accuracy_1_5x7 <- LFCN_1_5x7_LFCN_1_5x7_0_split_1
I0112 16:14:50.873827  8748 net.cpp:434] detection_accuracy_1_5x7 <- label_1_5x7_data_2_split_1
I0112 16:14:50.873836  8748 net.cpp:408] detection_accuracy_1_5x7 -> accuracy_1_5x7
I0112 16:14:50.873843  8748 net.cpp:408] detection_accuracy_1_5x7 -> boxiou_1_5x7
I0112 16:14:50.873879  8748 net.cpp:150] Setting up detection_accuracy_1_5x7
I0112 16:14:50.873883  8748 net.cpp:157] Top shape: 1 1 1 2 (2)
I0112 16:14:50.873886  8748 net.cpp:157] Top shape: 1 1 1 1 (1)
I0112 16:14:50.873889  8748 net.cpp:165] Memory required for data: 4306179496
I0112 16:14:50.873891  8748 layer_factory.hpp:77] Creating layer pool4
I0112 16:14:50.873896  8748 net.cpp:100] Creating Layer pool4
I0112 16:14:50.873899  8748 net.cpp:434] pool4 <- conv4_3_relu4_3_0_split_1
I0112 16:14:50.873905  8748 net.cpp:408] pool4 -> pool4
I0112 16:14:50.873935  8748 net.cpp:150] Setting up pool4
I0112 16:14:50.873940  8748 net.cpp:157] Top shape: 4 512 36 48 (3538944)
I0112 16:14:50.873942  8748 net.cpp:165] Memory required for data: 4320335272
I0112 16:14:50.873945  8748 layer_factory.hpp:77] Creating layer conv5_1
I0112 16:14:50.873951  8748 net.cpp:100] Creating Layer conv5_1
I0112 16:14:50.873955  8748 net.cpp:434] conv5_1 <- pool4
I0112 16:14:50.873960  8748 net.cpp:408] conv5_1 -> conv5_1
I0112 16:14:50.878927  8748 net.cpp:150] Setting up conv5_1
I0112 16:14:50.878954  8748 net.cpp:157] Top shape: 4 512 36 48 (3538944)
I0112 16:14:50.878957  8748 net.cpp:165] Memory required for data: 4334491048
I0112 16:14:50.878967  8748 layer_factory.hpp:77] Creating layer relu5_1
I0112 16:14:50.878975  8748 net.cpp:100] Creating Layer relu5_1
I0112 16:14:50.878981  8748 net.cpp:434] relu5_1 <- conv5_1
I0112 16:14:50.878988  8748 net.cpp:395] relu5_1 -> conv5_1 (in-place)
I0112 16:14:50.879154  8748 net.cpp:150] Setting up relu5_1
I0112 16:14:50.879161  8748 net.cpp:157] Top shape: 4 512 36 48 (3538944)
I0112 16:14:50.879164  8748 net.cpp:165] Memory required for data: 4348646824
I0112 16:14:50.879166  8748 layer_factory.hpp:77] Creating layer conv5_2
I0112 16:14:50.879175  8748 net.cpp:100] Creating Layer conv5_2
I0112 16:14:50.879179  8748 net.cpp:434] conv5_2 <- conv5_1
I0112 16:14:50.879184  8748 net.cpp:408] conv5_2 -> conv5_2
I0112 16:14:50.883828  8748 net.cpp:150] Setting up conv5_2
I0112 16:14:50.883850  8748 net.cpp:157] Top shape: 4 512 36 48 (3538944)
I0112 16:14:50.883852  8748 net.cpp:165] Memory required for data: 4362802600
I0112 16:14:50.883859  8748 layer_factory.hpp:77] Creating layer relu5_2
I0112 16:14:50.883867  8748 net.cpp:100] Creating Layer relu5_2
I0112 16:14:50.883872  8748 net.cpp:434] relu5_2 <- conv5_2
I0112 16:14:50.883877  8748 net.cpp:395] relu5_2 -> conv5_2 (in-place)
I0112 16:14:50.884032  8748 net.cpp:150] Setting up relu5_2
I0112 16:14:50.884038  8748 net.cpp:157] Top shape: 4 512 36 48 (3538944)
I0112 16:14:50.884040  8748 net.cpp:165] Memory required for data: 4376958376
I0112 16:14:50.884043  8748 layer_factory.hpp:77] Creating layer conv5_3
I0112 16:14:50.884050  8748 net.cpp:100] Creating Layer conv5_3
I0112 16:14:50.884053  8748 net.cpp:434] conv5_3 <- conv5_2
I0112 16:14:50.884059  8748 net.cpp:408] conv5_3 -> conv5_3
I0112 16:14:50.888918  8748 net.cpp:150] Setting up conv5_3
I0112 16:14:50.888943  8748 net.cpp:157] Top shape: 4 512 36 48 (3538944)
I0112 16:14:50.888945  8748 net.cpp:165] Memory required for data: 4391114152
I0112 16:14:50.888954  8748 layer_factory.hpp:77] Creating layer relu5_3
I0112 16:14:50.888962  8748 net.cpp:100] Creating Layer relu5_3
I0112 16:14:50.888967  8748 net.cpp:434] relu5_3 <- conv5_3
I0112 16:14:50.888975  8748 net.cpp:395] relu5_3 -> conv5_3 (in-place)
I0112 16:14:50.889122  8748 net.cpp:150] Setting up relu5_3
I0112 16:14:50.889130  8748 net.cpp:157] Top shape: 4 512 36 48 (3538944)
I0112 16:14:50.889132  8748 net.cpp:165] Memory required for data: 4405269928
I0112 16:14:50.889134  8748 layer_factory.hpp:77] Creating layer conv5_3_relu5_3_0_split
I0112 16:14:50.889139  8748 net.cpp:100] Creating Layer conv5_3_relu5_3_0_split
I0112 16:14:50.889143  8748 net.cpp:434] conv5_3_relu5_3_0_split <- conv5_3
I0112 16:14:50.889148  8748 net.cpp:408] conv5_3_relu5_3_0_split -> conv5_3_relu5_3_0_split_0
I0112 16:14:50.889155  8748 net.cpp:408] conv5_3_relu5_3_0_split -> conv5_3_relu5_3_0_split_1
I0112 16:14:50.889163  8748 net.cpp:408] conv5_3_relu5_3_0_split -> conv5_3_relu5_3_0_split_2
I0112 16:14:50.889207  8748 net.cpp:150] Setting up conv5_3_relu5_3_0_split
I0112 16:14:50.889212  8748 net.cpp:157] Top shape: 4 512 36 48 (3538944)
I0112 16:14:50.889215  8748 net.cpp:157] Top shape: 4 512 36 48 (3538944)
I0112 16:14:50.889219  8748 net.cpp:157] Top shape: 4 512 36 48 (3538944)
I0112 16:14:50.889221  8748 net.cpp:165] Memory required for data: 4447737256
I0112 16:14:50.889223  8748 layer_factory.hpp:77] Creating layer LFCN_2_3x5
I0112 16:14:50.889231  8748 net.cpp:100] Creating Layer LFCN_2_3x5
I0112 16:14:50.889235  8748 net.cpp:434] LFCN_2_3x5 <- conv5_3_relu5_3_0_split_0
I0112 16:14:50.889242  8748 net.cpp:408] LFCN_2_3x5 -> LFCN_2_3x5
I0112 16:14:50.890611  8748 net.cpp:150] Setting up LFCN_2_3x5
I0112 16:14:50.890622  8748 net.cpp:157] Top shape: 4 7 36 48 (48384)
I0112 16:14:50.890625  8748 net.cpp:165] Memory required for data: 4447930792
I0112 16:14:50.890636  8748 layer_factory.hpp:77] Creating layer LFCN_2_3x5_LFCN_2_3x5_0_split
I0112 16:14:50.890643  8748 net.cpp:100] Creating Layer LFCN_2_3x5_LFCN_2_3x5_0_split
I0112 16:14:50.890646  8748 net.cpp:434] LFCN_2_3x5_LFCN_2_3x5_0_split <- LFCN_2_3x5
I0112 16:14:50.890652  8748 net.cpp:408] LFCN_2_3x5_LFCN_2_3x5_0_split -> LFCN_2_3x5_LFCN_2_3x5_0_split_0
I0112 16:14:50.890660  8748 net.cpp:408] LFCN_2_3x5_LFCN_2_3x5_0_split -> LFCN_2_3x5_LFCN_2_3x5_0_split_1
I0112 16:14:50.890693  8748 net.cpp:150] Setting up LFCN_2_3x5_LFCN_2_3x5_0_split
I0112 16:14:50.890698  8748 net.cpp:157] Top shape: 4 7 36 48 (48384)
I0112 16:14:50.890702  8748 net.cpp:157] Top shape: 4 7 36 48 (48384)
I0112 16:14:50.890703  8748 net.cpp:165] Memory required for data: 4448317864
I0112 16:14:50.890705  8748 layer_factory.hpp:77] Creating layer detection_loss_2_3x5
I0112 16:14:50.890712  8748 net.cpp:100] Creating Layer detection_loss_2_3x5
I0112 16:14:50.890715  8748 net.cpp:434] detection_loss_2_3x5 <- LFCN_2_3x5_LFCN_2_3x5_0_split_0
I0112 16:14:50.890719  8748 net.cpp:434] detection_loss_2_3x5 <- label_2_3x5_data_3_split_0
I0112 16:14:50.890724  8748 net.cpp:408] detection_loss_2_3x5 -> loss_2_3x5
I0112 16:14:50.890733  8748 layer_factory.hpp:77] Creating layer detection_loss_2_3x5
I0112 16:14:50.891336  8748 net.cpp:150] Setting up detection_loss_2_3x5
I0112 16:14:50.891346  8748 net.cpp:157] Top shape: 1 1 1 2 (2)
I0112 16:14:50.891348  8748 net.cpp:160]     with loss weight 1
I0112 16:14:50.891358  8748 net.cpp:165] Memory required for data: 4448317872
I0112 16:14:50.891361  8748 layer_factory.hpp:77] Creating layer detection_accuracy_2_3x5
I0112 16:14:50.891369  8748 net.cpp:100] Creating Layer detection_accuracy_2_3x5
I0112 16:14:50.891372  8748 net.cpp:434] detection_accuracy_2_3x5 <- LFCN_2_3x5_LFCN_2_3x5_0_split_1
I0112 16:14:50.891377  8748 net.cpp:434] detection_accuracy_2_3x5 <- label_2_3x5_data_3_split_1
I0112 16:14:50.891381  8748 net.cpp:408] detection_accuracy_2_3x5 -> accuracy_2_3x5
I0112 16:14:50.891387  8748 net.cpp:408] detection_accuracy_2_3x5 -> boxiou_2_3x5
I0112 16:14:50.891433  8748 net.cpp:150] Setting up detection_accuracy_2_3x5
I0112 16:14:50.891438  8748 net.cpp:157] Top shape: 1 1 1 2 (2)
I0112 16:14:50.891441  8748 net.cpp:157] Top shape: 1 1 1 1 (1)
I0112 16:14:50.891443  8748 net.cpp:165] Memory required for data: 4448317884
I0112 16:14:50.891445  8748 layer_factory.hpp:77] Creating layer LFCN_2_5x7
I0112 16:14:50.891453  8748 net.cpp:100] Creating Layer LFCN_2_5x7
I0112 16:14:50.891456  8748 net.cpp:434] LFCN_2_5x7 <- conv5_3_relu5_3_0_split_1
I0112 16:14:50.891463  8748 net.cpp:408] LFCN_2_5x7 -> LFCN_2_5x7
I0112 16:14:50.893853  8748 net.cpp:150] Setting up LFCN_2_5x7
I0112 16:14:50.893873  8748 net.cpp:157] Top shape: 4 7 36 48 (48384)
I0112 16:14:50.893877  8748 net.cpp:165] Memory required for data: 4448511420
I0112 16:14:50.893883  8748 layer_factory.hpp:77] Creating layer LFCN_2_5x7_LFCN_2_5x7_0_split
I0112 16:14:50.893890  8748 net.cpp:100] Creating Layer LFCN_2_5x7_LFCN_2_5x7_0_split
I0112 16:14:50.893894  8748 net.cpp:434] LFCN_2_5x7_LFCN_2_5x7_0_split <- LFCN_2_5x7
I0112 16:14:50.893903  8748 net.cpp:408] LFCN_2_5x7_LFCN_2_5x7_0_split -> LFCN_2_5x7_LFCN_2_5x7_0_split_0
I0112 16:14:50.893909  8748 net.cpp:408] LFCN_2_5x7_LFCN_2_5x7_0_split -> LFCN_2_5x7_LFCN_2_5x7_0_split_1
I0112 16:14:50.893945  8748 net.cpp:150] Setting up LFCN_2_5x7_LFCN_2_5x7_0_split
I0112 16:14:50.893950  8748 net.cpp:157] Top shape: 4 7 36 48 (48384)
I0112 16:14:50.893954  8748 net.cpp:157] Top shape: 4 7 36 48 (48384)
I0112 16:14:50.893956  8748 net.cpp:165] Memory required for data: 4448898492
I0112 16:14:50.893959  8748 layer_factory.hpp:77] Creating layer detection_loss_2_5x7
I0112 16:14:50.893965  8748 net.cpp:100] Creating Layer detection_loss_2_5x7
I0112 16:14:50.893968  8748 net.cpp:434] detection_loss_2_5x7 <- LFCN_2_5x7_LFCN_2_5x7_0_split_0
I0112 16:14:50.893971  8748 net.cpp:434] detection_loss_2_5x7 <- label_2_5x7_data_4_split_0
I0112 16:14:50.893977  8748 net.cpp:408] detection_loss_2_5x7 -> loss_2_5x7
I0112 16:14:50.893985  8748 layer_factory.hpp:77] Creating layer detection_loss_2_5x7
I0112 16:14:50.894635  8748 net.cpp:150] Setting up detection_loss_2_5x7
I0112 16:14:50.894646  8748 net.cpp:157] Top shape: 1 1 1 2 (2)
I0112 16:14:50.894649  8748 net.cpp:160]     with loss weight 1
I0112 16:14:50.894657  8748 net.cpp:165] Memory required for data: 4448898500
I0112 16:14:50.894660  8748 layer_factory.hpp:77] Creating layer detection_accuracy_2_5x7
I0112 16:14:50.894665  8748 net.cpp:100] Creating Layer detection_accuracy_2_5x7
I0112 16:14:50.894670  8748 net.cpp:434] detection_accuracy_2_5x7 <- LFCN_2_5x7_LFCN_2_5x7_0_split_1
I0112 16:14:50.894673  8748 net.cpp:434] detection_accuracy_2_5x7 <- label_2_5x7_data_4_split_1
I0112 16:14:50.894680  8748 net.cpp:408] detection_accuracy_2_5x7 -> accuracy_2_5x7
I0112 16:14:50.894686  8748 net.cpp:408] detection_accuracy_2_5x7 -> boxiou_2_5x7
I0112 16:14:50.894722  8748 net.cpp:150] Setting up detection_accuracy_2_5x7
I0112 16:14:50.894728  8748 net.cpp:157] Top shape: 1 1 1 2 (2)
I0112 16:14:50.894731  8748 net.cpp:157] Top shape: 1 1 1 1 (1)
I0112 16:14:50.894733  8748 net.cpp:165] Memory required for data: 4448898512
I0112 16:14:50.894735  8748 layer_factory.hpp:77] Creating layer pool5
I0112 16:14:50.894742  8748 net.cpp:100] Creating Layer pool5
I0112 16:14:50.894745  8748 net.cpp:434] pool5 <- conv5_3_relu5_3_0_split_2
I0112 16:14:50.894749  8748 net.cpp:408] pool5 -> pool5
I0112 16:14:50.894781  8748 net.cpp:150] Setting up pool5
I0112 16:14:50.894788  8748 net.cpp:157] Top shape: 4 512 18 24 (884736)
I0112 16:14:50.894790  8748 net.cpp:165] Memory required for data: 4452437456
I0112 16:14:50.894793  8748 layer_factory.hpp:77] Creating layer conv6_1
I0112 16:14:50.894800  8748 net.cpp:100] Creating Layer conv6_1
I0112 16:14:50.894804  8748 net.cpp:434] conv6_1 <- pool5
I0112 16:14:50.894809  8748 net.cpp:408] conv6_1 -> conv6_1
I0112 16:14:50.915464  8748 net.cpp:150] Setting up conv6_1
I0112 16:14:50.915489  8748 net.cpp:157] Top shape: 4 512 18 24 (884736)
I0112 16:14:50.915491  8748 net.cpp:165] Memory required for data: 4455976400
I0112 16:14:50.915501  8748 layer_factory.hpp:77] Creating layer relu6_1
I0112 16:14:50.915509  8748 net.cpp:100] Creating Layer relu6_1
I0112 16:14:50.915514  8748 net.cpp:434] relu6_1 <- conv6_1
I0112 16:14:50.915521  8748 net.cpp:395] relu6_1 -> conv6_1 (in-place)
I0112 16:14:50.915668  8748 net.cpp:150] Setting up relu6_1
I0112 16:14:50.915675  8748 net.cpp:157] Top shape: 4 512 18 24 (884736)
I0112 16:14:50.915679  8748 net.cpp:165] Memory required for data: 4459515344
I0112 16:14:50.915683  8748 layer_factory.hpp:77] Creating layer conv6_1_relu6_1_0_split
I0112 16:14:50.915689  8748 net.cpp:100] Creating Layer conv6_1_relu6_1_0_split
I0112 16:14:50.915693  8748 net.cpp:434] conv6_1_relu6_1_0_split <- conv6_1
I0112 16:14:50.915699  8748 net.cpp:408] conv6_1_relu6_1_0_split -> conv6_1_relu6_1_0_split_0
I0112 16:14:50.915706  8748 net.cpp:408] conv6_1_relu6_1_0_split -> conv6_1_relu6_1_0_split_1
I0112 16:14:50.915714  8748 net.cpp:408] conv6_1_relu6_1_0_split -> conv6_1_relu6_1_0_split_2
I0112 16:14:50.915761  8748 net.cpp:150] Setting up conv6_1_relu6_1_0_split
I0112 16:14:50.915766  8748 net.cpp:157] Top shape: 4 512 18 24 (884736)
I0112 16:14:50.915771  8748 net.cpp:157] Top shape: 4 512 18 24 (884736)
I0112 16:14:50.915774  8748 net.cpp:157] Top shape: 4 512 18 24 (884736)
I0112 16:14:50.915776  8748 net.cpp:165] Memory required for data: 4470132176
I0112 16:14:50.915778  8748 layer_factory.hpp:77] Creating layer LFCN_3_3x5
I0112 16:14:50.915788  8748 net.cpp:100] Creating Layer LFCN_3_3x5
I0112 16:14:50.915793  8748 net.cpp:434] LFCN_3_3x5 <- conv6_1_relu6_1_0_split_0
I0112 16:14:50.915798  8748 net.cpp:408] LFCN_3_3x5 -> LFCN_3_3x5
I0112 16:14:50.918036  8748 net.cpp:150] Setting up LFCN_3_3x5
I0112 16:14:50.918051  8748 net.cpp:157] Top shape: 4 7 18 24 (12096)
I0112 16:14:50.918053  8748 net.cpp:165] Memory required for data: 4470180560
I0112 16:14:50.918061  8748 layer_factory.hpp:77] Creating layer LFCN_3_3x5_LFCN_3_3x5_0_split
I0112 16:14:50.918081  8748 net.cpp:100] Creating Layer LFCN_3_3x5_LFCN_3_3x5_0_split
I0112 16:14:50.918087  8748 net.cpp:434] LFCN_3_3x5_LFCN_3_3x5_0_split <- LFCN_3_3x5
I0112 16:14:50.918093  8748 net.cpp:408] LFCN_3_3x5_LFCN_3_3x5_0_split -> LFCN_3_3x5_LFCN_3_3x5_0_split_0
I0112 16:14:50.918102  8748 net.cpp:408] LFCN_3_3x5_LFCN_3_3x5_0_split -> LFCN_3_3x5_LFCN_3_3x5_0_split_1
I0112 16:14:50.918138  8748 net.cpp:150] Setting up LFCN_3_3x5_LFCN_3_3x5_0_split
I0112 16:14:50.918143  8748 net.cpp:157] Top shape: 4 7 18 24 (12096)
I0112 16:14:50.918148  8748 net.cpp:157] Top shape: 4 7 18 24 (12096)
I0112 16:14:50.918153  8748 net.cpp:165] Memory required for data: 4470277328
I0112 16:14:50.918154  8748 layer_factory.hpp:77] Creating layer detection_loss_3_3x5
I0112 16:14:50.918164  8748 net.cpp:100] Creating Layer detection_loss_3_3x5
I0112 16:14:50.918167  8748 net.cpp:434] detection_loss_3_3x5 <- LFCN_3_3x5_LFCN_3_3x5_0_split_0
I0112 16:14:50.918171  8748 net.cpp:434] detection_loss_3_3x5 <- label_3_3x5_data_5_split_0
I0112 16:14:50.918179  8748 net.cpp:408] detection_loss_3_3x5 -> loss_3_3x5
I0112 16:14:50.918190  8748 layer_factory.hpp:77] Creating layer detection_loss_3_3x5
I0112 16:14:50.918475  8748 net.cpp:150] Setting up detection_loss_3_3x5
I0112 16:14:50.918483  8748 net.cpp:157] Top shape: 1 1 1 2 (2)
I0112 16:14:50.918485  8748 net.cpp:160]     with loss weight 1
I0112 16:14:50.918496  8748 net.cpp:165] Memory required for data: 4470277336
I0112 16:14:50.918499  8748 layer_factory.hpp:77] Creating layer detection_accuracy_3_3x5
I0112 16:14:50.918506  8748 net.cpp:100] Creating Layer detection_accuracy_3_3x5
I0112 16:14:50.918509  8748 net.cpp:434] detection_accuracy_3_3x5 <- LFCN_3_3x5_LFCN_3_3x5_0_split_1
I0112 16:14:50.918514  8748 net.cpp:434] detection_accuracy_3_3x5 <- label_3_3x5_data_5_split_1
I0112 16:14:50.918521  8748 net.cpp:408] detection_accuracy_3_3x5 -> accuracy_3_3x5
I0112 16:14:50.918529  8748 net.cpp:408] detection_accuracy_3_3x5 -> boxiou_3_3x5
I0112 16:14:50.918566  8748 net.cpp:150] Setting up detection_accuracy_3_3x5
I0112 16:14:50.918571  8748 net.cpp:157] Top shape: 1 1 1 2 (2)
I0112 16:14:50.918576  8748 net.cpp:157] Top shape: 1 1 1 1 (1)
I0112 16:14:50.918577  8748 net.cpp:165] Memory required for data: 4470277348
I0112 16:14:50.918579  8748 layer_factory.hpp:77] Creating layer LFCN_3_5x7
I0112 16:14:50.918589  8748 net.cpp:100] Creating Layer LFCN_3_5x7
I0112 16:14:50.918593  8748 net.cpp:434] LFCN_3_5x7 <- conv6_1_relu6_1_0_split_1
I0112 16:14:50.918597  8748 net.cpp:408] LFCN_3_5x7 -> LFCN_3_5x7
I0112 16:14:50.920465  8748 net.cpp:150] Setting up LFCN_3_5x7
I0112 16:14:50.920477  8748 net.cpp:157] Top shape: 4 7 18 24 (12096)
I0112 16:14:50.920481  8748 net.cpp:165] Memory required for data: 4470325732
I0112 16:14:50.920487  8748 layer_factory.hpp:77] Creating layer LFCN_3_5x7_LFCN_3_5x7_0_split
I0112 16:14:50.920493  8748 net.cpp:100] Creating Layer LFCN_3_5x7_LFCN_3_5x7_0_split
I0112 16:14:50.920497  8748 net.cpp:434] LFCN_3_5x7_LFCN_3_5x7_0_split <- LFCN_3_5x7
I0112 16:14:50.920505  8748 net.cpp:408] LFCN_3_5x7_LFCN_3_5x7_0_split -> LFCN_3_5x7_LFCN_3_5x7_0_split_0
I0112 16:14:50.920511  8748 net.cpp:408] LFCN_3_5x7_LFCN_3_5x7_0_split -> LFCN_3_5x7_LFCN_3_5x7_0_split_1
I0112 16:14:50.920548  8748 net.cpp:150] Setting up LFCN_3_5x7_LFCN_3_5x7_0_split
I0112 16:14:50.920554  8748 net.cpp:157] Top shape: 4 7 18 24 (12096)
I0112 16:14:50.920558  8748 net.cpp:157] Top shape: 4 7 18 24 (12096)
I0112 16:14:50.920562  8748 net.cpp:165] Memory required for data: 4470422500
I0112 16:14:50.920565  8748 layer_factory.hpp:77] Creating layer detection_loss_3_5x7
I0112 16:14:50.920572  8748 net.cpp:100] Creating Layer detection_loss_3_5x7
I0112 16:14:50.920578  8748 net.cpp:434] detection_loss_3_5x7 <- LFCN_3_5x7_LFCN_3_5x7_0_split_0
I0112 16:14:50.920581  8748 net.cpp:434] detection_loss_3_5x7 <- label_3_5x7_data_6_split_0
I0112 16:14:50.920588  8748 net.cpp:408] detection_loss_3_5x7 -> loss_3_5x7
I0112 16:14:50.920595  8748 layer_factory.hpp:77] Creating layer detection_loss_3_5x7
I0112 16:14:50.920886  8748 net.cpp:150] Setting up detection_loss_3_5x7
I0112 16:14:50.920892  8748 net.cpp:157] Top shape: 1 1 1 2 (2)
I0112 16:14:50.920895  8748 net.cpp:160]     with loss weight 1
I0112 16:14:50.920902  8748 net.cpp:165] Memory required for data: 4470422508
I0112 16:14:50.920904  8748 layer_factory.hpp:77] Creating layer detection_accuracy_3_5x7
I0112 16:14:50.920912  8748 net.cpp:100] Creating Layer detection_accuracy_3_5x7
I0112 16:14:50.920917  8748 net.cpp:434] detection_accuracy_3_5x7 <- LFCN_3_5x7_LFCN_3_5x7_0_split_1
I0112 16:14:50.920920  8748 net.cpp:434] detection_accuracy_3_5x7 <- label_3_5x7_data_6_split_1
I0112 16:14:50.920928  8748 net.cpp:408] detection_accuracy_3_5x7 -> accuracy_3_5x7
I0112 16:14:50.920934  8748 net.cpp:408] detection_accuracy_3_5x7 -> boxiou_3_5x7
I0112 16:14:50.920971  8748 net.cpp:150] Setting up detection_accuracy_3_5x7
I0112 16:14:50.920976  8748 net.cpp:157] Top shape: 1 1 1 2 (2)
I0112 16:14:50.920980  8748 net.cpp:157] Top shape: 1 1 1 1 (1)
I0112 16:14:50.920982  8748 net.cpp:165] Memory required for data: 4470422520
I0112 16:14:50.920987  8748 layer_factory.hpp:77] Creating layer pool6
I0112 16:14:50.920992  8748 net.cpp:100] Creating Layer pool6
I0112 16:14:50.920997  8748 net.cpp:434] pool6 <- conv6_1_relu6_1_0_split_2
I0112 16:14:50.921002  8748 net.cpp:408] pool6 -> pool6
I0112 16:14:50.921036  8748 net.cpp:150] Setting up pool6
I0112 16:14:50.921041  8748 net.cpp:157] Top shape: 4 512 9 12 (221184)
I0112 16:14:50.921046  8748 net.cpp:165] Memory required for data: 4471307256
I0112 16:14:50.921047  8748 layer_factory.hpp:77] Creating layer LFCN_4_3x5
I0112 16:14:50.921056  8748 net.cpp:100] Creating Layer LFCN_4_3x5
I0112 16:14:50.921059  8748 net.cpp:434] LFCN_4_3x5 <- pool6
I0112 16:14:50.921064  8748 net.cpp:408] LFCN_4_3x5 -> LFCN_4_3x5
I0112 16:14:50.922410  8748 net.cpp:150] Setting up LFCN_4_3x5
I0112 16:14:50.922420  8748 net.cpp:157] Top shape: 4 7 9 12 (3024)
I0112 16:14:50.922423  8748 net.cpp:165] Memory required for data: 4471319352
I0112 16:14:50.922428  8748 layer_factory.hpp:77] Creating layer LFCN_4_3x5_LFCN_4_3x5_0_split
I0112 16:14:50.922435  8748 net.cpp:100] Creating Layer LFCN_4_3x5_LFCN_4_3x5_0_split
I0112 16:14:50.922437  8748 net.cpp:434] LFCN_4_3x5_LFCN_4_3x5_0_split <- LFCN_4_3x5
I0112 16:14:50.922442  8748 net.cpp:408] LFCN_4_3x5_LFCN_4_3x5_0_split -> LFCN_4_3x5_LFCN_4_3x5_0_split_0
I0112 16:14:50.922449  8748 net.cpp:408] LFCN_4_3x5_LFCN_4_3x5_0_split -> LFCN_4_3x5_LFCN_4_3x5_0_split_1
I0112 16:14:50.922487  8748 net.cpp:150] Setting up LFCN_4_3x5_LFCN_4_3x5_0_split
I0112 16:14:50.922492  8748 net.cpp:157] Top shape: 4 7 9 12 (3024)
I0112 16:14:50.922494  8748 net.cpp:157] Top shape: 4 7 9 12 (3024)
I0112 16:14:50.922497  8748 net.cpp:165] Memory required for data: 4471343544
I0112 16:14:50.922499  8748 layer_factory.hpp:77] Creating layer detection_loss_4_3x5
I0112 16:14:50.922504  8748 net.cpp:100] Creating Layer detection_loss_4_3x5
I0112 16:14:50.922507  8748 net.cpp:434] detection_loss_4_3x5 <- LFCN_4_3x5_LFCN_4_3x5_0_split_0
I0112 16:14:50.922510  8748 net.cpp:434] detection_loss_4_3x5 <- label_4_3x5_data_7_split_0
I0112 16:14:50.922516  8748 net.cpp:408] detection_loss_4_3x5 -> loss_4_3x5
I0112 16:14:50.922521  8748 layer_factory.hpp:77] Creating layer detection_loss_4_3x5
I0112 16:14:50.922819  8748 net.cpp:150] Setting up detection_loss_4_3x5
I0112 16:14:50.922827  8748 net.cpp:157] Top shape: 1 1 1 2 (2)
I0112 16:14:50.922829  8748 net.cpp:160]     with loss weight 1
I0112 16:14:50.922834  8748 net.cpp:165] Memory required for data: 4471343552
I0112 16:14:50.922837  8748 layer_factory.hpp:77] Creating layer detection_accuracy_4_3x5
I0112 16:14:50.922842  8748 net.cpp:100] Creating Layer detection_accuracy_4_3x5
I0112 16:14:50.922845  8748 net.cpp:434] detection_accuracy_4_3x5 <- LFCN_4_3x5_LFCN_4_3x5_0_split_1
I0112 16:14:50.922849  8748 net.cpp:434] detection_accuracy_4_3x5 <- label_4_3x5_data_7_split_1
I0112 16:14:50.922855  8748 net.cpp:408] detection_accuracy_4_3x5 -> accuracy_4_3x5
I0112 16:14:50.922864  8748 net.cpp:408] detection_accuracy_4_3x5 -> boxiou_4_3x5
I0112 16:14:50.922899  8748 net.cpp:150] Setting up detection_accuracy_4_3x5
I0112 16:14:50.922905  8748 net.cpp:157] Top shape: 1 1 1 2 (2)
I0112 16:14:50.922909  8748 net.cpp:157] Top shape: 1 1 1 1 (1)
I0112 16:14:50.922911  8748 net.cpp:165] Memory required for data: 4471343564
I0112 16:14:50.922914  8748 net.cpp:228] detection_accuracy_4_3x5 does not need backward computation.
I0112 16:14:50.922919  8748 net.cpp:226] detection_loss_4_3x5 needs backward computation.
I0112 16:14:50.922922  8748 net.cpp:226] LFCN_4_3x5_LFCN_4_3x5_0_split needs backward computation.
I0112 16:14:50.922926  8748 net.cpp:226] LFCN_4_3x5 needs backward computation.
…
I0112 16:14:50.937052  8748 image_gt_data_layer.cpp:235] output label size 1 : 2,6,72,96
I0112 16:14:50.937095  8748 image_gt_data_layer.cpp:235] output label size 2 : 2,6,36,48
I0112 16:14:50.937137  8748 image_gt_data_layer.cpp:235] output label size 3 : 2,6,36,48
I0112 16:14:50.937180  8748 image_gt_data_layer.cpp:235] output label size 4 : 2,6,18,24
I0112 16:14:50.937222  8748 image_gt_data_layer.cpp:235] output label size 5 : 2,6,18,24
I0112 16:14:50.937263  8748 image_gt_data_layer.cpp:235] output label size 6 : 2,6,9,12
I0112 16:14:50.953032  8748 net.cpp:150] Setting up data
I0112 16:14:50.953055  8748 net.cpp:157] Top shape: 2 3 576 768 (2654208)
I0112 16:14:50.953059  8748 net.cpp:157] Top shape: 2 6 72 96 (82944)
I0112 16:14:50.953063  8748 net.cpp:157] Top shape: 2 6 72 96 (82944)
I0112 16:14:50.953064  8748 net.cpp:157] Top shape: 2 6 36 48 (20736)
I0112 16:14:50.953068  8748 net.cpp:157] Top shape: 2 6 36 48 (20736)
I0112 16:14:50.953070  8748 net.cpp:157] Top shape: 2 6 18 24 (5184)
I0112 16:14:50.953073  8748 net.cpp:157] Top shape: 2 6 18 24 (5184)
I0112 16:14:50.953076  8748 net.cpp:157] Top shape: 2 6 9 12 (1296)
I0112 16:14:50.953078  8748 net.cpp:165] Memory required for data: 11492928
I0112 16:14:50.953083  8748 layer_factory.hpp:77] Creating layer label_1_3x5_data_1_split
I0112 16:14:50.953096  8748 net.cpp:100] Creating Layer label_1_3x5_data_1_split
I0112 16:14:50.953099  8748 net.cpp:434] label_1_3x5_data_1_split <- label_1_3x5
I0112 16:14:50.953106  8748 net.cpp:408] label_1_3x5_data_1_split -> label_1_3x5_data_1_split_0
I0112 16:14:50.953115  8748 net.cpp:408] label_1_3x5_data_1_split -> label_1_3x5_data_1_split_1
I0112 16:14:50.953179  8748 net.cpp:150] Setting up label_1_3x5_data_1_split
I0112 16:14:50.953184  8748 net.cpp:157] Top shape: 2 6 72 96 (82944)
I0112 16:14:50.953186  8748 net.cpp:157] Top shape: 2 6 72 96 (82944)
I0112 16:14:50.953188  8748 net.cpp:165] Memory required for data: 12156480
I0112 16:14:50.953191  8748 layer_factory.hpp:77] Creating layer label_1_5x7_data_2_split
I0112 16:14:50.953196  8748 net.cpp:100] Creating Layer label_1_5x7_data_2_split
I0112 16:14:50.953197  8748 net.cpp:434] label_1_5x7_data_2_split <- label_1_5x7
I0112 16:14:50.953202  8748 net.cpp:408] label_1_5x7_data_2_split -> label_1_5x7_data_2_split_0
I0112 16:14:50.953207  8748 net.cpp:408] label_1_5x7_data_2_split -> label_1_5x7_data_2_split_1
I0112 16:14:50.953269  8748 net.cpp:150] Setting up label_1_5x7_data_2_split
I0112 16:14:50.953274  8748 net.cpp:157] Top shape: 2 6 72 96 (82944)
I0112 16:14:50.953275  8748 net.cpp:157] Top shape: 2 6 72 96 (82944)
I0112 16:14:50.953277  8748 net.cpp:165] Memory required for data: 12820032
I0112 16:14:50.953279  8748 layer_factory.hpp:77] Creating layer label_2_3x5_data_3_split
I0112 16:14:50.953284  8748 net.cpp:100] Creating Layer label_2_3x5_data_3_split
I0112 16:14:50.953286  8748 net.cpp:434] label_2_3x5_data_3_split <- label_2_3x5
I0112 16:14:50.953290  8748 net.cpp:408] label_2_3x5_data_3_split -> label_2_3x5_data_3_split_0
I0112 16:14:50.953295  8748 net.cpp:408] label_2_3x5_data_3_split -> label_2_3x5_data_3_split_1
I0112 16:14:50.953325  8748 net.cpp:150] Setting up label_2_3x5_data_3_split
I0112 16:14:50.953328  8748 net.cpp:157] Top shape: 2 6 36 48 (20736)
I0112 16:14:50.953331  8748 net.cpp:157] Top shape: 2 6 36 48 (20736)
I0112 16:14:50.953333  8748 net.cpp:165] Memory required for data: 12985920
I0112 16:14:50.953336  8748 layer_factory.hpp:77] Creating layer label_2_5x7_data_4_split
I0112 16:14:50.953341  8748 net.cpp:100] Creating Layer label_2_5x7_data_4_split
I0112 16:14:50.953343  8748 net.cpp:434] label_2_5x7_data_4_split <- label_2_5x7
I0112 16:14:50.953347  8748 net.cpp:408] label_2_5x7_data_4_split -> label_2_5x7_data_4_split_0
I0112 16:14:50.953351  8748 net.cpp:408] label_2_5x7_data_4_split -> label_2_5x7_data_4_split_1
I0112 16:14:50.953379  8748 net.cpp:150] Setting up label_2_5x7_data_4_split
I0112 16:14:50.953382  8748 net.cpp:157] Top shape: 2 6 36 48 (20736)
I0112 16:14:50.953385  8748 net.cpp:157] Top shape: 2 6 36 48 (20736)
I0112 16:14:50.953387  8748 net.cpp:165] Memory required for data: 13151808
I0112 16:14:50.953389  8748 layer_factory.hpp:77] Creating layer label_3_3x5_data_5_split
I0112 16:14:50.953392  8748 net.cpp:100] Creating Layer label_3_3x5_data_5_split
I0112 16:14:50.953394  8748 net.cpp:434] label_3_3x5_data_5_split <- label_3_3x5
I0112 16:14:50.953397  8748 net.cpp:408] label_3_3x5_data_5_split -> label_3_3x5_data_5_split_0
I0112 16:14:50.953405  8748 net.cpp:408] label_3_3x5_data_5_split -> label_3_3x5_data_5_split_1
I0112 16:14:50.953433  8748 net.cpp:150] Setting up label_3_3x5_data_5_split
I0112 16:14:50.953435  8748 net.cpp:157] Top shape: 2 6 18 24 (5184)
I0112 16:14:50.953438  8748 net.cpp:157] Top shape: 2 6 18 24 (5184)
I0112 16:14:50.953440  8748 net.cpp:165] Memory required for data: 13193280
I0112 16:14:50.953443  8748 layer_factory.hpp:77] Creating layer label_3_5x7_data_6_split
I0112 16:14:50.953446  8748 net.cpp:100] Creating Layer label_3_5x7_data_6_split
I0112 16:14:50.953449  8748 net.cpp:434] label_3_5x7_data_6_split <- label_3_5x7
I0112 16:14:50.953452  8748 net.cpp:408] label_3_5x7_data_6_split -> label_3_5x7_data_6_split_0
I0112 16:14:50.953456  8748 net.cpp:408] label_3_5x7_data_6_split -> label_3_5x7_data_6_split_1
I0112 16:14:50.953483  8748 net.cpp:150] Setting up label_3_5x7_data_6_split
I0112 16:14:50.953487  8748 net.cpp:157] Top shape: 2 6 18 24 (5184)
I0112 16:14:50.953490  8748 net.cpp:157] Top shape: 2 6 18 24 (5184)
I0112 16:14:50.953491  8748 net.cpp:165] Memory required for data: 13234752
I0112 16:14:50.953493  8748 layer_factory.hpp:77] Creating layer label_4_3x5_data_7_split
I0112 16:14:50.953496  8748 net.cpp:100] Creating Layer label_4_3x5_data_7_split
I0112 16:14:50.953498  8748 net.cpp:434] label_4_3x5_data_7_split <- label_4_3x5
I0112 16:14:50.953503  8748 net.cpp:408] label_4_3x5_data_7_split -> label_4_3x5_data_7_split_0
I0112 16:14:50.953507  8748 net.cpp:408] label_4_3x5_data_7_split -> label_4_3x5_data_7_split_1
I0112 16:14:50.953533  8748 net.cpp:150] Setting up label_4_3x5_data_7_split
I0112 16:14:50.953536  8748 net.cpp:157] Top shape: 2 6 9 12 (1296)
I0112 16:14:50.953539  8748 net.cpp:157] Top shape: 2 6 9 12 (1296)
I0112 16:14:50.953541  8748 net.cpp:165] Memory required for data: 13245120
I0112 16:14:50.953542  8748 layer_factory.hpp:77] Creating layer conv1_1
I0112 16:14:50.953554  8748 net.cpp:100] Creating Layer conv1_1
I0112 16:14:50.953557  8748 net.cpp:434] conv1_1 <- data
I0112 16:14:50.953560  8748 net.cpp:408] conv1_1 -> conv1_1
I0112 16:14:50.956925  8748 net.cpp:150] Setting up conv1_1
I0112 16:14:50.956941  8748 net.cpp:157] Top shape: 2 64 576 768 (56623104)
I0112 16:14:50.956943  8748 net.cpp:165] Memory required for data: 239737536
I0112 16:14:50.956955  8748 layer_factory.hpp:77] Creating layer relu1_1
I0112 16:14:50.956961  8748 net.cpp:100] Creating Layer relu1_1
I0112 16:14:50.956964  8748 net.cpp:434] relu1_1 <- conv1_1
I0112 16:14:50.956970  8748 net.cpp:395] relu1_1 -> conv1_1 (in-place)
I0112 16:14:50.957463  8748 net.cpp:150] Setting up relu1_1
I0112 16:14:50.957471  8748 net.cpp:157] Top shape: 2 64 576 768 (56623104)
I0112 16:14:50.957473  8748 net.cpp:165] Memory required for data: 466229952
I0112 16:14:50.957476  8748 layer_factory.hpp:77] Creating layer conv1_2
I0112 16:14:50.957484  8748 net.cpp:100] Creating Layer conv1_2
I0112 16:14:50.957487  8748 net.cpp:434] conv1_2 <- conv1_1
I0112 16:14:50.957492  8748 net.cpp:408] conv1_2 -> conv1_2
I0112 16:14:50.959542  8748 net.cpp:150] Setting up conv1_2
I0112 16:14:50.959555  8748 net.cpp:157] Top shape: 2 64 576 768 (56623104)
I0112 16:14:50.959558  8748 net.cpp:165] Memory required for data: 692722368
I0112 16:14:50.959565  8748 layer_factory.hpp:77] Creating layer relu1_2
I0112 16:14:50.959571  8748 net.cpp:100] Creating Layer relu1_2
I0112 16:14:50.959573  8748 net.cpp:434] relu1_2 <- conv1_2
I0112 16:14:50.959578  8748 net.cpp:395] relu1_2 -> conv1_2 (in-place)
I0112 16:14:50.959745  8748 net.cpp:150] Setting up relu1_2
I0112 16:14:50.959751  8748 net.cpp:157] Top shape: 2 64 576 768 (56623104)
I0112 16:14:50.959753  8748 net.cpp:165] Memory required for data: 919214784
I0112 16:14:50.959755  8748 layer_factory.hpp:77] Creating layer pool1
I0112 16:14:50.959761  8748 net.cpp:100] Creating Layer pool1
I0112 16:14:50.959764  8748 net.cpp:434] pool1 <- conv1_2
I0112 16:14:50.959767  8748 net.cpp:408] pool1 -> pool1
I0112 16:14:50.959813  8748 net.cpp:150] Setting up pool1
I0112 16:14:50.959818  8748 net.cpp:157] Top shape: 2 64 288 384 (14155776)
I0112 16:14:50.959821  8748 net.cpp:165] Memory required for data: 975837888
I0112 16:14:50.959823  8748 layer_factory.hpp:77] Creating layer conv2_1
I0112 16:14:50.959828  8748 net.cpp:100] Creating Layer conv2_1
I0112 16:14:50.959830  8748 net.cpp:434] conv2_1 <- pool1
I0112 16:14:50.959836  8748 net.cpp:408] conv2_1 -> conv2_1
I0112 16:14:50.961280  8748 net.cpp:150] Setting up conv2_1
I0112 16:14:50.961292  8748 net.cpp:157] Top shape: 2 128 288 384 (28311552)
I0112 16:14:50.961294  8748 net.cpp:165] Memory required for data: 1089084096
I0112 16:14:50.961302  8748 layer_factory.hpp:77] Creating layer relu2_1
I0112 16:14:50.961307  8748 net.cpp:100] Creating Layer relu2_1
I0112 16:14:50.961309  8748 net.cpp:434] relu2_1 <- conv2_1
I0112 16:14:50.961314  8748 net.cpp:395] relu2_1 -> conv2_1 (in-place)
I0112 16:14:50.961467  8748 net.cpp:150] Setting up relu2_1
I0112 16:14:50.961472  8748 net.cpp:157] Top shape: 2 128 288 384 (28311552)
I0112 16:14:50.961474  8748 net.cpp:165] Memory required for data: 1202330304
I0112 16:14:50.961477  8748 layer_factory.hpp:77] Creating layer conv2_2
I0112 16:14:50.961484  8748 net.cpp:100] Creating Layer conv2_2
I0112 16:14:50.961486  8748 net.cpp:434] conv2_2 <- conv2_1
I0112 16:14:50.961490  8748 net.cpp:408] conv2_2 -> conv2_2
I0112 16:14:50.963709  8748 net.cpp:150] Setting up conv2_2
I0112 16:14:50.963719  8748 net.cpp:157] Top shape: 2 128 288 384 (28311552)
I0112 16:14:50.963721  8748 net.cpp:165] Memory required for data: 1315576512
I0112 16:14:50.963726  8748 layer_factory.hpp:77] Creating layer relu2_2
I0112 16:14:50.963737  8748 net.cpp:100] Creating Layer relu2_2
I0112 16:14:50.963739  8748 net.cpp:434] relu2_2 <- conv2_2
I0112 16:14:50.963743  8748 net.cpp:395] relu2_2 -> conv2_2 (in-place)
I0112 16:14:50.963901  8748 net.cpp:150] Setting up relu2_2
I0112 16:14:50.963907  8748 net.cpp:157] Top shape: 2 128 288 384 (28311552)
I0112 16:14:50.963908  8748 net.cpp:165] Memory required for data: 1428822720
I0112 16:14:50.963910  8748 layer_factory.hpp:77] Creating layer pool2
I0112 16:14:50.963914  8748 net.cpp:100] Creating Layer pool2
I0112 16:14:50.963917  8748 net.cpp:434] pool2 <- conv2_2
I0112 16:14:50.963922  8748 net.cpp:408] pool2 -> pool2
I0112 16:14:50.963963  8748 net.cpp:150] Setting up pool2
I0112 16:14:50.963966  8748 net.cpp:157] Top shape: 2 128 144 192 (7077888)
I0112 16:14:50.963968  8748 net.cpp:165] Memory required for data: 1457134272
I0112 16:14:50.963970  8748 layer_factory.hpp:77] Creating layer conv3_1
I0112 16:14:50.963976  8748 net.cpp:100] Creating Layer conv3_1
I0112 16:14:50.963979  8748 net.cpp:434] conv3_1 <- pool2
I0112 16:14:50.963984  8748 net.cpp:408] conv3_1 -> conv3_1
I0112 16:14:50.965744  8748 net.cpp:150] Setting up conv3_1
I0112 16:14:50.965754  8748 net.cpp:157] Top shape: 2 256 144 192 (14155776)
I0112 16:14:50.965755  8748 net.cpp:165] Memory required for data: 1513757376
I0112 16:14:50.965764  8748 layer_factory.hpp:77] Creating layer relu3_1
I0112 16:14:50.965770  8748 net.cpp:100] Creating Layer relu3_1
I0112 16:14:50.965771  8748 net.cpp:434] relu3_1 <- conv3_1
I0112 16:14:50.965775  8748 net.cpp:395] relu3_1 -> conv3_1 (in-place)
I0112 16:14:50.965952  8748 net.cpp:150] Setting up relu3_1
I0112 16:14:50.965960  8748 net.cpp:157] Top shape: 2 256 144 192 (14155776)
I0112 16:14:50.965961  8748 net.cpp:165] Memory required for data: 1570380480
I0112 16:14:50.965963  8748 layer_factory.hpp:77] Creating layer conv3_2
I0112 16:14:50.965970  8748 net.cpp:100] Creating Layer conv3_2
I0112 16:14:50.965972  8748 net.cpp:434] conv3_2 <- conv3_1
I0112 16:14:50.965977  8748 net.cpp:408] conv3_2 -> conv3_2
I0112 16:14:50.968475  8748 net.cpp:150] Setting up conv3_2
I0112 16:14:50.968490  8748 net.cpp:157] Top shape: 2 256 144 192 (14155776)
I0112 16:14:50.968493  8748 net.cpp:165] Memory required for data: 1627003584
I0112 16:14:50.968500  8748 layer_factory.hpp:77] Creating layer relu3_2
I0112 16:14:50.968508  8748 net.cpp:100] Creating Layer relu3_2
I0112 16:14:50.968511  8748 net.cpp:434] relu3_2 <- conv3_2
I0112 16:14:50.968515  8748 net.cpp:395] relu3_2 -> conv3_2 (in-place)
I0112 16:14:50.968669  8748 net.cpp:150] Setting up relu3_2
I0112 16:14:50.968675  8748 net.cpp:157] Top shape: 2 256 144 192 (14155776)
I0112 16:14:50.968677  8748 net.cpp:165] Memory required for data: 1683626688
I0112 16:14:50.968680  8748 layer_factory.hpp:77] Creating layer conv3_3
I0112 16:14:50.968686  8748 net.cpp:100] Creating Layer conv3_3
I0112 16:14:50.968688  8748 net.cpp:434] conv3_3 <- conv3_2
I0112 16:14:50.968693  8748 net.cpp:408] conv3_3 -> conv3_3
I0112 16:14:50.971195  8748 net.cpp:150] Setting up conv3_3
I0112 16:14:50.971209  8748 net.cpp:157] Top shape: 2 256 144 192 (14155776)
I0112 16:14:50.971210  8748 net.cpp:165] Memory required for data: 1740249792
I0112 16:14:50.971216  8748 layer_factory.hpp:77] Creating layer relu3_3
I0112 16:14:50.971221  8748 net.cpp:100] Creating Layer relu3_3
I0112 16:14:50.971225  8748 net.cpp:434] relu3_3 <- conv3_3
I0112 16:14:50.971228  8748 net.cpp:395] relu3_3 -> conv3_3 (in-place)
I0112 16:14:50.971707  8748 net.cpp:150] Setting up relu3_3
I0112 16:14:50.971716  8748 net.cpp:157] Top shape: 2 256 144 192 (14155776)
I0112 16:14:50.971719  8748 net.cpp:165] Memory required for data: 1796872896
I0112 16:14:50.971721  8748 layer_factory.hpp:77] Creating layer pool3
I0112 16:14:50.971727  8748 net.cpp:100] Creating Layer pool3
I0112 16:14:50.971730  8748 net.cpp:434] pool3 <- conv3_3
I0112 16:14:50.971735  8748 net.cpp:408] pool3 -> pool3
I0112 16:14:50.971777  8748 net.cpp:150] Setting up pool3
I0112 16:14:50.971782  8748 net.cpp:157] Top shape: 2 256 72 96 (3538944)
I0112 16:14:50.971784  8748 net.cpp:165] Memory required for data: 1811028672
I0112 16:14:50.971786  8748 layer_factory.hpp:77] Creating layer conv4_1
I0112 16:14:50.971791  8748 net.cpp:100] Creating Layer conv4_1
I0112 16:14:50.971794  8748 net.cpp:434] conv4_1 <- pool3
I0112 16:14:50.971798  8748 net.cpp:408] conv4_1 -> conv4_1
I0112 16:14:50.975437  8748 net.cpp:150] Setting up conv4_1
I0112 16:14:50.975461  8748 net.cpp:157] Top shape: 2 512 72 96 (7077888)
I0112 16:14:50.975464  8748 net.cpp:165] Memory required for data: 1839340224
I0112 16:14:50.975473  8748 layer_factory.hpp:77] Creating layer relu4_1
I0112 16:14:50.975481  8748 net.cpp:100] Creating Layer relu4_1
I0112 16:14:50.975486  8748 net.cpp:434] relu4_1 <- conv4_1
I0112 16:14:50.975492  8748 net.cpp:395] relu4_1 -> conv4_1 (in-place)
I0112 16:14:50.975654  8748 net.cpp:150] Setting up relu4_1
I0112 16:14:50.975661  8748 net.cpp:157] Top shape: 2 512 72 96 (7077888)
I0112 16:14:50.975662  8748 net.cpp:165] Memory required for data: 1867651776
I0112 16:14:50.975666  8748 layer_factory.hpp:77] Creating layer conv4_2
I0112 16:14:50.975672  8748 net.cpp:100] Creating Layer conv4_2
I0112 16:14:50.975675  8748 net.cpp:434] conv4_2 <- conv4_1
I0112 16:14:50.975679  8748 net.cpp:408] conv4_2 -> conv4_2
I0112 16:14:50.980526  8748 net.cpp:150] Setting up conv4_2
I0112 16:14:50.980545  8748 net.cpp:157] Top shape: 2 512 72 96 (7077888)
I0112 16:14:50.980548  8748 net.cpp:165] Memory required for data: 1895963328
I0112 16:14:50.980562  8748 layer_factory.hpp:77] Creating layer relu4_2
I0112 16:14:50.980569  8748 net.cpp:100] Creating Layer relu4_2
I0112 16:14:50.980573  8748 net.cpp:434] relu4_2 <- conv4_2
I0112 16:14:50.980581  8748 net.cpp:395] relu4_2 -> conv4_2 (in-place)
I0112 16:14:50.980727  8748 net.cpp:150] Setting up relu4_2
I0112 16:14:50.980733  8748 net.cpp:157] Top shape: 2 512 72 96 (7077888)
I0112 16:14:50.980736  8748 net.cpp:165] Memory required for data: 1924274880
I0112 16:14:50.980737  8748 layer_factory.hpp:77] Creating layer conv4_3
I0112 16:14:50.980743  8748 net.cpp:100] Creating Layer conv4_3
I0112 16:14:50.980746  8748 net.cpp:434] conv4_3 <- conv4_2
I0112 16:14:50.980751  8748 net.cpp:408] conv4_3 -> conv4_3
I0112 16:14:50.985765  8748 net.cpp:150] Setting up conv4_3
I0112 16:14:50.985786  8748 net.cpp:157] Top shape: 2 512 72 96 (7077888)
I0112 16:14:50.985790  8748 net.cpp:165] Memory required for data: 1952586432
I0112 16:14:50.985797  8748 layer_factory.hpp:77] Creating layer relu4_3
I0112 16:14:50.985805  8748 net.cpp:100] Creating Layer relu4_3
I0112 16:14:50.985810  8748 net.cpp:434] relu4_3 <- conv4_3
I0112 16:14:50.985821  8748 net.cpp:395] relu4_3 -> conv4_3 (in-place)
I0112 16:14:50.985971  8748 net.cpp:150] Setting up relu4_3
I0112 16:14:50.985976  8748 net.cpp:157] Top shape: 2 512 72 96 (7077888)
I0112 16:14:50.985978  8748 net.cpp:165] Memory required for data: 1980897984
I0112 16:14:50.985980  8748 layer_factory.hpp:77] Creating layer conv4_3_relu4_3_0_split
I0112 16:14:50.985985  8748 net.cpp:100] Creating Layer conv4_3_relu4_3_0_split
I0112 16:14:50.985987  8748 net.cpp:434] conv4_3_relu4_3_0_split <- conv4_3
I0112 16:14:50.985992  8748 net.cpp:408] conv4_3_relu4_3_0_split -> conv4_3_relu4_3_0_split_0
I0112 16:14:50.985998  8748 net.cpp:408] conv4_3_relu4_3_0_split -> conv4_3_relu4_3_0_split_1
I0112 16:14:50.986037  8748 net.cpp:150] Setting up conv4_3_relu4_3_0_split
I0112 16:14:50.986042  8748 net.cpp:157] Top shape: 2 512 72 96 (7077888)
I0112 16:14:50.986044  8748 net.cpp:157] Top shape: 2 512 72 96 (7077888)
I0112 16:14:50.986047  8748 net.cpp:165] Memory required for data: 2037521088
I0112 16:14:50.986048  8748 layer_factory.hpp:77] Creating layer loss1_conv1
I0112 16:14:50.986064  8748 net.cpp:100] Creating Layer loss1_conv1
I0112 16:14:50.986068  8748 net.cpp:434] loss1_conv1 <- conv4_3_relu4_3_0_split_0
I0112 16:14:50.986071  8748 net.cpp:408] loss1_conv1 -> loss1_conv1
I0112 16:14:51.006757  8748 net.cpp:150] Setting up loss1_conv1
I0112 16:14:51.006778  8748 net.cpp:157] Top shape: 2 512 72 96 (7077888)
I0112 16:14:51.006780  8748 net.cpp:165] Memory required for data: 2065832640
I0112 16:14:51.006788  8748 layer_factory.hpp:77] Creating layer loss_relu1
I0112 16:14:51.006796  8748 net.cpp:100] Creating Layer loss_relu1
I0112 16:14:51.006800  8748 net.cpp:434] loss_relu1 <- loss1_conv1
I0112 16:14:51.006806  8748 net.cpp:395] loss_relu1 -> loss1_conv1 (in-place)
I0112 16:14:51.006956  8748 net.cpp:150] Setting up loss_relu1
I0112 16:14:51.006963  8748 net.cpp:157] Top shape: 2 512 72 96 (7077888)
I0112 16:14:51.006965  8748 net.cpp:165] Memory required for data: 2094144192
I0112 16:14:51.006968  8748 layer_factory.hpp:77] Creating layer loss1_conv1_loss_relu1_0_split
I0112 16:14:51.006973  8748 net.cpp:100] Creating Layer loss1_conv1_loss_relu1_0_split
I0112 16:14:51.006978  8748 net.cpp:434] loss1_conv1_loss_relu1_0_split <- loss1_conv1
I0112 16:14:51.006983  8748 net.cpp:408] loss1_conv1_loss_relu1_0_split -> loss1_conv1_loss_relu1_0_split_0
I0112 16:14:51.006991  8748 net.cpp:408] loss1_conv1_loss_relu1_0_split -> loss1_conv1_loss_relu1_0_split_1
I0112 16:14:51.007031  8748 net.cpp:150] Setting up loss1_conv1_loss_relu1_0_split
I0112 16:14:51.007037  8748 net.cpp:157] Top shape: 2 512 72 96 (7077888)
I0112 16:14:51.007040  8748 net.cpp:157] Top shape: 2 512 72 96 (7077888)
I0112 16:14:51.007042  8748 net.cpp:165] Memory required for data: 2150767296
I0112 16:14:51.007045  8748 layer_factory.hpp:77] Creating layer LFCN_1_3x5
I0112 16:14:51.007055  8748 net.cpp:100] Creating Layer LFCN_1_3x5
I0112 16:14:51.007057  8748 net.cpp:434] LFCN_1_3x5 <- loss1_conv1_loss_relu1_0_split_0
I0112 16:14:51.007062  8748 net.cpp:408] LFCN_1_3x5 -> LFCN_1_3x5
I0112 16:14:51.008505  8748 net.cpp:150] Setting up LFCN_1_3x5
I0112 16:14:51.008519  8748 net.cpp:157] Top shape: 2 7 72 96 (96768)
I0112 16:14:51.008522  8748 net.cpp:165] Memory required for data: 2151154368
I0112 16:14:51.008527  8748 layer_factory.hpp:77] Creating layer LFCN_1_3x5_LFCN_1_3x5_0_split
I0112 16:14:51.008533  8748 net.cpp:100] Creating Layer LFCN_1_3x5_LFCN_1_3x5_0_split
I0112 16:14:51.008535  8748 net.cpp:434] LFCN_1_3x5_LFCN_1_3x5_0_split <- LFCN_1_3x5
I0112 16:14:51.008543  8748 net.cpp:408] LFCN_1_3x5_LFCN_1_3x5_0_split -> LFCN_1_3x5_LFCN_1_3x5_0_split_0
I0112 16:14:51.008548  8748 net.cpp:408] LFCN_1_3x5_LFCN_1_3x5_0_split -> LFCN_1_3x5_LFCN_1_3x5_0_split_1
I0112 16:14:51.008585  8748 net.cpp:150] Setting up LFCN_1_3x5_LFCN_1_3x5_0_split
I0112 16:14:51.008591  8748 net.cpp:157] Top shape: 2 7 72 96 (96768)
I0112 16:14:51.008594  8748 net.cpp:157] Top shape: 2 7 72 96 (96768)
I0112 16:14:51.008595  8748 net.cpp:165] Memory required for data: 2151928512
I0112 16:14:51.008599  8748 layer_factory.hpp:77] Creating layer detection_loss_1_3x5
I0112 16:14:51.008604  8748 net.cpp:100] Creating Layer detection_loss_1_3x5
I0112 16:14:51.008606  8748 net.cpp:434] detection_loss_1_3x5 <- LFCN_1_3x5_LFCN_1_3x5_0_split_0
I0112 16:14:51.008610  8748 net.cpp:434] detection_loss_1_3x5 <- label_1_3x5_data_1_split_0
I0112 16:14:51.008615  8748 net.cpp:408] detection_loss_1_3x5 -> loss_1_3x5
I0112 16:14:51.008622  8748 layer_factory.hpp:77] Creating layer detection_loss_1_3x5
I0112 16:14:51.008966  8748 net.cpp:150] Setting up detection_loss_1_3x5
I0112 16:14:51.008973  8748 net.cpp:157] Top shape: 1 1 1 2 (2)
I0112 16:14:51.008975  8748 net.cpp:160]     with loss weight 0.9
I0112 16:14:51.008983  8748 net.cpp:165] Memory required for data: 2151928520
I0112 16:14:51.008986  8748 layer_factory.hpp:77] Creating layer detection_accuracy_1_3x5
I0112 16:14:51.008992  8748 net.cpp:100] Creating Layer detection_accuracy_1_3x5
I0112 16:14:51.008996  8748 net.cpp:434] detection_accuracy_1_3x5 <- LFCN_1_3x5_LFCN_1_3x5_0_split_1
I0112 16:14:51.008999  8748 net.cpp:434] detection_accuracy_1_3x5 <- label_1_3x5_data_1_split_1
I0112 16:14:51.009003  8748 net.cpp:408] detection_accuracy_1_3x5 -> accuracy_1_3x5
I0112 16:14:51.009008  8748 net.cpp:408] detection_accuracy_1_3x5 -> boxiou_1_3x5
I0112 16:14:51.009045  8748 net.cpp:150] Setting up detection_accuracy_1_3x5
I0112 16:14:51.009050  8748 net.cpp:157] Top shape: 1 1 1 2 (2)
I0112 16:14:51.009052  8748 net.cpp:157] Top shape: 1 1 1 1 (1)
I0112 16:14:51.009054  8748 net.cpp:165] Memory required for data: 2151928532
I0112 16:14:51.009057  8748 layer_factory.hpp:77] Creating layer LFCN_1_5x7
I0112 16:14:51.009063  8748 net.cpp:100] Creating Layer LFCN_1_5x7
I0112 16:14:51.009065  8748 net.cpp:434] LFCN_1_5x7 <- loss1_conv1_loss_relu1_0_split_1
I0112 16:14:51.009071  8748 net.cpp:408] LFCN_1_5x7 -> LFCN_1_5x7
I0112 16:14:51.011860  8748 net.cpp:150] Setting up LFCN_1_5x7
I0112 16:14:51.011871  8748 net.cpp:157] Top shape: 2 7 72 96 (96768)
I0112 16:14:51.011873  8748 net.cpp:165] Memory required for data: 2152315604
I0112 16:14:51.011878  8748 layer_factory.hpp:77] Creating layer LFCN_1_5x7_LFCN_1_5x7_0_split
I0112 16:14:51.011884  8748 net.cpp:100] Creating Layer LFCN_1_5x7_LFCN_1_5x7_0_split
I0112 16:14:51.011888  8748 net.cpp:434] LFCN_1_5x7_LFCN_1_5x7_0_split <- LFCN_1_5x7
I0112 16:14:51.011891  8748 net.cpp:408] LFCN_1_5x7_LFCN_1_5x7_0_split -> LFCN_1_5x7_LFCN_1_5x7_0_split_0
I0112 16:14:51.011898  8748 net.cpp:408] LFCN_1_5x7_LFCN_1_5x7_0_split -> LFCN_1_5x7_LFCN_1_5x7_0_split_1
I0112 16:14:51.011936  8748 net.cpp:150] Setting up LFCN_1_5x7_LFCN_1_5x7_0_split
I0112 16:14:51.011940  8748 net.cpp:157] Top shape: 2 7 72 96 (96768)
I0112 16:14:51.011943  8748 net.cpp:157] Top shape: 2 7 72 96 (96768)
I0112 16:14:51.011945  8748 net.cpp:165] Memory required for data: 2153089748
I0112 16:14:51.011947  8748 layer_factory.hpp:77] Creating layer detection_loss_1_5x7
I0112 16:14:51.011952  8748 net.cpp:100] Creating Layer detection_loss_1_5x7
I0112 16:14:51.011955  8748 net.cpp:434] detection_loss_1_5x7 <- LFCN_1_5x7_LFCN_1_5x7_0_split_0
I0112 16:14:51.011958  8748 net.cpp:434] detection_loss_1_5x7 <- label_1_5x7_data_2_split_0
I0112 16:14:51.011965  8748 net.cpp:408] detection_loss_1_5x7 -> loss_1_5x7
I0112 16:14:51.011970  8748 layer_factory.hpp:77] Creating layer detection_loss_1_5x7
I0112 16:14:51.012634  8748 net.cpp:150] Setting up detection_loss_1_5x7
I0112 16:14:51.012641  8748 net.cpp:157] Top shape: 1 1 1 2 (2)
I0112 16:14:51.012643  8748 net.cpp:160]     with loss weight 0.9
I0112 16:14:51.012648  8748 net.cpp:165] Memory required for data: 2153089756
I0112 16:14:51.012650  8748 layer_factory.hpp:77] Creating layer detection_accuracy_1_5x7
I0112 16:14:51.012655  8748 net.cpp:100] Creating Layer detection_accuracy_1_5x7
I0112 16:14:51.012658  8748 net.cpp:434] detection_accuracy_1_5x7 <- LFCN_1_5x7_LFCN_1_5x7_0_split_1
I0112 16:14:51.012662  8748 net.cpp:434] detection_accuracy_1_5x7 <- label_1_5x7_data_2_split_1
I0112 16:14:51.012667  8748 net.cpp:408] detection_accuracy_1_5x7 -> accuracy_1_5x7
I0112 16:14:51.012673  8748 net.cpp:408] detection_accuracy_1_5x7 -> boxiou_1_5x7
I0112 16:14:51.012712  8748 net.cpp:150] Setting up detection_accuracy_1_5x7
I0112 16:14:51.012717  8748 net.cpp:157] Top shape: 1 1 1 2 (2)
I0112 16:14:51.012719  8748 net.cpp:157] Top shape: 1 1 1 1 (1)
I0112 16:14:51.012720  8748 net.cpp:165] Memory required for data: 2153089768
I0112 16:14:51.012722  8748 layer_factory.hpp:77] Creating layer pool4
I0112 16:14:51.012729  8748 net.cpp:100] Creating Layer pool4
I0112 16:14:51.012732  8748 net.cpp:434] pool4 <- conv4_3_relu4_3_0_split_1
I0112 16:14:51.012737  8748 net.cpp:408] pool4 -> pool4
I0112 16:14:51.012771  8748 net.cpp:150] Setting up pool4
I0112 16:14:51.012775  8748 net.cpp:157] Top shape: 2 512 36 48 (1769472)
I0112 16:14:51.012778  8748 net.cpp:165] Memory required for data: 2160167656
I0112 16:14:51.012779  8748 layer_factory.hpp:77] Creating layer conv5_1
I0112 16:14:51.012785  8748 net.cpp:100] Creating Layer conv5_1
I0112 16:14:51.012787  8748 net.cpp:434] conv5_1 <- pool4
I0112 16:14:51.012792  8748 net.cpp:408] conv5_1 -> conv5_1
I0112 16:14:51.017946  8748 net.cpp:150] Setting up conv5_1
I0112 16:14:51.017967  8748 net.cpp:157] Top shape: 2 512 36 48 (1769472)
I0112 16:14:51.017969  8748 net.cpp:165] Memory required for data: 2167245544
I0112 16:14:51.017978  8748 layer_factory.hpp:77] Creating layer relu5_1
I0112 16:14:51.017987  8748 net.cpp:100] Creating Layer relu5_1
I0112 16:14:51.017989  8748 net.cpp:434] relu5_1 <- conv5_1
I0112 16:14:51.017997  8748 net.cpp:395] relu5_1 -> conv5_1 (in-place)
I0112 16:14:51.018155  8748 net.cpp:150] Setting up relu5_1
I0112 16:14:51.018162  8748 net.cpp:157] Top shape: 2 512 36 48 (1769472)
I0112 16:14:51.018163  8748 net.cpp:165] Memory required for data: 2174323432
I0112 16:14:51.018165  8748 layer_factory.hpp:77] Creating layer conv5_2
I0112 16:14:51.018173  8748 net.cpp:100] Creating Layer conv5_2
I0112 16:14:51.018175  8748 net.cpp:434] conv5_2 <- conv5_1
I0112 16:14:51.018180  8748 net.cpp:408] conv5_2 -> conv5_2
I0112 16:14:51.022881  8748 net.cpp:150] Setting up conv5_2
I0112 16:14:51.022900  8748 net.cpp:157] Top shape: 2 512 36 48 (1769472)
I0112 16:14:51.022902  8748 net.cpp:165] Memory required for data: 2181401320
I0112 16:14:51.022910  8748 layer_factory.hpp:77] Creating layer relu5_2
I0112 16:14:51.022918  8748 net.cpp:100] Creating Layer relu5_2
I0112 16:14:51.022922  8748 net.cpp:434] relu5_2 <- conv5_2
I0112 16:14:51.022929  8748 net.cpp:395] relu5_2 -> conv5_2 (in-place)
I0112 16:14:51.023087  8748 net.cpp:150] Setting up relu5_2
I0112 16:14:51.023093  8748 net.cpp:157] Top shape: 2 512 36 48 (1769472)
I0112 16:14:51.023095  8748 net.cpp:165] Memory required for data: 2188479208
I0112 16:14:51.023097  8748 layer_factory.hpp:77] Creating layer conv5_3
I0112 16:14:51.023105  8748 net.cpp:100] Creating Layer conv5_3
I0112 16:14:51.023108  8748 net.cpp:434] conv5_3 <- conv5_2
I0112 16:14:51.023113  8748 net.cpp:408] conv5_3 -> conv5_3
I0112 16:14:51.028050  8748 net.cpp:150] Setting up conv5_3
I0112 16:14:51.028071  8748 net.cpp:157] Top shape: 2 512 36 48 (1769472)
I0112 16:14:51.028074  8748 net.cpp:165] Memory required for data: 2195557096
I0112 16:14:51.028081  8748 layer_factory.hpp:77] Creating layer relu5_3
I0112 16:14:51.028090  8748 net.cpp:100] Creating Layer relu5_3
I0112 16:14:51.028095  8748 net.cpp:434] relu5_3 <- conv5_3
I0112 16:14:51.028100  8748 net.cpp:395] relu5_3 -> conv5_3 (in-place)
I0112 16:14:51.028255  8748 net.cpp:150] Setting up relu5_3
I0112 16:14:51.028261  8748 net.cpp:157] Top shape: 2 512 36 48 (1769472)
I0112 16:14:51.028262  8748 net.cpp:165] Memory required for data: 2202634984
I0112 16:14:51.028265  8748 layer_factory.hpp:77] Creating layer conv5_3_relu5_3_0_split
I0112 16:14:51.028270  8748 net.cpp:100] Creating Layer conv5_3_relu5_3_0_split
I0112 16:14:51.028272  8748 net.cpp:434] conv5_3_relu5_3_0_split <- conv5_3
I0112 16:14:51.028277  8748 net.cpp:408] conv5_3_relu5_3_0_split -> conv5_3_relu5_3_0_split_0
I0112 16:14:51.028283  8748 net.cpp:408] conv5_3_relu5_3_0_split -> conv5_3_relu5_3_0_split_1
I0112 16:14:51.028288  8748 net.cpp:408] conv5_3_relu5_3_0_split -> conv5_3_relu5_3_0_split_2
I0112 16:14:51.028339  8748 net.cpp:150] Setting up conv5_3_relu5_3_0_split
I0112 16:14:51.028343  8748 net.cpp:157] Top shape: 2 512 36 48 (1769472)
I0112 16:14:51.028347  8748 net.cpp:157] Top shape: 2 512 36 48 (1769472)
I0112 16:14:51.028349  8748 net.cpp:157] Top shape: 2 512 36 48 (1769472)
I0112 16:14:51.028350  8748 net.cpp:165] Memory required for data: 2223868648
I0112 16:14:51.028352  8748 layer_factory.hpp:77] Creating layer LFCN_2_3x5
I0112 16:14:51.028362  8748 net.cpp:100] Creating Layer LFCN_2_3x5
I0112 16:14:51.028364  8748 net.cpp:434] LFCN_2_3x5 <- conv5_3_relu5_3_0_split_0
I0112 16:14:51.028370  8748 net.cpp:408] LFCN_2_3x5 -> LFCN_2_3x5
I0112 16:14:51.030637  8748 net.cpp:150] Setting up LFCN_2_3x5
I0112 16:14:51.030647  8748 net.cpp:157] Top shape: 2 7 36 48 (24192)
I0112 16:14:51.030649  8748 net.cpp:165] Memory required for data: 2223965416
I0112 16:14:51.030660  8748 layer_factory.hpp:77] Creating layer LFCN_2_3x5_LFCN_2_3x5_0_split
I0112 16:14:51.030665  8748 net.cpp:100] Creating Layer LFCN_2_3x5_LFCN_2_3x5_0_split
I0112 16:14:51.030668  8748 net.cpp:434] LFCN_2_3x5_LFCN_2_3x5_0_split <- LFCN_2_3x5
I0112 16:14:51.030673  8748 net.cpp:408] LFCN_2_3x5_LFCN_2_3x5_0_split -> LFCN_2_3x5_LFCN_2_3x5_0_split_0
I0112 16:14:51.030680  8748 net.cpp:408] LFCN_2_3x5_LFCN_2_3x5_0_split -> LFCN_2_3x5_LFCN_2_3x5_0_split_1
I0112 16:14:51.030720  8748 net.cpp:150] Setting up LFCN_2_3x5_LFCN_2_3x5_0_split
I0112 16:14:51.030725  8748 net.cpp:157] Top shape: 2 7 36 48 (24192)
I0112 16:14:51.030727  8748 net.cpp:157] Top shape: 2 7 36 48 (24192)
I0112 16:14:51.030730  8748 net.cpp:165] Memory required for data: 2224158952
I0112 16:14:51.030731  8748 layer_factory.hpp:77] Creating layer detection_loss_2_3x5
I0112 16:14:51.030737  8748 net.cpp:100] Creating Layer detection_loss_2_3x5
I0112 16:14:51.030740  8748 net.cpp:434] detection_loss_2_3x5 <- LFCN_2_3x5_LFCN_2_3x5_0_split_0
I0112 16:14:51.030743  8748 net.cpp:434] detection_loss_2_3x5 <- label_2_3x5_data_3_split_0
I0112 16:14:51.030750  8748 net.cpp:408] detection_loss_2_3x5 -> loss_2_3x5
I0112 16:14:51.030757  8748 layer_factory.hpp:77] Creating layer detection_loss_2_3x5
I0112 16:14:51.031082  8748 net.cpp:150] Setting up detection_loss_2_3x5
I0112 16:14:51.031090  8748 net.cpp:157] Top shape: 1 1 1 2 (2)
I0112 16:14:51.031092  8748 net.cpp:160]     with loss weight 1
I0112 16:14:51.031101  8748 net.cpp:165] Memory required for data: 2224158960
I0112 16:14:51.031103  8748 layer_factory.hpp:77] Creating layer detection_accuracy_2_3x5
I0112 16:14:51.031110  8748 net.cpp:100] Creating Layer detection_accuracy_2_3x5
I0112 16:14:51.031111  8748 net.cpp:434] detection_accuracy_2_3x5 <- LFCN_2_3x5_LFCN_2_3x5_0_split_1
I0112 16:14:51.031116  8748 net.cpp:434] detection_accuracy_2_3x5 <- label_2_3x5_data_3_split_1
I0112 16:14:51.031119  8748 net.cpp:408] detection_accuracy_2_3x5 -> accuracy_2_3x5
I0112 16:14:51.031126  8748 net.cpp:408] detection_accuracy_2_3x5 -> boxiou_2_3x5
I0112 16:14:51.031177  8748 net.cpp:150] Setting up detection_accuracy_2_3x5
I0112 16:14:51.031180  8748 net.cpp:157] Top shape: 1 1 1 2 (2)
I0112 16:14:51.031183  8748 net.cpp:157] Top shape: 1 1 1 1 (1)
I0112 16:14:51.031185  8748 net.cpp:165] Memory required for data: 2224158972
I0112 16:14:51.031188  8748 layer_factory.hpp:77] Creating layer LFCN_2_5x7
I0112 16:14:51.031194  8748 net.cpp:100] Creating Layer LFCN_2_5x7
I0112 16:14:51.031198  8748 net.cpp:434] LFCN_2_5x7 <- conv5_3_relu5_3_0_split_1
I0112 16:14:51.031203  8748 net.cpp:408] LFCN_2_5x7 -> LFCN_2_5x7
I0112 16:14:51.033336  8748 net.cpp:150] Setting up LFCN_2_5x7
I0112 16:14:51.033354  8748 net.cpp:157] Top shape: 2 7 36 48 (24192)
I0112 16:14:51.033356  8748 net.cpp:165] Memory required for data: 2224255740
I0112 16:14:51.033365  8748 layer_factory.hpp:77] Creating layer LFCN_2_5x7_LFCN_2_5x7_0_split
I0112 16:14:51.033373  8748 net.cpp:100] Creating Layer LFCN_2_5x7_LFCN_2_5x7_0_split
I0112 16:14:51.033380  8748 net.cpp:434] LFCN_2_5x7_LFCN_2_5x7_0_split <- LFCN_2_5x7
I0112 16:14:51.033388  8748 net.cpp:408] LFCN_2_5x7_LFCN_2_5x7_0_split -> LFCN_2_5x7_LFCN_2_5x7_0_split_0
I0112 16:14:51.033396  8748 net.cpp:408] LFCN_2_5x7_LFCN_2_5x7_0_split -> LFCN_2_5x7_LFCN_2_5x7_0_split_1
I0112 16:14:51.033437  8748 net.cpp:150] Setting up LFCN_2_5x7_LFCN_2_5x7_0_split
I0112 16:14:51.033442  8748 net.cpp:157] Top shape: 2 7 36 48 (24192)
I0112 16:14:51.033444  8748 net.cpp:157] Top shape: 2 7 36 48 (24192)
I0112 16:14:51.033447  8748 net.cpp:165] Memory required for data: 2224449276
I0112 16:14:51.033449  8748 layer_factory.hpp:77] Creating layer detection_loss_2_5x7
I0112 16:14:51.033455  8748 net.cpp:100] Creating Layer detection_loss_2_5x7
I0112 16:14:51.033459  8748 net.cpp:434] detection_loss_2_5x7 <- LFCN_2_5x7_LFCN_2_5x7_0_split_0
I0112 16:14:51.033463  8748 net.cpp:434] detection_loss_2_5x7 <- label_2_5x7_data_4_split_0
I0112 16:14:51.033469  8748 net.cpp:408] detection_loss_2_5x7 -> loss_2_5x7
I0112 16:14:51.033478  8748 layer_factory.hpp:77] Creating layer detection_loss_2_5x7
I0112 16:14:51.033802  8748 net.cpp:150] Setting up detection_loss_2_5x7
I0112 16:14:51.033810  8748 net.cpp:157] Top shape: 1 1 1 2 (2)
I0112 16:14:51.033823  8748 net.cpp:160]     with loss weight 1
I0112 16:14:51.033831  8748 net.cpp:165] Memory required for data: 2224449284
I0112 16:14:51.033834  8748 layer_factory.hpp:77] Creating layer detection_accuracy_2_5x7
I0112 16:14:51.033841  8748 net.cpp:100] Creating Layer detection_accuracy_2_5x7
I0112 16:14:51.033844  8748 net.cpp:434] detection_accuracy_2_5x7 <- LFCN_2_5x7_LFCN_2_5x7_0_split_1
I0112 16:14:51.033849  8748 net.cpp:434] detection_accuracy_2_5x7 <- label_2_5x7_data_4_split_1
I0112 16:14:51.033854  8748 net.cpp:408] detection_accuracy_2_5x7 -> accuracy_2_5x7
I0112 16:14:51.033860  8748 net.cpp:408] detection_accuracy_2_5x7 -> boxiou_2_5x7
I0112 16:14:51.033900  8748 net.cpp:150] Setting up detection_accuracy_2_5x7
I0112 16:14:51.033907  8748 net.cpp:157] Top shape: 1 1 1 2 (2)
I0112 16:14:51.033910  8748 net.cpp:157] Top shape: 1 1 1 1 (1)
I0112 16:14:51.033912  8748 net.cpp:165] Memory required for data: 2224449296
I0112 16:14:51.033915  8748 layer_factory.hpp:77] Creating layer pool5
I0112 16:14:51.033920  8748 net.cpp:100] Creating Layer pool5
I0112 16:14:51.033922  8748 net.cpp:434] pool5 <- conv5_3_relu5_3_0_split_2
I0112 16:14:51.033926  8748 net.cpp:408] pool5 -> pool5
I0112 16:14:51.033963  8748 net.cpp:150] Setting up pool5
I0112 16:14:51.033969  8748 net.cpp:157] Top shape: 2 512 18 24 (442368)
I0112 16:14:51.033972  8748 net.cpp:165] Memory required for data: 2226218768
I0112 16:14:51.033973  8748 layer_factory.hpp:77] Creating layer conv6_1
I0112 16:14:51.033982  8748 net.cpp:100] Creating Layer conv6_1
I0112 16:14:51.033985  8748 net.cpp:434] conv6_1 <- pool5
I0112 16:14:51.033991  8748 net.cpp:408] conv6_1 -> conv6_1
I0112 16:14:51.058503  8748 net.cpp:150] Setting up conv6_1
I0112 16:14:51.058526  8748 net.cpp:157] Top shape: 2 512 18 24 (442368)
I0112 16:14:51.058528  8748 net.cpp:165] Memory required for data: 2227988240
I0112 16:14:51.058537  8748 layer_factory.hpp:77] Creating layer relu6_1
I0112 16:14:51.058545  8748 net.cpp:100] Creating Layer relu6_1
I0112 16:14:51.058549  8748 net.cpp:434] relu6_1 <- conv6_1
I0112 16:14:51.058554  8748 net.cpp:395] relu6_1 -> conv6_1 (in-place)
I0112 16:14:51.059128  8748 net.cpp:150] Setting up relu6_1
I0112 16:14:51.059137  8748 net.cpp:157] Top shape: 2 512 18 24 (442368)
I0112 16:14:51.059139  8748 net.cpp:165] Memory required for data: 2229757712
I0112 16:14:51.059142  8748 layer_factory.hpp:77] Creating layer conv6_1_relu6_1_0_split
I0112 16:14:51.059149  8748 net.cpp:100] Creating Layer conv6_1_relu6_1_0_split
I0112 16:14:51.059151  8748 net.cpp:434] conv6_1_relu6_1_0_split <- conv6_1
I0112 16:14:51.059156  8748 net.cpp:408] conv6_1_relu6_1_0_split -> conv6_1_relu6_1_0_split_0
I0112 16:14:51.059162  8748 net.cpp:408] conv6_1_relu6_1_0_split -> conv6_1_relu6_1_0_split_1
I0112 16:14:51.059168  8748 net.cpp:408] conv6_1_relu6_1_0_split -> conv6_1_relu6_1_0_split_2
I0112 16:14:51.059223  8748 net.cpp:150] Setting up conv6_1_relu6_1_0_split
I0112 16:14:51.059227  8748 net.cpp:157] Top shape: 2 512 18 24 (442368)
I0112 16:14:51.059231  8748 net.cpp:157] Top shape: 2 512 18 24 (442368)
I0112 16:14:51.059233  8748 net.cpp:157] Top shape: 2 512 18 24 (442368)
I0112 16:14:51.059234  8748 net.cpp:165] Memory required for data: 2235066128
I0112 16:14:51.059237  8748 layer_factory.hpp:77] Creating layer LFCN_3_3x5
I0112 16:14:51.059245  8748 net.cpp:100] Creating Layer LFCN_3_3x5
I0112 16:14:51.059247  8748 net.cpp:434] LFCN_3_3x5 <- conv6_1_relu6_1_0_split_0
I0112 16:14:51.059254  8748 net.cpp:408] LFCN_3_3x5 -> LFCN_3_3x5
I0112 16:14:51.060722  8748 net.cpp:150] Setting up LFCN_3_3x5
I0112 16:14:51.060734  8748 net.cpp:157] Top shape: 2 7 18 24 (6048)
I0112 16:14:51.060735  8748 net.cpp:165] Memory required for data: 2235090320
I0112 16:14:51.060741  8748 layer_factory.hpp:77] Creating layer LFCN_3_3x5_LFCN_3_3x5_0_split
I0112 16:14:51.060760  8748 net.cpp:100] Creating Layer LFCN_3_3x5_LFCN_3_3x5_0_split
I0112 16:14:51.060763  8748 net.cpp:434] LFCN_3_3x5_LFCN_3_3x5_0_split <- LFCN_3_3x5
I0112 16:14:51.060770  8748 net.cpp:408] LFCN_3_3x5_LFCN_3_3x5_0_split -> LFCN_3_3x5_LFCN_3_3x5_0_split_0
I0112 16:14:51.060775  8748 net.cpp:408] LFCN_3_3x5_LFCN_3_3x5_0_split -> LFCN_3_3x5_LFCN_3_3x5_0_split_1
I0112 16:14:51.060817  8748 net.cpp:150] Setting up LFCN_3_3x5_LFCN_3_3x5_0_split
I0112 16:14:51.060822  8748 net.cpp:157] Top shape: 2 7 18 24 (6048)
I0112 16:14:51.060825  8748 net.cpp:157] Top shape: 2 7 18 24 (6048)
I0112 16:14:51.060827  8748 net.cpp:165] Memory required for data: 2235138704
I0112 16:14:51.060829  8748 layer_factory.hpp:77] Creating layer detection_loss_3_3x5
I0112 16:14:51.060835  8748 net.cpp:100] Creating Layer detection_loss_3_3x5
I0112 16:14:51.060838  8748 net.cpp:434] detection_loss_3_3x5 <- LFCN_3_3x5_LFCN_3_3x5_0_split_0
I0112 16:14:51.060843  8748 net.cpp:434] detection_loss_3_3x5 <- label_3_3x5_data_5_split_0
I0112 16:14:51.060848  8748 net.cpp:408] detection_loss_3_3x5 -> loss_3_3x5
I0112 16:14:51.060856  8748 layer_factory.hpp:77] Creating layer detection_loss_3_3x5
I0112 16:14:51.061177  8748 net.cpp:150] Setting up detection_loss_3_3x5
I0112 16:14:51.061183  8748 net.cpp:157] Top shape: 1 1 1 2 (2)
I0112 16:14:51.061185  8748 net.cpp:160]     with loss weight 1
I0112 16:14:51.061192  8748 net.cpp:165] Memory required for data: 2235138712
I0112 16:14:51.061195  8748 layer_factory.hpp:77] Creating layer detection_accuracy_3_3x5
I0112 16:14:51.061202  8748 net.cpp:100] Creating Layer detection_accuracy_3_3x5
I0112 16:14:51.061203  8748 net.cpp:434] detection_accuracy_3_3x5 <- LFCN_3_3x5_LFCN_3_3x5_0_split_1
I0112 16:14:51.061208  8748 net.cpp:434] detection_accuracy_3_3x5 <- label_3_3x5_data_5_split_1
I0112 16:14:51.061214  8748 net.cpp:408] detection_accuracy_3_3x5 -> accuracy_3_3x5
I0112 16:14:51.061220  8748 net.cpp:408] detection_accuracy_3_3x5 -> boxiou_3_3x5
I0112 16:14:51.061260  8748 net.cpp:150] Setting up detection_accuracy_3_3x5
I0112 16:14:51.061266  8748 net.cpp:157] Top shape: 1 1 1 2 (2)
I0112 16:14:51.061269  8748 net.cpp:157] Top shape: 1 1 1 1 (1)
I0112 16:14:51.061271  8748 net.cpp:165] Memory required for data: 2235138724
I0112 16:14:51.061273  8748 layer_factory.hpp:77] Creating layer LFCN_3_5x7
I0112 16:14:51.061280  8748 net.cpp:100] Creating Layer LFCN_3_5x7
I0112 16:14:51.061283  8748 net.cpp:434] LFCN_3_5x7 <- conv6_1_relu6_1_0_split_1
I0112 16:14:51.061287  8748 net.cpp:408] LFCN_3_5x7 -> LFCN_3_5x7
I0112 16:14:51.063630  8748 net.cpp:150] Setting up LFCN_3_5x7
I0112 16:14:51.063655  8748 net.cpp:157] Top shape: 2 7 18 24 (6048)
I0112 16:14:51.063658  8748 net.cpp:165] Memory required for data: 2235162916
I0112 16:14:51.063666  8748 layer_factory.hpp:77] Creating layer LFCN_3_5x7_LFCN_3_5x7_0_split
I0112 16:14:51.063673  8748 net.cpp:100] Creating Layer LFCN_3_5x7_LFCN_3_5x7_0_split
I0112 16:14:51.063678  8748 net.cpp:434] LFCN_3_5x7_LFCN_3_5x7_0_split <- LFCN_3_5x7
I0112 16:14:51.063685  8748 net.cpp:408] LFCN_3_5x7_LFCN_3_5x7_0_split -> LFCN_3_5x7_LFCN_3_5x7_0_split_0
I0112 16:14:51.063694  8748 net.cpp:408] LFCN_3_5x7_LFCN_3_5x7_0_split -> LFCN_3_5x7_LFCN_3_5x7_0_split_1
I0112 16:14:51.063735  8748 net.cpp:150] Setting up LFCN_3_5x7_LFCN_3_5x7_0_split
I0112 16:14:51.063740  8748 net.cpp:157] Top shape: 2 7 18 24 (6048)
I0112 16:14:51.063743  8748 net.cpp:157] Top shape: 2 7 18 24 (6048)
I0112 16:14:51.063745  8748 net.cpp:165] Memory required for data: 2235211300
I0112 16:14:51.063747  8748 layer_factory.hpp:77] Creating layer detection_loss_3_5x7
I0112 16:14:51.063755  8748 net.cpp:100] Creating Layer detection_loss_3_5x7
I0112 16:14:51.063757  8748 net.cpp:434] detection_loss_3_5x7 <- LFCN_3_5x7_LFCN_3_5x7_0_split_0
I0112 16:14:51.063761  8748 net.cpp:434] detection_loss_3_5x7 <- label_3_5x7_data_6_split_0
I0112 16:14:51.063768  8748 net.cpp:408] detection_loss_3_5x7 -> loss_3_5x7
I0112 16:14:51.063776  8748 layer_factory.hpp:77] Creating layer detection_loss_3_5x7
I0112 16:14:51.064115  8748 net.cpp:150] Setting up detection_loss_3_5x7
I0112 16:14:51.064123  8748 net.cpp:157] Top shape: 1 1 1 2 (2)
I0112 16:14:51.064126  8748 net.cpp:160]     with loss weight 1
I0112 16:14:51.064134  8748 net.cpp:165] Memory required for data: 2235211308
I0112 16:14:51.064136  8748 layer_factory.hpp:77] Creating layer detection_accuracy_3_5x7
I0112 16:14:51.064144  8748 net.cpp:100] Creating Layer detection_accuracy_3_5x7
I0112 16:14:51.064147  8748 net.cpp:434] detection_accuracy_3_5x7 <- LFCN_3_5x7_LFCN_3_5x7_0_split_1
I0112 16:14:51.064152  8748 net.cpp:434] detection_accuracy_3_5x7 <- label_3_5x7_data_6_split_1
I0112 16:14:51.064157  8748 net.cpp:408] detection_accuracy_3_5x7 -> accuracy_3_5x7
I0112 16:14:51.064164  8748 net.cpp:408] detection_accuracy_3_5x7 -> boxiou_3_5x7
I0112 16:14:51.064208  8748 net.cpp:150] Setting up detection_accuracy_3_5x7
I0112 16:14:51.064213  8748 net.cpp:157] Top shape: 1 1 1 2 (2)
I0112 16:14:51.064215  8748 net.cpp:157] Top shape: 1 1 1 1 (1)
I0112 16:14:51.064216  8748 net.cpp:165] Memory required for data: 2235211320
I0112 16:14:51.064218  8748 layer_factory.hpp:77] Creating layer pool6
I0112 16:14:51.064225  8748 net.cpp:100] Creating Layer pool6
I0112 16:14:51.064229  8748 net.cpp:434] pool6 <- conv6_1_relu6_1_0_split_2
I0112 16:14:51.064236  8748 net.cpp:408] pool6 -> pool6
I0112 16:14:51.064272  8748 net.cpp:150] Setting up pool6
I0112 16:14:51.064278  8748 net.cpp:157] Top shape: 2 512 9 12 (110592)
I0112 16:14:51.064280  8748 net.cpp:165] Memory required for data: 2235653688
I0112 16:14:51.064282  8748 layer_factory.hpp:77] Creating layer LFCN_4_3x5
I0112 16:14:51.064291  8748 net.cpp:100] Creating Layer LFCN_4_3x5
I0112 16:14:51.064294  8748 net.cpp:434] LFCN_4_3x5 <- pool6
I0112 16:14:51.064299  8748 net.cpp:408] LFCN_4_3x5 -> LFCN_4_3x5
I0112 16:14:51.065960  8748 net.cpp:150] Setting up LFCN_4_3x5
I0112 16:14:51.065976  8748 net.cpp:157] Top shape: 2 7 9 12 (1512)
I0112 16:14:51.065979  8748 net.cpp:165] Memory required for data: 2235659736
I0112 16:14:51.065985  8748 layer_factory.hpp:77] Creating layer LFCN_4_3x5_LFCN_4_3x5_0_split
I0112 16:14:51.065994  8748 net.cpp:100] Creating Layer LFCN_4_3x5_LFCN_4_3x5_0_split
I0112 16:14:51.065999  8748 net.cpp:434] LFCN_4_3x5_LFCN_4_3x5_0_split <- LFCN_4_3x5
I0112 16:14:51.066004  8748 net.cpp:408] LFCN_4_3x5_LFCN_4_3x5_0_split -> LFCN_4_3x5_LFCN_4_3x5_0_split_0
I0112 16:14:51.066012  8748 net.cpp:408] LFCN_4_3x5_LFCN_4_3x5_0_split -> LFCN_4_3x5_LFCN_4_3x5_0_split_1
I0112 16:14:51.066054  8748 net.cpp:150] Setting up LFCN_4_3x5_LFCN_4_3x5_0_split
I0112 16:14:51.066058  8748 net.cpp:157] Top shape: 2 7 9 12 (1512)
I0112 16:14:51.066061  8748 net.cpp:157] Top shape: 2 7 9 12 (1512)
I0112 16:14:51.066063  8748 net.cpp:165] Memory required for data: 2235671832
I0112 16:14:51.066066  8748 layer_factory.hpp:77] Creating layer detection_loss_4_3x5
I0112 16:14:51.066071  8748 net.cpp:100] Creating Layer detection_loss_4_3x5
I0112 16:14:51.066076  8748 net.cpp:434] detection_loss_4_3x5 <- LFCN_4_3x5_LFCN_4_3x5_0_split_0
I0112 16:14:51.066078  8748 net.cpp:434] detection_loss_4_3x5 <- label_4_3x5_data_7_split_0
I0112 16:14:51.066084  8748 net.cpp:408] detection_loss_4_3x5 -> loss_4_3x5
I0112 16:14:51.066092  8748 layer_factory.hpp:77] Creating layer detection_loss_4_3x5
I0112 16:14:51.066416  8748 net.cpp:150] Setting up detection_loss_4_3x5
I0112 16:14:51.066422  8748 net.cpp:157] Top shape: 1 1 1 2 (2)
I0112 16:14:51.066426  8748 net.cpp:160]     with loss weight 1
I0112 16:14:51.066432  8748 net.cpp:165] Memory required for data: 2235671840
I0112 16:14:51.066435  8748 layer_factory.hpp:77] Creating layer detection_accuracy_4_3x5
I0112 16:14:51.066442  8748 net.cpp:100] Creating Layer detection_accuracy_4_3x5
I0112 16:14:51.066444  8748 net.cpp:434] detection_accuracy_4_3x5 <- LFCN_4_3x5_LFCN_4_3x5_0_split_1
I0112 16:14:51.066448  8748 net.cpp:434] detection_accuracy_4_3x5 <- label_4_3x5_data_7_split_1
I0112 16:14:51.066454  8748 net.cpp:408] detection_accuracy_4_3x5 -> accuracy_4_3x5
I0112 16:14:51.066462  8748 net.cpp:408] detection_accuracy_4_3x5 -> boxiou_4_3x5
I0112 16:14:51.066501  8748 net.cpp:150] Setting up detection_accuracy_4_3x5
I0112 16:14:51.066506  8748 net.cpp:157] Top shape: 1 1 1 2 (2)
I0112 16:14:51.066510  8748 net.cpp:157] Top shape: 1 1 1 1 (1)
I0112 16:14:51.066512  8748 net.cpp:165] Memory required for data: 2235671852
I0112 16:14:51.066514  8748 net.cpp:228] detection_accuracy_4_3x5 does not need backward computation.
I0112 16:14:51.066517  8748 net.cpp:226] detection_loss_4_3x5 needs backward computation.
I0112 16:14:51.066521  8748 net.cpp:226] LFCN_4_3x5_LFCN_4_3x5_0_split needs backward computation.
I0112 16:14:51.066524  8748 net.cpp:226] LFCN_4_3x5 needs backward computation.
…
