…
    downsample_rate: 32
    downsample_rate: 32
    downsample_rate: 64
    coord_num: 4
    field_h: 60
    field_h: 84
    field_h: 120
    field_h: 168
    field_h: 240
    field_h: 336
    field_h: 480
    field_w: 40
    field_w: 56
    field_w: 80
    field_w: 112
    field_w: 160
    field_w: 224
    field_w: 320
    fg_threshold: 0.5
    resize_width: 1920
    resize_height: 576
    crop_width: 768
    crop_height: 576
    do_multiple_scale: true
    min_scale: 50
    max_scale: 420
    min_gt_height: 35
    shuffle: true
    output_gt_boxes: true
  }
}
layer {
  name: "conv1_1"
  type: "Convolution"
  bottom: "data"
  top: "conv1_1"
  param {
    lr_mult: 0
    decay_mult: 0
  }
  param {
    lr_mult: 0
    decay_mult: 0
  }
  convolution_param {
    num_output: 64
    pad: 1
    kernel_size: 3
  }
}
layer {
  name: "relu1_1"
  type: "ReLU"
  bottom: "conv1_1"
  top: "conv1_1"
}
layer {
  name: "conv1_2"
  type: "Convolution"
  bottom: "conv1_1"
  top: "conv1_2"
  param {
    lr_mult: 0
    decay_mult: 0
  }
  param {
    lr_mult: 0
    decay_mult: 0
  }
  convolution_param {
    num_output: 64
    pad: 1
    kernel_size: 3
  }
}
layer {
  name: "relu1_2"
  type: "ReLU"
  bottom: "conv1_2"
  top: "conv1_2"
}
layer {
  name: "pool1"
  type: "Pooling"
  bottom: "conv1_2"
  top: "pool1"
  pooling_param {
    pool: MAX
    kernel_size: 2
    stride: 2
  }
}
layer {
  name: "conv2_1"
  type: "Convolution"
  bottom: "pool1"
  top: "conv2_1"
  param {
    lr_mult: 0
    decay_mult: 0
  }
  param {
    lr_mult: 0
    decay_mult: 0
  }
  convolution_param {
    num_output: 128
    pad: 1
    kernel_size: 3
  }
}
layer {
  name: "relu2_1"
  type: "ReLU"
  bottom: "conv2_1"
  top: "conv2_1"
}
layer {
  name: "conv2_2"
  type: "Convolution"
  bottom: "conv2_1"
  top: "conv2_2"
  param {
    lr_mult: 0
    decay_mult: 0
  }
  param {
    lr_mult: 0
    decay_mult: 0
  }
  convolution_param {
    num_output: 128
    pad: 1
    kernel_size: 3
  }
}
layer {
  name: "relu2_2"
  type: "ReLU"
  bottom: "conv2_2"
  top: "conv2_2"
}
layer {
  name: "pool2"
  type: "Pooling"
  bottom: "conv2_2"
  top: "pool2"
  pooling_param {
    pool: MAX
    kernel_size: 2
    stride: 2
  }
}
layer {
  name: "conv3_1"
  type: "Convolution"
  bottom: "pool2"
  top: "conv3_1"
  convolution_param {
    num_output: 256
    pad: 1
    kernel_size: 3
  }
}
layer {
  name: "relu3_1"
  type: "ReLU"
  bottom: "conv3_1"
  top: "conv3_1"
}
layer {
  name: "conv3_2"
  type: "Convolution"
  bottom: "conv3_1"
  top: "conv3_2"
  convolution_param {
    num_output: 256
    pad: 1
    kernel_size: 3
  }
}
layer {
  name: "relu3_2"
  type: "ReLU"
  bottom: "conv3_2"
  top: "conv3_2"
}
layer {
  name: "conv3_3"
  type: "Convolution"
  bottom: "conv3_2"
  top: "conv3_3"
  convolution_param {
    num_output: 256
    pad: 1
    kernel_size: 3
  }
}
layer {
  name: "relu3_3"
  type: "ReLU"
  bottom: "conv3_3"
  top: "conv3_3"
}
layer {
  name: "pool3"
  type: "Pooling"
  bottom: "conv3_3"
  top: "pool3"
  pooling_param {
    pool: MAX
    kernel_size: 2
    stride: 2
  }
}
layer {
  name: "conv4_1"
  type: "Convolution"
  bottom: "pool3"
  top: "conv4_1"
  convolution_param {
    num_output: 512
    pad: 1
    kernel_size: 3
  }
}
layer {
  name: "relu4_1"
  type: "ReLU"
  bottom: "conv4_1"
  top: "conv4_1"
}
layer {
  name: "conv4_2"
  type: "Convolution"
  bottom: "conv4_1"
  top: "conv4_2"
  convolution_param {
    num_output: 512
    pad: 1
    kernel_size: 3
  }
}
layer {
  name: "relu4_2"
  type: "ReLU"
  bottom: "conv4_2"
  top: "conv4_2"
}
layer {
  name: "conv4_3"
  type: "Convolution"
  bottom: "conv4_2"
  top: "conv4_3"
  convolution_param {
    num_output: 512
    pad: 1
    kernel_size: 3
  }
}
layer {
  name: "relu4_3"
  type: "ReLU"
  bottom: "conv4_3"
  top: "conv4_3"
}
layer {
  name: "loss1_conv1"
  type: "Convolution"
  bottom: "conv4_3"
  top: "loss1_conv1"
  param {
    lr_mult: 1
    decay_mult: 1
  }
  param {
    lr_mult: 2
    decay_mult: 0
  }
  convolution_param {
    num_output: 512
    pad: 1
    kernel_size: 3
    weight_filler {
      type: "gaussian"
      std: 0.01
    }
    bias_filler {
      type: "constant"
    }
  }
}
layer {
  name: "loss_relu1"
  type: "ReLU"
  bottom: "loss1_conv1"
  top: "loss1_conv1"
}
layer {
  name: "LFCN_1_3x5"
  type: "Convolution"
  bottom: "loss1_conv1"
  top: "LFCN_1_3x5"
  param {
    lr_mult: 1
    decay_mult: 1
  }
  param {
    lr_mult: 2
    decay_mult: 0
  }
  convolution_param {
    num_output: 7
    weight_filler {
      type: "gaussian"
      std: 0.001
    }
    bias_filler {
      type: "constant"
    }
    pad_h: 2
    pad_w: 1
    kernel_h: 5
    kernel_w: 3
  }
}
layer {
  name: "detection_loss_1_3x5"
  type: "DetectionLoss"
  bottom: "LFCN_1_3x5"
  bottom: "label_1_3x5"
  top: "loss_1_3x5"
  loss_weight: 0.5
  detection_loss_param {
    cls_num: 3
    coord_num: 4
    lambda: 1
    field_h: 60
    field_w: 40
    downsample_rate: 8
    bb_smooth: true
    field_whr: 2
    field_xyr: 2
    bg_threshold: 0.2
    bg_multiple: 2
    sample_mode: "bootstrap"
    pos_neg_weighted: true
  }
}
layer {
  name: "detection_accuracy_1_3x5"
  type: "DetectionAccuracy"
  bottom: "LFCN_1_3x5"
  bottom: "label_1_3x5"
  top: "accuracy_1_3x5"
  top: "boxiou_1_3x5"
  detection_accuracy_param {
    cls_num: 3
    coord_num: 4
    field_h: 60
    field_w: 40
    downsample_rate: 8
    field_whr: 2
    field_xyr: 2
  }
}
layer {
  name: "LFCN_1_5x7"
  type: "Convolution"
  bottom: "loss1_conv1"
  top: "LFCN_1_5x7"
  param {
    lr_mult: 1
    decay_mult: 1
  }
  param {
    lr_mult: 2
    decay_mult: 0
  }
  convolution_param {
    num_output: 7
    weight_filler {
      type: "gaussian"
      std: 0.001
    }
    bias_filler {
      type: "constant"
    }
    pad_h: 3
    pad_w: 2
    kernel_h: 7
    kernel_w: 5
  }
}
layer {
  name: "detection_loss_1_5x7"
  type: "DetectionLoss"
  bottom: "LFCN_1_5x7"
  bottom: "label_1_5x7"
  top: "loss_1_5x7"
  loss_weight: 0.9
  detection_loss_param {
    cls_num: 3
    coord_num: 4
    lambda: 1
    field_h: 84
    field_w: 56
    downsample_rate: 8
    bb_smooth: true
    field_whr: 2
    field_xyr: 2
    bg_threshold: 0.2
    bg_multiple: 2
    sample_mode: "bootstrap"
    pos_neg_weighted: true
  }
}
layer {
  name: "detection_accuracy_1_5x7"
  type: "DetectionAccuracy"
  bottom: "LFCN_1_5x7"
  bottom: "label_1_5x7"
  top: "accuracy_1_5x7"
  top: "boxiou_1_5x7"
  detection_accuracy_param {
    cls_num: 3
    coord_num: 4
    field_h: 84
    field_w: 56
    downsample_rate: 8
    field_whr: 2
    field_xyr: 2
  }
}
layer {
  name: "pool4"
  type: "Pooling"
  bottom: "conv4_3"
  top: "pool4"
  pooling_param {
    pool: MAX
    kernel_size: 2
    stride: 2
  }
}
layer {
  name: "conv5_1"
  type: "Convolution"
  bottom: "pool4"
  top: "conv5_1"
  convolution_param {
    num_output: 512
    pad: 1
    kernel_size: 3
  }
}
layer {
  name: "relu5_1"
  type: "ReLU"
  bottom: "conv5_1"
  top: "conv5_1"
}
layer {
  name: "conv5_2"
  type: "Convolution"
  bottom: "conv5_1"
  top: "conv5_2"
  convolution_param {
    num_output: 512
    pad: 1
    kernel_size: 3
  }
}
layer {
  name: "relu5_2"
  type: "ReLU"
  bottom: "conv5_2"
  top: "conv5_2"
}
layer {
  name: "conv5_3"
  type: "Convolution"
  bottom: "conv5_2"
  top: "conv5_3"
  convolution_param {
    num_output: 512
    pad: 1
    kernel_size: 3
  }
}
layer {
  name: "relu5_3"
  type: "ReLU"
  bottom: "conv5_3"
  top: "conv5_3"
}
layer {
  name: "LFCN_2_3x5"
  type: "Convolution"
  bottom: "conv5_3"
  top: "LFCN_2_3x5"
  param {
    lr_mult: 1
    decay_mult: 1
  }
  param {
    lr_mult: 2
    decay_mult: 0
  }
  convolution_param {
    num_output: 7
    weight_filler {
      type: "gaussian"
      std: 0.001
    }
    bias_filler {
      type: "constant"
    }
    pad_h: 2
    pad_w: 1
    kernel_h: 5
    kernel_w: 3
  }
}
layer {
  name: "detection_loss_2_3x5"
  type: "DetectionLoss"
  bottom: "LFCN_2_3x5"
  bottom: "label_2_3x5"
  top: "loss_2_3x5"
  detection_loss_param {
    cls_num: 3
    coord_num: 4
    lambda: 1
    field_h: 120
    field_w: 80
    downsample_rate: 16
    bb_smooth: true
    field_whr: 2
    field_xyr: 2
    bg_threshold: 0.2
    bg_multiple: 2
    sample_mode: "bootstrap"
    pos_neg_weighted: true
  }
}
layer {
  name: "detection_accuracy_2_3x5"
  type: "DetectionAccuracy"
  bottom: "LFCN_2_3x5"
  bottom: "label_2_3x5"
  top: "accuracy_2_3x5"
  top: "boxiou_2_3x5"
  detection_accuracy_param {
    cls_num: 3
    coord_num: 4
    field_h: 120
    field_w: 80
    downsample_rate: 16
    field_whr: 2
    field_xyr: 2
  }
}
layer {
  name: "LFCN_2_5x7"
  type: "Convolution"
  bottom: "conv5_3"
  top: "LFCN_2_5x7"
  param {
    lr_mult: 1
    decay_mult: 1
  }
  param {
    lr_mult: 2
    decay_mult: 0
  }
  convolution_param {
    num_output: 7
    weight_filler {
      type: "gaussian"
      std: 0.001
    }
    bias_filler {
      type: "constant"
    }
    pad_h: 3
    pad_w: 2
    kernel_h: 7
    kernel_w: 5
  }
}
layer {
  name: "detection_loss_2_5x7"
  type: "DetectionLoss"
  bottom: "LFCN_2_5x7"
  bottom: "label_2_5x7"
  top: "loss_2_5x7"
  detection_loss_param {
    cls_num: 3
    coord_num: 4
    lambda: 1
    field_h: 168
    field_w: 112
    downsample_rate: 16
    bb_smooth: true
    field_whr: 2
    field_xyr: 2
    bg_threshold: 0.2
    bg_multiple: 2
    sample_mode: "bootstrap"
    pos_neg_weighted: true
  }
}
layer {
  name: "detection_accuracy_2_5x7"
  type: "DetectionAccuracy"
  bottom: "LFCN_2_5x7"
  bottom: "label_2_5x7"
  top: "accuracy_2_5x7"
  top: "boxiou_2_5x7"
  detection_accuracy_param {
    cls_num: 3
    coord_num: 4
    field_h: 168
    field_w: 112
    downsample_rate: 16
    field_whr: 2
    field_xyr: 2
  }
}
layer {
  name: "pool5"
  type: "Pooling"
  bottom: "conv5_3"
  top: "pool5"
  pooling_param {
    pool: MAX
    kernel_size: 2
    stride: 2
  }
}
layer {
  name: "conv6_1"
  type: "Convolution"
  bottom: "pool5"
  top: "conv6_1"
  param {
    lr_mult: 1
    decay_mult: 1
  }
  param {
    lr_mult: 2
    decay_mult: 0
  }
  convolution_param {
    num_output: 512
    pad: 1
    kernel_size: 3
    weight_filler {
      type: "gaussian"
      std: 0.01
    }
    bias_filler {
      type: "constant"
    }
  }
}
layer {
  name: "relu6_1"
  type: "ReLU"
  bottom: "conv6_1"
  top: "conv6_1"
}
layer {
  name: "LFCN_3_3x5"
  type: "Convolution"
  bottom: "conv6_1"
  top: "LFCN_3_3x5"
  param {
    lr_mult: 1
    decay_mult: 1
  }
  param {
    lr_mult: 2
    decay_mult: 0
  }
  convolution_param {
    num_output: 7
    weight_filler {
      type: "gaussian"
      std: 0.001
    }
    bias_filler {
      type: "constant"
    }
    pad_h: 2
    pad_w: 1
    kernel_h: 5
    kernel_w: 3
  }
}
layer {
  name: "detection_loss_3_3x5"
  type: "DetectionLoss"
  bottom: "LFCN_3_3x5"
  bottom: "label_3_3x5"
  top: "loss_3_3x5"
  detection_loss_param {
    cls_num: 3
    coord_num: 4
    lambda: 1
    field_h: 240
    field_w: 160
    downsample_rate: 32
    bb_smooth: true
    field_whr: 2
    field_xyr: 2
    bg_threshold: 0.2
    bg_multiple: 2
    sample_mode: "bootstrap"
    pos_neg_weighted: true
  }
}
layer {
  name: "detection_accuracy_3_3x5"
  type: "DetectionAccuracy"
  bottom: "LFCN_3_3x5"
  bottom: "label_3_3x5"
  top: "accuracy_3_3x5"
  top: "boxiou_3_3x5"
  detection_accuracy_param {
    cls_num: 3
    coord_num: 4
    field_h: 240
    field_w: 160
    downsample_rate: 32
    field_whr: 2
    field_xyr: 2
  }
}
layer {
  name: "LFCN_3_5x7"
  type: "Convolution"
  bottom: "conv6_1"
  top: "LFCN_3_5x7"
  param {
    lr_mult: 1
    decay_mult: 1
  }
  param {
    lr_mult: 2
    decay_mult: 0
  }
  convolution_param {
    num_output: 7
    weight_filler {
      type: "gaussian"
      std: 0.001
    }
    bias_filler {
      type: "constant"
    }
    pad_h: 3
    pad_w: 2
    kernel_h: 7
    kernel_w: 5
  }
}
layer {
  name: "detection_loss_3_5x7"
  type: "DetectionLoss"
  bottom: "LFCN_3_5x7"
  bottom: "label_3_5x7"
  top: "loss_3_5x7"
  detection_loss_param {
    cls_num: 3
    coord_num: 4
    lambda: 1
    field_h: 336
    field_w: 224
    downsample_rate: 32
    bb_smooth: true
    field_whr: 2
    field_xyr: 2
    bg_threshold: 0.2
    bg_multiple: 2
    sample_mode: "bootstrap"
    pos_neg_weighted: true
  }
}
layer {
  name: "detection_accuracy_3_5x7"
  type: "DetectionAccuracy"
  bottom: "LFCN_3_5x7"
  bottom: "label_3_5x7"
  top: "accuracy_3_5x7"
  top: "boxiou_3_5x7"
  detection_accuracy_param {
    cls_num: 3
    coord_num: 4
    field_h: 336
    field_w: 224
    downsample_rate: 32
    field_whr: 2
    field_xyr: 2
  }
}
layer {
  name: "pool6"
  type: "Pooling"
  bottom: "conv6_1"
  top: "pool6"
  pooling_param {
    pool: MAX
    kernel_size: 2
    stride: 2
  }
}
layer {
  name: "LFCN_4_3x5"
  type: "Convolution"
  bottom: "pool6"
  top: "LFCN_4_3x5"
  param {
    lr_mult: 1
    decay_mult: 1
  }
  param {
    lr_mult: 2
    decay_mult: 0
  }
  convolution_param {
    num_output: 7
    weight_filler {
      type: "gaussian"
      std: 0.001
    }
    bias_filler {
      type: "constant"
    }
    pad_h: 2
    pad_w: 1
    kernel_h: 5
    kernel_w: 3
  }
}
layer {
  name: "detection_loss_4_3x5"
  type: "DetectionLoss"
  bottom: "LFCN_4_3x5"
  bottom: "label_4_3x5"
  top: "loss_4_3x5"
  detection_loss_param {
    cls_num: 3
    coord_num: 4
    lambda: 1
    field_h: 480
    field_w: 320
    downsample_rate: 64
    bb_smooth: true
    field_whr: 2
    field_xyr: 2
    bg_threshold: 0.2
    bg_multiple: 2
    sample_mode: "bootstrap"
    pos_neg_weighted: true
  }
}
layer {
  name: "detection_accuracy_4_3x5"
  type: "DetectionAccuracy"
  bottom: "LFCN_4_3x5"
  bottom: "label_4_3x5"
  top: "accuracy_4_3x5"
  top: "boxiou_4_3x5"
  detection_accuracy_param {
    cls_num: 3
    coord_num: 4
    field_h: 480
    field_w: 320
    downsample_rate: 64
    field_whr: 2
    field_xyr: 2
  }
}
layer {
  name: "proposals"
  type: "BoxOutput"
  bottom: "LFCN_1_3x5"
  bottom: "LFCN_1_5x7"
  bottom: "LFCN_2_3x5"
  bottom: "LFCN_2_5x7"
  bottom: "LFCN_3_3x5"
  bottom: "LFCN_3_5x7"
  bottom: "LFCN_4_3x5"
  top: "proposals"
  propagate_down: false
  propagate_down: false
  propagate_down: false
  propagate_down: false
  propagate_down: false
  propagate_down: false
  propagate_down: false
  box_output_param {
    fg_thr: -15
    iou_thr: 0.65
    nms_type: "IOU"
    field_h: 60
    field_h: 84
    field_h: 120
    field_h: 168
    field_h: 240
    field_h: 336
    field_h: 480
    field_w: 40
    field_w: 56
    field_w: 80
    field_w: 112
    field_w: 160
    field_w: 224
    field_w: 320
    downsample_rate: 8
    downsample_rate: 8
    downsample_rate: 16
    downsample_rate: 16
    downsample_rate: 32
    downsample_rate: 32
    downsample_rate: 64
    field_whr: 2
    field_xyr: 2
    max_nms_num: 3000
  }
}
layer {
  name: "proposal_info"
  type: "ProposalTarget"
  bottom: "proposals"
  bottom: "gt_boxes"
  top: "rois"
  top: "proposal_labels"
  top: "proposal_targets"
  top: "box_inside_weights"
  top: "box_outside_weights"
  top: "match_gt_boxes"
  include {
    phase: TRAIN
  }
  propagate_down: false
  propagate_down: false
  proposal_target_param {
    cls_num: 3
    batch_size: 128
    fg_fraction: 0.25
    num_img_per_batch: 4
    fg_thr: 0.5
    bg_thr_hg: 0.45
    bg_thr_lw: 0.05
    img_width: 768
    img_height: 576
  }
  bbox_reg_param {
    bbox_mean: 0
    bbox_mean: 0
    bbox_mean: 0
    bbox_mean: 0
    bbox_std: 0.1
    bbox_std: 0.1
    bbox_std: 0.2
    bbox_std: 0.2
  }
}
layer {
  name: "conv4_3_2x"
  type: "Deconvolution"
  bottom: "conv4_3"
  top: "conv4_3_2x"
  param {
    lr_mult: 0
    decay_mult: 0
  }
  convolution_param {
    num_output: 512
    bias_term: false
    pad: 1
    kernel_size: 4
    group: 512
    stride: 2
    weight_filler {
      type: "bilinear"
    }
  }
}
layer {
  name: "roi_pool_org"
  type: "ROIPooling"
  bottom: "conv4_3_2x"
  bottom: "rois"
  top: "roi_pool_org"
  roi_pooling_param {
    pooled_h: 7
    pooled_w: 5
    spatial_scale: 0.25
    pad_ratio: 0
  }
}
layer {
  name: "roi_pool_ctx"
  type: "ROIPooling"
  bottom: "conv4_3_2x"
  bottom: "rois"
  top: "roi_pool_ctx"
  roi_pooling_param {
    pooled_h: 7
    pooled_w: 5
    spatial_scale: 0.25
    pad_ratio: 0.25
  }
}
layer {
  name: "roi_pool"
  type: "Concat"
  bottom: "roi_pool_org"
  bottom: "roi_pool_ctx"
  top: "roi_pool"
}
layer {
  name: "roi_c1"
  type: "Convolution"
  bottom: "roi_pool"
  top: "roi_c1"
  param {
    lr_mult: 1
    decay_mult: 1
  }
  param {
    lr_mult: 2
    decay_mult: 0
  }
  convolution_param {
    num_output: 512
    kernel_size: 3
    weight_filler {
      type: "gaussian"
      std: 0.01
    }
    bias_filler {
      type: "constant"
    }
  }
}
layer {
  name: "roi_c1_relu"
  type: "ReLU"
  bottom: "roi_c1"
  top: "roi_c1"
}
layer {
  name: "fc6"
  type: "InnerProduct"
  bottom: "roi_c1"
  top: "fc6"
  param {
    lr_mult: 1
  }
  param {
    lr_mult: 2
  }
  inner_product_param {
    num_output: 2048
    weight_filler {
      type: "gaussian"
      std: 0.001
    }
    bias_filler {
      type: "constant"
      value: 0
    }
  }
}
layer {
  name: "relu6"
  type: "ReLU"
  bottom: "fc6"
  top: "fc6"
}
layer {
  name: "drop6"
  type: "Dropout"
  bottom: "fc6"
  top: "fc6"
  dropout_param {
    dropout_ratio: 0.5
  }
}
layer {
  name: "cls_pred"
  type: "InnerProduct"
  bottom: "fc6"
  top: "cls_pred"
  param {
    lr_mult: 1
  }
  param {
    lr_mult: 2
  }
  inner_product_param {
    num_output: 3
    weight_filler {
      type: "gaussian"
      std: 0.01
    }
    bias_filler {
      type: "constant"
      value: 0
    }
  }
}
layer {
  name: "bbox_pred"
  type: "InnerProduct"
  bottom: "fc6"
  top: "bbox_pred"
  param {
    lr_mult: 1
  }
  param {
    lr_mult: 2
  }
  inner_product_param {
    num_output: 12
    weight_filler {
      type: "gaussian"
      std: 0.001
    }
    bias_filler {
      type: "constant"
      value: 0
    }
  }
}
layer {
  name: "loss_cls"
  type: "SoftmaxWithLoss"
  bottom: "cls_pred"
  bottom: "proposal_labels"
  top: "loss_cls"
  loss_weight: 1
  propagate_down: true
  propagate_down: false
}
layer {
  name: "cls_accuracy"
  type: "Accuracy"
  bottom: "cls_pred"
  bottom: "proposal_labels"
  top: "cls_accuracy"
}
layer {
  name: "loss_bbox"
  type: "SmoothL1Loss"
  bottom: "bbox_pred"
  bottom: "proposal_targets"
  bottom: "box_inside_weights"
  bottom: "box_outside_weights"
  top: "loss_bbox"
  loss_weight: 1
}
layer {
  name: "bbox_iou"
  type: "BboxAccuracy"
  bottom: "bbox_pred"
  bottom: "rois"
  bottom: "match_gt_boxes"
  top: "bbox_iou"
  top: "bbox_iou_pre"
  bbox_reg_param {
    bbox_mean: 0
    bbox_mean: 0
    bbox_mean: 0
    bbox_mean: 0
    bbox_std: 0.1
    bbox_std: 0.1
    bbox_std: 0.2
    bbox_std: 0.2
  }
}
I0113 00:22:43.768368 11046 layer_factory.hpp:77] Creating layer data
I0113 00:22:43.768394 11046 net.cpp:100] Creating Layer data
I0113 00:22:43.768400 11046 net.cpp:408] data -> data
…
I0113 00:22:43.793606 11046 image_gt_data_layer.cpp:235] output label size 2 : 4,6,36,48
I0113 00:22:43.793637 11046 image_gt_data_layer.cpp:235] output label size 3 : 4,6,36,48
I0113 00:22:43.793668 11046 image_gt_data_layer.cpp:235] output label size 4 : 4,6,18,24
I0113 00:22:43.793699 11046 image_gt_data_layer.cpp:235] output label size 5 : 4,6,18,24
I0113 00:22:43.793730 11046 image_gt_data_layer.cpp:235] output label size 6 : 4,6,9,12
I0113 00:22:43.793761 11046 image_gt_data_layer.cpp:250] output gt boxes size: 1,7,1,1
I0113 00:22:43.824662 11046 net.cpp:150] Setting up data
I0113 00:22:43.824687 11046 net.cpp:157] Top shape: 4 3 576 768 (5308416)
I0113 00:22:43.824692 11046 net.cpp:157] Top shape: 4 6 72 96 (165888)
I0113 00:22:43.824694 11046 net.cpp:157] Top shape: 4 6 72 96 (165888)
I0113 00:22:43.824697 11046 net.cpp:157] Top shape: 4 6 36 48 (41472)
I0113 00:22:43.824700 11046 net.cpp:157] Top shape: 4 6 36 48 (41472)
I0113 00:22:43.824703 11046 net.cpp:157] Top shape: 4 6 18 24 (10368)
I0113 00:22:43.824707 11046 net.cpp:157] Top shape: 4 6 18 24 (10368)
I0113 00:22:43.824709 11046 net.cpp:157] Top shape: 4 6 9 12 (2592)
I0113 00:22:43.824714 11046 net.cpp:157] Top shape: 1 7 1 1 (7)
I0113 00:22:43.824717 11046 net.cpp:165] Memory required for data: 22985884
I0113 00:22:43.824724 11046 layer_factory.hpp:77] Creating layer label_1_3x5_data_1_split
I0113 00:22:43.824738 11046 net.cpp:100] Creating Layer label_1_3x5_data_1_split
I0113 00:22:43.824744 11046 net.cpp:434] label_1_3x5_data_1_split <- label_1_3x5
I0113 00:22:43.824759 11046 net.cpp:408] label_1_3x5_data_1_split -> label_1_3x5_data_1_split_0
I0113 00:22:43.824769 11046 net.cpp:408] label_1_3x5_data_1_split -> label_1_3x5_data_1_split_1
I0113 00:22:43.824843 11046 net.cpp:150] Setting up label_1_3x5_data_1_split
I0113 00:22:43.824851 11046 net.cpp:157] Top shape: 4 6 72 96 (165888)
I0113 00:22:43.824852 11046 net.cpp:157] Top shape: 4 6 72 96 (165888)
I0113 00:22:43.824856 11046 net.cpp:165] Memory required for data: 24312988
I0113 00:22:43.824858 11046 layer_factory.hpp:77] Creating layer label_1_5x7_data_2_split
I0113 00:22:43.824864 11046 net.cpp:100] Creating Layer label_1_5x7_data_2_split
I0113 00:22:43.824867 11046 net.cpp:434] label_1_5x7_data_2_split <- label_1_5x7
I0113 00:22:43.824872 11046 net.cpp:408] label_1_5x7_data_2_split -> label_1_5x7_data_2_split_0
I0113 00:22:43.824879 11046 net.cpp:408] label_1_5x7_data_2_split -> label_1_5x7_data_2_split_1
I0113 00:22:43.824930 11046 net.cpp:150] Setting up label_1_5x7_data_2_split
I0113 00:22:43.824935 11046 net.cpp:157] Top shape: 4 6 72 96 (165888)
I0113 00:22:43.824939 11046 net.cpp:157] Top shape: 4 6 72 96 (165888)
I0113 00:22:43.824940 11046 net.cpp:165] Memory required for data: 25640092
I0113 00:22:43.824944 11046 layer_factory.hpp:77] Creating layer label_2_3x5_data_3_split
I0113 00:22:43.824947 11046 net.cpp:100] Creating Layer label_2_3x5_data_3_split
I0113 00:22:43.824950 11046 net.cpp:434] label_2_3x5_data_3_split <- label_2_3x5
I0113 00:22:43.824955 11046 net.cpp:408] label_2_3x5_data_3_split -> label_2_3x5_data_3_split_0
I0113 00:22:43.824961 11046 net.cpp:408] label_2_3x5_data_3_split -> label_2_3x5_data_3_split_1
I0113 00:22:43.824996 11046 net.cpp:150] Setting up label_2_3x5_data_3_split
I0113 00:22:43.825001 11046 net.cpp:157] Top shape: 4 6 36 48 (41472)
I0113 00:22:43.825003 11046 net.cpp:157] Top shape: 4 6 36 48 (41472)
I0113 00:22:43.825006 11046 net.cpp:165] Memory required for data: 25971868
I0113 00:22:43.825008 11046 layer_factory.hpp:77] Creating layer label_2_5x7_data_4_split
I0113 00:22:43.825012 11046 net.cpp:100] Creating Layer label_2_5x7_data_4_split
I0113 00:22:43.825017 11046 net.cpp:434] label_2_5x7_data_4_split <- label_2_5x7
I0113 00:22:43.825021 11046 net.cpp:408] label_2_5x7_data_4_split -> label_2_5x7_data_4_split_0
I0113 00:22:43.825027 11046 net.cpp:408] label_2_5x7_data_4_split -> label_2_5x7_data_4_split_1
I0113 00:22:43.825054 11046 net.cpp:150] Setting up label_2_5x7_data_4_split
I0113 00:22:43.825059 11046 net.cpp:157] Top shape: 4 6 36 48 (41472)
I0113 00:22:43.825062 11046 net.cpp:157] Top shape: 4 6 36 48 (41472)
I0113 00:22:43.825065 11046 net.cpp:165] Memory required for data: 26303644
I0113 00:22:43.825067 11046 layer_factory.hpp:77] Creating layer label_3_3x5_data_5_split
I0113 00:22:43.825074 11046 net.cpp:100] Creating Layer label_3_3x5_data_5_split
I0113 00:22:43.825078 11046 net.cpp:434] label_3_3x5_data_5_split <- label_3_3x5
I0113 00:22:43.825083 11046 net.cpp:408] label_3_3x5_data_5_split -> label_3_3x5_data_5_split_0
I0113 00:22:43.825088 11046 net.cpp:408] label_3_3x5_data_5_split -> label_3_3x5_data_5_split_1
I0113 00:22:43.825109 11046 net.cpp:150] Setting up label_3_3x5_data_5_split
I0113 00:22:43.825114 11046 net.cpp:157] Top shape: 4 6 18 24 (10368)
I0113 00:22:43.825117 11046 net.cpp:157] Top shape: 4 6 18 24 (10368)
I0113 00:22:43.825119 11046 net.cpp:165] Memory required for data: 26386588
I0113 00:22:43.825121 11046 layer_factory.hpp:77] Creating layer label_3_5x7_data_6_split
I0113 00:22:43.825125 11046 net.cpp:100] Creating Layer label_3_5x7_data_6_split
I0113 00:22:43.825127 11046 net.cpp:434] label_3_5x7_data_6_split <- label_3_5x7
I0113 00:22:43.825131 11046 net.cpp:408] label_3_5x7_data_6_split -> label_3_5x7_data_6_split_0
I0113 00:22:43.825136 11046 net.cpp:408] label_3_5x7_data_6_split -> label_3_5x7_data_6_split_1
I0113 00:22:43.825158 11046 net.cpp:150] Setting up label_3_5x7_data_6_split
I0113 00:22:43.825162 11046 net.cpp:157] Top shape: 4 6 18 24 (10368)
I0113 00:22:43.825165 11046 net.cpp:157] Top shape: 4 6 18 24 (10368)
I0113 00:22:43.825167 11046 net.cpp:165] Memory required for data: 26469532
I0113 00:22:43.825170 11046 layer_factory.hpp:77] Creating layer label_4_3x5_data_7_split
I0113 00:22:43.825175 11046 net.cpp:100] Creating Layer label_4_3x5_data_7_split
I0113 00:22:43.825177 11046 net.cpp:434] label_4_3x5_data_7_split <- label_4_3x5
I0113 00:22:43.825181 11046 net.cpp:408] label_4_3x5_data_7_split -> label_4_3x5_data_7_split_0
I0113 00:22:43.825186 11046 net.cpp:408] label_4_3x5_data_7_split -> label_4_3x5_data_7_split_1
I0113 00:22:43.825208 11046 net.cpp:150] Setting up label_4_3x5_data_7_split
I0113 00:22:43.825213 11046 net.cpp:157] Top shape: 4 6 9 12 (2592)
I0113 00:22:43.825215 11046 net.cpp:157] Top shape: 4 6 9 12 (2592)
I0113 00:22:43.825217 11046 net.cpp:165] Memory required for data: 26490268
I0113 00:22:43.825219 11046 layer_factory.hpp:77] Creating layer conv1_1
I0113 00:22:43.825232 11046 net.cpp:100] Creating Layer conv1_1
I0113 00:22:43.825235 11046 net.cpp:434] conv1_1 <- data
I0113 00:22:43.825239 11046 net.cpp:408] conv1_1 -> conv1_1
I0113 00:22:44.081403 11046 net.cpp:150] Setting up conv1_1
I0113 00:22:44.081425 11046 net.cpp:157] Top shape: 4 64 576 768 (113246208)
I0113 00:22:44.081429 11046 net.cpp:165] Memory required for data: 479475100
I0113 00:22:44.081447 11046 layer_factory.hpp:77] Creating layer relu1_1
I0113 00:22:44.081456 11046 net.cpp:100] Creating Layer relu1_1
I0113 00:22:44.081459 11046 net.cpp:434] relu1_1 <- conv1_1
I0113 00:22:44.081465 11046 net.cpp:395] relu1_1 -> conv1_1 (in-place)
I0113 00:22:44.081609 11046 net.cpp:150] Setting up relu1_1
I0113 00:22:44.081616 11046 net.cpp:157] Top shape: 4 64 576 768 (113246208)
I0113 00:22:44.081619 11046 net.cpp:165] Memory required for data: 932459932
I0113 00:22:44.081621 11046 layer_factory.hpp:77] Creating layer conv1_2
I0113 00:22:44.081630 11046 net.cpp:100] Creating Layer conv1_2
I0113 00:22:44.081634 11046 net.cpp:434] conv1_2 <- conv1_1
I0113 00:22:44.081638 11046 net.cpp:408] conv1_2 -> conv1_2
I0113 00:22:44.083822 11046 net.cpp:150] Setting up conv1_2
I0113 00:22:44.083833 11046 net.cpp:157] Top shape: 4 64 576 768 (113246208)
I0113 00:22:44.083837 11046 net.cpp:165] Memory required for data: 1385444764
I0113 00:22:44.083844 11046 layer_factory.hpp:77] Creating layer relu1_2
I0113 00:22:44.083849 11046 net.cpp:100] Creating Layer relu1_2
I0113 00:22:44.083851 11046 net.cpp:434] relu1_2 <- conv1_2
I0113 00:22:44.083858 11046 net.cpp:395] relu1_2 -> conv1_2 (in-place)
I0113 00:22:44.084009 11046 net.cpp:150] Setting up relu1_2
I0113 00:22:44.084017 11046 net.cpp:157] Top shape: 4 64 576 768 (113246208)
I0113 00:22:44.084020 11046 net.cpp:165] Memory required for data: 1838429596
I0113 00:22:44.084025 11046 layer_factory.hpp:77] Creating layer pool1
I0113 00:22:44.084033 11046 net.cpp:100] Creating Layer pool1
I0113 00:22:44.084038 11046 net.cpp:434] pool1 <- conv1_2
I0113 00:22:44.084044 11046 net.cpp:408] pool1 -> pool1
I0113 00:22:44.084089 11046 net.cpp:150] Setting up pool1
I0113 00:22:44.084095 11046 net.cpp:157] Top shape: 4 64 288 384 (28311552)
I0113 00:22:44.084097 11046 net.cpp:165] Memory required for data: 1951675804
I0113 00:22:44.084100 11046 layer_factory.hpp:77] Creating layer conv2_1
I0113 00:22:44.084108 11046 net.cpp:100] Creating Layer conv2_1
I0113 00:22:44.084113 11046 net.cpp:434] conv2_1 <- pool1
I0113 00:22:44.084120 11046 net.cpp:408] conv2_1 -> conv2_1
I0113 00:22:44.086109 11046 net.cpp:150] Setting up conv2_1
I0113 00:22:44.086122 11046 net.cpp:157] Top shape: 4 128 288 384 (56623104)
I0113 00:22:44.086123 11046 net.cpp:165] Memory required for data: 2178168220
I0113 00:22:44.086132 11046 layer_factory.hpp:77] Creating layer relu2_1
I0113 00:22:44.086138 11046 net.cpp:100] Creating Layer relu2_1
I0113 00:22:44.086143 11046 net.cpp:434] relu2_1 <- conv2_1
I0113 00:22:44.086146 11046 net.cpp:395] relu2_1 -> conv2_1 (in-place)
I0113 00:22:44.086290 11046 net.cpp:150] Setting up relu2_1
I0113 00:22:44.086297 11046 net.cpp:157] Top shape: 4 128 288 384 (56623104)
I0113 00:22:44.086300 11046 net.cpp:165] Memory required for data: 2404660636
I0113 00:22:44.086302 11046 layer_factory.hpp:77] Creating layer conv2_2
I0113 00:22:44.086311 11046 net.cpp:100] Creating Layer conv2_2
I0113 00:22:44.086315 11046 net.cpp:434] conv2_2 <- conv2_1
I0113 00:22:44.086321 11046 net.cpp:408] conv2_2 -> conv2_2
I0113 00:22:44.087640 11046 net.cpp:150] Setting up conv2_2
I0113 00:22:44.087652 11046 net.cpp:157] Top shape: 4 128 288 384 (56623104)
I0113 00:22:44.087658 11046 net.cpp:165] Memory required for data: 2631153052
I0113 00:22:44.087666 11046 layer_factory.hpp:77] Creating layer relu2_2
I0113 00:22:44.087679 11046 net.cpp:100] Creating Layer relu2_2
I0113 00:22:44.087683 11046 net.cpp:434] relu2_2 <- conv2_2
I0113 00:22:44.087688 11046 net.cpp:395] relu2_2 -> conv2_2 (in-place)
I0113 00:22:44.087838 11046 net.cpp:150] Setting up relu2_2
I0113 00:22:44.087846 11046 net.cpp:157] Top shape: 4 128 288 384 (56623104)
I0113 00:22:44.087847 11046 net.cpp:165] Memory required for data: 2857645468
I0113 00:22:44.087852 11046 layer_factory.hpp:77] Creating layer pool2
I0113 00:22:44.087855 11046 net.cpp:100] Creating Layer pool2
I0113 00:22:44.087858 11046 net.cpp:434] pool2 <- conv2_2
I0113 00:22:44.087865 11046 net.cpp:408] pool2 -> pool2
I0113 00:22:44.087905 11046 net.cpp:150] Setting up pool2
I0113 00:22:44.087910 11046 net.cpp:157] Top shape: 4 128 144 192 (14155776)
I0113 00:22:44.087914 11046 net.cpp:165] Memory required for data: 2914268572
I0113 00:22:44.087918 11046 layer_factory.hpp:77] Creating layer conv3_1
I0113 00:22:44.087927 11046 net.cpp:100] Creating Layer conv3_1
I0113 00:22:44.087931 11046 net.cpp:434] conv3_1 <- pool2
I0113 00:22:44.087936 11046 net.cpp:408] conv3_1 -> conv3_1
I0113 00:22:44.090378 11046 net.cpp:150] Setting up conv3_1
I0113 00:22:44.090396 11046 net.cpp:157] Top shape: 4 256 144 192 (28311552)
I0113 00:22:44.090399 11046 net.cpp:165] Memory required for data: 3027514780
I0113 00:22:44.090411 11046 layer_factory.hpp:77] Creating layer relu3_1
I0113 00:22:44.090418 11046 net.cpp:100] Creating Layer relu3_1
I0113 00:22:44.090423 11046 net.cpp:434] relu3_1 <- conv3_1
I0113 00:22:44.090427 11046 net.cpp:395] relu3_1 -> conv3_1 (in-place)
I0113 00:22:44.090862 11046 net.cpp:150] Setting up relu3_1
I0113 00:22:44.090873 11046 net.cpp:157] Top shape: 4 256 144 192 (28311552)
I0113 00:22:44.090878 11046 net.cpp:165] Memory required for data: 3140760988
I0113 00:22:44.090881 11046 layer_factory.hpp:77] Creating layer conv3_2
I0113 00:22:44.090893 11046 net.cpp:100] Creating Layer conv3_2
I0113 00:22:44.090896 11046 net.cpp:434] conv3_2 <- conv3_1
I0113 00:22:44.090904 11046 net.cpp:408] conv3_2 -> conv3_2
I0113 00:22:44.092955 11046 net.cpp:150] Setting up conv3_2
I0113 00:22:44.092968 11046 net.cpp:157] Top shape: 4 256 144 192 (28311552)
I0113 00:22:44.092972 11046 net.cpp:165] Memory required for data: 3254007196
I0113 00:22:44.092977 11046 layer_factory.hpp:77] Creating layer relu3_2
I0113 00:22:44.092983 11046 net.cpp:100] Creating Layer relu3_2
I0113 00:22:44.092988 11046 net.cpp:434] relu3_2 <- conv3_2
I0113 00:22:44.092993 11046 net.cpp:395] relu3_2 -> conv3_2 (in-place)
I0113 00:22:44.093411 11046 net.cpp:150] Setting up relu3_2
I0113 00:22:44.093421 11046 net.cpp:157] Top shape: 4 256 144 192 (28311552)
I0113 00:22:44.093423 11046 net.cpp:165] Memory required for data: 3367253404
I0113 00:22:44.093426 11046 layer_factory.hpp:77] Creating layer conv3_3
I0113 00:22:44.093433 11046 net.cpp:100] Creating Layer conv3_3
I0113 00:22:44.093436 11046 net.cpp:434] conv3_3 <- conv3_2
I0113 00:22:44.093442 11046 net.cpp:408] conv3_3 -> conv3_3
I0113 00:22:44.095722 11046 net.cpp:150] Setting up conv3_3
I0113 00:22:44.095734 11046 net.cpp:157] Top shape: 4 256 144 192 (28311552)
I0113 00:22:44.095736 11046 net.cpp:165] Memory required for data: 3480499612
I0113 00:22:44.095741 11046 layer_factory.hpp:77] Creating layer relu3_3
I0113 00:22:44.095747 11046 net.cpp:100] Creating Layer relu3_3
I0113 00:22:44.095751 11046 net.cpp:434] relu3_3 <- conv3_3
I0113 00:22:44.095755 11046 net.cpp:395] relu3_3 -> conv3_3 (in-place)
I0113 00:22:44.095901 11046 net.cpp:150] Setting up relu3_3
I0113 00:22:44.095908 11046 net.cpp:157] Top shape: 4 256 144 192 (28311552)
I0113 00:22:44.095911 11046 net.cpp:165] Memory required for data: 3593745820
I0113 00:22:44.095912 11046 layer_factory.hpp:77] Creating layer pool3
I0113 00:22:44.095919 11046 net.cpp:100] Creating Layer pool3
I0113 00:22:44.095924 11046 net.cpp:434] pool3 <- conv3_3
I0113 00:22:44.095929 11046 net.cpp:408] pool3 -> pool3
I0113 00:22:44.095975 11046 net.cpp:150] Setting up pool3
I0113 00:22:44.095981 11046 net.cpp:157] Top shape: 4 256 72 96 (7077888)
I0113 00:22:44.095983 11046 net.cpp:165] Memory required for data: 3622057372
I0113 00:22:44.095985 11046 layer_factory.hpp:77] Creating layer conv4_1
I0113 00:22:44.095991 11046 net.cpp:100] Creating Layer conv4_1
I0113 00:22:44.095996 11046 net.cpp:434] conv4_1 <- pool3
I0113 00:22:44.096004 11046 net.cpp:408] conv4_1 -> conv4_1
I0113 00:22:44.099712 11046 net.cpp:150] Setting up conv4_1
I0113 00:22:44.099725 11046 net.cpp:157] Top shape: 4 512 72 96 (14155776)
I0113 00:22:44.099730 11046 net.cpp:165] Memory required for data: 3678680476
I0113 00:22:44.099736 11046 layer_factory.hpp:77] Creating layer relu4_1
I0113 00:22:44.099745 11046 net.cpp:100] Creating Layer relu4_1
I0113 00:22:44.099751 11046 net.cpp:434] relu4_1 <- conv4_1
I0113 00:22:44.099758 11046 net.cpp:395] relu4_1 -> conv4_1 (in-place)
I0113 00:22:44.099910 11046 net.cpp:150] Setting up relu4_1
I0113 00:22:44.099918 11046 net.cpp:157] Top shape: 4 512 72 96 (14155776)
I0113 00:22:44.099920 11046 net.cpp:165] Memory required for data: 3735303580
I0113 00:22:44.099922 11046 layer_factory.hpp:77] Creating layer conv4_2
I0113 00:22:44.099931 11046 net.cpp:100] Creating Layer conv4_2
I0113 00:22:44.099936 11046 net.cpp:434] conv4_2 <- conv4_1
I0113 00:22:44.099941 11046 net.cpp:408] conv4_2 -> conv4_2
I0113 00:22:44.104360 11046 net.cpp:150] Setting up conv4_2
I0113 00:22:44.104377 11046 net.cpp:157] Top shape: 4 512 72 96 (14155776)
I0113 00:22:44.104379 11046 net.cpp:165] Memory required for data: 3791926684
I0113 00:22:44.104393 11046 layer_factory.hpp:77] Creating layer relu4_2
I0113 00:22:44.104401 11046 net.cpp:100] Creating Layer relu4_2
I0113 00:22:44.104404 11046 net.cpp:434] relu4_2 <- conv4_2
I0113 00:22:44.104409 11046 net.cpp:395] relu4_2 -> conv4_2 (in-place)
I0113 00:22:44.104549 11046 net.cpp:150] Setting up relu4_2
I0113 00:22:44.104557 11046 net.cpp:157] Top shape: 4 512 72 96 (14155776)
I0113 00:22:44.104558 11046 net.cpp:165] Memory required for data: 3848549788
I0113 00:22:44.104562 11046 layer_factory.hpp:77] Creating layer conv4_3
I0113 00:22:44.104571 11046 net.cpp:100] Creating Layer conv4_3
I0113 00:22:44.104576 11046 net.cpp:434] conv4_3 <- conv4_2
I0113 00:22:44.104583 11046 net.cpp:408] conv4_3 -> conv4_3
I0113 00:22:44.109017 11046 net.cpp:150] Setting up conv4_3
I0113 00:22:44.109038 11046 net.cpp:157] Top shape: 4 512 72 96 (14155776)
I0113 00:22:44.109040 11046 net.cpp:165] Memory required for data: 3905172892
I0113 00:22:44.109050 11046 layer_factory.hpp:77] Creating layer relu4_3
I0113 00:22:44.109058 11046 net.cpp:100] Creating Layer relu4_3
I0113 00:22:44.109062 11046 net.cpp:434] relu4_3 <- conv4_3
I0113 00:22:44.109071 11046 net.cpp:395] relu4_3 -> conv4_3 (in-place)
I0113 00:22:44.109215 11046 net.cpp:150] Setting up relu4_3
I0113 00:22:44.109221 11046 net.cpp:157] Top shape: 4 512 72 96 (14155776)
I0113 00:22:44.109223 11046 net.cpp:165] Memory required for data: 3961795996
I0113 00:22:44.109227 11046 layer_factory.hpp:77] Creating layer conv4_3_relu4_3_0_split
I0113 00:22:44.109237 11046 net.cpp:100] Creating Layer conv4_3_relu4_3_0_split
I0113 00:22:44.109241 11046 net.cpp:434] conv4_3_relu4_3_0_split <- conv4_3
I0113 00:22:44.109246 11046 net.cpp:408] conv4_3_relu4_3_0_split -> conv4_3_relu4_3_0_split_0
I0113 00:22:44.109256 11046 net.cpp:408] conv4_3_relu4_3_0_split -> conv4_3_relu4_3_0_split_1
I0113 00:22:44.109264 11046 net.cpp:408] conv4_3_relu4_3_0_split -> conv4_3_relu4_3_0_split_2
I0113 00:22:44.109313 11046 net.cpp:150] Setting up conv4_3_relu4_3_0_split
I0113 00:22:44.109318 11046 net.cpp:157] Top shape: 4 512 72 96 (14155776)
I0113 00:22:44.109321 11046 net.cpp:157] Top shape: 4 512 72 96 (14155776)
I0113 00:22:44.109326 11046 net.cpp:157] Top shape: 4 512 72 96 (14155776)
I0113 00:22:44.109329 11046 net.cpp:165] Memory required for data: 4131665308
I0113 00:22:44.109334 11046 layer_factory.hpp:77] Creating layer loss1_conv1
I0113 00:22:44.109352 11046 net.cpp:100] Creating Layer loss1_conv1
I0113 00:22:44.109355 11046 net.cpp:434] loss1_conv1 <- conv4_3_relu4_3_0_split_0
I0113 00:22:44.109364 11046 net.cpp:408] loss1_conv1 -> loss1_conv1
I0113 00:22:44.130427 11046 net.cpp:150] Setting up loss1_conv1
I0113 00:22:44.130452 11046 net.cpp:157] Top shape: 4 512 72 96 (14155776)
I0113 00:22:44.130455 11046 net.cpp:165] Memory required for data: 4188288412
I0113 00:22:44.130463 11046 layer_factory.hpp:77] Creating layer loss_relu1
I0113 00:22:44.130472 11046 net.cpp:100] Creating Layer loss_relu1
I0113 00:22:44.130476 11046 net.cpp:434] loss_relu1 <- loss1_conv1
I0113 00:22:44.130483 11046 net.cpp:395] loss_relu1 -> loss1_conv1 (in-place)
I0113 00:22:44.130957 11046 net.cpp:150] Setting up loss_relu1
I0113 00:22:44.130969 11046 net.cpp:157] Top shape: 4 512 72 96 (14155776)
I0113 00:22:44.130970 11046 net.cpp:165] Memory required for data: 4244911516
I0113 00:22:44.130972 11046 layer_factory.hpp:77] Creating layer loss1_conv1_loss_relu1_0_split
I0113 00:22:44.130980 11046 net.cpp:100] Creating Layer loss1_conv1_loss_relu1_0_split
I0113 00:22:44.130982 11046 net.cpp:434] loss1_conv1_loss_relu1_0_split <- loss1_conv1
I0113 00:22:44.130986 11046 net.cpp:408] loss1_conv1_loss_relu1_0_split -> loss1_conv1_loss_relu1_0_split_0
I0113 00:22:44.130995 11046 net.cpp:408] loss1_conv1_loss_relu1_0_split -> loss1_conv1_loss_relu1_0_split_1
I0113 00:22:44.131038 11046 net.cpp:150] Setting up loss1_conv1_loss_relu1_0_split
I0113 00:22:44.131043 11046 net.cpp:157] Top shape: 4 512 72 96 (14155776)
I0113 00:22:44.131047 11046 net.cpp:157] Top shape: 4 512 72 96 (14155776)
I0113 00:22:44.131050 11046 net.cpp:165] Memory required for data: 4358157724
I0113 00:22:44.131054 11046 layer_factory.hpp:77] Creating layer LFCN_1_3x5
I0113 00:22:44.131067 11046 net.cpp:100] Creating Layer LFCN_1_3x5
I0113 00:22:44.131070 11046 net.cpp:434] LFCN_1_3x5 <- loss1_conv1_loss_relu1_0_split_0
I0113 00:22:44.131078 11046 net.cpp:408] LFCN_1_3x5 -> LFCN_1_3x5
I0113 00:22:44.132133 11046 net.cpp:150] Setting up LFCN_1_3x5
I0113 00:22:44.132146 11046 net.cpp:157] Top shape: 4 7 72 96 (193536)
I0113 00:22:44.132148 11046 net.cpp:165] Memory required for data: 4358931868
I0113 00:22:44.132154 11046 layer_factory.hpp:77] Creating layer LFCN_1_3x5_LFCN_1_3x5_0_split
I0113 00:22:44.132160 11046 net.cpp:100] Creating Layer LFCN_1_3x5_LFCN_1_3x5_0_split
I0113 00:22:44.132164 11046 net.cpp:434] LFCN_1_3x5_LFCN_1_3x5_0_split <- LFCN_1_3x5
I0113 00:22:44.132167 11046 net.cpp:408] LFCN_1_3x5_LFCN_1_3x5_0_split -> LFCN_1_3x5_LFCN_1_3x5_0_split_0
I0113 00:22:44.132174 11046 net.cpp:408] LFCN_1_3x5_LFCN_1_3x5_0_split -> LFCN_1_3x5_LFCN_1_3x5_0_split_1
I0113 00:22:44.132179 11046 net.cpp:408] LFCN_1_3x5_LFCN_1_3x5_0_split -> LFCN_1_3x5_LFCN_1_3x5_0_split_2
I0113 00:22:44.132220 11046 net.cpp:150] Setting up LFCN_1_3x5_LFCN_1_3x5_0_split
I0113 00:22:44.132225 11046 net.cpp:157] Top shape: 4 7 72 96 (193536)
I0113 00:22:44.132228 11046 net.cpp:157] Top shape: 4 7 72 96 (193536)
I0113 00:22:44.132231 11046 net.cpp:157] Top shape: 4 7 72 96 (193536)
I0113 00:22:44.132232 11046 net.cpp:165] Memory required for data: 4361254300
I0113 00:22:44.132235 11046 layer_factory.hpp:77] Creating layer detection_loss_1_3x5
I0113 00:22:44.132242 11046 net.cpp:100] Creating Layer detection_loss_1_3x5
I0113 00:22:44.132246 11046 net.cpp:434] detection_loss_1_3x5 <- LFCN_1_3x5_LFCN_1_3x5_0_split_0
I0113 00:22:44.132251 11046 net.cpp:434] detection_loss_1_3x5 <- label_1_3x5_data_1_split_0
I0113 00:22:44.132256 11046 net.cpp:408] detection_loss_1_3x5 -> loss_1_3x5
I0113 00:22:44.132266 11046 layer_factory.hpp:77] Creating layer detection_loss_1_3x5
I0113 00:22:44.132997 11046 net.cpp:150] Setting up detection_loss_1_3x5
I0113 00:22:44.133008 11046 net.cpp:157] Top shape: 1 1 1 2 (2)
I0113 00:22:44.133011 11046 net.cpp:160]     with loss weight 0.5
I0113 00:22:44.133033 11046 net.cpp:165] Memory required for data: 4361254308
I0113 00:22:44.133038 11046 layer_factory.hpp:77] Creating layer detection_accuracy_1_3x5
I0113 00:22:44.133045 11046 net.cpp:100] Creating Layer detection_accuracy_1_3x5
I0113 00:22:44.133049 11046 net.cpp:434] detection_accuracy_1_3x5 <- LFCN_1_3x5_LFCN_1_3x5_0_split_1
I0113 00:22:44.133055 11046 net.cpp:434] detection_accuracy_1_3x5 <- label_1_3x5_data_1_split_1
I0113 00:22:44.133064 11046 net.cpp:408] detection_accuracy_1_3x5 -> accuracy_1_3x5
I0113 00:22:44.133074 11046 net.cpp:408] detection_accuracy_1_3x5 -> boxiou_1_3x5
I0113 00:22:44.133114 11046 net.cpp:150] Setting up detection_accuracy_1_3x5
I0113 00:22:44.133121 11046 net.cpp:157] Top shape: 1 1 1 2 (2)
I0113 00:22:44.133126 11046 net.cpp:157] Top shape: 1 1 1 1 (1)
I0113 00:22:44.133128 11046 net.cpp:165] Memory required for data: 4361254320
I0113 00:22:44.133132 11046 layer_factory.hpp:77] Creating layer LFCN_1_5x7
I0113 00:22:44.133144 11046 net.cpp:100] Creating Layer LFCN_1_5x7
I0113 00:22:44.133148 11046 net.cpp:434] LFCN_1_5x7 <- loss1_conv1_loss_relu1_0_split_1
I0113 00:22:44.133158 11046 net.cpp:408] LFCN_1_5x7 -> LFCN_1_5x7
I0113 00:22:44.135254 11046 net.cpp:150] Setting up LFCN_1_5x7
I0113 00:22:44.135278 11046 net.cpp:157] Top shape: 4 7 72 96 (193536)
I0113 00:22:44.135282 11046 net.cpp:165] Memory required for data: 4362028464
I0113 00:22:44.135293 11046 layer_factory.hpp:77] Creating layer LFCN_1_5x7_LFCN_1_5x7_0_split
I0113 00:22:44.135303 11046 net.cpp:100] Creating Layer LFCN_1_5x7_LFCN_1_5x7_0_split
I0113 00:22:44.135309 11046 net.cpp:434] LFCN_1_5x7_LFCN_1_5x7_0_split <- LFCN_1_5x7
I0113 00:22:44.135320 11046 net.cpp:408] LFCN_1_5x7_LFCN_1_5x7_0_split -> LFCN_1_5x7_LFCN_1_5x7_0_split_0
I0113 00:22:44.135331 11046 net.cpp:408] LFCN_1_5x7_LFCN_1_5x7_0_split -> LFCN_1_5x7_LFCN_1_5x7_0_split_1
I0113 00:22:44.135339 11046 net.cpp:408] LFCN_1_5x7_LFCN_1_5x7_0_split -> LFCN_1_5x7_LFCN_1_5x7_0_split_2
I0113 00:22:44.135387 11046 net.cpp:150] Setting up LFCN_1_5x7_LFCN_1_5x7_0_split
I0113 00:22:44.135393 11046 net.cpp:157] Top shape: 4 7 72 96 (193536)
I0113 00:22:44.135398 11046 net.cpp:157] Top shape: 4 7 72 96 (193536)
I0113 00:22:44.135403 11046 net.cpp:157] Top shape: 4 7 72 96 (193536)
I0113 00:22:44.135406 11046 net.cpp:165] Memory required for data: 4364350896
I0113 00:22:44.135411 11046 layer_factory.hpp:77] Creating layer detection_loss_1_5x7
I0113 00:22:44.135419 11046 net.cpp:100] Creating Layer detection_loss_1_5x7
I0113 00:22:44.135423 11046 net.cpp:434] detection_loss_1_5x7 <- LFCN_1_5x7_LFCN_1_5x7_0_split_0
I0113 00:22:44.135428 11046 net.cpp:434] detection_loss_1_5x7 <- label_1_5x7_data_2_split_0
I0113 00:22:44.135435 11046 net.cpp:408] detection_loss_1_5x7 -> loss_1_5x7
I0113 00:22:44.135445 11046 layer_factory.hpp:77] Creating layer detection_loss_1_5x7
I0113 00:22:44.135777 11046 net.cpp:150] Setting up detection_loss_1_5x7
I0113 00:22:44.135785 11046 net.cpp:157] Top shape: 1 1 1 2 (2)
I0113 00:22:44.135789 11046 net.cpp:160]     with loss weight 0.9
I0113 00:22:44.135802 11046 net.cpp:165] Memory required for data: 4364350904
I0113 00:22:44.135804 11046 layer_factory.hpp:77] Creating layer detection_accuracy_1_5x7
I0113 00:22:44.135812 11046 net.cpp:100] Creating Layer detection_accuracy_1_5x7
I0113 00:22:44.135816 11046 net.cpp:434] detection_accuracy_1_5x7 <- LFCN_1_5x7_LFCN_1_5x7_0_split_1
I0113 00:22:44.135821 11046 net.cpp:434] detection_accuracy_1_5x7 <- label_1_5x7_data_2_split_1
I0113 00:22:44.135829 11046 net.cpp:408] detection_accuracy_1_5x7 -> accuracy_1_5x7
I0113 00:22:44.135838 11046 net.cpp:408] detection_accuracy_1_5x7 -> boxiou_1_5x7
I0113 00:22:44.135877 11046 net.cpp:150] Setting up detection_accuracy_1_5x7
I0113 00:22:44.135882 11046 net.cpp:157] Top shape: 1 1 1 2 (2)
I0113 00:22:44.135886 11046 net.cpp:157] Top shape: 1 1 1 1 (1)
I0113 00:22:44.135890 11046 net.cpp:165] Memory required for data: 4364350916
I0113 00:22:44.135893 11046 layer_factory.hpp:77] Creating layer pool4
I0113 00:22:44.135901 11046 net.cpp:100] Creating Layer pool4
I0113 00:22:44.135905 11046 net.cpp:434] pool4 <- conv4_3_relu4_3_0_split_1
I0113 00:22:44.135912 11046 net.cpp:408] pool4 -> pool4
I0113 00:22:44.135946 11046 net.cpp:150] Setting up pool4
I0113 00:22:44.135951 11046 net.cpp:157] Top shape: 4 512 36 48 (3538944)
I0113 00:22:44.135954 11046 net.cpp:165] Memory required for data: 4378506692
I0113 00:22:44.135957 11046 layer_factory.hpp:77] Creating layer conv5_1
I0113 00:22:44.135969 11046 net.cpp:100] Creating Layer conv5_1
I0113 00:22:44.135972 11046 net.cpp:434] conv5_1 <- pool4
I0113 00:22:44.135979 11046 net.cpp:408] conv5_1 -> conv5_1
I0113 00:22:44.142009 11046 net.cpp:150] Setting up conv5_1
I0113 00:22:44.142033 11046 net.cpp:157] Top shape: 4 512 36 48 (3538944)
I0113 00:22:44.142035 11046 net.cpp:165] Memory required for data: 4392662468
I0113 00:22:44.142046 11046 layer_factory.hpp:77] Creating layer relu5_1
I0113 00:22:44.142056 11046 net.cpp:100] Creating Layer relu5_1
I0113 00:22:44.142061 11046 net.cpp:434] relu5_1 <- conv5_1
I0113 00:22:44.142071 11046 net.cpp:395] relu5_1 -> conv5_1 (in-place)
I0113 00:22:44.142246 11046 net.cpp:150] Setting up relu5_1
I0113 00:22:44.142254 11046 net.cpp:157] Top shape: 4 512 36 48 (3538944)
I0113 00:22:44.142259 11046 net.cpp:165] Memory required for data: 4406818244
I0113 00:22:44.142262 11046 layer_factory.hpp:77] Creating layer conv5_2
I0113 00:22:44.142273 11046 net.cpp:100] Creating Layer conv5_2
I0113 00:22:44.142277 11046 net.cpp:434] conv5_2 <- conv5_1
I0113 00:22:44.142284 11046 net.cpp:408] conv5_2 -> conv5_2
I0113 00:22:44.147537 11046 net.cpp:150] Setting up conv5_2
I0113 00:22:44.147564 11046 net.cpp:157] Top shape: 4 512 36 48 (3538944)
I0113 00:22:44.147567 11046 net.cpp:165] Memory required for data: 4420974020
I0113 00:22:44.147577 11046 layer_factory.hpp:77] Creating layer relu5_2
I0113 00:22:44.147588 11046 net.cpp:100] Creating Layer relu5_2
I0113 00:22:44.147593 11046 net.cpp:434] relu5_2 <- conv5_2
I0113 00:22:44.147604 11046 net.cpp:395] relu5_2 -> conv5_2 (in-place)
I0113 00:22:44.147761 11046 net.cpp:150] Setting up relu5_2
I0113 00:22:44.147769 11046 net.cpp:157] Top shape: 4 512 36 48 (3538944)
I0113 00:22:44.147773 11046 net.cpp:165] Memory required for data: 4435129796
I0113 00:22:44.147778 11046 layer_factory.hpp:77] Creating layer conv5_3
I0113 00:22:44.147789 11046 net.cpp:100] Creating Layer conv5_3
I0113 00:22:44.147794 11046 net.cpp:434] conv5_3 <- conv5_2
I0113 00:22:44.147799 11046 net.cpp:408] conv5_3 -> conv5_3
I0113 00:22:44.152923 11046 net.cpp:150] Setting up conv5_3
I0113 00:22:44.152951 11046 net.cpp:157] Top shape: 4 512 36 48 (3538944)
I0113 00:22:44.152952 11046 net.cpp:165] Memory required for data: 4449285572
I0113 00:22:44.152961 11046 layer_factory.hpp:77] Creating layer relu5_3
I0113 00:22:44.152971 11046 net.cpp:100] Creating Layer relu5_3
I0113 00:22:44.152976 11046 net.cpp:434] relu5_3 <- conv5_3
I0113 00:22:44.152984 11046 net.cpp:395] relu5_3 -> conv5_3 (in-place)
I0113 00:22:44.153134 11046 net.cpp:150] Setting up relu5_3
I0113 00:22:44.153141 11046 net.cpp:157] Top shape: 4 512 36 48 (3538944)
I0113 00:22:44.153144 11046 net.cpp:165] Memory required for data: 4463441348
I0113 00:22:44.153146 11046 layer_factory.hpp:77] Creating layer conv5_3_relu5_3_0_split
I0113 00:22:44.153151 11046 net.cpp:100] Creating Layer conv5_3_relu5_3_0_split
I0113 00:22:44.153153 11046 net.cpp:434] conv5_3_relu5_3_0_split <- conv5_3
I0113 00:22:44.153158 11046 net.cpp:408] conv5_3_relu5_3_0_split -> conv5_3_relu5_3_0_split_0
I0113 00:22:44.153165 11046 net.cpp:408] conv5_3_relu5_3_0_split -> conv5_3_relu5_3_0_split_1
I0113 00:22:44.153172 11046 net.cpp:408] conv5_3_relu5_3_0_split -> conv5_3_relu5_3_0_split_2
I0113 00:22:44.153221 11046 net.cpp:150] Setting up conv5_3_relu5_3_0_split
I0113 00:22:44.153226 11046 net.cpp:157] Top shape: 4 512 36 48 (3538944)
I0113 00:22:44.153230 11046 net.cpp:157] Top shape: 4 512 36 48 (3538944)
I0113 00:22:44.153235 11046 net.cpp:157] Top shape: 4 512 36 48 (3538944)
I0113 00:22:44.153237 11046 net.cpp:165] Memory required for data: 4505908676
I0113 00:22:44.153240 11046 layer_factory.hpp:77] Creating layer LFCN_2_3x5
I0113 00:22:44.153251 11046 net.cpp:100] Creating Layer LFCN_2_3x5
I0113 00:22:44.153254 11046 net.cpp:434] LFCN_2_3x5 <- conv5_3_relu5_3_0_split_0
I0113 00:22:44.153262 11046 net.cpp:408] LFCN_2_3x5 -> LFCN_2_3x5
I0113 00:22:44.154759 11046 net.cpp:150] Setting up LFCN_2_3x5
I0113 00:22:44.154778 11046 net.cpp:157] Top shape: 4 7 36 48 (48384)
I0113 00:22:44.154780 11046 net.cpp:165] Memory required for data: 4506102212
I0113 00:22:44.154798 11046 layer_factory.hpp:77] Creating layer LFCN_2_3x5_LFCN_2_3x5_0_split
I0113 00:22:44.154808 11046 net.cpp:100] Creating Layer LFCN_2_3x5_LFCN_2_3x5_0_split
I0113 00:22:44.154812 11046 net.cpp:434] LFCN_2_3x5_LFCN_2_3x5_0_split <- LFCN_2_3x5
I0113 00:22:44.154817 11046 net.cpp:408] LFCN_2_3x5_LFCN_2_3x5_0_split -> LFCN_2_3x5_LFCN_2_3x5_0_split_0
I0113 00:22:44.154836 11046 net.cpp:408] LFCN_2_3x5_LFCN_2_3x5_0_split -> LFCN_2_3x5_LFCN_2_3x5_0_split_1
I0113 00:22:44.154844 11046 net.cpp:408] LFCN_2_3x5_LFCN_2_3x5_0_split -> LFCN_2_3x5_LFCN_2_3x5_0_split_2
I0113 00:22:44.154889 11046 net.cpp:150] Setting up LFCN_2_3x5_LFCN_2_3x5_0_split
I0113 00:22:44.154896 11046 net.cpp:157] Top shape: 4 7 36 48 (48384)
I0113 00:22:44.154898 11046 net.cpp:157] Top shape: 4 7 36 48 (48384)
I0113 00:22:44.154902 11046 net.cpp:157] Top shape: 4 7 36 48 (48384)
I0113 00:22:44.154906 11046 net.cpp:165] Memory required for data: 4506682820
I0113 00:22:44.154909 11046 layer_factory.hpp:77] Creating layer detection_loss_2_3x5
I0113 00:22:44.154918 11046 net.cpp:100] Creating Layer detection_loss_2_3x5
I0113 00:22:44.154922 11046 net.cpp:434] detection_loss_2_3x5 <- LFCN_2_3x5_LFCN_2_3x5_0_split_0
I0113 00:22:44.154927 11046 net.cpp:434] detection_loss_2_3x5 <- label_2_3x5_data_3_split_0
I0113 00:22:44.154934 11046 net.cpp:408] detection_loss_2_3x5 -> loss_2_3x5
I0113 00:22:44.154947 11046 layer_factory.hpp:77] Creating layer detection_loss_2_3x5
I0113 00:22:44.155910 11046 net.cpp:150] Setting up detection_loss_2_3x5
I0113 00:22:44.155974 11046 net.cpp:157] Top shape: 1 1 1 2 (2)
I0113 00:22:44.155992 11046 net.cpp:160]     with loss weight 1
I0113 00:22:44.156015 11046 net.cpp:165] Memory required for data: 4506682828
I0113 00:22:44.156031 11046 layer_factory.hpp:77] Creating layer detection_accuracy_2_3x5
I0113 00:22:44.156054 11046 net.cpp:100] Creating Layer detection_accuracy_2_3x5
I0113 00:22:44.156069 11046 net.cpp:434] detection_accuracy_2_3x5 <- LFCN_2_3x5_LFCN_2_3x5_0_split_1
I0113 00:22:44.156090 11046 net.cpp:434] detection_accuracy_2_3x5 <- label_2_3x5_data_3_split_1
I0113 00:22:44.156113 11046 net.cpp:408] detection_accuracy_2_3x5 -> accuracy_2_3x5
I0113 00:22:44.156136 11046 net.cpp:408] detection_accuracy_2_3x5 -> boxiou_2_3x5
I0113 00:22:44.156200 11046 net.cpp:150] Setting up detection_accuracy_2_3x5
I0113 00:22:44.156208 11046 net.cpp:157] Top shape: 1 1 1 2 (2)
I0113 00:22:44.156210 11046 net.cpp:157] Top shape: 1 1 1 1 (1)
I0113 00:22:44.156213 11046 net.cpp:165] Memory required for data: 4506682840
I0113 00:22:44.156215 11046 layer_factory.hpp:77] Creating layer LFCN_2_5x7
I0113 00:22:44.156229 11046 net.cpp:100] Creating Layer LFCN_2_5x7
I0113 00:22:44.156232 11046 net.cpp:434] LFCN_2_5x7 <- conv5_3_relu5_3_0_split_1
I0113 00:22:44.156240 11046 net.cpp:408] LFCN_2_5x7 -> LFCN_2_5x7
I0113 00:22:44.158854 11046 net.cpp:150] Setting up LFCN_2_5x7
I0113 00:22:44.158884 11046 net.cpp:157] Top shape: 4 7 36 48 (48384)
I0113 00:22:44.158886 11046 net.cpp:165] Memory required for data: 4506876376
I0113 00:22:44.158896 11046 layer_factory.hpp:77] Creating layer LFCN_2_5x7_LFCN_2_5x7_0_split
I0113 00:22:44.158906 11046 net.cpp:100] Creating Layer LFCN_2_5x7_LFCN_2_5x7_0_split
I0113 00:22:44.158911 11046 net.cpp:434] LFCN_2_5x7_LFCN_2_5x7_0_split <- LFCN_2_5x7
I0113 00:22:44.158924 11046 net.cpp:408] LFCN_2_5x7_LFCN_2_5x7_0_split -> LFCN_2_5x7_LFCN_2_5x7_0_split_0
I0113 00:22:44.158934 11046 net.cpp:408] LFCN_2_5x7_LFCN_2_5x7_0_split -> LFCN_2_5x7_LFCN_2_5x7_0_split_1
I0113 00:22:44.158941 11046 net.cpp:408] LFCN_2_5x7_LFCN_2_5x7_0_split -> LFCN_2_5x7_LFCN_2_5x7_0_split_2
I0113 00:22:44.158993 11046 net.cpp:150] Setting up LFCN_2_5x7_LFCN_2_5x7_0_split
I0113 00:22:44.158998 11046 net.cpp:157] Top shape: 4 7 36 48 (48384)
I0113 00:22:44.159003 11046 net.cpp:157] Top shape: 4 7 36 48 (48384)
I0113 00:22:44.159006 11046 net.cpp:157] Top shape: 4 7 36 48 (48384)
I0113 00:22:44.159009 11046 net.cpp:165] Memory required for data: 4507456984
I0113 00:22:44.159013 11046 layer_factory.hpp:77] Creating layer detection_loss_2_5x7
I0113 00:22:44.159021 11046 net.cpp:100] Creating Layer detection_loss_2_5x7
I0113 00:22:44.159025 11046 net.cpp:434] detection_loss_2_5x7 <- LFCN_2_5x7_LFCN_2_5x7_0_split_0
I0113 00:22:44.159030 11046 net.cpp:434] detection_loss_2_5x7 <- label_2_5x7_data_4_split_0
I0113 00:22:44.159039 11046 net.cpp:408] detection_loss_2_5x7 -> loss_2_5x7
I0113 00:22:44.159050 11046 layer_factory.hpp:77] Creating layer detection_loss_2_5x7
I0113 00:22:44.159792 11046 net.cpp:150] Setting up detection_loss_2_5x7
I0113 00:22:44.159803 11046 net.cpp:157] Top shape: 1 1 1 2 (2)
I0113 00:22:44.159808 11046 net.cpp:160]     with loss weight 1
I0113 00:22:44.159819 11046 net.cpp:165] Memory required for data: 4507456992
I0113 00:22:44.159822 11046 layer_factory.hpp:77] Creating layer detection_accuracy_2_5x7
I0113 00:22:44.159832 11046 net.cpp:100] Creating Layer detection_accuracy_2_5x7
I0113 00:22:44.159837 11046 net.cpp:434] detection_accuracy_2_5x7 <- LFCN_2_5x7_LFCN_2_5x7_0_split_1
I0113 00:22:44.159842 11046 net.cpp:434] detection_accuracy_2_5x7 <- label_2_5x7_data_4_split_1
I0113 00:22:44.159848 11046 net.cpp:408] detection_accuracy_2_5x7 -> accuracy_2_5x7
I0113 00:22:44.159855 11046 net.cpp:408] detection_accuracy_2_5x7 -> boxiou_2_5x7
I0113 00:22:44.159898 11046 net.cpp:150] Setting up detection_accuracy_2_5x7
I0113 00:22:44.159903 11046 net.cpp:157] Top shape: 1 1 1 2 (2)
I0113 00:22:44.159906 11046 net.cpp:157] Top shape: 1 1 1 1 (1)
I0113 00:22:44.159910 11046 net.cpp:165] Memory required for data: 4507457004
I0113 00:22:44.159914 11046 layer_factory.hpp:77] Creating layer pool5
I0113 00:22:44.159920 11046 net.cpp:100] Creating Layer pool5
I0113 00:22:44.159925 11046 net.cpp:434] pool5 <- conv5_3_relu5_3_0_split_2
I0113 00:22:44.159931 11046 net.cpp:408] pool5 -> pool5
I0113 00:22:44.159966 11046 net.cpp:150] Setting up pool5
I0113 00:22:44.159971 11046 net.cpp:157] Top shape: 4 512 18 24 (884736)
I0113 00:22:44.159973 11046 net.cpp:165] Memory required for data: 4510995948
I0113 00:22:44.159977 11046 layer_factory.hpp:77] Creating layer conv6_1
I0113 00:22:44.159991 11046 net.cpp:100] Creating Layer conv6_1
I0113 00:22:44.159994 11046 net.cpp:434] conv6_1 <- pool5
I0113 00:22:44.160001 11046 net.cpp:408] conv6_1 -> conv6_1
I0113 00:22:44.181056 11046 net.cpp:150] Setting up conv6_1
I0113 00:22:44.181078 11046 net.cpp:157] Top shape: 4 512 18 24 (884736)
I0113 00:22:44.181080 11046 net.cpp:165] Memory required for data: 4514534892
I0113 00:22:44.181090 11046 layer_factory.hpp:77] Creating layer relu6_1
I0113 00:22:44.181102 11046 net.cpp:100] Creating Layer relu6_1
I0113 00:22:44.181108 11046 net.cpp:434] relu6_1 <- conv6_1
I0113 00:22:44.181115 11046 net.cpp:395] relu6_1 -> conv6_1 (in-place)
I0113 00:22:44.181263 11046 net.cpp:150] Setting up relu6_1
I0113 00:22:44.181270 11046 net.cpp:157] Top shape: 4 512 18 24 (884736)
I0113 00:22:44.181275 11046 net.cpp:165] Memory required for data: 4518073836
I0113 00:22:44.181278 11046 layer_factory.hpp:77] Creating layer conv6_1_relu6_1_0_split
I0113 00:22:44.181288 11046 net.cpp:100] Creating Layer conv6_1_relu6_1_0_split
I0113 00:22:44.181291 11046 net.cpp:434] conv6_1_relu6_1_0_split <- conv6_1
I0113 00:22:44.181298 11046 net.cpp:408] conv6_1_relu6_1_0_split -> conv6_1_relu6_1_0_split_0
I0113 00:22:44.181308 11046 net.cpp:408] conv6_1_relu6_1_0_split -> conv6_1_relu6_1_0_split_1
I0113 00:22:44.181314 11046 net.cpp:408] conv6_1_relu6_1_0_split -> conv6_1_relu6_1_0_split_2
I0113 00:22:44.181365 11046 net.cpp:150] Setting up conv6_1_relu6_1_0_split
I0113 00:22:44.181370 11046 net.cpp:157] Top shape: 4 512 18 24 (884736)
I0113 00:22:44.181376 11046 net.cpp:157] Top shape: 4 512 18 24 (884736)
I0113 00:22:44.181380 11046 net.cpp:157] Top shape: 4 512 18 24 (884736)
I0113 00:22:44.181383 11046 net.cpp:165] Memory required for data: 4528690668
I0113 00:22:44.181388 11046 layer_factory.hpp:77] Creating layer LFCN_3_3x5
I0113 00:22:44.181399 11046 net.cpp:100] Creating Layer LFCN_3_3x5
I0113 00:22:44.181404 11046 net.cpp:434] LFCN_3_3x5 <- conv6_1_relu6_1_0_split_0
I0113 00:22:44.181409 11046 net.cpp:408] LFCN_3_3x5 -> LFCN_3_3x5
I0113 00:22:44.183565 11046 net.cpp:150] Setting up LFCN_3_3x5
I0113 00:22:44.183578 11046 net.cpp:157] Top shape: 4 7 18 24 (12096)
I0113 00:22:44.183579 11046 net.cpp:165] Memory required for data: 4528739052
I0113 00:22:44.183584 11046 layer_factory.hpp:77] Creating layer LFCN_3_3x5_LFCN_3_3x5_0_split
I0113 00:22:44.183603 11046 net.cpp:100] Creating Layer LFCN_3_3x5_LFCN_3_3x5_0_split
I0113 00:22:44.183605 11046 net.cpp:434] LFCN_3_3x5_LFCN_3_3x5_0_split <- LFCN_3_3x5
I0113 00:22:44.183610 11046 net.cpp:408] LFCN_3_3x5_LFCN_3_3x5_0_split -> LFCN_3_3x5_LFCN_3_3x5_0_split_0
I0113 00:22:44.183617 11046 net.cpp:408] LFCN_3_3x5_LFCN_3_3x5_0_split -> LFCN_3_3x5_LFCN_3_3x5_0_split_1
I0113 00:22:44.183625 11046 net.cpp:408] LFCN_3_3x5_LFCN_3_3x5_0_split -> LFCN_3_3x5_LFCN_3_3x5_0_split_2
I0113 00:22:44.183678 11046 net.cpp:150] Setting up LFCN_3_3x5_LFCN_3_3x5_0_split
I0113 00:22:44.183686 11046 net.cpp:157] Top shape: 4 7 18 24 (12096)
I0113 00:22:44.183688 11046 net.cpp:157] Top shape: 4 7 18 24 (12096)
I0113 00:22:44.183692 11046 net.cpp:157] Top shape: 4 7 18 24 (12096)
I0113 00:22:44.183696 11046 net.cpp:165] Memory required for data: 4528884204
I0113 00:22:44.183699 11046 layer_factory.hpp:77] Creating layer detection_loss_3_3x5
I0113 00:22:44.183704 11046 net.cpp:100] Creating Layer detection_loss_3_3x5
I0113 00:22:44.183707 11046 net.cpp:434] detection_loss_3_3x5 <- LFCN_3_3x5_LFCN_3_3x5_0_split_0
I0113 00:22:44.183712 11046 net.cpp:434] detection_loss_3_3x5 <- label_3_3x5_data_5_split_0
I0113 00:22:44.183719 11046 net.cpp:408] detection_loss_3_3x5 -> loss_3_3x5
I0113 00:22:44.183730 11046 layer_factory.hpp:77] Creating layer detection_loss_3_3x5
I0113 00:22:44.184017 11046 net.cpp:150] Setting up detection_loss_3_3x5
I0113 00:22:44.184025 11046 net.cpp:157] Top shape: 1 1 1 2 (2)
I0113 00:22:44.184026 11046 net.cpp:160]     with loss weight 1
I0113 00:22:44.184036 11046 net.cpp:165] Memory required for data: 4528884212
I0113 00:22:44.184037 11046 layer_factory.hpp:77] Creating layer detection_accuracy_3_3x5
I0113 00:22:44.184043 11046 net.cpp:100] Creating Layer detection_accuracy_3_3x5
I0113 00:22:44.184046 11046 net.cpp:434] detection_accuracy_3_3x5 <- LFCN_3_3x5_LFCN_3_3x5_0_split_1
I0113 00:22:44.184051 11046 net.cpp:434] detection_accuracy_3_3x5 <- label_3_3x5_data_5_split_1
I0113 00:22:44.184056 11046 net.cpp:408] detection_accuracy_3_3x5 -> accuracy_3_3x5
I0113 00:22:44.184062 11046 net.cpp:408] detection_accuracy_3_3x5 -> boxiou_3_3x5
I0113 00:22:44.184100 11046 net.cpp:150] Setting up detection_accuracy_3_3x5
I0113 00:22:44.184106 11046 net.cpp:157] Top shape: 1 1 1 2 (2)
I0113 00:22:44.184108 11046 net.cpp:157] Top shape: 1 1 1 1 (1)
I0113 00:22:44.184110 11046 net.cpp:165] Memory required for data: 4528884224
I0113 00:22:44.184113 11046 layer_factory.hpp:77] Creating layer LFCN_3_5x7
I0113 00:22:44.184119 11046 net.cpp:100] Creating Layer LFCN_3_5x7
I0113 00:22:44.184123 11046 net.cpp:434] LFCN_3_5x7 <- conv6_1_relu6_1_0_split_1
I0113 00:22:44.184128 11046 net.cpp:408] LFCN_3_5x7 -> LFCN_3_5x7
I0113 00:22:44.186009 11046 net.cpp:150] Setting up LFCN_3_5x7
I0113 00:22:44.186022 11046 net.cpp:157] Top shape: 4 7 18 24 (12096)
I0113 00:22:44.186025 11046 net.cpp:165] Memory required for data: 4528932608
I0113 00:22:44.186030 11046 layer_factory.hpp:77] Creating layer LFCN_3_5x7_LFCN_3_5x7_0_split
I0113 00:22:44.186036 11046 net.cpp:100] Creating Layer LFCN_3_5x7_LFCN_3_5x7_0_split
I0113 00:22:44.186041 11046 net.cpp:434] LFCN_3_5x7_LFCN_3_5x7_0_split <- LFCN_3_5x7
I0113 00:22:44.186048 11046 net.cpp:408] LFCN_3_5x7_LFCN_3_5x7_0_split -> LFCN_3_5x7_LFCN_3_5x7_0_split_0
I0113 00:22:44.186056 11046 net.cpp:408] LFCN_3_5x7_LFCN_3_5x7_0_split -> LFCN_3_5x7_LFCN_3_5x7_0_split_1
I0113 00:22:44.186062 11046 net.cpp:408] LFCN_3_5x7_LFCN_3_5x7_0_split -> LFCN_3_5x7_LFCN_3_5x7_0_split_2
I0113 00:22:44.186108 11046 net.cpp:150] Setting up LFCN_3_5x7_LFCN_3_5x7_0_split
I0113 00:22:44.186115 11046 net.cpp:157] Top shape: 4 7 18 24 (12096)
I0113 00:22:44.186116 11046 net.cpp:157] Top shape: 4 7 18 24 (12096)
I0113 00:22:44.186120 11046 net.cpp:157] Top shape: 4 7 18 24 (12096)
I0113 00:22:44.186120 11046 net.cpp:165] Memory required for data: 4529077760
I0113 00:22:44.186123 11046 layer_factory.hpp:77] Creating layer detection_loss_3_5x7
I0113 00:22:44.186131 11046 net.cpp:100] Creating Layer detection_loss_3_5x7
I0113 00:22:44.186133 11046 net.cpp:434] detection_loss_3_5x7 <- LFCN_3_5x7_LFCN_3_5x7_0_split_0
I0113 00:22:44.186137 11046 net.cpp:434] detection_loss_3_5x7 <- label_3_5x7_data_6_split_0
I0113 00:22:44.186143 11046 net.cpp:408] detection_loss_3_5x7 -> loss_3_5x7
I0113 00:22:44.186151 11046 layer_factory.hpp:77] Creating layer detection_loss_3_5x7
I0113 00:22:44.186439 11046 net.cpp:150] Setting up detection_loss_3_5x7
I0113 00:22:44.186446 11046 net.cpp:157] Top shape: 1 1 1 2 (2)
I0113 00:22:44.186450 11046 net.cpp:160]     with loss weight 1
I0113 00:22:44.186455 11046 net.cpp:165] Memory required for data: 4529077768
I0113 00:22:44.186457 11046 layer_factory.hpp:77] Creating layer detection_accuracy_3_5x7
I0113 00:22:44.186462 11046 net.cpp:100] Creating Layer detection_accuracy_3_5x7
I0113 00:22:44.186465 11046 net.cpp:434] detection_accuracy_3_5x7 <- LFCN_3_5x7_LFCN_3_5x7_0_split_1
I0113 00:22:44.186468 11046 net.cpp:434] detection_accuracy_3_5x7 <- label_3_5x7_data_6_split_1
I0113 00:22:44.186473 11046 net.cpp:408] detection_accuracy_3_5x7 -> accuracy_3_5x7
I0113 00:22:44.186481 11046 net.cpp:408] detection_accuracy_3_5x7 -> boxiou_3_5x7
I0113 00:22:44.186516 11046 net.cpp:150] Setting up detection_accuracy_3_5x7
I0113 00:22:44.186520 11046 net.cpp:157] Top shape: 1 1 1 2 (2)
I0113 00:22:44.186522 11046 net.cpp:157] Top shape: 1 1 1 1 (1)
I0113 00:22:44.186524 11046 net.cpp:165] Memory required for data: 4529077780
I0113 00:22:44.186527 11046 layer_factory.hpp:77] Creating layer pool6
I0113 00:22:44.186533 11046 net.cpp:100] Creating Layer pool6
I0113 00:22:44.186537 11046 net.cpp:434] pool6 <- conv6_1_relu6_1_0_split_2
I0113 00:22:44.186540 11046 net.cpp:408] pool6 -> pool6
I0113 00:22:44.186573 11046 net.cpp:150] Setting up pool6
I0113 00:22:44.186578 11046 net.cpp:157] Top shape: 4 512 9 12 (221184)
I0113 00:22:44.186580 11046 net.cpp:165] Memory required for data: 4529962516
I0113 00:22:44.186583 11046 layer_factory.hpp:77] Creating layer LFCN_4_3x5
I0113 00:22:44.186589 11046 net.cpp:100] Creating Layer LFCN_4_3x5
I0113 00:22:44.186592 11046 net.cpp:434] LFCN_4_3x5 <- pool6
I0113 00:22:44.186597 11046 net.cpp:408] LFCN_4_3x5 -> LFCN_4_3x5
I0113 00:22:44.187971 11046 net.cpp:150] Setting up LFCN_4_3x5
I0113 00:22:44.187983 11046 net.cpp:157] Top shape: 4 7 9 12 (3024)
I0113 00:22:44.187986 11046 net.cpp:165] Memory required for data: 4529974612
I0113 00:22:44.187991 11046 layer_factory.hpp:77] Creating layer LFCN_4_3x5_LFCN_4_3x5_0_split
I0113 00:22:44.187997 11046 net.cpp:100] Creating Layer LFCN_4_3x5_LFCN_4_3x5_0_split
I0113 00:22:44.188001 11046 net.cpp:434] LFCN_4_3x5_LFCN_4_3x5_0_split <- LFCN_4_3x5
I0113 00:22:44.188007 11046 net.cpp:408] LFCN_4_3x5_LFCN_4_3x5_0_split -> LFCN_4_3x5_LFCN_4_3x5_0_split_0
I0113 00:22:44.188014 11046 net.cpp:408] LFCN_4_3x5_LFCN_4_3x5_0_split -> LFCN_4_3x5_LFCN_4_3x5_0_split_1
I0113 00:22:44.188020 11046 net.cpp:408] LFCN_4_3x5_LFCN_4_3x5_0_split -> LFCN_4_3x5_LFCN_4_3x5_0_split_2
I0113 00:22:44.188067 11046 net.cpp:150] Setting up LFCN_4_3x5_LFCN_4_3x5_0_split
I0113 00:22:44.188072 11046 net.cpp:157] Top shape: 4 7 9 12 (3024)
I0113 00:22:44.188076 11046 net.cpp:157] Top shape: 4 7 9 12 (3024)
I0113 00:22:44.188077 11046 net.cpp:157] Top shape: 4 7 9 12 (3024)
I0113 00:22:44.188081 11046 net.cpp:165] Memory required for data: 4530010900
I0113 00:22:44.188082 11046 layer_factory.hpp:77] Creating layer detection_loss_4_3x5
I0113 00:22:44.188089 11046 net.cpp:100] Creating Layer detection_loss_4_3x5
I0113 00:22:44.188093 11046 net.cpp:434] detection_loss_4_3x5 <- LFCN_4_3x5_LFCN_4_3x5_0_split_0
I0113 00:22:44.188097 11046 net.cpp:434] detection_loss_4_3x5 <- label_4_3x5_data_7_split_0
I0113 00:22:44.188102 11046 net.cpp:408] detection_loss_4_3x5 -> loss_4_3x5
I0113 00:22:44.188109 11046 layer_factory.hpp:77] Creating layer detection_loss_4_3x5
I0113 00:22:44.188393 11046 net.cpp:150] Setting up detection_loss_4_3x5
I0113 00:22:44.188401 11046 net.cpp:157] Top shape: 1 1 1 2 (2)
I0113 00:22:44.188405 11046 net.cpp:160]     with loss weight 1
I0113 00:22:44.188410 11046 net.cpp:165] Memory required for data: 4530010908
I0113 00:22:44.188413 11046 layer_factory.hpp:77] Creating layer detection_accuracy_4_3x5
I0113 00:22:44.188418 11046 net.cpp:100] Creating Layer detection_accuracy_4_3x5
I0113 00:22:44.188422 11046 net.cpp:434] detection_accuracy_4_3x5 <- LFCN_4_3x5_LFCN_4_3x5_0_split_1
I0113 00:22:44.188426 11046 net.cpp:434] detection_accuracy_4_3x5 <- label_4_3x5_data_7_split_1
I0113 00:22:44.188429 11046 net.cpp:408] detection_accuracy_4_3x5 -> accuracy_4_3x5
I0113 00:22:44.188437 11046 net.cpp:408] detection_accuracy_4_3x5 -> boxiou_4_3x5
I0113 00:22:44.188472 11046 net.cpp:150] Setting up detection_accuracy_4_3x5
I0113 00:22:44.188477 11046 net.cpp:157] Top shape: 1 1 1 2 (2)
I0113 00:22:44.188479 11046 net.cpp:157] Top shape: 1 1 1 1 (1)
I0113 00:22:44.188482 11046 net.cpp:165] Memory required for data: 4530010920
I0113 00:22:44.188483 11046 layer_factory.hpp:77] Creating layer proposals
I0113 00:22:44.188493 11046 net.cpp:100] Creating Layer proposals
I0113 00:22:44.188496 11046 net.cpp:434] proposals <- LFCN_1_3x5_LFCN_1_3x5_0_split_2
I0113 00:22:44.188500 11046 net.cpp:434] proposals <- LFCN_1_5x7_LFCN_1_5x7_0_split_2
I0113 00:22:44.188503 11046 net.cpp:434] proposals <- LFCN_2_3x5_LFCN_2_3x5_0_split_2
I0113 00:22:44.188508 11046 net.cpp:434] proposals <- LFCN_2_5x7_LFCN_2_5x7_0_split_2
I0113 00:22:44.188511 11046 net.cpp:434] proposals <- LFCN_3_3x5_LFCN_3_3x5_0_split_2
I0113 00:22:44.188514 11046 net.cpp:434] proposals <- LFCN_3_5x7_LFCN_3_5x7_0_split_2
I0113 00:22:44.188519 11046 net.cpp:434] proposals <- LFCN_4_3x5_LFCN_4_3x5_0_split_2
I0113 00:22:44.188524 11046 net.cpp:408] proposals -> proposals
I0113 00:22:44.188547 11046 net.cpp:150] Setting up proposals
I0113 00:22:44.188552 11046 net.cpp:157] Top shape: 1 5 1 1 (5)
I0113 00:22:44.188555 11046 net.cpp:165] Memory required for data: 4530010940
I0113 00:22:44.188556 11046 layer_factory.hpp:77] Creating layer proposal_info
I0113 00:22:44.188566 11046 net.cpp:100] Creating Layer proposal_info
I0113 00:22:44.188570 11046 net.cpp:434] proposal_info <- proposals
I0113 00:22:44.188572 11046 net.cpp:434] proposal_info <- gt_boxes
I0113 00:22:44.188580 11046 net.cpp:408] proposal_info -> rois
I0113 00:22:44.188588 11046 net.cpp:408] proposal_info -> proposal_labels
I0113 00:22:44.188596 11046 net.cpp:408] proposal_info -> proposal_targets
I0113 00:22:44.188602 11046 net.cpp:408] proposal_info -> box_inside_weights
I0113 00:22:44.188609 11046 net.cpp:408] proposal_info -> box_outside_weights
I0113 00:22:44.188616 11046 net.cpp:408] proposal_info -> match_gt_boxes
I0113 00:22:44.188691 11046 net.cpp:150] Setting up proposal_info
I0113 00:22:44.188696 11046 net.cpp:157] Top shape: 128 5 1 1 (640)
I0113 00:22:44.188699 11046 net.cpp:157] Top shape: 128 1 1 1 (128)
I0113 00:22:44.188702 11046 net.cpp:157] Top shape: 128 12 1 1 (1536)
I0113 00:22:44.188705 11046 net.cpp:157] Top shape: 128 12 1 1 (1536)
I0113 00:22:44.188707 11046 net.cpp:157] Top shape: 128 12 1 1 (1536)
I0113 00:22:44.188710 11046 net.cpp:157] Top shape: 128 6 1 1 (768)
I0113 00:22:44.188711 11046 net.cpp:165] Memory required for data: 4530035516
I0113 00:22:44.188714 11046 layer_factory.hpp:77] Creating layer rois_proposal_info_0_split
I0113 00:22:44.188719 11046 net.cpp:100] Creating Layer rois_proposal_info_0_split
I0113 00:22:44.188722 11046 net.cpp:434] rois_proposal_info_0_split <- rois
I0113 00:22:44.188726 11046 net.cpp:408] rois_proposal_info_0_split -> rois_proposal_info_0_split_0
I0113 00:22:44.188732 11046 net.cpp:408] rois_proposal_info_0_split -> rois_proposal_info_0_split_1
I0113 00:22:44.188738 11046 net.cpp:408] rois_proposal_info_0_split -> rois_proposal_info_0_split_2
I0113 00:22:44.188778 11046 net.cpp:150] Setting up rois_proposal_info_0_split
I0113 00:22:44.188782 11046 net.cpp:157] Top shape: 128 5 1 1 (640)
I0113 00:22:44.188786 11046 net.cpp:157] Top shape: 128 5 1 1 (640)
I0113 00:22:44.188787 11046 net.cpp:157] Top shape: 128 5 1 1 (640)
I0113 00:22:44.188789 11046 net.cpp:165] Memory required for data: 4530043196
I0113 00:22:44.188791 11046 layer_factory.hpp:77] Creating layer proposal_labels_proposal_info_1_split
I0113 00:22:44.188796 11046 net.cpp:100] Creating Layer proposal_labels_proposal_info_1_split
I0113 00:22:44.188799 11046 net.cpp:434] proposal_labels_proposal_info_1_split <- proposal_labels
I0113 00:22:44.188803 11046 net.cpp:408] proposal_labels_proposal_info_1_split -> proposal_labels_proposal_info_1_split_0
I0113 00:22:44.188808 11046 net.cpp:408] proposal_labels_proposal_info_1_split -> proposal_labels_proposal_info_1_split_1
I0113 00:22:44.188838 11046 net.cpp:150] Setting up proposal_labels_proposal_info_1_split
I0113 00:22:44.188841 11046 net.cpp:157] Top shape: 128 1 1 1 (128)
I0113 00:22:44.188844 11046 net.cpp:157] Top shape: 128 1 1 1 (128)
I0113 00:22:44.188846 11046 net.cpp:165] Memory required for data: 4530044220
I0113 00:22:44.188848 11046 layer_factory.hpp:77] Creating layer conv4_3_2x
I0113 00:22:44.188855 11046 net.cpp:100] Creating Layer conv4_3_2x
I0113 00:22:44.188858 11046 net.cpp:434] conv4_3_2x <- conv4_3_relu4_3_0_split_2
I0113 00:22:44.188864 11046 net.cpp:408] conv4_3_2x -> conv4_3_2x
I0113 00:22:44.189204 11046 net.cpp:150] Setting up conv4_3_2x
I0113 00:22:44.189210 11046 net.cpp:157] Top shape: 4 512 144 192 (56623104)
I0113 00:22:44.189213 11046 net.cpp:165] Memory required for data: 4756536636
I0113 00:22:44.189216 11046 layer_factory.hpp:77] Creating layer conv4_3_2x_conv4_3_2x_0_split
I0113 00:22:44.189221 11046 net.cpp:100] Creating Layer conv4_3_2x_conv4_3_2x_0_split
I0113 00:22:44.189225 11046 net.cpp:434] conv4_3_2x_conv4_3_2x_0_split <- conv4_3_2x
I0113 00:22:44.189230 11046 net.cpp:408] conv4_3_2x_conv4_3_2x_0_split -> conv4_3_2x_conv4_3_2x_0_split_0
I0113 00:22:44.189236 11046 net.cpp:408] conv4_3_2x_conv4_3_2x_0_split -> conv4_3_2x_conv4_3_2x_0_split_1
I0113 00:22:44.189266 11046 net.cpp:150] Setting up conv4_3_2x_conv4_3_2x_0_split
I0113 00:22:44.189271 11046 net.cpp:157] Top shape: 4 512 144 192 (56623104)
I0113 00:22:44.189275 11046 net.cpp:157] Top shape: 4 512 144 192 (56623104)
I0113 00:22:44.189276 11046 net.cpp:165] Memory required for data: 5209521468
I0113 00:22:44.189278 11046 layer_factory.hpp:77] Creating layer roi_pool_org
I0113 00:22:44.189286 11046 net.cpp:100] Creating Layer roi_pool_org
I0113 00:22:44.189291 11046 net.cpp:434] roi_pool_org <- conv4_3_2x_conv4_3_2x_0_split_0
I0113 00:22:44.189293 11046 net.cpp:434] roi_pool_org <- rois_proposal_info_0_split_0
I0113 00:22:44.189298 11046 net.cpp:408] roi_pool_org -> roi_pool_org
I0113 00:22:44.189306 11046 roi_pooling_layer.cpp:33] Spatial scale: 0.25
I0113 00:22:44.189337 11046 net.cpp:150] Setting up roi_pool_org
I0113 00:22:44.189342 11046 net.cpp:157] Top shape: 128 512 7 5 (2293760)
I0113 00:22:44.189345 11046 net.cpp:165] Memory required for data: 5218696508
I0113 00:22:44.189348 11046 layer_factory.hpp:77] Creating layer roi_pool_ctx
I0113 00:22:44.189353 11046 net.cpp:100] Creating Layer roi_pool_ctx
I0113 00:22:44.189357 11046 net.cpp:434] roi_pool_ctx <- conv4_3_2x_conv4_3_2x_0_split_1
I0113 00:22:44.189359 11046 net.cpp:434] roi_pool_ctx <- rois_proposal_info_0_split_1
I0113 00:22:44.189363 11046 net.cpp:408] roi_pool_ctx -> roi_pool_ctx
I0113 00:22:44.189368 11046 roi_pooling_layer.cpp:33] Spatial scale: 0.25
I0113 00:22:44.189398 11046 net.cpp:150] Setting up roi_pool_ctx
I0113 00:22:44.189402 11046 net.cpp:157] Top shape: 128 512 7 5 (2293760)
I0113 00:22:44.189404 11046 net.cpp:165] Memory required for data: 5227871548
I0113 00:22:44.189406 11046 layer_factory.hpp:77] Creating layer roi_pool
I0113 00:22:44.189410 11046 net.cpp:100] Creating Layer roi_pool
I0113 00:22:44.189414 11046 net.cpp:434] roi_pool <- roi_pool_org
I0113 00:22:44.189419 11046 net.cpp:434] roi_pool <- roi_pool_ctx
I0113 00:22:44.189424 11046 net.cpp:408] roi_pool -> roi_pool
I0113 00:22:44.189442 11046 net.cpp:150] Setting up roi_pool
I0113 00:22:44.189446 11046 net.cpp:157] Top shape: 128 1024 7 5 (4587520)
I0113 00:22:44.189448 11046 net.cpp:165] Memory required for data: 5246221628
I0113 00:22:44.189450 11046 layer_factory.hpp:77] Creating layer roi_c1
I0113 00:22:44.189456 11046 net.cpp:100] Creating Layer roi_c1
I0113 00:22:44.189460 11046 net.cpp:434] roi_c1 <- roi_pool
I0113 00:22:44.189465 11046 net.cpp:408] roi_c1 -> roi_c1
I0113 00:22:44.229964 11046 net.cpp:150] Setting up roi_c1
I0113 00:22:44.229985 11046 net.cpp:157] Top shape: 128 512 5 3 (983040)
I0113 00:22:44.229988 11046 net.cpp:165] Memory required for data: 5250153788
I0113 00:22:44.229998 11046 layer_factory.hpp:77] Creating layer roi_c1_relu
I0113 00:22:44.230007 11046 net.cpp:100] Creating Layer roi_c1_relu
I0113 00:22:44.230015 11046 net.cpp:434] roi_c1_relu <- roi_c1
I0113 00:22:44.230026 11046 net.cpp:395] roi_c1_relu -> roi_c1 (in-place)
I0113 00:22:44.230492 11046 net.cpp:150] Setting up roi_c1_relu
I0113 00:22:44.230502 11046 net.cpp:157] Top shape: 128 512 5 3 (983040)
I0113 00:22:44.230505 11046 net.cpp:165] Memory required for data: 5254085948
I0113 00:22:44.230507 11046 layer_factory.hpp:77] Creating layer fc6
I0113 00:22:44.230515 11046 net.cpp:100] Creating Layer fc6
I0113 00:22:44.230518 11046 net.cpp:434] fc6 <- roi_c1
I0113 00:22:44.230525 11046 net.cpp:408] fc6 -> fc6
I0113 00:22:44.359529 11046 net.cpp:150] Setting up fc6
I0113 00:22:44.359566 11046 net.cpp:157] Top shape: 128 2048 (262144)
I0113 00:22:44.359568 11046 net.cpp:165] Memory required for data: 5255134524
I0113 00:22:44.359578 11046 layer_factory.hpp:77] Creating layer relu6
I0113 00:22:44.359586 11046 net.cpp:100] Creating Layer relu6
I0113 00:22:44.359592 11046 net.cpp:434] relu6 <- fc6
I0113 00:22:44.359601 11046 net.cpp:395] relu6 -> fc6 (in-place)
I0113 00:22:44.359807 11046 net.cpp:150] Setting up relu6
I0113 00:22:44.359814 11046 net.cpp:157] Top shape: 128 2048 (262144)
I0113 00:22:44.359817 11046 net.cpp:165] Memory required for data: 5256183100
I0113 00:22:44.359822 11046 layer_factory.hpp:77] Creating layer drop6
I0113 00:22:44.359830 11046 net.cpp:100] Creating Layer drop6
I0113 00:22:44.359834 11046 net.cpp:434] drop6 <- fc6
I0113 00:22:44.359840 11046 net.cpp:395] drop6 -> fc6 (in-place)
I0113 00:22:44.359863 11046 net.cpp:150] Setting up drop6
I0113 00:22:44.359869 11046 net.cpp:157] Top shape: 128 2048 (262144)
I0113 00:22:44.359870 11046 net.cpp:165] Memory required for data: 5257231676
I0113 00:22:44.359872 11046 layer_factory.hpp:77] Creating layer fc6_drop6_0_split
I0113 00:22:44.359881 11046 net.cpp:100] Creating Layer fc6_drop6_0_split
I0113 00:22:44.359885 11046 net.cpp:434] fc6_drop6_0_split <- fc6
I0113 00:22:44.359890 11046 net.cpp:408] fc6_drop6_0_split -> fc6_drop6_0_split_0
I0113 00:22:44.359901 11046 net.cpp:408] fc6_drop6_0_split -> fc6_drop6_0_split_1
I0113 00:22:44.359938 11046 net.cpp:150] Setting up fc6_drop6_0_split
I0113 00:22:44.359943 11046 net.cpp:157] Top shape: 128 2048 (262144)
I0113 00:22:44.359947 11046 net.cpp:157] Top shape: 128 2048 (262144)
I0113 00:22:44.359952 11046 net.cpp:165] Memory required for data: 5259328828
I0113 00:22:44.359956 11046 layer_factory.hpp:77] Creating layer cls_pred
I0113 00:22:44.359964 11046 net.cpp:100] Creating Layer cls_pred
I0113 00:22:44.359969 11046 net.cpp:434] cls_pred <- fc6_drop6_0_split_0
I0113 00:22:44.359974 11046 net.cpp:408] cls_pred -> cls_pred
I0113 00:22:44.360118 11046 net.cpp:150] Setting up cls_pred
I0113 00:22:44.360124 11046 net.cpp:157] Top shape: 128 3 (384)
I0113 00:22:44.360126 11046 net.cpp:165] Memory required for data: 5259330364
I0113 00:22:44.360131 11046 layer_factory.hpp:77] Creating layer cls_pred_cls_pred_0_split
I0113 00:22:44.360136 11046 net.cpp:100] Creating Layer cls_pred_cls_pred_0_split
I0113 00:22:44.360138 11046 net.cpp:434] cls_pred_cls_pred_0_split <- cls_pred
I0113 00:22:44.360141 11046 net.cpp:408] cls_pred_cls_pred_0_split -> cls_pred_cls_pred_0_split_0
I0113 00:22:44.360147 11046 net.cpp:408] cls_pred_cls_pred_0_split -> cls_pred_cls_pred_0_split_1
I0113 00:22:44.360194 11046 net.cpp:150] Setting up cls_pred_cls_pred_0_split
I0113 00:22:44.360199 11046 net.cpp:157] Top shape: 128 3 (384)
I0113 00:22:44.360204 11046 net.cpp:157] Top shape: 128 3 (384)
I0113 00:22:44.360208 11046 net.cpp:165] Memory required for data: 5259333436
I0113 00:22:44.360211 11046 layer_factory.hpp:77] Creating layer bbox_pred
I0113 00:22:44.360218 11046 net.cpp:100] Creating Layer bbox_pred
I0113 00:22:44.360221 11046 net.cpp:434] bbox_pred <- fc6_drop6_0_split_1
I0113 00:22:44.360229 11046 net.cpp:408] bbox_pred -> bbox_pred
I0113 00:22:44.360509 11046 net.cpp:150] Setting up bbox_pred
I0113 00:22:44.360514 11046 net.cpp:157] Top shape: 128 12 (1536)
I0113 00:22:44.360518 11046 net.cpp:165] Memory required for data: 5259339580
I0113 00:22:44.360524 11046 layer_factory.hpp:77] Creating layer bbox_pred_bbox_pred_0_split
I0113 00:22:44.360530 11046 net.cpp:100] Creating Layer bbox_pred_bbox_pred_0_split
I0113 00:22:44.360533 11046 net.cpp:434] bbox_pred_bbox_pred_0_split <- bbox_pred
I0113 00:22:44.360538 11046 net.cpp:408] bbox_pred_bbox_pred_0_split -> bbox_pred_bbox_pred_0_split_0
I0113 00:22:44.360545 11046 net.cpp:408] bbox_pred_bbox_pred_0_split -> bbox_pred_bbox_pred_0_split_1
I0113 00:22:44.360577 11046 net.cpp:150] Setting up bbox_pred_bbox_pred_0_split
I0113 00:22:44.360582 11046 net.cpp:157] Top shape: 128 12 (1536)
I0113 00:22:44.360586 11046 net.cpp:157] Top shape: 128 12 (1536)
I0113 00:22:44.360589 11046 net.cpp:165] Memory required for data: 5259351868
I0113 00:22:44.360592 11046 layer_factory.hpp:77] Creating layer loss_cls
I0113 00:22:44.360599 11046 net.cpp:100] Creating Layer loss_cls
I0113 00:22:44.360604 11046 net.cpp:434] loss_cls <- cls_pred_cls_pred_0_split_0
I0113 00:22:44.360607 11046 net.cpp:434] loss_cls <- proposal_labels_proposal_info_1_split_0
…
I0113 00:22:44.375795 11046 image_gt_data_layer.cpp:235] output label size 2 : 2,6,36,48
I0113 00:22:44.375839 11046 image_gt_data_layer.cpp:235] output label size 3 : 2,6,36,48
I0113 00:22:44.375885 11046 image_gt_data_layer.cpp:235] output label size 4 : 2,6,18,24
I0113 00:22:44.375927 11046 image_gt_data_layer.cpp:235] output label size 5 : 2,6,18,24
I0113 00:22:44.375970 11046 image_gt_data_layer.cpp:235] output label size 6 : 2,6,9,12
I0113 00:22:44.376015 11046 image_gt_data_layer.cpp:250] output gt boxes size: 1,7,1,1
I0113 00:22:44.391326 11046 net.cpp:150] Setting up data
I0113 00:22:44.391353 11046 net.cpp:157] Top shape: 2 3 576 768 (2654208)
I0113 00:22:44.391358 11046 net.cpp:157] Top shape: 2 6 72 96 (82944)
I0113 00:22:44.391364 11046 net.cpp:157] Top shape: 2 6 72 96 (82944)
I0113 00:22:44.391369 11046 net.cpp:157] Top shape: 2 6 36 48 (20736)
I0113 00:22:44.391374 11046 net.cpp:157] Top shape: 2 6 36 48 (20736)
I0113 00:22:44.391379 11046 net.cpp:157] Top shape: 2 6 18 24 (5184)
I0113 00:22:44.391384 11046 net.cpp:157] Top shape: 2 6 18 24 (5184)
I0113 00:22:44.391389 11046 net.cpp:157] Top shape: 2 6 9 12 (1296)
I0113 00:22:44.391394 11046 net.cpp:157] Top shape: 1 7 1 1 (7)
I0113 00:22:44.391398 11046 net.cpp:165] Memory required for data: 11492956
I0113 00:22:44.391404 11046 layer_factory.hpp:77] Creating layer label_1_3x5_data_1_split
I0113 00:22:44.391418 11046 net.cpp:100] Creating Layer label_1_3x5_data_1_split
I0113 00:22:44.391422 11046 net.cpp:434] label_1_3x5_data_1_split <- label_1_3x5
I0113 00:22:44.391435 11046 net.cpp:408] label_1_3x5_data_1_split -> label_1_3x5_data_1_split_0
I0113 00:22:44.391446 11046 net.cpp:408] label_1_3x5_data_1_split -> label_1_3x5_data_1_split_1
I0113 00:22:44.391551 11046 net.cpp:150] Setting up label_1_3x5_data_1_split
I0113 00:22:44.391556 11046 net.cpp:157] Top shape: 2 6 72 96 (82944)
I0113 00:22:44.391559 11046 net.cpp:157] Top shape: 2 6 72 96 (82944)
I0113 00:22:44.391561 11046 net.cpp:165] Memory required for data: 12156508
I0113 00:22:44.391563 11046 layer_factory.hpp:77] Creating layer label_1_5x7_data_2_split
I0113 00:22:44.391569 11046 net.cpp:100] Creating Layer label_1_5x7_data_2_split
I0113 00:22:44.391571 11046 net.cpp:434] label_1_5x7_data_2_split <- label_1_5x7
I0113 00:22:44.391577 11046 net.cpp:408] label_1_5x7_data_2_split -> label_1_5x7_data_2_split_0
I0113 00:22:44.391582 11046 net.cpp:408] label_1_5x7_data_2_split -> label_1_5x7_data_2_split_1
I0113 00:22:44.391629 11046 net.cpp:150] Setting up label_1_5x7_data_2_split
I0113 00:22:44.391633 11046 net.cpp:157] Top shape: 2 6 72 96 (82944)
I0113 00:22:44.391636 11046 net.cpp:157] Top shape: 2 6 72 96 (82944)
I0113 00:22:44.391638 11046 net.cpp:165] Memory required for data: 12820060
I0113 00:22:44.391639 11046 layer_factory.hpp:77] Creating layer label_2_3x5_data_3_split
I0113 00:22:44.391644 11046 net.cpp:100] Creating Layer label_2_3x5_data_3_split
I0113 00:22:44.391645 11046 net.cpp:434] label_2_3x5_data_3_split <- label_2_3x5
I0113 00:22:44.391650 11046 net.cpp:408] label_2_3x5_data_3_split -> label_2_3x5_data_3_split_0
I0113 00:22:44.391654 11046 net.cpp:408] label_2_3x5_data_3_split -> label_2_3x5_data_3_split_1
I0113 00:22:44.391705 11046 net.cpp:150] Setting up label_2_3x5_data_3_split
I0113 00:22:44.391708 11046 net.cpp:157] Top shape: 2 6 36 48 (20736)
I0113 00:22:44.391710 11046 net.cpp:157] Top shape: 2 6 36 48 (20736)
I0113 00:22:44.391712 11046 net.cpp:165] Memory required for data: 12985948
I0113 00:22:44.391715 11046 layer_factory.hpp:77] Creating layer label_2_5x7_data_4_split
I0113 00:22:44.391721 11046 net.cpp:100] Creating Layer label_2_5x7_data_4_split
I0113 00:22:44.391722 11046 net.cpp:434] label_2_5x7_data_4_split <- label_2_5x7
I0113 00:22:44.391727 11046 net.cpp:408] label_2_5x7_data_4_split -> label_2_5x7_data_4_split_0
I0113 00:22:44.391731 11046 net.cpp:408] label_2_5x7_data_4_split -> label_2_5x7_data_4_split_1
I0113 00:22:44.391764 11046 net.cpp:150] Setting up label_2_5x7_data_4_split
I0113 00:22:44.391768 11046 net.cpp:157] Top shape: 2 6 36 48 (20736)
I0113 00:22:44.391772 11046 net.cpp:157] Top shape: 2 6 36 48 (20736)
I0113 00:22:44.391772 11046 net.cpp:165] Memory required for data: 13151836
I0113 00:22:44.391775 11046 layer_factory.hpp:77] Creating layer label_3_3x5_data_5_split
I0113 00:22:44.391779 11046 net.cpp:100] Creating Layer label_3_3x5_data_5_split
I0113 00:22:44.391782 11046 net.cpp:434] label_3_3x5_data_5_split <- label_3_3x5
I0113 00:22:44.391784 11046 net.cpp:408] label_3_3x5_data_5_split -> label_3_3x5_data_5_split_0
I0113 00:22:44.391789 11046 net.cpp:408] label_3_3x5_data_5_split -> label_3_3x5_data_5_split_1
I0113 00:22:44.391816 11046 net.cpp:150] Setting up label_3_3x5_data_5_split
I0113 00:22:44.391820 11046 net.cpp:157] Top shape: 2 6 18 24 (5184)
I0113 00:22:44.391822 11046 net.cpp:157] Top shape: 2 6 18 24 (5184)
I0113 00:22:44.391824 11046 net.cpp:165] Memory required for data: 13193308
I0113 00:22:44.391826 11046 layer_factory.hpp:77] Creating layer label_3_5x7_data_6_split
I0113 00:22:44.391829 11046 net.cpp:100] Creating Layer label_3_5x7_data_6_split
I0113 00:22:44.391831 11046 net.cpp:434] label_3_5x7_data_6_split <- label_3_5x7
I0113 00:22:44.391835 11046 net.cpp:408] label_3_5x7_data_6_split -> label_3_5x7_data_6_split_0
I0113 00:22:44.391839 11046 net.cpp:408] label_3_5x7_data_6_split -> label_3_5x7_data_6_split_1
I0113 00:22:44.391866 11046 net.cpp:150] Setting up label_3_5x7_data_6_split
I0113 00:22:44.391870 11046 net.cpp:157] Top shape: 2 6 18 24 (5184)
I0113 00:22:44.391872 11046 net.cpp:157] Top shape: 2 6 18 24 (5184)
I0113 00:22:44.391875 11046 net.cpp:165] Memory required for data: 13234780
I0113 00:22:44.391876 11046 layer_factory.hpp:77] Creating layer label_4_3x5_data_7_split
I0113 00:22:44.391880 11046 net.cpp:100] Creating Layer label_4_3x5_data_7_split
I0113 00:22:44.391886 11046 net.cpp:434] label_4_3x5_data_7_split <- label_4_3x5
I0113 00:22:44.391890 11046 net.cpp:408] label_4_3x5_data_7_split -> label_4_3x5_data_7_split_0
I0113 00:22:44.391894 11046 net.cpp:408] label_4_3x5_data_7_split -> label_4_3x5_data_7_split_1
I0113 00:22:44.391922 11046 net.cpp:150] Setting up label_4_3x5_data_7_split
I0113 00:22:44.391926 11046 net.cpp:157] Top shape: 2 6 9 12 (1296)
I0113 00:22:44.391928 11046 net.cpp:157] Top shape: 2 6 9 12 (1296)
I0113 00:22:44.391929 11046 net.cpp:165] Memory required for data: 13245148
I0113 00:22:44.391932 11046 layer_factory.hpp:77] Creating layer conv1_1
I0113 00:22:44.391942 11046 net.cpp:100] Creating Layer conv1_1
I0113 00:22:44.391944 11046 net.cpp:434] conv1_1 <- data
I0113 00:22:44.391948 11046 net.cpp:408] conv1_1 -> conv1_1
I0113 00:22:44.395268 11046 net.cpp:150] Setting up conv1_1
I0113 00:22:44.395287 11046 net.cpp:157] Top shape: 2 64 576 768 (56623104)
I0113 00:22:44.395289 11046 net.cpp:165] Memory required for data: 239737564
I0113 00:22:44.395301 11046 layer_factory.hpp:77] Creating layer relu1_1
I0113 00:22:44.395308 11046 net.cpp:100] Creating Layer relu1_1
I0113 00:22:44.395311 11046 net.cpp:434] relu1_1 <- conv1_1
I0113 00:22:44.395316 11046 net.cpp:395] relu1_1 -> conv1_1 (in-place)
I0113 00:22:44.395499 11046 net.cpp:150] Setting up relu1_1
I0113 00:22:44.395505 11046 net.cpp:157] Top shape: 2 64 576 768 (56623104)
I0113 00:22:44.395507 11046 net.cpp:165] Memory required for data: 466229980
I0113 00:22:44.395510 11046 layer_factory.hpp:77] Creating layer conv1_2
I0113 00:22:44.395519 11046 net.cpp:100] Creating Layer conv1_2
I0113 00:22:44.395520 11046 net.cpp:434] conv1_2 <- conv1_1
I0113 00:22:44.395525 11046 net.cpp:408] conv1_2 -> conv1_2
I0113 00:22:44.397879 11046 net.cpp:150] Setting up conv1_2
I0113 00:22:44.397892 11046 net.cpp:157] Top shape: 2 64 576 768 (56623104)
I0113 00:22:44.397894 11046 net.cpp:165] Memory required for data: 692722396
I0113 00:22:44.397903 11046 layer_factory.hpp:77] Creating layer relu1_2
I0113 00:22:44.397908 11046 net.cpp:100] Creating Layer relu1_2
I0113 00:22:44.397912 11046 net.cpp:434] relu1_2 <- conv1_2
I0113 00:22:44.397915 11046 net.cpp:395] relu1_2 -> conv1_2 (in-place)
I0113 00:22:44.398077 11046 net.cpp:150] Setting up relu1_2
I0113 00:22:44.398083 11046 net.cpp:157] Top shape: 2 64 576 768 (56623104)
I0113 00:22:44.398084 11046 net.cpp:165] Memory required for data: 919214812
I0113 00:22:44.398087 11046 layer_factory.hpp:77] Creating layer pool1
I0113 00:22:44.398093 11046 net.cpp:100] Creating Layer pool1
I0113 00:22:44.398095 11046 net.cpp:434] pool1 <- conv1_2
I0113 00:22:44.398100 11046 net.cpp:408] pool1 -> pool1
I0113 00:22:44.398142 11046 net.cpp:150] Setting up pool1
I0113 00:22:44.398146 11046 net.cpp:157] Top shape: 2 64 288 384 (14155776)
I0113 00:22:44.398149 11046 net.cpp:165] Memory required for data: 975837916
I0113 00:22:44.398150 11046 layer_factory.hpp:77] Creating layer conv2_1
I0113 00:22:44.398156 11046 net.cpp:100] Creating Layer conv2_1
I0113 00:22:44.398159 11046 net.cpp:434] conv2_1 <- pool1
I0113 00:22:44.398164 11046 net.cpp:408] conv2_1 -> conv2_1
I0113 00:22:44.399855 11046 net.cpp:150] Setting up conv2_1
I0113 00:22:44.399864 11046 net.cpp:157] Top shape: 2 128 288 384 (28311552)
I0113 00:22:44.399868 11046 net.cpp:165] Memory required for data: 1089084124
I0113 00:22:44.399874 11046 layer_factory.hpp:77] Creating layer relu2_1
I0113 00:22:44.399878 11046 net.cpp:100] Creating Layer relu2_1
I0113 00:22:44.399881 11046 net.cpp:434] relu2_1 <- conv2_1
I0113 00:22:44.399886 11046 net.cpp:395] relu2_1 -> conv2_1 (in-place)
I0113 00:22:44.400351 11046 net.cpp:150] Setting up relu2_1
I0113 00:22:44.400358 11046 net.cpp:157] Top shape: 2 128 288 384 (28311552)
I0113 00:22:44.400360 11046 net.cpp:165] Memory required for data: 1202330332
I0113 00:22:44.400363 11046 layer_factory.hpp:77] Creating layer conv2_2
I0113 00:22:44.400370 11046 net.cpp:100] Creating Layer conv2_2
I0113 00:22:44.400372 11046 net.cpp:434] conv2_2 <- conv2_1
I0113 00:22:44.400378 11046 net.cpp:408] conv2_2 -> conv2_2
I0113 00:22:44.402582 11046 net.cpp:150] Setting up conv2_2
I0113 00:22:44.402593 11046 net.cpp:157] Top shape: 2 128 288 384 (28311552)
I0113 00:22:44.402595 11046 net.cpp:165] Memory required for data: 1315576540
I0113 00:22:44.402601 11046 layer_factory.hpp:77] Creating layer relu2_2
I0113 00:22:44.402609 11046 net.cpp:100] Creating Layer relu2_2
I0113 00:22:44.402612 11046 net.cpp:434] relu2_2 <- conv2_2
I0113 00:22:44.402616 11046 net.cpp:395] relu2_2 -> conv2_2 (in-place)
I0113 00:22:44.402776 11046 net.cpp:150] Setting up relu2_2
I0113 00:22:44.402783 11046 net.cpp:157] Top shape: 2 128 288 384 (28311552)
I0113 00:22:44.402784 11046 net.cpp:165] Memory required for data: 1428822748
I0113 00:22:44.402786 11046 layer_factory.hpp:77] Creating layer pool2
I0113 00:22:44.402791 11046 net.cpp:100] Creating Layer pool2
I0113 00:22:44.402793 11046 net.cpp:434] pool2 <- conv2_2
I0113 00:22:44.402798 11046 net.cpp:408] pool2 -> pool2
I0113 00:22:44.402839 11046 net.cpp:150] Setting up pool2
I0113 00:22:44.402842 11046 net.cpp:157] Top shape: 2 128 144 192 (7077888)
I0113 00:22:44.402844 11046 net.cpp:165] Memory required for data: 1457134300
I0113 00:22:44.402846 11046 layer_factory.hpp:77] Creating layer conv3_1
I0113 00:22:44.402853 11046 net.cpp:100] Creating Layer conv3_1
I0113 00:22:44.402855 11046 net.cpp:434] conv3_1 <- pool2
I0113 00:22:44.402859 11046 net.cpp:408] conv3_1 -> conv3_1
I0113 00:22:44.404335 11046 net.cpp:150] Setting up conv3_1
I0113 00:22:44.404345 11046 net.cpp:157] Top shape: 2 256 144 192 (14155776)
I0113 00:22:44.404346 11046 net.cpp:165] Memory required for data: 1513757404
I0113 00:22:44.404355 11046 layer_factory.hpp:77] Creating layer relu3_1
I0113 00:22:44.404361 11046 net.cpp:100] Creating Layer relu3_1
I0113 00:22:44.404362 11046 net.cpp:434] relu3_1 <- conv3_1
I0113 00:22:44.404366 11046 net.cpp:395] relu3_1 -> conv3_1 (in-place)
I0113 00:22:44.404520 11046 net.cpp:150] Setting up relu3_1
I0113 00:22:44.404525 11046 net.cpp:157] Top shape: 2 256 144 192 (14155776)
I0113 00:22:44.404527 11046 net.cpp:165] Memory required for data: 1570380508
I0113 00:22:44.404530 11046 layer_factory.hpp:77] Creating layer conv3_2
I0113 00:22:44.404536 11046 net.cpp:100] Creating Layer conv3_2
I0113 00:22:44.404538 11046 net.cpp:434] conv3_2 <- conv3_1
I0113 00:22:44.404544 11046 net.cpp:408] conv3_2 -> conv3_2
I0113 00:22:44.407044 11046 net.cpp:150] Setting up conv3_2
I0113 00:22:44.407055 11046 net.cpp:157] Top shape: 2 256 144 192 (14155776)
I0113 00:22:44.407058 11046 net.cpp:165] Memory required for data: 1627003612
I0113 00:22:44.407063 11046 layer_factory.hpp:77] Creating layer relu3_2
I0113 00:22:44.407068 11046 net.cpp:100] Creating Layer relu3_2
I0113 00:22:44.407070 11046 net.cpp:434] relu3_2 <- conv3_2
I0113 00:22:44.407074 11046 net.cpp:395] relu3_2 -> conv3_2 (in-place)
I0113 00:22:44.407228 11046 net.cpp:150] Setting up relu3_2
I0113 00:22:44.407233 11046 net.cpp:157] Top shape: 2 256 144 192 (14155776)
I0113 00:22:44.407235 11046 net.cpp:165] Memory required for data: 1683626716
I0113 00:22:44.407238 11046 layer_factory.hpp:77] Creating layer conv3_3
I0113 00:22:44.407244 11046 net.cpp:100] Creating Layer conv3_3
I0113 00:22:44.407246 11046 net.cpp:434] conv3_3 <- conv3_2
I0113 00:22:44.407251 11046 net.cpp:408] conv3_3 -> conv3_3
I0113 00:22:44.409713 11046 net.cpp:150] Setting up conv3_3
I0113 00:22:44.409723 11046 net.cpp:157] Top shape: 2 256 144 192 (14155776)
I0113 00:22:44.409725 11046 net.cpp:165] Memory required for data: 1740249820
I0113 00:22:44.409731 11046 layer_factory.hpp:77] Creating layer relu3_3
I0113 00:22:44.409735 11046 net.cpp:100] Creating Layer relu3_3
I0113 00:22:44.409739 11046 net.cpp:434] relu3_3 <- conv3_3
I0113 00:22:44.409744 11046 net.cpp:395] relu3_3 -> conv3_3 (in-place)
I0113 00:22:44.409905 11046 net.cpp:150] Setting up relu3_3
I0113 00:22:44.409912 11046 net.cpp:157] Top shape: 2 256 144 192 (14155776)
I0113 00:22:44.409914 11046 net.cpp:165] Memory required for data: 1796872924
I0113 00:22:44.409917 11046 layer_factory.hpp:77] Creating layer pool3
I0113 00:22:44.409922 11046 net.cpp:100] Creating Layer pool3
I0113 00:22:44.409925 11046 net.cpp:434] pool3 <- conv3_3
I0113 00:22:44.409929 11046 net.cpp:408] pool3 -> pool3
I0113 00:22:44.409976 11046 net.cpp:150] Setting up pool3
I0113 00:22:44.409982 11046 net.cpp:157] Top shape: 2 256 72 96 (3538944)
I0113 00:22:44.409984 11046 net.cpp:165] Memory required for data: 1811028700
I0113 00:22:44.409986 11046 layer_factory.hpp:77] Creating layer conv4_1
I0113 00:22:44.409991 11046 net.cpp:100] Creating Layer conv4_1
I0113 00:22:44.409993 11046 net.cpp:434] conv4_1 <- pool3
I0113 00:22:44.409998 11046 net.cpp:408] conv4_1 -> conv4_1
I0113 00:22:44.413192 11046 net.cpp:150] Setting up conv4_1
I0113 00:22:44.413203 11046 net.cpp:157] Top shape: 2 512 72 96 (7077888)
I0113 00:22:44.413206 11046 net.cpp:165] Memory required for data: 1839340252
I0113 00:22:44.413211 11046 layer_factory.hpp:77] Creating layer relu4_1
I0113 00:22:44.413215 11046 net.cpp:100] Creating Layer relu4_1
I0113 00:22:44.413218 11046 net.cpp:434] relu4_1 <- conv4_1
I0113 00:22:44.413224 11046 net.cpp:395] relu4_1 -> conv4_1 (in-place)
I0113 00:22:44.413380 11046 net.cpp:150] Setting up relu4_1
I0113 00:22:44.413386 11046 net.cpp:157] Top shape: 2 512 72 96 (7077888)
I0113 00:22:44.413388 11046 net.cpp:165] Memory required for data: 1867651804
I0113 00:22:44.413390 11046 layer_factory.hpp:77] Creating layer conv4_2
I0113 00:22:44.413398 11046 net.cpp:100] Creating Layer conv4_2
I0113 00:22:44.413400 11046 net.cpp:434] conv4_2 <- conv4_1
I0113 00:22:44.413404 11046 net.cpp:408] conv4_2 -> conv4_2
I0113 00:22:44.417946 11046 net.cpp:150] Setting up conv4_2
I0113 00:22:44.417963 11046 net.cpp:157] Top shape: 2 512 72 96 (7077888)
I0113 00:22:44.417964 11046 net.cpp:165] Memory required for data: 1895963356
I0113 00:22:44.417978 11046 layer_factory.hpp:77] Creating layer relu4_2
I0113 00:22:44.417986 11046 net.cpp:100] Creating Layer relu4_2
I0113 00:22:44.417989 11046 net.cpp:434] relu4_2 <- conv4_2
I0113 00:22:44.417994 11046 net.cpp:395] relu4_2 -> conv4_2 (in-place)
I0113 00:22:44.418473 11046 net.cpp:150] Setting up relu4_2
I0113 00:22:44.418481 11046 net.cpp:157] Top shape: 2 512 72 96 (7077888)
I0113 00:22:44.418483 11046 net.cpp:165] Memory required for data: 1924274908
I0113 00:22:44.418485 11046 layer_factory.hpp:77] Creating layer conv4_3
I0113 00:22:44.418493 11046 net.cpp:100] Creating Layer conv4_3
I0113 00:22:44.418495 11046 net.cpp:434] conv4_3 <- conv4_2
I0113 00:22:44.418500 11046 net.cpp:408] conv4_3 -> conv4_3
I0113 00:22:44.423019 11046 net.cpp:150] Setting up conv4_3
I0113 00:22:44.423038 11046 net.cpp:157] Top shape: 2 512 72 96 (7077888)
I0113 00:22:44.423039 11046 net.cpp:165] Memory required for data: 1952586460
I0113 00:22:44.423046 11046 layer_factory.hpp:77] Creating layer relu4_3
I0113 00:22:44.423054 11046 net.cpp:100] Creating Layer relu4_3
I0113 00:22:44.423058 11046 net.cpp:434] relu4_3 <- conv4_3
I0113 00:22:44.423064 11046 net.cpp:395] relu4_3 -> conv4_3 (in-place)
I0113 00:22:44.423214 11046 net.cpp:150] Setting up relu4_3
I0113 00:22:44.423220 11046 net.cpp:157] Top shape: 2 512 72 96 (7077888)
I0113 00:22:44.423221 11046 net.cpp:165] Memory required for data: 1980898012
I0113 00:22:44.423224 11046 layer_factory.hpp:77] Creating layer conv4_3_relu4_3_0_split
I0113 00:22:44.423229 11046 net.cpp:100] Creating Layer conv4_3_relu4_3_0_split
I0113 00:22:44.423231 11046 net.cpp:434] conv4_3_relu4_3_0_split <- conv4_3
I0113 00:22:44.423236 11046 net.cpp:408] conv4_3_relu4_3_0_split -> conv4_3_relu4_3_0_split_0
I0113 00:22:44.423243 11046 net.cpp:408] conv4_3_relu4_3_0_split -> conv4_3_relu4_3_0_split_1
I0113 00:22:44.423247 11046 net.cpp:408] conv4_3_relu4_3_0_split -> conv4_3_relu4_3_0_split_2
I0113 00:22:44.423298 11046 net.cpp:150] Setting up conv4_3_relu4_3_0_split
I0113 00:22:44.423302 11046 net.cpp:157] Top shape: 2 512 72 96 (7077888)
I0113 00:22:44.423305 11046 net.cpp:157] Top shape: 2 512 72 96 (7077888)
I0113 00:22:44.423307 11046 net.cpp:157] Top shape: 2 512 72 96 (7077888)
I0113 00:22:44.423310 11046 net.cpp:165] Memory required for data: 2065832668
I0113 00:22:44.423310 11046 layer_factory.hpp:77] Creating layer loss1_conv1
I0113 00:22:44.423326 11046 net.cpp:100] Creating Layer loss1_conv1
I0113 00:22:44.423329 11046 net.cpp:434] loss1_conv1 <- conv4_3_relu4_3_0_split_0
I0113 00:22:44.423334 11046 net.cpp:408] loss1_conv1 -> loss1_conv1
I0113 00:22:44.444563 11046 net.cpp:150] Setting up loss1_conv1
I0113 00:22:44.444586 11046 net.cpp:157] Top shape: 2 512 72 96 (7077888)
I0113 00:22:44.444588 11046 net.cpp:165] Memory required for data: 2094144220
I0113 00:22:44.444597 11046 layer_factory.hpp:77] Creating layer loss_relu1
I0113 00:22:44.444607 11046 net.cpp:100] Creating Layer loss_relu1
I0113 00:22:44.444612 11046 net.cpp:434] loss_relu1 <- loss1_conv1
I0113 00:22:44.444617 11046 net.cpp:395] loss_relu1 -> loss1_conv1 (in-place)
I0113 00:22:44.444770 11046 net.cpp:150] Setting up loss_relu1
I0113 00:22:44.444777 11046 net.cpp:157] Top shape: 2 512 72 96 (7077888)
I0113 00:22:44.444779 11046 net.cpp:165] Memory required for data: 2122455772
I0113 00:22:44.444782 11046 layer_factory.hpp:77] Creating layer loss1_conv1_loss_relu1_0_split
I0113 00:22:44.444787 11046 net.cpp:100] Creating Layer loss1_conv1_loss_relu1_0_split
I0113 00:22:44.444790 11046 net.cpp:434] loss1_conv1_loss_relu1_0_split <- loss1_conv1
I0113 00:22:44.444795 11046 net.cpp:408] loss1_conv1_loss_relu1_0_split -> loss1_conv1_loss_relu1_0_split_0
I0113 00:22:44.444802 11046 net.cpp:408] loss1_conv1_loss_relu1_0_split -> loss1_conv1_loss_relu1_0_split_1
I0113 00:22:44.444842 11046 net.cpp:150] Setting up loss1_conv1_loss_relu1_0_split
I0113 00:22:44.444847 11046 net.cpp:157] Top shape: 2 512 72 96 (7077888)
I0113 00:22:44.444850 11046 net.cpp:157] Top shape: 2 512 72 96 (7077888)
I0113 00:22:44.444851 11046 net.cpp:165] Memory required for data: 2179078876
I0113 00:22:44.444854 11046 layer_factory.hpp:77] Creating layer LFCN_1_3x5
I0113 00:22:44.444861 11046 net.cpp:100] Creating Layer LFCN_1_3x5
I0113 00:22:44.444864 11046 net.cpp:434] LFCN_1_3x5 <- loss1_conv1_loss_relu1_0_split_0
I0113 00:22:44.444869 11046 net.cpp:408] LFCN_1_3x5 -> LFCN_1_3x5
I0113 00:22:44.446308 11046 net.cpp:150] Setting up LFCN_1_3x5
I0113 00:22:44.446318 11046 net.cpp:157] Top shape: 2 7 72 96 (96768)
I0113 00:22:44.446321 11046 net.cpp:165] Memory required for data: 2179465948
I0113 00:22:44.446326 11046 layer_factory.hpp:77] Creating layer LFCN_1_3x5_LFCN_1_3x5_0_split
I0113 00:22:44.446331 11046 net.cpp:100] Creating Layer LFCN_1_3x5_LFCN_1_3x5_0_split
I0113 00:22:44.446333 11046 net.cpp:434] LFCN_1_3x5_LFCN_1_3x5_0_split <- LFCN_1_3x5
I0113 00:22:44.446339 11046 net.cpp:408] LFCN_1_3x5_LFCN_1_3x5_0_split -> LFCN_1_3x5_LFCN_1_3x5_0_split_0
I0113 00:22:44.446344 11046 net.cpp:408] LFCN_1_3x5_LFCN_1_3x5_0_split -> LFCN_1_3x5_LFCN_1_3x5_0_split_1
I0113 00:22:44.446349 11046 net.cpp:408] LFCN_1_3x5_LFCN_1_3x5_0_split -> LFCN_1_3x5_LFCN_1_3x5_0_split_2
I0113 00:22:44.446398 11046 net.cpp:150] Setting up LFCN_1_3x5_LFCN_1_3x5_0_split
I0113 00:22:44.446403 11046 net.cpp:157] Top shape: 2 7 72 96 (96768)
I0113 00:22:44.446405 11046 net.cpp:157] Top shape: 2 7 72 96 (96768)
I0113 00:22:44.446408 11046 net.cpp:157] Top shape: 2 7 72 96 (96768)
I0113 00:22:44.446409 11046 net.cpp:165] Memory required for data: 2180627164
I0113 00:22:44.446411 11046 layer_factory.hpp:77] Creating layer detection_loss_1_3x5
I0113 00:22:44.446419 11046 net.cpp:100] Creating Layer detection_loss_1_3x5
I0113 00:22:44.446420 11046 net.cpp:434] detection_loss_1_3x5 <- LFCN_1_3x5_LFCN_1_3x5_0_split_0
I0113 00:22:44.446424 11046 net.cpp:434] detection_loss_1_3x5 <- label_1_3x5_data_1_split_0
I0113 00:22:44.446429 11046 net.cpp:408] detection_loss_1_3x5 -> loss_1_3x5
I0113 00:22:44.446436 11046 layer_factory.hpp:77] Creating layer detection_loss_1_3x5
I0113 00:22:44.446758 11046 net.cpp:150] Setting up detection_loss_1_3x5
I0113 00:22:44.446764 11046 net.cpp:157] Top shape: 1 1 1 2 (2)
I0113 00:22:44.446766 11046 net.cpp:160]     with loss weight 0.5
I0113 00:22:44.446775 11046 net.cpp:165] Memory required for data: 2180627172
I0113 00:22:44.446777 11046 layer_factory.hpp:77] Creating layer detection_accuracy_1_3x5
I0113 00:22:44.446782 11046 net.cpp:100] Creating Layer detection_accuracy_1_3x5
I0113 00:22:44.446785 11046 net.cpp:434] detection_accuracy_1_3x5 <- LFCN_1_3x5_LFCN_1_3x5_0_split_1
I0113 00:22:44.446789 11046 net.cpp:434] detection_accuracy_1_3x5 <- label_1_3x5_data_1_split_1
I0113 00:22:44.446794 11046 net.cpp:408] detection_accuracy_1_3x5 -> accuracy_1_3x5
I0113 00:22:44.446799 11046 net.cpp:408] detection_accuracy_1_3x5 -> boxiou_1_3x5
I0113 00:22:44.446837 11046 net.cpp:150] Setting up detection_accuracy_1_3x5
I0113 00:22:44.446841 11046 net.cpp:157] Top shape: 1 1 1 2 (2)
I0113 00:22:44.446843 11046 net.cpp:157] Top shape: 1 1 1 1 (1)
I0113 00:22:44.446844 11046 net.cpp:165] Memory required for data: 2180627184
I0113 00:22:44.446847 11046 layer_factory.hpp:77] Creating layer LFCN_1_5x7
I0113 00:22:44.446854 11046 net.cpp:100] Creating Layer LFCN_1_5x7
I0113 00:22:44.446856 11046 net.cpp:434] LFCN_1_5x7 <- loss1_conv1_loss_relu1_0_split_1
I0113 00:22:44.446862 11046 net.cpp:408] LFCN_1_5x7 -> LFCN_1_5x7
I0113 00:22:44.449586 11046 net.cpp:150] Setting up LFCN_1_5x7
I0113 00:22:44.449596 11046 net.cpp:157] Top shape: 2 7 72 96 (96768)
I0113 00:22:44.449599 11046 net.cpp:165] Memory required for data: 2181014256
I0113 00:22:44.449604 11046 layer_factory.hpp:77] Creating layer LFCN_1_5x7_LFCN_1_5x7_0_split
I0113 00:22:44.449609 11046 net.cpp:100] Creating Layer LFCN_1_5x7_LFCN_1_5x7_0_split
I0113 00:22:44.449612 11046 net.cpp:434] LFCN_1_5x7_LFCN_1_5x7_0_split <- LFCN_1_5x7
I0113 00:22:44.449616 11046 net.cpp:408] LFCN_1_5x7_LFCN_1_5x7_0_split -> LFCN_1_5x7_LFCN_1_5x7_0_split_0
I0113 00:22:44.449625 11046 net.cpp:408] LFCN_1_5x7_LFCN_1_5x7_0_split -> LFCN_1_5x7_LFCN_1_5x7_0_split_1
I0113 00:22:44.449630 11046 net.cpp:408] LFCN_1_5x7_LFCN_1_5x7_0_split -> LFCN_1_5x7_LFCN_1_5x7_0_split_2
I0113 00:22:44.449679 11046 net.cpp:150] Setting up LFCN_1_5x7_LFCN_1_5x7_0_split
I0113 00:22:44.449683 11046 net.cpp:157] Top shape: 2 7 72 96 (96768)
I0113 00:22:44.449686 11046 net.cpp:157] Top shape: 2 7 72 96 (96768)
I0113 00:22:44.449688 11046 net.cpp:157] Top shape: 2 7 72 96 (96768)
I0113 00:22:44.449690 11046 net.cpp:165] Memory required for data: 2182175472
I0113 00:22:44.449692 11046 layer_factory.hpp:77] Creating layer detection_loss_1_5x7
I0113 00:22:44.449697 11046 net.cpp:100] Creating Layer detection_loss_1_5x7
I0113 00:22:44.449700 11046 net.cpp:434] detection_loss_1_5x7 <- LFCN_1_5x7_LFCN_1_5x7_0_split_0
I0113 00:22:44.449704 11046 net.cpp:434] detection_loss_1_5x7 <- label_1_5x7_data_2_split_0
I0113 00:22:44.449708 11046 net.cpp:408] detection_loss_1_5x7 -> loss_1_5x7
I0113 00:22:44.449714 11046 layer_factory.hpp:77] Creating layer detection_loss_1_5x7
I0113 00:22:44.450047 11046 net.cpp:150] Setting up detection_loss_1_5x7
I0113 00:22:44.450053 11046 net.cpp:157] Top shape: 1 1 1 2 (2)
I0113 00:22:44.450055 11046 net.cpp:160]     with loss weight 0.9
I0113 00:22:44.450059 11046 net.cpp:165] Memory required for data: 2182175480
I0113 00:22:44.450062 11046 layer_factory.hpp:77] Creating layer detection_accuracy_1_5x7
I0113 00:22:44.450069 11046 net.cpp:100] Creating Layer detection_accuracy_1_5x7
I0113 00:22:44.450072 11046 net.cpp:434] detection_accuracy_1_5x7 <- LFCN_1_5x7_LFCN_1_5x7_0_split_1
I0113 00:22:44.450075 11046 net.cpp:434] detection_accuracy_1_5x7 <- label_1_5x7_data_2_split_1
I0113 00:22:44.450079 11046 net.cpp:408] detection_accuracy_1_5x7 -> accuracy_1_5x7
I0113 00:22:44.450085 11046 net.cpp:408] detection_accuracy_1_5x7 -> boxiou_1_5x7
I0113 00:22:44.450122 11046 net.cpp:150] Setting up detection_accuracy_1_5x7
I0113 00:22:44.450126 11046 net.cpp:157] Top shape: 1 1 1 2 (2)
I0113 00:22:44.450129 11046 net.cpp:157] Top shape: 1 1 1 1 (1)
I0113 00:22:44.450130 11046 net.cpp:165] Memory required for data: 2182175492
I0113 00:22:44.450132 11046 layer_factory.hpp:77] Creating layer pool4
I0113 00:22:44.450137 11046 net.cpp:100] Creating Layer pool4
I0113 00:22:44.450140 11046 net.cpp:434] pool4 <- conv4_3_relu4_3_0_split_1
I0113 00:22:44.450145 11046 net.cpp:408] pool4 -> pool4
I0113 00:22:44.450181 11046 net.cpp:150] Setting up pool4
I0113 00:22:44.450183 11046 net.cpp:157] Top shape: 2 512 36 48 (1769472)
I0113 00:22:44.450186 11046 net.cpp:165] Memory required for data: 2189253380
I0113 00:22:44.450187 11046 layer_factory.hpp:77] Creating layer conv5_1
I0113 00:22:44.450193 11046 net.cpp:100] Creating Layer conv5_1
I0113 00:22:44.450196 11046 net.cpp:434] conv5_1 <- pool4
I0113 00:22:44.450201 11046 net.cpp:408] conv5_1 -> conv5_1
I0113 00:22:44.454747 11046 net.cpp:150] Setting up conv5_1
I0113 00:22:44.454769 11046 net.cpp:157] Top shape: 2 512 36 48 (1769472)
I0113 00:22:44.454771 11046 net.cpp:165] Memory required for data: 2196331268
I0113 00:22:44.454779 11046 layer_factory.hpp:77] Creating layer relu5_1
I0113 00:22:44.454788 11046 net.cpp:100] Creating Layer relu5_1
I0113 00:22:44.454792 11046 net.cpp:434] relu5_1 <- conv5_1
I0113 00:22:44.454797 11046 net.cpp:395] relu5_1 -> conv5_1 (in-place)
I0113 00:22:44.454955 11046 net.cpp:150] Setting up relu5_1
I0113 00:22:44.454962 11046 net.cpp:157] Top shape: 2 512 36 48 (1769472)
I0113 00:22:44.454964 11046 net.cpp:165] Memory required for data: 2203409156
I0113 00:22:44.454967 11046 layer_factory.hpp:77] Creating layer conv5_2
I0113 00:22:44.454973 11046 net.cpp:100] Creating Layer conv5_2
I0113 00:22:44.454975 11046 net.cpp:434] conv5_2 <- conv5_1
I0113 00:22:44.454980 11046 net.cpp:408] conv5_2 -> conv5_2
I0113 00:22:44.459620 11046 net.cpp:150] Setting up conv5_2
I0113 00:22:44.459640 11046 net.cpp:157] Top shape: 2 512 36 48 (1769472)
I0113 00:22:44.459642 11046 net.cpp:165] Memory required for data: 2210487044
I0113 00:22:44.459650 11046 layer_factory.hpp:77] Creating layer relu5_2
I0113 00:22:44.459656 11046 net.cpp:100] Creating Layer relu5_2
I0113 00:22:44.459661 11046 net.cpp:434] relu5_2 <- conv5_2
I0113 00:22:44.459666 11046 net.cpp:395] relu5_2 -> conv5_2 (in-place)
I0113 00:22:44.460166 11046 net.cpp:150] Setting up relu5_2
I0113 00:22:44.460175 11046 net.cpp:157] Top shape: 2 512 36 48 (1769472)
I0113 00:22:44.460177 11046 net.cpp:165] Memory required for data: 2217564932
I0113 00:22:44.460180 11046 layer_factory.hpp:77] Creating layer conv5_3
I0113 00:22:44.460187 11046 net.cpp:100] Creating Layer conv5_3
I0113 00:22:44.460189 11046 net.cpp:434] conv5_3 <- conv5_2
I0113 00:22:44.460196 11046 net.cpp:408] conv5_3 -> conv5_3
I0113 00:22:44.464903 11046 net.cpp:150] Setting up conv5_3
I0113 00:22:44.464924 11046 net.cpp:157] Top shape: 2 512 36 48 (1769472)
I0113 00:22:44.464927 11046 net.cpp:165] Memory required for data: 2224642820
I0113 00:22:44.464934 11046 layer_factory.hpp:77] Creating layer relu5_3
I0113 00:22:44.464942 11046 net.cpp:100] Creating Layer relu5_3
I0113 00:22:44.464946 11046 net.cpp:434] relu5_3 <- conv5_3
I0113 00:22:44.464953 11046 net.cpp:395] relu5_3 -> conv5_3 (in-place)
I0113 00:22:44.465112 11046 net.cpp:150] Setting up relu5_3
I0113 00:22:44.465121 11046 net.cpp:157] Top shape: 2 512 36 48 (1769472)
I0113 00:22:44.465122 11046 net.cpp:165] Memory required for data: 2231720708
I0113 00:22:44.465126 11046 layer_factory.hpp:77] Creating layer conv5_3_relu5_3_0_split
I0113 00:22:44.465132 11046 net.cpp:100] Creating Layer conv5_3_relu5_3_0_split
I0113 00:22:44.465137 11046 net.cpp:434] conv5_3_relu5_3_0_split <- conv5_3
I0113 00:22:44.465144 11046 net.cpp:408] conv5_3_relu5_3_0_split -> conv5_3_relu5_3_0_split_0
I0113 00:22:44.465152 11046 net.cpp:408] conv5_3_relu5_3_0_split -> conv5_3_relu5_3_0_split_1
I0113 00:22:44.465159 11046 net.cpp:408] conv5_3_relu5_3_0_split -> conv5_3_relu5_3_0_split_2
I0113 00:22:44.465214 11046 net.cpp:150] Setting up conv5_3_relu5_3_0_split
I0113 00:22:44.465219 11046 net.cpp:157] Top shape: 2 512 36 48 (1769472)
I0113 00:22:44.465222 11046 net.cpp:157] Top shape: 2 512 36 48 (1769472)
I0113 00:22:44.465226 11046 net.cpp:157] Top shape: 2 512 36 48 (1769472)
I0113 00:22:44.465229 11046 net.cpp:165] Memory required for data: 2252954372
I0113 00:22:44.465231 11046 layer_factory.hpp:77] Creating layer LFCN_2_3x5
I0113 00:22:44.465242 11046 net.cpp:100] Creating Layer LFCN_2_3x5
I0113 00:22:44.465246 11046 net.cpp:434] LFCN_2_3x5 <- conv5_3_relu5_3_0_split_0
I0113 00:22:44.465252 11046 net.cpp:408] LFCN_2_3x5 -> LFCN_2_3x5
I0113 00:22:44.467960 11046 net.cpp:150] Setting up LFCN_2_3x5
I0113 00:22:44.467974 11046 net.cpp:157] Top shape: 2 7 36 48 (24192)
I0113 00:22:44.467978 11046 net.cpp:165] Memory required for data: 2253051140
I0113 00:22:44.467994 11046 layer_factory.hpp:77] Creating layer LFCN_2_3x5_LFCN_2_3x5_0_split
I0113 00:22:44.468001 11046 net.cpp:100] Creating Layer LFCN_2_3x5_LFCN_2_3x5_0_split
I0113 00:22:44.468006 11046 net.cpp:434] LFCN_2_3x5_LFCN_2_3x5_0_split <- LFCN_2_3x5
I0113 00:22:44.468014 11046 net.cpp:408] LFCN_2_3x5_LFCN_2_3x5_0_split -> LFCN_2_3x5_LFCN_2_3x5_0_split_0
I0113 00:22:44.468034 11046 net.cpp:408] LFCN_2_3x5_LFCN_2_3x5_0_split -> LFCN_2_3x5_LFCN_2_3x5_0_split_1
I0113 00:22:44.468040 11046 net.cpp:408] LFCN_2_3x5_LFCN_2_3x5_0_split -> LFCN_2_3x5_LFCN_2_3x5_0_split_2
I0113 00:22:44.468094 11046 net.cpp:150] Setting up LFCN_2_3x5_LFCN_2_3x5_0_split
I0113 00:22:44.468101 11046 net.cpp:157] Top shape: 2 7 36 48 (24192)
I0113 00:22:44.468106 11046 net.cpp:157] Top shape: 2 7 36 48 (24192)
I0113 00:22:44.468108 11046 net.cpp:157] Top shape: 2 7 36 48 (24192)
I0113 00:22:44.468111 11046 net.cpp:165] Memory required for data: 2253341444
I0113 00:22:44.468116 11046 layer_factory.hpp:77] Creating layer detection_loss_2_3x5
I0113 00:22:44.468122 11046 net.cpp:100] Creating Layer detection_loss_2_3x5
I0113 00:22:44.468127 11046 net.cpp:434] detection_loss_2_3x5 <- LFCN_2_3x5_LFCN_2_3x5_0_split_0
I0113 00:22:44.468130 11046 net.cpp:434] detection_loss_2_3x5 <- label_2_3x5_data_3_split_0
I0113 00:22:44.468137 11046 net.cpp:408] detection_loss_2_3x5 -> loss_2_3x5
I0113 00:22:44.468147 11046 layer_factory.hpp:77] Creating layer detection_loss_2_3x5
I0113 00:22:44.468472 11046 net.cpp:150] Setting up detection_loss_2_3x5
I0113 00:22:44.468478 11046 net.cpp:157] Top shape: 1 1 1 2 (2)
I0113 00:22:44.468482 11046 net.cpp:160]     with loss weight 1
I0113 00:22:44.468492 11046 net.cpp:165] Memory required for data: 2253341452
I0113 00:22:44.468495 11046 layer_factory.hpp:77] Creating layer detection_accuracy_2_3x5
I0113 00:22:44.468503 11046 net.cpp:100] Creating Layer detection_accuracy_2_3x5
I0113 00:22:44.468508 11046 net.cpp:434] detection_accuracy_2_3x5 <- LFCN_2_3x5_LFCN_2_3x5_0_split_1
I0113 00:22:44.468511 11046 net.cpp:434] detection_accuracy_2_3x5 <- label_2_3x5_data_3_split_1
I0113 00:22:44.468519 11046 net.cpp:408] detection_accuracy_2_3x5 -> accuracy_2_3x5
I0113 00:22:44.468528 11046 net.cpp:408] detection_accuracy_2_3x5 -> boxiou_2_3x5
I0113 00:22:44.468569 11046 net.cpp:150] Setting up detection_accuracy_2_3x5
I0113 00:22:44.468575 11046 net.cpp:157] Top shape: 1 1 1 2 (2)
I0113 00:22:44.468577 11046 net.cpp:157] Top shape: 1 1 1 1 (1)
I0113 00:22:44.468581 11046 net.cpp:165] Memory required for data: 2253341464
I0113 00:22:44.468583 11046 layer_factory.hpp:77] Creating layer LFCN_2_5x7
I0113 00:22:44.468592 11046 net.cpp:100] Creating Layer LFCN_2_5x7
I0113 00:22:44.468596 11046 net.cpp:434] LFCN_2_5x7 <- conv5_3_relu5_3_0_split_1
I0113 00:22:44.468602 11046 net.cpp:408] LFCN_2_5x7 -> LFCN_2_5x7
I0113 00:22:44.470954 11046 net.cpp:150] Setting up LFCN_2_5x7
I0113 00:22:44.470968 11046 net.cpp:157] Top shape: 2 7 36 48 (24192)
I0113 00:22:44.470969 11046 net.cpp:165] Memory required for data: 2253438232
I0113 00:22:44.470974 11046 layer_factory.hpp:77] Creating layer LFCN_2_5x7_LFCN_2_5x7_0_split
I0113 00:22:44.470980 11046 net.cpp:100] Creating Layer LFCN_2_5x7_LFCN_2_5x7_0_split
I0113 00:22:44.470983 11046 net.cpp:434] LFCN_2_5x7_LFCN_2_5x7_0_split <- LFCN_2_5x7
I0113 00:22:44.470988 11046 net.cpp:408] LFCN_2_5x7_LFCN_2_5x7_0_split -> LFCN_2_5x7_LFCN_2_5x7_0_split_0
I0113 00:22:44.470995 11046 net.cpp:408] LFCN_2_5x7_LFCN_2_5x7_0_split -> LFCN_2_5x7_LFCN_2_5x7_0_split_1
I0113 00:22:44.471000 11046 net.cpp:408] LFCN_2_5x7_LFCN_2_5x7_0_split -> LFCN_2_5x7_LFCN_2_5x7_0_split_2
I0113 00:22:44.471055 11046 net.cpp:150] Setting up LFCN_2_5x7_LFCN_2_5x7_0_split
I0113 00:22:44.471061 11046 net.cpp:157] Top shape: 2 7 36 48 (24192)
I0113 00:22:44.471065 11046 net.cpp:157] Top shape: 2 7 36 48 (24192)
I0113 00:22:44.471067 11046 net.cpp:157] Top shape: 2 7 36 48 (24192)
I0113 00:22:44.471069 11046 net.cpp:165] Memory required for data: 2253728536
I0113 00:22:44.471071 11046 layer_factory.hpp:77] Creating layer detection_loss_2_5x7
I0113 00:22:44.471076 11046 net.cpp:100] Creating Layer detection_loss_2_5x7
I0113 00:22:44.471079 11046 net.cpp:434] detection_loss_2_5x7 <- LFCN_2_5x7_LFCN_2_5x7_0_split_0
I0113 00:22:44.471082 11046 net.cpp:434] detection_loss_2_5x7 <- label_2_5x7_data_4_split_0
I0113 00:22:44.471088 11046 net.cpp:408] detection_loss_2_5x7 -> loss_2_5x7
I0113 00:22:44.471101 11046 layer_factory.hpp:77] Creating layer detection_loss_2_5x7
I0113 00:22:44.471433 11046 net.cpp:150] Setting up detection_loss_2_5x7
I0113 00:22:44.471439 11046 net.cpp:157] Top shape: 1 1 1 2 (2)
I0113 00:22:44.471441 11046 net.cpp:160]     with loss weight 1
I0113 00:22:44.471446 11046 net.cpp:165] Memory required for data: 2253728544
I0113 00:22:44.471448 11046 layer_factory.hpp:77] Creating layer detection_accuracy_2_5x7
I0113 00:22:44.471454 11046 net.cpp:100] Creating Layer detection_accuracy_2_5x7
I0113 00:22:44.471457 11046 net.cpp:434] detection_accuracy_2_5x7 <- LFCN_2_5x7_LFCN_2_5x7_0_split_1
I0113 00:22:44.471462 11046 net.cpp:434] detection_accuracy_2_5x7 <- label_2_5x7_data_4_split_1
I0113 00:22:44.471467 11046 net.cpp:408] detection_accuracy_2_5x7 -> accuracy_2_5x7
I0113 00:22:44.471472 11046 net.cpp:408] detection_accuracy_2_5x7 -> boxiou_2_5x7
I0113 00:22:44.471508 11046 net.cpp:150] Setting up detection_accuracy_2_5x7
I0113 00:22:44.471513 11046 net.cpp:157] Top shape: 1 1 1 2 (2)
I0113 00:22:44.471515 11046 net.cpp:157] Top shape: 1 1 1 1 (1)
I0113 00:22:44.471518 11046 net.cpp:165] Memory required for data: 2253728556
I0113 00:22:44.471519 11046 layer_factory.hpp:77] Creating layer pool5
I0113 00:22:44.471524 11046 net.cpp:100] Creating Layer pool5
I0113 00:22:44.471526 11046 net.cpp:434] pool5 <- conv5_3_relu5_3_0_split_2
I0113 00:22:44.471530 11046 net.cpp:408] pool5 -> pool5
I0113 00:22:44.471565 11046 net.cpp:150] Setting up pool5
I0113 00:22:44.471568 11046 net.cpp:157] Top shape: 2 512 18 24 (442368)
I0113 00:22:44.471570 11046 net.cpp:165] Memory required for data: 2255498028
I0113 00:22:44.471572 11046 layer_factory.hpp:77] Creating layer conv6_1
I0113 00:22:44.471580 11046 net.cpp:100] Creating Layer conv6_1
I0113 00:22:44.471582 11046 net.cpp:434] conv6_1 <- pool5
I0113 00:22:44.471588 11046 net.cpp:408] conv6_1 -> conv6_1
I0113 00:22:44.492409 11046 net.cpp:150] Setting up conv6_1
I0113 00:22:44.492431 11046 net.cpp:157] Top shape: 2 512 18 24 (442368)
I0113 00:22:44.492434 11046 net.cpp:165] Memory required for data: 2257267500
I0113 00:22:44.492442 11046 layer_factory.hpp:77] Creating layer relu6_1
I0113 00:22:44.492449 11046 net.cpp:100] Creating Layer relu6_1
I0113 00:22:44.492453 11046 net.cpp:434] relu6_1 <- conv6_1
I0113 00:22:44.492460 11046 net.cpp:395] relu6_1 -> conv6_1 (in-place)
I0113 00:22:44.492612 11046 net.cpp:150] Setting up relu6_1
I0113 00:22:44.492620 11046 net.cpp:157] Top shape: 2 512 18 24 (442368)
I0113 00:22:44.492622 11046 net.cpp:165] Memory required for data: 2259036972
I0113 00:22:44.492624 11046 layer_factory.hpp:77] Creating layer conv6_1_relu6_1_0_split
I0113 00:22:44.492630 11046 net.cpp:100] Creating Layer conv6_1_relu6_1_0_split
I0113 00:22:44.492632 11046 net.cpp:434] conv6_1_relu6_1_0_split <- conv6_1
I0113 00:22:44.492637 11046 net.cpp:408] conv6_1_relu6_1_0_split -> conv6_1_relu6_1_0_split_0
I0113 00:22:44.492643 11046 net.cpp:408] conv6_1_relu6_1_0_split -> conv6_1_relu6_1_0_split_1
I0113 00:22:44.492648 11046 net.cpp:408] conv6_1_relu6_1_0_split -> conv6_1_relu6_1_0_split_2
I0113 00:22:44.492702 11046 net.cpp:150] Setting up conv6_1_relu6_1_0_split
I0113 00:22:44.492708 11046 net.cpp:157] Top shape: 2 512 18 24 (442368)
I0113 00:22:44.492712 11046 net.cpp:157] Top shape: 2 512 18 24 (442368)
I0113 00:22:44.492713 11046 net.cpp:157] Top shape: 2 512 18 24 (442368)
I0113 00:22:44.492717 11046 net.cpp:165] Memory required for data: 2264345388
I0113 00:22:44.492718 11046 layer_factory.hpp:77] Creating layer LFCN_3_3x5
I0113 00:22:44.492727 11046 net.cpp:100] Creating Layer LFCN_3_3x5
I0113 00:22:44.492729 11046 net.cpp:434] LFCN_3_3x5 <- conv6_1_relu6_1_0_split_0
I0113 00:22:44.492735 11046 net.cpp:408] LFCN_3_3x5 -> LFCN_3_3x5
I0113 00:22:44.494691 11046 net.cpp:150] Setting up LFCN_3_3x5
I0113 00:22:44.494704 11046 net.cpp:157] Top shape: 2 7 18 24 (6048)
I0113 00:22:44.494706 11046 net.cpp:165] Memory required for data: 2264369580
I0113 00:22:44.494711 11046 layer_factory.hpp:77] Creating layer LFCN_3_3x5_LFCN_3_3x5_0_split
I0113 00:22:44.494729 11046 net.cpp:100] Creating Layer LFCN_3_3x5_LFCN_3_3x5_0_split
I0113 00:22:44.494731 11046 net.cpp:434] LFCN_3_3x5_LFCN_3_3x5_0_split <- LFCN_3_3x5
I0113 00:22:44.494736 11046 net.cpp:408] LFCN_3_3x5_LFCN_3_3x5_0_split -> LFCN_3_3x5_LFCN_3_3x5_0_split_0
I0113 00:22:44.494742 11046 net.cpp:408] LFCN_3_3x5_LFCN_3_3x5_0_split -> LFCN_3_3x5_LFCN_3_3x5_0_split_1
I0113 00:22:44.494747 11046 net.cpp:408] LFCN_3_3x5_LFCN_3_3x5_0_split -> LFCN_3_3x5_LFCN_3_3x5_0_split_2
I0113 00:22:44.494799 11046 net.cpp:150] Setting up LFCN_3_3x5_LFCN_3_3x5_0_split
I0113 00:22:44.494805 11046 net.cpp:157] Top shape: 2 7 18 24 (6048)
I0113 00:22:44.494808 11046 net.cpp:157] Top shape: 2 7 18 24 (6048)
I0113 00:22:44.494810 11046 net.cpp:157] Top shape: 2 7 18 24 (6048)
I0113 00:22:44.494812 11046 net.cpp:165] Memory required for data: 2264442156
I0113 00:22:44.494815 11046 layer_factory.hpp:77] Creating layer detection_loss_3_3x5
I0113 00:22:44.494822 11046 net.cpp:100] Creating Layer detection_loss_3_3x5
I0113 00:22:44.494823 11046 net.cpp:434] detection_loss_3_3x5 <- LFCN_3_3x5_LFCN_3_3x5_0_split_0
I0113 00:22:44.494827 11046 net.cpp:434] detection_loss_3_3x5 <- label_3_3x5_data_5_split_0
I0113 00:22:44.494832 11046 net.cpp:408] detection_loss_3_3x5 -> loss_3_3x5
I0113 00:22:44.494839 11046 layer_factory.hpp:77] Creating layer detection_loss_3_3x5
I0113 00:22:44.495159 11046 net.cpp:150] Setting up detection_loss_3_3x5
I0113 00:22:44.495167 11046 net.cpp:157] Top shape: 1 1 1 2 (2)
I0113 00:22:44.495168 11046 net.cpp:160]     with loss weight 1
I0113 00:22:44.495177 11046 net.cpp:165] Memory required for data: 2264442164
I0113 00:22:44.495179 11046 layer_factory.hpp:77] Creating layer detection_accuracy_3_3x5
I0113 00:22:44.495185 11046 net.cpp:100] Creating Layer detection_accuracy_3_3x5
I0113 00:22:44.495188 11046 net.cpp:434] detection_accuracy_3_3x5 <- LFCN_3_3x5_LFCN_3_3x5_0_split_1
I0113 00:22:44.495193 11046 net.cpp:434] detection_accuracy_3_3x5 <- label_3_3x5_data_5_split_1
I0113 00:22:44.495198 11046 net.cpp:408] detection_accuracy_3_3x5 -> accuracy_3_3x5
I0113 00:22:44.495203 11046 net.cpp:408] detection_accuracy_3_3x5 -> boxiou_3_3x5
I0113 00:22:44.495244 11046 net.cpp:150] Setting up detection_accuracy_3_3x5
I0113 00:22:44.495249 11046 net.cpp:157] Top shape: 1 1 1 2 (2)
I0113 00:22:44.495251 11046 net.cpp:157] Top shape: 1 1 1 1 (1)
I0113 00:22:44.495252 11046 net.cpp:165] Memory required for data: 2264442176
I0113 00:22:44.495254 11046 layer_factory.hpp:77] Creating layer LFCN_3_5x7
I0113 00:22:44.495262 11046 net.cpp:100] Creating Layer LFCN_3_5x7
I0113 00:22:44.495265 11046 net.cpp:434] LFCN_3_5x7 <- conv6_1_relu6_1_0_split_1
I0113 00:22:44.495270 11046 net.cpp:408] LFCN_3_5x7 -> LFCN_3_5x7
I0113 00:22:44.497275 11046 net.cpp:150] Setting up LFCN_3_5x7
I0113 00:22:44.497287 11046 net.cpp:157] Top shape: 2 7 18 24 (6048)
I0113 00:22:44.497289 11046 net.cpp:165] Memory required for data: 2264466368
I0113 00:22:44.497294 11046 layer_factory.hpp:77] Creating layer LFCN_3_5x7_LFCN_3_5x7_0_split
I0113 00:22:44.497300 11046 net.cpp:100] Creating Layer LFCN_3_5x7_LFCN_3_5x7_0_split
I0113 00:22:44.497303 11046 net.cpp:434] LFCN_3_5x7_LFCN_3_5x7_0_split <- LFCN_3_5x7
I0113 00:22:44.497310 11046 net.cpp:408] LFCN_3_5x7_LFCN_3_5x7_0_split -> LFCN_3_5x7_LFCN_3_5x7_0_split_0
I0113 00:22:44.497316 11046 net.cpp:408] LFCN_3_5x7_LFCN_3_5x7_0_split -> LFCN_3_5x7_LFCN_3_5x7_0_split_1
I0113 00:22:44.497321 11046 net.cpp:408] LFCN_3_5x7_LFCN_3_5x7_0_split -> LFCN_3_5x7_LFCN_3_5x7_0_split_2
I0113 00:22:44.497390 11046 net.cpp:150] Setting up LFCN_3_5x7_LFCN_3_5x7_0_split
I0113 00:22:44.497400 11046 net.cpp:157] Top shape: 2 7 18 24 (6048)
I0113 00:22:44.497404 11046 net.cpp:157] Top shape: 2 7 18 24 (6048)
I0113 00:22:44.497408 11046 net.cpp:157] Top shape: 2 7 18 24 (6048)
I0113 00:22:44.497411 11046 net.cpp:165] Memory required for data: 2264538944
I0113 00:22:44.497414 11046 layer_factory.hpp:77] Creating layer detection_loss_3_5x7
I0113 00:22:44.497421 11046 net.cpp:100] Creating Layer detection_loss_3_5x7
I0113 00:22:44.497424 11046 net.cpp:434] detection_loss_3_5x7 <- LFCN_3_5x7_LFCN_3_5x7_0_split_0
I0113 00:22:44.497428 11046 net.cpp:434] detection_loss_3_5x7 <- label_3_5x7_data_6_split_0
I0113 00:22:44.497433 11046 net.cpp:408] detection_loss_3_5x7 -> loss_3_5x7
I0113 00:22:44.497442 11046 layer_factory.hpp:77] Creating layer detection_loss_3_5x7
I0113 00:22:44.498129 11046 net.cpp:150] Setting up detection_loss_3_5x7
I0113 00:22:44.498141 11046 net.cpp:157] Top shape: 1 1 1 2 (2)
I0113 00:22:44.498142 11046 net.cpp:160]     with loss weight 1
I0113 00:22:44.498147 11046 net.cpp:165] Memory required for data: 2264538952
I0113 00:22:44.498149 11046 layer_factory.hpp:77] Creating layer detection_accuracy_3_5x7
I0113 00:22:44.498155 11046 net.cpp:100] Creating Layer detection_accuracy_3_5x7
I0113 00:22:44.498159 11046 net.cpp:434] detection_accuracy_3_5x7 <- LFCN_3_5x7_LFCN_3_5x7_0_split_1
I0113 00:22:44.498163 11046 net.cpp:434] detection_accuracy_3_5x7 <- label_3_5x7_data_6_split_1
I0113 00:22:44.498168 11046 net.cpp:408] detection_accuracy_3_5x7 -> accuracy_3_5x7
I0113 00:22:44.498175 11046 net.cpp:408] detection_accuracy_3_5x7 -> boxiou_3_5x7
I0113 00:22:44.498219 11046 net.cpp:150] Setting up detection_accuracy_3_5x7
I0113 00:22:44.498225 11046 net.cpp:157] Top shape: 1 1 1 2 (2)
I0113 00:22:44.498229 11046 net.cpp:157] Top shape: 1 1 1 1 (1)
I0113 00:22:44.498230 11046 net.cpp:165] Memory required for data: 2264538964
I0113 00:22:44.498234 11046 layer_factory.hpp:77] Creating layer pool6
I0113 00:22:44.498239 11046 net.cpp:100] Creating Layer pool6
I0113 00:22:44.498242 11046 net.cpp:434] pool6 <- conv6_1_relu6_1_0_split_2
I0113 00:22:44.498248 11046 net.cpp:408] pool6 -> pool6
I0113 00:22:44.498287 11046 net.cpp:150] Setting up pool6
I0113 00:22:44.498292 11046 net.cpp:157] Top shape: 2 512 9 12 (110592)
I0113 00:22:44.498296 11046 net.cpp:165] Memory required for data: 2264981332
I0113 00:22:44.498297 11046 layer_factory.hpp:77] Creating layer LFCN_4_3x5
I0113 00:22:44.498306 11046 net.cpp:100] Creating Layer LFCN_4_3x5
I0113 00:22:44.498309 11046 net.cpp:434] LFCN_4_3x5 <- pool6
I0113 00:22:44.498314 11046 net.cpp:408] LFCN_4_3x5 -> LFCN_4_3x5
I0113 00:22:44.499758 11046 net.cpp:150] Setting up LFCN_4_3x5
I0113 00:22:44.499769 11046 net.cpp:157] Top shape: 2 7 9 12 (1512)
I0113 00:22:44.499770 11046 net.cpp:165] Memory required for data: 2264987380
I0113 00:22:44.499776 11046 layer_factory.hpp:77] Creating layer LFCN_4_3x5_LFCN_4_3x5_0_split
I0113 00:22:44.499781 11046 net.cpp:100] Creating Layer LFCN_4_3x5_LFCN_4_3x5_0_split
I0113 00:22:44.499784 11046 net.cpp:434] LFCN_4_3x5_LFCN_4_3x5_0_split <- LFCN_4_3x5
I0113 00:22:44.499790 11046 net.cpp:408] LFCN_4_3x5_LFCN_4_3x5_0_split -> LFCN_4_3x5_LFCN_4_3x5_0_split_0
I0113 00:22:44.499796 11046 net.cpp:408] LFCN_4_3x5_LFCN_4_3x5_0_split -> LFCN_4_3x5_LFCN_4_3x5_0_split_1
I0113 00:22:44.499802 11046 net.cpp:408] LFCN_4_3x5_LFCN_4_3x5_0_split -> LFCN_4_3x5_LFCN_4_3x5_0_split_2
I0113 00:22:44.499858 11046 net.cpp:150] Setting up LFCN_4_3x5_LFCN_4_3x5_0_split
I0113 00:22:44.499866 11046 net.cpp:157] Top shape: 2 7 9 12 (1512)
I0113 00:22:44.499869 11046 net.cpp:157] Top shape: 2 7 9 12 (1512)
I0113 00:22:44.499871 11046 net.cpp:157] Top shape: 2 7 9 12 (1512)
I0113 00:22:44.499873 11046 net.cpp:165] Memory required for data: 2265005524
I0113 00:22:44.499876 11046 layer_factory.hpp:77] Creating layer detection_loss_4_3x5
I0113 00:22:44.499881 11046 net.cpp:100] Creating Layer detection_loss_4_3x5
I0113 00:22:44.499886 11046 net.cpp:434] detection_loss_4_3x5 <- LFCN_4_3x5_LFCN_4_3x5_0_split_0
I0113 00:22:44.499889 11046 net.cpp:434] detection_loss_4_3x5 <- label_4_3x5_data_7_split_0
I0113 00:22:44.499894 11046 net.cpp:408] detection_loss_4_3x5 -> loss_4_3x5
I0113 00:22:44.499900 11046 layer_factory.hpp:77] Creating layer detection_loss_4_3x5
I0113 00:22:44.500224 11046 net.cpp:150] Setting up detection_loss_4_3x5
I0113 00:22:44.500232 11046 net.cpp:157] Top shape: 1 1 1 2 (2)
I0113 00:22:44.500234 11046 net.cpp:160]     with loss weight 1
I0113 00:22:44.500239 11046 net.cpp:165] Memory required for data: 2265005532
I0113 00:22:44.500241 11046 layer_factory.hpp:77] Creating layer detection_accuracy_4_3x5
I0113 00:22:44.500247 11046 net.cpp:100] Creating Layer detection_accuracy_4_3x5
I0113 00:22:44.500248 11046 net.cpp:434] detection_accuracy_4_3x5 <- LFCN_4_3x5_LFCN_4_3x5_0_split_1
I0113 00:22:44.500252 11046 net.cpp:434] detection_accuracy_4_3x5 <- label_4_3x5_data_7_split_1
I0113 00:22:44.500257 11046 net.cpp:408] detection_accuracy_4_3x5 -> accuracy_4_3x5
I0113 00:22:44.500263 11046 net.cpp:408] detection_accuracy_4_3x5 -> boxiou_4_3x5
I0113 00:22:44.500305 11046 net.cpp:150] Setting up detection_accuracy_4_3x5
I0113 00:22:44.500311 11046 net.cpp:157] Top shape: 1 1 1 2 (2)
I0113 00:22:44.500313 11046 net.cpp:157] Top shape: 1 1 1 1 (1)
I0113 00:22:44.500315 11046 net.cpp:165] Memory required for data: 2265005544
I0113 00:22:44.500318 11046 layer_factory.hpp:77] Creating layer proposals
I0113 00:22:44.500324 11046 net.cpp:100] Creating Layer proposals
I0113 00:22:44.500327 11046 net.cpp:434] proposals <- LFCN_1_3x5_LFCN_1_3x5_0_split_2
I0113 00:22:44.500332 11046 net.cpp:434] proposals <- LFCN_1_5x7_LFCN_1_5x7_0_split_2
I0113 00:22:44.500336 11046 net.cpp:434] proposals <- LFCN_2_3x5_LFCN_2_3x5_0_split_2
I0113 00:22:44.500339 11046 net.cpp:434] proposals <- LFCN_2_5x7_LFCN_2_5x7_0_split_2
I0113 00:22:44.500342 11046 net.cpp:434] proposals <- LFCN_3_3x5_LFCN_3_3x5_0_split_2
I0113 00:22:44.500346 11046 net.cpp:434] proposals <- LFCN_3_5x7_LFCN_3_5x7_0_split_2
I0113 00:22:44.500349 11046 net.cpp:434] proposals <- LFCN_4_3x5_LFCN_4_3x5_0_split_2
I0113 00:22:44.500355 11046 net.cpp:408] proposals -> proposals
I0113 00:22:44.500381 11046 net.cpp:150] Setting up proposals
I0113 00:22:44.500386 11046 net.cpp:157] Top shape: 1 5 1 1 (5)
I0113 00:22:44.500389 11046 net.cpp:165] Memory required for data: 2265005564
I0113 00:22:44.500391 11046 layer_factory.hpp:77] Creating layer proposal_info
I0113 00:22:44.500399 11046 net.cpp:100] Creating Layer proposal_info
I0113 00:22:44.500402 11046 net.cpp:434] proposal_info <- proposals
I0113 00:22:44.500406 11046 net.cpp:434] proposal_info <- gt_boxes
I0113 00:22:44.500412 11046 net.cpp:408] proposal_info -> rois
I0113 00:22:44.500421 11046 net.cpp:408] proposal_info -> proposal_labels
I0113 00:22:44.500427 11046 net.cpp:408] proposal_info -> proposal_targets
I0113 00:22:44.500434 11046 net.cpp:408] proposal_info -> box_inside_weights
I0113 00:22:44.500440 11046 net.cpp:408] proposal_info -> box_outside_weights
I0113 00:22:44.500447 11046 net.cpp:408] proposal_info -> match_gt_boxes
I0113 00:22:44.500535 11046 net.cpp:150] Setting up proposal_info
I0113 00:22:44.500540 11046 net.cpp:157] Top shape: 64 5 1 1 (320)
I0113 00:22:44.500543 11046 net.cpp:157] Top shape: 64 1 1 1 (64)
I0113 00:22:44.500545 11046 net.cpp:157] Top shape: 64 12 1 1 (768)
I0113 00:22:44.500548 11046 net.cpp:157] Top shape: 64 12 1 1 (768)
I0113 00:22:44.500550 11046 net.cpp:157] Top shape: 64 12 1 1 (768)
I0113 00:22:44.500555 11046 net.cpp:157] Top shape: 64 6 1 1 (384)
I0113 00:22:44.500556 11046 net.cpp:165] Memory required for data: 2265017852
I0113 00:22:44.500558 11046 layer_factory.hpp:77] Creating layer rois_proposal_info_0_split
I0113 00:22:44.500564 11046 net.cpp:100] Creating Layer rois_proposal_info_0_split
I0113 00:22:44.500567 11046 net.cpp:434] rois_proposal_info_0_split <- rois
I0113 00:22:44.500571 11046 net.cpp:408] rois_proposal_info_0_split -> rois_proposal_info_0_split_0
I0113 00:22:44.500577 11046 net.cpp:408] rois_proposal_info_0_split -> rois_proposal_info_0_split_1
I0113 00:22:44.500581 11046 net.cpp:408] rois_proposal_info_0_split -> rois_proposal_info_0_split_2
I0113 00:22:44.500627 11046 net.cpp:150] Setting up rois_proposal_info_0_split
I0113 00:22:44.500632 11046 net.cpp:157] Top shape: 64 5 1 1 (320)
I0113 00:22:44.500633 11046 net.cpp:157] Top shape: 64 5 1 1 (320)
I0113 00:22:44.500636 11046 net.cpp:157] Top shape: 64 5 1 1 (320)
I0113 00:22:44.500638 11046 net.cpp:165] Memory required for data: 2265021692
I0113 00:22:44.500640 11046 layer_factory.hpp:77] Creating layer proposal_labels_proposal_info_1_split
I0113 00:22:44.500644 11046 net.cpp:100] Creating Layer proposal_labels_proposal_info_1_split
I0113 00:22:44.500646 11046 net.cpp:434] proposal_labels_proposal_info_1_split <- proposal_labels
I0113 00:22:44.500650 11046 net.cpp:408] proposal_labels_proposal_info_1_split -> proposal_labels_proposal_info_1_split_0
I0113 00:22:44.500655 11046 net.cpp:408] proposal_labels_proposal_info_1_split -> proposal_labels_proposal_info_1_split_1
I0113 00:22:44.500686 11046 net.cpp:150] Setting up proposal_labels_proposal_info_1_split
I0113 00:22:44.500690 11046 net.cpp:157] Top shape: 64 1 1 1 (64)
I0113 00:22:44.500694 11046 net.cpp:157] Top shape: 64 1 1 1 (64)
I0113 00:22:44.500694 11046 net.cpp:165] Memory required for data: 2265022204
I0113 00:22:44.500696 11046 layer_factory.hpp:77] Creating layer conv4_3_2x
I0113 00:22:44.500701 11046 net.cpp:100] Creating Layer conv4_3_2x
I0113 00:22:44.500705 11046 net.cpp:434] conv4_3_2x <- conv4_3_relu4_3_0_split_2
I0113 00:22:44.500710 11046 net.cpp:408] conv4_3_2x -> conv4_3_2x
I0113 00:22:44.501063 11046 net.cpp:150] Setting up conv4_3_2x
I0113 00:22:44.501067 11046 net.cpp:157] Top shape: 2 512 144 192 (28311552)
I0113 00:22:44.501070 11046 net.cpp:165] Memory required for data: 2378268412
I0113 00:22:44.501073 11046 layer_factory.hpp:77] Creating layer conv4_3_2x_conv4_3_2x_0_split
I0113 00:22:44.501077 11046 net.cpp:100] Creating Layer conv4_3_2x_conv4_3_2x_0_split
I0113 00:22:44.501080 11046 net.cpp:434] conv4_3_2x_conv4_3_2x_0_split <- conv4_3_2x
I0113 00:22:44.501083 11046 net.cpp:408] conv4_3_2x_conv4_3_2x_0_split -> conv4_3_2x_conv4_3_2x_0_split_0
I0113 00:22:44.501088 11046 net.cpp:408] conv4_3_2x_conv4_3_2x_0_split -> conv4_3_2x_conv4_3_2x_0_split_1
I0113 00:22:44.501121 11046 net.cpp:150] Setting up conv4_3_2x_conv4_3_2x_0_split
I0113 00:22:44.501124 11046 net.cpp:157] Top shape: 2 512 144 192 (28311552)
I0113 00:22:44.501127 11046 net.cpp:157] Top shape: 2 512 144 192 (28311552)
I0113 00:22:44.501129 11046 net.cpp:165] Memory required for data: 2604760828
I0113 00:22:44.501132 11046 layer_factory.hpp:77] Creating layer roi_pool_org
I0113 00:22:44.501135 11046 net.cpp:100] Creating Layer roi_pool_org
I0113 00:22:44.501138 11046 net.cpp:434] roi_pool_org <- conv4_3_2x_conv4_3_2x_0_split_0
I0113 00:22:44.501142 11046 net.cpp:434] roi_pool_org <- rois_proposal_info_0_split_0
I0113 00:22:44.501145 11046 net.cpp:408] roi_pool_org -> roi_pool_org
I0113 00:22:44.501150 11046 roi_pooling_layer.cpp:33] Spatial scale: 0.25
I0113 00:22:44.501185 11046 net.cpp:150] Setting up roi_pool_org
I0113 00:22:44.501189 11046 net.cpp:157] Top shape: 64 512 7 5 (1146880)
I0113 00:22:44.501191 11046 net.cpp:165] Memory required for data: 2609348348
I0113 00:22:44.501194 11046 layer_factory.hpp:77] Creating layer roi_pool_ctx
I0113 00:22:44.501199 11046 net.cpp:100] Creating Layer roi_pool_ctx
I0113 00:22:44.501200 11046 net.cpp:434] roi_pool_ctx <- conv4_3_2x_conv4_3_2x_0_split_1
I0113 00:22:44.501204 11046 net.cpp:434] roi_pool_ctx <- rois_proposal_info_0_split_1
I0113 00:22:44.501209 11046 net.cpp:408] roi_pool_ctx -> roi_pool_ctx
I0113 00:22:44.501212 11046 roi_pooling_layer.cpp:33] Spatial scale: 0.25
I0113 00:22:44.501245 11046 net.cpp:150] Setting up roi_pool_ctx
I0113 00:22:44.501248 11046 net.cpp:157] Top shape: 64 512 7 5 (1146880)
I0113 00:22:44.501250 11046 net.cpp:165] Memory required for data: 2613935868
I0113 00:22:44.501251 11046 layer_factory.hpp:77] Creating layer roi_pool
I0113 00:22:44.501256 11046 net.cpp:100] Creating Layer roi_pool
I0113 00:22:44.501258 11046 net.cpp:434] roi_pool <- roi_pool_org
I0113 00:22:44.501261 11046 net.cpp:434] roi_pool <- roi_pool_ctx
I0113 00:22:44.501266 11046 net.cpp:408] roi_pool -> roi_pool
I0113 00:22:44.501287 11046 net.cpp:150] Setting up roi_pool
I0113 00:22:44.501291 11046 net.cpp:157] Top shape: 64 1024 7 5 (2293760)
I0113 00:22:44.501292 11046 net.cpp:165] Memory required for data: 2623110908
I0113 00:22:44.501294 11046 layer_factory.hpp:77] Creating layer roi_c1
I0113 00:22:44.501301 11046 net.cpp:100] Creating Layer roi_c1
I0113 00:22:44.501303 11046 net.cpp:434] roi_c1 <- roi_pool
I0113 00:22:44.501307 11046 net.cpp:408] roi_c1 -> roi_c1
I0113 00:22:44.542054 11046 net.cpp:150] Setting up roi_c1
I0113 00:22:44.542083 11046 net.cpp:157] Top shape: 64 512 5 3 (491520)
I0113 00:22:44.542086 11046 net.cpp:165] Memory required for data: 2625076988
I0113 00:22:44.542095 11046 layer_factory.hpp:77] Creating layer roi_c1_relu
I0113 00:22:44.542104 11046 net.cpp:100] Creating Layer roi_c1_relu
I0113 00:22:44.542109 11046 net.cpp:434] roi_c1_relu <- roi_c1
I0113 00:22:44.542115 11046 net.cpp:395] roi_c1_relu -> roi_c1 (in-place)
I0113 00:22:44.542277 11046 net.cpp:150] Setting up roi_c1_relu
I0113 00:22:44.542285 11046 net.cpp:157] Top shape: 64 512 5 3 (491520)
I0113 00:22:44.542287 11046 net.cpp:165] Memory required for data: 2627043068
I0113 00:22:44.542289 11046 layer_factory.hpp:77] Creating layer fc6
I0113 00:22:44.542299 11046 net.cpp:100] Creating Layer fc6
I0113 00:22:44.542301 11046 net.cpp:434] fc6 <- roi_c1
I0113 00:22:44.542307 11046 net.cpp:408] fc6 -> fc6
I0113 00:22:44.671761 11046 net.cpp:150] Setting up fc6
I0113 00:22:44.671784 11046 net.cpp:157] Top shape: 64 2048 (131072)
I0113 00:22:44.671787 11046 net.cpp:165] Memory required for data: 2627567356
I0113 00:22:44.671795 11046 layer_factory.hpp:77] Creating layer relu6
I0113 00:22:44.671803 11046 net.cpp:100] Creating Layer relu6
I0113 00:22:44.671808 11046 net.cpp:434] relu6 <- fc6
I0113 00:22:44.671815 11046 net.cpp:395] relu6 -> fc6 (in-place)
I0113 00:22:44.672035 11046 net.cpp:150] Setting up relu6
I0113 00:22:44.672044 11046 net.cpp:157] Top shape: 64 2048 (131072)
I0113 00:22:44.672045 11046 net.cpp:165] Memory required for data: 2628091644
I0113 00:22:44.672049 11046 layer_factory.hpp:77] Creating layer drop6
I0113 00:22:44.672053 11046 net.cpp:100] Creating Layer drop6
I0113 00:22:44.672057 11046 net.cpp:434] drop6 <- fc6
I0113 00:22:44.672063 11046 net.cpp:395] drop6 -> fc6 (in-place)
I0113 00:22:44.672093 11046 net.cpp:150] Setting up drop6
I0113 00:22:44.672098 11046 net.cpp:157] Top shape: 64 2048 (131072)
I0113 00:22:44.672108 11046 net.cpp:165] Memory required for data: 2628615932
I0113 00:22:44.672111 11046 layer_factory.hpp:77] Creating layer fc6_drop6_0_split
I0113 00:22:44.672116 11046 net.cpp:100] Creating Layer fc6_drop6_0_split
I0113 00:22:44.672119 11046 net.cpp:434] fc6_drop6_0_split <- fc6
I0113 00:22:44.672124 11046 net.cpp:408] fc6_drop6_0_split -> fc6_drop6_0_split_0
I0113 00:22:44.672132 11046 net.cpp:408] fc6_drop6_0_split -> fc6_drop6_0_split_1
I0113 00:22:44.672169 11046 net.cpp:150] Setting up fc6_drop6_0_split
I0113 00:22:44.672175 11046 net.cpp:157] Top shape: 64 2048 (131072)
I0113 00:22:44.672178 11046 net.cpp:157] Top shape: 64 2048 (131072)
I0113 00:22:44.672180 11046 net.cpp:165] Memory required for data: 2629664508
I0113 00:22:44.672183 11046 layer_factory.hpp:77] Creating layer cls_pred
I0113 00:22:44.672188 11046 net.cpp:100] Creating Layer cls_pred
I0113 00:22:44.672191 11046 net.cpp:434] cls_pred <- fc6_drop6_0_split_0
I0113 00:22:44.672197 11046 net.cpp:408] cls_pred -> cls_pred
I0113 00:22:44.672361 11046 net.cpp:150] Setting up cls_pred
I0113 00:22:44.672368 11046 net.cpp:157] Top shape: 64 3 (192)
I0113 00:22:44.672369 11046 net.cpp:165] Memory required for data: 2629665276
I0113 00:22:44.672374 11046 layer_factory.hpp:77] Creating layer cls_pred_cls_pred_0_split
I0113 00:22:44.672379 11046 net.cpp:100] Creating Layer cls_pred_cls_pred_0_split
I0113 00:22:44.672384 11046 net.cpp:434] cls_pred_cls_pred_0_split <- cls_pred
I0113 00:22:44.672387 11046 net.cpp:408] cls_pred_cls_pred_0_split -> cls_pred_cls_pred_0_split_0
I0113 00:22:44.672391 11046 net.cpp:408] cls_pred_cls_pred_0_split -> cls_pred_cls_pred_0_split_1
I0113 00:22:44.672448 11046 net.cpp:150] Setting up cls_pred_cls_pred_0_split
I0113 00:22:44.672453 11046 net.cpp:157] Top shape: 64 3 (192)
I0113 00:22:44.672456 11046 net.cpp:157] Top shape: 64 3 (192)
I0113 00:22:44.672458 11046 net.cpp:165] Memory required for data: 2629666812
I0113 00:22:44.672461 11046 layer_factory.hpp:77] Creating layer bbox_pred
I0113 00:22:44.672466 11046 net.cpp:100] Creating Layer bbox_pred
I0113 00:22:44.672467 11046 net.cpp:434] bbox_pred <- fc6_drop6_0_split_1
I0113 00:22:44.672473 11046 net.cpp:408] bbox_pred -> bbox_pred
I0113 00:22:44.672770 11046 net.cpp:150] Setting up bbox_pred
I0113 00:22:44.672776 11046 net.cpp:157] Top shape: 64 12 (768)
I0113 00:22:44.672777 11046 net.cpp:165] Memory required for data: 2629669884
I0113 00:22:44.672782 11046 layer_factory.hpp:77] Creating layer bbox_pred_bbox_pred_0_split
I0113 00:22:44.672787 11046 net.cpp:100] Creating Layer bbox_pred_bbox_pred_0_split
I0113 00:22:44.672790 11046 net.cpp:434] bbox_pred_bbox_pred_0_split <- bbox_pred
I0113 00:22:44.672796 11046 net.cpp:408] bbox_pred_bbox_pred_0_split -> bbox_pred_bbox_pred_0_split_0
I0113 00:22:44.672801 11046 net.cpp:408] bbox_pred_bbox_pred_0_split -> bbox_pred_bbox_pred_0_split_1
I0113 00:22:44.672838 11046 net.cpp:150] Setting up bbox_pred_bbox_pred_0_split
I0113 00:22:44.672843 11046 net.cpp:157] Top shape: 64 12 (768)
I0113 00:22:44.672847 11046 net.cpp:157] Top shape: 64 12 (768)
I0113 00:22:44.672847 11046 net.cpp:165] Memory required for data: 2629676028
I0113 00:22:44.672850 11046 layer_factory.hpp:77] Creating layer loss_cls
I0113 00:22:44.672857 11046 net.cpp:100] Creating Layer loss_cls
I0113 00:22:44.672858 11046 net.cpp:434] loss_cls <- cls_pred_cls_pred_0_split_0
I0113 00:22:44.672863 11046 net.cpp:434] loss_cls <- proposal_labels_proposal_info_1_split_0
…
