…
    downsample_rate: 32
    downsample_rate: 32
    downsample_rate: 64
    coord_num: 4
    field_h: 60
    field_h: 84
    field_h: 120
    field_h: 168
    field_h: 240
    field_h: 336
    field_h: 480
    field_w: 40
    field_w: 56
    field_w: 80
    field_w: 112
    field_w: 160
    field_w: 224
    field_w: 320
    fg_threshold: 0.5
    resize_width: 1920
    resize_height: 576
    crop_width: 768
    crop_height: 576
    do_multiple_scale: true
    min_scale: 50
    max_scale: 420
    min_gt_height: 35
    shuffle: true
    output_gt_boxes: true
  }
}
layer {
  name: "conv1_1"
  type: "Convolution"
  bottom: "data"
  top: "conv1_1"
  param {
    lr_mult: 0
    decay_mult: 0
  }
  param {
    lr_mult: 0
    decay_mult: 0
  }
  convolution_param {
    num_output: 64
    pad: 1
    kernel_size: 3
  }
}
layer {
  name: "relu1_1"
  type: "ReLU"
  bottom: "conv1_1"
  top: "conv1_1"
}
layer {
  name: "conv1_2"
  type: "Convolution"
  bottom: "conv1_1"
  top: "conv1_2"
  param {
    lr_mult: 0
    decay_mult: 0
  }
  param {
    lr_mult: 0
    decay_mult: 0
  }
  convolution_param {
    num_output: 64
    pad: 1
    kernel_size: 3
  }
}
layer {
  name: "relu1_2"
  type: "ReLU"
  bottom: "conv1_2"
  top: "conv1_2"
}
layer {
  name: "pool1"
  type: "Pooling"
  bottom: "conv1_2"
  top: "pool1"
  pooling_param {
    pool: MAX
    kernel_size: 2
    stride: 2
  }
}
layer {
  name: "conv2_1"
  type: "Convolution"
  bottom: "pool1"
  top: "conv2_1"
  param {
    lr_mult: 0
    decay_mult: 0
  }
  param {
    lr_mult: 0
    decay_mult: 0
  }
  convolution_param {
    num_output: 128
    pad: 1
    kernel_size: 3
  }
}
layer {
  name: "relu2_1"
  type: "ReLU"
  bottom: "conv2_1"
  top: "conv2_1"
}
layer {
  name: "conv2_2"
  type: "Convolution"
  bottom: "conv2_1"
  top: "conv2_2"
  param {
    lr_mult: 0
    decay_mult: 0
  }
  param {
    lr_mult: 0
    decay_mult: 0
  }
  convolution_param {
    num_output: 128
    pad: 1
    kernel_size: 3
  }
}
layer {
  name: "relu2_2"
  type: "ReLU"
  bottom: "conv2_2"
  top: "conv2_2"
}
layer {
  name: "pool2"
  type: "Pooling"
  bottom: "conv2_2"
  top: "pool2"
  pooling_param {
    pool: MAX
    kernel_size: 2
    stride: 2
  }
}
layer {
  name: "conv3_1"
  type: "Convolution"
  bottom: "pool2"
  top: "conv3_1"
  convolution_param {
    num_output: 256
    pad: 1
    kernel_size: 3
  }
}
layer {
  name: "relu3_1"
  type: "ReLU"
  bottom: "conv3_1"
  top: "conv3_1"
}
layer {
  name: "conv3_2"
  type: "Convolution"
  bottom: "conv3_1"
  top: "conv3_2"
  convolution_param {
    num_output: 256
    pad: 1
    kernel_size: 3
  }
}
layer {
  name: "relu3_2"
  type: "ReLU"
  bottom: "conv3_2"
  top: "conv3_2"
}
layer {
  name: "conv3_3"
  type: "Convolution"
  bottom: "conv3_2"
  top: "conv3_3"
  convolution_param {
    num_output: 256
    pad: 1
    kernel_size: 3
  }
}
layer {
  name: "relu3_3"
  type: "ReLU"
  bottom: "conv3_3"
  top: "conv3_3"
}
layer {
  name: "pool3"
  type: "Pooling"
  bottom: "conv3_3"
  top: "pool3"
  pooling_param {
    pool: MAX
    kernel_size: 2
    stride: 2
  }
}
layer {
  name: "conv4_1"
  type: "Convolution"
  bottom: "pool3"
  top: "conv4_1"
  convolution_param {
    num_output: 512
    pad: 1
    kernel_size: 3
  }
}
layer {
  name: "relu4_1"
  type: "ReLU"
  bottom: "conv4_1"
  top: "conv4_1"
}
layer {
  name: "conv4_2"
  type: "Convolution"
  bottom: "conv4_1"
  top: "conv4_2"
  convolution_param {
    num_output: 512
    pad: 1
    kernel_size: 3
  }
}
layer {
  name: "relu4_2"
  type: "ReLU"
  bottom: "conv4_2"
  top: "conv4_2"
}
layer {
  name: "conv4_3"
  type: "Convolution"
  bottom: "conv4_2"
  top: "conv4_3"
  convolution_param {
    num_output: 512
    pad: 1
    kernel_size: 3
  }
}
layer {
  name: "relu4_3"
  type: "ReLU"
  bottom: "conv4_3"
  top: "conv4_3"
}
layer {
  name: "loss1_conv1"
  type: "Convolution"
  bottom: "conv4_3"
  top: "loss1_conv1"
  param {
    lr_mult: 1
    decay_mult: 1
  }
  param {
    lr_mult: 2
    decay_mult: 0
  }
  convolution_param {
    num_output: 512
    pad: 1
    kernel_size: 3
    weight_filler {
      type: "gaussian"
      std: 0.01
    }
    bias_filler {
      type: "constant"
    }
  }
}
layer {
  name: "loss_relu1"
  type: "ReLU"
  bottom: "loss1_conv1"
  top: "loss1_conv1"
}
layer {
  name: "LFCN_1_3x5"
  type: "Convolution"
  bottom: "loss1_conv1"
  top: "LFCN_1_3x5"
  param {
    lr_mult: 1
    decay_mult: 1
  }
  param {
    lr_mult: 2
    decay_mult: 0
  }
  convolution_param {
    num_output: 7
    weight_filler {
      type: "gaussian"
      std: 0.001
    }
    bias_filler {
      type: "constant"
    }
    pad_h: 2
    pad_w: 1
    kernel_h: 5
    kernel_w: 3
  }
}
layer {
  name: "detection_loss_1_3x5"
  type: "DetectionLoss"
  bottom: "LFCN_1_3x5"
  bottom: "label_1_3x5"
  top: "loss_1_3x5"
  loss_weight: 0.5
  detection_loss_param {
    cls_num: 3
    coord_num: 4
    lambda: 1
    field_h: 60
    field_w: 40
    downsample_rate: 8
    bb_smooth: true
    field_whr: 2
    field_xyr: 2
    bg_threshold: 0.2
    bg_multiple: 2
    sample_mode: "bootstrap"
    pos_neg_weighted: true
  }
}
layer {
  name: "detection_accuracy_1_3x5"
  type: "DetectionAccuracy"
  bottom: "LFCN_1_3x5"
  bottom: "label_1_3x5"
  top: "accuracy_1_3x5"
  top: "boxiou_1_3x5"
  detection_accuracy_param {
    cls_num: 3
    coord_num: 4
    field_h: 60
    field_w: 40
    downsample_rate: 8
    field_whr: 2
    field_xyr: 2
  }
}
layer {
  name: "LFCN_1_5x7"
  type: "Convolution"
  bottom: "loss1_conv1"
  top: "LFCN_1_5x7"
  param {
    lr_mult: 1
    decay_mult: 1
  }
  param {
    lr_mult: 2
    decay_mult: 0
  }
  convolution_param {
    num_output: 7
    weight_filler {
      type: "gaussian"
      std: 0.001
    }
    bias_filler {
      type: "constant"
    }
    pad_h: 3
    pad_w: 2
    kernel_h: 7
    kernel_w: 5
  }
}
layer {
  name: "detection_loss_1_5x7"
  type: "DetectionLoss"
  bottom: "LFCN_1_5x7"
  bottom: "label_1_5x7"
  top: "loss_1_5x7"
  loss_weight: 0.9
  detection_loss_param {
    cls_num: 3
    coord_num: 4
    lambda: 1
    field_h: 84
    field_w: 56
    downsample_rate: 8
    bb_smooth: true
    field_whr: 2
    field_xyr: 2
    bg_threshold: 0.2
    bg_multiple: 2
    sample_mode: "bootstrap"
    pos_neg_weighted: true
  }
}
layer {
  name: "detection_accuracy_1_5x7"
  type: "DetectionAccuracy"
  bottom: "LFCN_1_5x7"
  bottom: "label_1_5x7"
  top: "accuracy_1_5x7"
  top: "boxiou_1_5x7"
  detection_accuracy_param {
    cls_num: 3
    coord_num: 4
    field_h: 84
    field_w: 56
    downsample_rate: 8
    field_whr: 2
    field_xyr: 2
  }
}
layer {
  name: "pool4"
  type: "Pooling"
  bottom: "conv4_3"
  top: "pool4"
  pooling_param {
    pool: MAX
    kernel_size: 2
    stride: 2
  }
}
layer {
  name: "conv5_1"
  type: "Convolution"
  bottom: "pool4"
  top: "conv5_1"
  convolution_param {
    num_output: 512
    pad: 1
    kernel_size: 3
  }
}
layer {
  name: "relu5_1"
  type: "ReLU"
  bottom: "conv5_1"
  top: "conv5_1"
}
layer {
  name: "conv5_2"
  type: "Convolution"
  bottom: "conv5_1"
  top: "conv5_2"
  convolution_param {
    num_output: 512
    pad: 1
    kernel_size: 3
  }
}
layer {
  name: "relu5_2"
  type: "ReLU"
  bottom: "conv5_2"
  top: "conv5_2"
}
layer {
  name: "conv5_3"
  type: "Convolution"
  bottom: "conv5_2"
  top: "conv5_3"
  convolution_param {
    num_output: 512
    pad: 1
    kernel_size: 3
  }
}
layer {
  name: "relu5_3"
  type: "ReLU"
  bottom: "conv5_3"
  top: "conv5_3"
}
layer {
  name: "LFCN_2_3x5"
  type: "Convolution"
  bottom: "conv5_3"
  top: "LFCN_2_3x5"
  param {
    lr_mult: 1
    decay_mult: 1
  }
  param {
    lr_mult: 2
    decay_mult: 0
  }
  convolution_param {
    num_output: 7
    weight_filler {
      type: "gaussian"
      std: 0.001
    }
    bias_filler {
      type: "constant"
    }
    pad_h: 2
    pad_w: 1
    kernel_h: 5
    kernel_w: 3
  }
}
layer {
  name: "detection_loss_2_3x5"
  type: "DetectionLoss"
  bottom: "LFCN_2_3x5"
  bottom: "label_2_3x5"
  top: "loss_2_3x5"
  detection_loss_param {
    cls_num: 3
    coord_num: 4
    lambda: 1
    field_h: 120
    field_w: 80
    downsample_rate: 16
    bb_smooth: true
    field_whr: 2
    field_xyr: 2
    bg_threshold: 0.2
    bg_multiple: 2
    sample_mode: "bootstrap"
    pos_neg_weighted: true
  }
}
layer {
  name: "detection_accuracy_2_3x5"
  type: "DetectionAccuracy"
  bottom: "LFCN_2_3x5"
  bottom: "label_2_3x5"
  top: "accuracy_2_3x5"
  top: "boxiou_2_3x5"
  detection_accuracy_param {
    cls_num: 3
    coord_num: 4
    field_h: 120
    field_w: 80
    downsample_rate: 16
    field_whr: 2
    field_xyr: 2
  }
}
layer {
  name: "LFCN_2_5x7"
  type: "Convolution"
  bottom: "conv5_3"
  top: "LFCN_2_5x7"
  param {
    lr_mult: 1
    decay_mult: 1
  }
  param {
    lr_mult: 2
    decay_mult: 0
  }
  convolution_param {
    num_output: 7
    weight_filler {
      type: "gaussian"
      std: 0.001
    }
    bias_filler {
      type: "constant"
    }
    pad_h: 3
    pad_w: 2
    kernel_h: 7
    kernel_w: 5
  }
}
layer {
  name: "detection_loss_2_5x7"
  type: "DetectionLoss"
  bottom: "LFCN_2_5x7"
  bottom: "label_2_5x7"
  top: "loss_2_5x7"
  detection_loss_param {
    cls_num: 3
    coord_num: 4
    lambda: 1
    field_h: 168
    field_w: 112
    downsample_rate: 16
    bb_smooth: true
    field_whr: 2
    field_xyr: 2
    bg_threshold: 0.2
    bg_multiple: 2
    sample_mode: "bootstrap"
    pos_neg_weighted: true
  }
}
layer {
  name: "detection_accuracy_2_5x7"
  type: "DetectionAccuracy"
  bottom: "LFCN_2_5x7"
  bottom: "label_2_5x7"
  top: "accuracy_2_5x7"
  top: "boxiou_2_5x7"
  detection_accuracy_param {
    cls_num: 3
    coord_num: 4
    field_h: 168
    field_w: 112
    downsample_rate: 16
    field_whr: 2
    field_xyr: 2
  }
}
layer {
  name: "pool5"
  type: "Pooling"
  bottom: "conv5_3"
  top: "pool5"
  pooling_param {
    pool: MAX
    kernel_size: 2
    stride: 2
  }
}
layer {
  name: "conv6_1"
  type: "Convolution"
  bottom: "pool5"
  top: "conv6_1"
  param {
    lr_mult: 1
    decay_mult: 1
  }
  param {
    lr_mult: 2
    decay_mult: 0
  }
  convolution_param {
    num_output: 512
    pad: 1
    kernel_size: 3
    weight_filler {
      type: "gaussian"
      std: 0.01
    }
    bias_filler {
      type: "constant"
    }
  }
}
layer {
  name: "relu6_1"
  type: "ReLU"
  bottom: "conv6_1"
  top: "conv6_1"
}
layer {
  name: "LFCN_3_3x5"
  type: "Convolution"
  bottom: "conv6_1"
  top: "LFCN_3_3x5"
  param {
    lr_mult: 1
    decay_mult: 1
  }
  param {
    lr_mult: 2
    decay_mult: 0
  }
  convolution_param {
    num_output: 7
    weight_filler {
      type: "gaussian"
      std: 0.001
    }
    bias_filler {
      type: "constant"
    }
    pad_h: 2
    pad_w: 1
    kernel_h: 5
    kernel_w: 3
  }
}
layer {
  name: "detection_loss_3_3x5"
  type: "DetectionLoss"
  bottom: "LFCN_3_3x5"
  bottom: "label_3_3x5"
  top: "loss_3_3x5"
  detection_loss_param {
    cls_num: 3
    coord_num: 4
    lambda: 1
    field_h: 240
    field_w: 160
    downsample_rate: 32
    bb_smooth: true
    field_whr: 2
    field_xyr: 2
    bg_threshold: 0.2
    bg_multiple: 2
    sample_mode: "bootstrap"
    pos_neg_weighted: true
  }
}
layer {
  name: "detection_accuracy_3_3x5"
  type: "DetectionAccuracy"
  bottom: "LFCN_3_3x5"
  bottom: "label_3_3x5"
  top: "accuracy_3_3x5"
  top: "boxiou_3_3x5"
  detection_accuracy_param {
    cls_num: 3
    coord_num: 4
    field_h: 240
    field_w: 160
    downsample_rate: 32
    field_whr: 2
    field_xyr: 2
  }
}
layer {
  name: "LFCN_3_5x7"
  type: "Convolution"
  bottom: "conv6_1"
  top: "LFCN_3_5x7"
  param {
    lr_mult: 1
    decay_mult: 1
  }
  param {
    lr_mult: 2
    decay_mult: 0
  }
  convolution_param {
    num_output: 7
    weight_filler {
      type: "gaussian"
      std: 0.001
    }
    bias_filler {
      type: "constant"
    }
    pad_h: 3
    pad_w: 2
    kernel_h: 7
    kernel_w: 5
  }
}
layer {
  name: "detection_loss_3_5x7"
  type: "DetectionLoss"
  bottom: "LFCN_3_5x7"
  bottom: "label_3_5x7"
  top: "loss_3_5x7"
  detection_loss_param {
    cls_num: 3
    coord_num: 4
    lambda: 1
    field_h: 336
    field_w: 224
    downsample_rate: 32
    bb_smooth: true
    field_whr: 2
    field_xyr: 2
    bg_threshold: 0.2
    bg_multiple: 2
    sample_mode: "bootstrap"
    pos_neg_weighted: true
  }
}
layer {
  name: "detection_accuracy_3_5x7"
  type: "DetectionAccuracy"
  bottom: "LFCN_3_5x7"
  bottom: "label_3_5x7"
  top: "accuracy_3_5x7"
  top: "boxiou_3_5x7"
  detection_accuracy_param {
    cls_num: 3
    coord_num: 4
    field_h: 336
    field_w: 224
    downsample_rate: 32
    field_whr: 2
    field_xyr: 2
  }
}
layer {
  name: "pool6"
  type: "Pooling"
  bottom: "conv6_1"
  top: "pool6"
  pooling_param {
    pool: MAX
    kernel_size: 2
    stride: 2
  }
}
layer {
  name: "LFCN_4_3x5"
  type: "Convolution"
  bottom: "pool6"
  top: "LFCN_4_3x5"
  param {
    lr_mult: 1
    decay_mult: 1
  }
  param {
    lr_mult: 2
    decay_mult: 0
  }
  convolution_param {
    num_output: 7
    weight_filler {
      type: "gaussian"
      std: 0.001
    }
    bias_filler {
      type: "constant"
    }
    pad_h: 2
    pad_w: 1
    kernel_h: 5
    kernel_w: 3
  }
}
layer {
  name: "detection_loss_4_3x5"
  type: "DetectionLoss"
  bottom: "LFCN_4_3x5"
  bottom: "label_4_3x5"
  top: "loss_4_3x5"
  detection_loss_param {
    cls_num: 3
    coord_num: 4
    lambda: 1
    field_h: 480
    field_w: 320
    downsample_rate: 64
    bb_smooth: true
    field_whr: 2
    field_xyr: 2
    bg_threshold: 0.2
    bg_multiple: 2
    sample_mode: "bootstrap"
    pos_neg_weighted: true
  }
}
layer {
  name: "detection_accuracy_4_3x5"
  type: "DetectionAccuracy"
  bottom: "LFCN_4_3x5"
  bottom: "label_4_3x5"
  top: "accuracy_4_3x5"
  top: "boxiou_4_3x5"
  detection_accuracy_param {
    cls_num: 3
    coord_num: 4
    field_h: 480
    field_w: 320
    downsample_rate: 64
    field_whr: 2
    field_xyr: 2
  }
}
layer {
  name: "proposals"
  type: "BoxOutput"
  bottom: "LFCN_1_3x5"
  bottom: "LFCN_1_5x7"
  bottom: "LFCN_2_3x5"
  bottom: "LFCN_2_5x7"
  bottom: "LFCN_3_3x5"
  bottom: "LFCN_3_5x7"
  bottom: "LFCN_4_3x5"
  top: "proposals"
  propagate_down: false
  propagate_down: false
  propagate_down: false
  propagate_down: false
  propagate_down: false
  propagate_down: false
  propagate_down: false
  box_output_param {
    fg_thr: -15
    iou_thr: 0.65
    nms_type: "IOU"
    field_h: 60
    field_h: 84
    field_h: 120
    field_h: 168
    field_h: 240
    field_h: 336
    field_h: 480
    field_w: 40
    field_w: 56
    field_w: 80
    field_w: 112
    field_w: 160
    field_w: 224
    field_w: 320
    downsample_rate: 8
    downsample_rate: 8
    downsample_rate: 16
    downsample_rate: 16
    downsample_rate: 32
    downsample_rate: 32
    downsample_rate: 64
    field_whr: 2
    field_xyr: 2
    max_nms_num: 3000
  }
}
layer {
  name: "proposal_info"
  type: "ProposalTarget"
  bottom: "proposals"
  bottom: "gt_boxes"
  top: "rois"
  top: "proposal_labels"
  top: "proposal_targets"
  top: "box_inside_weights"
  top: "box_outside_weights"
  top: "match_gt_boxes"
  include {
    phase: TRAIN
  }
  propagate_down: false
  propagate_down: false
  proposal_target_param {
    cls_num: 3
    batch_size: 128
    fg_fraction: 0.25
    num_img_per_batch: 4
    fg_thr: 0.5
    bg_thr_hg: 0.45
    bg_thr_lw: 0.05
    img_width: 768
    img_height: 576
  }
  bbox_reg_param {
    bbox_mean: 0
    bbox_mean: 0
    bbox_mean: 0
    bbox_mean: 0
    bbox_std: 0.1
    bbox_std: 0.1
    bbox_std: 0.2
    bbox_std: 0.2
  }
}
layer {
  name: "conv4_3_2x"
  type: "Deconvolution"
  bottom: "conv4_3"
  top: "conv4_3_2x"
  param {
    lr_mult: 0
    decay_mult: 0
  }
  convolution_param {
    num_output: 512
    bias_term: false
    pad: 1
    kernel_size: 4
    group: 512
    stride: 2
    weight_filler {
      type: "bilinear"
    }
  }
}
layer {
  name: "roi_pool_org"
  type: "ROIPooling"
  bottom: "conv4_3_2x"
  bottom: "rois"
  top: "roi_pool_org"
  roi_pooling_param {
    pooled_h: 7
    pooled_w: 5
    spatial_scale: 0.25
    pad_ratio: 0
  }
}
layer {
  name: "roi_pool_ctx"
  type: "ROIPooling"
  bottom: "conv4_3_2x"
  bottom: "rois"
  top: "roi_pool_ctx"
  roi_pooling_param {
    pooled_h: 7
    pooled_w: 5
    spatial_scale: 0.25
    pad_ratio: 0.25
  }
}
layer {
  name: "roi_pool"
  type: "Concat"
  bottom: "roi_pool_org"
  bottom: "roi_pool_ctx"
  top: "roi_pool"
}
layer {
  name: "roi_c1"
  type: "Convolution"
  bottom: "roi_pool"
  top: "roi_c1"
  param {
    lr_mult: 1
    decay_mult: 1
  }
  param {
    lr_mult: 2
    decay_mult: 0
  }
  convolution_param {
    num_output: 512
    kernel_size: 3
    weight_filler {
      type: "gaussian"
      std: 0.01
    }
    bias_filler {
      type: "constant"
    }
  }
}
layer {
  name: "roi_c1_relu"
  type: "ReLU"
  bottom: "roi_c1"
  top: "roi_c1"
}
layer {
  name: "fc6"
  type: "InnerProduct"
  bottom: "roi_c1"
  top: "fc6"
  param {
    lr_mult: 1
  }
  param {
    lr_mult: 2
  }
  inner_product_param {
    num_output: 2048
    weight_filler {
      type: "gaussian"
      std: 0.001
    }
    bias_filler {
      type: "constant"
      value: 0
    }
  }
}
layer {
  name: "relu6"
  type: "ReLU"
  bottom: "fc6"
  top: "fc6"
}
layer {
  name: "drop6"
  type: "Dropout"
  bottom: "fc6"
  top: "fc6"
  dropout_param {
    dropout_ratio: 0.5
  }
}
layer {
  name: "cls_pred"
  type: "InnerProduct"
  bottom: "fc6"
  top: "cls_pred"
  param {
    lr_mult: 1
  }
  param {
    lr_mult: 2
  }
  inner_product_param {
    num_output: 3
    weight_filler {
      type: "gaussian"
      std: 0.01
    }
    bias_filler {
      type: "constant"
      value: 0
    }
  }
}
layer {
  name: "bbox_pred"
  type: "InnerProduct"
  bottom: "fc6"
  top: "bbox_pred"
  param {
    lr_mult: 1
  }
  param {
    lr_mult: 2
  }
  inner_product_param {
    num_output: 12
    weight_filler {
      type: "gaussian"
      std: 0.001
    }
    bias_filler {
      type: "constant"
      value: 0
    }
  }
}
layer {
  name: "loss_cls"
  type: "SoftmaxWithLoss"
  bottom: "cls_pred"
  bottom: "proposal_labels"
  top: "loss_cls"
  loss_weight: 1
  propagate_down: true
  propagate_down: false
}
layer {
  name: "cls_accuracy"
  type: "Accuracy"
  bottom: "cls_pred"
  bottom: "proposal_labels"
  top: "cls_accuracy"
}
layer {
  name: "loss_bbox"
  type: "SmoothL1Loss"
  bottom: "bbox_pred"
  bottom: "proposal_targets"
  bottom: "box_inside_weights"
  bottom: "box_outside_weights"
  top: "loss_bbox"
  loss_weight: 1
}
layer {
  name: "bbox_iou"
  type: "BboxAccuracy"
  bottom: "bbox_pred"
  bottom: "rois"
  bottom: "match_gt_boxes"
  top: "bbox_iou"
  top: "bbox_iou_pre"
  bbox_reg_param {
    bbox_mean: 0
    bbox_mean: 0
    bbox_mean: 0
    bbox_mean: 0
    bbox_std: 0.1
    bbox_std: 0.1
    bbox_std: 0.2
    bbox_std: 0.2
  }
}
I1029 00:41:08.978085 30931 layer_factory.hpp:77] Creating layer data
I1029 00:41:08.978111 30931 net.cpp:100] Creating Layer data
I1029 00:41:08.978116 30931 net.cpp:408] data -> data
…
I1029 00:41:09.000030 30931 image_gt_data_layer.cpp:235] output label size 2 : 4,6,36,48
I1029 00:41:09.000059 30931 image_gt_data_layer.cpp:235] output label size 3 : 4,6,36,48
I1029 00:41:09.000094 30931 image_gt_data_layer.cpp:235] output label size 4 : 4,6,18,24
I1029 00:41:09.000123 30931 image_gt_data_layer.cpp:235] output label size 5 : 4,6,18,24
I1029 00:41:09.000152 30931 image_gt_data_layer.cpp:235] output label size 6 : 4,6,9,12
I1029 00:41:09.000183 30931 image_gt_data_layer.cpp:250] output gt boxes size: 1,7,1,1
I1029 00:41:09.031679 30931 net.cpp:150] Setting up data
I1029 00:41:09.031702 30931 net.cpp:157] Top shape: 4 3 576 768 (5308416)
I1029 00:41:09.031707 30931 net.cpp:157] Top shape: 4 6 72 96 (165888)
I1029 00:41:09.031708 30931 net.cpp:157] Top shape: 4 6 72 96 (165888)
I1029 00:41:09.031711 30931 net.cpp:157] Top shape: 4 6 36 48 (41472)
I1029 00:41:09.031729 30931 net.cpp:157] Top shape: 4 6 36 48 (41472)
I1029 00:41:09.031733 30931 net.cpp:157] Top shape: 4 6 18 24 (10368)
I1029 00:41:09.031735 30931 net.cpp:157] Top shape: 4 6 18 24 (10368)
I1029 00:41:09.031738 30931 net.cpp:157] Top shape: 4 6 9 12 (2592)
I1029 00:41:09.031740 30931 net.cpp:157] Top shape: 1 7 1 1 (7)
I1029 00:41:09.031743 30931 net.cpp:165] Memory required for data: 22985884
I1029 00:41:09.031749 30931 layer_factory.hpp:77] Creating layer label_1_3x5_data_1_split
I1029 00:41:09.031760 30931 net.cpp:100] Creating Layer label_1_3x5_data_1_split
I1029 00:41:09.031766 30931 net.cpp:434] label_1_3x5_data_1_split <- label_1_3x5
I1029 00:41:09.031776 30931 net.cpp:408] label_1_3x5_data_1_split -> label_1_3x5_data_1_split_0
I1029 00:41:09.031786 30931 net.cpp:408] label_1_3x5_data_1_split -> label_1_3x5_data_1_split_1
I1029 00:41:09.031826 30931 net.cpp:150] Setting up label_1_3x5_data_1_split
I1029 00:41:09.031831 30931 net.cpp:157] Top shape: 4 6 72 96 (165888)
I1029 00:41:09.031833 30931 net.cpp:157] Top shape: 4 6 72 96 (165888)
I1029 00:41:09.031836 30931 net.cpp:165] Memory required for data: 24312988
I1029 00:41:09.031837 30931 layer_factory.hpp:77] Creating layer label_1_5x7_data_2_split
I1029 00:41:09.031842 30931 net.cpp:100] Creating Layer label_1_5x7_data_2_split
I1029 00:41:09.031844 30931 net.cpp:434] label_1_5x7_data_2_split <- label_1_5x7
I1029 00:41:09.031848 30931 net.cpp:408] label_1_5x7_data_2_split -> label_1_5x7_data_2_split_0
I1029 00:41:09.031853 30931 net.cpp:408] label_1_5x7_data_2_split -> label_1_5x7_data_2_split_1
I1029 00:41:09.031877 30931 net.cpp:150] Setting up label_1_5x7_data_2_split
I1029 00:41:09.031880 30931 net.cpp:157] Top shape: 4 6 72 96 (165888)
I1029 00:41:09.031883 30931 net.cpp:157] Top shape: 4 6 72 96 (165888)
I1029 00:41:09.031884 30931 net.cpp:165] Memory required for data: 25640092
I1029 00:41:09.031886 30931 layer_factory.hpp:77] Creating layer label_2_3x5_data_3_split
I1029 00:41:09.031890 30931 net.cpp:100] Creating Layer label_2_3x5_data_3_split
I1029 00:41:09.031893 30931 net.cpp:434] label_2_3x5_data_3_split <- label_2_3x5
I1029 00:41:09.031898 30931 net.cpp:408] label_2_3x5_data_3_split -> label_2_3x5_data_3_split_0
I1029 00:41:09.031901 30931 net.cpp:408] label_2_3x5_data_3_split -> label_2_3x5_data_3_split_1
I1029 00:41:09.031921 30931 net.cpp:150] Setting up label_2_3x5_data_3_split
I1029 00:41:09.031926 30931 net.cpp:157] Top shape: 4 6 36 48 (41472)
I1029 00:41:09.031929 30931 net.cpp:157] Top shape: 4 6 36 48 (41472)
I1029 00:41:09.031930 30931 net.cpp:165] Memory required for data: 25971868
I1029 00:41:09.031932 30931 layer_factory.hpp:77] Creating layer label_2_5x7_data_4_split
I1029 00:41:09.031936 30931 net.cpp:100] Creating Layer label_2_5x7_data_4_split
I1029 00:41:09.031939 30931 net.cpp:434] label_2_5x7_data_4_split <- label_2_5x7
I1029 00:41:09.031944 30931 net.cpp:408] label_2_5x7_data_4_split -> label_2_5x7_data_4_split_0
I1029 00:41:09.031947 30931 net.cpp:408] label_2_5x7_data_4_split -> label_2_5x7_data_4_split_1
I1029 00:41:09.031970 30931 net.cpp:150] Setting up label_2_5x7_data_4_split
I1029 00:41:09.031975 30931 net.cpp:157] Top shape: 4 6 36 48 (41472)
I1029 00:41:09.031977 30931 net.cpp:157] Top shape: 4 6 36 48 (41472)
I1029 00:41:09.031980 30931 net.cpp:165] Memory required for data: 26303644
I1029 00:41:09.031981 30931 layer_factory.hpp:77] Creating layer label_3_3x5_data_5_split
I1029 00:41:09.031985 30931 net.cpp:100] Creating Layer label_3_3x5_data_5_split
I1029 00:41:09.031987 30931 net.cpp:434] label_3_3x5_data_5_split <- label_3_3x5
I1029 00:41:09.031991 30931 net.cpp:408] label_3_3x5_data_5_split -> label_3_3x5_data_5_split_0
I1029 00:41:09.031996 30931 net.cpp:408] label_3_3x5_data_5_split -> label_3_3x5_data_5_split_1
I1029 00:41:09.032014 30931 net.cpp:150] Setting up label_3_3x5_data_5_split
I1029 00:41:09.032019 30931 net.cpp:157] Top shape: 4 6 18 24 (10368)
I1029 00:41:09.032021 30931 net.cpp:157] Top shape: 4 6 18 24 (10368)
I1029 00:41:09.032023 30931 net.cpp:165] Memory required for data: 26386588
I1029 00:41:09.032025 30931 layer_factory.hpp:77] Creating layer label_3_5x7_data_6_split
I1029 00:41:09.032028 30931 net.cpp:100] Creating Layer label_3_5x7_data_6_split
I1029 00:41:09.032030 30931 net.cpp:434] label_3_5x7_data_6_split <- label_3_5x7
I1029 00:41:09.032034 30931 net.cpp:408] label_3_5x7_data_6_split -> label_3_5x7_data_6_split_0
I1029 00:41:09.032040 30931 net.cpp:408] label_3_5x7_data_6_split -> label_3_5x7_data_6_split_1
I1029 00:41:09.032060 30931 net.cpp:150] Setting up label_3_5x7_data_6_split
I1029 00:41:09.032064 30931 net.cpp:157] Top shape: 4 6 18 24 (10368)
I1029 00:41:09.032068 30931 net.cpp:157] Top shape: 4 6 18 24 (10368)
I1029 00:41:09.032068 30931 net.cpp:165] Memory required for data: 26469532
I1029 00:41:09.032071 30931 layer_factory.hpp:77] Creating layer label_4_3x5_data_7_split
I1029 00:41:09.032074 30931 net.cpp:100] Creating Layer label_4_3x5_data_7_split
I1029 00:41:09.032076 30931 net.cpp:434] label_4_3x5_data_7_split <- label_4_3x5
I1029 00:41:09.032079 30931 net.cpp:408] label_4_3x5_data_7_split -> label_4_3x5_data_7_split_0
I1029 00:41:09.032083 30931 net.cpp:408] label_4_3x5_data_7_split -> label_4_3x5_data_7_split_1
I1029 00:41:09.032104 30931 net.cpp:150] Setting up label_4_3x5_data_7_split
I1029 00:41:09.032107 30931 net.cpp:157] Top shape: 4 6 9 12 (2592)
I1029 00:41:09.032109 30931 net.cpp:157] Top shape: 4 6 9 12 (2592)
I1029 00:41:09.032111 30931 net.cpp:165] Memory required for data: 26490268
I1029 00:41:09.032114 30931 layer_factory.hpp:77] Creating layer conv1_1
I1029 00:41:09.032124 30931 net.cpp:100] Creating Layer conv1_1
I1029 00:41:09.032127 30931 net.cpp:434] conv1_1 <- data
I1029 00:41:09.032131 30931 net.cpp:408] conv1_1 -> conv1_1
I1029 00:41:09.262118 30931 net.cpp:150] Setting up conv1_1
I1029 00:41:09.262156 30931 net.cpp:157] Top shape: 4 64 576 768 (113246208)
I1029 00:41:09.262158 30931 net.cpp:165] Memory required for data: 479475100
I1029 00:41:09.262176 30931 layer_factory.hpp:77] Creating layer relu1_1
I1029 00:41:09.262184 30931 net.cpp:100] Creating Layer relu1_1
I1029 00:41:09.262187 30931 net.cpp:434] relu1_1 <- conv1_1
I1029 00:41:09.262192 30931 net.cpp:395] relu1_1 -> conv1_1 (in-place)
I1029 00:41:09.262325 30931 net.cpp:150] Setting up relu1_1
I1029 00:41:09.262331 30931 net.cpp:157] Top shape: 4 64 576 768 (113246208)
I1029 00:41:09.262334 30931 net.cpp:165] Memory required for data: 932459932
I1029 00:41:09.262336 30931 layer_factory.hpp:77] Creating layer conv1_2
I1029 00:41:09.262344 30931 net.cpp:100] Creating Layer conv1_2
I1029 00:41:09.262346 30931 net.cpp:434] conv1_2 <- conv1_1
I1029 00:41:09.262351 30931 net.cpp:408] conv1_2 -> conv1_2
I1029 00:41:09.264421 30931 net.cpp:150] Setting up conv1_2
I1029 00:41:09.264432 30931 net.cpp:157] Top shape: 4 64 576 768 (113246208)
I1029 00:41:09.264449 30931 net.cpp:165] Memory required for data: 1385444764
I1029 00:41:09.264456 30931 layer_factory.hpp:77] Creating layer relu1_2
I1029 00:41:09.264461 30931 net.cpp:100] Creating Layer relu1_2
I1029 00:41:09.264464 30931 net.cpp:434] relu1_2 <- conv1_2
I1029 00:41:09.264467 30931 net.cpp:395] relu1_2 -> conv1_2 (in-place)
I1029 00:41:09.264593 30931 net.cpp:150] Setting up relu1_2
I1029 00:41:09.264600 30931 net.cpp:157] Top shape: 4 64 576 768 (113246208)
I1029 00:41:09.264603 30931 net.cpp:165] Memory required for data: 1838429596
I1029 00:41:09.264605 30931 layer_factory.hpp:77] Creating layer pool1
I1029 00:41:09.264611 30931 net.cpp:100] Creating Layer pool1
I1029 00:41:09.264612 30931 net.cpp:434] pool1 <- conv1_2
I1029 00:41:09.264616 30931 net.cpp:408] pool1 -> pool1
I1029 00:41:09.264653 30931 net.cpp:150] Setting up pool1
I1029 00:41:09.264658 30931 net.cpp:157] Top shape: 4 64 288 384 (28311552)
I1029 00:41:09.264660 30931 net.cpp:165] Memory required for data: 1951675804
I1029 00:41:09.264663 30931 layer_factory.hpp:77] Creating layer conv2_1
I1029 00:41:09.264668 30931 net.cpp:100] Creating Layer conv2_1
I1029 00:41:09.264670 30931 net.cpp:434] conv2_1 <- pool1
I1029 00:41:09.264674 30931 net.cpp:408] conv2_1 -> conv2_1
I1029 00:41:09.266607 30931 net.cpp:150] Setting up conv2_1
I1029 00:41:09.266618 30931 net.cpp:157] Top shape: 4 128 288 384 (56623104)
I1029 00:41:09.266620 30931 net.cpp:165] Memory required for data: 2178168220
I1029 00:41:09.266643 30931 layer_factory.hpp:77] Creating layer relu2_1
I1029 00:41:09.266646 30931 net.cpp:100] Creating Layer relu2_1
I1029 00:41:09.266649 30931 net.cpp:434] relu2_1 <- conv2_1
I1029 00:41:09.266652 30931 net.cpp:395] relu2_1 -> conv2_1 (in-place)
I1029 00:41:09.266779 30931 net.cpp:150] Setting up relu2_1
I1029 00:41:09.266786 30931 net.cpp:157] Top shape: 4 128 288 384 (56623104)
I1029 00:41:09.266789 30931 net.cpp:165] Memory required for data: 2404660636
I1029 00:41:09.266791 30931 layer_factory.hpp:77] Creating layer conv2_2
I1029 00:41:09.266796 30931 net.cpp:100] Creating Layer conv2_2
I1029 00:41:09.266798 30931 net.cpp:434] conv2_2 <- conv2_1
I1029 00:41:09.266803 30931 net.cpp:408] conv2_2 -> conv2_2
I1029 00:41:09.268028 30931 net.cpp:150] Setting up conv2_2
I1029 00:41:09.268038 30931 net.cpp:157] Top shape: 4 128 288 384 (56623104)
I1029 00:41:09.268056 30931 net.cpp:165] Memory required for data: 2631153052
I1029 00:41:09.268060 30931 layer_factory.hpp:77] Creating layer relu2_2
I1029 00:41:09.268069 30931 net.cpp:100] Creating Layer relu2_2
I1029 00:41:09.268072 30931 net.cpp:434] relu2_2 <- conv2_2
I1029 00:41:09.268075 30931 net.cpp:395] relu2_2 -> conv2_2 (in-place)
I1029 00:41:09.268211 30931 net.cpp:150] Setting up relu2_2
I1029 00:41:09.268218 30931 net.cpp:157] Top shape: 4 128 288 384 (56623104)
I1029 00:41:09.268221 30931 net.cpp:165] Memory required for data: 2857645468
I1029 00:41:09.268224 30931 layer_factory.hpp:77] Creating layer pool2
I1029 00:41:09.268227 30931 net.cpp:100] Creating Layer pool2
I1029 00:41:09.268229 30931 net.cpp:434] pool2 <- conv2_2
I1029 00:41:09.268234 30931 net.cpp:408] pool2 -> pool2
I1029 00:41:09.268265 30931 net.cpp:150] Setting up pool2
I1029 00:41:09.268271 30931 net.cpp:157] Top shape: 4 128 144 192 (14155776)
I1029 00:41:09.268273 30931 net.cpp:165] Memory required for data: 2914268572
I1029 00:41:09.268283 30931 layer_factory.hpp:77] Creating layer conv3_1
I1029 00:41:09.268288 30931 net.cpp:100] Creating Layer conv3_1
I1029 00:41:09.268290 30931 net.cpp:434] conv3_1 <- pool2
I1029 00:41:09.268295 30931 net.cpp:408] conv3_1 -> conv3_1
I1029 00:41:09.270366 30931 net.cpp:150] Setting up conv3_1
I1029 00:41:09.270377 30931 net.cpp:157] Top shape: 4 256 144 192 (28311552)
I1029 00:41:09.270380 30931 net.cpp:165] Memory required for data: 3027514780
I1029 00:41:09.270387 30931 layer_factory.hpp:77] Creating layer relu3_1
I1029 00:41:09.270392 30931 net.cpp:100] Creating Layer relu3_1
I1029 00:41:09.270395 30931 net.cpp:434] relu3_1 <- conv3_1
I1029 00:41:09.270398 30931 net.cpp:395] relu3_1 -> conv3_1 (in-place)
I1029 00:41:09.270840 30931 net.cpp:150] Setting up relu3_1
I1029 00:41:09.270850 30931 net.cpp:157] Top shape: 4 256 144 192 (28311552)
I1029 00:41:09.270853 30931 net.cpp:165] Memory required for data: 3140760988
I1029 00:41:09.270855 30931 layer_factory.hpp:77] Creating layer conv3_2
I1029 00:41:09.270861 30931 net.cpp:100] Creating Layer conv3_2
I1029 00:41:09.270864 30931 net.cpp:434] conv3_2 <- conv3_1
I1029 00:41:09.270871 30931 net.cpp:408] conv3_2 -> conv3_2
I1029 00:41:09.272894 30931 net.cpp:150] Setting up conv3_2
I1029 00:41:09.272905 30931 net.cpp:157] Top shape: 4 256 144 192 (28311552)
I1029 00:41:09.272908 30931 net.cpp:165] Memory required for data: 3254007196
I1029 00:41:09.272913 30931 layer_factory.hpp:77] Creating layer relu3_2
I1029 00:41:09.272917 30931 net.cpp:100] Creating Layer relu3_2
I1029 00:41:09.272919 30931 net.cpp:434] relu3_2 <- conv3_2
I1029 00:41:09.272923 30931 net.cpp:395] relu3_2 -> conv3_2 (in-place)
I1029 00:41:09.273331 30931 net.cpp:150] Setting up relu3_2
I1029 00:41:09.273340 30931 net.cpp:157] Top shape: 4 256 144 192 (28311552)
I1029 00:41:09.273342 30931 net.cpp:165] Memory required for data: 3367253404
I1029 00:41:09.273345 30931 layer_factory.hpp:77] Creating layer conv3_3
I1029 00:41:09.273351 30931 net.cpp:100] Creating Layer conv3_3
I1029 00:41:09.273355 30931 net.cpp:434] conv3_3 <- conv3_2
I1029 00:41:09.273358 30931 net.cpp:408] conv3_3 -> conv3_3
I1029 00:41:09.275611 30931 net.cpp:150] Setting up conv3_3
I1029 00:41:09.275622 30931 net.cpp:157] Top shape: 4 256 144 192 (28311552)
I1029 00:41:09.275624 30931 net.cpp:165] Memory required for data: 3480499612
I1029 00:41:09.275630 30931 layer_factory.hpp:77] Creating layer relu3_3
I1029 00:41:09.275635 30931 net.cpp:100] Creating Layer relu3_3
I1029 00:41:09.275637 30931 net.cpp:434] relu3_3 <- conv3_3
I1029 00:41:09.275645 30931 net.cpp:395] relu3_3 -> conv3_3 (in-place)
I1029 00:41:09.275815 30931 net.cpp:150] Setting up relu3_3
I1029 00:41:09.275849 30931 net.cpp:157] Top shape: 4 256 144 192 (28311552)
I1029 00:41:09.275866 30931 net.cpp:165] Memory required for data: 3593745820
I1029 00:41:09.275882 30931 layer_factory.hpp:77] Creating layer pool3
I1029 00:41:09.275904 30931 net.cpp:100] Creating Layer pool3
I1029 00:41:09.275918 30931 net.cpp:434] pool3 <- conv3_3
I1029 00:41:09.275936 30931 net.cpp:408] pool3 -> pool3
I1029 00:41:09.276006 30931 net.cpp:150] Setting up pool3
I1029 00:41:09.276026 30931 net.cpp:157] Top shape: 4 256 72 96 (7077888)
I1029 00:41:09.276039 30931 net.cpp:165] Memory required for data: 3622057372
I1029 00:41:09.276053 30931 layer_factory.hpp:77] Creating layer conv4_1
I1029 00:41:09.276072 30931 net.cpp:100] Creating Layer conv4_1
I1029 00:41:09.276087 30931 net.cpp:434] conv4_1 <- pool3
I1029 00:41:09.276104 30931 net.cpp:408] conv4_1 -> conv4_1
I1029 00:41:09.280347 30931 net.cpp:150] Setting up conv4_1
I1029 00:41:09.280367 30931 net.cpp:157] Top shape: 4 512 72 96 (14155776)
I1029 00:41:09.280369 30931 net.cpp:165] Memory required for data: 3678680476
I1029 00:41:09.280377 30931 layer_factory.hpp:77] Creating layer relu4_1
I1029 00:41:09.280383 30931 net.cpp:100] Creating Layer relu4_1
I1029 00:41:09.280386 30931 net.cpp:434] relu4_1 <- conv4_1
I1029 00:41:09.280391 30931 net.cpp:395] relu4_1 -> conv4_1 (in-place)
I1029 00:41:09.280535 30931 net.cpp:150] Setting up relu4_1
I1029 00:41:09.280544 30931 net.cpp:157] Top shape: 4 512 72 96 (14155776)
I1029 00:41:09.280545 30931 net.cpp:165] Memory required for data: 3735303580
I1029 00:41:09.280547 30931 layer_factory.hpp:77] Creating layer conv4_2
I1029 00:41:09.280555 30931 net.cpp:100] Creating Layer conv4_2
I1029 00:41:09.280557 30931 net.cpp:434] conv4_2 <- conv4_1
I1029 00:41:09.280560 30931 net.cpp:408] conv4_2 -> conv4_2
I1029 00:41:09.284924 30931 net.cpp:150] Setting up conv4_2
I1029 00:41:09.284940 30931 net.cpp:157] Top shape: 4 512 72 96 (14155776)
I1029 00:41:09.284943 30931 net.cpp:165] Memory required for data: 3791926684
I1029 00:41:09.284953 30931 layer_factory.hpp:77] Creating layer relu4_2
I1029 00:41:09.284961 30931 net.cpp:100] Creating Layer relu4_2
I1029 00:41:09.284965 30931 net.cpp:434] relu4_2 <- conv4_2
I1029 00:41:09.284970 30931 net.cpp:395] relu4_2 -> conv4_2 (in-place)
I1029 00:41:09.285101 30931 net.cpp:150] Setting up relu4_2
I1029 00:41:09.285109 30931 net.cpp:157] Top shape: 4 512 72 96 (14155776)
I1029 00:41:09.285111 30931 net.cpp:165] Memory required for data: 3848549788
I1029 00:41:09.285115 30931 layer_factory.hpp:77] Creating layer conv4_3
I1029 00:41:09.285120 30931 net.cpp:100] Creating Layer conv4_3
I1029 00:41:09.285122 30931 net.cpp:434] conv4_3 <- conv4_2
I1029 00:41:09.285126 30931 net.cpp:408] conv4_3 -> conv4_3
I1029 00:41:09.289765 30931 net.cpp:150] Setting up conv4_3
I1029 00:41:09.289819 30931 net.cpp:157] Top shape: 4 512 72 96 (14155776)
I1029 00:41:09.289836 30931 net.cpp:165] Memory required for data: 3905172892
I1029 00:41:09.289858 30931 layer_factory.hpp:77] Creating layer relu4_3
I1029 00:41:09.289877 30931 net.cpp:100] Creating Layer relu4_3
I1029 00:41:09.289893 30931 net.cpp:434] relu4_3 <- conv4_3
I1029 00:41:09.289911 30931 net.cpp:395] relu4_3 -> conv4_3 (in-place)
I1029 00:41:09.290129 30931 net.cpp:150] Setting up relu4_3
I1029 00:41:09.290150 30931 net.cpp:157] Top shape: 4 512 72 96 (14155776)
I1029 00:41:09.290164 30931 net.cpp:165] Memory required for data: 3961795996
I1029 00:41:09.290179 30931 layer_factory.hpp:77] Creating layer conv4_3_relu4_3_0_split
I1029 00:41:09.290196 30931 net.cpp:100] Creating Layer conv4_3_relu4_3_0_split
I1029 00:41:09.290210 30931 net.cpp:434] conv4_3_relu4_3_0_split <- conv4_3
I1029 00:41:09.290228 30931 net.cpp:408] conv4_3_relu4_3_0_split -> conv4_3_relu4_3_0_split_0
I1029 00:41:09.290247 30931 net.cpp:408] conv4_3_relu4_3_0_split -> conv4_3_relu4_3_0_split_1
I1029 00:41:09.290268 30931 net.cpp:408] conv4_3_relu4_3_0_split -> conv4_3_relu4_3_0_split_2
I1029 00:41:09.290345 30931 net.cpp:150] Setting up conv4_3_relu4_3_0_split
I1029 00:41:09.290364 30931 net.cpp:157] Top shape: 4 512 72 96 (14155776)
I1029 00:41:09.290395 30931 net.cpp:157] Top shape: 4 512 72 96 (14155776)
I1029 00:41:09.290410 30931 net.cpp:157] Top shape: 4 512 72 96 (14155776)
I1029 00:41:09.290416 30931 net.cpp:165] Memory required for data: 4131665308
I1029 00:41:09.290418 30931 layer_factory.hpp:77] Creating layer loss1_conv1
I1029 00:41:09.290436 30931 net.cpp:100] Creating Layer loss1_conv1
I1029 00:41:09.290438 30931 net.cpp:434] loss1_conv1 <- conv4_3_relu4_3_0_split_0
I1029 00:41:09.290442 30931 net.cpp:408] loss1_conv1 -> loss1_conv1
I1029 00:41:09.311064 30931 net.cpp:150] Setting up loss1_conv1
I1029 00:41:09.311098 30931 net.cpp:157] Top shape: 4 512 72 96 (14155776)
I1029 00:41:09.311101 30931 net.cpp:165] Memory required for data: 4188288412
I1029 00:41:09.311108 30931 layer_factory.hpp:77] Creating layer loss_relu1
I1029 00:41:09.311117 30931 net.cpp:100] Creating Layer loss_relu1
I1029 00:41:09.311120 30931 net.cpp:434] loss_relu1 <- loss1_conv1
I1029 00:41:09.311126 30931 net.cpp:395] loss_relu1 -> loss1_conv1 (in-place)
I1029 00:41:09.311569 30931 net.cpp:150] Setting up loss_relu1
I1029 00:41:09.311579 30931 net.cpp:157] Top shape: 4 512 72 96 (14155776)
I1029 00:41:09.311583 30931 net.cpp:165] Memory required for data: 4244911516
I1029 00:41:09.311584 30931 layer_factory.hpp:77] Creating layer loss1_conv1_loss_relu1_0_split
I1029 00:41:09.311589 30931 net.cpp:100] Creating Layer loss1_conv1_loss_relu1_0_split
I1029 00:41:09.311591 30931 net.cpp:434] loss1_conv1_loss_relu1_0_split <- loss1_conv1
I1029 00:41:09.311595 30931 net.cpp:408] loss1_conv1_loss_relu1_0_split -> loss1_conv1_loss_relu1_0_split_0
I1029 00:41:09.311601 30931 net.cpp:408] loss1_conv1_loss_relu1_0_split -> loss1_conv1_loss_relu1_0_split_1
I1029 00:41:09.311636 30931 net.cpp:150] Setting up loss1_conv1_loss_relu1_0_split
I1029 00:41:09.311642 30931 net.cpp:157] Top shape: 4 512 72 96 (14155776)
I1029 00:41:09.311645 30931 net.cpp:157] Top shape: 4 512 72 96 (14155776)
I1029 00:41:09.311646 30931 net.cpp:165] Memory required for data: 4358157724
I1029 00:41:09.311648 30931 layer_factory.hpp:77] Creating layer LFCN_1_3x5
I1029 00:41:09.311656 30931 net.cpp:100] Creating Layer LFCN_1_3x5
I1029 00:41:09.311658 30931 net.cpp:434] LFCN_1_3x5 <- loss1_conv1_loss_relu1_0_split_0
I1029 00:41:09.311663 30931 net.cpp:408] LFCN_1_3x5 -> LFCN_1_3x5
I1029 00:41:09.312657 30931 net.cpp:150] Setting up LFCN_1_3x5
I1029 00:41:09.312666 30931 net.cpp:157] Top shape: 4 7 72 96 (193536)
I1029 00:41:09.312683 30931 net.cpp:165] Memory required for data: 4358931868
I1029 00:41:09.312688 30931 layer_factory.hpp:77] Creating layer LFCN_1_3x5_LFCN_1_3x5_0_split
I1029 00:41:09.312692 30931 net.cpp:100] Creating Layer LFCN_1_3x5_LFCN_1_3x5_0_split
I1029 00:41:09.312695 30931 net.cpp:434] LFCN_1_3x5_LFCN_1_3x5_0_split <- LFCN_1_3x5
I1029 00:41:09.312700 30931 net.cpp:408] LFCN_1_3x5_LFCN_1_3x5_0_split -> LFCN_1_3x5_LFCN_1_3x5_0_split_0
I1029 00:41:09.312703 30931 net.cpp:408] LFCN_1_3x5_LFCN_1_3x5_0_split -> LFCN_1_3x5_LFCN_1_3x5_0_split_1
I1029 00:41:09.312708 30931 net.cpp:408] LFCN_1_3x5_LFCN_1_3x5_0_split -> LFCN_1_3x5_LFCN_1_3x5_0_split_2
I1029 00:41:09.312747 30931 net.cpp:150] Setting up LFCN_1_3x5_LFCN_1_3x5_0_split
I1029 00:41:09.312752 30931 net.cpp:157] Top shape: 4 7 72 96 (193536)
I1029 00:41:09.312754 30931 net.cpp:157] Top shape: 4 7 72 96 (193536)
I1029 00:41:09.312757 30931 net.cpp:157] Top shape: 4 7 72 96 (193536)
I1029 00:41:09.312758 30931 net.cpp:165] Memory required for data: 4361254300
I1029 00:41:09.312760 30931 layer_factory.hpp:77] Creating layer detection_loss_1_3x5
I1029 00:41:09.312767 30931 net.cpp:100] Creating Layer detection_loss_1_3x5
I1029 00:41:09.312770 30931 net.cpp:434] detection_loss_1_3x5 <- LFCN_1_3x5_LFCN_1_3x5_0_split_0
I1029 00:41:09.312773 30931 net.cpp:434] detection_loss_1_3x5 <- label_1_3x5_data_1_split_0
I1029 00:41:09.312785 30931 net.cpp:408] detection_loss_1_3x5 -> loss_1_3x5
I1029 00:41:09.312808 30931 layer_factory.hpp:77] Creating layer detection_loss_1_3x5
I1029 00:41:09.313418 30931 net.cpp:150] Setting up detection_loss_1_3x5
I1029 00:41:09.313428 30931 net.cpp:157] Top shape: 1 1 1 2 (2)
I1029 00:41:09.313431 30931 net.cpp:160]     with loss weight 0.5
I1029 00:41:09.313444 30931 net.cpp:165] Memory required for data: 4361254308
I1029 00:41:09.313447 30931 layer_factory.hpp:77] Creating layer detection_accuracy_1_3x5
I1029 00:41:09.313453 30931 net.cpp:100] Creating Layer detection_accuracy_1_3x5
I1029 00:41:09.313457 30931 net.cpp:434] detection_accuracy_1_3x5 <- LFCN_1_3x5_LFCN_1_3x5_0_split_1
I1029 00:41:09.313460 30931 net.cpp:434] detection_accuracy_1_3x5 <- label_1_3x5_data_1_split_1
I1029 00:41:09.313464 30931 net.cpp:408] detection_accuracy_1_3x5 -> accuracy_1_3x5
I1029 00:41:09.313472 30931 net.cpp:408] detection_accuracy_1_3x5 -> boxiou_1_3x5
I1029 00:41:09.313503 30931 net.cpp:150] Setting up detection_accuracy_1_3x5
I1029 00:41:09.313508 30931 net.cpp:157] Top shape: 1 1 1 2 (2)
I1029 00:41:09.313510 30931 net.cpp:157] Top shape: 1 1 1 1 (1)
I1029 00:41:09.313511 30931 net.cpp:165] Memory required for data: 4361254320
I1029 00:41:09.313513 30931 layer_factory.hpp:77] Creating layer LFCN_1_5x7
I1029 00:41:09.313520 30931 net.cpp:100] Creating Layer LFCN_1_5x7
I1029 00:41:09.313526 30931 net.cpp:434] LFCN_1_5x7 <- loss1_conv1_loss_relu1_0_split_1
I1029 00:41:09.313531 30931 net.cpp:408] LFCN_1_5x7 -> LFCN_1_5x7
I1029 00:41:09.315318 30931 net.cpp:150] Setting up LFCN_1_5x7
I1029 00:41:09.315328 30931 net.cpp:157] Top shape: 4 7 72 96 (193536)
I1029 00:41:09.315330 30931 net.cpp:165] Memory required for data: 4362028464
I1029 00:41:09.315335 30931 layer_factory.hpp:77] Creating layer LFCN_1_5x7_LFCN_1_5x7_0_split
I1029 00:41:09.315340 30931 net.cpp:100] Creating Layer LFCN_1_5x7_LFCN_1_5x7_0_split
I1029 00:41:09.315342 30931 net.cpp:434] LFCN_1_5x7_LFCN_1_5x7_0_split <- LFCN_1_5x7
I1029 00:41:09.315346 30931 net.cpp:408] LFCN_1_5x7_LFCN_1_5x7_0_split -> LFCN_1_5x7_LFCN_1_5x7_0_split_0
I1029 00:41:09.315351 30931 net.cpp:408] LFCN_1_5x7_LFCN_1_5x7_0_split -> LFCN_1_5x7_LFCN_1_5x7_0_split_1
I1029 00:41:09.315359 30931 net.cpp:408] LFCN_1_5x7_LFCN_1_5x7_0_split -> LFCN_1_5x7_LFCN_1_5x7_0_split_2
I1029 00:41:09.315398 30931 net.cpp:150] Setting up LFCN_1_5x7_LFCN_1_5x7_0_split
I1029 00:41:09.315403 30931 net.cpp:157] Top shape: 4 7 72 96 (193536)
I1029 00:41:09.315407 30931 net.cpp:157] Top shape: 4 7 72 96 (193536)
I1029 00:41:09.315408 30931 net.cpp:157] Top shape: 4 7 72 96 (193536)
I1029 00:41:09.315410 30931 net.cpp:165] Memory required for data: 4364350896
I1029 00:41:09.315412 30931 layer_factory.hpp:77] Creating layer detection_loss_1_5x7
I1029 00:41:09.315418 30931 net.cpp:100] Creating Layer detection_loss_1_5x7
I1029 00:41:09.315419 30931 net.cpp:434] detection_loss_1_5x7 <- LFCN_1_5x7_LFCN_1_5x7_0_split_0
I1029 00:41:09.315423 30931 net.cpp:434] detection_loss_1_5x7 <- label_1_5x7_data_2_split_0
I1029 00:41:09.315428 30931 net.cpp:408] detection_loss_1_5x7 -> loss_1_5x7
I1029 00:41:09.315433 30931 layer_factory.hpp:77] Creating layer detection_loss_1_5x7
I1029 00:41:09.315731 30931 net.cpp:150] Setting up detection_loss_1_5x7
I1029 00:41:09.315737 30931 net.cpp:157] Top shape: 1 1 1 2 (2)
I1029 00:41:09.315739 30931 net.cpp:160]     with loss weight 0.9
I1029 00:41:09.315743 30931 net.cpp:165] Memory required for data: 4364350904
I1029 00:41:09.315745 30931 layer_factory.hpp:77] Creating layer detection_accuracy_1_5x7
I1029 00:41:09.315750 30931 net.cpp:100] Creating Layer detection_accuracy_1_5x7
I1029 00:41:09.315753 30931 net.cpp:434] detection_accuracy_1_5x7 <- LFCN_1_5x7_LFCN_1_5x7_0_split_1
I1029 00:41:09.315757 30931 net.cpp:434] detection_accuracy_1_5x7 <- label_1_5x7_data_2_split_1
I1029 00:41:09.315762 30931 net.cpp:408] detection_accuracy_1_5x7 -> accuracy_1_5x7
I1029 00:41:09.315765 30931 net.cpp:408] detection_accuracy_1_5x7 -> boxiou_1_5x7
I1029 00:41:09.315795 30931 net.cpp:150] Setting up detection_accuracy_1_5x7
I1029 00:41:09.315800 30931 net.cpp:157] Top shape: 1 1 1 2 (2)
I1029 00:41:09.315802 30931 net.cpp:157] Top shape: 1 1 1 1 (1)
I1029 00:41:09.315804 30931 net.cpp:165] Memory required for data: 4364350916
I1029 00:41:09.315806 30931 layer_factory.hpp:77] Creating layer pool4
I1029 00:41:09.315810 30931 net.cpp:100] Creating Layer pool4
I1029 00:41:09.315814 30931 net.cpp:434] pool4 <- conv4_3_relu4_3_0_split_1
I1029 00:41:09.315817 30931 net.cpp:408] pool4 -> pool4
I1029 00:41:09.315845 30931 net.cpp:150] Setting up pool4
I1029 00:41:09.315850 30931 net.cpp:157] Top shape: 4 512 36 48 (3538944)
I1029 00:41:09.315852 30931 net.cpp:165] Memory required for data: 4378506692
I1029 00:41:09.315855 30931 layer_factory.hpp:77] Creating layer conv5_1
I1029 00:41:09.315860 30931 net.cpp:100] Creating Layer conv5_1
I1029 00:41:09.315861 30931 net.cpp:434] conv5_1 <- pool4
I1029 00:41:09.315865 30931 net.cpp:408] conv5_1 -> conv5_1
I1029 00:41:09.320580 30931 net.cpp:150] Setting up conv5_1
I1029 00:41:09.320597 30931 net.cpp:157] Top shape: 4 512 36 48 (3538944)
I1029 00:41:09.320600 30931 net.cpp:165] Memory required for data: 4392662468
I1029 00:41:09.320605 30931 layer_factory.hpp:77] Creating layer relu5_1
I1029 00:41:09.320611 30931 net.cpp:100] Creating Layer relu5_1
I1029 00:41:09.320614 30931 net.cpp:434] relu5_1 <- conv5_1
I1029 00:41:09.320618 30931 net.cpp:395] relu5_1 -> conv5_1 (in-place)
I1029 00:41:09.320767 30931 net.cpp:150] Setting up relu5_1
I1029 00:41:09.320781 30931 net.cpp:157] Top shape: 4 512 36 48 (3538944)
I1029 00:41:09.320783 30931 net.cpp:165] Memory required for data: 4406818244
I1029 00:41:09.320786 30931 layer_factory.hpp:77] Creating layer conv5_2
I1029 00:41:09.320791 30931 net.cpp:100] Creating Layer conv5_2
I1029 00:41:09.320793 30931 net.cpp:434] conv5_2 <- conv5_1
I1029 00:41:09.320798 30931 net.cpp:408] conv5_2 -> conv5_2
I1029 00:41:09.325860 30931 net.cpp:150] Setting up conv5_2
I1029 00:41:09.325882 30931 net.cpp:157] Top shape: 4 512 36 48 (3538944)
I1029 00:41:09.325884 30931 net.cpp:165] Memory required for data: 4420974020
I1029 00:41:09.325893 30931 layer_factory.hpp:77] Creating layer relu5_2
I1029 00:41:09.325901 30931 net.cpp:100] Creating Layer relu5_2
I1029 00:41:09.325904 30931 net.cpp:434] relu5_2 <- conv5_2
I1029 00:41:09.325909 30931 net.cpp:395] relu5_2 -> conv5_2 (in-place)
I1029 00:41:09.326055 30931 net.cpp:150] Setting up relu5_2
I1029 00:41:09.326061 30931 net.cpp:157] Top shape: 4 512 36 48 (3538944)
I1029 00:41:09.326063 30931 net.cpp:165] Memory required for data: 4435129796
I1029 00:41:09.326066 30931 layer_factory.hpp:77] Creating layer conv5_3
I1029 00:41:09.326073 30931 net.cpp:100] Creating Layer conv5_3
I1029 00:41:09.326076 30931 net.cpp:434] conv5_3 <- conv5_2
I1029 00:41:09.326081 30931 net.cpp:408] conv5_3 -> conv5_3
I1029 00:41:09.330883 30931 net.cpp:150] Setting up conv5_3
I1029 00:41:09.330899 30931 net.cpp:157] Top shape: 4 512 36 48 (3538944)
I1029 00:41:09.330917 30931 net.cpp:165] Memory required for data: 4449285572
I1029 00:41:09.330924 30931 layer_factory.hpp:77] Creating layer relu5_3
I1029 00:41:09.330929 30931 net.cpp:100] Creating Layer relu5_3
I1029 00:41:09.330931 30931 net.cpp:434] relu5_3 <- conv5_3
I1029 00:41:09.330936 30931 net.cpp:395] relu5_3 -> conv5_3 (in-place)
I1029 00:41:09.331081 30931 net.cpp:150] Setting up relu5_3
I1029 00:41:09.331089 30931 net.cpp:157] Top shape: 4 512 36 48 (3538944)
I1029 00:41:09.331090 30931 net.cpp:165] Memory required for data: 4463441348
I1029 00:41:09.331092 30931 layer_factory.hpp:77] Creating layer conv5_3_relu5_3_0_split
I1029 00:41:09.331097 30931 net.cpp:100] Creating Layer conv5_3_relu5_3_0_split
I1029 00:41:09.331100 30931 net.cpp:434] conv5_3_relu5_3_0_split <- conv5_3
I1029 00:41:09.331104 30931 net.cpp:408] conv5_3_relu5_3_0_split -> conv5_3_relu5_3_0_split_0
I1029 00:41:09.331109 30931 net.cpp:408] conv5_3_relu5_3_0_split -> conv5_3_relu5_3_0_split_1
I1029 00:41:09.331113 30931 net.cpp:408] conv5_3_relu5_3_0_split -> conv5_3_relu5_3_0_split_2
I1029 00:41:09.331158 30931 net.cpp:150] Setting up conv5_3_relu5_3_0_split
I1029 00:41:09.331163 30931 net.cpp:157] Top shape: 4 512 36 48 (3538944)
I1029 00:41:09.331166 30931 net.cpp:157] Top shape: 4 512 36 48 (3538944)
I1029 00:41:09.331168 30931 net.cpp:157] Top shape: 4 512 36 48 (3538944)
I1029 00:41:09.331171 30931 net.cpp:165] Memory required for data: 4505908676
I1029 00:41:09.331172 30931 layer_factory.hpp:77] Creating layer LFCN_2_3x5
I1029 00:41:09.331179 30931 net.cpp:100] Creating Layer LFCN_2_3x5
I1029 00:41:09.331182 30931 net.cpp:434] LFCN_2_3x5 <- conv5_3_relu5_3_0_split_0
I1029 00:41:09.331187 30931 net.cpp:408] LFCN_2_3x5 -> LFCN_2_3x5
I1029 00:41:09.332479 30931 net.cpp:150] Setting up LFCN_2_3x5
I1029 00:41:09.332489 30931 net.cpp:157] Top shape: 4 7 36 48 (48384)
I1029 00:41:09.332491 30931 net.cpp:165] Memory required for data: 4506102212
I1029 00:41:09.332501 30931 layer_factory.hpp:77] Creating layer LFCN_2_3x5_LFCN_2_3x5_0_split
I1029 00:41:09.332506 30931 net.cpp:100] Creating Layer LFCN_2_3x5_LFCN_2_3x5_0_split
I1029 00:41:09.332509 30931 net.cpp:434] LFCN_2_3x5_LFCN_2_3x5_0_split <- LFCN_2_3x5
I1029 00:41:09.332514 30931 net.cpp:408] LFCN_2_3x5_LFCN_2_3x5_0_split -> LFCN_2_3x5_LFCN_2_3x5_0_split_0
I1029 00:41:09.332527 30931 net.cpp:408] LFCN_2_3x5_LFCN_2_3x5_0_split -> LFCN_2_3x5_LFCN_2_3x5_0_split_1
I1029 00:41:09.332532 30931 net.cpp:408] LFCN_2_3x5_LFCN_2_3x5_0_split -> LFCN_2_3x5_LFCN_2_3x5_0_split_2
I1029 00:41:09.332573 30931 net.cpp:150] Setting up LFCN_2_3x5_LFCN_2_3x5_0_split
I1029 00:41:09.332579 30931 net.cpp:157] Top shape: 4 7 36 48 (48384)
I1029 00:41:09.332582 30931 net.cpp:157] Top shape: 4 7 36 48 (48384)
I1029 00:41:09.332586 30931 net.cpp:157] Top shape: 4 7 36 48 (48384)
I1029 00:41:09.332587 30931 net.cpp:165] Memory required for data: 4506682820
I1029 00:41:09.332589 30931 layer_factory.hpp:77] Creating layer detection_loss_2_3x5
I1029 00:41:09.332593 30931 net.cpp:100] Creating Layer detection_loss_2_3x5
I1029 00:41:09.332597 30931 net.cpp:434] detection_loss_2_3x5 <- LFCN_2_3x5_LFCN_2_3x5_0_split_0
I1029 00:41:09.332599 30931 net.cpp:434] detection_loss_2_3x5 <- label_2_3x5_data_3_split_0
I1029 00:41:09.332604 30931 net.cpp:408] detection_loss_2_3x5 -> loss_2_3x5
I1029 00:41:09.332610 30931 layer_factory.hpp:77] Creating layer detection_loss_2_3x5
I1029 00:41:09.333195 30931 net.cpp:150] Setting up detection_loss_2_3x5
I1029 00:41:09.333205 30931 net.cpp:157] Top shape: 1 1 1 2 (2)
I1029 00:41:09.333207 30931 net.cpp:160]     with loss weight 1
I1029 00:41:09.333214 30931 net.cpp:165] Memory required for data: 4506682828
I1029 00:41:09.333217 30931 layer_factory.hpp:77] Creating layer detection_accuracy_2_3x5
I1029 00:41:09.333225 30931 net.cpp:100] Creating Layer detection_accuracy_2_3x5
I1029 00:41:09.333227 30931 net.cpp:434] detection_accuracy_2_3x5 <- LFCN_2_3x5_LFCN_2_3x5_0_split_1
I1029 00:41:09.333230 30931 net.cpp:434] detection_accuracy_2_3x5 <- label_2_3x5_data_3_split_1
I1029 00:41:09.333235 30931 net.cpp:408] detection_accuracy_2_3x5 -> accuracy_2_3x5
I1029 00:41:09.333240 30931 net.cpp:408] detection_accuracy_2_3x5 -> boxiou_2_3x5
I1029 00:41:09.333272 30931 net.cpp:150] Setting up detection_accuracy_2_3x5
I1029 00:41:09.333277 30931 net.cpp:157] Top shape: 1 1 1 2 (2)
I1029 00:41:09.333281 30931 net.cpp:157] Top shape: 1 1 1 1 (1)
I1029 00:41:09.333281 30931 net.cpp:165] Memory required for data: 4506682840
I1029 00:41:09.333283 30931 layer_factory.hpp:77] Creating layer LFCN_2_5x7
I1029 00:41:09.333292 30931 net.cpp:100] Creating Layer LFCN_2_5x7
I1029 00:41:09.333297 30931 net.cpp:434] LFCN_2_5x7 <- conv5_3_relu5_3_0_split_1
I1029 00:41:09.333302 30931 net.cpp:408] LFCN_2_5x7 -> LFCN_2_5x7
I1029 00:41:09.335557 30931 net.cpp:150] Setting up LFCN_2_5x7
I1029 00:41:09.335568 30931 net.cpp:157] Top shape: 4 7 36 48 (48384)
I1029 00:41:09.335571 30931 net.cpp:165] Memory required for data: 4506876376
I1029 00:41:09.335574 30931 layer_factory.hpp:77] Creating layer LFCN_2_5x7_LFCN_2_5x7_0_split
I1029 00:41:09.335580 30931 net.cpp:100] Creating Layer LFCN_2_5x7_LFCN_2_5x7_0_split
I1029 00:41:09.335583 30931 net.cpp:434] LFCN_2_5x7_LFCN_2_5x7_0_split <- LFCN_2_5x7
I1029 00:41:09.335587 30931 net.cpp:408] LFCN_2_5x7_LFCN_2_5x7_0_split -> LFCN_2_5x7_LFCN_2_5x7_0_split_0
I1029 00:41:09.335593 30931 net.cpp:408] LFCN_2_5x7_LFCN_2_5x7_0_split -> LFCN_2_5x7_LFCN_2_5x7_0_split_1
I1029 00:41:09.335597 30931 net.cpp:408] LFCN_2_5x7_LFCN_2_5x7_0_split -> LFCN_2_5x7_LFCN_2_5x7_0_split_2
I1029 00:41:09.335639 30931 net.cpp:150] Setting up LFCN_2_5x7_LFCN_2_5x7_0_split
I1029 00:41:09.335645 30931 net.cpp:157] Top shape: 4 7 36 48 (48384)
I1029 00:41:09.335649 30931 net.cpp:157] Top shape: 4 7 36 48 (48384)
I1029 00:41:09.335650 30931 net.cpp:157] Top shape: 4 7 36 48 (48384)
I1029 00:41:09.335652 30931 net.cpp:165] Memory required for data: 4507456984
I1029 00:41:09.335654 30931 layer_factory.hpp:77] Creating layer detection_loss_2_5x7
I1029 00:41:09.335659 30931 net.cpp:100] Creating Layer detection_loss_2_5x7
I1029 00:41:09.335661 30931 net.cpp:434] detection_loss_2_5x7 <- LFCN_2_5x7_LFCN_2_5x7_0_split_0
I1029 00:41:09.335665 30931 net.cpp:434] detection_loss_2_5x7 <- label_2_5x7_data_4_split_0
I1029 00:41:09.335669 30931 net.cpp:408] detection_loss_2_5x7 -> loss_2_5x7
I1029 00:41:09.335675 30931 layer_factory.hpp:77] Creating layer detection_loss_2_5x7
I1029 00:41:09.336264 30931 net.cpp:150] Setting up detection_loss_2_5x7
I1029 00:41:09.336275 30931 net.cpp:157] Top shape: 1 1 1 2 (2)
I1029 00:41:09.336277 30931 net.cpp:160]     with loss weight 1
I1029 00:41:09.336282 30931 net.cpp:165] Memory required for data: 4507456992
I1029 00:41:09.336284 30931 layer_factory.hpp:77] Creating layer detection_accuracy_2_5x7
I1029 00:41:09.336289 30931 net.cpp:100] Creating Layer detection_accuracy_2_5x7
I1029 00:41:09.336292 30931 net.cpp:434] detection_accuracy_2_5x7 <- LFCN_2_5x7_LFCN_2_5x7_0_split_1
I1029 00:41:09.336295 30931 net.cpp:434] detection_accuracy_2_5x7 <- label_2_5x7_data_4_split_1
I1029 00:41:09.336299 30931 net.cpp:408] detection_accuracy_2_5x7 -> accuracy_2_5x7
I1029 00:41:09.336305 30931 net.cpp:408] detection_accuracy_2_5x7 -> boxiou_2_5x7
I1029 00:41:09.336336 30931 net.cpp:150] Setting up detection_accuracy_2_5x7
I1029 00:41:09.336341 30931 net.cpp:157] Top shape: 1 1 1 2 (2)
I1029 00:41:09.336344 30931 net.cpp:157] Top shape: 1 1 1 1 (1)
I1029 00:41:09.336345 30931 net.cpp:165] Memory required for data: 4507457004
I1029 00:41:09.336347 30931 layer_factory.hpp:77] Creating layer pool5
I1029 00:41:09.336354 30931 net.cpp:100] Creating Layer pool5
I1029 00:41:09.336355 30931 net.cpp:434] pool5 <- conv5_3_relu5_3_0_split_2
I1029 00:41:09.336359 30931 net.cpp:408] pool5 -> pool5
I1029 00:41:09.336388 30931 net.cpp:150] Setting up pool5
I1029 00:41:09.336392 30931 net.cpp:157] Top shape: 4 512 18 24 (884736)
I1029 00:41:09.336395 30931 net.cpp:165] Memory required for data: 4510995948
I1029 00:41:09.336396 30931 layer_factory.hpp:77] Creating layer conv6_1
I1029 00:41:09.336403 30931 net.cpp:100] Creating Layer conv6_1
I1029 00:41:09.336405 30931 net.cpp:434] conv6_1 <- pool5
I1029 00:41:09.336410 30931 net.cpp:408] conv6_1 -> conv6_1
I1029 00:41:09.356240 30931 net.cpp:150] Setting up conv6_1
I1029 00:41:09.356256 30931 net.cpp:157] Top shape: 4 512 18 24 (884736)
I1029 00:41:09.356257 30931 net.cpp:165] Memory required for data: 4514534892
I1029 00:41:09.356264 30931 layer_factory.hpp:77] Creating layer relu6_1
I1029 00:41:09.356269 30931 net.cpp:100] Creating Layer relu6_1
I1029 00:41:09.356273 30931 net.cpp:434] relu6_1 <- conv6_1
I1029 00:41:09.356279 30931 net.cpp:395] relu6_1 -> conv6_1 (in-place)
I1029 00:41:09.356413 30931 net.cpp:150] Setting up relu6_1
I1029 00:41:09.356421 30931 net.cpp:157] Top shape: 4 512 18 24 (884736)
I1029 00:41:09.356425 30931 net.cpp:165] Memory required for data: 4518073836
I1029 00:41:09.356426 30931 layer_factory.hpp:77] Creating layer conv6_1_relu6_1_0_split
I1029 00:41:09.356431 30931 net.cpp:100] Creating Layer conv6_1_relu6_1_0_split
I1029 00:41:09.356432 30931 net.cpp:434] conv6_1_relu6_1_0_split <- conv6_1
I1029 00:41:09.356437 30931 net.cpp:408] conv6_1_relu6_1_0_split -> conv6_1_relu6_1_0_split_0
I1029 00:41:09.356442 30931 net.cpp:408] conv6_1_relu6_1_0_split -> conv6_1_relu6_1_0_split_1
I1029 00:41:09.356446 30931 net.cpp:408] conv6_1_relu6_1_0_split -> conv6_1_relu6_1_0_split_2
I1029 00:41:09.356489 30931 net.cpp:150] Setting up conv6_1_relu6_1_0_split
I1029 00:41:09.356494 30931 net.cpp:157] Top shape: 4 512 18 24 (884736)
I1029 00:41:09.356498 30931 net.cpp:157] Top shape: 4 512 18 24 (884736)
I1029 00:41:09.356499 30931 net.cpp:157] Top shape: 4 512 18 24 (884736)
I1029 00:41:09.356501 30931 net.cpp:165] Memory required for data: 4528690668
I1029 00:41:09.356503 30931 layer_factory.hpp:77] Creating layer LFCN_3_3x5
I1029 00:41:09.356509 30931 net.cpp:100] Creating Layer LFCN_3_3x5
I1029 00:41:09.356513 30931 net.cpp:434] LFCN_3_3x5 <- conv6_1_relu6_1_0_split_0
I1029 00:41:09.356518 30931 net.cpp:408] LFCN_3_3x5 -> LFCN_3_3x5
I1029 00:41:09.358619 30931 net.cpp:150] Setting up LFCN_3_3x5
I1029 00:41:09.358629 30931 net.cpp:157] Top shape: 4 7 18 24 (12096)
I1029 00:41:09.358631 30931 net.cpp:165] Memory required for data: 4528739052
I1029 00:41:09.358636 30931 layer_factory.hpp:77] Creating layer LFCN_3_3x5_LFCN_3_3x5_0_split
I1029 00:41:09.358652 30931 net.cpp:100] Creating Layer LFCN_3_3x5_LFCN_3_3x5_0_split
I1029 00:41:09.358655 30931 net.cpp:434] LFCN_3_3x5_LFCN_3_3x5_0_split <- LFCN_3_3x5
I1029 00:41:09.358659 30931 net.cpp:408] LFCN_3_3x5_LFCN_3_3x5_0_split -> LFCN_3_3x5_LFCN_3_3x5_0_split_0
I1029 00:41:09.358664 30931 net.cpp:408] LFCN_3_3x5_LFCN_3_3x5_0_split -> LFCN_3_3x5_LFCN_3_3x5_0_split_1
I1029 00:41:09.358669 30931 net.cpp:408] LFCN_3_3x5_LFCN_3_3x5_0_split -> LFCN_3_3x5_LFCN_3_3x5_0_split_2
I1029 00:41:09.358711 30931 net.cpp:150] Setting up LFCN_3_3x5_LFCN_3_3x5_0_split
I1029 00:41:09.358716 30931 net.cpp:157] Top shape: 4 7 18 24 (12096)
I1029 00:41:09.358719 30931 net.cpp:157] Top shape: 4 7 18 24 (12096)
I1029 00:41:09.358721 30931 net.cpp:157] Top shape: 4 7 18 24 (12096)
I1029 00:41:09.358724 30931 net.cpp:165] Memory required for data: 4528884204
I1029 00:41:09.358726 30931 layer_factory.hpp:77] Creating layer detection_loss_3_3x5
I1029 00:41:09.358731 30931 net.cpp:100] Creating Layer detection_loss_3_3x5
I1029 00:41:09.358734 30931 net.cpp:434] detection_loss_3_3x5 <- LFCN_3_3x5_LFCN_3_3x5_0_split_0
I1029 00:41:09.358737 30931 net.cpp:434] detection_loss_3_3x5 <- label_3_3x5_data_5_split_0
I1029 00:41:09.358741 30931 net.cpp:408] detection_loss_3_3x5 -> loss_3_3x5
I1029 00:41:09.358747 30931 layer_factory.hpp:77] Creating layer detection_loss_3_3x5
I1029 00:41:09.359021 30931 net.cpp:150] Setting up detection_loss_3_3x5
I1029 00:41:09.359027 30931 net.cpp:157] Top shape: 1 1 1 2 (2)
I1029 00:41:09.359030 30931 net.cpp:160]     with loss weight 1
I1029 00:41:09.359035 30931 net.cpp:165] Memory required for data: 4528884212
I1029 00:41:09.359038 30931 layer_factory.hpp:77] Creating layer detection_accuracy_3_3x5
I1029 00:41:09.359042 30931 net.cpp:100] Creating Layer detection_accuracy_3_3x5
I1029 00:41:09.359045 30931 net.cpp:434] detection_accuracy_3_3x5 <- LFCN_3_3x5_LFCN_3_3x5_0_split_1
I1029 00:41:09.359048 30931 net.cpp:434] detection_accuracy_3_3x5 <- label_3_3x5_data_5_split_1
I1029 00:41:09.359053 30931 net.cpp:408] detection_accuracy_3_3x5 -> accuracy_3_3x5
I1029 00:41:09.359060 30931 net.cpp:408] detection_accuracy_3_3x5 -> boxiou_3_3x5
I1029 00:41:09.359089 30931 net.cpp:150] Setting up detection_accuracy_3_3x5
I1029 00:41:09.359094 30931 net.cpp:157] Top shape: 1 1 1 2 (2)
I1029 00:41:09.359097 30931 net.cpp:157] Top shape: 1 1 1 1 (1)
I1029 00:41:09.359098 30931 net.cpp:165] Memory required for data: 4528884224
I1029 00:41:09.359100 30931 layer_factory.hpp:77] Creating layer LFCN_3_5x7
I1029 00:41:09.359107 30931 net.cpp:100] Creating Layer LFCN_3_5x7
I1029 00:41:09.359112 30931 net.cpp:434] LFCN_3_5x7 <- conv6_1_relu6_1_0_split_1
I1029 00:41:09.359115 30931 net.cpp:408] LFCN_3_5x7 -> LFCN_3_5x7
I1029 00:41:09.360929 30931 net.cpp:150] Setting up LFCN_3_5x7
I1029 00:41:09.360940 30931 net.cpp:157] Top shape: 4 7 18 24 (12096)
I1029 00:41:09.360942 30931 net.cpp:165] Memory required for data: 4528932608
I1029 00:41:09.360946 30931 layer_factory.hpp:77] Creating layer LFCN_3_5x7_LFCN_3_5x7_0_split
I1029 00:41:09.360952 30931 net.cpp:100] Creating Layer LFCN_3_5x7_LFCN_3_5x7_0_split
I1029 00:41:09.360955 30931 net.cpp:434] LFCN_3_5x7_LFCN_3_5x7_0_split <- LFCN_3_5x7
I1029 00:41:09.360960 30931 net.cpp:408] LFCN_3_5x7_LFCN_3_5x7_0_split -> LFCN_3_5x7_LFCN_3_5x7_0_split_0
I1029 00:41:09.360965 30931 net.cpp:408] LFCN_3_5x7_LFCN_3_5x7_0_split -> LFCN_3_5x7_LFCN_3_5x7_0_split_1
I1029 00:41:09.360970 30931 net.cpp:408] LFCN_3_5x7_LFCN_3_5x7_0_split -> LFCN_3_5x7_LFCN_3_5x7_0_split_2
I1029 00:41:09.361011 30931 net.cpp:150] Setting up LFCN_3_5x7_LFCN_3_5x7_0_split
I1029 00:41:09.361016 30931 net.cpp:157] Top shape: 4 7 18 24 (12096)
I1029 00:41:09.361019 30931 net.cpp:157] Top shape: 4 7 18 24 (12096)
I1029 00:41:09.361021 30931 net.cpp:157] Top shape: 4 7 18 24 (12096)
I1029 00:41:09.361023 30931 net.cpp:165] Memory required for data: 4529077760
I1029 00:41:09.361026 30931 layer_factory.hpp:77] Creating layer detection_loss_3_5x7
I1029 00:41:09.361030 30931 net.cpp:100] Creating Layer detection_loss_3_5x7
I1029 00:41:09.361032 30931 net.cpp:434] detection_loss_3_5x7 <- LFCN_3_5x7_LFCN_3_5x7_0_split_0
I1029 00:41:09.361035 30931 net.cpp:434] detection_loss_3_5x7 <- label_3_5x7_data_6_split_0
I1029 00:41:09.361040 30931 net.cpp:408] detection_loss_3_5x7 -> loss_3_5x7
I1029 00:41:09.361045 30931 layer_factory.hpp:77] Creating layer detection_loss_3_5x7
I1029 00:41:09.361316 30931 net.cpp:150] Setting up detection_loss_3_5x7
I1029 00:41:09.361323 30931 net.cpp:157] Top shape: 1 1 1 2 (2)
I1029 00:41:09.361325 30931 net.cpp:160]     with loss weight 1
I1029 00:41:09.361330 30931 net.cpp:165] Memory required for data: 4529077768
I1029 00:41:09.361331 30931 layer_factory.hpp:77] Creating layer detection_accuracy_3_5x7
I1029 00:41:09.361335 30931 net.cpp:100] Creating Layer detection_accuracy_3_5x7
I1029 00:41:09.361338 30931 net.cpp:434] detection_accuracy_3_5x7 <- LFCN_3_5x7_LFCN_3_5x7_0_split_1
I1029 00:41:09.361342 30931 net.cpp:434] detection_accuracy_3_5x7 <- label_3_5x7_data_6_split_1
I1029 00:41:09.361346 30931 net.cpp:408] detection_accuracy_3_5x7 -> accuracy_3_5x7
I1029 00:41:09.361351 30931 net.cpp:408] detection_accuracy_3_5x7 -> boxiou_3_5x7
I1029 00:41:09.361385 30931 net.cpp:150] Setting up detection_accuracy_3_5x7
I1029 00:41:09.361389 30931 net.cpp:157] Top shape: 1 1 1 2 (2)
I1029 00:41:09.361392 30931 net.cpp:157] Top shape: 1 1 1 1 (1)
I1029 00:41:09.361393 30931 net.cpp:165] Memory required for data: 4529077780
I1029 00:41:09.361395 30931 layer_factory.hpp:77] Creating layer pool6
I1029 00:41:09.361400 30931 net.cpp:100] Creating Layer pool6
I1029 00:41:09.361402 30931 net.cpp:434] pool6 <- conv6_1_relu6_1_0_split_2
I1029 00:41:09.361407 30931 net.cpp:408] pool6 -> pool6
I1029 00:41:09.361434 30931 net.cpp:150] Setting up pool6
I1029 00:41:09.361439 30931 net.cpp:157] Top shape: 4 512 9 12 (221184)
I1029 00:41:09.361441 30931 net.cpp:165] Memory required for data: 4529962516
I1029 00:41:09.361443 30931 layer_factory.hpp:77] Creating layer LFCN_4_3x5
I1029 00:41:09.361449 30931 net.cpp:100] Creating Layer LFCN_4_3x5
I1029 00:41:09.361451 30931 net.cpp:434] LFCN_4_3x5 <- pool6
I1029 00:41:09.361455 30931 net.cpp:408] LFCN_4_3x5 -> LFCN_4_3x5
I1029 00:41:09.362741 30931 net.cpp:150] Setting up LFCN_4_3x5
I1029 00:41:09.362752 30931 net.cpp:157] Top shape: 4 7 9 12 (3024)
I1029 00:41:09.362754 30931 net.cpp:165] Memory required for data: 4529974612
I1029 00:41:09.362759 30931 layer_factory.hpp:77] Creating layer LFCN_4_3x5_LFCN_4_3x5_0_split
I1029 00:41:09.362764 30931 net.cpp:100] Creating Layer LFCN_4_3x5_LFCN_4_3x5_0_split
I1029 00:41:09.362767 30931 net.cpp:434] LFCN_4_3x5_LFCN_4_3x5_0_split <- LFCN_4_3x5
I1029 00:41:09.362771 30931 net.cpp:408] LFCN_4_3x5_LFCN_4_3x5_0_split -> LFCN_4_3x5_LFCN_4_3x5_0_split_0
I1029 00:41:09.362777 30931 net.cpp:408] LFCN_4_3x5_LFCN_4_3x5_0_split -> LFCN_4_3x5_LFCN_4_3x5_0_split_1
I1029 00:41:09.362782 30931 net.cpp:408] LFCN_4_3x5_LFCN_4_3x5_0_split -> LFCN_4_3x5_LFCN_4_3x5_0_split_2
I1029 00:41:09.362826 30931 net.cpp:150] Setting up LFCN_4_3x5_LFCN_4_3x5_0_split
I1029 00:41:09.362831 30931 net.cpp:157] Top shape: 4 7 9 12 (3024)
I1029 00:41:09.362833 30931 net.cpp:157] Top shape: 4 7 9 12 (3024)
I1029 00:41:09.362835 30931 net.cpp:157] Top shape: 4 7 9 12 (3024)
I1029 00:41:09.362838 30931 net.cpp:165] Memory required for data: 4530010900
I1029 00:41:09.362839 30931 layer_factory.hpp:77] Creating layer detection_loss_4_3x5
I1029 00:41:09.362843 30931 net.cpp:100] Creating Layer detection_loss_4_3x5
I1029 00:41:09.362846 30931 net.cpp:434] detection_loss_4_3x5 <- LFCN_4_3x5_LFCN_4_3x5_0_split_0
I1029 00:41:09.362850 30931 net.cpp:434] detection_loss_4_3x5 <- label_4_3x5_data_7_split_0
I1029 00:41:09.362854 30931 net.cpp:408] detection_loss_4_3x5 -> loss_4_3x5
I1029 00:41:09.362859 30931 layer_factory.hpp:77] Creating layer detection_loss_4_3x5
I1029 00:41:09.363123 30931 net.cpp:150] Setting up detection_loss_4_3x5
I1029 00:41:09.363131 30931 net.cpp:157] Top shape: 1 1 1 2 (2)
I1029 00:41:09.363133 30931 net.cpp:160]     with loss weight 1
I1029 00:41:09.363137 30931 net.cpp:165] Memory required for data: 4530010908
I1029 00:41:09.363139 30931 layer_factory.hpp:77] Creating layer detection_accuracy_4_3x5
I1029 00:41:09.363144 30931 net.cpp:100] Creating Layer detection_accuracy_4_3x5
I1029 00:41:09.363147 30931 net.cpp:434] detection_accuracy_4_3x5 <- LFCN_4_3x5_LFCN_4_3x5_0_split_1
I1029 00:41:09.363150 30931 net.cpp:434] detection_accuracy_4_3x5 <- label_4_3x5_data_7_split_1
I1029 00:41:09.363155 30931 net.cpp:408] detection_accuracy_4_3x5 -> accuracy_4_3x5
I1029 00:41:09.363160 30931 net.cpp:408] detection_accuracy_4_3x5 -> boxiou_4_3x5
I1029 00:41:09.363189 30931 net.cpp:150] Setting up detection_accuracy_4_3x5
I1029 00:41:09.363194 30931 net.cpp:157] Top shape: 1 1 1 2 (2)
I1029 00:41:09.363196 30931 net.cpp:157] Top shape: 1 1 1 1 (1)
I1029 00:41:09.363198 30931 net.cpp:165] Memory required for data: 4530010920
I1029 00:41:09.363200 30931 layer_factory.hpp:77] Creating layer proposals
I1029 00:41:09.363207 30931 net.cpp:100] Creating Layer proposals
I1029 00:41:09.363210 30931 net.cpp:434] proposals <- LFCN_1_3x5_LFCN_1_3x5_0_split_2
I1029 00:41:09.363214 30931 net.cpp:434] proposals <- LFCN_1_5x7_LFCN_1_5x7_0_split_2
I1029 00:41:09.363216 30931 net.cpp:434] proposals <- LFCN_2_3x5_LFCN_2_3x5_0_split_2
I1029 00:41:09.363219 30931 net.cpp:434] proposals <- LFCN_2_5x7_LFCN_2_5x7_0_split_2
I1029 00:41:09.363220 30931 net.cpp:434] proposals <- LFCN_3_3x5_LFCN_3_3x5_0_split_2
I1029 00:41:09.363224 30931 net.cpp:434] proposals <- LFCN_3_5x7_LFCN_3_5x7_0_split_2
I1029 00:41:09.363225 30931 net.cpp:434] proposals <- LFCN_4_3x5_LFCN_4_3x5_0_split_2
I1029 00:41:09.363232 30931 net.cpp:408] proposals -> proposals
I1029 00:41:09.363255 30931 net.cpp:150] Setting up proposals
I1029 00:41:09.363260 30931 net.cpp:157] Top shape: 1 5 1 1 (5)
I1029 00:41:09.363261 30931 net.cpp:165] Memory required for data: 4530010940
I1029 00:41:09.363263 30931 layer_factory.hpp:77] Creating layer proposal_info
I1029 00:41:09.363271 30931 net.cpp:100] Creating Layer proposal_info
I1029 00:41:09.363274 30931 net.cpp:434] proposal_info <- proposals
I1029 00:41:09.363276 30931 net.cpp:434] proposal_info <- gt_boxes
I1029 00:41:09.363281 30931 net.cpp:408] proposal_info -> rois
I1029 00:41:09.363289 30931 net.cpp:408] proposal_info -> proposal_labels
I1029 00:41:09.363296 30931 net.cpp:408] proposal_info -> proposal_targets
I1029 00:41:09.363301 30931 net.cpp:408] proposal_info -> box_inside_weights
I1029 00:41:09.363306 30931 net.cpp:408] proposal_info -> box_outside_weights
I1029 00:41:09.363312 30931 net.cpp:408] proposal_info -> match_gt_boxes
I1029 00:41:09.363379 30931 net.cpp:150] Setting up proposal_info
I1029 00:41:09.363384 30931 net.cpp:157] Top shape: 128 5 1 1 (640)
I1029 00:41:09.363386 30931 net.cpp:157] Top shape: 128 1 1 1 (128)
I1029 00:41:09.363389 30931 net.cpp:157] Top shape: 128 12 1 1 (1536)
I1029 00:41:09.363391 30931 net.cpp:157] Top shape: 128 12 1 1 (1536)
I1029 00:41:09.363394 30931 net.cpp:157] Top shape: 128 12 1 1 (1536)
I1029 00:41:09.363397 30931 net.cpp:157] Top shape: 128 6 1 1 (768)
I1029 00:41:09.363399 30931 net.cpp:165] Memory required for data: 4530035516
I1029 00:41:09.363400 30931 layer_factory.hpp:77] Creating layer rois_proposal_info_0_split
I1029 00:41:09.363404 30931 net.cpp:100] Creating Layer rois_proposal_info_0_split
I1029 00:41:09.363406 30931 net.cpp:434] rois_proposal_info_0_split <- rois
I1029 00:41:09.363410 30931 net.cpp:408] rois_proposal_info_0_split -> rois_proposal_info_0_split_0
I1029 00:41:09.363415 30931 net.cpp:408] rois_proposal_info_0_split -> rois_proposal_info_0_split_1
I1029 00:41:09.363420 30931 net.cpp:408] rois_proposal_info_0_split -> rois_proposal_info_0_split_2
I1029 00:41:09.363452 30931 net.cpp:150] Setting up rois_proposal_info_0_split
I1029 00:41:09.363457 30931 net.cpp:157] Top shape: 128 5 1 1 (640)
I1029 00:41:09.363459 30931 net.cpp:157] Top shape: 128 5 1 1 (640)
I1029 00:41:09.363461 30931 net.cpp:157] Top shape: 128 5 1 1 (640)
I1029 00:41:09.363463 30931 net.cpp:165] Memory required for data: 4530043196
I1029 00:41:09.363466 30931 layer_factory.hpp:77] Creating layer proposal_labels_proposal_info_1_split
I1029 00:41:09.363469 30931 net.cpp:100] Creating Layer proposal_labels_proposal_info_1_split
I1029 00:41:09.363471 30931 net.cpp:434] proposal_labels_proposal_info_1_split <- proposal_labels
I1029 00:41:09.363474 30931 net.cpp:408] proposal_labels_proposal_info_1_split -> proposal_labels_proposal_info_1_split_0
I1029 00:41:09.363479 30931 net.cpp:408] proposal_labels_proposal_info_1_split -> proposal_labels_proposal_info_1_split_1
I1029 00:41:09.363505 30931 net.cpp:150] Setting up proposal_labels_proposal_info_1_split
I1029 00:41:09.363509 30931 net.cpp:157] Top shape: 128 1 1 1 (128)
I1029 00:41:09.363512 30931 net.cpp:157] Top shape: 128 1 1 1 (128)
I1029 00:41:09.363513 30931 net.cpp:165] Memory required for data: 4530044220
I1029 00:41:09.363515 30931 layer_factory.hpp:77] Creating layer conv4_3_2x
I1029 00:41:09.363521 30931 net.cpp:100] Creating Layer conv4_3_2x
I1029 00:41:09.363523 30931 net.cpp:434] conv4_3_2x <- conv4_3_relu4_3_0_split_2
I1029 00:41:09.363528 30931 net.cpp:408] conv4_3_2x -> conv4_3_2x
I1029 00:41:09.363849 30931 net.cpp:150] Setting up conv4_3_2x
I1029 00:41:09.363855 30931 net.cpp:157] Top shape: 4 512 144 192 (56623104)
I1029 00:41:09.363857 30931 net.cpp:165] Memory required for data: 4756536636
I1029 00:41:09.363860 30931 layer_factory.hpp:77] Creating layer conv4_3_2x_conv4_3_2x_0_split
I1029 00:41:09.363864 30931 net.cpp:100] Creating Layer conv4_3_2x_conv4_3_2x_0_split
I1029 00:41:09.363867 30931 net.cpp:434] conv4_3_2x_conv4_3_2x_0_split <- conv4_3_2x
I1029 00:41:09.363871 30931 net.cpp:408] conv4_3_2x_conv4_3_2x_0_split -> conv4_3_2x_conv4_3_2x_0_split_0
I1029 00:41:09.363875 30931 net.cpp:408] conv4_3_2x_conv4_3_2x_0_split -> conv4_3_2x_conv4_3_2x_0_split_1
I1029 00:41:09.363904 30931 net.cpp:150] Setting up conv4_3_2x_conv4_3_2x_0_split
I1029 00:41:09.363909 30931 net.cpp:157] Top shape: 4 512 144 192 (56623104)
I1029 00:41:09.363912 30931 net.cpp:157] Top shape: 4 512 144 192 (56623104)
I1029 00:41:09.363914 30931 net.cpp:165] Memory required for data: 5209521468
I1029 00:41:09.363916 30931 layer_factory.hpp:77] Creating layer roi_pool_org
I1029 00:41:09.363920 30931 net.cpp:100] Creating Layer roi_pool_org
I1029 00:41:09.363925 30931 net.cpp:434] roi_pool_org <- conv4_3_2x_conv4_3_2x_0_split_0
I1029 00:41:09.363929 30931 net.cpp:434] roi_pool_org <- rois_proposal_info_0_split_0
I1029 00:41:09.363932 30931 net.cpp:408] roi_pool_org -> roi_pool_org
I1029 00:41:09.363937 30931 roi_pooling_layer.cpp:33] Spatial scale: 0.25
I1029 00:41:09.363966 30931 net.cpp:150] Setting up roi_pool_org
I1029 00:41:09.363972 30931 net.cpp:157] Top shape: 128 512 7 5 (2293760)
I1029 00:41:09.363975 30931 net.cpp:165] Memory required for data: 5218696508
I1029 00:41:09.363976 30931 layer_factory.hpp:77] Creating layer roi_pool_ctx
I1029 00:41:09.363981 30931 net.cpp:100] Creating Layer roi_pool_ctx
I1029 00:41:09.363982 30931 net.cpp:434] roi_pool_ctx <- conv4_3_2x_conv4_3_2x_0_split_1
I1029 00:41:09.363986 30931 net.cpp:434] roi_pool_ctx <- rois_proposal_info_0_split_1
I1029 00:41:09.363989 30931 net.cpp:408] roi_pool_ctx -> roi_pool_ctx
I1029 00:41:09.363992 30931 roi_pooling_layer.cpp:33] Spatial scale: 0.25
I1029 00:41:09.364018 30931 net.cpp:150] Setting up roi_pool_ctx
I1029 00:41:09.364022 30931 net.cpp:157] Top shape: 128 512 7 5 (2293760)
I1029 00:41:09.364024 30931 net.cpp:165] Memory required for data: 5227871548
I1029 00:41:09.364027 30931 layer_factory.hpp:77] Creating layer roi_pool
I1029 00:41:09.364030 30931 net.cpp:100] Creating Layer roi_pool
I1029 00:41:09.364033 30931 net.cpp:434] roi_pool <- roi_pool_org
I1029 00:41:09.364035 30931 net.cpp:434] roi_pool <- roi_pool_ctx
I1029 00:41:09.364038 30931 net.cpp:408] roi_pool -> roi_pool
I1029 00:41:09.364056 30931 net.cpp:150] Setting up roi_pool
I1029 00:41:09.364061 30931 net.cpp:157] Top shape: 128 1024 7 5 (4587520)
I1029 00:41:09.364063 30931 net.cpp:165] Memory required for data: 5246221628
I1029 00:41:09.364065 30931 layer_factory.hpp:77] Creating layer roi_c1
I1029 00:41:09.364071 30931 net.cpp:100] Creating Layer roi_c1
I1029 00:41:09.364073 30931 net.cpp:434] roi_c1 <- roi_pool
I1029 00:41:09.364078 30931 net.cpp:408] roi_c1 -> roi_c1
I1029 00:41:09.403273 30931 net.cpp:150] Setting up roi_c1
I1029 00:41:09.403295 30931 net.cpp:157] Top shape: 128 512 5 3 (983040)
I1029 00:41:09.403297 30931 net.cpp:165] Memory required for data: 5250153788
I1029 00:41:09.403306 30931 layer_factory.hpp:77] Creating layer roi_c1_relu
I1029 00:41:09.403311 30931 net.cpp:100] Creating Layer roi_c1_relu
I1029 00:41:09.403316 30931 net.cpp:434] roi_c1_relu <- roi_c1
I1029 00:41:09.403323 30931 net.cpp:395] roi_c1_relu -> roi_c1 (in-place)
I1029 00:41:09.403789 30931 net.cpp:150] Setting up roi_c1_relu
I1029 00:41:09.403798 30931 net.cpp:157] Top shape: 128 512 5 3 (983040)
I1029 00:41:09.403800 30931 net.cpp:165] Memory required for data: 5254085948
I1029 00:41:09.403818 30931 layer_factory.hpp:77] Creating layer fc6
I1029 00:41:09.403827 30931 net.cpp:100] Creating Layer fc6
I1029 00:41:09.403831 30931 net.cpp:434] fc6 <- roi_c1
I1029 00:41:09.403834 30931 net.cpp:408] fc6 -> fc6
I1029 00:41:09.529129 30931 net.cpp:150] Setting up fc6
I1029 00:41:09.529156 30931 net.cpp:157] Top shape: 128 2048 (262144)
I1029 00:41:09.529158 30931 net.cpp:165] Memory required for data: 5255134524
I1029 00:41:09.529167 30931 layer_factory.hpp:77] Creating layer relu6
I1029 00:41:09.529175 30931 net.cpp:100] Creating Layer relu6
I1029 00:41:09.529178 30931 net.cpp:434] relu6 <- fc6
I1029 00:41:09.529186 30931 net.cpp:395] relu6 -> fc6 (in-place)
I1029 00:41:09.529389 30931 net.cpp:150] Setting up relu6
I1029 00:41:09.529397 30931 net.cpp:157] Top shape: 128 2048 (262144)
I1029 00:41:09.529398 30931 net.cpp:165] Memory required for data: 5256183100
I1029 00:41:09.529400 30931 layer_factory.hpp:77] Creating layer drop6
I1029 00:41:09.529408 30931 net.cpp:100] Creating Layer drop6
I1029 00:41:09.529410 30931 net.cpp:434] drop6 <- fc6
I1029 00:41:09.529413 30931 net.cpp:395] drop6 -> fc6 (in-place)
I1029 00:41:09.529434 30931 net.cpp:150] Setting up drop6
I1029 00:41:09.529439 30931 net.cpp:157] Top shape: 128 2048 (262144)
I1029 00:41:09.529441 30931 net.cpp:165] Memory required for data: 5257231676
I1029 00:41:09.529443 30931 layer_factory.hpp:77] Creating layer fc6_drop6_0_split
I1029 00:41:09.529449 30931 net.cpp:100] Creating Layer fc6_drop6_0_split
I1029 00:41:09.529453 30931 net.cpp:434] fc6_drop6_0_split <- fc6
I1029 00:41:09.529456 30931 net.cpp:408] fc6_drop6_0_split -> fc6_drop6_0_split_0
I1029 00:41:09.529462 30931 net.cpp:408] fc6_drop6_0_split -> fc6_drop6_0_split_1
I1029 00:41:09.529492 30931 net.cpp:150] Setting up fc6_drop6_0_split
I1029 00:41:09.529496 30931 net.cpp:157] Top shape: 128 2048 (262144)
I1029 00:41:09.529500 30931 net.cpp:157] Top shape: 128 2048 (262144)
I1029 00:41:09.529501 30931 net.cpp:165] Memory required for data: 5259328828
I1029 00:41:09.529503 30931 layer_factory.hpp:77] Creating layer cls_pred
I1029 00:41:09.529508 30931 net.cpp:100] Creating Layer cls_pred
I1029 00:41:09.529510 30931 net.cpp:434] cls_pred <- fc6_drop6_0_split_0
I1029 00:41:09.529515 30931 net.cpp:408] cls_pred -> cls_pred
I1029 00:41:09.529651 30931 net.cpp:150] Setting up cls_pred
I1029 00:41:09.529656 30931 net.cpp:157] Top shape: 128 3 (384)
I1029 00:41:09.529659 30931 net.cpp:165] Memory required for data: 5259330364
I1029 00:41:09.529662 30931 layer_factory.hpp:77] Creating layer cls_pred_cls_pred_0_split
I1029 00:41:09.529665 30931 net.cpp:100] Creating Layer cls_pred_cls_pred_0_split
I1029 00:41:09.529669 30931 net.cpp:434] cls_pred_cls_pred_0_split <- cls_pred
I1029 00:41:09.529672 30931 net.cpp:408] cls_pred_cls_pred_0_split -> cls_pred_cls_pred_0_split_0
I1029 00:41:09.529677 30931 net.cpp:408] cls_pred_cls_pred_0_split -> cls_pred_cls_pred_0_split_1
I1029 00:41:09.529714 30931 net.cpp:150] Setting up cls_pred_cls_pred_0_split
I1029 00:41:09.529719 30931 net.cpp:157] Top shape: 128 3 (384)
I1029 00:41:09.529723 30931 net.cpp:157] Top shape: 128 3 (384)
I1029 00:41:09.529724 30931 net.cpp:165] Memory required for data: 5259333436
I1029 00:41:09.529726 30931 layer_factory.hpp:77] Creating layer bbox_pred
I1029 00:41:09.529731 30931 net.cpp:100] Creating Layer bbox_pred
I1029 00:41:09.529733 30931 net.cpp:434] bbox_pred <- fc6_drop6_0_split_1
I1029 00:41:09.529737 30931 net.cpp:408] bbox_pred -> bbox_pred
I1029 00:41:09.530000 30931 net.cpp:150] Setting up bbox_pred
I1029 00:41:09.530006 30931 net.cpp:157] Top shape: 128 12 (1536)
I1029 00:41:09.530007 30931 net.cpp:165] Memory required for data: 5259339580
I1029 00:41:09.530011 30931 layer_factory.hpp:77] Creating layer bbox_pred_bbox_pred_0_split
I1029 00:41:09.530014 30931 net.cpp:100] Creating Layer bbox_pred_bbox_pred_0_split
I1029 00:41:09.530016 30931 net.cpp:434] bbox_pred_bbox_pred_0_split <- bbox_pred
I1029 00:41:09.530020 30931 net.cpp:408] bbox_pred_bbox_pred_0_split -> bbox_pred_bbox_pred_0_split_0
I1029 00:41:09.530026 30931 net.cpp:408] bbox_pred_bbox_pred_0_split -> bbox_pred_bbox_pred_0_split_1
I1029 00:41:09.530050 30931 net.cpp:150] Setting up bbox_pred_bbox_pred_0_split
I1029 00:41:09.530053 30931 net.cpp:157] Top shape: 128 12 (1536)
I1029 00:41:09.530055 30931 net.cpp:157] Top shape: 128 12 (1536)
I1029 00:41:09.530057 30931 net.cpp:165] Memory required for data: 5259351868
I1029 00:41:09.530059 30931 layer_factory.hpp:77] Creating layer loss_cls
I1029 00:41:09.530064 30931 net.cpp:100] Creating Layer loss_cls
I1029 00:41:09.530067 30931 net.cpp:434] loss_cls <- cls_pred_cls_pred_0_split_0
I1029 00:41:09.530071 30931 net.cpp:434] loss_cls <- proposal_labels_proposal_info_1_split_0
…
I1029 00:41:09.541873 30931 image_gt_data_layer.cpp:235] output label size 2 : 2,6,36,48
I1029 00:41:09.541914 30931 image_gt_data_layer.cpp:235] output label size 3 : 2,6,36,48
I1029 00:41:09.541955 30931 image_gt_data_layer.cpp:235] output label size 4 : 2,6,18,24
I1029 00:41:09.541997 30931 image_gt_data_layer.cpp:235] output label size 5 : 2,6,18,24
I1029 00:41:09.542037 30931 image_gt_data_layer.cpp:235] output label size 6 : 2,6,9,12
I1029 00:41:09.542078 30931 image_gt_data_layer.cpp:250] output gt boxes size: 1,7,1,1
I1029 00:41:09.558398 30931 net.cpp:150] Setting up data
I1029 00:41:09.558418 30931 net.cpp:157] Top shape: 2 3 576 768 (2654208)
I1029 00:41:09.558421 30931 net.cpp:157] Top shape: 2 6 72 96 (82944)
I1029 00:41:09.558424 30931 net.cpp:157] Top shape: 2 6 72 96 (82944)
I1029 00:41:09.558428 30931 net.cpp:157] Top shape: 2 6 36 48 (20736)
I1029 00:41:09.558429 30931 net.cpp:157] Top shape: 2 6 36 48 (20736)
I1029 00:41:09.558432 30931 net.cpp:157] Top shape: 2 6 18 24 (5184)
I1029 00:41:09.558434 30931 net.cpp:157] Top shape: 2 6 18 24 (5184)
I1029 00:41:09.558436 30931 net.cpp:157] Top shape: 2 6 9 12 (1296)
I1029 00:41:09.558439 30931 net.cpp:157] Top shape: 1 7 1 1 (7)
I1029 00:41:09.558441 30931 net.cpp:165] Memory required for data: 11492956
I1029 00:41:09.558445 30931 layer_factory.hpp:77] Creating layer label_1_3x5_data_1_split
I1029 00:41:09.558457 30931 net.cpp:100] Creating Layer label_1_3x5_data_1_split
I1029 00:41:09.558460 30931 net.cpp:434] label_1_3x5_data_1_split <- label_1_3x5
I1029 00:41:09.558468 30931 net.cpp:408] label_1_3x5_data_1_split -> label_1_3x5_data_1_split_0
I1029 00:41:09.558475 30931 net.cpp:408] label_1_3x5_data_1_split -> label_1_3x5_data_1_split_1
I1029 00:41:09.558596 30931 net.cpp:150] Setting up label_1_3x5_data_1_split
I1029 00:41:09.558600 30931 net.cpp:157] Top shape: 2 6 72 96 (82944)
I1029 00:41:09.558604 30931 net.cpp:157] Top shape: 2 6 72 96 (82944)
I1029 00:41:09.558604 30931 net.cpp:165] Memory required for data: 12156508
I1029 00:41:09.558606 30931 layer_factory.hpp:77] Creating layer label_1_5x7_data_2_split
I1029 00:41:09.558610 30931 net.cpp:100] Creating Layer label_1_5x7_data_2_split
I1029 00:41:09.558614 30931 net.cpp:434] label_1_5x7_data_2_split <- label_1_5x7
I1029 00:41:09.558617 30931 net.cpp:408] label_1_5x7_data_2_split -> label_1_5x7_data_2_split_0
I1029 00:41:09.558621 30931 net.cpp:408] label_1_5x7_data_2_split -> label_1_5x7_data_2_split_1
I1029 00:41:09.558655 30931 net.cpp:150] Setting up label_1_5x7_data_2_split
I1029 00:41:09.558658 30931 net.cpp:157] Top shape: 2 6 72 96 (82944)
I1029 00:41:09.558661 30931 net.cpp:157] Top shape: 2 6 72 96 (82944)
I1029 00:41:09.558662 30931 net.cpp:165] Memory required for data: 12820060
I1029 00:41:09.558665 30931 layer_factory.hpp:77] Creating layer label_2_3x5_data_3_split
I1029 00:41:09.558667 30931 net.cpp:100] Creating Layer label_2_3x5_data_3_split
I1029 00:41:09.558670 30931 net.cpp:434] label_2_3x5_data_3_split <- label_2_3x5
I1029 00:41:09.558675 30931 net.cpp:408] label_2_3x5_data_3_split -> label_2_3x5_data_3_split_0
I1029 00:41:09.558677 30931 net.cpp:408] label_2_3x5_data_3_split -> label_2_3x5_data_3_split_1
I1029 00:41:09.558733 30931 net.cpp:150] Setting up label_2_3x5_data_3_split
I1029 00:41:09.558737 30931 net.cpp:157] Top shape: 2 6 36 48 (20736)
I1029 00:41:09.558740 30931 net.cpp:157] Top shape: 2 6 36 48 (20736)
I1029 00:41:09.558742 30931 net.cpp:165] Memory required for data: 12985948
I1029 00:41:09.558743 30931 layer_factory.hpp:77] Creating layer label_2_5x7_data_4_split
I1029 00:41:09.558748 30931 net.cpp:100] Creating Layer label_2_5x7_data_4_split
I1029 00:41:09.558750 30931 net.cpp:434] label_2_5x7_data_4_split <- label_2_5x7
I1029 00:41:09.558753 30931 net.cpp:408] label_2_5x7_data_4_split -> label_2_5x7_data_4_split_0
I1029 00:41:09.558758 30931 net.cpp:408] label_2_5x7_data_4_split -> label_2_5x7_data_4_split_1
I1029 00:41:09.558820 30931 net.cpp:150] Setting up label_2_5x7_data_4_split
I1029 00:41:09.558823 30931 net.cpp:157] Top shape: 2 6 36 48 (20736)
I1029 00:41:09.558826 30931 net.cpp:157] Top shape: 2 6 36 48 (20736)
I1029 00:41:09.558828 30931 net.cpp:165] Memory required for data: 13151836
I1029 00:41:09.558830 30931 layer_factory.hpp:77] Creating layer label_3_3x5_data_5_split
I1029 00:41:09.558835 30931 net.cpp:100] Creating Layer label_3_3x5_data_5_split
I1029 00:41:09.558836 30931 net.cpp:434] label_3_3x5_data_5_split <- label_3_3x5
I1029 00:41:09.558840 30931 net.cpp:408] label_3_3x5_data_5_split -> label_3_3x5_data_5_split_0
I1029 00:41:09.558843 30931 net.cpp:408] label_3_3x5_data_5_split -> label_3_3x5_data_5_split_1
I1029 00:41:09.558869 30931 net.cpp:150] Setting up label_3_3x5_data_5_split
I1029 00:41:09.558872 30931 net.cpp:157] Top shape: 2 6 18 24 (5184)
I1029 00:41:09.558876 30931 net.cpp:157] Top shape: 2 6 18 24 (5184)
I1029 00:41:09.558876 30931 net.cpp:165] Memory required for data: 13193308
I1029 00:41:09.558878 30931 layer_factory.hpp:77] Creating layer label_3_5x7_data_6_split
I1029 00:41:09.558881 30931 net.cpp:100] Creating Layer label_3_5x7_data_6_split
I1029 00:41:09.558883 30931 net.cpp:434] label_3_5x7_data_6_split <- label_3_5x7
I1029 00:41:09.558887 30931 net.cpp:408] label_3_5x7_data_6_split -> label_3_5x7_data_6_split_0
I1029 00:41:09.558890 30931 net.cpp:408] label_3_5x7_data_6_split -> label_3_5x7_data_6_split_1
I1029 00:41:09.558915 30931 net.cpp:150] Setting up label_3_5x7_data_6_split
I1029 00:41:09.558919 30931 net.cpp:157] Top shape: 2 6 18 24 (5184)
I1029 00:41:09.558921 30931 net.cpp:157] Top shape: 2 6 18 24 (5184)
I1029 00:41:09.558923 30931 net.cpp:165] Memory required for data: 13234780
I1029 00:41:09.558924 30931 layer_factory.hpp:77] Creating layer label_4_3x5_data_7_split
I1029 00:41:09.558928 30931 net.cpp:100] Creating Layer label_4_3x5_data_7_split
I1029 00:41:09.558930 30931 net.cpp:434] label_4_3x5_data_7_split <- label_4_3x5
I1029 00:41:09.558933 30931 net.cpp:408] label_4_3x5_data_7_split -> label_4_3x5_data_7_split_0
I1029 00:41:09.558936 30931 net.cpp:408] label_4_3x5_data_7_split -> label_4_3x5_data_7_split_1
I1029 00:41:09.558961 30931 net.cpp:150] Setting up label_4_3x5_data_7_split
I1029 00:41:09.558965 30931 net.cpp:157] Top shape: 2 6 9 12 (1296)
I1029 00:41:09.558967 30931 net.cpp:157] Top shape: 2 6 9 12 (1296)
I1029 00:41:09.558969 30931 net.cpp:165] Memory required for data: 13245148
I1029 00:41:09.558970 30931 layer_factory.hpp:77] Creating layer conv1_1
I1029 00:41:09.558979 30931 net.cpp:100] Creating Layer conv1_1
I1029 00:41:09.558981 30931 net.cpp:434] conv1_1 <- data
I1029 00:41:09.558985 30931 net.cpp:408] conv1_1 -> conv1_1
I1029 00:41:09.562259 30931 net.cpp:150] Setting up conv1_1
I1029 00:41:09.562271 30931 net.cpp:157] Top shape: 2 64 576 768 (56623104)
I1029 00:41:09.562274 30931 net.cpp:165] Memory required for data: 239737564
I1029 00:41:09.562284 30931 layer_factory.hpp:77] Creating layer relu1_1
I1029 00:41:09.562289 30931 net.cpp:100] Creating Layer relu1_1
I1029 00:41:09.562294 30931 net.cpp:434] relu1_1 <- conv1_1
I1029 00:41:09.562297 30931 net.cpp:395] relu1_1 -> conv1_1 (in-place)
I1029 00:41:09.562466 30931 net.cpp:150] Setting up relu1_1
I1029 00:41:09.562472 30931 net.cpp:157] Top shape: 2 64 576 768 (56623104)
I1029 00:41:09.562474 30931 net.cpp:165] Memory required for data: 466229980
I1029 00:41:09.562476 30931 layer_factory.hpp:77] Creating layer conv1_2
I1029 00:41:09.562484 30931 net.cpp:100] Creating Layer conv1_2
I1029 00:41:09.562485 30931 net.cpp:434] conv1_2 <- conv1_1
I1029 00:41:09.562490 30931 net.cpp:408] conv1_2 -> conv1_2
I1029 00:41:09.564858 30931 net.cpp:150] Setting up conv1_2
I1029 00:41:09.564869 30931 net.cpp:157] Top shape: 2 64 576 768 (56623104)
I1029 00:41:09.564872 30931 net.cpp:165] Memory required for data: 692722396
I1029 00:41:09.564879 30931 layer_factory.hpp:77] Creating layer relu1_2
I1029 00:41:09.564884 30931 net.cpp:100] Creating Layer relu1_2
I1029 00:41:09.564887 30931 net.cpp:434] relu1_2 <- conv1_2
I1029 00:41:09.564894 30931 net.cpp:395] relu1_2 -> conv1_2 (in-place)
I1029 00:41:09.565047 30931 net.cpp:150] Setting up relu1_2
I1029 00:41:09.565052 30931 net.cpp:157] Top shape: 2 64 576 768 (56623104)
I1029 00:41:09.565054 30931 net.cpp:165] Memory required for data: 919214812
I1029 00:41:09.565057 30931 layer_factory.hpp:77] Creating layer pool1
I1029 00:41:09.565060 30931 net.cpp:100] Creating Layer pool1
I1029 00:41:09.565062 30931 net.cpp:434] pool1 <- conv1_2
I1029 00:41:09.565066 30931 net.cpp:408] pool1 -> pool1
I1029 00:41:09.565105 30931 net.cpp:150] Setting up pool1
I1029 00:41:09.565110 30931 net.cpp:157] Top shape: 2 64 288 384 (14155776)
I1029 00:41:09.565112 30931 net.cpp:165] Memory required for data: 975837916
I1029 00:41:09.565114 30931 layer_factory.hpp:77] Creating layer conv2_1
I1029 00:41:09.565119 30931 net.cpp:100] Creating Layer conv2_1
I1029 00:41:09.565121 30931 net.cpp:434] conv2_1 <- pool1
I1029 00:41:09.565125 30931 net.cpp:408] conv2_1 -> conv2_1
I1029 00:41:09.566787 30931 net.cpp:150] Setting up conv2_1
I1029 00:41:09.566794 30931 net.cpp:157] Top shape: 2 128 288 384 (28311552)
I1029 00:41:09.566797 30931 net.cpp:165] Memory required for data: 1089084124
I1029 00:41:09.566804 30931 layer_factory.hpp:77] Creating layer relu2_1
I1029 00:41:09.566809 30931 net.cpp:100] Creating Layer relu2_1
I1029 00:41:09.566812 30931 net.cpp:434] relu2_1 <- conv2_1
I1029 00:41:09.566815 30931 net.cpp:395] relu2_1 -> conv2_1 (in-place)
I1029 00:41:09.567273 30931 net.cpp:150] Setting up relu2_1
I1029 00:41:09.567281 30931 net.cpp:157] Top shape: 2 128 288 384 (28311552)
I1029 00:41:09.567283 30931 net.cpp:165] Memory required for data: 1202330332
I1029 00:41:09.567286 30931 layer_factory.hpp:77] Creating layer conv2_2
I1029 00:41:09.567294 30931 net.cpp:100] Creating Layer conv2_2
I1029 00:41:09.567296 30931 net.cpp:434] conv2_2 <- conv2_1
I1029 00:41:09.567301 30931 net.cpp:408] conv2_2 -> conv2_2
I1029 00:41:09.569543 30931 net.cpp:150] Setting up conv2_2
I1029 00:41:09.569555 30931 net.cpp:157] Top shape: 2 128 288 384 (28311552)
I1029 00:41:09.569556 30931 net.cpp:165] Memory required for data: 1315576540
I1029 00:41:09.569562 30931 layer_factory.hpp:77] Creating layer relu2_2
I1029 00:41:09.569571 30931 net.cpp:100] Creating Layer relu2_2
I1029 00:41:09.569574 30931 net.cpp:434] relu2_2 <- conv2_2
I1029 00:41:09.569578 30931 net.cpp:395] relu2_2 -> conv2_2 (in-place)
I1029 00:41:09.569736 30931 net.cpp:150] Setting up relu2_2
I1029 00:41:09.569741 30931 net.cpp:157] Top shape: 2 128 288 384 (28311552)
I1029 00:41:09.569743 30931 net.cpp:165] Memory required for data: 1428822748
I1029 00:41:09.569746 30931 layer_factory.hpp:77] Creating layer pool2
I1029 00:41:09.569751 30931 net.cpp:100] Creating Layer pool2
I1029 00:41:09.569753 30931 net.cpp:434] pool2 <- conv2_2
I1029 00:41:09.569756 30931 net.cpp:408] pool2 -> pool2
I1029 00:41:09.569798 30931 net.cpp:150] Setting up pool2
I1029 00:41:09.569802 30931 net.cpp:157] Top shape: 2 128 144 192 (7077888)
I1029 00:41:09.569804 30931 net.cpp:165] Memory required for data: 1457134300
I1029 00:41:09.569806 30931 layer_factory.hpp:77] Creating layer conv3_1
I1029 00:41:09.569811 30931 net.cpp:100] Creating Layer conv3_1
I1029 00:41:09.569813 30931 net.cpp:434] conv3_1 <- pool2
I1029 00:41:09.569818 30931 net.cpp:408] conv3_1 -> conv3_1
I1029 00:41:09.571262 30931 net.cpp:150] Setting up conv3_1
I1029 00:41:09.571270 30931 net.cpp:157] Top shape: 2 256 144 192 (14155776)
I1029 00:41:09.571272 30931 net.cpp:165] Memory required for data: 1513757404
I1029 00:41:09.571280 30931 layer_factory.hpp:77] Creating layer relu3_1
I1029 00:41:09.571285 30931 net.cpp:100] Creating Layer relu3_1
I1029 00:41:09.571287 30931 net.cpp:434] relu3_1 <- conv3_1
I1029 00:41:09.571291 30931 net.cpp:395] relu3_1 -> conv3_1 (in-place)
I1029 00:41:09.571439 30931 net.cpp:150] Setting up relu3_1
I1029 00:41:09.571444 30931 net.cpp:157] Top shape: 2 256 144 192 (14155776)
I1029 00:41:09.571446 30931 net.cpp:165] Memory required for data: 1570380508
I1029 00:41:09.571449 30931 layer_factory.hpp:77] Creating layer conv3_2
I1029 00:41:09.571454 30931 net.cpp:100] Creating Layer conv3_2
I1029 00:41:09.571455 30931 net.cpp:434] conv3_2 <- conv3_1
I1029 00:41:09.571460 30931 net.cpp:408] conv3_2 -> conv3_2
I1029 00:41:09.573956 30931 net.cpp:150] Setting up conv3_2
I1029 00:41:09.573966 30931 net.cpp:157] Top shape: 2 256 144 192 (14155776)
I1029 00:41:09.573968 30931 net.cpp:165] Memory required for data: 1627003612
I1029 00:41:09.573973 30931 layer_factory.hpp:77] Creating layer relu3_2
I1029 00:41:09.573977 30931 net.cpp:100] Creating Layer relu3_2
I1029 00:41:09.573979 30931 net.cpp:434] relu3_2 <- conv3_2
I1029 00:41:09.573984 30931 net.cpp:395] relu3_2 -> conv3_2 (in-place)
I1029 00:41:09.574134 30931 net.cpp:150] Setting up relu3_2
I1029 00:41:09.574141 30931 net.cpp:157] Top shape: 2 256 144 192 (14155776)
I1029 00:41:09.574142 30931 net.cpp:165] Memory required for data: 1683626716
I1029 00:41:09.574144 30931 layer_factory.hpp:77] Creating layer conv3_3
I1029 00:41:09.574151 30931 net.cpp:100] Creating Layer conv3_3
I1029 00:41:09.574153 30931 net.cpp:434] conv3_3 <- conv3_2
I1029 00:41:09.574156 30931 net.cpp:408] conv3_3 -> conv3_3
I1029 00:41:09.576642 30931 net.cpp:150] Setting up conv3_3
I1029 00:41:09.576652 30931 net.cpp:157] Top shape: 2 256 144 192 (14155776)
I1029 00:41:09.576653 30931 net.cpp:165] Memory required for data: 1740249820
I1029 00:41:09.576659 30931 layer_factory.hpp:77] Creating layer relu3_3
I1029 00:41:09.576663 30931 net.cpp:100] Creating Layer relu3_3
I1029 00:41:09.576665 30931 net.cpp:434] relu3_3 <- conv3_3
I1029 00:41:09.576670 30931 net.cpp:395] relu3_3 -> conv3_3 (in-place)
I1029 00:41:09.576831 30931 net.cpp:150] Setting up relu3_3
I1029 00:41:09.576838 30931 net.cpp:157] Top shape: 2 256 144 192 (14155776)
I1029 00:41:09.576839 30931 net.cpp:165] Memory required for data: 1796872924
I1029 00:41:09.576841 30931 layer_factory.hpp:77] Creating layer pool3
I1029 00:41:09.576846 30931 net.cpp:100] Creating Layer pool3
I1029 00:41:09.576848 30931 net.cpp:434] pool3 <- conv3_3
I1029 00:41:09.576853 30931 net.cpp:408] pool3 -> pool3
I1029 00:41:09.576900 30931 net.cpp:150] Setting up pool3
I1029 00:41:09.576905 30931 net.cpp:157] Top shape: 2 256 72 96 (3538944)
I1029 00:41:09.576905 30931 net.cpp:165] Memory required for data: 1811028700
I1029 00:41:09.576907 30931 layer_factory.hpp:77] Creating layer conv4_1
I1029 00:41:09.576912 30931 net.cpp:100] Creating Layer conv4_1
I1029 00:41:09.576915 30931 net.cpp:434] conv4_1 <- pool3
I1029 00:41:09.576918 30931 net.cpp:408] conv4_1 -> conv4_1
I1029 00:41:09.580200 30931 net.cpp:150] Setting up conv4_1
I1029 00:41:09.580211 30931 net.cpp:157] Top shape: 2 512 72 96 (7077888)
I1029 00:41:09.580214 30931 net.cpp:165] Memory required for data: 1839340252
I1029 00:41:09.580220 30931 layer_factory.hpp:77] Creating layer relu4_1
I1029 00:41:09.580225 30931 net.cpp:100] Creating Layer relu4_1
I1029 00:41:09.580227 30931 net.cpp:434] relu4_1 <- conv4_1
I1029 00:41:09.580232 30931 net.cpp:395] relu4_1 -> conv4_1 (in-place)
I1029 00:41:09.580389 30931 net.cpp:150] Setting up relu4_1
I1029 00:41:09.580394 30931 net.cpp:157] Top shape: 2 512 72 96 (7077888)
I1029 00:41:09.580396 30931 net.cpp:165] Memory required for data: 1867651804
I1029 00:41:09.580399 30931 layer_factory.hpp:77] Creating layer conv4_2
I1029 00:41:09.580404 30931 net.cpp:100] Creating Layer conv4_2
I1029 00:41:09.580406 30931 net.cpp:434] conv4_2 <- conv4_1
I1029 00:41:09.580410 30931 net.cpp:408] conv4_2 -> conv4_2
I1029 00:41:09.585311 30931 net.cpp:150] Setting up conv4_2
I1029 00:41:09.585331 30931 net.cpp:157] Top shape: 2 512 72 96 (7077888)
I1029 00:41:09.585333 30931 net.cpp:165] Memory required for data: 1895963356
I1029 00:41:09.585347 30931 layer_factory.hpp:77] Creating layer relu4_2
I1029 00:41:09.585355 30931 net.cpp:100] Creating Layer relu4_2
I1029 00:41:09.585358 30931 net.cpp:434] relu4_2 <- conv4_2
I1029 00:41:09.585366 30931 net.cpp:395] relu4_2 -> conv4_2 (in-place)
I1029 00:41:09.585868 30931 net.cpp:150] Setting up relu4_2
I1029 00:41:09.585878 30931 net.cpp:157] Top shape: 2 512 72 96 (7077888)
I1029 00:41:09.585880 30931 net.cpp:165] Memory required for data: 1924274908
I1029 00:41:09.585882 30931 layer_factory.hpp:77] Creating layer conv4_3
I1029 00:41:09.585891 30931 net.cpp:100] Creating Layer conv4_3
I1029 00:41:09.585892 30931 net.cpp:434] conv4_3 <- conv4_2
I1029 00:41:09.585896 30931 net.cpp:408] conv4_3 -> conv4_3
I1029 00:41:09.590917 30931 net.cpp:150] Setting up conv4_3
I1029 00:41:09.590939 30931 net.cpp:157] Top shape: 2 512 72 96 (7077888)
I1029 00:41:09.590940 30931 net.cpp:165] Memory required for data: 1952586460
I1029 00:41:09.590950 30931 layer_factory.hpp:77] Creating layer relu4_3
I1029 00:41:09.590956 30931 net.cpp:100] Creating Layer relu4_3
I1029 00:41:09.590960 30931 net.cpp:434] relu4_3 <- conv4_3
I1029 00:41:09.590967 30931 net.cpp:395] relu4_3 -> conv4_3 (in-place)
I1029 00:41:09.591111 30931 net.cpp:150] Setting up relu4_3
I1029 00:41:09.591116 30931 net.cpp:157] Top shape: 2 512 72 96 (7077888)
I1029 00:41:09.591117 30931 net.cpp:165] Memory required for data: 1980898012
I1029 00:41:09.591120 30931 layer_factory.hpp:77] Creating layer conv4_3_relu4_3_0_split
I1029 00:41:09.591125 30931 net.cpp:100] Creating Layer conv4_3_relu4_3_0_split
I1029 00:41:09.591127 30931 net.cpp:434] conv4_3_relu4_3_0_split <- conv4_3
I1029 00:41:09.591131 30931 net.cpp:408] conv4_3_relu4_3_0_split -> conv4_3_relu4_3_0_split_0
I1029 00:41:09.591136 30931 net.cpp:408] conv4_3_relu4_3_0_split -> conv4_3_relu4_3_0_split_1
I1029 00:41:09.591140 30931 net.cpp:408] conv4_3_relu4_3_0_split -> conv4_3_relu4_3_0_split_2
I1029 00:41:09.591189 30931 net.cpp:150] Setting up conv4_3_relu4_3_0_split
I1029 00:41:09.591193 30931 net.cpp:157] Top shape: 2 512 72 96 (7077888)
I1029 00:41:09.591195 30931 net.cpp:157] Top shape: 2 512 72 96 (7077888)
I1029 00:41:09.591198 30931 net.cpp:157] Top shape: 2 512 72 96 (7077888)
I1029 00:41:09.591199 30931 net.cpp:165] Memory required for data: 2065832668
I1029 00:41:09.591202 30931 layer_factory.hpp:77] Creating layer loss1_conv1
I1029 00:41:09.591215 30931 net.cpp:100] Creating Layer loss1_conv1
I1029 00:41:09.591218 30931 net.cpp:434] loss1_conv1 <- conv4_3_relu4_3_0_split_0
I1029 00:41:09.591223 30931 net.cpp:408] loss1_conv1 -> loss1_conv1
I1029 00:41:09.633543 30931 net.cpp:150] Setting up loss1_conv1
I1029 00:41:09.633568 30931 net.cpp:157] Top shape: 2 512 72 96 (7077888)
I1029 00:41:09.633570 30931 net.cpp:165] Memory required for data: 2094144220
I1029 00:41:09.633579 30931 layer_factory.hpp:77] Creating layer loss_relu1
I1029 00:41:09.633585 30931 net.cpp:100] Creating Layer loss_relu1
I1029 00:41:09.633589 30931 net.cpp:434] loss_relu1 <- loss1_conv1
I1029 00:41:09.633596 30931 net.cpp:395] loss_relu1 -> loss1_conv1 (in-place)
I1029 00:41:09.633743 30931 net.cpp:150] Setting up loss_relu1
I1029 00:41:09.633749 30931 net.cpp:157] Top shape: 2 512 72 96 (7077888)
I1029 00:41:09.633751 30931 net.cpp:165] Memory required for data: 2122455772
I1029 00:41:09.633754 30931 layer_factory.hpp:77] Creating layer loss1_conv1_loss_relu1_0_split
I1029 00:41:09.633759 30931 net.cpp:100] Creating Layer loss1_conv1_loss_relu1_0_split
I1029 00:41:09.633760 30931 net.cpp:434] loss1_conv1_loss_relu1_0_split <- loss1_conv1
I1029 00:41:09.633765 30931 net.cpp:408] loss1_conv1_loss_relu1_0_split -> loss1_conv1_loss_relu1_0_split_0
I1029 00:41:09.633770 30931 net.cpp:408] loss1_conv1_loss_relu1_0_split -> loss1_conv1_loss_relu1_0_split_1
I1029 00:41:09.633810 30931 net.cpp:150] Setting up loss1_conv1_loss_relu1_0_split
I1029 00:41:09.633815 30931 net.cpp:157] Top shape: 2 512 72 96 (7077888)
I1029 00:41:09.633817 30931 net.cpp:157] Top shape: 2 512 72 96 (7077888)
I1029 00:41:09.633819 30931 net.cpp:165] Memory required for data: 2179078876
I1029 00:41:09.633821 30931 layer_factory.hpp:77] Creating layer LFCN_1_3x5
I1029 00:41:09.633829 30931 net.cpp:100] Creating Layer LFCN_1_3x5
I1029 00:41:09.633833 30931 net.cpp:434] LFCN_1_3x5 <- loss1_conv1_loss_relu1_0_split_0
I1029 00:41:09.633838 30931 net.cpp:408] LFCN_1_3x5 -> LFCN_1_3x5
I1029 00:41:09.635316 30931 net.cpp:150] Setting up LFCN_1_3x5
I1029 00:41:09.635326 30931 net.cpp:157] Top shape: 2 7 72 96 (96768)
I1029 00:41:09.635329 30931 net.cpp:165] Memory required for data: 2179465948
I1029 00:41:09.635334 30931 layer_factory.hpp:77] Creating layer LFCN_1_3x5_LFCN_1_3x5_0_split
I1029 00:41:09.635339 30931 net.cpp:100] Creating Layer LFCN_1_3x5_LFCN_1_3x5_0_split
I1029 00:41:09.635341 30931 net.cpp:434] LFCN_1_3x5_LFCN_1_3x5_0_split <- LFCN_1_3x5
I1029 00:41:09.635346 30931 net.cpp:408] LFCN_1_3x5_LFCN_1_3x5_0_split -> LFCN_1_3x5_LFCN_1_3x5_0_split_0
I1029 00:41:09.635351 30931 net.cpp:408] LFCN_1_3x5_LFCN_1_3x5_0_split -> LFCN_1_3x5_LFCN_1_3x5_0_split_1
I1029 00:41:09.635355 30931 net.cpp:408] LFCN_1_3x5_LFCN_1_3x5_0_split -> LFCN_1_3x5_LFCN_1_3x5_0_split_2
I1029 00:41:09.635404 30931 net.cpp:150] Setting up LFCN_1_3x5_LFCN_1_3x5_0_split
I1029 00:41:09.635408 30931 net.cpp:157] Top shape: 2 7 72 96 (96768)
I1029 00:41:09.635411 30931 net.cpp:157] Top shape: 2 7 72 96 (96768)
I1029 00:41:09.635413 30931 net.cpp:157] Top shape: 2 7 72 96 (96768)
I1029 00:41:09.635414 30931 net.cpp:165] Memory required for data: 2180627164
I1029 00:41:09.635417 30931 layer_factory.hpp:77] Creating layer detection_loss_1_3x5
I1029 00:41:09.635422 30931 net.cpp:100] Creating Layer detection_loss_1_3x5
I1029 00:41:09.635426 30931 net.cpp:434] detection_loss_1_3x5 <- LFCN_1_3x5_LFCN_1_3x5_0_split_0
I1029 00:41:09.635428 30931 net.cpp:434] detection_loss_1_3x5 <- label_1_3x5_data_1_split_0
I1029 00:41:09.635432 30931 net.cpp:408] detection_loss_1_3x5 -> loss_1_3x5
I1029 00:41:09.635437 30931 layer_factory.hpp:77] Creating layer detection_loss_1_3x5
I1029 00:41:09.635759 30931 net.cpp:150] Setting up detection_loss_1_3x5
I1029 00:41:09.635766 30931 net.cpp:157] Top shape: 1 1 1 2 (2)
I1029 00:41:09.635768 30931 net.cpp:160]     with loss weight 0.5
I1029 00:41:09.635776 30931 net.cpp:165] Memory required for data: 2180627172
I1029 00:41:09.635778 30931 layer_factory.hpp:77] Creating layer detection_accuracy_1_3x5
I1029 00:41:09.635783 30931 net.cpp:100] Creating Layer detection_accuracy_1_3x5
I1029 00:41:09.635787 30931 net.cpp:434] detection_accuracy_1_3x5 <- LFCN_1_3x5_LFCN_1_3x5_0_split_1
I1029 00:41:09.635789 30931 net.cpp:434] detection_accuracy_1_3x5 <- label_1_3x5_data_1_split_1
I1029 00:41:09.635794 30931 net.cpp:408] detection_accuracy_1_3x5 -> accuracy_1_3x5
I1029 00:41:09.635799 30931 net.cpp:408] detection_accuracy_1_3x5 -> boxiou_1_3x5
I1029 00:41:09.635834 30931 net.cpp:150] Setting up detection_accuracy_1_3x5
I1029 00:41:09.635838 30931 net.cpp:157] Top shape: 1 1 1 2 (2)
I1029 00:41:09.635840 30931 net.cpp:157] Top shape: 1 1 1 1 (1)
I1029 00:41:09.635843 30931 net.cpp:165] Memory required for data: 2180627184
I1029 00:41:09.635844 30931 layer_factory.hpp:77] Creating layer LFCN_1_5x7
I1029 00:41:09.635850 30931 net.cpp:100] Creating Layer LFCN_1_5x7
I1029 00:41:09.635854 30931 net.cpp:434] LFCN_1_5x7 <- loss1_conv1_loss_relu1_0_split_1
I1029 00:41:09.635857 30931 net.cpp:408] LFCN_1_5x7 -> LFCN_1_5x7
I1029 00:41:09.638628 30931 net.cpp:150] Setting up LFCN_1_5x7
I1029 00:41:09.638639 30931 net.cpp:157] Top shape: 2 7 72 96 (96768)
I1029 00:41:09.638643 30931 net.cpp:165] Memory required for data: 2181014256
I1029 00:41:09.638646 30931 layer_factory.hpp:77] Creating layer LFCN_1_5x7_LFCN_1_5x7_0_split
I1029 00:41:09.638653 30931 net.cpp:100] Creating Layer LFCN_1_5x7_LFCN_1_5x7_0_split
I1029 00:41:09.638654 30931 net.cpp:434] LFCN_1_5x7_LFCN_1_5x7_0_split <- LFCN_1_5x7
I1029 00:41:09.638659 30931 net.cpp:408] LFCN_1_5x7_LFCN_1_5x7_0_split -> LFCN_1_5x7_LFCN_1_5x7_0_split_0
I1029 00:41:09.638664 30931 net.cpp:408] LFCN_1_5x7_LFCN_1_5x7_0_split -> LFCN_1_5x7_LFCN_1_5x7_0_split_1
I1029 00:41:09.638669 30931 net.cpp:408] LFCN_1_5x7_LFCN_1_5x7_0_split -> LFCN_1_5x7_LFCN_1_5x7_0_split_2
I1029 00:41:09.638717 30931 net.cpp:150] Setting up LFCN_1_5x7_LFCN_1_5x7_0_split
I1029 00:41:09.638722 30931 net.cpp:157] Top shape: 2 7 72 96 (96768)
I1029 00:41:09.638725 30931 net.cpp:157] Top shape: 2 7 72 96 (96768)
I1029 00:41:09.638727 30931 net.cpp:157] Top shape: 2 7 72 96 (96768)
I1029 00:41:09.638730 30931 net.cpp:165] Memory required for data: 2182175472
I1029 00:41:09.638731 30931 layer_factory.hpp:77] Creating layer detection_loss_1_5x7
I1029 00:41:09.638738 30931 net.cpp:100] Creating Layer detection_loss_1_5x7
I1029 00:41:09.638741 30931 net.cpp:434] detection_loss_1_5x7 <- LFCN_1_5x7_LFCN_1_5x7_0_split_0
I1029 00:41:09.638744 30931 net.cpp:434] detection_loss_1_5x7 <- label_1_5x7_data_2_split_0
I1029 00:41:09.638747 30931 net.cpp:408] detection_loss_1_5x7 -> loss_1_5x7
I1029 00:41:09.638752 30931 layer_factory.hpp:77] Creating layer detection_loss_1_5x7
I1029 00:41:09.639063 30931 net.cpp:150] Setting up detection_loss_1_5x7
I1029 00:41:09.639071 30931 net.cpp:157] Top shape: 1 1 1 2 (2)
I1029 00:41:09.639073 30931 net.cpp:160]     with loss weight 0.9
I1029 00:41:09.639080 30931 net.cpp:165] Memory required for data: 2182175480
I1029 00:41:09.639081 30931 layer_factory.hpp:77] Creating layer detection_accuracy_1_5x7
I1029 00:41:09.639086 30931 net.cpp:100] Creating Layer detection_accuracy_1_5x7
I1029 00:41:09.639088 30931 net.cpp:434] detection_accuracy_1_5x7 <- LFCN_1_5x7_LFCN_1_5x7_0_split_1
I1029 00:41:09.639091 30931 net.cpp:434] detection_accuracy_1_5x7 <- label_1_5x7_data_2_split_1
I1029 00:41:09.639094 30931 net.cpp:408] detection_accuracy_1_5x7 -> accuracy_1_5x7
I1029 00:41:09.639101 30931 net.cpp:408] detection_accuracy_1_5x7 -> boxiou_1_5x7
I1029 00:41:09.639142 30931 net.cpp:150] Setting up detection_accuracy_1_5x7
I1029 00:41:09.639147 30931 net.cpp:157] Top shape: 1 1 1 2 (2)
I1029 00:41:09.639149 30931 net.cpp:157] Top shape: 1 1 1 1 (1)
I1029 00:41:09.639150 30931 net.cpp:165] Memory required for data: 2182175492
I1029 00:41:09.639153 30931 layer_factory.hpp:77] Creating layer pool4
I1029 00:41:09.639158 30931 net.cpp:100] Creating Layer pool4
I1029 00:41:09.639161 30931 net.cpp:434] pool4 <- conv4_3_relu4_3_0_split_1
I1029 00:41:09.639164 30931 net.cpp:408] pool4 -> pool4
I1029 00:41:09.639199 30931 net.cpp:150] Setting up pool4
I1029 00:41:09.639204 30931 net.cpp:157] Top shape: 2 512 36 48 (1769472)
I1029 00:41:09.639205 30931 net.cpp:165] Memory required for data: 2189253380
I1029 00:41:09.639207 30931 layer_factory.hpp:77] Creating layer conv5_1
I1029 00:41:09.639212 30931 net.cpp:100] Creating Layer conv5_1
I1029 00:41:09.639214 30931 net.cpp:434] conv5_1 <- pool4
I1029 00:41:09.639219 30931 net.cpp:408] conv5_1 -> conv5_1
I1029 00:41:09.643781 30931 net.cpp:150] Setting up conv5_1
I1029 00:41:09.643797 30931 net.cpp:157] Top shape: 2 512 36 48 (1769472)
I1029 00:41:09.643800 30931 net.cpp:165] Memory required for data: 2196331268
I1029 00:41:09.643805 30931 layer_factory.hpp:77] Creating layer relu5_1
I1029 00:41:09.643811 30931 net.cpp:100] Creating Layer relu5_1
I1029 00:41:09.643815 30931 net.cpp:434] relu5_1 <- conv5_1
I1029 00:41:09.643820 30931 net.cpp:395] relu5_1 -> conv5_1 (in-place)
I1029 00:41:09.643968 30931 net.cpp:150] Setting up relu5_1
I1029 00:41:09.643975 30931 net.cpp:157] Top shape: 2 512 36 48 (1769472)
I1029 00:41:09.643977 30931 net.cpp:165] Memory required for data: 2203409156
I1029 00:41:09.643980 30931 layer_factory.hpp:77] Creating layer conv5_2
I1029 00:41:09.643986 30931 net.cpp:100] Creating Layer conv5_2
I1029 00:41:09.643990 30931 net.cpp:434] conv5_2 <- conv5_1
I1029 00:41:09.643992 30931 net.cpp:408] conv5_2 -> conv5_2
I1029 00:41:09.648512 30931 net.cpp:150] Setting up conv5_2
I1029 00:41:09.648528 30931 net.cpp:157] Top shape: 2 512 36 48 (1769472)
I1029 00:41:09.648530 30931 net.cpp:165] Memory required for data: 2210487044
I1029 00:41:09.648536 30931 layer_factory.hpp:77] Creating layer relu5_2
I1029 00:41:09.648542 30931 net.cpp:100] Creating Layer relu5_2
I1029 00:41:09.648545 30931 net.cpp:434] relu5_2 <- conv5_2
I1029 00:41:09.648548 30931 net.cpp:395] relu5_2 -> conv5_2 (in-place)
I1029 00:41:09.649057 30931 net.cpp:150] Setting up relu5_2
I1029 00:41:09.649068 30931 net.cpp:157] Top shape: 2 512 36 48 (1769472)
I1029 00:41:09.649071 30931 net.cpp:165] Memory required for data: 2217564932
I1029 00:41:09.649073 30931 layer_factory.hpp:77] Creating layer conv5_3
I1029 00:41:09.649080 30931 net.cpp:100] Creating Layer conv5_3
I1029 00:41:09.649081 30931 net.cpp:434] conv5_3 <- conv5_2
I1029 00:41:09.649086 30931 net.cpp:408] conv5_3 -> conv5_3
I1029 00:41:09.653519 30931 net.cpp:150] Setting up conv5_3
I1029 00:41:09.653537 30931 net.cpp:157] Top shape: 2 512 36 48 (1769472)
I1029 00:41:09.653538 30931 net.cpp:165] Memory required for data: 2224642820
I1029 00:41:09.653544 30931 layer_factory.hpp:77] Creating layer relu5_3
I1029 00:41:09.653551 30931 net.cpp:100] Creating Layer relu5_3
I1029 00:41:09.653554 30931 net.cpp:434] relu5_3 <- conv5_3
I1029 00:41:09.653558 30931 net.cpp:395] relu5_3 -> conv5_3 (in-place)
I1029 00:41:09.653712 30931 net.cpp:150] Setting up relu5_3
I1029 00:41:09.653718 30931 net.cpp:157] Top shape: 2 512 36 48 (1769472)
I1029 00:41:09.653720 30931 net.cpp:165] Memory required for data: 2231720708
I1029 00:41:09.653723 30931 layer_factory.hpp:77] Creating layer conv5_3_relu5_3_0_split
I1029 00:41:09.653728 30931 net.cpp:100] Creating Layer conv5_3_relu5_3_0_split
I1029 00:41:09.653729 30931 net.cpp:434] conv5_3_relu5_3_0_split <- conv5_3
I1029 00:41:09.653734 30931 net.cpp:408] conv5_3_relu5_3_0_split -> conv5_3_relu5_3_0_split_0
I1029 00:41:09.653739 30931 net.cpp:408] conv5_3_relu5_3_0_split -> conv5_3_relu5_3_0_split_1
I1029 00:41:09.653743 30931 net.cpp:408] conv5_3_relu5_3_0_split -> conv5_3_relu5_3_0_split_2
I1029 00:41:09.653792 30931 net.cpp:150] Setting up conv5_3_relu5_3_0_split
I1029 00:41:09.653798 30931 net.cpp:157] Top shape: 2 512 36 48 (1769472)
I1029 00:41:09.653800 30931 net.cpp:157] Top shape: 2 512 36 48 (1769472)
I1029 00:41:09.653803 30931 net.cpp:157] Top shape: 2 512 36 48 (1769472)
I1029 00:41:09.653805 30931 net.cpp:165] Memory required for data: 2252954372
I1029 00:41:09.653806 30931 layer_factory.hpp:77] Creating layer LFCN_2_3x5
I1029 00:41:09.653815 30931 net.cpp:100] Creating Layer LFCN_2_3x5
I1029 00:41:09.653817 30931 net.cpp:434] LFCN_2_3x5 <- conv5_3_relu5_3_0_split_0
I1029 00:41:09.653821 30931 net.cpp:408] LFCN_2_3x5 -> LFCN_2_3x5
I1029 00:41:09.656023 30931 net.cpp:150] Setting up LFCN_2_3x5
I1029 00:41:09.656033 30931 net.cpp:157] Top shape: 2 7 36 48 (24192)
I1029 00:41:09.656036 30931 net.cpp:165] Memory required for data: 2253051140
I1029 00:41:09.656049 30931 layer_factory.hpp:77] Creating layer LFCN_2_3x5_LFCN_2_3x5_0_split
I1029 00:41:09.656054 30931 net.cpp:100] Creating Layer LFCN_2_3x5_LFCN_2_3x5_0_split
I1029 00:41:09.656056 30931 net.cpp:434] LFCN_2_3x5_LFCN_2_3x5_0_split <- LFCN_2_3x5
I1029 00:41:09.656064 30931 net.cpp:408] LFCN_2_3x5_LFCN_2_3x5_0_split -> LFCN_2_3x5_LFCN_2_3x5_0_split_0
I1029 00:41:09.656076 30931 net.cpp:408] LFCN_2_3x5_LFCN_2_3x5_0_split -> LFCN_2_3x5_LFCN_2_3x5_0_split_1
I1029 00:41:09.656081 30931 net.cpp:408] LFCN_2_3x5_LFCN_2_3x5_0_split -> LFCN_2_3x5_LFCN_2_3x5_0_split_2
I1029 00:41:09.656129 30931 net.cpp:150] Setting up LFCN_2_3x5_LFCN_2_3x5_0_split
I1029 00:41:09.656136 30931 net.cpp:157] Top shape: 2 7 36 48 (24192)
I1029 00:41:09.656138 30931 net.cpp:157] Top shape: 2 7 36 48 (24192)
I1029 00:41:09.656141 30931 net.cpp:157] Top shape: 2 7 36 48 (24192)
I1029 00:41:09.656143 30931 net.cpp:165] Memory required for data: 2253341444
I1029 00:41:09.656146 30931 layer_factory.hpp:77] Creating layer detection_loss_2_3x5
I1029 00:41:09.656149 30931 net.cpp:100] Creating Layer detection_loss_2_3x5
I1029 00:41:09.656152 30931 net.cpp:434] detection_loss_2_3x5 <- LFCN_2_3x5_LFCN_2_3x5_0_split_0
I1029 00:41:09.656157 30931 net.cpp:434] detection_loss_2_3x5 <- label_2_3x5_data_3_split_0
I1029 00:41:09.656160 30931 net.cpp:408] detection_loss_2_3x5 -> loss_2_3x5
I1029 00:41:09.656167 30931 layer_factory.hpp:77] Creating layer detection_loss_2_3x5
I1029 00:41:09.656476 30931 net.cpp:150] Setting up detection_loss_2_3x5
I1029 00:41:09.656481 30931 net.cpp:157] Top shape: 1 1 1 2 (2)
I1029 00:41:09.656483 30931 net.cpp:160]     with loss weight 1
I1029 00:41:09.656491 30931 net.cpp:165] Memory required for data: 2253341452
I1029 00:41:09.656494 30931 layer_factory.hpp:77] Creating layer detection_accuracy_2_3x5
I1029 00:41:09.656499 30931 net.cpp:100] Creating Layer detection_accuracy_2_3x5
I1029 00:41:09.656502 30931 net.cpp:434] detection_accuracy_2_3x5 <- LFCN_2_3x5_LFCN_2_3x5_0_split_1
I1029 00:41:09.656505 30931 net.cpp:434] detection_accuracy_2_3x5 <- label_2_3x5_data_3_split_1
I1029 00:41:09.656510 30931 net.cpp:408] detection_accuracy_2_3x5 -> accuracy_2_3x5
I1029 00:41:09.656515 30931 net.cpp:408] detection_accuracy_2_3x5 -> boxiou_2_3x5
I1029 00:41:09.656551 30931 net.cpp:150] Setting up detection_accuracy_2_3x5
I1029 00:41:09.656558 30931 net.cpp:157] Top shape: 1 1 1 2 (2)
I1029 00:41:09.656559 30931 net.cpp:157] Top shape: 1 1 1 1 (1)
I1029 00:41:09.656561 30931 net.cpp:165] Memory required for data: 2253341464
I1029 00:41:09.656563 30931 layer_factory.hpp:77] Creating layer LFCN_2_5x7
I1029 00:41:09.656570 30931 net.cpp:100] Creating Layer LFCN_2_5x7
I1029 00:41:09.656572 30931 net.cpp:434] LFCN_2_5x7 <- conv5_3_relu5_3_0_split_1
I1029 00:41:09.656576 30931 net.cpp:408] LFCN_2_5x7 -> LFCN_2_5x7
I1029 00:41:09.658828 30931 net.cpp:150] Setting up LFCN_2_5x7
I1029 00:41:09.658839 30931 net.cpp:157] Top shape: 2 7 36 48 (24192)
I1029 00:41:09.658841 30931 net.cpp:165] Memory required for data: 2253438232
I1029 00:41:09.658846 30931 layer_factory.hpp:77] Creating layer LFCN_2_5x7_LFCN_2_5x7_0_split
I1029 00:41:09.658851 30931 net.cpp:100] Creating Layer LFCN_2_5x7_LFCN_2_5x7_0_split
I1029 00:41:09.658854 30931 net.cpp:434] LFCN_2_5x7_LFCN_2_5x7_0_split <- LFCN_2_5x7
I1029 00:41:09.658859 30931 net.cpp:408] LFCN_2_5x7_LFCN_2_5x7_0_split -> LFCN_2_5x7_LFCN_2_5x7_0_split_0
I1029 00:41:09.658864 30931 net.cpp:408] LFCN_2_5x7_LFCN_2_5x7_0_split -> LFCN_2_5x7_LFCN_2_5x7_0_split_1
I1029 00:41:09.658869 30931 net.cpp:408] LFCN_2_5x7_LFCN_2_5x7_0_split -> LFCN_2_5x7_LFCN_2_5x7_0_split_2
I1029 00:41:09.658917 30931 net.cpp:150] Setting up LFCN_2_5x7_LFCN_2_5x7_0_split
I1029 00:41:09.658922 30931 net.cpp:157] Top shape: 2 7 36 48 (24192)
I1029 00:41:09.658926 30931 net.cpp:157] Top shape: 2 7 36 48 (24192)
I1029 00:41:09.658928 30931 net.cpp:157] Top shape: 2 7 36 48 (24192)
I1029 00:41:09.658929 30931 net.cpp:165] Memory required for data: 2253728536
I1029 00:41:09.658931 30931 layer_factory.hpp:77] Creating layer detection_loss_2_5x7
I1029 00:41:09.658937 30931 net.cpp:100] Creating Layer detection_loss_2_5x7
I1029 00:41:09.658939 30931 net.cpp:434] detection_loss_2_5x7 <- LFCN_2_5x7_LFCN_2_5x7_0_split_0
I1029 00:41:09.658942 30931 net.cpp:434] detection_loss_2_5x7 <- label_2_5x7_data_4_split_0
I1029 00:41:09.658946 30931 net.cpp:408] detection_loss_2_5x7 -> loss_2_5x7
I1029 00:41:09.658951 30931 layer_factory.hpp:77] Creating layer detection_loss_2_5x7
I1029 00:41:09.659268 30931 net.cpp:150] Setting up detection_loss_2_5x7
I1029 00:41:09.659276 30931 net.cpp:157] Top shape: 1 1 1 2 (2)
I1029 00:41:09.659277 30931 net.cpp:160]     with loss weight 1
I1029 00:41:09.659282 30931 net.cpp:165] Memory required for data: 2253728544
I1029 00:41:09.659284 30931 layer_factory.hpp:77] Creating layer detection_accuracy_2_5x7
I1029 00:41:09.659288 30931 net.cpp:100] Creating Layer detection_accuracy_2_5x7
I1029 00:41:09.659291 30931 net.cpp:434] detection_accuracy_2_5x7 <- LFCN_2_5x7_LFCN_2_5x7_0_split_1
I1029 00:41:09.659294 30931 net.cpp:434] detection_accuracy_2_5x7 <- label_2_5x7_data_4_split_1
I1029 00:41:09.659299 30931 net.cpp:408] detection_accuracy_2_5x7 -> accuracy_2_5x7
I1029 00:41:09.659303 30931 net.cpp:408] detection_accuracy_2_5x7 -> boxiou_2_5x7
I1029 00:41:09.659339 30931 net.cpp:150] Setting up detection_accuracy_2_5x7
I1029 00:41:09.659344 30931 net.cpp:157] Top shape: 1 1 1 2 (2)
I1029 00:41:09.659348 30931 net.cpp:157] Top shape: 1 1 1 1 (1)
I1029 00:41:09.659348 30931 net.cpp:165] Memory required for data: 2253728556
I1029 00:41:09.659351 30931 layer_factory.hpp:77] Creating layer pool5
I1029 00:41:09.659356 30931 net.cpp:100] Creating Layer pool5
I1029 00:41:09.659358 30931 net.cpp:434] pool5 <- conv5_3_relu5_3_0_split_2
I1029 00:41:09.659363 30931 net.cpp:408] pool5 -> pool5
I1029 00:41:09.659395 30931 net.cpp:150] Setting up pool5
I1029 00:41:09.659400 30931 net.cpp:157] Top shape: 2 512 18 24 (442368)
I1029 00:41:09.659402 30931 net.cpp:165] Memory required for data: 2255498028
I1029 00:41:09.659404 30931 layer_factory.hpp:77] Creating layer conv6_1
I1029 00:41:09.659411 30931 net.cpp:100] Creating Layer conv6_1
I1029 00:41:09.659413 30931 net.cpp:434] conv6_1 <- pool5
I1029 00:41:09.659418 30931 net.cpp:408] conv6_1 -> conv6_1
I1029 00:41:09.679889 30931 net.cpp:150] Setting up conv6_1
I1029 00:41:09.679910 30931 net.cpp:157] Top shape: 2 512 18 24 (442368)
I1029 00:41:09.679913 30931 net.cpp:165] Memory required for data: 2257267500
I1029 00:41:09.679920 30931 layer_factory.hpp:77] Creating layer relu6_1
I1029 00:41:09.679926 30931 net.cpp:100] Creating Layer relu6_1
I1029 00:41:09.679930 30931 net.cpp:434] relu6_1 <- conv6_1
I1029 00:41:09.679936 30931 net.cpp:395] relu6_1 -> conv6_1 (in-place)
I1029 00:41:09.680081 30931 net.cpp:150] Setting up relu6_1
I1029 00:41:09.680088 30931 net.cpp:157] Top shape: 2 512 18 24 (442368)
I1029 00:41:09.680090 30931 net.cpp:165] Memory required for data: 2259036972
I1029 00:41:09.680093 30931 layer_factory.hpp:77] Creating layer conv6_1_relu6_1_0_split
I1029 00:41:09.680099 30931 net.cpp:100] Creating Layer conv6_1_relu6_1_0_split
I1029 00:41:09.680100 30931 net.cpp:434] conv6_1_relu6_1_0_split <- conv6_1
I1029 00:41:09.680104 30931 net.cpp:408] conv6_1_relu6_1_0_split -> conv6_1_relu6_1_0_split_0
I1029 00:41:09.680109 30931 net.cpp:408] conv6_1_relu6_1_0_split -> conv6_1_relu6_1_0_split_1
I1029 00:41:09.680114 30931 net.cpp:408] conv6_1_relu6_1_0_split -> conv6_1_relu6_1_0_split_2
I1029 00:41:09.680164 30931 net.cpp:150] Setting up conv6_1_relu6_1_0_split
I1029 00:41:09.680169 30931 net.cpp:157] Top shape: 2 512 18 24 (442368)
I1029 00:41:09.680172 30931 net.cpp:157] Top shape: 2 512 18 24 (442368)
I1029 00:41:09.680174 30931 net.cpp:157] Top shape: 2 512 18 24 (442368)
I1029 00:41:09.680176 30931 net.cpp:165] Memory required for data: 2264345388
I1029 00:41:09.680178 30931 layer_factory.hpp:77] Creating layer LFCN_3_3x5
I1029 00:41:09.680186 30931 net.cpp:100] Creating Layer LFCN_3_3x5
I1029 00:41:09.680188 30931 net.cpp:434] LFCN_3_3x5 <- conv6_1_relu6_1_0_split_0
I1029 00:41:09.680193 30931 net.cpp:408] LFCN_3_3x5 -> LFCN_3_3x5
I1029 00:41:09.681633 30931 net.cpp:150] Setting up LFCN_3_3x5
I1029 00:41:09.681644 30931 net.cpp:157] Top shape: 2 7 18 24 (6048)
I1029 00:41:09.681646 30931 net.cpp:165] Memory required for data: 2264369580
I1029 00:41:09.681651 30931 layer_factory.hpp:77] Creating layer LFCN_3_3x5_LFCN_3_3x5_0_split
I1029 00:41:09.681666 30931 net.cpp:100] Creating Layer LFCN_3_3x5_LFCN_3_3x5_0_split
I1029 00:41:09.681668 30931 net.cpp:434] LFCN_3_3x5_LFCN_3_3x5_0_split <- LFCN_3_3x5
I1029 00:41:09.681674 30931 net.cpp:408] LFCN_3_3x5_LFCN_3_3x5_0_split -> LFCN_3_3x5_LFCN_3_3x5_0_split_0
I1029 00:41:09.681679 30931 net.cpp:408] LFCN_3_3x5_LFCN_3_3x5_0_split -> LFCN_3_3x5_LFCN_3_3x5_0_split_1
I1029 00:41:09.681682 30931 net.cpp:408] LFCN_3_3x5_LFCN_3_3x5_0_split -> LFCN_3_3x5_LFCN_3_3x5_0_split_2
I1029 00:41:09.681731 30931 net.cpp:150] Setting up LFCN_3_3x5_LFCN_3_3x5_0_split
I1029 00:41:09.681737 30931 net.cpp:157] Top shape: 2 7 18 24 (6048)
I1029 00:41:09.681740 30931 net.cpp:157] Top shape: 2 7 18 24 (6048)
I1029 00:41:09.681742 30931 net.cpp:157] Top shape: 2 7 18 24 (6048)
I1029 00:41:09.681744 30931 net.cpp:165] Memory required for data: 2264442156
I1029 00:41:09.681747 30931 layer_factory.hpp:77] Creating layer detection_loss_3_3x5
I1029 00:41:09.681752 30931 net.cpp:100] Creating Layer detection_loss_3_3x5
I1029 00:41:09.681754 30931 net.cpp:434] detection_loss_3_3x5 <- LFCN_3_3x5_LFCN_3_3x5_0_split_0
I1029 00:41:09.681757 30931 net.cpp:434] detection_loss_3_3x5 <- label_3_3x5_data_5_split_0
I1029 00:41:09.681762 30931 net.cpp:408] detection_loss_3_3x5 -> loss_3_3x5
I1029 00:41:09.681769 30931 layer_factory.hpp:77] Creating layer detection_loss_3_3x5
I1029 00:41:09.682078 30931 net.cpp:150] Setting up detection_loss_3_3x5
I1029 00:41:09.682085 30931 net.cpp:157] Top shape: 1 1 1 2 (2)
I1029 00:41:09.682087 30931 net.cpp:160]     with loss weight 1
I1029 00:41:09.682095 30931 net.cpp:165] Memory required for data: 2264442164
I1029 00:41:09.682096 30931 layer_factory.hpp:77] Creating layer detection_accuracy_3_3x5
I1029 00:41:09.682102 30931 net.cpp:100] Creating Layer detection_accuracy_3_3x5
I1029 00:41:09.682106 30931 net.cpp:434] detection_accuracy_3_3x5 <- LFCN_3_3x5_LFCN_3_3x5_0_split_1
I1029 00:41:09.682108 30931 net.cpp:434] detection_accuracy_3_3x5 <- label_3_3x5_data_5_split_1
I1029 00:41:09.682112 30931 net.cpp:408] detection_accuracy_3_3x5 -> accuracy_3_3x5
I1029 00:41:09.682117 30931 net.cpp:408] detection_accuracy_3_3x5 -> boxiou_3_3x5
I1029 00:41:09.682166 30931 net.cpp:150] Setting up detection_accuracy_3_3x5
I1029 00:41:09.682171 30931 net.cpp:157] Top shape: 1 1 1 2 (2)
I1029 00:41:09.682174 30931 net.cpp:157] Top shape: 1 1 1 1 (1)
I1029 00:41:09.682175 30931 net.cpp:165] Memory required for data: 2264442176
I1029 00:41:09.682178 30931 layer_factory.hpp:77] Creating layer LFCN_3_5x7
I1029 00:41:09.682185 30931 net.cpp:100] Creating Layer LFCN_3_5x7
I1029 00:41:09.682188 30931 net.cpp:434] LFCN_3_5x7 <- conv6_1_relu6_1_0_split_1
I1029 00:41:09.682193 30931 net.cpp:408] LFCN_3_5x7 -> LFCN_3_5x7
I1029 00:41:09.684085 30931 net.cpp:150] Setting up LFCN_3_5x7
I1029 00:41:09.684095 30931 net.cpp:157] Top shape: 2 7 18 24 (6048)
I1029 00:41:09.684098 30931 net.cpp:165] Memory required for data: 2264466368
I1029 00:41:09.684103 30931 layer_factory.hpp:77] Creating layer LFCN_3_5x7_LFCN_3_5x7_0_split
I1029 00:41:09.684106 30931 net.cpp:100] Creating Layer LFCN_3_5x7_LFCN_3_5x7_0_split
I1029 00:41:09.684108 30931 net.cpp:434] LFCN_3_5x7_LFCN_3_5x7_0_split <- LFCN_3_5x7
I1029 00:41:09.684113 30931 net.cpp:408] LFCN_3_5x7_LFCN_3_5x7_0_split -> LFCN_3_5x7_LFCN_3_5x7_0_split_0
I1029 00:41:09.684119 30931 net.cpp:408] LFCN_3_5x7_LFCN_3_5x7_0_split -> LFCN_3_5x7_LFCN_3_5x7_0_split_1
I1029 00:41:09.684123 30931 net.cpp:408] LFCN_3_5x7_LFCN_3_5x7_0_split -> LFCN_3_5x7_LFCN_3_5x7_0_split_2
I1029 00:41:09.684173 30931 net.cpp:150] Setting up LFCN_3_5x7_LFCN_3_5x7_0_split
I1029 00:41:09.684180 30931 net.cpp:157] Top shape: 2 7 18 24 (6048)
I1029 00:41:09.684181 30931 net.cpp:157] Top shape: 2 7 18 24 (6048)
I1029 00:41:09.684185 30931 net.cpp:157] Top shape: 2 7 18 24 (6048)
I1029 00:41:09.684185 30931 net.cpp:165] Memory required for data: 2264538944
I1029 00:41:09.684187 30931 layer_factory.hpp:77] Creating layer detection_loss_3_5x7
I1029 00:41:09.684192 30931 net.cpp:100] Creating Layer detection_loss_3_5x7
I1029 00:41:09.684195 30931 net.cpp:434] detection_loss_3_5x7 <- LFCN_3_5x7_LFCN_3_5x7_0_split_0
I1029 00:41:09.684198 30931 net.cpp:434] detection_loss_3_5x7 <- label_3_5x7_data_6_split_0
I1029 00:41:09.684201 30931 net.cpp:408] detection_loss_3_5x7 -> loss_3_5x7
I1029 00:41:09.684206 30931 layer_factory.hpp:77] Creating layer detection_loss_3_5x7
I1029 00:41:09.684900 30931 net.cpp:150] Setting up detection_loss_3_5x7
I1029 00:41:09.684909 30931 net.cpp:157] Top shape: 1 1 1 2 (2)
I1029 00:41:09.684911 30931 net.cpp:160]     with loss weight 1
I1029 00:41:09.684914 30931 net.cpp:165] Memory required for data: 2264538952
I1029 00:41:09.684917 30931 layer_factory.hpp:77] Creating layer detection_accuracy_3_5x7
I1029 00:41:09.684923 30931 net.cpp:100] Creating Layer detection_accuracy_3_5x7
I1029 00:41:09.684926 30931 net.cpp:434] detection_accuracy_3_5x7 <- LFCN_3_5x7_LFCN_3_5x7_0_split_1
I1029 00:41:09.684929 30931 net.cpp:434] detection_accuracy_3_5x7 <- label_3_5x7_data_6_split_1
I1029 00:41:09.684933 30931 net.cpp:408] detection_accuracy_3_5x7 -> accuracy_3_5x7
I1029 00:41:09.684938 30931 net.cpp:408] detection_accuracy_3_5x7 -> boxiou_3_5x7
I1029 00:41:09.684978 30931 net.cpp:150] Setting up detection_accuracy_3_5x7
I1029 00:41:09.684984 30931 net.cpp:157] Top shape: 1 1 1 2 (2)
I1029 00:41:09.684986 30931 net.cpp:157] Top shape: 1 1 1 1 (1)
I1029 00:41:09.684988 30931 net.cpp:165] Memory required for data: 2264538964
I1029 00:41:09.684990 30931 layer_factory.hpp:77] Creating layer pool6
I1029 00:41:09.684994 30931 net.cpp:100] Creating Layer pool6
I1029 00:41:09.684998 30931 net.cpp:434] pool6 <- conv6_1_relu6_1_0_split_2
I1029 00:41:09.685001 30931 net.cpp:408] pool6 -> pool6
I1029 00:41:09.685037 30931 net.cpp:150] Setting up pool6
I1029 00:41:09.685042 30931 net.cpp:157] Top shape: 2 512 9 12 (110592)
I1029 00:41:09.685045 30931 net.cpp:165] Memory required for data: 2264981332
I1029 00:41:09.685046 30931 layer_factory.hpp:77] Creating layer LFCN_4_3x5
I1029 00:41:09.685052 30931 net.cpp:100] Creating Layer LFCN_4_3x5
I1029 00:41:09.685055 30931 net.cpp:434] LFCN_4_3x5 <- pool6
I1029 00:41:09.685060 30931 net.cpp:408] LFCN_4_3x5 -> LFCN_4_3x5
I1029 00:41:09.686465 30931 net.cpp:150] Setting up LFCN_4_3x5
I1029 00:41:09.686475 30931 net.cpp:157] Top shape: 2 7 9 12 (1512)
I1029 00:41:09.686476 30931 net.cpp:165] Memory required for data: 2264987380
I1029 00:41:09.686481 30931 layer_factory.hpp:77] Creating layer LFCN_4_3x5_LFCN_4_3x5_0_split
I1029 00:41:09.686486 30931 net.cpp:100] Creating Layer LFCN_4_3x5_LFCN_4_3x5_0_split
I1029 00:41:09.686488 30931 net.cpp:434] LFCN_4_3x5_LFCN_4_3x5_0_split <- LFCN_4_3x5
I1029 00:41:09.686493 30931 net.cpp:408] LFCN_4_3x5_LFCN_4_3x5_0_split -> LFCN_4_3x5_LFCN_4_3x5_0_split_0
I1029 00:41:09.686499 30931 net.cpp:408] LFCN_4_3x5_LFCN_4_3x5_0_split -> LFCN_4_3x5_LFCN_4_3x5_0_split_1
I1029 00:41:09.686503 30931 net.cpp:408] LFCN_4_3x5_LFCN_4_3x5_0_split -> LFCN_4_3x5_LFCN_4_3x5_0_split_2
I1029 00:41:09.686560 30931 net.cpp:150] Setting up LFCN_4_3x5_LFCN_4_3x5_0_split
I1029 00:41:09.686566 30931 net.cpp:157] Top shape: 2 7 9 12 (1512)
I1029 00:41:09.686569 30931 net.cpp:157] Top shape: 2 7 9 12 (1512)
I1029 00:41:09.686571 30931 net.cpp:157] Top shape: 2 7 9 12 (1512)
I1029 00:41:09.686573 30931 net.cpp:165] Memory required for data: 2265005524
I1029 00:41:09.686574 30931 layer_factory.hpp:77] Creating layer detection_loss_4_3x5
I1029 00:41:09.686579 30931 net.cpp:100] Creating Layer detection_loss_4_3x5
I1029 00:41:09.686583 30931 net.cpp:434] detection_loss_4_3x5 <- LFCN_4_3x5_LFCN_4_3x5_0_split_0
I1029 00:41:09.686585 30931 net.cpp:434] detection_loss_4_3x5 <- label_4_3x5_data_7_split_0
I1029 00:41:09.686589 30931 net.cpp:408] detection_loss_4_3x5 -> loss_4_3x5
I1029 00:41:09.686594 30931 layer_factory.hpp:77] Creating layer detection_loss_4_3x5
I1029 00:41:09.686894 30931 net.cpp:150] Setting up detection_loss_4_3x5
I1029 00:41:09.686902 30931 net.cpp:157] Top shape: 1 1 1 2 (2)
I1029 00:41:09.686903 30931 net.cpp:160]     with loss weight 1
I1029 00:41:09.686908 30931 net.cpp:165] Memory required for data: 2265005532
I1029 00:41:09.686909 30931 layer_factory.hpp:77] Creating layer detection_accuracy_4_3x5
I1029 00:41:09.686915 30931 net.cpp:100] Creating Layer detection_accuracy_4_3x5
I1029 00:41:09.686918 30931 net.cpp:434] detection_accuracy_4_3x5 <- LFCN_4_3x5_LFCN_4_3x5_0_split_1
I1029 00:41:09.686921 30931 net.cpp:434] detection_accuracy_4_3x5 <- label_4_3x5_data_7_split_1
I1029 00:41:09.686924 30931 net.cpp:408] detection_accuracy_4_3x5 -> accuracy_4_3x5
I1029 00:41:09.686928 30931 net.cpp:408] detection_accuracy_4_3x5 -> boxiou_4_3x5
I1029 00:41:09.686967 30931 net.cpp:150] Setting up detection_accuracy_4_3x5
I1029 00:41:09.686972 30931 net.cpp:157] Top shape: 1 1 1 2 (2)
I1029 00:41:09.686975 30931 net.cpp:157] Top shape: 1 1 1 1 (1)
I1029 00:41:09.686976 30931 net.cpp:165] Memory required for data: 2265005544
I1029 00:41:09.686978 30931 layer_factory.hpp:77] Creating layer proposals
I1029 00:41:09.686985 30931 net.cpp:100] Creating Layer proposals
I1029 00:41:09.686987 30931 net.cpp:434] proposals <- LFCN_1_3x5_LFCN_1_3x5_0_split_2
I1029 00:41:09.686990 30931 net.cpp:434] proposals <- LFCN_1_5x7_LFCN_1_5x7_0_split_2
I1029 00:41:09.686993 30931 net.cpp:434] proposals <- LFCN_2_3x5_LFCN_2_3x5_0_split_2
I1029 00:41:09.686995 30931 net.cpp:434] proposals <- LFCN_2_5x7_LFCN_2_5x7_0_split_2
I1029 00:41:09.686997 30931 net.cpp:434] proposals <- LFCN_3_3x5_LFCN_3_3x5_0_split_2
I1029 00:41:09.687000 30931 net.cpp:434] proposals <- LFCN_3_5x7_LFCN_3_5x7_0_split_2
I1029 00:41:09.687002 30931 net.cpp:434] proposals <- LFCN_4_3x5_LFCN_4_3x5_0_split_2
I1029 00:41:09.687006 30931 net.cpp:408] proposals -> proposals
I1029 00:41:09.687028 30931 net.cpp:150] Setting up proposals
I1029 00:41:09.687033 30931 net.cpp:157] Top shape: 1 5 1 1 (5)
I1029 00:41:09.687036 30931 net.cpp:165] Memory required for data: 2265005564
I1029 00:41:09.687038 30931 layer_factory.hpp:77] Creating layer proposal_info
I1029 00:41:09.687044 30931 net.cpp:100] Creating Layer proposal_info
I1029 00:41:09.687047 30931 net.cpp:434] proposal_info <- proposals
I1029 00:41:09.687052 30931 net.cpp:434] proposal_info <- gt_boxes
I1029 00:41:09.687057 30931 net.cpp:408] proposal_info -> rois
I1029 00:41:09.687062 30931 net.cpp:408] proposal_info -> proposal_labels
I1029 00:41:09.687067 30931 net.cpp:408] proposal_info -> proposal_targets
I1029 00:41:09.687072 30931 net.cpp:408] proposal_info -> box_inside_weights
I1029 00:41:09.687075 30931 net.cpp:408] proposal_info -> box_outside_weights
I1029 00:41:09.687079 30931 net.cpp:408] proposal_info -> match_gt_boxes
I1029 00:41:09.687160 30931 net.cpp:150] Setting up proposal_info
I1029 00:41:09.687165 30931 net.cpp:157] Top shape: 64 5 1 1 (320)
I1029 00:41:09.687168 30931 net.cpp:157] Top shape: 64 1 1 1 (64)
I1029 00:41:09.687170 30931 net.cpp:157] Top shape: 64 12 1 1 (768)
I1029 00:41:09.687173 30931 net.cpp:157] Top shape: 64 12 1 1 (768)
I1029 00:41:09.687175 30931 net.cpp:157] Top shape: 64 12 1 1 (768)
I1029 00:41:09.687177 30931 net.cpp:157] Top shape: 64 6 1 1 (384)
I1029 00:41:09.687180 30931 net.cpp:165] Memory required for data: 2265017852
I1029 00:41:09.687181 30931 layer_factory.hpp:77] Creating layer rois_proposal_info_0_split
I1029 00:41:09.687186 30931 net.cpp:100] Creating Layer rois_proposal_info_0_split
I1029 00:41:09.687187 30931 net.cpp:434] rois_proposal_info_0_split <- rois
I1029 00:41:09.687191 30931 net.cpp:408] rois_proposal_info_0_split -> rois_proposal_info_0_split_0
I1029 00:41:09.687196 30931 net.cpp:408] rois_proposal_info_0_split -> rois_proposal_info_0_split_1
I1029 00:41:09.687198 30931 net.cpp:408] rois_proposal_info_0_split -> rois_proposal_info_0_split_2
I1029 00:41:09.687240 30931 net.cpp:150] Setting up rois_proposal_info_0_split
I1029 00:41:09.687245 30931 net.cpp:157] Top shape: 64 5 1 1 (320)
I1029 00:41:09.687248 30931 net.cpp:157] Top shape: 64 5 1 1 (320)
I1029 00:41:09.687250 30931 net.cpp:157] Top shape: 64 5 1 1 (320)
I1029 00:41:09.687252 30931 net.cpp:165] Memory required for data: 2265021692
I1029 00:41:09.687253 30931 layer_factory.hpp:77] Creating layer proposal_labels_proposal_info_1_split
I1029 00:41:09.687258 30931 net.cpp:100] Creating Layer proposal_labels_proposal_info_1_split
I1029 00:41:09.687259 30931 net.cpp:434] proposal_labels_proposal_info_1_split <- proposal_labels
I1029 00:41:09.687263 30931 net.cpp:408] proposal_labels_proposal_info_1_split -> proposal_labels_proposal_info_1_split_0
I1029 00:41:09.687266 30931 net.cpp:408] proposal_labels_proposal_info_1_split -> proposal_labels_proposal_info_1_split_1
I1029 00:41:09.687297 30931 net.cpp:150] Setting up proposal_labels_proposal_info_1_split
I1029 00:41:09.687301 30931 net.cpp:157] Top shape: 64 1 1 1 (64)
I1029 00:41:09.687304 30931 net.cpp:157] Top shape: 64 1 1 1 (64)
I1029 00:41:09.687305 30931 net.cpp:165] Memory required for data: 2265022204
I1029 00:41:09.687307 30931 layer_factory.hpp:77] Creating layer conv4_3_2x
I1029 00:41:09.687314 30931 net.cpp:100] Creating Layer conv4_3_2x
I1029 00:41:09.687316 30931 net.cpp:434] conv4_3_2x <- conv4_3_relu4_3_0_split_2
I1029 00:41:09.687321 30931 net.cpp:408] conv4_3_2x -> conv4_3_2x
I1029 00:41:09.687660 30931 net.cpp:150] Setting up conv4_3_2x
I1029 00:41:09.687665 30931 net.cpp:157] Top shape: 2 512 144 192 (28311552)
I1029 00:41:09.687667 30931 net.cpp:165] Memory required for data: 2378268412
I1029 00:41:09.687670 30931 layer_factory.hpp:77] Creating layer conv4_3_2x_conv4_3_2x_0_split
I1029 00:41:09.687674 30931 net.cpp:100] Creating Layer conv4_3_2x_conv4_3_2x_0_split
I1029 00:41:09.687676 30931 net.cpp:434] conv4_3_2x_conv4_3_2x_0_split <- conv4_3_2x
I1029 00:41:09.687680 30931 net.cpp:408] conv4_3_2x_conv4_3_2x_0_split -> conv4_3_2x_conv4_3_2x_0_split_0
I1029 00:41:09.687683 30931 net.cpp:408] conv4_3_2x_conv4_3_2x_0_split -> conv4_3_2x_conv4_3_2x_0_split_1
I1029 00:41:09.687716 30931 net.cpp:150] Setting up conv4_3_2x_conv4_3_2x_0_split
I1029 00:41:09.687719 30931 net.cpp:157] Top shape: 2 512 144 192 (28311552)
I1029 00:41:09.687721 30931 net.cpp:157] Top shape: 2 512 144 192 (28311552)
I1029 00:41:09.687723 30931 net.cpp:165] Memory required for data: 2604760828
I1029 00:41:09.687726 30931 layer_factory.hpp:77] Creating layer roi_pool_org
I1029 00:41:09.687731 30931 net.cpp:100] Creating Layer roi_pool_org
I1029 00:41:09.687732 30931 net.cpp:434] roi_pool_org <- conv4_3_2x_conv4_3_2x_0_split_0
I1029 00:41:09.687736 30931 net.cpp:434] roi_pool_org <- rois_proposal_info_0_split_0
I1029 00:41:09.687738 30931 net.cpp:408] roi_pool_org -> roi_pool_org
I1029 00:41:09.687743 30931 roi_pooling_layer.cpp:33] Spatial scale: 0.25
I1029 00:41:09.687777 30931 net.cpp:150] Setting up roi_pool_org
I1029 00:41:09.687783 30931 net.cpp:157] Top shape: 64 512 7 5 (1146880)
I1029 00:41:09.687784 30931 net.cpp:165] Memory required for data: 2609348348
I1029 00:41:09.687786 30931 layer_factory.hpp:77] Creating layer roi_pool_ctx
I1029 00:41:09.687789 30931 net.cpp:100] Creating Layer roi_pool_ctx
I1029 00:41:09.687793 30931 net.cpp:434] roi_pool_ctx <- conv4_3_2x_conv4_3_2x_0_split_1
I1029 00:41:09.687794 30931 net.cpp:434] roi_pool_ctx <- rois_proposal_info_0_split_1
I1029 00:41:09.687798 30931 net.cpp:408] roi_pool_ctx -> roi_pool_ctx
I1029 00:41:09.687803 30931 roi_pooling_layer.cpp:33] Spatial scale: 0.25
I1029 00:41:09.687834 30931 net.cpp:150] Setting up roi_pool_ctx
I1029 00:41:09.687839 30931 net.cpp:157] Top shape: 64 512 7 5 (1146880)
I1029 00:41:09.687840 30931 net.cpp:165] Memory required for data: 2613935868
I1029 00:41:09.687844 30931 layer_factory.hpp:77] Creating layer roi_pool
I1029 00:41:09.687846 30931 net.cpp:100] Creating Layer roi_pool
I1029 00:41:09.687849 30931 net.cpp:434] roi_pool <- roi_pool_org
I1029 00:41:09.687850 30931 net.cpp:434] roi_pool <- roi_pool_ctx
I1029 00:41:09.687853 30931 net.cpp:408] roi_pool -> roi_pool
I1029 00:41:09.687875 30931 net.cpp:150] Setting up roi_pool
I1029 00:41:09.687881 30931 net.cpp:157] Top shape: 64 1024 7 5 (2293760)
I1029 00:41:09.687883 30931 net.cpp:165] Memory required for data: 2623110908
I1029 00:41:09.687885 30931 layer_factory.hpp:77] Creating layer roi_c1
I1029 00:41:09.687891 30931 net.cpp:100] Creating Layer roi_c1
I1029 00:41:09.687893 30931 net.cpp:434] roi_c1 <- roi_pool
I1029 00:41:09.687897 30931 net.cpp:408] roi_c1 -> roi_c1
I1029 00:41:09.727746 30931 net.cpp:150] Setting up roi_c1
I1029 00:41:09.727767 30931 net.cpp:157] Top shape: 64 512 5 3 (491520)
I1029 00:41:09.727769 30931 net.cpp:165] Memory required for data: 2625076988
I1029 00:41:09.727777 30931 layer_factory.hpp:77] Creating layer roi_c1_relu
I1029 00:41:09.727783 30931 net.cpp:100] Creating Layer roi_c1_relu
I1029 00:41:09.727787 30931 net.cpp:434] roi_c1_relu <- roi_c1
I1029 00:41:09.727797 30931 net.cpp:395] roi_c1_relu -> roi_c1 (in-place)
I1029 00:41:09.727957 30931 net.cpp:150] Setting up roi_c1_relu
I1029 00:41:09.727964 30931 net.cpp:157] Top shape: 64 512 5 3 (491520)
I1029 00:41:09.727967 30931 net.cpp:165] Memory required for data: 2627043068
I1029 00:41:09.727968 30931 layer_factory.hpp:77] Creating layer fc6
I1029 00:41:09.727975 30931 net.cpp:100] Creating Layer fc6
I1029 00:41:09.727978 30931 net.cpp:434] fc6 <- roi_c1
I1029 00:41:09.727983 30931 net.cpp:408] fc6 -> fc6
I1029 00:41:09.852524 30931 net.cpp:150] Setting up fc6
I1029 00:41:09.852550 30931 net.cpp:157] Top shape: 64 2048 (131072)
I1029 00:41:09.852552 30931 net.cpp:165] Memory required for data: 2627567356
I1029 00:41:09.852560 30931 layer_factory.hpp:77] Creating layer relu6
I1029 00:41:09.852568 30931 net.cpp:100] Creating Layer relu6
I1029 00:41:09.852572 30931 net.cpp:434] relu6 <- fc6
I1029 00:41:09.852577 30931 net.cpp:395] relu6 -> fc6 (in-place)
I1029 00:41:09.852813 30931 net.cpp:150] Setting up relu6
I1029 00:41:09.852820 30931 net.cpp:157] Top shape: 64 2048 (131072)
I1029 00:41:09.852823 30931 net.cpp:165] Memory required for data: 2628091644
I1029 00:41:09.852825 30931 layer_factory.hpp:77] Creating layer drop6
I1029 00:41:09.852831 30931 net.cpp:100] Creating Layer drop6
I1029 00:41:09.852833 30931 net.cpp:434] drop6 <- fc6
I1029 00:41:09.852836 30931 net.cpp:395] drop6 -> fc6 (in-place)
I1029 00:41:09.852864 30931 net.cpp:150] Setting up drop6
I1029 00:41:09.852870 30931 net.cpp:157] Top shape: 64 2048 (131072)
I1029 00:41:09.852872 30931 net.cpp:165] Memory required for data: 2628615932
I1029 00:41:09.852874 30931 layer_factory.hpp:77] Creating layer fc6_drop6_0_split
I1029 00:41:09.852880 30931 net.cpp:100] Creating Layer fc6_drop6_0_split
I1029 00:41:09.852881 30931 net.cpp:434] fc6_drop6_0_split <- fc6
I1029 00:41:09.852885 30931 net.cpp:408] fc6_drop6_0_split -> fc6_drop6_0_split_0
I1029 00:41:09.852890 30931 net.cpp:408] fc6_drop6_0_split -> fc6_drop6_0_split_1
I1029 00:41:09.852928 30931 net.cpp:150] Setting up fc6_drop6_0_split
I1029 00:41:09.852933 30931 net.cpp:157] Top shape: 64 2048 (131072)
I1029 00:41:09.852936 30931 net.cpp:157] Top shape: 64 2048 (131072)
I1029 00:41:09.852937 30931 net.cpp:165] Memory required for data: 2629664508
I1029 00:41:09.852939 30931 layer_factory.hpp:77] Creating layer cls_pred
I1029 00:41:09.852946 30931 net.cpp:100] Creating Layer cls_pred
I1029 00:41:09.852947 30931 net.cpp:434] cls_pred <- fc6_drop6_0_split_0
I1029 00:41:09.852952 30931 net.cpp:408] cls_pred -> cls_pred
I1029 00:41:09.853107 30931 net.cpp:150] Setting up cls_pred
I1029 00:41:09.853112 30931 net.cpp:157] Top shape: 64 3 (192)
I1029 00:41:09.853114 30931 net.cpp:165] Memory required for data: 2629665276
I1029 00:41:09.853118 30931 layer_factory.hpp:77] Creating layer cls_pred_cls_pred_0_split
I1029 00:41:09.853121 30931 net.cpp:100] Creating Layer cls_pred_cls_pred_0_split
I1029 00:41:09.853124 30931 net.cpp:434] cls_pred_cls_pred_0_split <- cls_pred
I1029 00:41:09.853128 30931 net.cpp:408] cls_pred_cls_pred_0_split -> cls_pred_cls_pred_0_split_0
I1029 00:41:09.853132 30931 net.cpp:408] cls_pred_cls_pred_0_split -> cls_pred_cls_pred_0_split_1
I1029 00:41:09.853181 30931 net.cpp:150] Setting up cls_pred_cls_pred_0_split
I1029 00:41:09.853186 30931 net.cpp:157] Top shape: 64 3 (192)
I1029 00:41:09.853190 30931 net.cpp:157] Top shape: 64 3 (192)
I1029 00:41:09.853191 30931 net.cpp:165] Memory required for data: 2629666812
I1029 00:41:09.853193 30931 layer_factory.hpp:77] Creating layer bbox_pred
I1029 00:41:09.853197 30931 net.cpp:100] Creating Layer bbox_pred
I1029 00:41:09.853200 30931 net.cpp:434] bbox_pred <- fc6_drop6_0_split_1
I1029 00:41:09.853204 30931 net.cpp:408] bbox_pred -> bbox_pred
I1029 00:41:09.853484 30931 net.cpp:150] Setting up bbox_pred
I1029 00:41:09.853490 30931 net.cpp:157] Top shape: 64 12 (768)
I1029 00:41:09.853492 30931 net.cpp:165] Memory required for data: 2629669884
I1029 00:41:09.853495 30931 layer_factory.hpp:77] Creating layer bbox_pred_bbox_pred_0_split
I1029 00:41:09.853499 30931 net.cpp:100] Creating Layer bbox_pred_bbox_pred_0_split
I1029 00:41:09.853502 30931 net.cpp:434] bbox_pred_bbox_pred_0_split <- bbox_pred
I1029 00:41:09.853505 30931 net.cpp:408] bbox_pred_bbox_pred_0_split -> bbox_pred_bbox_pred_0_split_0
I1029 00:41:09.853509 30931 net.cpp:408] bbox_pred_bbox_pred_0_split -> bbox_pred_bbox_pred_0_split_1
I1029 00:41:09.853543 30931 net.cpp:150] Setting up bbox_pred_bbox_pred_0_split
I1029 00:41:09.853546 30931 net.cpp:157] Top shape: 64 12 (768)
I1029 00:41:09.853549 30931 net.cpp:157] Top shape: 64 12 (768)
I1029 00:41:09.853549 30931 net.cpp:165] Memory required for data: 2629676028
I1029 00:41:09.853552 30931 layer_factory.hpp:77] Creating layer loss_cls
I1029 00:41:09.853557 30931 net.cpp:100] Creating Layer loss_cls
I1029 00:41:09.853560 30931 net.cpp:434] loss_cls <- cls_pred_cls_pred_0_split_0
I1029 00:41:09.853564 30931 net.cpp:434] loss_cls <- proposal_labels_proposal_info_1_split_0
…
