…
    downsample_rate: 16
    downsample_rate: 32
    downsample_rate: 32
    downsample_rate: 64
    coord_num: 4
    field_h: 60
    field_h: 84
    field_h: 120
    field_h: 168
    field_h: 240
    field_h: 336
    field_h: 480
    field_w: 40
    field_w: 56
    field_w: 80
    field_w: 112
    field_w: 160
    field_w: 224
    field_w: 360
    fg_threshold: 0.5
    resize_width: 1920
    resize_height: 576
    crop_width: 768
    crop_height: 576
    do_multiple_scale: true
    min_scale: 60
    max_scale: 480
    min_gt_height: 30
    shuffle: true
  }
}
layer {
  name: "conv1_1"
  type: "Convolution"
  bottom: "data"
  top: "conv1_1"
  convolution_param {
    num_output: 64
    pad: 1
    kernel_size: 3
  }
}
layer {
  name: "relu1_1"
  type: "ReLU"
  bottom: "conv1_1"
  top: "conv1_1"
}
layer {
  name: "conv1_2"
  type: "Convolution"
  bottom: "conv1_1"
  top: "conv1_2"
  convolution_param {
    num_output: 64
    pad: 1
    kernel_size: 3
  }
}
layer {
  name: "relu1_2"
  type: "ReLU"
  bottom: "conv1_2"
  top: "conv1_2"
}
layer {
  name: "pool1"
  type: "Pooling"
  bottom: "conv1_2"
  top: "pool1"
  pooling_param {
    pool: MAX
    kernel_size: 2
    stride: 2
  }
}
layer {
  name: "conv2_1"
  type: "Convolution"
  bottom: "pool1"
  top: "conv2_1"
  convolution_param {
    num_output: 128
    pad: 1
    kernel_size: 3
  }
}
layer {
  name: "relu2_1"
  type: "ReLU"
  bottom: "conv2_1"
  top: "conv2_1"
}
layer {
  name: "conv2_2"
  type: "Convolution"
  bottom: "conv2_1"
  top: "conv2_2"
  convolution_param {
    num_output: 128
    pad: 1
    kernel_size: 3
  }
}
layer {
  name: "relu2_2"
  type: "ReLU"
  bottom: "conv2_2"
  top: "conv2_2"
}
layer {
  name: "pool2"
  type: "Pooling"
  bottom: "conv2_2"
  top: "pool2"
  pooling_param {
    pool: MAX
    kernel_size: 2
    stride: 2
  }
}
layer {
  name: "conv3_1"
  type: "Convolution"
  bottom: "pool2"
  top: "conv3_1"
  convolution_param {
    num_output: 256
    pad: 1
    kernel_size: 3
  }
}
layer {
  name: "relu3_1"
  type: "ReLU"
  bottom: "conv3_1"
  top: "conv3_1"
}
layer {
  name: "conv3_2"
  type: "Convolution"
  bottom: "conv3_1"
  top: "conv3_2"
  convolution_param {
    num_output: 256
    pad: 1
    kernel_size: 3
  }
}
layer {
  name: "relu3_2"
  type: "ReLU"
  bottom: "conv3_2"
  top: "conv3_2"
}
layer {
  name: "conv3_3"
  type: "Convolution"
  bottom: "conv3_2"
  top: "conv3_3"
  convolution_param {
    num_output: 256
    pad: 1
    kernel_size: 3
  }
}
layer {
  name: "relu3_3"
  type: "ReLU"
  bottom: "conv3_3"
  top: "conv3_3"
}
layer {
  name: "pool3"
  type: "Pooling"
  bottom: "conv3_3"
  top: "pool3"
  pooling_param {
    pool: MAX
    kernel_size: 2
    stride: 2
  }
}
layer {
  name: "conv4_1"
  type: "Convolution"
  bottom: "pool3"
  top: "conv4_1"
  convolution_param {
    num_output: 512
    pad: 1
    kernel_size: 3
  }
}
layer {
  name: "relu4_1"
  type: "ReLU"
  bottom: "conv4_1"
  top: "conv4_1"
}
layer {
  name: "conv4_2"
  type: "Convolution"
  bottom: "conv4_1"
  top: "conv4_2"
  convolution_param {
    num_output: 512
    pad: 1
    kernel_size: 3
  }
}
layer {
  name: "relu4_2"
  type: "ReLU"
  bottom: "conv4_2"
  top: "conv4_2"
}
layer {
  name: "conv4_3"
  type: "Convolution"
  bottom: "conv4_2"
  top: "conv4_3"
  convolution_param {
    num_output: 512
    pad: 1
    kernel_size: 3
  }
}
layer {
  name: "relu4_3"
  type: "ReLU"
  bottom: "conv4_3"
  top: "conv4_3"
}
layer {
  name: "loss1_conv1"
  type: "Convolution"
  bottom: "conv4_3"
  top: "loss1_conv1"
  param {
    lr_mult: 1
    decay_mult: 1
  }
  param {
    lr_mult: 2
    decay_mult: 0
  }
  convolution_param {
    num_output: 512
    pad: 1
    kernel_size: 3
    weight_filler {
      type: "gaussian"
      std: 0.01
    }
    bias_filler {
      type: "constant"
    }
  }
}
layer {
  name: "loss_relu1"
  type: "ReLU"
  bottom: "loss1_conv1"
  top: "loss1_conv1"
}
layer {
  name: "LFCN_1_3x5"
  type: "Convolution"
  bottom: "loss1_conv1"
  top: "LFCN_1_3x5"
  param {
    lr_mult: 1
    decay_mult: 1
  }
  param {
    lr_mult: 2
    decay_mult: 0
  }
  convolution_param {
    num_output: 7
    weight_filler {
      type: "gaussian"
      std: 0.001
    }
    bias_filler {
      type: "constant"
    }
    pad_h: 2
    pad_w: 1
    kernel_h: 5
    kernel_w: 3
  }
}
layer {
  name: "detection_loss_1_3x5"
  type: "DetectionLoss"
  bottom: "LFCN_1_3x5"
  bottom: "label_1_3x5"
  top: "loss_1_3x5"
  loss_weight: 0.9
  detection_loss_param {
    cls_num: 3
    coord_num: 4
    lambda: 0.5
    field_h: 60
    field_w: 40
    downsample_rate: 8
    bb_smooth: true
    field_whr: 2
    field_xyr: 2
    bg_threshold: 0.2
    bg_multiple: 2
    sample_mode: "random"
    pos_neg_weighted: true
  }
}
layer {
  name: "detection_accuracy_1_3x5"
  type: "DetectionAccuracy"
  bottom: "LFCN_1_3x5"
  bottom: "label_1_3x5"
  top: "accuracy_1_3x5"
  top: "boxiou_1_3x5"
  detection_accuracy_param {
    cls_num: 3
    coord_num: 4
    field_h: 60
    field_w: 40
    downsample_rate: 8
    field_whr: 2
    field_xyr: 2
  }
}
layer {
  name: "LFCN_1_5x7"
  type: "Convolution"
  bottom: "loss1_conv1"
  top: "LFCN_1_5x7"
  param {
    lr_mult: 1
    decay_mult: 1
  }
  param {
    lr_mult: 2
    decay_mult: 0
  }
  convolution_param {
    num_output: 7
    weight_filler {
      type: "gaussian"
      std: 0.001
    }
    bias_filler {
      type: "constant"
    }
    pad_h: 3
    pad_w: 2
    kernel_h: 7
    kernel_w: 5
  }
}
layer {
  name: "detection_loss_1_5x7"
  type: "DetectionLoss"
  bottom: "LFCN_1_5x7"
  bottom: "label_1_5x7"
  top: "loss_1_5x7"
  loss_weight: 0.9
  detection_loss_param {
    cls_num: 3
    coord_num: 4
    lambda: 0.5
    field_h: 84
    field_w: 56
    downsample_rate: 8
    bb_smooth: true
    field_whr: 2
    field_xyr: 2
    bg_threshold: 0.2
    bg_multiple: 2
    sample_mode: "random"
    pos_neg_weighted: true
  }
}
layer {
  name: "detection_accuracy_1_5x7"
  type: "DetectionAccuracy"
  bottom: "LFCN_1_5x7"
  bottom: "label_1_5x7"
  top: "accuracy_1_5x7"
  top: "boxiou_1_5x7"
  detection_accuracy_param {
    cls_num: 3
    coord_num: 4
    field_h: 84
    field_w: 56
    downsample_rate: 8
    field_whr: 2
    field_xyr: 2
  }
}
layer {
  name: "pool4"
  type: "Pooling"
  bottom: "conv4_3"
  top: "pool4"
  pooling_param {
    pool: MAX
    kernel_size: 2
    stride: 2
  }
}
layer {
  name: "conv5_1"
  type: "Convolution"
  bottom: "pool4"
  top: "conv5_1"
  convolution_param {
    num_output: 512
    pad: 1
    kernel_size: 3
  }
}
layer {
  name: "relu5_1"
  type: "ReLU"
  bottom: "conv5_1"
  top: "conv5_1"
}
layer {
  name: "conv5_2"
  type: "Convolution"
  bottom: "conv5_1"
  top: "conv5_2"
  convolution_param {
    num_output: 512
    pad: 1
    kernel_size: 3
  }
}
layer {
  name: "relu5_2"
  type: "ReLU"
  bottom: "conv5_2"
  top: "conv5_2"
}
layer {
  name: "conv5_3"
  type: "Convolution"
  bottom: "conv5_2"
  top: "conv5_3"
  convolution_param {
    num_output: 512
    pad: 1
    kernel_size: 3
  }
}
layer {
  name: "relu5_3"
  type: "ReLU"
  bottom: "conv5_3"
  top: "conv5_3"
}
layer {
  name: "LFCN_2_3x5"
  type: "Convolution"
  bottom: "conv5_3"
  top: "LFCN_2_3x5"
  param {
    lr_mult: 1
    decay_mult: 1
  }
  param {
    lr_mult: 2
    decay_mult: 0
  }
  convolution_param {
    num_output: 7
    weight_filler {
      type: "gaussian"
      std: 0.001
    }
    bias_filler {
      type: "constant"
    }
    pad_h: 2
    pad_w: 1
    kernel_h: 5
    kernel_w: 3
  }
}
layer {
  name: "detection_loss_2_3x5"
  type: "DetectionLoss"
  bottom: "LFCN_2_3x5"
  bottom: "label_2_3x5"
  top: "loss_2_3x5"
  detection_loss_param {
    cls_num: 3
    coord_num: 4
    lambda: 0.5
    field_h: 120
    field_w: 80
    downsample_rate: 16
    bb_smooth: true
    field_whr: 2
    field_xyr: 2
    bg_threshold: 0.2
    bg_multiple: 2
    sample_mode: "random"
    pos_neg_weighted: true
  }
}
layer {
  name: "detection_accuracy_2_3x5"
  type: "DetectionAccuracy"
  bottom: "LFCN_2_3x5"
  bottom: "label_2_3x5"
  top: "accuracy_2_3x5"
  top: "boxiou_2_3x5"
  detection_accuracy_param {
    cls_num: 3
    coord_num: 4
    field_h: 120
    field_w: 80
    downsample_rate: 16
    field_whr: 2
    field_xyr: 2
  }
}
layer {
  name: "LFCN_2_5x7"
  type: "Convolution"
  bottom: "conv5_3"
  top: "LFCN_2_5x7"
  param {
    lr_mult: 1
    decay_mult: 1
  }
  param {
    lr_mult: 2
    decay_mult: 0
  }
  convolution_param {
    num_output: 7
    weight_filler {
      type: "gaussian"
      std: 0.001
    }
    bias_filler {
      type: "constant"
    }
    pad_h: 3
    pad_w: 2
    kernel_h: 7
    kernel_w: 5
  }
}
layer {
  name: "detection_loss_2_5x7"
  type: "DetectionLoss"
  bottom: "LFCN_2_5x7"
  bottom: "label_2_5x7"
  top: "loss_2_5x7"
  detection_loss_param {
    cls_num: 3
    coord_num: 4
    lambda: 0.5
    field_h: 168
    field_w: 112
    downsample_rate: 16
    bb_smooth: true
    field_whr: 2
    field_xyr: 2
    bg_threshold: 0.2
    bg_multiple: 2
    sample_mode: "random"
    pos_neg_weighted: true
  }
}
layer {
  name: "detection_accuracy_2_5x7"
  type: "DetectionAccuracy"
  bottom: "LFCN_2_5x7"
  bottom: "label_2_5x7"
  top: "accuracy_2_5x7"
  top: "boxiou_2_5x7"
  detection_accuracy_param {
    cls_num: 3
    coord_num: 4
    field_h: 168
    field_w: 112
    downsample_rate: 16
    field_whr: 2
    field_xyr: 2
  }
}
layer {
  name: "pool5"
  type: "Pooling"
  bottom: "conv5_3"
  top: "pool5"
  pooling_param {
    pool: MAX
    kernel_size: 2
    stride: 2
  }
}
layer {
  name: "conv6_1"
  type: "Convolution"
  bottom: "pool5"
  top: "conv6_1"
  param {
    lr_mult: 1
    decay_mult: 1
  }
  param {
    lr_mult: 2
    decay_mult: 0
  }
  convolution_param {
    num_output: 512
    pad: 1
    kernel_size: 3
    weight_filler {
      type: "gaussian"
      std: 0.01
    }
    bias_filler {
      type: "constant"
    }
  }
}
layer {
  name: "relu6_1"
  type: "ReLU"
  bottom: "conv6_1"
  top: "conv6_1"
}
layer {
  name: "LFCN_3_3x5"
  type: "Convolution"
  bottom: "conv6_1"
  top: "LFCN_3_3x5"
  param {
    lr_mult: 1
    decay_mult: 1
  }
  param {
    lr_mult: 2
    decay_mult: 0
  }
  convolution_param {
    num_output: 7
    weight_filler {
      type: "gaussian"
      std: 0.001
    }
    bias_filler {
      type: "constant"
    }
    pad_h: 2
    pad_w: 1
    kernel_h: 5
    kernel_w: 3
  }
}
layer {
  name: "detection_loss_3_3x5"
  type: "DetectionLoss"
  bottom: "LFCN_3_3x5"
  bottom: "label_3_3x5"
  top: "loss_3_3x5"
  detection_loss_param {
    cls_num: 3
    coord_num: 4
    lambda: 0.5
    field_h: 240
    field_w: 160
    downsample_rate: 32
    bb_smooth: true
    field_whr: 2
    field_xyr: 2
    bg_threshold: 0.2
    bg_multiple: 2
    sample_mode: "random"
    pos_neg_weighted: true
  }
}
layer {
  name: "detection_accuracy_3_3x5"
  type: "DetectionAccuracy"
  bottom: "LFCN_3_3x5"
  bottom: "label_3_3x5"
  top: "accuracy_3_3x5"
  top: "boxiou_3_3x5"
  detection_accuracy_param {
    cls_num: 3
    coord_num: 4
    field_h: 240
    field_w: 160
    downsample_rate: 32
    field_whr: 2
    field_xyr: 2
  }
}
layer {
  name: "LFCN_3_5x7"
  type: "Convolution"
  bottom: "conv6_1"
  top: "LFCN_3_5x7"
  param {
    lr_mult: 1
    decay_mult: 1
  }
  param {
    lr_mult: 2
    decay_mult: 0
  }
  convolution_param {
    num_output: 7
    weight_filler {
      type: "gaussian"
      std: 0.001
    }
    bias_filler {
      type: "constant"
    }
    pad_h: 3
    pad_w: 2
    kernel_h: 7
    kernel_w: 5
  }
}
layer {
  name: "detection_loss_3_5x7"
  type: "DetectionLoss"
  bottom: "LFCN_3_5x7"
  bottom: "label_3_5x7"
  top: "loss_3_5x7"
  detection_loss_param {
    cls_num: 3
    coord_num: 4
    lambda: 0.5
    field_h: 336
    field_w: 224
    downsample_rate: 32
    bb_smooth: true
    field_whr: 2
    field_xyr: 2
    bg_threshold: 0.2
    bg_multiple: 2
    sample_mode: "random"
    pos_neg_weighted: true
  }
}
layer {
  name: "detection_accuracy_3_5x7"
  type: "DetectionAccuracy"
  bottom: "LFCN_3_5x7"
  bottom: "label_3_5x7"
  top: "accuracy_3_5x7"
  top: "boxiou_3_5x7"
  detection_accuracy_param {
    cls_num: 3
    coord_num: 4
    field_h: 336
    field_w: 224
    downsample_rate: 32
    field_whr: 2
    field_xyr: 2
  }
}
layer {
  name: "pool6"
  type: "Pooling"
  bottom: "conv6_1"
  top: "pool6"
  pooling_param {
    pool: MAX
    kernel_size: 2
    stride: 2
  }
}
layer {
  name: "LFCN_4_3x5"
  type: "Convolution"
  bottom: "pool6"
  top: "LFCN_4_3x5"
  param {
    lr_mult: 1
    decay_mult: 1
  }
  param {
    lr_mult: 2
    decay_mult: 0
  }
  convolution_param {
    num_output: 7
    weight_filler {
      type: "gaussian"
      std: 0.001
    }
    bias_filler {
      type: "constant"
    }
    pad_h: 2
    pad_w: 1
    kernel_h: 5
    kernel_w: 3
  }
}
layer {
  name: "detection_loss_4_3x5"
  type: "DetectionLoss"
  bottom: "LFCN_4_3x5"
  bottom: "label_4_3x5"
  top: "loss_4_3x5"
  detection_loss_param {
    cls_num: 3
    coord_num: 4
    lambda: 0.5
    field_h: 480
    field_w: 360
    downsample_rate: 64
    bb_smooth: true
    field_whr: 2
    field_xyr: 2
    bg_threshold: 0.2
    bg_multiple: 2
    sample_mode: "random"
    pos_neg_weighted: true
  }
}
layer {
  name: "detection_accuracy_4_3x5"
  type: "DetectionAccuracy"
  bottom: "LFCN_4_3x5"
  bottom: "label_4_3x5"
  top: "accuracy_4_3x5"
  top: "boxiou_4_3x5"
  detection_accuracy_param {
    cls_num: 3
    coord_num: 4
    field_h: 480
    field_w: 360
    downsample_rate: 64
    field_whr: 2
    field_xyr: 2
  }
}
I1028 22:34:03.609869 29035 layer_factory.hpp:77] Creating layer data
I1028 22:34:03.609900 29035 net.cpp:100] Creating Layer data
I1028 22:34:03.609906 29035 net.cpp:408] data -> data
…
I1028 22:34:03.633252 29035 image_gt_data_layer.cpp:235] output label size 1 : 4,6,72,96
I1028 22:34:03.633283 29035 image_gt_data_layer.cpp:235] output label size 2 : 4,6,36,48
I1028 22:34:03.633313 29035 image_gt_data_layer.cpp:235] output label size 3 : 4,6,36,48
I1028 22:34:03.633343 29035 image_gt_data_layer.cpp:235] output label size 4 : 4,6,18,24
I1028 22:34:03.633373 29035 image_gt_data_layer.cpp:235] output label size 5 : 4,6,18,24
I1028 22:34:03.633402 29035 image_gt_data_layer.cpp:235] output label size 6 : 4,6,9,12
I1028 22:34:03.667910 29035 net.cpp:150] Setting up data
I1028 22:34:03.667938 29035 net.cpp:157] Top shape: 4 3 576 768 (5308416)
I1028 22:34:03.667944 29035 net.cpp:157] Top shape: 4 6 72 96 (165888)
I1028 22:34:03.667948 29035 net.cpp:157] Top shape: 4 6 72 96 (165888)
I1028 22:34:03.667953 29035 net.cpp:157] Top shape: 4 6 36 48 (41472)
I1028 22:34:03.667956 29035 net.cpp:157] Top shape: 4 6 36 48 (41472)
I1028 22:34:03.667960 29035 net.cpp:157] Top shape: 4 6 18 24 (10368)
I1028 22:34:03.667964 29035 net.cpp:157] Top shape: 4 6 18 24 (10368)
I1028 22:34:03.667968 29035 net.cpp:157] Top shape: 4 6 9 12 (2592)
I1028 22:34:03.667971 29035 net.cpp:165] Memory required for data: 22985856
I1028 22:34:03.667979 29035 layer_factory.hpp:77] Creating layer label_1_3x5_data_1_split
I1028 22:34:03.668005 29035 net.cpp:100] Creating Layer label_1_3x5_data_1_split
I1028 22:34:03.668017 29035 net.cpp:434] label_1_3x5_data_1_split <- label_1_3x5
I1028 22:34:03.668032 29035 net.cpp:408] label_1_3x5_data_1_split -> label_1_3x5_data_1_split_0
I1028 22:34:03.668045 29035 net.cpp:408] label_1_3x5_data_1_split -> label_1_3x5_data_1_split_1
I1028 22:34:03.668252 29035 net.cpp:150] Setting up label_1_3x5_data_1_split
I1028 22:34:03.668300 29035 net.cpp:157] Top shape: 4 6 72 96 (165888)
I1028 22:34:03.668315 29035 net.cpp:157] Top shape: 4 6 72 96 (165888)
I1028 22:34:03.668324 29035 net.cpp:165] Memory required for data: 24312960
I1028 22:34:03.668336 29035 layer_factory.hpp:77] Creating layer label_1_5x7_data_2_split
I1028 22:34:03.668357 29035 net.cpp:100] Creating Layer label_1_5x7_data_2_split
I1028 22:34:03.668370 29035 net.cpp:434] label_1_5x7_data_2_split <- label_1_5x7
I1028 22:34:03.668385 29035 net.cpp:408] label_1_5x7_data_2_split -> label_1_5x7_data_2_split_0
I1028 22:34:03.668406 29035 net.cpp:408] label_1_5x7_data_2_split -> label_1_5x7_data_2_split_1
I1028 22:34:03.668488 29035 net.cpp:150] Setting up label_1_5x7_data_2_split
I1028 22:34:03.668503 29035 net.cpp:157] Top shape: 4 6 72 96 (165888)
I1028 22:34:03.668515 29035 net.cpp:157] Top shape: 4 6 72 96 (165888)
I1028 22:34:03.668524 29035 net.cpp:165] Memory required for data: 25640064
I1028 22:34:03.668534 29035 layer_factory.hpp:77] Creating layer label_2_3x5_data_3_split
I1028 22:34:03.668547 29035 net.cpp:100] Creating Layer label_2_3x5_data_3_split
I1028 22:34:03.668556 29035 net.cpp:434] label_2_3x5_data_3_split <- label_2_3x5
I1028 22:34:03.668571 29035 net.cpp:408] label_2_3x5_data_3_split -> label_2_3x5_data_3_split_0
I1028 22:34:03.668589 29035 net.cpp:408] label_2_3x5_data_3_split -> label_2_3x5_data_3_split_1
I1028 22:34:03.668660 29035 net.cpp:150] Setting up label_2_3x5_data_3_split
I1028 22:34:03.668674 29035 net.cpp:157] Top shape: 4 6 36 48 (41472)
I1028 22:34:03.668686 29035 net.cpp:157] Top shape: 4 6 36 48 (41472)
I1028 22:34:03.668695 29035 net.cpp:165] Memory required for data: 25971840
I1028 22:34:03.668705 29035 layer_factory.hpp:77] Creating layer label_2_5x7_data_4_split
I1028 22:34:03.668720 29035 net.cpp:100] Creating Layer label_2_5x7_data_4_split
I1028 22:34:03.668730 29035 net.cpp:434] label_2_5x7_data_4_split <- label_2_5x7
I1028 22:34:03.668745 29035 net.cpp:408] label_2_5x7_data_4_split -> label_2_5x7_data_4_split_0
I1028 22:34:03.668761 29035 net.cpp:408] label_2_5x7_data_4_split -> label_2_5x7_data_4_split_1
I1028 22:34:03.668865 29035 net.cpp:150] Setting up label_2_5x7_data_4_split
I1028 22:34:03.668882 29035 net.cpp:157] Top shape: 4 6 36 48 (41472)
I1028 22:34:03.668896 29035 net.cpp:157] Top shape: 4 6 36 48 (41472)
I1028 22:34:03.668905 29035 net.cpp:165] Memory required for data: 26303616
I1028 22:34:03.668915 29035 layer_factory.hpp:77] Creating layer label_3_3x5_data_5_split
I1028 22:34:03.668928 29035 net.cpp:100] Creating Layer label_3_3x5_data_5_split
I1028 22:34:03.668939 29035 net.cpp:434] label_3_3x5_data_5_split <- label_3_3x5
I1028 22:34:03.668953 29035 net.cpp:408] label_3_3x5_data_5_split -> label_3_3x5_data_5_split_0
I1028 22:34:03.668977 29035 net.cpp:408] label_3_3x5_data_5_split -> label_3_3x5_data_5_split_1
I1028 22:34:03.669047 29035 net.cpp:150] Setting up label_3_3x5_data_5_split
I1028 22:34:03.669064 29035 net.cpp:157] Top shape: 4 6 18 24 (10368)
I1028 22:34:03.669076 29035 net.cpp:157] Top shape: 4 6 18 24 (10368)
I1028 22:34:03.669085 29035 net.cpp:165] Memory required for data: 26386560
I1028 22:34:03.669095 29035 layer_factory.hpp:77] Creating layer label_3_5x7_data_6_split
I1028 22:34:03.669107 29035 net.cpp:100] Creating Layer label_3_5x7_data_6_split
I1028 22:34:03.669117 29035 net.cpp:434] label_3_5x7_data_6_split <- label_3_5x7
I1028 22:34:03.669132 29035 net.cpp:408] label_3_5x7_data_6_split -> label_3_5x7_data_6_split_0
I1028 22:34:03.669148 29035 net.cpp:408] label_3_5x7_data_6_split -> label_3_5x7_data_6_split_1
I1028 22:34:03.669216 29035 net.cpp:150] Setting up label_3_5x7_data_6_split
I1028 22:34:03.669230 29035 net.cpp:157] Top shape: 4 6 18 24 (10368)
I1028 22:34:03.669242 29035 net.cpp:157] Top shape: 4 6 18 24 (10368)
I1028 22:34:03.669250 29035 net.cpp:165] Memory required for data: 26469504
I1028 22:34:03.669261 29035 layer_factory.hpp:77] Creating layer label_4_3x5_data_7_split
I1028 22:34:03.669275 29035 net.cpp:100] Creating Layer label_4_3x5_data_7_split
I1028 22:34:03.669283 29035 net.cpp:434] label_4_3x5_data_7_split <- label_4_3x5
I1028 22:34:03.669297 29035 net.cpp:408] label_4_3x5_data_7_split -> label_4_3x5_data_7_split_0
I1028 22:34:03.669327 29035 net.cpp:408] label_4_3x5_data_7_split -> label_4_3x5_data_7_split_1
I1028 22:34:03.669399 29035 net.cpp:150] Setting up label_4_3x5_data_7_split
I1028 22:34:03.669414 29035 net.cpp:157] Top shape: 4 6 9 12 (2592)
I1028 22:34:03.669427 29035 net.cpp:157] Top shape: 4 6 9 12 (2592)
I1028 22:34:03.669438 29035 net.cpp:165] Memory required for data: 26490240
I1028 22:34:03.669447 29035 layer_factory.hpp:77] Creating layer conv1_1
I1028 22:34:03.669478 29035 net.cpp:100] Creating Layer conv1_1
I1028 22:34:03.669490 29035 net.cpp:434] conv1_1 <- data
I1028 22:34:03.669507 29035 net.cpp:408] conv1_1 -> conv1_1
I1028 22:34:04.127779 29035 net.cpp:150] Setting up conv1_1
I1028 22:34:04.127812 29035 net.cpp:157] Top shape: 4 64 576 768 (113246208)
I1028 22:34:04.127816 29035 net.cpp:165] Memory required for data: 479475072
I1028 22:34:04.127841 29035 layer_factory.hpp:77] Creating layer relu1_1
I1028 22:34:04.127853 29035 net.cpp:100] Creating Layer relu1_1
I1028 22:34:04.127859 29035 net.cpp:434] relu1_1 <- conv1_1
I1028 22:34:04.127868 29035 net.cpp:395] relu1_1 -> conv1_1 (in-place)
I1028 22:34:04.128103 29035 net.cpp:150] Setting up relu1_1
I1028 22:34:04.128114 29035 net.cpp:157] Top shape: 4 64 576 768 (113246208)
I1028 22:34:04.128118 29035 net.cpp:165] Memory required for data: 932459904
I1028 22:34:04.128120 29035 layer_factory.hpp:77] Creating layer conv1_2
I1028 22:34:04.128131 29035 net.cpp:100] Creating Layer conv1_2
I1028 22:34:04.128136 29035 net.cpp:434] conv1_2 <- conv1_1
I1028 22:34:04.128145 29035 net.cpp:408] conv1_2 -> conv1_2
I1028 22:34:04.131361 29035 net.cpp:150] Setting up conv1_2
I1028 22:34:04.131382 29035 net.cpp:157] Top shape: 4 64 576 768 (113246208)
I1028 22:34:04.131386 29035 net.cpp:165] Memory required for data: 1385444736
I1028 22:34:04.131398 29035 layer_factory.hpp:77] Creating layer relu1_2
I1028 22:34:04.131407 29035 net.cpp:100] Creating Layer relu1_2
I1028 22:34:04.131410 29035 net.cpp:434] relu1_2 <- conv1_2
I1028 22:34:04.131415 29035 net.cpp:395] relu1_2 -> conv1_2 (in-place)
I1028 22:34:04.131629 29035 net.cpp:150] Setting up relu1_2
I1028 22:34:04.131639 29035 net.cpp:157] Top shape: 4 64 576 768 (113246208)
I1028 22:34:04.131644 29035 net.cpp:165] Memory required for data: 1838429568
I1028 22:34:04.131647 29035 layer_factory.hpp:77] Creating layer pool1
I1028 22:34:04.131657 29035 net.cpp:100] Creating Layer pool1
I1028 22:34:04.131664 29035 net.cpp:434] pool1 <- conv1_2
I1028 22:34:04.131672 29035 net.cpp:408] pool1 -> pool1
I1028 22:34:04.131736 29035 net.cpp:150] Setting up pool1
I1028 22:34:04.131742 29035 net.cpp:157] Top shape: 4 64 288 384 (28311552)
I1028 22:34:04.131745 29035 net.cpp:165] Memory required for data: 1951675776
I1028 22:34:04.131749 29035 layer_factory.hpp:77] Creating layer conv2_1
I1028 22:34:04.131762 29035 net.cpp:100] Creating Layer conv2_1
I1028 22:34:04.131767 29035 net.cpp:434] conv2_1 <- pool1
I1028 22:34:04.131774 29035 net.cpp:408] conv2_1 -> conv2_1
I1028 22:34:04.134639 29035 net.cpp:150] Setting up conv2_1
I1028 22:34:04.134657 29035 net.cpp:157] Top shape: 4 128 288 384 (56623104)
I1028 22:34:04.134663 29035 net.cpp:165] Memory required for data: 2178168192
I1028 22:34:04.134678 29035 layer_factory.hpp:77] Creating layer relu2_1
I1028 22:34:04.134690 29035 net.cpp:100] Creating Layer relu2_1
I1028 22:34:04.134696 29035 net.cpp:434] relu2_1 <- conv2_1
I1028 22:34:04.134704 29035 net.cpp:395] relu2_1 -> conv2_1 (in-place)
I1028 22:34:04.134915 29035 net.cpp:150] Setting up relu2_1
I1028 22:34:04.134925 29035 net.cpp:157] Top shape: 4 128 288 384 (56623104)
I1028 22:34:04.134932 29035 net.cpp:165] Memory required for data: 2404660608
I1028 22:34:04.134938 29035 layer_factory.hpp:77] Creating layer conv2_2
I1028 22:34:04.134950 29035 net.cpp:100] Creating Layer conv2_2
I1028 22:34:04.134958 29035 net.cpp:434] conv2_2 <- conv2_1
I1028 22:34:04.134964 29035 net.cpp:408] conv2_2 -> conv2_2
I1028 22:34:04.136721 29035 net.cpp:150] Setting up conv2_2
I1028 22:34:04.136739 29035 net.cpp:157] Top shape: 4 128 288 384 (56623104)
I1028 22:34:04.136746 29035 net.cpp:165] Memory required for data: 2631153024
I1028 22:34:04.136759 29035 layer_factory.hpp:77] Creating layer relu2_2
I1028 22:34:04.136781 29035 net.cpp:100] Creating Layer relu2_2
I1028 22:34:04.136788 29035 net.cpp:434] relu2_2 <- conv2_2
I1028 22:34:04.136796 29035 net.cpp:395] relu2_2 -> conv2_2 (in-place)
I1028 22:34:04.137008 29035 net.cpp:150] Setting up relu2_2
I1028 22:34:04.137019 29035 net.cpp:157] Top shape: 4 128 288 384 (56623104)
I1028 22:34:04.137025 29035 net.cpp:165] Memory required for data: 2857645440
I1028 22:34:04.137032 29035 layer_factory.hpp:77] Creating layer pool2
I1028 22:34:04.137040 29035 net.cpp:100] Creating Layer pool2
I1028 22:34:04.137045 29035 net.cpp:434] pool2 <- conv2_2
I1028 22:34:04.137050 29035 net.cpp:408] pool2 -> pool2
I1028 22:34:04.137100 29035 net.cpp:150] Setting up pool2
I1028 22:34:04.137107 29035 net.cpp:157] Top shape: 4 128 144 192 (14155776)
I1028 22:34:04.137110 29035 net.cpp:165] Memory required for data: 2914268544
I1028 22:34:04.137114 29035 layer_factory.hpp:77] Creating layer conv3_1
I1028 22:34:04.137120 29035 net.cpp:100] Creating Layer conv3_1
I1028 22:34:04.137125 29035 net.cpp:434] conv3_1 <- pool2
I1028 22:34:04.137130 29035 net.cpp:408] conv3_1 -> conv3_1
I1028 22:34:04.140089 29035 net.cpp:150] Setting up conv3_1
I1028 22:34:04.140107 29035 net.cpp:157] Top shape: 4 256 144 192 (28311552)
I1028 22:34:04.140111 29035 net.cpp:165] Memory required for data: 3027514752
I1028 22:34:04.140122 29035 layer_factory.hpp:77] Creating layer relu3_1
I1028 22:34:04.140131 29035 net.cpp:100] Creating Layer relu3_1
I1028 22:34:04.140136 29035 net.cpp:434] relu3_1 <- conv3_1
I1028 22:34:04.140142 29035 net.cpp:395] relu3_1 -> conv3_1 (in-place)
I1028 22:34:04.140748 29035 net.cpp:150] Setting up relu3_1
I1028 22:34:04.140764 29035 net.cpp:157] Top shape: 4 256 144 192 (28311552)
I1028 22:34:04.140772 29035 net.cpp:165] Memory required for data: 3140760960
I1028 22:34:04.140789 29035 layer_factory.hpp:77] Creating layer conv3_2
I1028 22:34:04.140805 29035 net.cpp:100] Creating Layer conv3_2
I1028 22:34:04.140811 29035 net.cpp:434] conv3_2 <- conv3_1
I1028 22:34:04.140821 29035 net.cpp:408] conv3_2 -> conv3_2
I1028 22:34:04.143875 29035 net.cpp:150] Setting up conv3_2
I1028 22:34:04.143899 29035 net.cpp:157] Top shape: 4 256 144 192 (28311552)
I1028 22:34:04.143903 29035 net.cpp:165] Memory required for data: 3254007168
I1028 22:34:04.143913 29035 layer_factory.hpp:77] Creating layer relu3_2
I1028 22:34:04.143921 29035 net.cpp:100] Creating Layer relu3_2
I1028 22:34:04.143926 29035 net.cpp:434] relu3_2 <- conv3_2
I1028 22:34:04.143932 29035 net.cpp:395] relu3_2 -> conv3_2 (in-place)
I1028 22:34:04.144526 29035 net.cpp:150] Setting up relu3_2
I1028 22:34:04.144541 29035 net.cpp:157] Top shape: 4 256 144 192 (28311552)
I1028 22:34:04.144544 29035 net.cpp:165] Memory required for data: 3367253376
I1028 22:34:04.144549 29035 layer_factory.hpp:77] Creating layer conv3_3
I1028 22:34:04.144563 29035 net.cpp:100] Creating Layer conv3_3
I1028 22:34:04.144572 29035 net.cpp:434] conv3_3 <- conv3_2
I1028 22:34:04.144579 29035 net.cpp:408] conv3_3 -> conv3_3
I1028 22:34:04.148015 29035 net.cpp:150] Setting up conv3_3
I1028 22:34:04.148039 29035 net.cpp:157] Top shape: 4 256 144 192 (28311552)
I1028 22:34:04.148043 29035 net.cpp:165] Memory required for data: 3480499584
I1028 22:34:04.148052 29035 layer_factory.hpp:77] Creating layer relu3_3
I1028 22:34:04.148061 29035 net.cpp:100] Creating Layer relu3_3
I1028 22:34:04.148066 29035 net.cpp:434] relu3_3 <- conv3_3
I1028 22:34:04.148072 29035 net.cpp:395] relu3_3 -> conv3_3 (in-place)
I1028 22:34:04.148283 29035 net.cpp:150] Setting up relu3_3
I1028 22:34:04.148293 29035 net.cpp:157] Top shape: 4 256 144 192 (28311552)
I1028 22:34:04.148296 29035 net.cpp:165] Memory required for data: 3593745792
I1028 22:34:04.148301 29035 layer_factory.hpp:77] Creating layer pool3
I1028 22:34:04.148310 29035 net.cpp:100] Creating Layer pool3
I1028 22:34:04.148315 29035 net.cpp:434] pool3 <- conv3_3
I1028 22:34:04.148324 29035 net.cpp:408] pool3 -> pool3
I1028 22:34:04.148378 29035 net.cpp:150] Setting up pool3
I1028 22:34:04.148386 29035 net.cpp:157] Top shape: 4 256 72 96 (7077888)
I1028 22:34:04.148388 29035 net.cpp:165] Memory required for data: 3622057344
I1028 22:34:04.148391 29035 layer_factory.hpp:77] Creating layer conv4_1
I1028 22:34:04.148401 29035 net.cpp:100] Creating Layer conv4_1
I1028 22:34:04.148404 29035 net.cpp:434] conv4_1 <- pool3
I1028 22:34:04.148409 29035 net.cpp:408] conv4_1 -> conv4_1
I1028 22:34:04.153970 29035 net.cpp:150] Setting up conv4_1
I1028 22:34:04.153997 29035 net.cpp:157] Top shape: 4 512 72 96 (14155776)
I1028 22:34:04.154001 29035 net.cpp:165] Memory required for data: 3678680448
I1028 22:34:04.154011 29035 layer_factory.hpp:77] Creating layer relu4_1
I1028 22:34:04.154019 29035 net.cpp:100] Creating Layer relu4_1
I1028 22:34:04.154023 29035 net.cpp:434] relu4_1 <- conv4_1
I1028 22:34:04.154031 29035 net.cpp:395] relu4_1 -> conv4_1 (in-place)
I1028 22:34:04.154240 29035 net.cpp:150] Setting up relu4_1
I1028 22:34:04.154250 29035 net.cpp:157] Top shape: 4 512 72 96 (14155776)
I1028 22:34:04.154253 29035 net.cpp:165] Memory required for data: 3735303552
I1028 22:34:04.154256 29035 layer_factory.hpp:77] Creating layer conv4_2
I1028 22:34:04.154266 29035 net.cpp:100] Creating Layer conv4_2
I1028 22:34:04.154274 29035 net.cpp:434] conv4_2 <- conv4_1
I1028 22:34:04.154281 29035 net.cpp:408] conv4_2 -> conv4_2
I1028 22:34:04.161216 29035 net.cpp:150] Setting up conv4_2
I1028 22:34:04.161244 29035 net.cpp:157] Top shape: 4 512 72 96 (14155776)
I1028 22:34:04.161248 29035 net.cpp:165] Memory required for data: 3791926656
I1028 22:34:04.161265 29035 layer_factory.hpp:77] Creating layer relu4_2
I1028 22:34:04.161276 29035 net.cpp:100] Creating Layer relu4_2
I1028 22:34:04.161281 29035 net.cpp:434] relu4_2 <- conv4_2
I1028 22:34:04.161291 29035 net.cpp:395] relu4_2 -> conv4_2 (in-place)
I1028 22:34:04.161500 29035 net.cpp:150] Setting up relu4_2
I1028 22:34:04.161511 29035 net.cpp:157] Top shape: 4 512 72 96 (14155776)
I1028 22:34:04.161514 29035 net.cpp:165] Memory required for data: 3848549760
I1028 22:34:04.161520 29035 layer_factory.hpp:77] Creating layer conv4_3
I1028 22:34:04.161532 29035 net.cpp:100] Creating Layer conv4_3
I1028 22:34:04.161540 29035 net.cpp:434] conv4_3 <- conv4_2
I1028 22:34:04.161548 29035 net.cpp:408] conv4_3 -> conv4_3
I1028 22:34:04.168014 29035 net.cpp:150] Setting up conv4_3
I1028 22:34:04.168045 29035 net.cpp:157] Top shape: 4 512 72 96 (14155776)
I1028 22:34:04.168048 29035 net.cpp:165] Memory required for data: 3905172864
I1028 22:34:04.168057 29035 layer_factory.hpp:77] Creating layer relu4_3
I1028 22:34:04.168068 29035 net.cpp:100] Creating Layer relu4_3
I1028 22:34:04.168072 29035 net.cpp:434] relu4_3 <- conv4_3
I1028 22:34:04.168079 29035 net.cpp:395] relu4_3 -> conv4_3 (in-place)
I1028 22:34:04.168278 29035 net.cpp:150] Setting up relu4_3
I1028 22:34:04.168289 29035 net.cpp:157] Top shape: 4 512 72 96 (14155776)
I1028 22:34:04.168292 29035 net.cpp:165] Memory required for data: 3961795968
I1028 22:34:04.168294 29035 layer_factory.hpp:77] Creating layer conv4_3_relu4_3_0_split
I1028 22:34:04.168303 29035 net.cpp:100] Creating Layer conv4_3_relu4_3_0_split
I1028 22:34:04.168308 29035 net.cpp:434] conv4_3_relu4_3_0_split <- conv4_3
I1028 22:34:04.168316 29035 net.cpp:408] conv4_3_relu4_3_0_split -> conv4_3_relu4_3_0_split_0
I1028 22:34:04.168326 29035 net.cpp:408] conv4_3_relu4_3_0_split -> conv4_3_relu4_3_0_split_1
I1028 22:34:04.168378 29035 net.cpp:150] Setting up conv4_3_relu4_3_0_split
I1028 22:34:04.168386 29035 net.cpp:157] Top shape: 4 512 72 96 (14155776)
I1028 22:34:04.168390 29035 net.cpp:157] Top shape: 4 512 72 96 (14155776)
I1028 22:34:04.168392 29035 net.cpp:165] Memory required for data: 4075042176
I1028 22:34:04.168395 29035 layer_factory.hpp:77] Creating layer loss1_conv1
I1028 22:34:04.168418 29035 net.cpp:100] Creating Layer loss1_conv1
I1028 22:34:04.168424 29035 net.cpp:434] loss1_conv1 <- conv4_3_relu4_3_0_split_0
I1028 22:34:04.168431 29035 net.cpp:408] loss1_conv1 -> loss1_conv1
I1028 22:34:04.195543 29035 net.cpp:150] Setting up loss1_conv1
I1028 22:34:04.195572 29035 net.cpp:157] Top shape: 4 512 72 96 (14155776)
I1028 22:34:04.195575 29035 net.cpp:165] Memory required for data: 4131665280
I1028 22:34:04.195585 29035 layer_factory.hpp:77] Creating layer loss_relu1
I1028 22:34:04.195592 29035 net.cpp:100] Creating Layer loss_relu1
I1028 22:34:04.195597 29035 net.cpp:434] loss_relu1 <- loss1_conv1
I1028 22:34:04.195605 29035 net.cpp:395] loss_relu1 -> loss1_conv1 (in-place)
I1028 22:34:04.196158 29035 net.cpp:150] Setting up loss_relu1
I1028 22:34:04.196171 29035 net.cpp:157] Top shape: 4 512 72 96 (14155776)
I1028 22:34:04.196174 29035 net.cpp:165] Memory required for data: 4188288384
I1028 22:34:04.196177 29035 layer_factory.hpp:77] Creating layer loss1_conv1_loss_relu1_0_split
I1028 22:34:04.196182 29035 net.cpp:100] Creating Layer loss1_conv1_loss_relu1_0_split
I1028 22:34:04.196185 29035 net.cpp:434] loss1_conv1_loss_relu1_0_split <- loss1_conv1
I1028 22:34:04.196192 29035 net.cpp:408] loss1_conv1_loss_relu1_0_split -> loss1_conv1_loss_relu1_0_split_0
I1028 22:34:04.196199 29035 net.cpp:408] loss1_conv1_loss_relu1_0_split -> loss1_conv1_loss_relu1_0_split_1
I1028 22:34:04.196249 29035 net.cpp:150] Setting up loss1_conv1_loss_relu1_0_split
I1028 22:34:04.196255 29035 net.cpp:157] Top shape: 4 512 72 96 (14155776)
I1028 22:34:04.196259 29035 net.cpp:157] Top shape: 4 512 72 96 (14155776)
I1028 22:34:04.196261 29035 net.cpp:165] Memory required for data: 4301534592
I1028 22:34:04.196264 29035 layer_factory.hpp:77] Creating layer LFCN_1_3x5
I1028 22:34:04.196275 29035 net.cpp:100] Creating Layer LFCN_1_3x5
I1028 22:34:04.196282 29035 net.cpp:434] LFCN_1_3x5 <- loss1_conv1_loss_relu1_0_split_0
I1028 22:34:04.196290 29035 net.cpp:408] LFCN_1_3x5 -> LFCN_1_3x5
I1028 22:34:04.197595 29035 net.cpp:150] Setting up LFCN_1_3x5
I1028 22:34:04.197607 29035 net.cpp:157] Top shape: 4 7 72 96 (193536)
I1028 22:34:04.197609 29035 net.cpp:165] Memory required for data: 4302308736
I1028 22:34:04.197615 29035 layer_factory.hpp:77] Creating layer LFCN_1_3x5_LFCN_1_3x5_0_split
I1028 22:34:04.197620 29035 net.cpp:100] Creating Layer LFCN_1_3x5_LFCN_1_3x5_0_split
I1028 22:34:04.197623 29035 net.cpp:434] LFCN_1_3x5_LFCN_1_3x5_0_split <- LFCN_1_3x5
I1028 22:34:04.197629 29035 net.cpp:408] LFCN_1_3x5_LFCN_1_3x5_0_split -> LFCN_1_3x5_LFCN_1_3x5_0_split_0
I1028 22:34:04.197635 29035 net.cpp:408] LFCN_1_3x5_LFCN_1_3x5_0_split -> LFCN_1_3x5_LFCN_1_3x5_0_split_1
I1028 22:34:04.197681 29035 net.cpp:150] Setting up LFCN_1_3x5_LFCN_1_3x5_0_split
I1028 22:34:04.197688 29035 net.cpp:157] Top shape: 4 7 72 96 (193536)
I1028 22:34:04.197692 29035 net.cpp:157] Top shape: 4 7 72 96 (193536)
I1028 22:34:04.197695 29035 net.cpp:165] Memory required for data: 4303857024
I1028 22:34:04.197700 29035 layer_factory.hpp:77] Creating layer detection_loss_1_3x5
I1028 22:34:04.197715 29035 net.cpp:100] Creating Layer detection_loss_1_3x5
I1028 22:34:04.197721 29035 net.cpp:434] detection_loss_1_3x5 <- LFCN_1_3x5_LFCN_1_3x5_0_split_0
I1028 22:34:04.197724 29035 net.cpp:434] detection_loss_1_3x5 <- label_1_3x5_data_1_split_0
I1028 22:34:04.197731 29035 net.cpp:408] detection_loss_1_3x5 -> loss_1_3x5
I1028 22:34:04.197742 29035 layer_factory.hpp:77] Creating layer detection_loss_1_3x5
I1028 22:34:04.198527 29035 net.cpp:150] Setting up detection_loss_1_3x5
I1028 22:34:04.198541 29035 net.cpp:157] Top shape: 1 1 1 2 (2)
I1028 22:34:04.198544 29035 net.cpp:160]     with loss weight 0.9
I1028 22:34:04.198561 29035 net.cpp:165] Memory required for data: 4303857032
I1028 22:34:04.198565 29035 layer_factory.hpp:77] Creating layer detection_accuracy_1_3x5
I1028 22:34:04.198575 29035 net.cpp:100] Creating Layer detection_accuracy_1_3x5
I1028 22:34:04.198577 29035 net.cpp:434] detection_accuracy_1_3x5 <- LFCN_1_3x5_LFCN_1_3x5_0_split_1
I1028 22:34:04.198583 29035 net.cpp:434] detection_accuracy_1_3x5 <- label_1_3x5_data_1_split_1
I1028 22:34:04.198593 29035 net.cpp:408] detection_accuracy_1_3x5 -> accuracy_1_3x5
I1028 22:34:04.198606 29035 net.cpp:408] detection_accuracy_1_3x5 -> boxiou_1_3x5
I1028 22:34:04.198654 29035 net.cpp:150] Setting up detection_accuracy_1_3x5
I1028 22:34:04.198662 29035 net.cpp:157] Top shape: 1 1 1 2 (2)
I1028 22:34:04.198664 29035 net.cpp:157] Top shape: 1 1 1 1 (1)
I1028 22:34:04.198668 29035 net.cpp:165] Memory required for data: 4303857044
I1028 22:34:04.198673 29035 layer_factory.hpp:77] Creating layer LFCN_1_5x7
I1028 22:34:04.198686 29035 net.cpp:100] Creating Layer LFCN_1_5x7
I1028 22:34:04.198691 29035 net.cpp:434] LFCN_1_5x7 <- loss1_conv1_loss_relu1_0_split_1
I1028 22:34:04.198698 29035 net.cpp:408] LFCN_1_5x7 -> LFCN_1_5x7
I1028 22:34:04.201025 29035 net.cpp:150] Setting up LFCN_1_5x7
I1028 22:34:04.201040 29035 net.cpp:157] Top shape: 4 7 72 96 (193536)
I1028 22:34:04.201043 29035 net.cpp:165] Memory required for data: 4304631188
I1028 22:34:04.201051 29035 layer_factory.hpp:77] Creating layer LFCN_1_5x7_LFCN_1_5x7_0_split
I1028 22:34:04.201061 29035 net.cpp:100] Creating Layer LFCN_1_5x7_LFCN_1_5x7_0_split
I1028 22:34:04.201067 29035 net.cpp:434] LFCN_1_5x7_LFCN_1_5x7_0_split <- LFCN_1_5x7
I1028 22:34:04.201074 29035 net.cpp:408] LFCN_1_5x7_LFCN_1_5x7_0_split -> LFCN_1_5x7_LFCN_1_5x7_0_split_0
I1028 22:34:04.201083 29035 net.cpp:408] LFCN_1_5x7_LFCN_1_5x7_0_split -> LFCN_1_5x7_LFCN_1_5x7_0_split_1
I1028 22:34:04.201130 29035 net.cpp:150] Setting up LFCN_1_5x7_LFCN_1_5x7_0_split
I1028 22:34:04.201138 29035 net.cpp:157] Top shape: 4 7 72 96 (193536)
I1028 22:34:04.201141 29035 net.cpp:157] Top shape: 4 7 72 96 (193536)
I1028 22:34:04.201145 29035 net.cpp:165] Memory required for data: 4306179476
I1028 22:34:04.201149 29035 layer_factory.hpp:77] Creating layer detection_loss_1_5x7
I1028 22:34:04.201159 29035 net.cpp:100] Creating Layer detection_loss_1_5x7
I1028 22:34:04.201164 29035 net.cpp:434] detection_loss_1_5x7 <- LFCN_1_5x7_LFCN_1_5x7_0_split_0
I1028 22:34:04.201169 29035 net.cpp:434] detection_loss_1_5x7 <- label_1_5x7_data_2_split_0
I1028 22:34:04.201179 29035 net.cpp:408] detection_loss_1_5x7 -> loss_1_5x7
I1028 22:34:04.201189 29035 layer_factory.hpp:77] Creating layer detection_loss_1_5x7
I1028 22:34:04.201603 29035 net.cpp:150] Setting up detection_loss_1_5x7
I1028 22:34:04.201613 29035 net.cpp:157] Top shape: 1 1 1 2 (2)
I1028 22:34:04.201617 29035 net.cpp:160]     with loss weight 0.9
I1028 22:34:04.201625 29035 net.cpp:165] Memory required for data: 4306179484
I1028 22:34:04.201628 29035 layer_factory.hpp:77] Creating layer detection_accuracy_1_5x7
I1028 22:34:04.201639 29035 net.cpp:100] Creating Layer detection_accuracy_1_5x7
I1028 22:34:04.201644 29035 net.cpp:434] detection_accuracy_1_5x7 <- LFCN_1_5x7_LFCN_1_5x7_0_split_1
I1028 22:34:04.201649 29035 net.cpp:434] detection_accuracy_1_5x7 <- label_1_5x7_data_2_split_1
I1028 22:34:04.201656 29035 net.cpp:408] detection_accuracy_1_5x7 -> accuracy_1_5x7
I1028 22:34:04.201663 29035 net.cpp:408] detection_accuracy_1_5x7 -> boxiou_1_5x7
I1028 22:34:04.201704 29035 net.cpp:150] Setting up detection_accuracy_1_5x7
I1028 22:34:04.201709 29035 net.cpp:157] Top shape: 1 1 1 2 (2)
I1028 22:34:04.201712 29035 net.cpp:157] Top shape: 1 1 1 1 (1)
I1028 22:34:04.201714 29035 net.cpp:165] Memory required for data: 4306179496
I1028 22:34:04.201716 29035 layer_factory.hpp:77] Creating layer pool4
I1028 22:34:04.201721 29035 net.cpp:100] Creating Layer pool4
I1028 22:34:04.201725 29035 net.cpp:434] pool4 <- conv4_3_relu4_3_0_split_1
I1028 22:34:04.201730 29035 net.cpp:408] pool4 -> pool4
I1028 22:34:04.201771 29035 net.cpp:150] Setting up pool4
I1028 22:34:04.201777 29035 net.cpp:157] Top shape: 4 512 36 48 (3538944)
I1028 22:34:04.201781 29035 net.cpp:165] Memory required for data: 4320335272
I1028 22:34:04.201783 29035 layer_factory.hpp:77] Creating layer conv5_1
I1028 22:34:04.201792 29035 net.cpp:100] Creating Layer conv5_1
I1028 22:34:04.201797 29035 net.cpp:434] conv5_1 <- pool4
I1028 22:34:04.201802 29035 net.cpp:408] conv5_1 -> conv5_1
I1028 22:34:04.208240 29035 net.cpp:150] Setting up conv5_1
I1028 22:34:04.208267 29035 net.cpp:157] Top shape: 4 512 36 48 (3538944)
I1028 22:34:04.208271 29035 net.cpp:165] Memory required for data: 4334491048
I1028 22:34:04.208281 29035 layer_factory.hpp:77] Creating layer relu5_1
I1028 22:34:04.208289 29035 net.cpp:100] Creating Layer relu5_1
I1028 22:34:04.208293 29035 net.cpp:434] relu5_1 <- conv5_1
I1028 22:34:04.208299 29035 net.cpp:395] relu5_1 -> conv5_1 (in-place)
I1028 22:34:04.208498 29035 net.cpp:150] Setting up relu5_1
I1028 22:34:04.208506 29035 net.cpp:157] Top shape: 4 512 36 48 (3538944)
I1028 22:34:04.208508 29035 net.cpp:165] Memory required for data: 4348646824
I1028 22:34:04.208510 29035 layer_factory.hpp:77] Creating layer conv5_2
I1028 22:34:04.208520 29035 net.cpp:100] Creating Layer conv5_2
I1028 22:34:04.208524 29035 net.cpp:434] conv5_2 <- conv5_1
I1028 22:34:04.208530 29035 net.cpp:408] conv5_2 -> conv5_2
I1028 22:34:04.214476 29035 net.cpp:150] Setting up conv5_2
I1028 22:34:04.214505 29035 net.cpp:157] Top shape: 4 512 36 48 (3538944)
I1028 22:34:04.214509 29035 net.cpp:165] Memory required for data: 4362802600
I1028 22:34:04.214516 29035 layer_factory.hpp:77] Creating layer relu5_2
I1028 22:34:04.214524 29035 net.cpp:100] Creating Layer relu5_2
I1028 22:34:04.214529 29035 net.cpp:434] relu5_2 <- conv5_2
I1028 22:34:04.214536 29035 net.cpp:395] relu5_2 -> conv5_2 (in-place)
I1028 22:34:04.214728 29035 net.cpp:150] Setting up relu5_2
I1028 22:34:04.214736 29035 net.cpp:157] Top shape: 4 512 36 48 (3538944)
I1028 22:34:04.214740 29035 net.cpp:165] Memory required for data: 4376958376
I1028 22:34:04.214742 29035 layer_factory.hpp:77] Creating layer conv5_3
I1028 22:34:04.214751 29035 net.cpp:100] Creating Layer conv5_3
I1028 22:34:04.214753 29035 net.cpp:434] conv5_3 <- conv5_2
I1028 22:34:04.214761 29035 net.cpp:408] conv5_3 -> conv5_3
I1028 22:34:04.221143 29035 net.cpp:150] Setting up conv5_3
I1028 22:34:04.221170 29035 net.cpp:157] Top shape: 4 512 36 48 (3538944)
I1028 22:34:04.221173 29035 net.cpp:165] Memory required for data: 4391114152
I1028 22:34:04.221182 29035 layer_factory.hpp:77] Creating layer relu5_3
I1028 22:34:04.221191 29035 net.cpp:100] Creating Layer relu5_3
I1028 22:34:04.221195 29035 net.cpp:434] relu5_3 <- conv5_3
I1028 22:34:04.221207 29035 net.cpp:395] relu5_3 -> conv5_3 (in-place)
I1028 22:34:04.221385 29035 net.cpp:150] Setting up relu5_3
I1028 22:34:04.221395 29035 net.cpp:157] Top shape: 4 512 36 48 (3538944)
I1028 22:34:04.221396 29035 net.cpp:165] Memory required for data: 4405269928
I1028 22:34:04.221398 29035 layer_factory.hpp:77] Creating layer conv5_3_relu5_3_0_split
I1028 22:34:04.221406 29035 net.cpp:100] Creating Layer conv5_3_relu5_3_0_split
I1028 22:34:04.221410 29035 net.cpp:434] conv5_3_relu5_3_0_split <- conv5_3
I1028 22:34:04.221417 29035 net.cpp:408] conv5_3_relu5_3_0_split -> conv5_3_relu5_3_0_split_0
I1028 22:34:04.221428 29035 net.cpp:408] conv5_3_relu5_3_0_split -> conv5_3_relu5_3_0_split_1
I1028 22:34:04.221436 29035 net.cpp:408] conv5_3_relu5_3_0_split -> conv5_3_relu5_3_0_split_2
I1028 22:34:04.221491 29035 net.cpp:150] Setting up conv5_3_relu5_3_0_split
I1028 22:34:04.221498 29035 net.cpp:157] Top shape: 4 512 36 48 (3538944)
I1028 22:34:04.221501 29035 net.cpp:157] Top shape: 4 512 36 48 (3538944)
I1028 22:34:04.221505 29035 net.cpp:157] Top shape: 4 512 36 48 (3538944)
I1028 22:34:04.221509 29035 net.cpp:165] Memory required for data: 4447737256
I1028 22:34:04.221511 29035 layer_factory.hpp:77] Creating layer LFCN_2_3x5
I1028 22:34:04.221526 29035 net.cpp:100] Creating Layer LFCN_2_3x5
I1028 22:34:04.221531 29035 net.cpp:434] LFCN_2_3x5 <- conv5_3_relu5_3_0_split_0
I1028 22:34:04.221539 29035 net.cpp:408] LFCN_2_3x5 -> LFCN_2_3x5
I1028 22:34:04.223119 29035 net.cpp:150] Setting up LFCN_2_3x5
I1028 22:34:04.223131 29035 net.cpp:157] Top shape: 4 7 36 48 (48384)
I1028 22:34:04.223134 29035 net.cpp:165] Memory required for data: 4447930792
I1028 22:34:04.223146 29035 layer_factory.hpp:77] Creating layer LFCN_2_3x5_LFCN_2_3x5_0_split
I1028 22:34:04.223152 29035 net.cpp:100] Creating Layer LFCN_2_3x5_LFCN_2_3x5_0_split
I1028 22:34:04.223155 29035 net.cpp:434] LFCN_2_3x5_LFCN_2_3x5_0_split <- LFCN_2_3x5
I1028 22:34:04.223161 29035 net.cpp:408] LFCN_2_3x5_LFCN_2_3x5_0_split -> LFCN_2_3x5_LFCN_2_3x5_0_split_0
I1028 22:34:04.223167 29035 net.cpp:408] LFCN_2_3x5_LFCN_2_3x5_0_split -> LFCN_2_3x5_LFCN_2_3x5_0_split_1
I1028 22:34:04.223213 29035 net.cpp:150] Setting up LFCN_2_3x5_LFCN_2_3x5_0_split
I1028 22:34:04.223222 29035 net.cpp:157] Top shape: 4 7 36 48 (48384)
I1028 22:34:04.223225 29035 net.cpp:157] Top shape: 4 7 36 48 (48384)
I1028 22:34:04.223228 29035 net.cpp:165] Memory required for data: 4448317864
I1028 22:34:04.223232 29035 layer_factory.hpp:77] Creating layer detection_loss_2_3x5
I1028 22:34:04.223242 29035 net.cpp:100] Creating Layer detection_loss_2_3x5
I1028 22:34:04.223248 29035 net.cpp:434] detection_loss_2_3x5 <- LFCN_2_3x5_LFCN_2_3x5_0_split_0
I1028 22:34:04.223253 29035 net.cpp:434] detection_loss_2_3x5 <- label_2_3x5_data_3_split_0
I1028 22:34:04.223260 29035 net.cpp:408] detection_loss_2_3x5 -> loss_2_3x5
I1028 22:34:04.223274 29035 layer_factory.hpp:77] Creating layer detection_loss_2_3x5
I1028 22:34:04.223990 29035 net.cpp:150] Setting up detection_loss_2_3x5
I1028 22:34:04.224004 29035 net.cpp:157] Top shape: 1 1 1 2 (2)
I1028 22:34:04.224007 29035 net.cpp:160]     with loss weight 1
I1028 22:34:04.224021 29035 net.cpp:165] Memory required for data: 4448317872
I1028 22:34:04.224025 29035 layer_factory.hpp:77] Creating layer detection_accuracy_2_3x5
I1028 22:34:04.224032 29035 net.cpp:100] Creating Layer detection_accuracy_2_3x5
I1028 22:34:04.224035 29035 net.cpp:434] detection_accuracy_2_3x5 <- LFCN_2_3x5_LFCN_2_3x5_0_split_1
I1028 22:34:04.224040 29035 net.cpp:434] detection_accuracy_2_3x5 <- label_2_3x5_data_3_split_1
I1028 22:34:04.224045 29035 net.cpp:408] detection_accuracy_2_3x5 -> accuracy_2_3x5
I1028 22:34:04.224052 29035 net.cpp:408] detection_accuracy_2_3x5 -> boxiou_2_3x5
I1028 22:34:04.224105 29035 net.cpp:150] Setting up detection_accuracy_2_3x5
I1028 22:34:04.224112 29035 net.cpp:157] Top shape: 1 1 1 2 (2)
I1028 22:34:04.224115 29035 net.cpp:157] Top shape: 1 1 1 1 (1)
I1028 22:34:04.224117 29035 net.cpp:165] Memory required for data: 4448317884
I1028 22:34:04.224119 29035 layer_factory.hpp:77] Creating layer LFCN_2_5x7
I1028 22:34:04.224128 29035 net.cpp:100] Creating Layer LFCN_2_5x7
I1028 22:34:04.224130 29035 net.cpp:434] LFCN_2_5x7 <- conv5_3_relu5_3_0_split_1
I1028 22:34:04.224136 29035 net.cpp:408] LFCN_2_5x7 -> LFCN_2_5x7
I1028 22:34:04.226948 29035 net.cpp:150] Setting up LFCN_2_5x7
I1028 22:34:04.226963 29035 net.cpp:157] Top shape: 4 7 36 48 (48384)
I1028 22:34:04.226965 29035 net.cpp:165] Memory required for data: 4448511420
I1028 22:34:04.226971 29035 layer_factory.hpp:77] Creating layer LFCN_2_5x7_LFCN_2_5x7_0_split
I1028 22:34:04.226977 29035 net.cpp:100] Creating Layer LFCN_2_5x7_LFCN_2_5x7_0_split
I1028 22:34:04.226980 29035 net.cpp:434] LFCN_2_5x7_LFCN_2_5x7_0_split <- LFCN_2_5x7
I1028 22:34:04.226985 29035 net.cpp:408] LFCN_2_5x7_LFCN_2_5x7_0_split -> LFCN_2_5x7_LFCN_2_5x7_0_split_0
I1028 22:34:04.226991 29035 net.cpp:408] LFCN_2_5x7_LFCN_2_5x7_0_split -> LFCN_2_5x7_LFCN_2_5x7_0_split_1
I1028 22:34:04.227033 29035 net.cpp:150] Setting up LFCN_2_5x7_LFCN_2_5x7_0_split
I1028 22:34:04.227039 29035 net.cpp:157] Top shape: 4 7 36 48 (48384)
I1028 22:34:04.227043 29035 net.cpp:157] Top shape: 4 7 36 48 (48384)
I1028 22:34:04.227044 29035 net.cpp:165] Memory required for data: 4448898492
I1028 22:34:04.227047 29035 layer_factory.hpp:77] Creating layer detection_loss_2_5x7
I1028 22:34:04.227054 29035 net.cpp:100] Creating Layer detection_loss_2_5x7
I1028 22:34:04.227057 29035 net.cpp:434] detection_loss_2_5x7 <- LFCN_2_5x7_LFCN_2_5x7_0_split_0
I1028 22:34:04.227061 29035 net.cpp:434] detection_loss_2_5x7 <- label_2_5x7_data_4_split_0
I1028 22:34:04.227066 29035 net.cpp:408] detection_loss_2_5x7 -> loss_2_5x7
I1028 22:34:04.227072 29035 layer_factory.hpp:77] Creating layer detection_loss_2_5x7
I1028 22:34:04.227789 29035 net.cpp:150] Setting up detection_loss_2_5x7
I1028 22:34:04.227802 29035 net.cpp:157] Top shape: 1 1 1 2 (2)
I1028 22:34:04.227804 29035 net.cpp:160]     with loss weight 1
I1028 22:34:04.227809 29035 net.cpp:165] Memory required for data: 4448898500
I1028 22:34:04.227813 29035 layer_factory.hpp:77] Creating layer detection_accuracy_2_5x7
I1028 22:34:04.227818 29035 net.cpp:100] Creating Layer detection_accuracy_2_5x7
I1028 22:34:04.227821 29035 net.cpp:434] detection_accuracy_2_5x7 <- LFCN_2_5x7_LFCN_2_5x7_0_split_1
I1028 22:34:04.227826 29035 net.cpp:434] detection_accuracy_2_5x7 <- label_2_5x7_data_4_split_1
I1028 22:34:04.227833 29035 net.cpp:408] detection_accuracy_2_5x7 -> accuracy_2_5x7
I1028 22:34:04.227839 29035 net.cpp:408] detection_accuracy_2_5x7 -> boxiou_2_5x7
I1028 22:34:04.227880 29035 net.cpp:150] Setting up detection_accuracy_2_5x7
I1028 22:34:04.227885 29035 net.cpp:157] Top shape: 1 1 1 2 (2)
I1028 22:34:04.227888 29035 net.cpp:157] Top shape: 1 1 1 1 (1)
I1028 22:34:04.227890 29035 net.cpp:165] Memory required for data: 4448898512
I1028 22:34:04.227892 29035 layer_factory.hpp:77] Creating layer pool5
I1028 22:34:04.227897 29035 net.cpp:100] Creating Layer pool5
I1028 22:34:04.227900 29035 net.cpp:434] pool5 <- conv5_3_relu5_3_0_split_2
I1028 22:34:04.227906 29035 net.cpp:408] pool5 -> pool5
I1028 22:34:04.227942 29035 net.cpp:150] Setting up pool5
I1028 22:34:04.227948 29035 net.cpp:157] Top shape: 4 512 18 24 (884736)
I1028 22:34:04.227952 29035 net.cpp:165] Memory required for data: 4452437456
I1028 22:34:04.227953 29035 layer_factory.hpp:77] Creating layer conv6_1
I1028 22:34:04.227962 29035 net.cpp:100] Creating Layer conv6_1
I1028 22:34:04.227967 29035 net.cpp:434] conv6_1 <- pool5
I1028 22:34:04.227972 29035 net.cpp:408] conv6_1 -> conv6_1
I1028 22:34:04.251324 29035 net.cpp:150] Setting up conv6_1
I1028 22:34:04.251350 29035 net.cpp:157] Top shape: 4 512 18 24 (884736)
I1028 22:34:04.251353 29035 net.cpp:165] Memory required for data: 4455976400
I1028 22:34:04.251363 29035 layer_factory.hpp:77] Creating layer relu6_1
I1028 22:34:04.251371 29035 net.cpp:100] Creating Layer relu6_1
I1028 22:34:04.251375 29035 net.cpp:434] relu6_1 <- conv6_1
I1028 22:34:04.251380 29035 net.cpp:395] relu6_1 -> conv6_1 (in-place)
I1028 22:34:04.251541 29035 net.cpp:150] Setting up relu6_1
I1028 22:34:04.251549 29035 net.cpp:157] Top shape: 4 512 18 24 (884736)
I1028 22:34:04.251551 29035 net.cpp:165] Memory required for data: 4459515344
I1028 22:34:04.251554 29035 layer_factory.hpp:77] Creating layer conv6_1_relu6_1_0_split
I1028 22:34:04.251560 29035 net.cpp:100] Creating Layer conv6_1_relu6_1_0_split
I1028 22:34:04.251564 29035 net.cpp:434] conv6_1_relu6_1_0_split <- conv6_1
I1028 22:34:04.251569 29035 net.cpp:408] conv6_1_relu6_1_0_split -> conv6_1_relu6_1_0_split_0
I1028 22:34:04.251582 29035 net.cpp:408] conv6_1_relu6_1_0_split -> conv6_1_relu6_1_0_split_1
I1028 22:34:04.251590 29035 net.cpp:408] conv6_1_relu6_1_0_split -> conv6_1_relu6_1_0_split_2
I1028 22:34:04.251646 29035 net.cpp:150] Setting up conv6_1_relu6_1_0_split
I1028 22:34:04.251652 29035 net.cpp:157] Top shape: 4 512 18 24 (884736)
I1028 22:34:04.251654 29035 net.cpp:157] Top shape: 4 512 18 24 (884736)
I1028 22:34:04.251657 29035 net.cpp:157] Top shape: 4 512 18 24 (884736)
I1028 22:34:04.251658 29035 net.cpp:165] Memory required for data: 4470132176
I1028 22:34:04.251662 29035 layer_factory.hpp:77] Creating layer LFCN_3_3x5
I1028 22:34:04.251673 29035 net.cpp:100] Creating Layer LFCN_3_3x5
I1028 22:34:04.251677 29035 net.cpp:434] LFCN_3_3x5 <- conv6_1_relu6_1_0_split_0
I1028 22:34:04.251682 29035 net.cpp:408] LFCN_3_3x5 -> LFCN_3_3x5
I1028 22:34:04.254142 29035 net.cpp:150] Setting up LFCN_3_3x5
I1028 22:34:04.254155 29035 net.cpp:157] Top shape: 4 7 18 24 (12096)
I1028 22:34:04.254158 29035 net.cpp:165] Memory required for data: 4470180560
I1028 22:34:04.254163 29035 layer_factory.hpp:77] Creating layer LFCN_3_3x5_LFCN_3_3x5_0_split
I1028 22:34:04.254181 29035 net.cpp:100] Creating Layer LFCN_3_3x5_LFCN_3_3x5_0_split
I1028 22:34:04.254184 29035 net.cpp:434] LFCN_3_3x5_LFCN_3_3x5_0_split <- LFCN_3_3x5
I1028 22:34:04.254189 29035 net.cpp:408] LFCN_3_3x5_LFCN_3_3x5_0_split -> LFCN_3_3x5_LFCN_3_3x5_0_split_0
I1028 22:34:04.254195 29035 net.cpp:408] LFCN_3_3x5_LFCN_3_3x5_0_split -> LFCN_3_3x5_LFCN_3_3x5_0_split_1
I1028 22:34:04.254236 29035 net.cpp:150] Setting up LFCN_3_3x5_LFCN_3_3x5_0_split
I1028 22:34:04.254242 29035 net.cpp:157] Top shape: 4 7 18 24 (12096)
I1028 22:34:04.254245 29035 net.cpp:157] Top shape: 4 7 18 24 (12096)
I1028 22:34:04.254248 29035 net.cpp:165] Memory required for data: 4470277328
I1028 22:34:04.254253 29035 layer_factory.hpp:77] Creating layer detection_loss_3_3x5
I1028 22:34:04.254262 29035 net.cpp:100] Creating Layer detection_loss_3_3x5
I1028 22:34:04.254267 29035 net.cpp:434] detection_loss_3_3x5 <- LFCN_3_3x5_LFCN_3_3x5_0_split_0
I1028 22:34:04.254271 29035 net.cpp:434] detection_loss_3_3x5 <- label_3_3x5_data_5_split_0
I1028 22:34:04.254279 29035 net.cpp:408] detection_loss_3_3x5 -> loss_3_3x5
I1028 22:34:04.254292 29035 layer_factory.hpp:77] Creating layer detection_loss_3_3x5
I1028 22:34:04.254601 29035 net.cpp:150] Setting up detection_loss_3_3x5
I1028 22:34:04.254613 29035 net.cpp:157] Top shape: 1 1 1 2 (2)
I1028 22:34:04.254616 29035 net.cpp:160]     with loss weight 1
I1028 22:34:04.254628 29035 net.cpp:165] Memory required for data: 4470277336
I1028 22:34:04.254631 29035 layer_factory.hpp:77] Creating layer detection_accuracy_3_3x5
I1028 22:34:04.254638 29035 net.cpp:100] Creating Layer detection_accuracy_3_3x5
I1028 22:34:04.254642 29035 net.cpp:434] detection_accuracy_3_3x5 <- LFCN_3_3x5_LFCN_3_3x5_0_split_1
I1028 22:34:04.254647 29035 net.cpp:434] detection_accuracy_3_3x5 <- label_3_3x5_data_5_split_1
I1028 22:34:04.254655 29035 net.cpp:408] detection_accuracy_3_3x5 -> accuracy_3_3x5
I1028 22:34:04.254663 29035 net.cpp:408] detection_accuracy_3_3x5 -> boxiou_3_3x5
I1028 22:34:04.254703 29035 net.cpp:150] Setting up detection_accuracy_3_3x5
I1028 22:34:04.254709 29035 net.cpp:157] Top shape: 1 1 1 2 (2)
I1028 22:34:04.254712 29035 net.cpp:157] Top shape: 1 1 1 1 (1)
I1028 22:34:04.254714 29035 net.cpp:165] Memory required for data: 4470277348
I1028 22:34:04.254717 29035 layer_factory.hpp:77] Creating layer LFCN_3_5x7
I1028 22:34:04.254726 29035 net.cpp:100] Creating Layer LFCN_3_5x7
I1028 22:34:04.254730 29035 net.cpp:434] LFCN_3_5x7 <- conv6_1_relu6_1_0_split_1
I1028 22:34:04.254737 29035 net.cpp:408] LFCN_3_5x7 -> LFCN_3_5x7
I1028 22:34:04.256748 29035 net.cpp:150] Setting up LFCN_3_5x7
I1028 22:34:04.256762 29035 net.cpp:157] Top shape: 4 7 18 24 (12096)
I1028 22:34:04.256765 29035 net.cpp:165] Memory required for data: 4470325732
I1028 22:34:04.256772 29035 layer_factory.hpp:77] Creating layer LFCN_3_5x7_LFCN_3_5x7_0_split
I1028 22:34:04.256783 29035 net.cpp:100] Creating Layer LFCN_3_5x7_LFCN_3_5x7_0_split
I1028 22:34:04.256786 29035 net.cpp:434] LFCN_3_5x7_LFCN_3_5x7_0_split <- LFCN_3_5x7
I1028 22:34:04.256793 29035 net.cpp:408] LFCN_3_5x7_LFCN_3_5x7_0_split -> LFCN_3_5x7_LFCN_3_5x7_0_split_0
I1028 22:34:04.256798 29035 net.cpp:408] LFCN_3_5x7_LFCN_3_5x7_0_split -> LFCN_3_5x7_LFCN_3_5x7_0_split_1
I1028 22:34:04.256841 29035 net.cpp:150] Setting up LFCN_3_5x7_LFCN_3_5x7_0_split
I1028 22:34:04.256847 29035 net.cpp:157] Top shape: 4 7 18 24 (12096)
I1028 22:34:04.256850 29035 net.cpp:157] Top shape: 4 7 18 24 (12096)
I1028 22:34:04.256852 29035 net.cpp:165] Memory required for data: 4470422500
I1028 22:34:04.256855 29035 layer_factory.hpp:77] Creating layer detection_loss_3_5x7
I1028 22:34:04.256860 29035 net.cpp:100] Creating Layer detection_loss_3_5x7
I1028 22:34:04.256863 29035 net.cpp:434] detection_loss_3_5x7 <- LFCN_3_5x7_LFCN_3_5x7_0_split_0
I1028 22:34:04.256867 29035 net.cpp:434] detection_loss_3_5x7 <- label_3_5x7_data_6_split_0
I1028 22:34:04.256871 29035 net.cpp:408] detection_loss_3_5x7 -> loss_3_5x7
I1028 22:34:04.256877 29035 layer_factory.hpp:77] Creating layer detection_loss_3_5x7
I1028 22:34:04.257191 29035 net.cpp:150] Setting up detection_loss_3_5x7
I1028 22:34:04.257199 29035 net.cpp:157] Top shape: 1 1 1 2 (2)
I1028 22:34:04.257200 29035 net.cpp:160]     with loss weight 1
I1028 22:34:04.257205 29035 net.cpp:165] Memory required for data: 4470422508
I1028 22:34:04.257207 29035 layer_factory.hpp:77] Creating layer detection_accuracy_3_5x7
I1028 22:34:04.257212 29035 net.cpp:100] Creating Layer detection_accuracy_3_5x7
I1028 22:34:04.257215 29035 net.cpp:434] detection_accuracy_3_5x7 <- LFCN_3_5x7_LFCN_3_5x7_0_split_1
I1028 22:34:04.257220 29035 net.cpp:434] detection_accuracy_3_5x7 <- label_3_5x7_data_6_split_1
I1028 22:34:04.257225 29035 net.cpp:408] detection_accuracy_3_5x7 -> accuracy_3_5x7
I1028 22:34:04.257238 29035 net.cpp:408] detection_accuracy_3_5x7 -> boxiou_3_5x7
I1028 22:34:04.257284 29035 net.cpp:150] Setting up detection_accuracy_3_5x7
I1028 22:34:04.257289 29035 net.cpp:157] Top shape: 1 1 1 2 (2)
I1028 22:34:04.257292 29035 net.cpp:157] Top shape: 1 1 1 1 (1)
I1028 22:34:04.257295 29035 net.cpp:165] Memory required for data: 4470422520
I1028 22:34:04.257298 29035 layer_factory.hpp:77] Creating layer pool6
I1028 22:34:04.257305 29035 net.cpp:100] Creating Layer pool6
I1028 22:34:04.257311 29035 net.cpp:434] pool6 <- conv6_1_relu6_1_0_split_2
I1028 22:34:04.257318 29035 net.cpp:408] pool6 -> pool6
I1028 22:34:04.257357 29035 net.cpp:150] Setting up pool6
I1028 22:34:04.257364 29035 net.cpp:157] Top shape: 4 512 9 12 (221184)
I1028 22:34:04.257366 29035 net.cpp:165] Memory required for data: 4471307256
I1028 22:34:04.257369 29035 layer_factory.hpp:77] Creating layer LFCN_4_3x5
I1028 22:34:04.257380 29035 net.cpp:100] Creating Layer LFCN_4_3x5
I1028 22:34:04.257385 29035 net.cpp:434] LFCN_4_3x5 <- pool6
I1028 22:34:04.257390 29035 net.cpp:408] LFCN_4_3x5 -> LFCN_4_3x5
I1028 22:34:04.258826 29035 net.cpp:150] Setting up LFCN_4_3x5
I1028 22:34:04.258839 29035 net.cpp:157] Top shape: 4 7 9 12 (3024)
I1028 22:34:04.258841 29035 net.cpp:165] Memory required for data: 4471319352
I1028 22:34:04.258848 29035 layer_factory.hpp:77] Creating layer LFCN_4_3x5_LFCN_4_3x5_0_split
I1028 22:34:04.258857 29035 net.cpp:100] Creating Layer LFCN_4_3x5_LFCN_4_3x5_0_split
I1028 22:34:04.258862 29035 net.cpp:434] LFCN_4_3x5_LFCN_4_3x5_0_split <- LFCN_4_3x5
I1028 22:34:04.258868 29035 net.cpp:408] LFCN_4_3x5_LFCN_4_3x5_0_split -> LFCN_4_3x5_LFCN_4_3x5_0_split_0
I1028 22:34:04.258877 29035 net.cpp:408] LFCN_4_3x5_LFCN_4_3x5_0_split -> LFCN_4_3x5_LFCN_4_3x5_0_split_1
I1028 22:34:04.258921 29035 net.cpp:150] Setting up LFCN_4_3x5_LFCN_4_3x5_0_split
I1028 22:34:04.258929 29035 net.cpp:157] Top shape: 4 7 9 12 (3024)
I1028 22:34:04.258930 29035 net.cpp:157] Top shape: 4 7 9 12 (3024)
I1028 22:34:04.258934 29035 net.cpp:165] Memory required for data: 4471343544
I1028 22:34:04.258937 29035 layer_factory.hpp:77] Creating layer detection_loss_4_3x5
I1028 22:34:04.258942 29035 net.cpp:100] Creating Layer detection_loss_4_3x5
I1028 22:34:04.258946 29035 net.cpp:434] detection_loss_4_3x5 <- LFCN_4_3x5_LFCN_4_3x5_0_split_0
I1028 22:34:04.258951 29035 net.cpp:434] detection_loss_4_3x5 <- label_4_3x5_data_7_split_0
I1028 22:34:04.258957 29035 net.cpp:408] detection_loss_4_3x5 -> loss_4_3x5
I1028 22:34:04.258966 29035 layer_factory.hpp:77] Creating layer detection_loss_4_3x5
I1028 22:34:04.259277 29035 net.cpp:150] Setting up detection_loss_4_3x5
I1028 22:34:04.259285 29035 net.cpp:157] Top shape: 1 1 1 2 (2)
I1028 22:34:04.259287 29035 net.cpp:160]     with loss weight 1
I1028 22:34:04.259294 29035 net.cpp:165] Memory required for data: 4471343552
I1028 22:34:04.259296 29035 layer_factory.hpp:77] Creating layer detection_accuracy_4_3x5
I1028 22:34:04.259305 29035 net.cpp:100] Creating Layer detection_accuracy_4_3x5
I1028 22:34:04.259307 29035 net.cpp:434] detection_accuracy_4_3x5 <- LFCN_4_3x5_LFCN_4_3x5_0_split_1
I1028 22:34:04.259312 29035 net.cpp:434] detection_accuracy_4_3x5 <- label_4_3x5_data_7_split_1
I1028 22:34:04.259320 29035 net.cpp:408] detection_accuracy_4_3x5 -> accuracy_4_3x5
I1028 22:34:04.259326 29035 net.cpp:408] detection_accuracy_4_3x5 -> boxiou_4_3x5
I1028 22:34:04.259367 29035 net.cpp:150] Setting up detection_accuracy_4_3x5
I1028 22:34:04.259374 29035 net.cpp:157] Top shape: 1 1 1 2 (2)
I1028 22:34:04.259377 29035 net.cpp:157] Top shape: 1 1 1 1 (1)
I1028 22:34:04.259390 29035 net.cpp:165] Memory required for data: 4471343564
I1028 22:34:04.259392 29035 net.cpp:228] detection_accuracy_4_3x5 does not need backward computation.
I1028 22:34:04.259397 29035 net.cpp:226] detection_loss_4_3x5 needs backward computation.
I1028 22:34:04.259400 29035 net.cpp:226] LFCN_4_3x5_LFCN_4_3x5_0_split needs backward computation.
I1028 22:34:04.259404 29035 net.cpp:226] LFCN_4_3x5 needs backward computation.
…
I1028 22:34:04.271190 29035 image_gt_data_layer.cpp:235] output label size 1 : 2,6,72,96
I1028 22:34:04.271234 29035 image_gt_data_layer.cpp:235] output label size 2 : 2,6,36,48
I1028 22:34:04.271276 29035 image_gt_data_layer.cpp:235] output label size 3 : 2,6,36,48
I1028 22:34:04.271319 29035 image_gt_data_layer.cpp:235] output label size 4 : 2,6,18,24
I1028 22:34:04.271363 29035 image_gt_data_layer.cpp:235] output label size 5 : 2,6,18,24
I1028 22:34:04.271405 29035 image_gt_data_layer.cpp:235] output label size 6 : 2,6,9,12
I1028 22:34:04.288947 29035 net.cpp:150] Setting up data
I1028 22:34:04.288972 29035 net.cpp:157] Top shape: 2 3 576 768 (2654208)
I1028 22:34:04.288976 29035 net.cpp:157] Top shape: 2 6 72 96 (82944)
I1028 22:34:04.288978 29035 net.cpp:157] Top shape: 2 6 72 96 (82944)
I1028 22:34:04.288981 29035 net.cpp:157] Top shape: 2 6 36 48 (20736)
I1028 22:34:04.288983 29035 net.cpp:157] Top shape: 2 6 36 48 (20736)
I1028 22:34:04.288986 29035 net.cpp:157] Top shape: 2 6 18 24 (5184)
I1028 22:34:04.288988 29035 net.cpp:157] Top shape: 2 6 18 24 (5184)
I1028 22:34:04.288991 29035 net.cpp:157] Top shape: 2 6 9 12 (1296)
I1028 22:34:04.288992 29035 net.cpp:165] Memory required for data: 11492928
I1028 22:34:04.288997 29035 layer_factory.hpp:77] Creating layer label_1_3x5_data_1_split
I1028 22:34:04.289007 29035 net.cpp:100] Creating Layer label_1_3x5_data_1_split
I1028 22:34:04.289011 29035 net.cpp:434] label_1_3x5_data_1_split <- label_1_3x5
I1028 22:34:04.289017 29035 net.cpp:408] label_1_3x5_data_1_split -> label_1_3x5_data_1_split_0
I1028 22:34:04.289026 29035 net.cpp:408] label_1_3x5_data_1_split -> label_1_3x5_data_1_split_1
I1028 22:34:04.289089 29035 net.cpp:150] Setting up label_1_3x5_data_1_split
I1028 22:34:04.289093 29035 net.cpp:157] Top shape: 2 6 72 96 (82944)
I1028 22:34:04.289095 29035 net.cpp:157] Top shape: 2 6 72 96 (82944)
I1028 22:34:04.289098 29035 net.cpp:165] Memory required for data: 12156480
I1028 22:34:04.289099 29035 layer_factory.hpp:77] Creating layer label_1_5x7_data_2_split
I1028 22:34:04.289104 29035 net.cpp:100] Creating Layer label_1_5x7_data_2_split
I1028 22:34:04.289106 29035 net.cpp:434] label_1_5x7_data_2_split <- label_1_5x7
I1028 22:34:04.289109 29035 net.cpp:408] label_1_5x7_data_2_split -> label_1_5x7_data_2_split_0
I1028 22:34:04.289114 29035 net.cpp:408] label_1_5x7_data_2_split -> label_1_5x7_data_2_split_1
I1028 22:34:04.289175 29035 net.cpp:150] Setting up label_1_5x7_data_2_split
I1028 22:34:04.289178 29035 net.cpp:157] Top shape: 2 6 72 96 (82944)
I1028 22:34:04.289181 29035 net.cpp:157] Top shape: 2 6 72 96 (82944)
I1028 22:34:04.289183 29035 net.cpp:165] Memory required for data: 12820032
I1028 22:34:04.289185 29035 layer_factory.hpp:77] Creating layer label_2_3x5_data_3_split
I1028 22:34:04.289189 29035 net.cpp:100] Creating Layer label_2_3x5_data_3_split
I1028 22:34:04.289191 29035 net.cpp:434] label_2_3x5_data_3_split <- label_2_3x5
I1028 22:34:04.289196 29035 net.cpp:408] label_2_3x5_data_3_split -> label_2_3x5_data_3_split_0
I1028 22:34:04.289199 29035 net.cpp:408] label_2_3x5_data_3_split -> label_2_3x5_data_3_split_1
I1028 22:34:04.289233 29035 net.cpp:150] Setting up label_2_3x5_data_3_split
I1028 22:34:04.289237 29035 net.cpp:157] Top shape: 2 6 36 48 (20736)
I1028 22:34:04.289239 29035 net.cpp:157] Top shape: 2 6 36 48 (20736)
I1028 22:34:04.289240 29035 net.cpp:165] Memory required for data: 12985920
I1028 22:34:04.289242 29035 layer_factory.hpp:77] Creating layer label_2_5x7_data_4_split
I1028 22:34:04.289247 29035 net.cpp:100] Creating Layer label_2_5x7_data_4_split
I1028 22:34:04.289249 29035 net.cpp:434] label_2_5x7_data_4_split <- label_2_5x7
I1028 22:34:04.289252 29035 net.cpp:408] label_2_5x7_data_4_split -> label_2_5x7_data_4_split_0
I1028 22:34:04.289258 29035 net.cpp:408] label_2_5x7_data_4_split -> label_2_5x7_data_4_split_1
I1028 22:34:04.289284 29035 net.cpp:150] Setting up label_2_5x7_data_4_split
I1028 22:34:04.289288 29035 net.cpp:157] Top shape: 2 6 36 48 (20736)
I1028 22:34:04.289290 29035 net.cpp:157] Top shape: 2 6 36 48 (20736)
I1028 22:34:04.289291 29035 net.cpp:165] Memory required for data: 13151808
I1028 22:34:04.289294 29035 layer_factory.hpp:77] Creating layer label_3_3x5_data_5_split
I1028 22:34:04.289297 29035 net.cpp:100] Creating Layer label_3_3x5_data_5_split
I1028 22:34:04.289299 29035 net.cpp:434] label_3_3x5_data_5_split <- label_3_3x5
I1028 22:34:04.289301 29035 net.cpp:408] label_3_3x5_data_5_split -> label_3_3x5_data_5_split_0
I1028 22:34:04.289309 29035 net.cpp:408] label_3_3x5_data_5_split -> label_3_3x5_data_5_split_1
I1028 22:34:04.289335 29035 net.cpp:150] Setting up label_3_3x5_data_5_split
I1028 22:34:04.289338 29035 net.cpp:157] Top shape: 2 6 18 24 (5184)
I1028 22:34:04.289340 29035 net.cpp:157] Top shape: 2 6 18 24 (5184)
I1028 22:34:04.289342 29035 net.cpp:165] Memory required for data: 13193280
I1028 22:34:04.289345 29035 layer_factory.hpp:77] Creating layer label_3_5x7_data_6_split
I1028 22:34:04.289348 29035 net.cpp:100] Creating Layer label_3_5x7_data_6_split
I1028 22:34:04.289350 29035 net.cpp:434] label_3_5x7_data_6_split <- label_3_5x7
I1028 22:34:04.289353 29035 net.cpp:408] label_3_5x7_data_6_split -> label_3_5x7_data_6_split_0
I1028 22:34:04.289356 29035 net.cpp:408] label_3_5x7_data_6_split -> label_3_5x7_data_6_split_1
I1028 22:34:04.289383 29035 net.cpp:150] Setting up label_3_5x7_data_6_split
I1028 22:34:04.289386 29035 net.cpp:157] Top shape: 2 6 18 24 (5184)
I1028 22:34:04.289388 29035 net.cpp:157] Top shape: 2 6 18 24 (5184)
I1028 22:34:04.289391 29035 net.cpp:165] Memory required for data: 13234752
I1028 22:34:04.289392 29035 layer_factory.hpp:77] Creating layer label_4_3x5_data_7_split
I1028 22:34:04.289396 29035 net.cpp:100] Creating Layer label_4_3x5_data_7_split
I1028 22:34:04.289397 29035 net.cpp:434] label_4_3x5_data_7_split <- label_4_3x5
I1028 22:34:04.289402 29035 net.cpp:408] label_4_3x5_data_7_split -> label_4_3x5_data_7_split_0
I1028 22:34:04.289405 29035 net.cpp:408] label_4_3x5_data_7_split -> label_4_3x5_data_7_split_1
I1028 22:34:04.289430 29035 net.cpp:150] Setting up label_4_3x5_data_7_split
I1028 22:34:04.289433 29035 net.cpp:157] Top shape: 2 6 9 12 (1296)
I1028 22:34:04.289436 29035 net.cpp:157] Top shape: 2 6 9 12 (1296)
I1028 22:34:04.289438 29035 net.cpp:165] Memory required for data: 13245120
I1028 22:34:04.289439 29035 layer_factory.hpp:77] Creating layer conv1_1
I1028 22:34:04.289448 29035 net.cpp:100] Creating Layer conv1_1
I1028 22:34:04.289450 29035 net.cpp:434] conv1_1 <- data
I1028 22:34:04.289453 29035 net.cpp:408] conv1_1 -> conv1_1
I1028 22:34:04.293063 29035 net.cpp:150] Setting up conv1_1
I1028 22:34:04.293078 29035 net.cpp:157] Top shape: 2 64 576 768 (56623104)
I1028 22:34:04.293081 29035 net.cpp:165] Memory required for data: 239737536
I1028 22:34:04.293092 29035 layer_factory.hpp:77] Creating layer relu1_1
I1028 22:34:04.293098 29035 net.cpp:100] Creating Layer relu1_1
I1028 22:34:04.293102 29035 net.cpp:434] relu1_1 <- conv1_1
I1028 22:34:04.293105 29035 net.cpp:395] relu1_1 -> conv1_1 (in-place)
I1028 22:34:04.293615 29035 net.cpp:150] Setting up relu1_1
I1028 22:34:04.293624 29035 net.cpp:157] Top shape: 2 64 576 768 (56623104)
I1028 22:34:04.293627 29035 net.cpp:165] Memory required for data: 466229952
I1028 22:34:04.293628 29035 layer_factory.hpp:77] Creating layer conv1_2
I1028 22:34:04.293635 29035 net.cpp:100] Creating Layer conv1_2
I1028 22:34:04.293638 29035 net.cpp:434] conv1_2 <- conv1_1
I1028 22:34:04.293643 29035 net.cpp:408] conv1_2 -> conv1_2
I1028 22:34:04.295738 29035 net.cpp:150] Setting up conv1_2
I1028 22:34:04.295747 29035 net.cpp:157] Top shape: 2 64 576 768 (56623104)
I1028 22:34:04.295749 29035 net.cpp:165] Memory required for data: 692722368
I1028 22:34:04.295756 29035 layer_factory.hpp:77] Creating layer relu1_2
I1028 22:34:04.295761 29035 net.cpp:100] Creating Layer relu1_2
I1028 22:34:04.295763 29035 net.cpp:434] relu1_2 <- conv1_2
I1028 22:34:04.295770 29035 net.cpp:395] relu1_2 -> conv1_2 (in-place)
I1028 22:34:04.295928 29035 net.cpp:150] Setting up relu1_2
I1028 22:34:04.295933 29035 net.cpp:157] Top shape: 2 64 576 768 (56623104)
I1028 22:34:04.295934 29035 net.cpp:165] Memory required for data: 919214784
I1028 22:34:04.295936 29035 layer_factory.hpp:77] Creating layer pool1
I1028 22:34:04.295941 29035 net.cpp:100] Creating Layer pool1
I1028 22:34:04.295943 29035 net.cpp:434] pool1 <- conv1_2
I1028 22:34:04.295948 29035 net.cpp:408] pool1 -> pool1
I1028 22:34:04.295990 29035 net.cpp:150] Setting up pool1
I1028 22:34:04.295995 29035 net.cpp:157] Top shape: 2 64 288 384 (14155776)
I1028 22:34:04.295997 29035 net.cpp:165] Memory required for data: 975837888
I1028 22:34:04.296000 29035 layer_factory.hpp:77] Creating layer conv2_1
I1028 22:34:04.296003 29035 net.cpp:100] Creating Layer conv2_1
I1028 22:34:04.296005 29035 net.cpp:434] conv2_1 <- pool1
I1028 22:34:04.296010 29035 net.cpp:408] conv2_1 -> conv2_1
I1028 22:34:04.297443 29035 net.cpp:150] Setting up conv2_1
I1028 22:34:04.297452 29035 net.cpp:157] Top shape: 2 128 288 384 (28311552)
I1028 22:34:04.297454 29035 net.cpp:165] Memory required for data: 1089084096
I1028 22:34:04.297461 29035 layer_factory.hpp:77] Creating layer relu2_1
I1028 22:34:04.297466 29035 net.cpp:100] Creating Layer relu2_1
I1028 22:34:04.297468 29035 net.cpp:434] relu2_1 <- conv2_1
I1028 22:34:04.297473 29035 net.cpp:395] relu2_1 -> conv2_1 (in-place)
I1028 22:34:04.297629 29035 net.cpp:150] Setting up relu2_1
I1028 22:34:04.297636 29035 net.cpp:157] Top shape: 2 128 288 384 (28311552)
I1028 22:34:04.297636 29035 net.cpp:165] Memory required for data: 1202330304
I1028 22:34:04.297639 29035 layer_factory.hpp:77] Creating layer conv2_2
I1028 22:34:04.297646 29035 net.cpp:100] Creating Layer conv2_2
I1028 22:34:04.297647 29035 net.cpp:434] conv2_2 <- conv2_1
I1028 22:34:04.297650 29035 net.cpp:408] conv2_2 -> conv2_2
I1028 22:34:04.299967 29035 net.cpp:150] Setting up conv2_2
I1028 22:34:04.299978 29035 net.cpp:157] Top shape: 2 128 288 384 (28311552)
I1028 22:34:04.299980 29035 net.cpp:165] Memory required for data: 1315576512
I1028 22:34:04.299985 29035 layer_factory.hpp:77] Creating layer relu2_2
I1028 22:34:04.299993 29035 net.cpp:100] Creating Layer relu2_2
I1028 22:34:04.299996 29035 net.cpp:434] relu2_2 <- conv2_2
I1028 22:34:04.300000 29035 net.cpp:395] relu2_2 -> conv2_2 (in-place)
I1028 22:34:04.300165 29035 net.cpp:150] Setting up relu2_2
I1028 22:34:04.300171 29035 net.cpp:157] Top shape: 2 128 288 384 (28311552)
I1028 22:34:04.300173 29035 net.cpp:165] Memory required for data: 1428822720
I1028 22:34:04.300175 29035 layer_factory.hpp:77] Creating layer pool2
I1028 22:34:04.300179 29035 net.cpp:100] Creating Layer pool2
I1028 22:34:04.300181 29035 net.cpp:434] pool2 <- conv2_2
I1028 22:34:04.300189 29035 net.cpp:408] pool2 -> pool2
I1028 22:34:04.300232 29035 net.cpp:150] Setting up pool2
I1028 22:34:04.300236 29035 net.cpp:157] Top shape: 2 128 144 192 (7077888)
I1028 22:34:04.300237 29035 net.cpp:165] Memory required for data: 1457134272
I1028 22:34:04.300240 29035 layer_factory.hpp:77] Creating layer conv3_1
I1028 22:34:04.300246 29035 net.cpp:100] Creating Layer conv3_1
I1028 22:34:04.300248 29035 net.cpp:434] conv3_1 <- pool2
I1028 22:34:04.300252 29035 net.cpp:408] conv3_1 -> conv3_1
I1028 22:34:04.302078 29035 net.cpp:150] Setting up conv3_1
I1028 22:34:04.302089 29035 net.cpp:157] Top shape: 2 256 144 192 (14155776)
I1028 22:34:04.302091 29035 net.cpp:165] Memory required for data: 1513757376
I1028 22:34:04.302101 29035 layer_factory.hpp:77] Creating layer relu3_1
I1028 22:34:04.302106 29035 net.cpp:100] Creating Layer relu3_1
I1028 22:34:04.302109 29035 net.cpp:434] relu3_1 <- conv3_1
I1028 22:34:04.302112 29035 net.cpp:395] relu3_1 -> conv3_1 (in-place)
I1028 22:34:04.302283 29035 net.cpp:150] Setting up relu3_1
I1028 22:34:04.302289 29035 net.cpp:157] Top shape: 2 256 144 192 (14155776)
I1028 22:34:04.302290 29035 net.cpp:165] Memory required for data: 1570380480
I1028 22:34:04.302292 29035 layer_factory.hpp:77] Creating layer conv3_2
I1028 22:34:04.302299 29035 net.cpp:100] Creating Layer conv3_2
I1028 22:34:04.302301 29035 net.cpp:434] conv3_2 <- conv3_1
I1028 22:34:04.302305 29035 net.cpp:408] conv3_2 -> conv3_2
I1028 22:34:04.304846 29035 net.cpp:150] Setting up conv3_2
I1028 22:34:04.304857 29035 net.cpp:157] Top shape: 2 256 144 192 (14155776)
I1028 22:34:04.304859 29035 net.cpp:165] Memory required for data: 1627003584
I1028 22:34:04.304864 29035 layer_factory.hpp:77] Creating layer relu3_2
I1028 22:34:04.304868 29035 net.cpp:100] Creating Layer relu3_2
I1028 22:34:04.304870 29035 net.cpp:434] relu3_2 <- conv3_2
I1028 22:34:04.304874 29035 net.cpp:395] relu3_2 -> conv3_2 (in-place)
I1028 22:34:04.305033 29035 net.cpp:150] Setting up relu3_2
I1028 22:34:04.305039 29035 net.cpp:157] Top shape: 2 256 144 192 (14155776)
I1028 22:34:04.305042 29035 net.cpp:165] Memory required for data: 1683626688
I1028 22:34:04.305043 29035 layer_factory.hpp:77] Creating layer conv3_3
I1028 22:34:04.305048 29035 net.cpp:100] Creating Layer conv3_3
I1028 22:34:04.305052 29035 net.cpp:434] conv3_3 <- conv3_2
I1028 22:34:04.305055 29035 net.cpp:408] conv3_3 -> conv3_3
I1028 22:34:04.307569 29035 net.cpp:150] Setting up conv3_3
I1028 22:34:04.307579 29035 net.cpp:157] Top shape: 2 256 144 192 (14155776)
I1028 22:34:04.307580 29035 net.cpp:165] Memory required for data: 1740249792
I1028 22:34:04.307585 29035 layer_factory.hpp:77] Creating layer relu3_3
I1028 22:34:04.307590 29035 net.cpp:100] Creating Layer relu3_3
I1028 22:34:04.307592 29035 net.cpp:434] relu3_3 <- conv3_3
I1028 22:34:04.307600 29035 net.cpp:395] relu3_3 -> conv3_3 (in-place)
I1028 22:34:04.308080 29035 net.cpp:150] Setting up relu3_3
I1028 22:34:04.308091 29035 net.cpp:157] Top shape: 2 256 144 192 (14155776)
I1028 22:34:04.308094 29035 net.cpp:165] Memory required for data: 1796872896
I1028 22:34:04.308095 29035 layer_factory.hpp:77] Creating layer pool3
I1028 22:34:04.308100 29035 net.cpp:100] Creating Layer pool3
I1028 22:34:04.308102 29035 net.cpp:434] pool3 <- conv3_3
I1028 22:34:04.308106 29035 net.cpp:408] pool3 -> pool3
I1028 22:34:04.308149 29035 net.cpp:150] Setting up pool3
I1028 22:34:04.308153 29035 net.cpp:157] Top shape: 2 256 72 96 (3538944)
I1028 22:34:04.308156 29035 net.cpp:165] Memory required for data: 1811028672
I1028 22:34:04.308157 29035 layer_factory.hpp:77] Creating layer conv4_1
I1028 22:34:04.308162 29035 net.cpp:100] Creating Layer conv4_1
I1028 22:34:04.308164 29035 net.cpp:434] conv4_1 <- pool3
I1028 22:34:04.308169 29035 net.cpp:408] conv4_1 -> conv4_1
I1028 22:34:04.321966 29035 net.cpp:150] Setting up conv4_1
I1028 22:34:04.322005 29035 net.cpp:157] Top shape: 2 512 72 96 (7077888)
I1028 22:34:04.322010 29035 net.cpp:165] Memory required for data: 1839340224
I1028 22:34:04.322022 29035 layer_factory.hpp:77] Creating layer relu4_1
I1028 22:34:04.322036 29035 net.cpp:100] Creating Layer relu4_1
I1028 22:34:04.322042 29035 net.cpp:434] relu4_1 <- conv4_1
I1028 22:34:04.322053 29035 net.cpp:395] relu4_1 -> conv4_1 (in-place)
I1028 22:34:04.322404 29035 net.cpp:150] Setting up relu4_1
I1028 22:34:04.322412 29035 net.cpp:157] Top shape: 2 512 72 96 (7077888)
I1028 22:34:04.322414 29035 net.cpp:165] Memory required for data: 1867651776
I1028 22:34:04.322417 29035 layer_factory.hpp:77] Creating layer conv4_2
I1028 22:34:04.322427 29035 net.cpp:100] Creating Layer conv4_2
I1028 22:34:04.322428 29035 net.cpp:434] conv4_2 <- conv4_1
I1028 22:34:04.322433 29035 net.cpp:408] conv4_2 -> conv4_2
I1028 22:34:04.327893 29035 net.cpp:150] Setting up conv4_2
I1028 22:34:04.327913 29035 net.cpp:157] Top shape: 2 512 72 96 (7077888)
I1028 22:34:04.327914 29035 net.cpp:165] Memory required for data: 1895963328
I1028 22:34:04.327927 29035 layer_factory.hpp:77] Creating layer relu4_2
I1028 22:34:04.327935 29035 net.cpp:100] Creating Layer relu4_2
I1028 22:34:04.327939 29035 net.cpp:434] relu4_2 <- conv4_2
I1028 22:34:04.327945 29035 net.cpp:395] relu4_2 -> conv4_2 (in-place)
I1028 22:34:04.328097 29035 net.cpp:150] Setting up relu4_2
I1028 22:34:04.328104 29035 net.cpp:157] Top shape: 2 512 72 96 (7077888)
I1028 22:34:04.328105 29035 net.cpp:165] Memory required for data: 1924274880
I1028 22:34:04.328107 29035 layer_factory.hpp:77] Creating layer conv4_3
I1028 22:34:04.328114 29035 net.cpp:100] Creating Layer conv4_3
I1028 22:34:04.328116 29035 net.cpp:434] conv4_3 <- conv4_2
I1028 22:34:04.328120 29035 net.cpp:408] conv4_3 -> conv4_3
I1028 22:34:04.333488 29035 net.cpp:150] Setting up conv4_3
I1028 22:34:04.333509 29035 net.cpp:157] Top shape: 2 512 72 96 (7077888)
I1028 22:34:04.333513 29035 net.cpp:165] Memory required for data: 1952586432
I1028 22:34:04.333520 29035 layer_factory.hpp:77] Creating layer relu4_3
I1028 22:34:04.333528 29035 net.cpp:100] Creating Layer relu4_3
I1028 22:34:04.333531 29035 net.cpp:434] relu4_3 <- conv4_3
I1028 22:34:04.333536 29035 net.cpp:395] relu4_3 -> conv4_3 (in-place)
I1028 22:34:04.333685 29035 net.cpp:150] Setting up relu4_3
I1028 22:34:04.333691 29035 net.cpp:157] Top shape: 2 512 72 96 (7077888)
I1028 22:34:04.333693 29035 net.cpp:165] Memory required for data: 1980897984
I1028 22:34:04.333695 29035 layer_factory.hpp:77] Creating layer conv4_3_relu4_3_0_split
I1028 22:34:04.333701 29035 net.cpp:100] Creating Layer conv4_3_relu4_3_0_split
I1028 22:34:04.333703 29035 net.cpp:434] conv4_3_relu4_3_0_split <- conv4_3
I1028 22:34:04.333708 29035 net.cpp:408] conv4_3_relu4_3_0_split -> conv4_3_relu4_3_0_split_0
I1028 22:34:04.333711 29035 net.cpp:408] conv4_3_relu4_3_0_split -> conv4_3_relu4_3_0_split_1
I1028 22:34:04.333751 29035 net.cpp:150] Setting up conv4_3_relu4_3_0_split
I1028 22:34:04.333756 29035 net.cpp:157] Top shape: 2 512 72 96 (7077888)
I1028 22:34:04.333758 29035 net.cpp:157] Top shape: 2 512 72 96 (7077888)
I1028 22:34:04.333760 29035 net.cpp:165] Memory required for data: 2037521088
I1028 22:34:04.333762 29035 layer_factory.hpp:77] Creating layer loss1_conv1
I1028 22:34:04.333777 29035 net.cpp:100] Creating Layer loss1_conv1
I1028 22:34:04.333781 29035 net.cpp:434] loss1_conv1 <- conv4_3_relu4_3_0_split_0
I1028 22:34:04.333784 29035 net.cpp:408] loss1_conv1 -> loss1_conv1
I1028 22:34:04.356166 29035 net.cpp:150] Setting up loss1_conv1
I1028 22:34:04.356191 29035 net.cpp:157] Top shape: 2 512 72 96 (7077888)
I1028 22:34:04.356194 29035 net.cpp:165] Memory required for data: 2065832640
I1028 22:34:04.356202 29035 layer_factory.hpp:77] Creating layer loss_relu1
I1028 22:34:04.356214 29035 net.cpp:100] Creating Layer loss_relu1
I1028 22:34:04.356217 29035 net.cpp:434] loss_relu1 <- loss1_conv1
I1028 22:34:04.356226 29035 net.cpp:395] loss_relu1 -> loss1_conv1 (in-place)
I1028 22:34:04.356377 29035 net.cpp:150] Setting up loss_relu1
I1028 22:34:04.356385 29035 net.cpp:157] Top shape: 2 512 72 96 (7077888)
I1028 22:34:04.356389 29035 net.cpp:165] Memory required for data: 2094144192
I1028 22:34:04.356390 29035 layer_factory.hpp:77] Creating layer loss1_conv1_loss_relu1_0_split
I1028 22:34:04.356396 29035 net.cpp:100] Creating Layer loss1_conv1_loss_relu1_0_split
I1028 22:34:04.356400 29035 net.cpp:434] loss1_conv1_loss_relu1_0_split <- loss1_conv1
I1028 22:34:04.356403 29035 net.cpp:408] loss1_conv1_loss_relu1_0_split -> loss1_conv1_loss_relu1_0_split_0
I1028 22:34:04.356410 29035 net.cpp:408] loss1_conv1_loss_relu1_0_split -> loss1_conv1_loss_relu1_0_split_1
I1028 22:34:04.356451 29035 net.cpp:150] Setting up loss1_conv1_loss_relu1_0_split
I1028 22:34:04.356456 29035 net.cpp:157] Top shape: 2 512 72 96 (7077888)
I1028 22:34:04.356458 29035 net.cpp:157] Top shape: 2 512 72 96 (7077888)
I1028 22:34:04.356461 29035 net.cpp:165] Memory required for data: 2150767296
I1028 22:34:04.356462 29035 layer_factory.hpp:77] Creating layer LFCN_1_3x5
I1028 22:34:04.356472 29035 net.cpp:100] Creating Layer LFCN_1_3x5
I1028 22:34:04.356475 29035 net.cpp:434] LFCN_1_3x5 <- loss1_conv1_loss_relu1_0_split_0
I1028 22:34:04.356482 29035 net.cpp:408] LFCN_1_3x5 -> LFCN_1_3x5
I1028 22:34:04.358017 29035 net.cpp:150] Setting up LFCN_1_3x5
I1028 22:34:04.358029 29035 net.cpp:157] Top shape: 2 7 72 96 (96768)
I1028 22:34:04.358032 29035 net.cpp:165] Memory required for data: 2151154368
I1028 22:34:04.358036 29035 layer_factory.hpp:77] Creating layer LFCN_1_3x5_LFCN_1_3x5_0_split
I1028 22:34:04.358042 29035 net.cpp:100] Creating Layer LFCN_1_3x5_LFCN_1_3x5_0_split
I1028 22:34:04.358045 29035 net.cpp:434] LFCN_1_3x5_LFCN_1_3x5_0_split <- LFCN_1_3x5
I1028 22:34:04.358050 29035 net.cpp:408] LFCN_1_3x5_LFCN_1_3x5_0_split -> LFCN_1_3x5_LFCN_1_3x5_0_split_0
I1028 22:34:04.358055 29035 net.cpp:408] LFCN_1_3x5_LFCN_1_3x5_0_split -> LFCN_1_3x5_LFCN_1_3x5_0_split_1
I1028 22:34:04.358094 29035 net.cpp:150] Setting up LFCN_1_3x5_LFCN_1_3x5_0_split
I1028 22:34:04.358099 29035 net.cpp:157] Top shape: 2 7 72 96 (96768)
I1028 22:34:04.358101 29035 net.cpp:157] Top shape: 2 7 72 96 (96768)
I1028 22:34:04.358103 29035 net.cpp:165] Memory required for data: 2151928512
I1028 22:34:04.358105 29035 layer_factory.hpp:77] Creating layer detection_loss_1_3x5
I1028 22:34:04.358111 29035 net.cpp:100] Creating Layer detection_loss_1_3x5
I1028 22:34:04.358114 29035 net.cpp:434] detection_loss_1_3x5 <- LFCN_1_3x5_LFCN_1_3x5_0_split_0
I1028 22:34:04.358116 29035 net.cpp:434] detection_loss_1_3x5 <- label_1_3x5_data_1_split_0
I1028 22:34:04.358121 29035 net.cpp:408] detection_loss_1_3x5 -> loss_1_3x5
I1028 22:34:04.358129 29035 layer_factory.hpp:77] Creating layer detection_loss_1_3x5
I1028 22:34:04.358456 29035 net.cpp:150] Setting up detection_loss_1_3x5
I1028 22:34:04.358464 29035 net.cpp:157] Top shape: 1 1 1 2 (2)
I1028 22:34:04.358465 29035 net.cpp:160]     with loss weight 0.9
I1028 22:34:04.358475 29035 net.cpp:165] Memory required for data: 2151928520
I1028 22:34:04.358477 29035 layer_factory.hpp:77] Creating layer detection_accuracy_1_3x5
I1028 22:34:04.358484 29035 net.cpp:100] Creating Layer detection_accuracy_1_3x5
I1028 22:34:04.358486 29035 net.cpp:434] detection_accuracy_1_3x5 <- LFCN_1_3x5_LFCN_1_3x5_0_split_1
I1028 22:34:04.358490 29035 net.cpp:434] detection_accuracy_1_3x5 <- label_1_3x5_data_1_split_1
I1028 22:34:04.358494 29035 net.cpp:408] detection_accuracy_1_3x5 -> accuracy_1_3x5
I1028 22:34:04.358500 29035 net.cpp:408] detection_accuracy_1_3x5 -> boxiou_1_3x5
I1028 22:34:04.358536 29035 net.cpp:150] Setting up detection_accuracy_1_3x5
I1028 22:34:04.358539 29035 net.cpp:157] Top shape: 1 1 1 2 (2)
I1028 22:34:04.358542 29035 net.cpp:157] Top shape: 1 1 1 1 (1)
I1028 22:34:04.358543 29035 net.cpp:165] Memory required for data: 2151928532
I1028 22:34:04.358546 29035 layer_factory.hpp:77] Creating layer LFCN_1_5x7
I1028 22:34:04.358552 29035 net.cpp:100] Creating Layer LFCN_1_5x7
I1028 22:34:04.358556 29035 net.cpp:434] LFCN_1_5x7 <- loss1_conv1_loss_relu1_0_split_1
I1028 22:34:04.358561 29035 net.cpp:408] LFCN_1_5x7 -> LFCN_1_5x7
I1028 22:34:04.361439 29035 net.cpp:150] Setting up LFCN_1_5x7
I1028 22:34:04.361449 29035 net.cpp:157] Top shape: 2 7 72 96 (96768)
I1028 22:34:04.361451 29035 net.cpp:165] Memory required for data: 2152315604
I1028 22:34:04.361456 29035 layer_factory.hpp:77] Creating layer LFCN_1_5x7_LFCN_1_5x7_0_split
I1028 22:34:04.361462 29035 net.cpp:100] Creating Layer LFCN_1_5x7_LFCN_1_5x7_0_split
I1028 22:34:04.361465 29035 net.cpp:434] LFCN_1_5x7_LFCN_1_5x7_0_split <- LFCN_1_5x7
I1028 22:34:04.361469 29035 net.cpp:408] LFCN_1_5x7_LFCN_1_5x7_0_split -> LFCN_1_5x7_LFCN_1_5x7_0_split_0
I1028 22:34:04.361474 29035 net.cpp:408] LFCN_1_5x7_LFCN_1_5x7_0_split -> LFCN_1_5x7_LFCN_1_5x7_0_split_1
I1028 22:34:04.361515 29035 net.cpp:150] Setting up LFCN_1_5x7_LFCN_1_5x7_0_split
I1028 22:34:04.361518 29035 net.cpp:157] Top shape: 2 7 72 96 (96768)
I1028 22:34:04.361521 29035 net.cpp:157] Top shape: 2 7 72 96 (96768)
I1028 22:34:04.361522 29035 net.cpp:165] Memory required for data: 2153089748
I1028 22:34:04.361524 29035 layer_factory.hpp:77] Creating layer detection_loss_1_5x7
I1028 22:34:04.361531 29035 net.cpp:100] Creating Layer detection_loss_1_5x7
I1028 22:34:04.361532 29035 net.cpp:434] detection_loss_1_5x7 <- LFCN_1_5x7_LFCN_1_5x7_0_split_0
I1028 22:34:04.361536 29035 net.cpp:434] detection_loss_1_5x7 <- label_1_5x7_data_2_split_0
I1028 22:34:04.361541 29035 net.cpp:408] detection_loss_1_5x7 -> loss_1_5x7
I1028 22:34:04.361546 29035 layer_factory.hpp:77] Creating layer detection_loss_1_5x7
I1028 22:34:04.362224 29035 net.cpp:150] Setting up detection_loss_1_5x7
I1028 22:34:04.362232 29035 net.cpp:157] Top shape: 1 1 1 2 (2)
I1028 22:34:04.362234 29035 net.cpp:160]     with loss weight 0.9
I1028 22:34:04.362239 29035 net.cpp:165] Memory required for data: 2153089756
I1028 22:34:04.362241 29035 layer_factory.hpp:77] Creating layer detection_accuracy_1_5x7
I1028 22:34:04.362246 29035 net.cpp:100] Creating Layer detection_accuracy_1_5x7
I1028 22:34:04.362249 29035 net.cpp:434] detection_accuracy_1_5x7 <- LFCN_1_5x7_LFCN_1_5x7_0_split_1
I1028 22:34:04.362253 29035 net.cpp:434] detection_accuracy_1_5x7 <- label_1_5x7_data_2_split_1
I1028 22:34:04.362257 29035 net.cpp:408] detection_accuracy_1_5x7 -> accuracy_1_5x7
I1028 22:34:04.362262 29035 net.cpp:408] detection_accuracy_1_5x7 -> boxiou_1_5x7
I1028 22:34:04.362300 29035 net.cpp:150] Setting up detection_accuracy_1_5x7
I1028 22:34:04.362303 29035 net.cpp:157] Top shape: 1 1 1 2 (2)
I1028 22:34:04.362306 29035 net.cpp:157] Top shape: 1 1 1 1 (1)
I1028 22:34:04.362308 29035 net.cpp:165] Memory required for data: 2153089768
I1028 22:34:04.362309 29035 layer_factory.hpp:77] Creating layer pool4
I1028 22:34:04.362314 29035 net.cpp:100] Creating Layer pool4
I1028 22:34:04.362316 29035 net.cpp:434] pool4 <- conv4_3_relu4_3_0_split_1
I1028 22:34:04.362321 29035 net.cpp:408] pool4 -> pool4
I1028 22:34:04.362354 29035 net.cpp:150] Setting up pool4
I1028 22:34:04.362360 29035 net.cpp:157] Top shape: 2 512 36 48 (1769472)
I1028 22:34:04.362360 29035 net.cpp:165] Memory required for data: 2160167656
I1028 22:34:04.362362 29035 layer_factory.hpp:77] Creating layer conv5_1
I1028 22:34:04.362367 29035 net.cpp:100] Creating Layer conv5_1
I1028 22:34:04.362370 29035 net.cpp:434] conv5_1 <- pool4
I1028 22:34:04.362375 29035 net.cpp:408] conv5_1 -> conv5_1
I1028 22:34:04.367208 29035 net.cpp:150] Setting up conv5_1
I1028 22:34:04.367223 29035 net.cpp:157] Top shape: 2 512 36 48 (1769472)
I1028 22:34:04.367225 29035 net.cpp:165] Memory required for data: 2167245544
I1028 22:34:04.367231 29035 layer_factory.hpp:77] Creating layer relu5_1
I1028 22:34:04.367238 29035 net.cpp:100] Creating Layer relu5_1
I1028 22:34:04.367240 29035 net.cpp:434] relu5_1 <- conv5_1
I1028 22:34:04.367246 29035 net.cpp:395] relu5_1 -> conv5_1 (in-place)
I1028 22:34:04.367408 29035 net.cpp:150] Setting up relu5_1
I1028 22:34:04.367414 29035 net.cpp:157] Top shape: 2 512 36 48 (1769472)
I1028 22:34:04.367416 29035 net.cpp:165] Memory required for data: 2174323432
I1028 22:34:04.367419 29035 layer_factory.hpp:77] Creating layer conv5_2
I1028 22:34:04.367425 29035 net.cpp:100] Creating Layer conv5_2
I1028 22:34:04.367427 29035 net.cpp:434] conv5_2 <- conv5_1
I1028 22:34:04.367432 29035 net.cpp:408] conv5_2 -> conv5_2
I1028 22:34:04.372727 29035 net.cpp:150] Setting up conv5_2
I1028 22:34:04.372755 29035 net.cpp:157] Top shape: 2 512 36 48 (1769472)
I1028 22:34:04.372756 29035 net.cpp:165] Memory required for data: 2181401320
I1028 22:34:04.372764 29035 layer_factory.hpp:77] Creating layer relu5_2
I1028 22:34:04.372773 29035 net.cpp:100] Creating Layer relu5_2
I1028 22:34:04.372787 29035 net.cpp:434] relu5_2 <- conv5_2
I1028 22:34:04.372794 29035 net.cpp:395] relu5_2 -> conv5_2 (in-place)
I1028 22:34:04.372958 29035 net.cpp:150] Setting up relu5_2
I1028 22:34:04.372967 29035 net.cpp:157] Top shape: 2 512 36 48 (1769472)
I1028 22:34:04.372969 29035 net.cpp:165] Memory required for data: 2188479208
I1028 22:34:04.372972 29035 layer_factory.hpp:77] Creating layer conv5_3
I1028 22:34:04.372979 29035 net.cpp:100] Creating Layer conv5_3
I1028 22:34:04.372982 29035 net.cpp:434] conv5_3 <- conv5_2
I1028 22:34:04.372987 29035 net.cpp:408] conv5_3 -> conv5_3
I1028 22:34:04.378926 29035 net.cpp:150] Setting up conv5_3
I1028 22:34:04.378950 29035 net.cpp:157] Top shape: 2 512 36 48 (1769472)
I1028 22:34:04.378953 29035 net.cpp:165] Memory required for data: 2195557096
I1028 22:34:04.378962 29035 layer_factory.hpp:77] Creating layer relu5_3
I1028 22:34:04.378969 29035 net.cpp:100] Creating Layer relu5_3
I1028 22:34:04.378973 29035 net.cpp:434] relu5_3 <- conv5_3
I1028 22:34:04.378980 29035 net.cpp:395] relu5_3 -> conv5_3 (in-place)
I1028 22:34:04.379142 29035 net.cpp:150] Setting up relu5_3
I1028 22:34:04.379149 29035 net.cpp:157] Top shape: 2 512 36 48 (1769472)
I1028 22:34:04.379151 29035 net.cpp:165] Memory required for data: 2202634984
I1028 22:34:04.379153 29035 layer_factory.hpp:77] Creating layer conv5_3_relu5_3_0_split
I1028 22:34:04.379158 29035 net.cpp:100] Creating Layer conv5_3_relu5_3_0_split
I1028 22:34:04.379168 29035 net.cpp:434] conv5_3_relu5_3_0_split <- conv5_3
I1028 22:34:04.379173 29035 net.cpp:408] conv5_3_relu5_3_0_split -> conv5_3_relu5_3_0_split_0
I1028 22:34:04.379179 29035 net.cpp:408] conv5_3_relu5_3_0_split -> conv5_3_relu5_3_0_split_1
I1028 22:34:04.379182 29035 net.cpp:408] conv5_3_relu5_3_0_split -> conv5_3_relu5_3_0_split_2
I1028 22:34:04.379236 29035 net.cpp:150] Setting up conv5_3_relu5_3_0_split
I1028 22:34:04.379242 29035 net.cpp:157] Top shape: 2 512 36 48 (1769472)
I1028 22:34:04.379245 29035 net.cpp:157] Top shape: 2 512 36 48 (1769472)
I1028 22:34:04.379247 29035 net.cpp:157] Top shape: 2 512 36 48 (1769472)
I1028 22:34:04.379248 29035 net.cpp:165] Memory required for data: 2223868648
I1028 22:34:04.379251 29035 layer_factory.hpp:77] Creating layer LFCN_2_3x5
I1028 22:34:04.379261 29035 net.cpp:100] Creating Layer LFCN_2_3x5
I1028 22:34:04.379263 29035 net.cpp:434] LFCN_2_3x5 <- conv5_3_relu5_3_0_split_0
I1028 22:34:04.379268 29035 net.cpp:408] LFCN_2_3x5 -> LFCN_2_3x5
I1028 22:34:04.381671 29035 net.cpp:150] Setting up LFCN_2_3x5
I1028 22:34:04.381685 29035 net.cpp:157] Top shape: 2 7 36 48 (24192)
I1028 22:34:04.381686 29035 net.cpp:165] Memory required for data: 2223965416
I1028 22:34:04.381700 29035 layer_factory.hpp:77] Creating layer LFCN_2_3x5_LFCN_2_3x5_0_split
I1028 22:34:04.381705 29035 net.cpp:100] Creating Layer LFCN_2_3x5_LFCN_2_3x5_0_split
I1028 22:34:04.381708 29035 net.cpp:434] LFCN_2_3x5_LFCN_2_3x5_0_split <- LFCN_2_3x5
I1028 22:34:04.381712 29035 net.cpp:408] LFCN_2_3x5_LFCN_2_3x5_0_split -> LFCN_2_3x5_LFCN_2_3x5_0_split_0
I1028 22:34:04.381721 29035 net.cpp:408] LFCN_2_3x5_LFCN_2_3x5_0_split -> LFCN_2_3x5_LFCN_2_3x5_0_split_1
I1028 22:34:04.381760 29035 net.cpp:150] Setting up LFCN_2_3x5_LFCN_2_3x5_0_split
I1028 22:34:04.381767 29035 net.cpp:157] Top shape: 2 7 36 48 (24192)
I1028 22:34:04.381768 29035 net.cpp:157] Top shape: 2 7 36 48 (24192)
I1028 22:34:04.381770 29035 net.cpp:165] Memory required for data: 2224158952
I1028 22:34:04.381772 29035 layer_factory.hpp:77] Creating layer detection_loss_2_3x5
I1028 22:34:04.381779 29035 net.cpp:100] Creating Layer detection_loss_2_3x5
I1028 22:34:04.381781 29035 net.cpp:434] detection_loss_2_3x5 <- LFCN_2_3x5_LFCN_2_3x5_0_split_0
I1028 22:34:04.381784 29035 net.cpp:434] detection_loss_2_3x5 <- label_2_3x5_data_3_split_0
I1028 22:34:04.381789 29035 net.cpp:408] detection_loss_2_3x5 -> loss_2_3x5
I1028 22:34:04.381796 29035 layer_factory.hpp:77] Creating layer detection_loss_2_3x5
I1028 22:34:04.382125 29035 net.cpp:150] Setting up detection_loss_2_3x5
I1028 22:34:04.382134 29035 net.cpp:157] Top shape: 1 1 1 2 (2)
I1028 22:34:04.382136 29035 net.cpp:160]     with loss weight 1
I1028 22:34:04.382146 29035 net.cpp:165] Memory required for data: 2224158960
I1028 22:34:04.382148 29035 layer_factory.hpp:77] Creating layer detection_accuracy_2_3x5
I1028 22:34:04.382154 29035 net.cpp:100] Creating Layer detection_accuracy_2_3x5
I1028 22:34:04.382156 29035 net.cpp:434] detection_accuracy_2_3x5 <- LFCN_2_3x5_LFCN_2_3x5_0_split_1
I1028 22:34:04.382161 29035 net.cpp:434] detection_accuracy_2_3x5 <- label_2_3x5_data_3_split_1
I1028 22:34:04.382165 29035 net.cpp:408] detection_accuracy_2_3x5 -> accuracy_2_3x5
I1028 22:34:04.382174 29035 net.cpp:408] detection_accuracy_2_3x5 -> boxiou_2_3x5
I1028 22:34:04.382225 29035 net.cpp:150] Setting up detection_accuracy_2_3x5
I1028 22:34:04.382230 29035 net.cpp:157] Top shape: 1 1 1 2 (2)
I1028 22:34:04.382232 29035 net.cpp:157] Top shape: 1 1 1 1 (1)
I1028 22:34:04.382235 29035 net.cpp:165] Memory required for data: 2224158972
I1028 22:34:04.382236 29035 layer_factory.hpp:77] Creating layer LFCN_2_5x7
I1028 22:34:04.382243 29035 net.cpp:100] Creating Layer LFCN_2_5x7
I1028 22:34:04.382246 29035 net.cpp:434] LFCN_2_5x7 <- conv5_3_relu5_3_0_split_1
I1028 22:34:04.382251 29035 net.cpp:408] LFCN_2_5x7 -> LFCN_2_5x7
I1028 22:34:04.384227 29035 net.cpp:150] Setting up LFCN_2_5x7
I1028 22:34:04.384239 29035 net.cpp:157] Top shape: 2 7 36 48 (24192)
I1028 22:34:04.384241 29035 net.cpp:165] Memory required for data: 2224255740
I1028 22:34:04.384246 29035 layer_factory.hpp:77] Creating layer LFCN_2_5x7_LFCN_2_5x7_0_split
I1028 22:34:04.384253 29035 net.cpp:100] Creating Layer LFCN_2_5x7_LFCN_2_5x7_0_split
I1028 22:34:04.384255 29035 net.cpp:434] LFCN_2_5x7_LFCN_2_5x7_0_split <- LFCN_2_5x7
I1028 22:34:04.384261 29035 net.cpp:408] LFCN_2_5x7_LFCN_2_5x7_0_split -> LFCN_2_5x7_LFCN_2_5x7_0_split_0
I1028 22:34:04.384266 29035 net.cpp:408] LFCN_2_5x7_LFCN_2_5x7_0_split -> LFCN_2_5x7_LFCN_2_5x7_0_split_1
I1028 22:34:04.384308 29035 net.cpp:150] Setting up LFCN_2_5x7_LFCN_2_5x7_0_split
I1028 22:34:04.384315 29035 net.cpp:157] Top shape: 2 7 36 48 (24192)
I1028 22:34:04.384316 29035 net.cpp:157] Top shape: 2 7 36 48 (24192)
I1028 22:34:04.384318 29035 net.cpp:165] Memory required for data: 2224449276
I1028 22:34:04.384320 29035 layer_factory.hpp:77] Creating layer detection_loss_2_5x7
I1028 22:34:04.384325 29035 net.cpp:100] Creating Layer detection_loss_2_5x7
I1028 22:34:04.384327 29035 net.cpp:434] detection_loss_2_5x7 <- LFCN_2_5x7_LFCN_2_5x7_0_split_0
I1028 22:34:04.384330 29035 net.cpp:434] detection_loss_2_5x7 <- label_2_5x7_data_4_split_0
I1028 22:34:04.384335 29035 net.cpp:408] detection_loss_2_5x7 -> loss_2_5x7
I1028 22:34:04.384341 29035 layer_factory.hpp:77] Creating layer detection_loss_2_5x7
I1028 22:34:04.384662 29035 net.cpp:150] Setting up detection_loss_2_5x7
I1028 22:34:04.384670 29035 net.cpp:157] Top shape: 1 1 1 2 (2)
I1028 22:34:04.384672 29035 net.cpp:160]     with loss weight 1
I1028 22:34:04.384677 29035 net.cpp:165] Memory required for data: 2224449284
I1028 22:34:04.384680 29035 layer_factory.hpp:77] Creating layer detection_accuracy_2_5x7
I1028 22:34:04.384685 29035 net.cpp:100] Creating Layer detection_accuracy_2_5x7
I1028 22:34:04.384687 29035 net.cpp:434] detection_accuracy_2_5x7 <- LFCN_2_5x7_LFCN_2_5x7_0_split_1
I1028 22:34:04.384690 29035 net.cpp:434] detection_accuracy_2_5x7 <- label_2_5x7_data_4_split_1
I1028 22:34:04.384696 29035 net.cpp:408] detection_accuracy_2_5x7 -> accuracy_2_5x7
I1028 22:34:04.384701 29035 net.cpp:408] detection_accuracy_2_5x7 -> boxiou_2_5x7
I1028 22:34:04.384738 29035 net.cpp:150] Setting up detection_accuracy_2_5x7
I1028 22:34:04.384744 29035 net.cpp:157] Top shape: 1 1 1 2 (2)
I1028 22:34:04.384747 29035 net.cpp:157] Top shape: 1 1 1 1 (1)
I1028 22:34:04.384748 29035 net.cpp:165] Memory required for data: 2224449296
I1028 22:34:04.384750 29035 layer_factory.hpp:77] Creating layer pool5
I1028 22:34:04.384754 29035 net.cpp:100] Creating Layer pool5
I1028 22:34:04.384757 29035 net.cpp:434] pool5 <- conv5_3_relu5_3_0_split_2
I1028 22:34:04.384760 29035 net.cpp:408] pool5 -> pool5
I1028 22:34:04.384806 29035 net.cpp:150] Setting up pool5
I1028 22:34:04.384812 29035 net.cpp:157] Top shape: 2 512 18 24 (442368)
I1028 22:34:04.384814 29035 net.cpp:165] Memory required for data: 2226218768
I1028 22:34:04.384815 29035 layer_factory.hpp:77] Creating layer conv6_1
I1028 22:34:04.384824 29035 net.cpp:100] Creating Layer conv6_1
I1028 22:34:04.384826 29035 net.cpp:434] conv6_1 <- pool5
I1028 22:34:04.384831 29035 net.cpp:408] conv6_1 -> conv6_1
I1028 22:34:04.407338 29035 net.cpp:150] Setting up conv6_1
I1028 22:34:04.407363 29035 net.cpp:157] Top shape: 2 512 18 24 (442368)
I1028 22:34:04.407366 29035 net.cpp:165] Memory required for data: 2227988240
I1028 22:34:04.407375 29035 layer_factory.hpp:77] Creating layer relu6_1
I1028 22:34:04.407383 29035 net.cpp:100] Creating Layer relu6_1
I1028 22:34:04.407387 29035 net.cpp:434] relu6_1 <- conv6_1
I1028 22:34:04.407393 29035 net.cpp:395] relu6_1 -> conv6_1 (in-place)
I1028 22:34:04.407905 29035 net.cpp:150] Setting up relu6_1
I1028 22:34:04.407917 29035 net.cpp:157] Top shape: 2 512 18 24 (442368)
I1028 22:34:04.407918 29035 net.cpp:165] Memory required for data: 2229757712
I1028 22:34:04.407922 29035 layer_factory.hpp:77] Creating layer conv6_1_relu6_1_0_split
I1028 22:34:04.407927 29035 net.cpp:100] Creating Layer conv6_1_relu6_1_0_split
I1028 22:34:04.407929 29035 net.cpp:434] conv6_1_relu6_1_0_split <- conv6_1
I1028 22:34:04.407933 29035 net.cpp:408] conv6_1_relu6_1_0_split -> conv6_1_relu6_1_0_split_0
I1028 22:34:04.407940 29035 net.cpp:408] conv6_1_relu6_1_0_split -> conv6_1_relu6_1_0_split_1
I1028 22:34:04.407946 29035 net.cpp:408] conv6_1_relu6_1_0_split -> conv6_1_relu6_1_0_split_2
I1028 22:34:04.408001 29035 net.cpp:150] Setting up conv6_1_relu6_1_0_split
I1028 22:34:04.408007 29035 net.cpp:157] Top shape: 2 512 18 24 (442368)
I1028 22:34:04.408010 29035 net.cpp:157] Top shape: 2 512 18 24 (442368)
I1028 22:34:04.408012 29035 net.cpp:157] Top shape: 2 512 18 24 (442368)
I1028 22:34:04.408013 29035 net.cpp:165] Memory required for data: 2235066128
I1028 22:34:04.408015 29035 layer_factory.hpp:77] Creating layer LFCN_3_3x5
I1028 22:34:04.408027 29035 net.cpp:100] Creating Layer LFCN_3_3x5
I1028 22:34:04.408030 29035 net.cpp:434] LFCN_3_3x5 <- conv6_1_relu6_1_0_split_0
I1028 22:34:04.408035 29035 net.cpp:408] LFCN_3_3x5 -> LFCN_3_3x5
I1028 22:34:04.409538 29035 net.cpp:150] Setting up LFCN_3_3x5
I1028 22:34:04.409550 29035 net.cpp:157] Top shape: 2 7 18 24 (6048)
I1028 22:34:04.409552 29035 net.cpp:165] Memory required for data: 2235090320
I1028 22:34:04.409557 29035 layer_factory.hpp:77] Creating layer LFCN_3_3x5_LFCN_3_3x5_0_split
I1028 22:34:04.409575 29035 net.cpp:100] Creating Layer LFCN_3_3x5_LFCN_3_3x5_0_split
I1028 22:34:04.409579 29035 net.cpp:434] LFCN_3_3x5_LFCN_3_3x5_0_split <- LFCN_3_3x5
I1028 22:34:04.409584 29035 net.cpp:408] LFCN_3_3x5_LFCN_3_3x5_0_split -> LFCN_3_3x5_LFCN_3_3x5_0_split_0
I1028 22:34:04.409588 29035 net.cpp:408] LFCN_3_3x5_LFCN_3_3x5_0_split -> LFCN_3_3x5_LFCN_3_3x5_0_split_1
I1028 22:34:04.409628 29035 net.cpp:150] Setting up LFCN_3_3x5_LFCN_3_3x5_0_split
I1028 22:34:04.409634 29035 net.cpp:157] Top shape: 2 7 18 24 (6048)
I1028 22:34:04.409636 29035 net.cpp:157] Top shape: 2 7 18 24 (6048)
I1028 22:34:04.409638 29035 net.cpp:165] Memory required for data: 2235138704
I1028 22:34:04.409641 29035 layer_factory.hpp:77] Creating layer detection_loss_3_3x5
I1028 22:34:04.409647 29035 net.cpp:100] Creating Layer detection_loss_3_3x5
I1028 22:34:04.409649 29035 net.cpp:434] detection_loss_3_3x5 <- LFCN_3_3x5_LFCN_3_3x5_0_split_0
I1028 22:34:04.409652 29035 net.cpp:434] detection_loss_3_3x5 <- label_3_3x5_data_5_split_0
I1028 22:34:04.409657 29035 net.cpp:408] detection_loss_3_3x5 -> loss_3_3x5
I1028 22:34:04.409665 29035 layer_factory.hpp:77] Creating layer detection_loss_3_3x5
I1028 22:34:04.409981 29035 net.cpp:150] Setting up detection_loss_3_3x5
I1028 22:34:04.409989 29035 net.cpp:157] Top shape: 1 1 1 2 (2)
I1028 22:34:04.409991 29035 net.cpp:160]     with loss weight 1
I1028 22:34:04.410001 29035 net.cpp:165] Memory required for data: 2235138712
I1028 22:34:04.410002 29035 layer_factory.hpp:77] Creating layer detection_accuracy_3_3x5
I1028 22:34:04.410007 29035 net.cpp:100] Creating Layer detection_accuracy_3_3x5
I1028 22:34:04.410009 29035 net.cpp:434] detection_accuracy_3_3x5 <- LFCN_3_3x5_LFCN_3_3x5_0_split_1
I1028 22:34:04.410013 29035 net.cpp:434] detection_accuracy_3_3x5 <- label_3_3x5_data_5_split_1
I1028 22:34:04.410022 29035 net.cpp:408] detection_accuracy_3_3x5 -> accuracy_3_3x5
I1028 22:34:04.410027 29035 net.cpp:408] detection_accuracy_3_3x5 -> boxiou_3_3x5
I1028 22:34:04.410066 29035 net.cpp:150] Setting up detection_accuracy_3_3x5
I1028 22:34:04.410073 29035 net.cpp:157] Top shape: 1 1 1 2 (2)
I1028 22:34:04.410074 29035 net.cpp:157] Top shape: 1 1 1 1 (1)
I1028 22:34:04.410076 29035 net.cpp:165] Memory required for data: 2235138724
I1028 22:34:04.410079 29035 layer_factory.hpp:77] Creating layer LFCN_3_5x7
I1028 22:34:04.410085 29035 net.cpp:100] Creating Layer LFCN_3_5x7
I1028 22:34:04.410089 29035 net.cpp:434] LFCN_3_5x7 <- conv6_1_relu6_1_0_split_1
I1028 22:34:04.410094 29035 net.cpp:408] LFCN_3_5x7 -> LFCN_3_5x7
I1028 22:34:04.412066 29035 net.cpp:150] Setting up LFCN_3_5x7
I1028 22:34:04.412080 29035 net.cpp:157] Top shape: 2 7 18 24 (6048)
I1028 22:34:04.412081 29035 net.cpp:165] Memory required for data: 2235162916
I1028 22:34:04.412086 29035 layer_factory.hpp:77] Creating layer LFCN_3_5x7_LFCN_3_5x7_0_split
I1028 22:34:04.412091 29035 net.cpp:100] Creating Layer LFCN_3_5x7_LFCN_3_5x7_0_split
I1028 22:34:04.412093 29035 net.cpp:434] LFCN_3_5x7_LFCN_3_5x7_0_split <- LFCN_3_5x7
I1028 22:34:04.412097 29035 net.cpp:408] LFCN_3_5x7_LFCN_3_5x7_0_split -> LFCN_3_5x7_LFCN_3_5x7_0_split_0
I1028 22:34:04.412103 29035 net.cpp:408] LFCN_3_5x7_LFCN_3_5x7_0_split -> LFCN_3_5x7_LFCN_3_5x7_0_split_1
I1028 22:34:04.412142 29035 net.cpp:150] Setting up LFCN_3_5x7_LFCN_3_5x7_0_split
I1028 22:34:04.412147 29035 net.cpp:157] Top shape: 2 7 18 24 (6048)
I1028 22:34:04.412149 29035 net.cpp:157] Top shape: 2 7 18 24 (6048)
I1028 22:34:04.412151 29035 net.cpp:165] Memory required for data: 2235211300
I1028 22:34:04.412153 29035 layer_factory.hpp:77] Creating layer detection_loss_3_5x7
I1028 22:34:04.412158 29035 net.cpp:100] Creating Layer detection_loss_3_5x7
I1028 22:34:04.412161 29035 net.cpp:434] detection_loss_3_5x7 <- LFCN_3_5x7_LFCN_3_5x7_0_split_0
I1028 22:34:04.412164 29035 net.cpp:434] detection_loss_3_5x7 <- label_3_5x7_data_6_split_0
I1028 22:34:04.412168 29035 net.cpp:408] detection_loss_3_5x7 -> loss_3_5x7
I1028 22:34:04.412173 29035 layer_factory.hpp:77] Creating layer detection_loss_3_5x7
I1028 22:34:04.412487 29035 net.cpp:150] Setting up detection_loss_3_5x7
I1028 22:34:04.412494 29035 net.cpp:157] Top shape: 1 1 1 2 (2)
I1028 22:34:04.412497 29035 net.cpp:160]     with loss weight 1
I1028 22:34:04.412500 29035 net.cpp:165] Memory required for data: 2235211308
I1028 22:34:04.412503 29035 layer_factory.hpp:77] Creating layer detection_accuracy_3_5x7
I1028 22:34:04.412508 29035 net.cpp:100] Creating Layer detection_accuracy_3_5x7
I1028 22:34:04.412510 29035 net.cpp:434] detection_accuracy_3_5x7 <- LFCN_3_5x7_LFCN_3_5x7_0_split_1
I1028 22:34:04.412514 29035 net.cpp:434] detection_accuracy_3_5x7 <- label_3_5x7_data_6_split_1
I1028 22:34:04.412518 29035 net.cpp:408] detection_accuracy_3_5x7 -> accuracy_3_5x7
I1028 22:34:04.412523 29035 net.cpp:408] detection_accuracy_3_5x7 -> boxiou_3_5x7
I1028 22:34:04.412562 29035 net.cpp:150] Setting up detection_accuracy_3_5x7
I1028 22:34:04.412569 29035 net.cpp:157] Top shape: 1 1 1 2 (2)
I1028 22:34:04.412570 29035 net.cpp:157] Top shape: 1 1 1 1 (1)
I1028 22:34:04.412571 29035 net.cpp:165] Memory required for data: 2235211320
I1028 22:34:04.412573 29035 layer_factory.hpp:77] Creating layer pool6
I1028 22:34:04.412578 29035 net.cpp:100] Creating Layer pool6
I1028 22:34:04.412581 29035 net.cpp:434] pool6 <- conv6_1_relu6_1_0_split_2
I1028 22:34:04.412585 29035 net.cpp:408] pool6 -> pool6
I1028 22:34:04.412626 29035 net.cpp:150] Setting up pool6
I1028 22:34:04.412631 29035 net.cpp:157] Top shape: 2 512 9 12 (110592)
I1028 22:34:04.412633 29035 net.cpp:165] Memory required for data: 2235653688
I1028 22:34:04.412636 29035 layer_factory.hpp:77] Creating layer LFCN_4_3x5
I1028 22:34:04.412642 29035 net.cpp:100] Creating Layer LFCN_4_3x5
I1028 22:34:04.412644 29035 net.cpp:434] LFCN_4_3x5 <- pool6
I1028 22:34:04.412648 29035 net.cpp:408] LFCN_4_3x5 -> LFCN_4_3x5
I1028 22:34:04.414479 29035 net.cpp:150] Setting up LFCN_4_3x5
I1028 22:34:04.414490 29035 net.cpp:157] Top shape: 2 7 9 12 (1512)
I1028 22:34:04.414494 29035 net.cpp:165] Memory required for data: 2235659736
I1028 22:34:04.414499 29035 layer_factory.hpp:77] Creating layer LFCN_4_3x5_LFCN_4_3x5_0_split
I1028 22:34:04.414505 29035 net.cpp:100] Creating Layer LFCN_4_3x5_LFCN_4_3x5_0_split
I1028 22:34:04.414506 29035 net.cpp:434] LFCN_4_3x5_LFCN_4_3x5_0_split <- LFCN_4_3x5
I1028 22:34:04.414511 29035 net.cpp:408] LFCN_4_3x5_LFCN_4_3x5_0_split -> LFCN_4_3x5_LFCN_4_3x5_0_split_0
I1028 22:34:04.414517 29035 net.cpp:408] LFCN_4_3x5_LFCN_4_3x5_0_split -> LFCN_4_3x5_LFCN_4_3x5_0_split_1
I1028 22:34:04.414561 29035 net.cpp:150] Setting up LFCN_4_3x5_LFCN_4_3x5_0_split
I1028 22:34:04.414566 29035 net.cpp:157] Top shape: 2 7 9 12 (1512)
I1028 22:34:04.414569 29035 net.cpp:157] Top shape: 2 7 9 12 (1512)
I1028 22:34:04.414571 29035 net.cpp:165] Memory required for data: 2235671832
I1028 22:34:04.414572 29035 layer_factory.hpp:77] Creating layer detection_loss_4_3x5
I1028 22:34:04.414577 29035 net.cpp:100] Creating Layer detection_loss_4_3x5
I1028 22:34:04.414579 29035 net.cpp:434] detection_loss_4_3x5 <- LFCN_4_3x5_LFCN_4_3x5_0_split_0
I1028 22:34:04.414582 29035 net.cpp:434] detection_loss_4_3x5 <- label_4_3x5_data_7_split_0
I1028 22:34:04.414587 29035 net.cpp:408] detection_loss_4_3x5 -> loss_4_3x5
I1028 22:34:04.414592 29035 layer_factory.hpp:77] Creating layer detection_loss_4_3x5
I1028 22:34:04.414909 29035 net.cpp:150] Setting up detection_loss_4_3x5
I1028 22:34:04.414917 29035 net.cpp:157] Top shape: 1 1 1 2 (2)
I1028 22:34:04.414918 29035 net.cpp:160]     with loss weight 1
I1028 22:34:04.414923 29035 net.cpp:165] Memory required for data: 2235671840
I1028 22:34:04.414925 29035 layer_factory.hpp:77] Creating layer detection_accuracy_4_3x5
I1028 22:34:04.414932 29035 net.cpp:100] Creating Layer detection_accuracy_4_3x5
I1028 22:34:04.414933 29035 net.cpp:434] detection_accuracy_4_3x5 <- LFCN_4_3x5_LFCN_4_3x5_0_split_1
I1028 22:34:04.414937 29035 net.cpp:434] detection_accuracy_4_3x5 <- label_4_3x5_data_7_split_1
I1028 22:34:04.414942 29035 net.cpp:408] detection_accuracy_4_3x5 -> accuracy_4_3x5
I1028 22:34:04.414947 29035 net.cpp:408] detection_accuracy_4_3x5 -> boxiou_4_3x5
I1028 22:34:04.414986 29035 net.cpp:150] Setting up detection_accuracy_4_3x5
I1028 22:34:04.414993 29035 net.cpp:157] Top shape: 1 1 1 2 (2)
I1028 22:34:04.414995 29035 net.cpp:157] Top shape: 1 1 1 1 (1)
I1028 22:34:04.414996 29035 net.cpp:165] Memory required for data: 2235671852
I1028 22:34:04.414999 29035 net.cpp:228] detection_accuracy_4_3x5 does not need backward computation.
I1028 22:34:04.415001 29035 net.cpp:226] detection_loss_4_3x5 needs backward computation.
I1028 22:34:04.415004 29035 net.cpp:226] LFCN_4_3x5_LFCN_4_3x5_0_split needs backward computation.
I1028 22:34:04.415006 29035 net.cpp:226] LFCN_4_3x5 needs backward computation.
…
