…
    downsample_rate: 32
    downsample_rate: 32
    downsample_rate: 64
    coord_num: 4
    field_h: 60
    field_h: 84
    field_h: 120
    field_h: 168
    field_h: 240
    field_h: 336
    field_h: 480
    field_w: 40
    field_w: 56
    field_w: 80
    field_w: 112
    field_w: 160
    field_w: 224
    field_w: 320
    fg_threshold: 0.5
    resize_width: 1920
    resize_height: 576
    crop_width: 768
    crop_height: 576
    do_multiple_scale: true
    min_scale: 50
    max_scale: 420
    min_gt_height: 35
    shuffle: true
    output_gt_boxes: true
  }
}
layer {
  name: "conv1_1"
  type: "Convolution"
  bottom: "data"
  top: "conv1_1"
  param {
    lr_mult: 0
    decay_mult: 0
  }
  param {
    lr_mult: 0
    decay_mult: 0
  }
  convolution_param {
    num_output: 64
    pad: 1
    kernel_size: 3
  }
}
layer {
  name: "relu1_1"
  type: "ReLU"
  bottom: "conv1_1"
  top: "conv1_1"
}
layer {
  name: "conv1_2"
  type: "Convolution"
  bottom: "conv1_1"
  top: "conv1_2"
  param {
    lr_mult: 0
    decay_mult: 0
  }
  param {
    lr_mult: 0
    decay_mult: 0
  }
  convolution_param {
    num_output: 64
    pad: 1
    kernel_size: 3
  }
}
layer {
  name: "relu1_2"
  type: "ReLU"
  bottom: "conv1_2"
  top: "conv1_2"
}
layer {
  name: "pool1"
  type: "Pooling"
  bottom: "conv1_2"
  top: "pool1"
  pooling_param {
    pool: MAX
    kernel_size: 2
    stride: 2
  }
}
layer {
  name: "conv2_1"
  type: "Convolution"
  bottom: "pool1"
  top: "conv2_1"
  param {
    lr_mult: 0
    decay_mult: 0
  }
  param {
    lr_mult: 0
    decay_mult: 0
  }
  convolution_param {
    num_output: 128
    pad: 1
    kernel_size: 3
  }
}
layer {
  name: "relu2_1"
  type: "ReLU"
  bottom: "conv2_1"
  top: "conv2_1"
}
layer {
  name: "conv2_2"
  type: "Convolution"
  bottom: "conv2_1"
  top: "conv2_2"
  param {
    lr_mult: 0
    decay_mult: 0
  }
  param {
    lr_mult: 0
    decay_mult: 0
  }
  convolution_param {
    num_output: 128
    pad: 1
    kernel_size: 3
  }
}
layer {
  name: "relu2_2"
  type: "ReLU"
  bottom: "conv2_2"
  top: "conv2_2"
}
layer {
  name: "pool2"
  type: "Pooling"
  bottom: "conv2_2"
  top: "pool2"
  pooling_param {
    pool: MAX
    kernel_size: 2
    stride: 2
  }
}
layer {
  name: "conv3_1"
  type: "Convolution"
  bottom: "pool2"
  top: "conv3_1"
  convolution_param {
    num_output: 256
    pad: 1
    kernel_size: 3
  }
}
layer {
  name: "relu3_1"
  type: "ReLU"
  bottom: "conv3_1"
  top: "conv3_1"
}
layer {
  name: "conv3_2"
  type: "Convolution"
  bottom: "conv3_1"
  top: "conv3_2"
  convolution_param {
    num_output: 256
    pad: 1
    kernel_size: 3
  }
}
layer {
  name: "relu3_2"
  type: "ReLU"
  bottom: "conv3_2"
  top: "conv3_2"
}
layer {
  name: "conv3_3"
  type: "Convolution"
  bottom: "conv3_2"
  top: "conv3_3"
  convolution_param {
    num_output: 256
    pad: 1
    kernel_size: 3
  }
}
layer {
  name: "relu3_3"
  type: "ReLU"
  bottom: "conv3_3"
  top: "conv3_3"
}
layer {
  name: "pool3"
  type: "Pooling"
  bottom: "conv3_3"
  top: "pool3"
  pooling_param {
    pool: MAX
    kernel_size: 2
    stride: 2
  }
}
layer {
  name: "conv4_1"
  type: "Convolution"
  bottom: "pool3"
  top: "conv4_1"
  convolution_param {
    num_output: 512
    pad: 1
    kernel_size: 3
  }
}
layer {
  name: "relu4_1"
  type: "ReLU"
  bottom: "conv4_1"
  top: "conv4_1"
}
layer {
  name: "conv4_2"
  type: "Convolution"
  bottom: "conv4_1"
  top: "conv4_2"
  convolution_param {
    num_output: 512
    pad: 1
    kernel_size: 3
  }
}
layer {
  name: "relu4_2"
  type: "ReLU"
  bottom: "conv4_2"
  top: "conv4_2"
}
layer {
  name: "conv4_3"
  type: "Convolution"
  bottom: "conv4_2"
  top: "conv4_3"
  convolution_param {
    num_output: 512
    pad: 1
    kernel_size: 3
  }
}
layer {
  name: "relu4_3"
  type: "ReLU"
  bottom: "conv4_3"
  top: "conv4_3"
}
layer {
  name: "loss1_conv1"
  type: "Convolution"
  bottom: "conv4_3"
  top: "loss1_conv1"
  param {
    lr_mult: 1
    decay_mult: 1
  }
  param {
    lr_mult: 2
    decay_mult: 0
  }
  convolution_param {
    num_output: 512
    pad: 1
    kernel_size: 3
    weight_filler {
      type: "gaussian"
      std: 0.01
    }
    bias_filler {
      type: "constant"
    }
  }
}
layer {
  name: "loss_relu1"
  type: "ReLU"
  bottom: "loss1_conv1"
  top: "loss1_conv1"
}
layer {
  name: "LFCN_1_3x5"
  type: "Convolution"
  bottom: "loss1_conv1"
  top: "LFCN_1_3x5"
  param {
    lr_mult: 1
    decay_mult: 1
  }
  param {
    lr_mult: 2
    decay_mult: 0
  }
  convolution_param {
    num_output: 7
    weight_filler {
      type: "gaussian"
      std: 0.001
    }
    bias_filler {
      type: "constant"
    }
    pad_h: 2
    pad_w: 1
    kernel_h: 5
    kernel_w: 3
  }
}
layer {
  name: "detection_loss_1_3x5"
  type: "DetectionLoss"
  bottom: "LFCN_1_3x5"
  bottom: "label_1_3x5"
  top: "loss_1_3x5"
  loss_weight: 0.5
  detection_loss_param {
    cls_num: 3
    coord_num: 4
    lambda: 1
    field_h: 60
    field_w: 40
    downsample_rate: 8
    bb_smooth: true
    field_whr: 2
    field_xyr: 2
    bg_threshold: 0.2
    bg_multiple: 2
    sample_mode: "bootstrap"
    pos_neg_weighted: true
  }
}
layer {
  name: "detection_accuracy_1_3x5"
  type: "DetectionAccuracy"
  bottom: "LFCN_1_3x5"
  bottom: "label_1_3x5"
  top: "accuracy_1_3x5"
  top: "boxiou_1_3x5"
  detection_accuracy_param {
    cls_num: 3
    coord_num: 4
    field_h: 60
    field_w: 40
    downsample_rate: 8
    field_whr: 2
    field_xyr: 2
  }
}
layer {
  name: "LFCN_1_5x7"
  type: "Convolution"
  bottom: "loss1_conv1"
  top: "LFCN_1_5x7"
  param {
    lr_mult: 1
    decay_mult: 1
  }
  param {
    lr_mult: 2
    decay_mult: 0
  }
  convolution_param {
    num_output: 7
    weight_filler {
      type: "gaussian"
      std: 0.001
    }
    bias_filler {
      type: "constant"
    }
    pad_h: 3
    pad_w: 2
    kernel_h: 7
    kernel_w: 5
  }
}
layer {
  name: "detection_loss_1_5x7"
  type: "DetectionLoss"
  bottom: "LFCN_1_5x7"
  bottom: "label_1_5x7"
  top: "loss_1_5x7"
  loss_weight: 0.9
  detection_loss_param {
    cls_num: 3
    coord_num: 4
    lambda: 1
    field_h: 84
    field_w: 56
    downsample_rate: 8
    bb_smooth: true
    field_whr: 2
    field_xyr: 2
    bg_threshold: 0.2
    bg_multiple: 2
    sample_mode: "bootstrap"
    pos_neg_weighted: true
  }
}
layer {
  name: "detection_accuracy_1_5x7"
  type: "DetectionAccuracy"
  bottom: "LFCN_1_5x7"
  bottom: "label_1_5x7"
  top: "accuracy_1_5x7"
  top: "boxiou_1_5x7"
  detection_accuracy_param {
    cls_num: 3
    coord_num: 4
    field_h: 84
    field_w: 56
    downsample_rate: 8
    field_whr: 2
    field_xyr: 2
  }
}
layer {
  name: "pool4"
  type: "Pooling"
  bottom: "conv4_3"
  top: "pool4"
  pooling_param {
    pool: MAX
    kernel_size: 2
    stride: 2
  }
}
layer {
  name: "conv5_1"
  type: "Convolution"
  bottom: "pool4"
  top: "conv5_1"
  convolution_param {
    num_output: 512
    pad: 1
    kernel_size: 3
  }
}
layer {
  name: "relu5_1"
  type: "ReLU"
  bottom: "conv5_1"
  top: "conv5_1"
}
layer {
  name: "conv5_2"
  type: "Convolution"
  bottom: "conv5_1"
  top: "conv5_2"
  convolution_param {
    num_output: 512
    pad: 1
    kernel_size: 3
  }
}
layer {
  name: "relu5_2"
  type: "ReLU"
  bottom: "conv5_2"
  top: "conv5_2"
}
layer {
  name: "conv5_3"
  type: "Convolution"
  bottom: "conv5_2"
  top: "conv5_3"
  convolution_param {
    num_output: 512
    pad: 1
    kernel_size: 3
  }
}
layer {
  name: "relu5_3"
  type: "ReLU"
  bottom: "conv5_3"
  top: "conv5_3"
}
layer {
  name: "LFCN_2_3x5"
  type: "Convolution"
  bottom: "conv5_3"
  top: "LFCN_2_3x5"
  param {
    lr_mult: 1
    decay_mult: 1
  }
  param {
    lr_mult: 2
    decay_mult: 0
  }
  convolution_param {
    num_output: 7
    weight_filler {
      type: "gaussian"
      std: 0.001
    }
    bias_filler {
      type: "constant"
    }
    pad_h: 2
    pad_w: 1
    kernel_h: 5
    kernel_w: 3
  }
}
layer {
  name: "detection_loss_2_3x5"
  type: "DetectionLoss"
  bottom: "LFCN_2_3x5"
  bottom: "label_2_3x5"
  top: "loss_2_3x5"
  detection_loss_param {
    cls_num: 3
    coord_num: 4
    lambda: 1
    field_h: 120
    field_w: 80
    downsample_rate: 16
    bb_smooth: true
    field_whr: 2
    field_xyr: 2
    bg_threshold: 0.2
    bg_multiple: 2
    sample_mode: "bootstrap"
    pos_neg_weighted: true
  }
}
layer {
  name: "detection_accuracy_2_3x5"
  type: "DetectionAccuracy"
  bottom: "LFCN_2_3x5"
  bottom: "label_2_3x5"
  top: "accuracy_2_3x5"
  top: "boxiou_2_3x5"
  detection_accuracy_param {
    cls_num: 3
    coord_num: 4
    field_h: 120
    field_w: 80
    downsample_rate: 16
    field_whr: 2
    field_xyr: 2
  }
}
layer {
  name: "LFCN_2_5x7"
  type: "Convolution"
  bottom: "conv5_3"
  top: "LFCN_2_5x7"
  param {
    lr_mult: 1
    decay_mult: 1
  }
  param {
    lr_mult: 2
    decay_mult: 0
  }
  convolution_param {
    num_output: 7
    weight_filler {
      type: "gaussian"
      std: 0.001
    }
    bias_filler {
      type: "constant"
    }
    pad_h: 3
    pad_w: 2
    kernel_h: 7
    kernel_w: 5
  }
}
layer {
  name: "detection_loss_2_5x7"
  type: "DetectionLoss"
  bottom: "LFCN_2_5x7"
  bottom: "label_2_5x7"
  top: "loss_2_5x7"
  detection_loss_param {
    cls_num: 3
    coord_num: 4
    lambda: 1
    field_h: 168
    field_w: 112
    downsample_rate: 16
    bb_smooth: true
    field_whr: 2
    field_xyr: 2
    bg_threshold: 0.2
    bg_multiple: 2
    sample_mode: "bootstrap"
    pos_neg_weighted: true
  }
}
layer {
  name: "detection_accuracy_2_5x7"
  type: "DetectionAccuracy"
  bottom: "LFCN_2_5x7"
  bottom: "label_2_5x7"
  top: "accuracy_2_5x7"
  top: "boxiou_2_5x7"
  detection_accuracy_param {
    cls_num: 3
    coord_num: 4
    field_h: 168
    field_w: 112
    downsample_rate: 16
    field_whr: 2
    field_xyr: 2
  }
}
layer {
  name: "pool5"
  type: "Pooling"
  bottom: "conv5_3"
  top: "pool5"
  pooling_param {
    pool: MAX
    kernel_size: 2
    stride: 2
  }
}
layer {
  name: "conv6_1"
  type: "Convolution"
  bottom: "pool5"
  top: "conv6_1"
  param {
    lr_mult: 1
    decay_mult: 1
  }
  param {
    lr_mult: 2
    decay_mult: 0
  }
  convolution_param {
    num_output: 512
    pad: 1
    kernel_size: 3
    weight_filler {
      type: "gaussian"
      std: 0.01
    }
    bias_filler {
      type: "constant"
    }
  }
}
layer {
  name: "relu6_1"
  type: "ReLU"
  bottom: "conv6_1"
  top: "conv6_1"
}
layer {
  name: "LFCN_3_3x5"
  type: "Convolution"
  bottom: "conv6_1"
  top: "LFCN_3_3x5"
  param {
    lr_mult: 1
    decay_mult: 1
  }
  param {
    lr_mult: 2
    decay_mult: 0
  }
  convolution_param {
    num_output: 7
    weight_filler {
      type: "gaussian"
      std: 0.001
    }
    bias_filler {
      type: "constant"
    }
    pad_h: 2
    pad_w: 1
    kernel_h: 5
    kernel_w: 3
  }
}
layer {
  name: "detection_loss_3_3x5"
  type: "DetectionLoss"
  bottom: "LFCN_3_3x5"
  bottom: "label_3_3x5"
  top: "loss_3_3x5"
  detection_loss_param {
    cls_num: 3
    coord_num: 4
    lambda: 1
    field_h: 240
    field_w: 160
    downsample_rate: 32
    bb_smooth: true
    field_whr: 2
    field_xyr: 2
    bg_threshold: 0.2
    bg_multiple: 2
    sample_mode: "bootstrap"
    pos_neg_weighted: true
  }
}
layer {
  name: "detection_accuracy_3_3x5"
  type: "DetectionAccuracy"
  bottom: "LFCN_3_3x5"
  bottom: "label_3_3x5"
  top: "accuracy_3_3x5"
  top: "boxiou_3_3x5"
  detection_accuracy_param {
    cls_num: 3
    coord_num: 4
    field_h: 240
    field_w: 160
    downsample_rate: 32
    field_whr: 2
    field_xyr: 2
  }
}
layer {
  name: "LFCN_3_5x7"
  type: "Convolution"
  bottom: "conv6_1"
  top: "LFCN_3_5x7"
  param {
    lr_mult: 1
    decay_mult: 1
  }
  param {
    lr_mult: 2
    decay_mult: 0
  }
  convolution_param {
    num_output: 7
    weight_filler {
      type: "gaussian"
      std: 0.001
    }
    bias_filler {
      type: "constant"
    }
    pad_h: 3
    pad_w: 2
    kernel_h: 7
    kernel_w: 5
  }
}
layer {
  name: "detection_loss_3_5x7"
  type: "DetectionLoss"
  bottom: "LFCN_3_5x7"
  bottom: "label_3_5x7"
  top: "loss_3_5x7"
  detection_loss_param {
    cls_num: 3
    coord_num: 4
    lambda: 1
    field_h: 336
    field_w: 224
    downsample_rate: 32
    bb_smooth: true
    field_whr: 2
    field_xyr: 2
    bg_threshold: 0.2
    bg_multiple: 2
    sample_mode: "bootstrap"
    pos_neg_weighted: true
  }
}
layer {
  name: "detection_accuracy_3_5x7"
  type: "DetectionAccuracy"
  bottom: "LFCN_3_5x7"
  bottom: "label_3_5x7"
  top: "accuracy_3_5x7"
  top: "boxiou_3_5x7"
  detection_accuracy_param {
    cls_num: 3
    coord_num: 4
    field_h: 336
    field_w: 224
    downsample_rate: 32
    field_whr: 2
    field_xyr: 2
  }
}
layer {
  name: "pool6"
  type: "Pooling"
  bottom: "conv6_1"
  top: "pool6"
  pooling_param {
    pool: MAX
    kernel_size: 2
    stride: 2
  }
}
layer {
  name: "LFCN_4_3x5"
  type: "Convolution"
  bottom: "pool6"
  top: "LFCN_4_3x5"
  param {
    lr_mult: 1
    decay_mult: 1
  }
  param {
    lr_mult: 2
    decay_mult: 0
  }
  convolution_param {
    num_output: 7
    weight_filler {
      type: "gaussian"
      std: 0.001
    }
    bias_filler {
      type: "constant"
    }
    pad_h: 2
    pad_w: 1
    kernel_h: 5
    kernel_w: 3
  }
}
layer {
  name: "detection_loss_4_3x5"
  type: "DetectionLoss"
  bottom: "LFCN_4_3x5"
  bottom: "label_4_3x5"
  top: "loss_4_3x5"
  detection_loss_param {
    cls_num: 3
    coord_num: 4
    lambda: 1
    field_h: 480
    field_w: 320
    downsample_rate: 64
    bb_smooth: true
    field_whr: 2
    field_xyr: 2
    bg_threshold: 0.2
    bg_multiple: 2
    sample_mode: "bootstrap"
    pos_neg_weighted: true
  }
}
layer {
  name: "detection_accuracy_4_3x5"
  type: "DetectionAccuracy"
  bottom: "LFCN_4_3x5"
  bottom: "label_4_3x5"
  top: "accuracy_4_3x5"
  top: "boxiou_4_3x5"
  detection_accuracy_param {
    cls_num: 3
    coord_num: 4
    field_h: 480
    field_w: 320
    downsample_rate: 64
    field_whr: 2
    field_xyr: 2
  }
}
layer {
  name: "proposals"
  type: "BoxOutput"
  bottom: "LFCN_1_3x5"
  bottom: "LFCN_1_5x7"
  bottom: "LFCN_2_3x5"
  bottom: "LFCN_2_5x7"
  bottom: "LFCN_3_3x5"
  bottom: "LFCN_3_5x7"
  bottom: "LFCN_4_3x5"
  top: "proposals"
  propagate_down: false
  propagate_down: false
  propagate_down: false
  propagate_down: false
  propagate_down: false
  propagate_down: false
  propagate_down: false
  box_output_param {
    fg_thr: -15
    iou_thr: 0.65
    nms_type: "IOU"
    field_h: 60
    field_h: 84
    field_h: 120
    field_h: 168
    field_h: 240
    field_h: 336
    field_h: 480
    field_w: 40
    field_w: 56
    field_w: 80
    field_w: 112
    field_w: 160
    field_w: 224
    field_w: 320
    downsample_rate: 8
    downsample_rate: 8
    downsample_rate: 16
    downsample_rate: 16
    downsample_rate: 32
    downsample_rate: 32
    downsample_rate: 64
    field_whr: 2
    field_xyr: 2
    max_nms_num: 3000
  }
}
layer {
  name: "proposal_info"
  type: "ProposalTarget"
  bottom: "proposals"
  bottom: "gt_boxes"
  top: "rois"
  top: "proposal_labels"
  top: "proposal_targets"
  top: "box_inside_weights"
  top: "box_outside_weights"
  top: "match_gt_boxes"
  include {
    phase: TRAIN
  }
  propagate_down: false
  propagate_down: false
  proposal_target_param {
    cls_num: 3
    batch_size: 128
    fg_fraction: 0.25
    num_img_per_batch: 4
    fg_thr: 0.5
    bg_thr_hg: 0.45
    bg_thr_lw: 0.05
    img_width: 768
    img_height: 576
  }
  bbox_reg_param {
    bbox_mean: 0
    bbox_mean: 0
    bbox_mean: 0
    bbox_mean: 0
    bbox_std: 0.1
    bbox_std: 0.1
    bbox_std: 0.2
    bbox_std: 0.2
  }
}
layer {
  name: "conv4_3_2x"
  type: "Deconvolution"
  bottom: "conv4_3"
  top: "conv4_3_2x"
  param {
    lr_mult: 0
    decay_mult: 0
  }
  convolution_param {
    num_output: 512
    bias_term: false
    pad: 1
    kernel_size: 4
    group: 512
    stride: 2
    weight_filler {
      type: "bilinear"
    }
  }
}
layer {
  name: "roi_pool_org"
  type: "ROIPooling"
  bottom: "conv4_3_2x"
  bottom: "rois"
  top: "roi_pool_org"
  roi_pooling_param {
    pooled_h: 7
    pooled_w: 5
    spatial_scale: 0.25
    pad_ratio: 0
  }
}
layer {
  name: "roi_pool_ctx"
  type: "ROIPooling"
  bottom: "conv4_3_2x"
  bottom: "rois"
  top: "roi_pool_ctx"
  roi_pooling_param {
    pooled_h: 7
    pooled_w: 5
    spatial_scale: 0.25
    pad_ratio: 0.25
  }
}
layer {
  name: "roi_pool"
  type: "Concat"
  bottom: "roi_pool_org"
  bottom: "roi_pool_ctx"
  top: "roi_pool"
}
layer {
  name: "roi_c1"
  type: "Convolution"
  bottom: "roi_pool"
  top: "roi_c1"
  param {
    lr_mult: 1
    decay_mult: 1
  }
  param {
    lr_mult: 2
    decay_mult: 0
  }
  convolution_param {
    num_output: 512
    kernel_size: 3
    weight_filler {
      type: "gaussian"
      std: 0.01
    }
    bias_filler {
      type: "constant"
    }
  }
}
layer {
  name: "roi_c1_relu"
  type: "ReLU"
  bottom: "roi_c1"
  top: "roi_c1"
}
layer {
  name: "fc6"
  type: "InnerProduct"
  bottom: "roi_c1"
  top: "fc6"
  param {
    lr_mult: 1
  }
  param {
    lr_mult: 2
  }
  inner_product_param {
    num_output: 2048
    weight_filler {
      type: "gaussian"
      std: 0.001
    }
    bias_filler {
      type: "constant"
      value: 0
    }
  }
}
layer {
  name: "relu6"
  type: "ReLU"
  bottom: "fc6"
  top: "fc6"
}
layer {
  name: "drop6"
  type: "Dropout"
  bottom: "fc6"
  top: "fc6"
  dropout_param {
    dropout_ratio: 0.5
  }
}
layer {
  name: "cls_pred"
  type: "InnerProduct"
  bottom: "fc6"
  top: "cls_pred"
  param {
    lr_mult: 1
  }
  param {
    lr_mult: 2
  }
  inner_product_param {
    num_output: 3
    weight_filler {
      type: "gaussian"
      std: 0.01
    }
    bias_filler {
      type: "constant"
      value: 0
    }
  }
}
layer {
  name: "bbox_pred"
  type: "InnerProduct"
  bottom: "fc6"
  top: "bbox_pred"
  param {
    lr_mult: 1
  }
  param {
    lr_mult: 2
  }
  inner_product_param {
    num_output: 12
    weight_filler {
      type: "gaussian"
      std: 0.001
    }
    bias_filler {
      type: "constant"
      value: 0
    }
  }
}
layer {
  name: "loss_cls"
  type: "SoftmaxWithLoss"
  bottom: "cls_pred"
  bottom: "proposal_labels"
  top: "loss_cls"
  loss_weight: 1
  propagate_down: true
  propagate_down: false
}
layer {
  name: "cls_accuracy"
  type: "Accuracy"
  bottom: "cls_pred"
  bottom: "proposal_labels"
  top: "cls_accuracy"
}
layer {
  name: "loss_bbox"
  type: "SmoothL1Loss"
  bottom: "bbox_pred"
  bottom: "proposal_targets"
  bottom: "box_inside_weights"
  bottom: "box_outside_weights"
  top: "loss_bbox"
  loss_weight: 1
}
layer {
  name: "bbox_iou"
  type: "BboxAccuracy"
  bottom: "bbox_pred"
  bottom: "rois"
  bottom: "match_gt_boxes"
  top: "bbox_iou"
  top: "bbox_iou_pre"
  bbox_reg_param {
    bbox_mean: 0
    bbox_mean: 0
    bbox_mean: 0
    bbox_mean: 0
    bbox_std: 0.1
    bbox_std: 0.1
    bbox_std: 0.2
    bbox_std: 0.2
  }
}
I0124 10:39:14.728858 31833 layer_factory.hpp:77] Creating layer data
I0124 10:39:14.728891 31833 net.cpp:100] Creating Layer data
I0124 10:39:14.728899 31833 net.cpp:408] data -> data
…
I0124 10:39:14.755038 31833 image_gt_data_layer.cpp:235] output label size 2 : 2,6,36,48
I0124 10:39:14.755069 31833 image_gt_data_layer.cpp:235] output label size 3 : 2,6,36,48
I0124 10:39:14.755102 31833 image_gt_data_layer.cpp:235] output label size 4 : 2,6,18,24
I0124 10:39:14.755141 31833 image_gt_data_layer.cpp:235] output label size 5 : 2,6,18,24
I0124 10:39:14.755173 31833 image_gt_data_layer.cpp:235] output label size 6 : 2,6,9,12
I0124 10:39:14.755204 31833 image_gt_data_layer.cpp:250] output gt boxes size: 1,7,1,1
I0124 10:39:14.773860 31833 net.cpp:150] Setting up data
I0124 10:39:14.773886 31833 net.cpp:157] Top shape: 2 3 576 768 (2654208)
I0124 10:39:14.773891 31833 net.cpp:157] Top shape: 2 6 72 96 (82944)
I0124 10:39:14.773895 31833 net.cpp:157] Top shape: 2 6 72 96 (82944)
I0124 10:39:14.773896 31833 net.cpp:157] Top shape: 2 6 36 48 (20736)
I0124 10:39:14.773900 31833 net.cpp:157] Top shape: 2 6 36 48 (20736)
I0124 10:39:14.773903 31833 net.cpp:157] Top shape: 2 6 18 24 (5184)
I0124 10:39:14.773905 31833 net.cpp:157] Top shape: 2 6 18 24 (5184)
I0124 10:39:14.773908 31833 net.cpp:157] Top shape: 2 6 9 12 (1296)
I0124 10:39:14.773911 31833 net.cpp:157] Top shape: 1 7 1 1 (7)
I0124 10:39:14.773913 31833 net.cpp:165] Memory required for data: 11492956
I0124 10:39:14.773921 31833 layer_factory.hpp:77] Creating layer label_1_3x5_data_1_split
I0124 10:39:14.773933 31833 net.cpp:100] Creating Layer label_1_3x5_data_1_split
I0124 10:39:14.773939 31833 net.cpp:434] label_1_3x5_data_1_split <- label_1_3x5
I0124 10:39:14.773952 31833 net.cpp:408] label_1_3x5_data_1_split -> label_1_3x5_data_1_split_0
I0124 10:39:14.773962 31833 net.cpp:408] label_1_3x5_data_1_split -> label_1_3x5_data_1_split_1
I0124 10:39:14.774029 31833 net.cpp:150] Setting up label_1_3x5_data_1_split
I0124 10:39:14.774036 31833 net.cpp:157] Top shape: 2 6 72 96 (82944)
I0124 10:39:14.774039 31833 net.cpp:157] Top shape: 2 6 72 96 (82944)
I0124 10:39:14.774041 31833 net.cpp:165] Memory required for data: 12156508
I0124 10:39:14.774044 31833 layer_factory.hpp:77] Creating layer label_1_5x7_data_2_split
I0124 10:39:14.774049 31833 net.cpp:100] Creating Layer label_1_5x7_data_2_split
I0124 10:39:14.774052 31833 net.cpp:434] label_1_5x7_data_2_split <- label_1_5x7
I0124 10:39:14.774056 31833 net.cpp:408] label_1_5x7_data_2_split -> label_1_5x7_data_2_split_0
I0124 10:39:14.774062 31833 net.cpp:408] label_1_5x7_data_2_split -> label_1_5x7_data_2_split_1
I0124 10:39:14.774121 31833 net.cpp:150] Setting up label_1_5x7_data_2_split
I0124 10:39:14.774127 31833 net.cpp:157] Top shape: 2 6 72 96 (82944)
I0124 10:39:14.774130 31833 net.cpp:157] Top shape: 2 6 72 96 (82944)
I0124 10:39:14.774132 31833 net.cpp:165] Memory required for data: 12820060
I0124 10:39:14.774134 31833 layer_factory.hpp:77] Creating layer label_2_3x5_data_3_split
I0124 10:39:14.774138 31833 net.cpp:100] Creating Layer label_2_3x5_data_3_split
I0124 10:39:14.774140 31833 net.cpp:434] label_2_3x5_data_3_split <- label_2_3x5
I0124 10:39:14.774145 31833 net.cpp:408] label_2_3x5_data_3_split -> label_2_3x5_data_3_split_0
I0124 10:39:14.774150 31833 net.cpp:408] label_2_3x5_data_3_split -> label_2_3x5_data_3_split_1
I0124 10:39:14.774174 31833 net.cpp:150] Setting up label_2_3x5_data_3_split
I0124 10:39:14.774179 31833 net.cpp:157] Top shape: 2 6 36 48 (20736)
I0124 10:39:14.774183 31833 net.cpp:157] Top shape: 2 6 36 48 (20736)
I0124 10:39:14.774185 31833 net.cpp:165] Memory required for data: 12985948
I0124 10:39:14.774188 31833 layer_factory.hpp:77] Creating layer label_2_5x7_data_4_split
I0124 10:39:14.774193 31833 net.cpp:100] Creating Layer label_2_5x7_data_4_split
I0124 10:39:14.774194 31833 net.cpp:434] label_2_5x7_data_4_split <- label_2_5x7
I0124 10:39:14.774199 31833 net.cpp:408] label_2_5x7_data_4_split -> label_2_5x7_data_4_split_0
I0124 10:39:14.774204 31833 net.cpp:408] label_2_5x7_data_4_split -> label_2_5x7_data_4_split_1
I0124 10:39:14.774229 31833 net.cpp:150] Setting up label_2_5x7_data_4_split
I0124 10:39:14.774233 31833 net.cpp:157] Top shape: 2 6 36 48 (20736)
I0124 10:39:14.774236 31833 net.cpp:157] Top shape: 2 6 36 48 (20736)
I0124 10:39:14.774238 31833 net.cpp:165] Memory required for data: 13151836
I0124 10:39:14.774240 31833 layer_factory.hpp:77] Creating layer label_3_3x5_data_5_split
I0124 10:39:14.774248 31833 net.cpp:100] Creating Layer label_3_3x5_data_5_split
I0124 10:39:14.774251 31833 net.cpp:434] label_3_3x5_data_5_split <- label_3_3x5
I0124 10:39:14.774256 31833 net.cpp:408] label_3_3x5_data_5_split -> label_3_3x5_data_5_split_0
I0124 10:39:14.774261 31833 net.cpp:408] label_3_3x5_data_5_split -> label_3_3x5_data_5_split_1
I0124 10:39:14.774284 31833 net.cpp:150] Setting up label_3_3x5_data_5_split
I0124 10:39:14.774289 31833 net.cpp:157] Top shape: 2 6 18 24 (5184)
I0124 10:39:14.774292 31833 net.cpp:157] Top shape: 2 6 18 24 (5184)
I0124 10:39:14.774294 31833 net.cpp:165] Memory required for data: 13193308
I0124 10:39:14.774296 31833 layer_factory.hpp:77] Creating layer label_3_5x7_data_6_split
I0124 10:39:14.774302 31833 net.cpp:100] Creating Layer label_3_5x7_data_6_split
I0124 10:39:14.774303 31833 net.cpp:434] label_3_5x7_data_6_split <- label_3_5x7
I0124 10:39:14.774307 31833 net.cpp:408] label_3_5x7_data_6_split -> label_3_5x7_data_6_split_0
I0124 10:39:14.774312 31833 net.cpp:408] label_3_5x7_data_6_split -> label_3_5x7_data_6_split_1
I0124 10:39:14.774333 31833 net.cpp:150] Setting up label_3_5x7_data_6_split
I0124 10:39:14.774338 31833 net.cpp:157] Top shape: 2 6 18 24 (5184)
I0124 10:39:14.774345 31833 net.cpp:157] Top shape: 2 6 18 24 (5184)
I0124 10:39:14.774348 31833 net.cpp:165] Memory required for data: 13234780
I0124 10:39:14.774350 31833 layer_factory.hpp:77] Creating layer label_4_3x5_data_7_split
I0124 10:39:14.774354 31833 net.cpp:100] Creating Layer label_4_3x5_data_7_split
I0124 10:39:14.774356 31833 net.cpp:434] label_4_3x5_data_7_split <- label_4_3x5
I0124 10:39:14.774360 31833 net.cpp:408] label_4_3x5_data_7_split -> label_4_3x5_data_7_split_0
I0124 10:39:14.774365 31833 net.cpp:408] label_4_3x5_data_7_split -> label_4_3x5_data_7_split_1
I0124 10:39:14.774385 31833 net.cpp:150] Setting up label_4_3x5_data_7_split
I0124 10:39:14.774390 31833 net.cpp:157] Top shape: 2 6 9 12 (1296)
I0124 10:39:14.774394 31833 net.cpp:157] Top shape: 2 6 9 12 (1296)
I0124 10:39:14.774395 31833 net.cpp:165] Memory required for data: 13245148
I0124 10:39:14.774397 31833 layer_factory.hpp:77] Creating layer conv1_1
I0124 10:39:14.774410 31833 net.cpp:100] Creating Layer conv1_1
I0124 10:39:14.774413 31833 net.cpp:434] conv1_1 <- data
I0124 10:39:14.774420 31833 net.cpp:408] conv1_1 -> conv1_1
I0124 10:39:14.987756 31833 net.cpp:150] Setting up conv1_1
I0124 10:39:14.987782 31833 net.cpp:157] Top shape: 2 64 576 768 (56623104)
I0124 10:39:14.987784 31833 net.cpp:165] Memory required for data: 239737564
I0124 10:39:14.987805 31833 layer_factory.hpp:77] Creating layer relu1_1
I0124 10:39:14.987815 31833 net.cpp:100] Creating Layer relu1_1
I0124 10:39:14.987819 31833 net.cpp:434] relu1_1 <- conv1_1
I0124 10:39:14.987824 31833 net.cpp:395] relu1_1 -> conv1_1 (in-place)
I0124 10:39:14.987975 31833 net.cpp:150] Setting up relu1_1
I0124 10:39:14.987984 31833 net.cpp:157] Top shape: 2 64 576 768 (56623104)
I0124 10:39:14.987987 31833 net.cpp:165] Memory required for data: 466229980
I0124 10:39:14.987989 31833 layer_factory.hpp:77] Creating layer conv1_2
I0124 10:39:14.987999 31833 net.cpp:100] Creating Layer conv1_2
I0124 10:39:14.988003 31833 net.cpp:434] conv1_2 <- conv1_1
I0124 10:39:14.988008 31833 net.cpp:408] conv1_2 -> conv1_2
I0124 10:39:14.990010 31833 net.cpp:150] Setting up conv1_2
I0124 10:39:14.990022 31833 net.cpp:157] Top shape: 2 64 576 768 (56623104)
I0124 10:39:14.990025 31833 net.cpp:165] Memory required for data: 692722396
I0124 10:39:14.990033 31833 layer_factory.hpp:77] Creating layer relu1_2
I0124 10:39:14.990041 31833 net.cpp:100] Creating Layer relu1_2
I0124 10:39:14.990043 31833 net.cpp:434] relu1_2 <- conv1_2
I0124 10:39:14.990047 31833 net.cpp:395] relu1_2 -> conv1_2 (in-place)
I0124 10:39:14.990195 31833 net.cpp:150] Setting up relu1_2
I0124 10:39:14.990202 31833 net.cpp:157] Top shape: 2 64 576 768 (56623104)
I0124 10:39:14.990206 31833 net.cpp:165] Memory required for data: 919214812
I0124 10:39:14.990208 31833 layer_factory.hpp:77] Creating layer pool1
I0124 10:39:14.990214 31833 net.cpp:100] Creating Layer pool1
I0124 10:39:14.990217 31833 net.cpp:434] pool1 <- conv1_2
I0124 10:39:14.990223 31833 net.cpp:408] pool1 -> pool1
I0124 10:39:14.990268 31833 net.cpp:150] Setting up pool1
I0124 10:39:14.990273 31833 net.cpp:157] Top shape: 2 64 288 384 (14155776)
I0124 10:39:14.990276 31833 net.cpp:165] Memory required for data: 975837916
I0124 10:39:14.990279 31833 layer_factory.hpp:77] Creating layer conv2_1
I0124 10:39:14.990286 31833 net.cpp:100] Creating Layer conv2_1
I0124 10:39:14.990289 31833 net.cpp:434] conv2_1 <- pool1
I0124 10:39:14.990293 31833 net.cpp:408] conv2_1 -> conv2_1
I0124 10:39:14.992358 31833 net.cpp:150] Setting up conv2_1
I0124 10:39:14.992370 31833 net.cpp:157] Top shape: 2 128 288 384 (28311552)
I0124 10:39:14.992373 31833 net.cpp:165] Memory required for data: 1089084124
I0124 10:39:14.992383 31833 layer_factory.hpp:77] Creating layer relu2_1
I0124 10:39:14.992388 31833 net.cpp:100] Creating Layer relu2_1
I0124 10:39:14.992390 31833 net.cpp:434] relu2_1 <- conv2_1
I0124 10:39:14.992394 31833 net.cpp:395] relu2_1 -> conv2_1 (in-place)
I0124 10:39:14.992537 31833 net.cpp:150] Setting up relu2_1
I0124 10:39:14.992547 31833 net.cpp:157] Top shape: 2 128 288 384 (28311552)
I0124 10:39:14.992548 31833 net.cpp:165] Memory required for data: 1202330332
I0124 10:39:14.992550 31833 layer_factory.hpp:77] Creating layer conv2_2
I0124 10:39:14.992558 31833 net.cpp:100] Creating Layer conv2_2
I0124 10:39:14.992560 31833 net.cpp:434] conv2_2 <- conv2_1
I0124 10:39:14.992566 31833 net.cpp:408] conv2_2 -> conv2_2
I0124 10:39:14.993876 31833 net.cpp:150] Setting up conv2_2
I0124 10:39:14.993888 31833 net.cpp:157] Top shape: 2 128 288 384 (28311552)
I0124 10:39:14.993891 31833 net.cpp:165] Memory required for data: 1315576540
I0124 10:39:14.993896 31833 layer_factory.hpp:77] Creating layer relu2_2
I0124 10:39:14.993908 31833 net.cpp:100] Creating Layer relu2_2
I0124 10:39:14.993911 31833 net.cpp:434] relu2_2 <- conv2_2
I0124 10:39:14.993916 31833 net.cpp:395] relu2_2 -> conv2_2 (in-place)
I0124 10:39:14.994058 31833 net.cpp:150] Setting up relu2_2
I0124 10:39:14.994066 31833 net.cpp:157] Top shape: 2 128 288 384 (28311552)
I0124 10:39:14.994069 31833 net.cpp:165] Memory required for data: 1428822748
I0124 10:39:14.994072 31833 layer_factory.hpp:77] Creating layer pool2
I0124 10:39:14.994077 31833 net.cpp:100] Creating Layer pool2
I0124 10:39:14.994081 31833 net.cpp:434] pool2 <- conv2_2
I0124 10:39:14.994084 31833 net.cpp:408] pool2 -> pool2
I0124 10:39:14.994122 31833 net.cpp:150] Setting up pool2
I0124 10:39:14.994127 31833 net.cpp:157] Top shape: 2 128 144 192 (7077888)
I0124 10:39:14.994129 31833 net.cpp:165] Memory required for data: 1457134300
I0124 10:39:14.994132 31833 layer_factory.hpp:77] Creating layer conv3_1
I0124 10:39:14.994138 31833 net.cpp:100] Creating Layer conv3_1
I0124 10:39:14.994140 31833 net.cpp:434] conv3_1 <- pool2
I0124 10:39:14.994143 31833 net.cpp:408] conv3_1 -> conv3_1
I0124 10:39:14.996263 31833 net.cpp:150] Setting up conv3_1
I0124 10:39:14.996274 31833 net.cpp:157] Top shape: 2 256 144 192 (14155776)
I0124 10:39:14.996278 31833 net.cpp:165] Memory required for data: 1513757404
I0124 10:39:14.996286 31833 layer_factory.hpp:77] Creating layer relu3_1
I0124 10:39:14.996292 31833 net.cpp:100] Creating Layer relu3_1
I0124 10:39:14.996294 31833 net.cpp:434] relu3_1 <- conv3_1
I0124 10:39:14.996299 31833 net.cpp:395] relu3_1 -> conv3_1 (in-place)
I0124 10:39:14.996729 31833 net.cpp:150] Setting up relu3_1
I0124 10:39:14.996740 31833 net.cpp:157] Top shape: 2 256 144 192 (14155776)
I0124 10:39:14.996742 31833 net.cpp:165] Memory required for data: 1570380508
I0124 10:39:14.996745 31833 layer_factory.hpp:77] Creating layer conv3_2
I0124 10:39:14.996753 31833 net.cpp:100] Creating Layer conv3_2
I0124 10:39:14.996755 31833 net.cpp:434] conv3_2 <- conv3_1
I0124 10:39:14.996762 31833 net.cpp:408] conv3_2 -> conv3_2
I0124 10:39:14.998848 31833 net.cpp:150] Setting up conv3_2
I0124 10:39:14.998862 31833 net.cpp:157] Top shape: 2 256 144 192 (14155776)
I0124 10:39:14.998863 31833 net.cpp:165] Memory required for data: 1627003612
I0124 10:39:14.998869 31833 layer_factory.hpp:77] Creating layer relu3_2
I0124 10:39:14.998874 31833 net.cpp:100] Creating Layer relu3_2
I0124 10:39:14.998877 31833 net.cpp:434] relu3_2 <- conv3_2
I0124 10:39:14.998883 31833 net.cpp:395] relu3_2 -> conv3_2 (in-place)
I0124 10:39:14.999322 31833 net.cpp:150] Setting up relu3_2
I0124 10:39:14.999336 31833 net.cpp:157] Top shape: 2 256 144 192 (14155776)
I0124 10:39:14.999337 31833 net.cpp:165] Memory required for data: 1683626716
I0124 10:39:14.999341 31833 layer_factory.hpp:77] Creating layer conv3_3
I0124 10:39:14.999346 31833 net.cpp:100] Creating Layer conv3_3
I0124 10:39:14.999349 31833 net.cpp:434] conv3_3 <- conv3_2
I0124 10:39:14.999356 31833 net.cpp:408] conv3_3 -> conv3_3
I0124 10:39:15.001816 31833 net.cpp:150] Setting up conv3_3
I0124 10:39:15.001829 31833 net.cpp:157] Top shape: 2 256 144 192 (14155776)
I0124 10:39:15.001832 31833 net.cpp:165] Memory required for data: 1740249820
I0124 10:39:15.001837 31833 layer_factory.hpp:77] Creating layer relu3_3
I0124 10:39:15.001842 31833 net.cpp:100] Creating Layer relu3_3
I0124 10:39:15.001845 31833 net.cpp:434] relu3_3 <- conv3_3
I0124 10:39:15.001850 31833 net.cpp:395] relu3_3 -> conv3_3 (in-place)
I0124 10:39:15.001996 31833 net.cpp:150] Setting up relu3_3
I0124 10:39:15.002004 31833 net.cpp:157] Top shape: 2 256 144 192 (14155776)
I0124 10:39:15.002007 31833 net.cpp:165] Memory required for data: 1796872924
I0124 10:39:15.002009 31833 layer_factory.hpp:77] Creating layer pool3
I0124 10:39:15.002015 31833 net.cpp:100] Creating Layer pool3
I0124 10:39:15.002017 31833 net.cpp:434] pool3 <- conv3_3
I0124 10:39:15.002022 31833 net.cpp:408] pool3 -> pool3
I0124 10:39:15.002068 31833 net.cpp:150] Setting up pool3
I0124 10:39:15.002074 31833 net.cpp:157] Top shape: 2 256 72 96 (3538944)
I0124 10:39:15.002075 31833 net.cpp:165] Memory required for data: 1811028700
I0124 10:39:15.002079 31833 layer_factory.hpp:77] Creating layer conv4_1
I0124 10:39:15.002084 31833 net.cpp:100] Creating Layer conv4_1
I0124 10:39:15.002086 31833 net.cpp:434] conv4_1 <- pool3
I0124 10:39:15.002090 31833 net.cpp:408] conv4_1 -> conv4_1
I0124 10:39:15.006109 31833 net.cpp:150] Setting up conv4_1
I0124 10:39:15.006125 31833 net.cpp:157] Top shape: 2 512 72 96 (7077888)
I0124 10:39:15.006129 31833 net.cpp:165] Memory required for data: 1839340252
I0124 10:39:15.006134 31833 layer_factory.hpp:77] Creating layer relu4_1
I0124 10:39:15.006141 31833 net.cpp:100] Creating Layer relu4_1
I0124 10:39:15.006144 31833 net.cpp:434] relu4_1 <- conv4_1
I0124 10:39:15.006148 31833 net.cpp:395] relu4_1 -> conv4_1 (in-place)
I0124 10:39:15.006299 31833 net.cpp:150] Setting up relu4_1
I0124 10:39:15.006309 31833 net.cpp:157] Top shape: 2 512 72 96 (7077888)
I0124 10:39:15.006310 31833 net.cpp:165] Memory required for data: 1867651804
I0124 10:39:15.006314 31833 layer_factory.hpp:77] Creating layer conv4_2
I0124 10:39:15.006319 31833 net.cpp:100] Creating Layer conv4_2
I0124 10:39:15.006321 31833 net.cpp:434] conv4_2 <- conv4_1
I0124 10:39:15.006326 31833 net.cpp:408] conv4_2 -> conv4_2
I0124 10:39:15.011122 31833 net.cpp:150] Setting up conv4_2
I0124 10:39:15.011142 31833 net.cpp:157] Top shape: 2 512 72 96 (7077888)
I0124 10:39:15.011144 31833 net.cpp:165] Memory required for data: 1895963356
I0124 10:39:15.011158 31833 layer_factory.hpp:77] Creating layer relu4_2
I0124 10:39:15.011165 31833 net.cpp:100] Creating Layer relu4_2
I0124 10:39:15.011168 31833 net.cpp:434] relu4_2 <- conv4_2
I0124 10:39:15.011174 31833 net.cpp:395] relu4_2 -> conv4_2 (in-place)
I0124 10:39:15.011317 31833 net.cpp:150] Setting up relu4_2
I0124 10:39:15.011325 31833 net.cpp:157] Top shape: 2 512 72 96 (7077888)
I0124 10:39:15.011328 31833 net.cpp:165] Memory required for data: 1924274908
I0124 10:39:15.011330 31833 layer_factory.hpp:77] Creating layer conv4_3
I0124 10:39:15.011337 31833 net.cpp:100] Creating Layer conv4_3
I0124 10:39:15.011340 31833 net.cpp:434] conv4_3 <- conv4_2
I0124 10:39:15.011345 31833 net.cpp:408] conv4_3 -> conv4_3
I0124 10:39:15.016618 31833 net.cpp:150] Setting up conv4_3
I0124 10:39:15.016634 31833 net.cpp:157] Top shape: 2 512 72 96 (7077888)
I0124 10:39:15.016638 31833 net.cpp:165] Memory required for data: 1952586460
I0124 10:39:15.016644 31833 layer_factory.hpp:77] Creating layer relu4_3
I0124 10:39:15.016652 31833 net.cpp:100] Creating Layer relu4_3
I0124 10:39:15.016655 31833 net.cpp:434] relu4_3 <- conv4_3
I0124 10:39:15.016660 31833 net.cpp:395] relu4_3 -> conv4_3 (in-place)
I0124 10:39:15.016803 31833 net.cpp:150] Setting up relu4_3
I0124 10:39:15.016810 31833 net.cpp:157] Top shape: 2 512 72 96 (7077888)
I0124 10:39:15.016813 31833 net.cpp:165] Memory required for data: 1980898012
I0124 10:39:15.016815 31833 layer_factory.hpp:77] Creating layer conv4_3_relu4_3_0_split
I0124 10:39:15.016822 31833 net.cpp:100] Creating Layer conv4_3_relu4_3_0_split
I0124 10:39:15.016824 31833 net.cpp:434] conv4_3_relu4_3_0_split <- conv4_3
I0124 10:39:15.016830 31833 net.cpp:408] conv4_3_relu4_3_0_split -> conv4_3_relu4_3_0_split_0
I0124 10:39:15.016836 31833 net.cpp:408] conv4_3_relu4_3_0_split -> conv4_3_relu4_3_0_split_1
I0124 10:39:15.016841 31833 net.cpp:408] conv4_3_relu4_3_0_split -> conv4_3_relu4_3_0_split_2
I0124 10:39:15.016888 31833 net.cpp:150] Setting up conv4_3_relu4_3_0_split
I0124 10:39:15.016893 31833 net.cpp:157] Top shape: 2 512 72 96 (7077888)
I0124 10:39:15.016896 31833 net.cpp:157] Top shape: 2 512 72 96 (7077888)
I0124 10:39:15.016898 31833 net.cpp:157] Top shape: 2 512 72 96 (7077888)
I0124 10:39:15.016901 31833 net.cpp:165] Memory required for data: 2065832668
I0124 10:39:15.016903 31833 layer_factory.hpp:77] Creating layer loss1_conv1
I0124 10:39:15.016918 31833 net.cpp:100] Creating Layer loss1_conv1
I0124 10:39:15.016923 31833 net.cpp:434] loss1_conv1 <- conv4_3_relu4_3_0_split_0
I0124 10:39:15.016929 31833 net.cpp:408] loss1_conv1 -> loss1_conv1
I0124 10:39:15.037858 31833 net.cpp:150] Setting up loss1_conv1
I0124 10:39:15.037878 31833 net.cpp:157] Top shape: 2 512 72 96 (7077888)
I0124 10:39:15.037879 31833 net.cpp:165] Memory required for data: 2094144220
I0124 10:39:15.037888 31833 layer_factory.hpp:77] Creating layer loss_relu1
I0124 10:39:15.037895 31833 net.cpp:100] Creating Layer loss_relu1
I0124 10:39:15.037899 31833 net.cpp:434] loss_relu1 <- loss1_conv1
I0124 10:39:15.037906 31833 net.cpp:395] loss_relu1 -> loss1_conv1 (in-place)
I0124 10:39:15.038365 31833 net.cpp:150] Setting up loss_relu1
I0124 10:39:15.038377 31833 net.cpp:157] Top shape: 2 512 72 96 (7077888)
I0124 10:39:15.038379 31833 net.cpp:165] Memory required for data: 2122455772
I0124 10:39:15.038381 31833 layer_factory.hpp:77] Creating layer loss1_conv1_loss_relu1_0_split
I0124 10:39:15.038388 31833 net.cpp:100] Creating Layer loss1_conv1_loss_relu1_0_split
I0124 10:39:15.038391 31833 net.cpp:434] loss1_conv1_loss_relu1_0_split <- loss1_conv1
I0124 10:39:15.038396 31833 net.cpp:408] loss1_conv1_loss_relu1_0_split -> loss1_conv1_loss_relu1_0_split_0
I0124 10:39:15.038403 31833 net.cpp:408] loss1_conv1_loss_relu1_0_split -> loss1_conv1_loss_relu1_0_split_1
I0124 10:39:15.038442 31833 net.cpp:150] Setting up loss1_conv1_loss_relu1_0_split
I0124 10:39:15.038449 31833 net.cpp:157] Top shape: 2 512 72 96 (7077888)
I0124 10:39:15.038450 31833 net.cpp:157] Top shape: 2 512 72 96 (7077888)
I0124 10:39:15.038452 31833 net.cpp:165] Memory required for data: 2179078876
I0124 10:39:15.038455 31833 layer_factory.hpp:77] Creating layer LFCN_1_3x5
I0124 10:39:15.038463 31833 net.cpp:100] Creating Layer LFCN_1_3x5
I0124 10:39:15.038465 31833 net.cpp:434] LFCN_1_3x5 <- loss1_conv1_loss_relu1_0_split_0
I0124 10:39:15.038471 31833 net.cpp:408] LFCN_1_3x5 -> LFCN_1_3x5
I0124 10:39:15.039520 31833 net.cpp:150] Setting up LFCN_1_3x5
I0124 10:39:15.039530 31833 net.cpp:157] Top shape: 2 7 72 96 (96768)
I0124 10:39:15.039531 31833 net.cpp:165] Memory required for data: 2179465948
I0124 10:39:15.039536 31833 layer_factory.hpp:77] Creating layer LFCN_1_3x5_LFCN_1_3x5_0_split
I0124 10:39:15.039541 31833 net.cpp:100] Creating Layer LFCN_1_3x5_LFCN_1_3x5_0_split
I0124 10:39:15.039543 31833 net.cpp:434] LFCN_1_3x5_LFCN_1_3x5_0_split <- LFCN_1_3x5
I0124 10:39:15.039549 31833 net.cpp:408] LFCN_1_3x5_LFCN_1_3x5_0_split -> LFCN_1_3x5_LFCN_1_3x5_0_split_0
I0124 10:39:15.039556 31833 net.cpp:408] LFCN_1_3x5_LFCN_1_3x5_0_split -> LFCN_1_3x5_LFCN_1_3x5_0_split_1
I0124 10:39:15.039561 31833 net.cpp:408] LFCN_1_3x5_LFCN_1_3x5_0_split -> LFCN_1_3x5_LFCN_1_3x5_0_split_2
I0124 10:39:15.039605 31833 net.cpp:150] Setting up LFCN_1_3x5_LFCN_1_3x5_0_split
I0124 10:39:15.039610 31833 net.cpp:157] Top shape: 2 7 72 96 (96768)
I0124 10:39:15.039613 31833 net.cpp:157] Top shape: 2 7 72 96 (96768)
I0124 10:39:15.039616 31833 net.cpp:157] Top shape: 2 7 72 96 (96768)
I0124 10:39:15.039618 31833 net.cpp:165] Memory required for data: 2180627164
I0124 10:39:15.039620 31833 layer_factory.hpp:77] Creating layer detection_loss_1_3x5
I0124 10:39:15.039628 31833 net.cpp:100] Creating Layer detection_loss_1_3x5
I0124 10:39:15.039631 31833 net.cpp:434] detection_loss_1_3x5 <- LFCN_1_3x5_LFCN_1_3x5_0_split_0
I0124 10:39:15.039635 31833 net.cpp:434] detection_loss_1_3x5 <- label_1_3x5_data_1_split_0
I0124 10:39:15.039641 31833 net.cpp:408] detection_loss_1_3x5 -> loss_1_3x5
I0124 10:39:15.039651 31833 layer_factory.hpp:77] Creating layer detection_loss_1_3x5
I0124 10:39:15.040276 31833 net.cpp:150] Setting up detection_loss_1_3x5
I0124 10:39:15.040287 31833 net.cpp:157] Top shape: 1 1 1 2 (2)
I0124 10:39:15.040289 31833 net.cpp:160]     with loss weight 0.5
I0124 10:39:15.040304 31833 net.cpp:165] Memory required for data: 2180627172
I0124 10:39:15.040307 31833 layer_factory.hpp:77] Creating layer detection_accuracy_1_3x5
I0124 10:39:15.040314 31833 net.cpp:100] Creating Layer detection_accuracy_1_3x5
I0124 10:39:15.040318 31833 net.cpp:434] detection_accuracy_1_3x5 <- LFCN_1_3x5_LFCN_1_3x5_0_split_1
I0124 10:39:15.040321 31833 net.cpp:434] detection_accuracy_1_3x5 <- label_1_3x5_data_1_split_1
I0124 10:39:15.040328 31833 net.cpp:408] detection_accuracy_1_3x5 -> accuracy_1_3x5
I0124 10:39:15.040335 31833 net.cpp:408] detection_accuracy_1_3x5 -> boxiou_1_3x5
I0124 10:39:15.040374 31833 net.cpp:150] Setting up detection_accuracy_1_3x5
I0124 10:39:15.040379 31833 net.cpp:157] Top shape: 1 1 1 2 (2)
I0124 10:39:15.040381 31833 net.cpp:157] Top shape: 1 1 1 1 (1)
I0124 10:39:15.040383 31833 net.cpp:165] Memory required for data: 2180627184
I0124 10:39:15.040385 31833 layer_factory.hpp:77] Creating layer LFCN_1_5x7
I0124 10:39:15.040393 31833 net.cpp:100] Creating Layer LFCN_1_5x7
I0124 10:39:15.040397 31833 net.cpp:434] LFCN_1_5x7 <- loss1_conv1_loss_relu1_0_split_1
I0124 10:39:15.040403 31833 net.cpp:408] LFCN_1_5x7 -> LFCN_1_5x7
I0124 10:39:15.042294 31833 net.cpp:150] Setting up LFCN_1_5x7
I0124 10:39:15.042309 31833 net.cpp:157] Top shape: 2 7 72 96 (96768)
I0124 10:39:15.042311 31833 net.cpp:165] Memory required for data: 2181014256
I0124 10:39:15.042316 31833 layer_factory.hpp:77] Creating layer LFCN_1_5x7_LFCN_1_5x7_0_split
I0124 10:39:15.042321 31833 net.cpp:100] Creating Layer LFCN_1_5x7_LFCN_1_5x7_0_split
I0124 10:39:15.042325 31833 net.cpp:434] LFCN_1_5x7_LFCN_1_5x7_0_split <- LFCN_1_5x7
I0124 10:39:15.042330 31833 net.cpp:408] LFCN_1_5x7_LFCN_1_5x7_0_split -> LFCN_1_5x7_LFCN_1_5x7_0_split_0
I0124 10:39:15.042337 31833 net.cpp:408] LFCN_1_5x7_LFCN_1_5x7_0_split -> LFCN_1_5x7_LFCN_1_5x7_0_split_1
I0124 10:39:15.042342 31833 net.cpp:408] LFCN_1_5x7_LFCN_1_5x7_0_split -> LFCN_1_5x7_LFCN_1_5x7_0_split_2
I0124 10:39:15.042387 31833 net.cpp:150] Setting up LFCN_1_5x7_LFCN_1_5x7_0_split
I0124 10:39:15.042392 31833 net.cpp:157] Top shape: 2 7 72 96 (96768)
I0124 10:39:15.042395 31833 net.cpp:157] Top shape: 2 7 72 96 (96768)
I0124 10:39:15.042397 31833 net.cpp:157] Top shape: 2 7 72 96 (96768)
I0124 10:39:15.042399 31833 net.cpp:165] Memory required for data: 2182175472
I0124 10:39:15.042402 31833 layer_factory.hpp:77] Creating layer detection_loss_1_5x7
I0124 10:39:15.042408 31833 net.cpp:100] Creating Layer detection_loss_1_5x7
I0124 10:39:15.042412 31833 net.cpp:434] detection_loss_1_5x7 <- LFCN_1_5x7_LFCN_1_5x7_0_split_0
I0124 10:39:15.042415 31833 net.cpp:434] detection_loss_1_5x7 <- label_1_5x7_data_2_split_0
I0124 10:39:15.042419 31833 net.cpp:408] detection_loss_1_5x7 -> loss_1_5x7
I0124 10:39:15.042425 31833 layer_factory.hpp:77] Creating layer detection_loss_1_5x7
I0124 10:39:15.042738 31833 net.cpp:150] Setting up detection_loss_1_5x7
I0124 10:39:15.042750 31833 net.cpp:157] Top shape: 1 1 1 2 (2)
I0124 10:39:15.042754 31833 net.cpp:160]     with loss weight 0.9
I0124 10:39:15.042762 31833 net.cpp:165] Memory required for data: 2182175480
I0124 10:39:15.042765 31833 layer_factory.hpp:77] Creating layer detection_accuracy_1_5x7
I0124 10:39:15.042775 31833 net.cpp:100] Creating Layer detection_accuracy_1_5x7
I0124 10:39:15.042779 31833 net.cpp:434] detection_accuracy_1_5x7 <- LFCN_1_5x7_LFCN_1_5x7_0_split_1
I0124 10:39:15.042783 31833 net.cpp:434] detection_accuracy_1_5x7 <- label_1_5x7_data_2_split_1
I0124 10:39:15.042789 31833 net.cpp:408] detection_accuracy_1_5x7 -> accuracy_1_5x7
I0124 10:39:15.042795 31833 net.cpp:408] detection_accuracy_1_5x7 -> boxiou_1_5x7
I0124 10:39:15.042834 31833 net.cpp:150] Setting up detection_accuracy_1_5x7
I0124 10:39:15.042848 31833 net.cpp:157] Top shape: 1 1 1 2 (2)
I0124 10:39:15.042851 31833 net.cpp:157] Top shape: 1 1 1 1 (1)
I0124 10:39:15.042853 31833 net.cpp:165] Memory required for data: 2182175492
I0124 10:39:15.042856 31833 layer_factory.hpp:77] Creating layer pool4
I0124 10:39:15.042862 31833 net.cpp:100] Creating Layer pool4
I0124 10:39:15.042865 31833 net.cpp:434] pool4 <- conv4_3_relu4_3_0_split_1
I0124 10:39:15.042870 31833 net.cpp:408] pool4 -> pool4
I0124 10:39:15.042902 31833 net.cpp:150] Setting up pool4
I0124 10:39:15.042908 31833 net.cpp:157] Top shape: 2 512 36 48 (1769472)
I0124 10:39:15.042910 31833 net.cpp:165] Memory required for data: 2189253380
I0124 10:39:15.042912 31833 layer_factory.hpp:77] Creating layer conv5_1
I0124 10:39:15.042918 31833 net.cpp:100] Creating Layer conv5_1
I0124 10:39:15.042920 31833 net.cpp:434] conv5_1 <- pool4
I0124 10:39:15.042925 31833 net.cpp:408] conv5_1 -> conv5_1
I0124 10:39:15.048066 31833 net.cpp:150] Setting up conv5_1
I0124 10:39:15.048084 31833 net.cpp:157] Top shape: 2 512 36 48 (1769472)
I0124 10:39:15.048087 31833 net.cpp:165] Memory required for data: 2196331268
I0124 10:39:15.048095 31833 layer_factory.hpp:77] Creating layer relu5_1
I0124 10:39:15.048102 31833 net.cpp:100] Creating Layer relu5_1
I0124 10:39:15.048105 31833 net.cpp:434] relu5_1 <- conv5_1
I0124 10:39:15.048112 31833 net.cpp:395] relu5_1 -> conv5_1 (in-place)
I0124 10:39:15.048269 31833 net.cpp:150] Setting up relu5_1
I0124 10:39:15.048277 31833 net.cpp:157] Top shape: 2 512 36 48 (1769472)
I0124 10:39:15.048280 31833 net.cpp:165] Memory required for data: 2203409156
I0124 10:39:15.048281 31833 layer_factory.hpp:77] Creating layer conv5_2
I0124 10:39:15.048288 31833 net.cpp:100] Creating Layer conv5_2
I0124 10:39:15.048291 31833 net.cpp:434] conv5_2 <- conv5_1
I0124 10:39:15.048295 31833 net.cpp:408] conv5_2 -> conv5_2
I0124 10:39:15.053818 31833 net.cpp:150] Setting up conv5_2
I0124 10:39:15.053838 31833 net.cpp:157] Top shape: 2 512 36 48 (1769472)
I0124 10:39:15.053841 31833 net.cpp:165] Memory required for data: 2210487044
I0124 10:39:15.053849 31833 layer_factory.hpp:77] Creating layer relu5_2
I0124 10:39:15.053856 31833 net.cpp:100] Creating Layer relu5_2
I0124 10:39:15.053859 31833 net.cpp:434] relu5_2 <- conv5_2
I0124 10:39:15.053864 31833 net.cpp:395] relu5_2 -> conv5_2 (in-place)
I0124 10:39:15.054020 31833 net.cpp:150] Setting up relu5_2
I0124 10:39:15.054028 31833 net.cpp:157] Top shape: 2 512 36 48 (1769472)
I0124 10:39:15.054030 31833 net.cpp:165] Memory required for data: 2217564932
I0124 10:39:15.054033 31833 layer_factory.hpp:77] Creating layer conv5_3
I0124 10:39:15.054054 31833 net.cpp:100] Creating Layer conv5_3
I0124 10:39:15.054059 31833 net.cpp:434] conv5_3 <- conv5_2
I0124 10:39:15.054064 31833 net.cpp:408] conv5_3 -> conv5_3
I0124 10:39:15.059290 31833 net.cpp:150] Setting up conv5_3
I0124 10:39:15.059309 31833 net.cpp:157] Top shape: 2 512 36 48 (1769472)
I0124 10:39:15.059312 31833 net.cpp:165] Memory required for data: 2224642820
I0124 10:39:15.059320 31833 layer_factory.hpp:77] Creating layer relu5_3
I0124 10:39:15.059329 31833 net.cpp:100] Creating Layer relu5_3
I0124 10:39:15.059334 31833 net.cpp:434] relu5_3 <- conv5_3
I0124 10:39:15.059340 31833 net.cpp:395] relu5_3 -> conv5_3 (in-place)
I0124 10:39:15.059489 31833 net.cpp:150] Setting up relu5_3
I0124 10:39:15.059499 31833 net.cpp:157] Top shape: 2 512 36 48 (1769472)
I0124 10:39:15.059501 31833 net.cpp:165] Memory required for data: 2231720708
I0124 10:39:15.059504 31833 layer_factory.hpp:77] Creating layer conv5_3_relu5_3_0_split
I0124 10:39:15.059509 31833 net.cpp:100] Creating Layer conv5_3_relu5_3_0_split
I0124 10:39:15.059511 31833 net.cpp:434] conv5_3_relu5_3_0_split <- conv5_3
I0124 10:39:15.059517 31833 net.cpp:408] conv5_3_relu5_3_0_split -> conv5_3_relu5_3_0_split_0
I0124 10:39:15.059525 31833 net.cpp:408] conv5_3_relu5_3_0_split -> conv5_3_relu5_3_0_split_1
I0124 10:39:15.059530 31833 net.cpp:408] conv5_3_relu5_3_0_split -> conv5_3_relu5_3_0_split_2
I0124 10:39:15.059577 31833 net.cpp:150] Setting up conv5_3_relu5_3_0_split
I0124 10:39:15.059586 31833 net.cpp:157] Top shape: 2 512 36 48 (1769472)
I0124 10:39:15.059587 31833 net.cpp:157] Top shape: 2 512 36 48 (1769472)
I0124 10:39:15.059590 31833 net.cpp:157] Top shape: 2 512 36 48 (1769472)
I0124 10:39:15.059592 31833 net.cpp:165] Memory required for data: 2252954372
I0124 10:39:15.059594 31833 layer_factory.hpp:77] Creating layer LFCN_2_3x5
I0124 10:39:15.059603 31833 net.cpp:100] Creating Layer LFCN_2_3x5
I0124 10:39:15.059605 31833 net.cpp:434] LFCN_2_3x5 <- conv5_3_relu5_3_0_split_0
I0124 10:39:15.059612 31833 net.cpp:408] LFCN_2_3x5 -> LFCN_2_3x5
I0124 10:39:15.060983 31833 net.cpp:150] Setting up LFCN_2_3x5
I0124 10:39:15.060997 31833 net.cpp:157] Top shape: 2 7 36 48 (24192)
I0124 10:39:15.060998 31833 net.cpp:165] Memory required for data: 2253051140
I0124 10:39:15.061012 31833 layer_factory.hpp:77] Creating layer LFCN_2_3x5_LFCN_2_3x5_0_split
I0124 10:39:15.061019 31833 net.cpp:100] Creating Layer LFCN_2_3x5_LFCN_2_3x5_0_split
I0124 10:39:15.061022 31833 net.cpp:434] LFCN_2_3x5_LFCN_2_3x5_0_split <- LFCN_2_3x5
I0124 10:39:15.061028 31833 net.cpp:408] LFCN_2_3x5_LFCN_2_3x5_0_split -> LFCN_2_3x5_LFCN_2_3x5_0_split_0
I0124 10:39:15.061048 31833 net.cpp:408] LFCN_2_3x5_LFCN_2_3x5_0_split -> LFCN_2_3x5_LFCN_2_3x5_0_split_1
I0124 10:39:15.061054 31833 net.cpp:408] LFCN_2_3x5_LFCN_2_3x5_0_split -> LFCN_2_3x5_LFCN_2_3x5_0_split_2
I0124 10:39:15.061100 31833 net.cpp:150] Setting up LFCN_2_3x5_LFCN_2_3x5_0_split
I0124 10:39:15.061107 31833 net.cpp:157] Top shape: 2 7 36 48 (24192)
I0124 10:39:15.061110 31833 net.cpp:157] Top shape: 2 7 36 48 (24192)
I0124 10:39:15.061113 31833 net.cpp:157] Top shape: 2 7 36 48 (24192)
I0124 10:39:15.061115 31833 net.cpp:165] Memory required for data: 2253341444
I0124 10:39:15.061117 31833 layer_factory.hpp:77] Creating layer detection_loss_2_3x5
I0124 10:39:15.061123 31833 net.cpp:100] Creating Layer detection_loss_2_3x5
I0124 10:39:15.061126 31833 net.cpp:434] detection_loss_2_3x5 <- LFCN_2_3x5_LFCN_2_3x5_0_split_0
I0124 10:39:15.061131 31833 net.cpp:434] detection_loss_2_3x5 <- label_2_3x5_data_3_split_0
I0124 10:39:15.061136 31833 net.cpp:408] detection_loss_2_3x5 -> loss_2_3x5
I0124 10:39:15.061144 31833 layer_factory.hpp:77] Creating layer detection_loss_2_3x5
I0124 10:39:15.061797 31833 net.cpp:150] Setting up detection_loss_2_3x5
I0124 10:39:15.061810 31833 net.cpp:157] Top shape: 1 1 1 2 (2)
I0124 10:39:15.061812 31833 net.cpp:160]     with loss weight 1
I0124 10:39:15.061820 31833 net.cpp:165] Memory required for data: 2253341452
I0124 10:39:15.061823 31833 layer_factory.hpp:77] Creating layer detection_accuracy_2_3x5
I0124 10:39:15.061830 31833 net.cpp:100] Creating Layer detection_accuracy_2_3x5
I0124 10:39:15.061833 31833 net.cpp:434] detection_accuracy_2_3x5 <- LFCN_2_3x5_LFCN_2_3x5_0_split_1
I0124 10:39:15.061837 31833 net.cpp:434] detection_accuracy_2_3x5 <- label_2_3x5_data_3_split_1
I0124 10:39:15.061844 31833 net.cpp:408] detection_accuracy_2_3x5 -> accuracy_2_3x5
I0124 10:39:15.061851 31833 net.cpp:408] detection_accuracy_2_3x5 -> boxiou_2_3x5
I0124 10:39:15.061887 31833 net.cpp:150] Setting up detection_accuracy_2_3x5
I0124 10:39:15.061893 31833 net.cpp:157] Top shape: 1 1 1 2 (2)
I0124 10:39:15.061897 31833 net.cpp:157] Top shape: 1 1 1 1 (1)
I0124 10:39:15.061898 31833 net.cpp:165] Memory required for data: 2253341464
I0124 10:39:15.061900 31833 layer_factory.hpp:77] Creating layer LFCN_2_5x7
I0124 10:39:15.061911 31833 net.cpp:100] Creating Layer LFCN_2_5x7
I0124 10:39:15.061914 31833 net.cpp:434] LFCN_2_5x7 <- conv5_3_relu5_3_0_split_1
I0124 10:39:15.061919 31833 net.cpp:408] LFCN_2_5x7 -> LFCN_2_5x7
I0124 10:39:15.063477 31833 net.cpp:150] Setting up LFCN_2_5x7
I0124 10:39:15.063486 31833 net.cpp:157] Top shape: 2 7 36 48 (24192)
I0124 10:39:15.063489 31833 net.cpp:165] Memory required for data: 2253438232
I0124 10:39:15.063494 31833 layer_factory.hpp:77] Creating layer LFCN_2_5x7_LFCN_2_5x7_0_split
I0124 10:39:15.063500 31833 net.cpp:100] Creating Layer LFCN_2_5x7_LFCN_2_5x7_0_split
I0124 10:39:15.063503 31833 net.cpp:434] LFCN_2_5x7_LFCN_2_5x7_0_split <- LFCN_2_5x7
I0124 10:39:15.063508 31833 net.cpp:408] LFCN_2_5x7_LFCN_2_5x7_0_split -> LFCN_2_5x7_LFCN_2_5x7_0_split_0
I0124 10:39:15.063518 31833 net.cpp:408] LFCN_2_5x7_LFCN_2_5x7_0_split -> LFCN_2_5x7_LFCN_2_5x7_0_split_1
I0124 10:39:15.063522 31833 net.cpp:408] LFCN_2_5x7_LFCN_2_5x7_0_split -> LFCN_2_5x7_LFCN_2_5x7_0_split_2
I0124 10:39:15.063567 31833 net.cpp:150] Setting up LFCN_2_5x7_LFCN_2_5x7_0_split
I0124 10:39:15.063573 31833 net.cpp:157] Top shape: 2 7 36 48 (24192)
I0124 10:39:15.063576 31833 net.cpp:157] Top shape: 2 7 36 48 (24192)
I0124 10:39:15.063580 31833 net.cpp:157] Top shape: 2 7 36 48 (24192)
I0124 10:39:15.063580 31833 net.cpp:165] Memory required for data: 2253728536
I0124 10:39:15.063583 31833 layer_factory.hpp:77] Creating layer detection_loss_2_5x7
I0124 10:39:15.063590 31833 net.cpp:100] Creating Layer detection_loss_2_5x7
I0124 10:39:15.063591 31833 net.cpp:434] detection_loss_2_5x7 <- LFCN_2_5x7_LFCN_2_5x7_0_split_0
I0124 10:39:15.063596 31833 net.cpp:434] detection_loss_2_5x7 <- label_2_5x7_data_4_split_0
I0124 10:39:15.063601 31833 net.cpp:408] detection_loss_2_5x7 -> loss_2_5x7
I0124 10:39:15.063607 31833 layer_factory.hpp:77] Creating layer detection_loss_2_5x7
I0124 10:39:15.064219 31833 net.cpp:150] Setting up detection_loss_2_5x7
I0124 10:39:15.064230 31833 net.cpp:157] Top shape: 1 1 1 2 (2)
I0124 10:39:15.064234 31833 net.cpp:160]     with loss weight 1
I0124 10:39:15.064237 31833 net.cpp:165] Memory required for data: 2253728544
I0124 10:39:15.064240 31833 layer_factory.hpp:77] Creating layer detection_accuracy_2_5x7
I0124 10:39:15.064247 31833 net.cpp:100] Creating Layer detection_accuracy_2_5x7
I0124 10:39:15.064250 31833 net.cpp:434] detection_accuracy_2_5x7 <- LFCN_2_5x7_LFCN_2_5x7_0_split_1
I0124 10:39:15.064255 31833 net.cpp:434] detection_accuracy_2_5x7 <- label_2_5x7_data_4_split_1
I0124 10:39:15.064260 31833 net.cpp:408] detection_accuracy_2_5x7 -> accuracy_2_5x7
I0124 10:39:15.064266 31833 net.cpp:408] detection_accuracy_2_5x7 -> boxiou_2_5x7
I0124 10:39:15.064302 31833 net.cpp:150] Setting up detection_accuracy_2_5x7
I0124 10:39:15.064308 31833 net.cpp:157] Top shape: 1 1 1 2 (2)
I0124 10:39:15.064311 31833 net.cpp:157] Top shape: 1 1 1 1 (1)
I0124 10:39:15.064312 31833 net.cpp:165] Memory required for data: 2253728556
I0124 10:39:15.064314 31833 layer_factory.hpp:77] Creating layer pool5
I0124 10:39:15.064321 31833 net.cpp:100] Creating Layer pool5
I0124 10:39:15.064323 31833 net.cpp:434] pool5 <- conv5_3_relu5_3_0_split_2
I0124 10:39:15.064327 31833 net.cpp:408] pool5 -> pool5
I0124 10:39:15.064360 31833 net.cpp:150] Setting up pool5
I0124 10:39:15.064365 31833 net.cpp:157] Top shape: 2 512 18 24 (442368)
I0124 10:39:15.064368 31833 net.cpp:165] Memory required for data: 2255498028
I0124 10:39:15.064370 31833 layer_factory.hpp:77] Creating layer conv6_1
I0124 10:39:15.064378 31833 net.cpp:100] Creating Layer conv6_1
I0124 10:39:15.064380 31833 net.cpp:434] conv6_1 <- pool5
I0124 10:39:15.064388 31833 net.cpp:408] conv6_1 -> conv6_1
I0124 10:39:15.085111 31833 net.cpp:150] Setting up conv6_1
I0124 10:39:15.085131 31833 net.cpp:157] Top shape: 2 512 18 24 (442368)
I0124 10:39:15.085134 31833 net.cpp:165] Memory required for data: 2257267500
I0124 10:39:15.085142 31833 layer_factory.hpp:77] Creating layer relu6_1
I0124 10:39:15.085150 31833 net.cpp:100] Creating Layer relu6_1
I0124 10:39:15.085153 31833 net.cpp:434] relu6_1 <- conv6_1
I0124 10:39:15.085160 31833 net.cpp:395] relu6_1 -> conv6_1 (in-place)
I0124 10:39:15.085309 31833 net.cpp:150] Setting up relu6_1
I0124 10:39:15.085316 31833 net.cpp:157] Top shape: 2 512 18 24 (442368)
I0124 10:39:15.085319 31833 net.cpp:165] Memory required for data: 2259036972
I0124 10:39:15.085321 31833 layer_factory.hpp:77] Creating layer conv6_1_relu6_1_0_split
I0124 10:39:15.085328 31833 net.cpp:100] Creating Layer conv6_1_relu6_1_0_split
I0124 10:39:15.085330 31833 net.cpp:434] conv6_1_relu6_1_0_split <- conv6_1
I0124 10:39:15.085336 31833 net.cpp:408] conv6_1_relu6_1_0_split -> conv6_1_relu6_1_0_split_0
I0124 10:39:15.085343 31833 net.cpp:408] conv6_1_relu6_1_0_split -> conv6_1_relu6_1_0_split_1
I0124 10:39:15.085348 31833 net.cpp:408] conv6_1_relu6_1_0_split -> conv6_1_relu6_1_0_split_2
I0124 10:39:15.085397 31833 net.cpp:150] Setting up conv6_1_relu6_1_0_split
I0124 10:39:15.085404 31833 net.cpp:157] Top shape: 2 512 18 24 (442368)
I0124 10:39:15.085407 31833 net.cpp:157] Top shape: 2 512 18 24 (442368)
I0124 10:39:15.085409 31833 net.cpp:157] Top shape: 2 512 18 24 (442368)
I0124 10:39:15.085412 31833 net.cpp:165] Memory required for data: 2264345388
I0124 10:39:15.085413 31833 layer_factory.hpp:77] Creating layer LFCN_3_3x5
I0124 10:39:15.085422 31833 net.cpp:100] Creating Layer LFCN_3_3x5
I0124 10:39:15.085425 31833 net.cpp:434] LFCN_3_3x5 <- conv6_1_relu6_1_0_split_0
I0124 10:39:15.085433 31833 net.cpp:408] LFCN_3_3x5 -> LFCN_3_3x5
I0124 10:39:15.086846 31833 net.cpp:150] Setting up LFCN_3_3x5
I0124 10:39:15.086859 31833 net.cpp:157] Top shape: 2 7 18 24 (6048)
I0124 10:39:15.086861 31833 net.cpp:165] Memory required for data: 2264369580
I0124 10:39:15.086866 31833 layer_factory.hpp:77] Creating layer LFCN_3_3x5_LFCN_3_3x5_0_split
I0124 10:39:15.086884 31833 net.cpp:100] Creating Layer LFCN_3_3x5_LFCN_3_3x5_0_split
I0124 10:39:15.086889 31833 net.cpp:434] LFCN_3_3x5_LFCN_3_3x5_0_split <- LFCN_3_3x5
I0124 10:39:15.086894 31833 net.cpp:408] LFCN_3_3x5_LFCN_3_3x5_0_split -> LFCN_3_3x5_LFCN_3_3x5_0_split_0
I0124 10:39:15.086900 31833 net.cpp:408] LFCN_3_3x5_LFCN_3_3x5_0_split -> LFCN_3_3x5_LFCN_3_3x5_0_split_1
I0124 10:39:15.086907 31833 net.cpp:408] LFCN_3_3x5_LFCN_3_3x5_0_split -> LFCN_3_3x5_LFCN_3_3x5_0_split_2
I0124 10:39:15.086954 31833 net.cpp:150] Setting up LFCN_3_3x5_LFCN_3_3x5_0_split
I0124 10:39:15.086961 31833 net.cpp:157] Top shape: 2 7 18 24 (6048)
I0124 10:39:15.086963 31833 net.cpp:157] Top shape: 2 7 18 24 (6048)
I0124 10:39:15.086966 31833 net.cpp:157] Top shape: 2 7 18 24 (6048)
I0124 10:39:15.086967 31833 net.cpp:165] Memory required for data: 2264442156
I0124 10:39:15.086971 31833 layer_factory.hpp:77] Creating layer detection_loss_3_3x5
I0124 10:39:15.086975 31833 net.cpp:100] Creating Layer detection_loss_3_3x5
I0124 10:39:15.086978 31833 net.cpp:434] detection_loss_3_3x5 <- LFCN_3_3x5_LFCN_3_3x5_0_split_0
I0124 10:39:15.086982 31833 net.cpp:434] detection_loss_3_3x5 <- label_3_3x5_data_5_split_0
I0124 10:39:15.086987 31833 net.cpp:408] detection_loss_3_3x5 -> loss_3_3x5
I0124 10:39:15.086994 31833 layer_factory.hpp:77] Creating layer detection_loss_3_3x5
I0124 10:39:15.087291 31833 net.cpp:150] Setting up detection_loss_3_3x5
I0124 10:39:15.087298 31833 net.cpp:157] Top shape: 1 1 1 2 (2)
I0124 10:39:15.087299 31833 net.cpp:160]     with loss weight 1
I0124 10:39:15.087307 31833 net.cpp:165] Memory required for data: 2264442164
I0124 10:39:15.087311 31833 layer_factory.hpp:77] Creating layer detection_accuracy_3_3x5
I0124 10:39:15.087316 31833 net.cpp:100] Creating Layer detection_accuracy_3_3x5
I0124 10:39:15.087319 31833 net.cpp:434] detection_accuracy_3_3x5 <- LFCN_3_3x5_LFCN_3_3x5_0_split_1
I0124 10:39:15.087323 31833 net.cpp:434] detection_accuracy_3_3x5 <- label_3_3x5_data_5_split_1
I0124 10:39:15.087329 31833 net.cpp:408] detection_accuracy_3_3x5 -> accuracy_3_3x5
I0124 10:39:15.087335 31833 net.cpp:408] detection_accuracy_3_3x5 -> boxiou_3_3x5
I0124 10:39:15.087369 31833 net.cpp:150] Setting up detection_accuracy_3_3x5
I0124 10:39:15.087376 31833 net.cpp:157] Top shape: 1 1 1 2 (2)
I0124 10:39:15.087379 31833 net.cpp:157] Top shape: 1 1 1 1 (1)
I0124 10:39:15.087380 31833 net.cpp:165] Memory required for data: 2264442176
I0124 10:39:15.087383 31833 layer_factory.hpp:77] Creating layer LFCN_3_5x7
I0124 10:39:15.087390 31833 net.cpp:100] Creating Layer LFCN_3_5x7
I0124 10:39:15.087394 31833 net.cpp:434] LFCN_3_5x7 <- conv6_1_relu6_1_0_split_1
I0124 10:39:15.087399 31833 net.cpp:408] LFCN_3_5x7 -> LFCN_3_5x7
I0124 10:39:15.090157 31833 net.cpp:150] Setting up LFCN_3_5x7
I0124 10:39:15.090170 31833 net.cpp:157] Top shape: 2 7 18 24 (6048)
I0124 10:39:15.090173 31833 net.cpp:165] Memory required for data: 2264466368
I0124 10:39:15.090179 31833 layer_factory.hpp:77] Creating layer LFCN_3_5x7_LFCN_3_5x7_0_split
I0124 10:39:15.090186 31833 net.cpp:100] Creating Layer LFCN_3_5x7_LFCN_3_5x7_0_split
I0124 10:39:15.090190 31833 net.cpp:434] LFCN_3_5x7_LFCN_3_5x7_0_split <- LFCN_3_5x7
I0124 10:39:15.090198 31833 net.cpp:408] LFCN_3_5x7_LFCN_3_5x7_0_split -> LFCN_3_5x7_LFCN_3_5x7_0_split_0
I0124 10:39:15.090204 31833 net.cpp:408] LFCN_3_5x7_LFCN_3_5x7_0_split -> LFCN_3_5x7_LFCN_3_5x7_0_split_1
I0124 10:39:15.090209 31833 net.cpp:408] LFCN_3_5x7_LFCN_3_5x7_0_split -> LFCN_3_5x7_LFCN_3_5x7_0_split_2
I0124 10:39:15.090258 31833 net.cpp:150] Setting up LFCN_3_5x7_LFCN_3_5x7_0_split
I0124 10:39:15.090263 31833 net.cpp:157] Top shape: 2 7 18 24 (6048)
I0124 10:39:15.090266 31833 net.cpp:157] Top shape: 2 7 18 24 (6048)
I0124 10:39:15.090270 31833 net.cpp:157] Top shape: 2 7 18 24 (6048)
I0124 10:39:15.090270 31833 net.cpp:165] Memory required for data: 2264538944
I0124 10:39:15.090273 31833 layer_factory.hpp:77] Creating layer detection_loss_3_5x7
I0124 10:39:15.090279 31833 net.cpp:100] Creating Layer detection_loss_3_5x7
I0124 10:39:15.090282 31833 net.cpp:434] detection_loss_3_5x7 <- LFCN_3_5x7_LFCN_3_5x7_0_split_0
I0124 10:39:15.090286 31833 net.cpp:434] detection_loss_3_5x7 <- label_3_5x7_data_6_split_0
I0124 10:39:15.090291 31833 net.cpp:408] detection_loss_3_5x7 -> loss_3_5x7
I0124 10:39:15.090298 31833 layer_factory.hpp:77] Creating layer detection_loss_3_5x7
I0124 10:39:15.090595 31833 net.cpp:150] Setting up detection_loss_3_5x7
I0124 10:39:15.090603 31833 net.cpp:157] Top shape: 1 1 1 2 (2)
I0124 10:39:15.090605 31833 net.cpp:160]     with loss weight 1
I0124 10:39:15.090611 31833 net.cpp:165] Memory required for data: 2264538952
I0124 10:39:15.090613 31833 layer_factory.hpp:77] Creating layer detection_accuracy_3_5x7
I0124 10:39:15.090620 31833 net.cpp:100] Creating Layer detection_accuracy_3_5x7
I0124 10:39:15.090623 31833 net.cpp:434] detection_accuracy_3_5x7 <- LFCN_3_5x7_LFCN_3_5x7_0_split_1
I0124 10:39:15.090627 31833 net.cpp:434] detection_accuracy_3_5x7 <- label_3_5x7_data_6_split_1
I0124 10:39:15.090631 31833 net.cpp:408] detection_accuracy_3_5x7 -> accuracy_3_5x7
I0124 10:39:15.090637 31833 net.cpp:408] detection_accuracy_3_5x7 -> boxiou_3_5x7
I0124 10:39:15.090677 31833 net.cpp:150] Setting up detection_accuracy_3_5x7
I0124 10:39:15.090682 31833 net.cpp:157] Top shape: 1 1 1 2 (2)
I0124 10:39:15.090684 31833 net.cpp:157] Top shape: 1 1 1 1 (1)
I0124 10:39:15.090685 31833 net.cpp:165] Memory required for data: 2264538964
I0124 10:39:15.090688 31833 layer_factory.hpp:77] Creating layer pool6
I0124 10:39:15.090693 31833 net.cpp:100] Creating Layer pool6
I0124 10:39:15.090697 31833 net.cpp:434] pool6 <- conv6_1_relu6_1_0_split_2
I0124 10:39:15.090701 31833 net.cpp:408] pool6 -> pool6
I0124 10:39:15.090735 31833 net.cpp:150] Setting up pool6
I0124 10:39:15.090740 31833 net.cpp:157] Top shape: 2 512 9 12 (110592)
I0124 10:39:15.090742 31833 net.cpp:165] Memory required for data: 2264981332
I0124 10:39:15.090744 31833 layer_factory.hpp:77] Creating layer LFCN_4_3x5
I0124 10:39:15.090752 31833 net.cpp:100] Creating Layer LFCN_4_3x5
I0124 10:39:15.090756 31833 net.cpp:434] LFCN_4_3x5 <- pool6
I0124 10:39:15.090761 31833 net.cpp:408] LFCN_4_3x5 -> LFCN_4_3x5
I0124 10:39:15.092949 31833 net.cpp:150] Setting up LFCN_4_3x5
I0124 10:39:15.092962 31833 net.cpp:157] Top shape: 2 7 9 12 (1512)
I0124 10:39:15.092964 31833 net.cpp:165] Memory required for data: 2264987380
I0124 10:39:15.092970 31833 layer_factory.hpp:77] Creating layer LFCN_4_3x5_LFCN_4_3x5_0_split
I0124 10:39:15.092977 31833 net.cpp:100] Creating Layer LFCN_4_3x5_LFCN_4_3x5_0_split
I0124 10:39:15.092979 31833 net.cpp:434] LFCN_4_3x5_LFCN_4_3x5_0_split <- LFCN_4_3x5
I0124 10:39:15.092986 31833 net.cpp:408] LFCN_4_3x5_LFCN_4_3x5_0_split -> LFCN_4_3x5_LFCN_4_3x5_0_split_0
I0124 10:39:15.092993 31833 net.cpp:408] LFCN_4_3x5_LFCN_4_3x5_0_split -> LFCN_4_3x5_LFCN_4_3x5_0_split_1
I0124 10:39:15.092998 31833 net.cpp:408] LFCN_4_3x5_LFCN_4_3x5_0_split -> LFCN_4_3x5_LFCN_4_3x5_0_split_2
I0124 10:39:15.093053 31833 net.cpp:150] Setting up LFCN_4_3x5_LFCN_4_3x5_0_split
I0124 10:39:15.093060 31833 net.cpp:157] Top shape: 2 7 9 12 (1512)
I0124 10:39:15.093062 31833 net.cpp:157] Top shape: 2 7 9 12 (1512)
I0124 10:39:15.093065 31833 net.cpp:157] Top shape: 2 7 9 12 (1512)
I0124 10:39:15.093066 31833 net.cpp:165] Memory required for data: 2265005524
I0124 10:39:15.093068 31833 layer_factory.hpp:77] Creating layer detection_loss_4_3x5
I0124 10:39:15.093075 31833 net.cpp:100] Creating Layer detection_loss_4_3x5
I0124 10:39:15.093076 31833 net.cpp:434] detection_loss_4_3x5 <- LFCN_4_3x5_LFCN_4_3x5_0_split_0
I0124 10:39:15.093081 31833 net.cpp:434] detection_loss_4_3x5 <- label_4_3x5_data_7_split_0
I0124 10:39:15.093086 31833 net.cpp:408] detection_loss_4_3x5 -> loss_4_3x5
I0124 10:39:15.093094 31833 layer_factory.hpp:77] Creating layer detection_loss_4_3x5
I0124 10:39:15.093397 31833 net.cpp:150] Setting up detection_loss_4_3x5
I0124 10:39:15.093406 31833 net.cpp:157] Top shape: 1 1 1 2 (2)
I0124 10:39:15.093408 31833 net.cpp:160]     with loss weight 1
I0124 10:39:15.093413 31833 net.cpp:165] Memory required for data: 2265005532
I0124 10:39:15.093415 31833 layer_factory.hpp:77] Creating layer detection_accuracy_4_3x5
I0124 10:39:15.093423 31833 net.cpp:100] Creating Layer detection_accuracy_4_3x5
I0124 10:39:15.093427 31833 net.cpp:434] detection_accuracy_4_3x5 <- LFCN_4_3x5_LFCN_4_3x5_0_split_1
I0124 10:39:15.093431 31833 net.cpp:434] detection_accuracy_4_3x5 <- label_4_3x5_data_7_split_1
I0124 10:39:15.093436 31833 net.cpp:408] detection_accuracy_4_3x5 -> accuracy_4_3x5
I0124 10:39:15.093443 31833 net.cpp:408] detection_accuracy_4_3x5 -> boxiou_4_3x5
I0124 10:39:15.093482 31833 net.cpp:150] Setting up detection_accuracy_4_3x5
I0124 10:39:15.093487 31833 net.cpp:157] Top shape: 1 1 1 2 (2)
I0124 10:39:15.093489 31833 net.cpp:157] Top shape: 1 1 1 1 (1)
I0124 10:39:15.093492 31833 net.cpp:165] Memory required for data: 2265005544
I0124 10:39:15.093493 31833 layer_factory.hpp:77] Creating layer proposals
I0124 10:39:15.093503 31833 net.cpp:100] Creating Layer proposals
I0124 10:39:15.093508 31833 net.cpp:434] proposals <- LFCN_1_3x5_LFCN_1_3x5_0_split_2
I0124 10:39:15.093511 31833 net.cpp:434] proposals <- LFCN_1_5x7_LFCN_1_5x7_0_split_2
I0124 10:39:15.093514 31833 net.cpp:434] proposals <- LFCN_2_3x5_LFCN_2_3x5_0_split_2
I0124 10:39:15.093516 31833 net.cpp:434] proposals <- LFCN_2_5x7_LFCN_2_5x7_0_split_2
I0124 10:39:15.093519 31833 net.cpp:434] proposals <- LFCN_3_3x5_LFCN_3_3x5_0_split_2
I0124 10:39:15.093523 31833 net.cpp:434] proposals <- LFCN_3_5x7_LFCN_3_5x7_0_split_2
I0124 10:39:15.093525 31833 net.cpp:434] proposals <- LFCN_4_3x5_LFCN_4_3x5_0_split_2
I0124 10:39:15.093529 31833 net.cpp:408] proposals -> proposals
I0124 10:39:15.093557 31833 net.cpp:150] Setting up proposals
I0124 10:39:15.093562 31833 net.cpp:157] Top shape: 1 5 1 1 (5)
I0124 10:39:15.093569 31833 net.cpp:165] Memory required for data: 2265005564
I0124 10:39:15.093570 31833 layer_factory.hpp:77] Creating layer proposal_info
I0124 10:39:15.093581 31833 net.cpp:100] Creating Layer proposal_info
I0124 10:39:15.093585 31833 net.cpp:434] proposal_info <- proposals
I0124 10:39:15.093588 31833 net.cpp:434] proposal_info <- gt_boxes
I0124 10:39:15.093593 31833 net.cpp:408] proposal_info -> rois
I0124 10:39:15.093603 31833 net.cpp:408] proposal_info -> proposal_labels
I0124 10:39:15.093611 31833 net.cpp:408] proposal_info -> proposal_targets
I0124 10:39:15.093618 31833 net.cpp:408] proposal_info -> box_inside_weights
I0124 10:39:15.093626 31833 net.cpp:408] proposal_info -> box_outside_weights
I0124 10:39:15.093632 31833 net.cpp:408] proposal_info -> match_gt_boxes
I0124 10:39:15.093710 31833 net.cpp:150] Setting up proposal_info
I0124 10:39:15.093716 31833 net.cpp:157] Top shape: 128 5 1 1 (640)
I0124 10:39:15.093719 31833 net.cpp:157] Top shape: 128 1 1 1 (128)
I0124 10:39:15.093721 31833 net.cpp:157] Top shape: 128 12 1 1 (1536)
I0124 10:39:15.093724 31833 net.cpp:157] Top shape: 128 12 1 1 (1536)
I0124 10:39:15.093727 31833 net.cpp:157] Top shape: 128 12 1 1 (1536)
I0124 10:39:15.093729 31833 net.cpp:157] Top shape: 128 6 1 1 (768)
I0124 10:39:15.093731 31833 net.cpp:165] Memory required for data: 2265030140
I0124 10:39:15.093734 31833 layer_factory.hpp:77] Creating layer rois_proposal_info_0_split
I0124 10:39:15.093739 31833 net.cpp:100] Creating Layer rois_proposal_info_0_split
I0124 10:39:15.093740 31833 net.cpp:434] rois_proposal_info_0_split <- rois
I0124 10:39:15.093747 31833 net.cpp:408] rois_proposal_info_0_split -> rois_proposal_info_0_split_0
I0124 10:39:15.093755 31833 net.cpp:408] rois_proposal_info_0_split -> rois_proposal_info_0_split_1
I0124 10:39:15.093761 31833 net.cpp:408] rois_proposal_info_0_split -> rois_proposal_info_0_split_2
I0124 10:39:15.093801 31833 net.cpp:150] Setting up rois_proposal_info_0_split
I0124 10:39:15.093806 31833 net.cpp:157] Top shape: 128 5 1 1 (640)
I0124 10:39:15.093808 31833 net.cpp:157] Top shape: 128 5 1 1 (640)
I0124 10:39:15.093811 31833 net.cpp:157] Top shape: 128 5 1 1 (640)
I0124 10:39:15.093812 31833 net.cpp:165] Memory required for data: 2265037820
I0124 10:39:15.093814 31833 layer_factory.hpp:77] Creating layer proposal_labels_proposal_info_1_split
I0124 10:39:15.093818 31833 net.cpp:100] Creating Layer proposal_labels_proposal_info_1_split
I0124 10:39:15.093822 31833 net.cpp:434] proposal_labels_proposal_info_1_split <- proposal_labels
I0124 10:39:15.093827 31833 net.cpp:408] proposal_labels_proposal_info_1_split -> proposal_labels_proposal_info_1_split_0
I0124 10:39:15.093832 31833 net.cpp:408] proposal_labels_proposal_info_1_split -> proposal_labels_proposal_info_1_split_1
I0124 10:39:15.093863 31833 net.cpp:150] Setting up proposal_labels_proposal_info_1_split
I0124 10:39:15.093868 31833 net.cpp:157] Top shape: 128 1 1 1 (128)
I0124 10:39:15.093869 31833 net.cpp:157] Top shape: 128 1 1 1 (128)
I0124 10:39:15.093871 31833 net.cpp:165] Memory required for data: 2265038844
I0124 10:39:15.093873 31833 layer_factory.hpp:77] Creating layer conv4_3_2x
I0124 10:39:15.093879 31833 net.cpp:100] Creating Layer conv4_3_2x
I0124 10:39:15.093883 31833 net.cpp:434] conv4_3_2x <- conv4_3_relu4_3_0_split_2
I0124 10:39:15.093888 31833 net.cpp:408] conv4_3_2x -> conv4_3_2x
I0124 10:39:15.094233 31833 net.cpp:150] Setting up conv4_3_2x
I0124 10:39:15.094239 31833 net.cpp:157] Top shape: 2 512 144 192 (28311552)
I0124 10:39:15.094241 31833 net.cpp:165] Memory required for data: 2378285052
I0124 10:39:15.094245 31833 layer_factory.hpp:77] Creating layer conv4_3_2x_conv4_3_2x_0_split
I0124 10:39:15.094250 31833 net.cpp:100] Creating Layer conv4_3_2x_conv4_3_2x_0_split
I0124 10:39:15.094254 31833 net.cpp:434] conv4_3_2x_conv4_3_2x_0_split <- conv4_3_2x
I0124 10:39:15.094257 31833 net.cpp:408] conv4_3_2x_conv4_3_2x_0_split -> conv4_3_2x_conv4_3_2x_0_split_0
I0124 10:39:15.094262 31833 net.cpp:408] conv4_3_2x_conv4_3_2x_0_split -> conv4_3_2x_conv4_3_2x_0_split_1
I0124 10:39:15.094296 31833 net.cpp:150] Setting up conv4_3_2x_conv4_3_2x_0_split
I0124 10:39:15.094302 31833 net.cpp:157] Top shape: 2 512 144 192 (28311552)
I0124 10:39:15.094305 31833 net.cpp:157] Top shape: 2 512 144 192 (28311552)
I0124 10:39:15.094306 31833 net.cpp:165] Memory required for data: 2604777468
I0124 10:39:15.094310 31833 layer_factory.hpp:77] Creating layer roi_pool_org
I0124 10:39:15.094316 31833 net.cpp:100] Creating Layer roi_pool_org
I0124 10:39:15.094319 31833 net.cpp:434] roi_pool_org <- conv4_3_2x_conv4_3_2x_0_split_0
I0124 10:39:15.094322 31833 net.cpp:434] roi_pool_org <- rois_proposal_info_0_split_0
I0124 10:39:15.094326 31833 net.cpp:408] roi_pool_org -> roi_pool_org
I0124 10:39:15.094333 31833 roi_pooling_layer.cpp:33] Spatial scale: 0.25
I0124 10:39:15.094368 31833 net.cpp:150] Setting up roi_pool_org
I0124 10:39:15.094373 31833 net.cpp:157] Top shape: 128 512 7 5 (2293760)
I0124 10:39:15.094375 31833 net.cpp:165] Memory required for data: 2613952508
I0124 10:39:15.094378 31833 layer_factory.hpp:77] Creating layer roi_pool_ctx
I0124 10:39:15.094383 31833 net.cpp:100] Creating Layer roi_pool_ctx
I0124 10:39:15.094384 31833 net.cpp:434] roi_pool_ctx <- conv4_3_2x_conv4_3_2x_0_split_1
I0124 10:39:15.094388 31833 net.cpp:434] roi_pool_ctx <- rois_proposal_info_0_split_1
I0124 10:39:15.094393 31833 net.cpp:408] roi_pool_ctx -> roi_pool_ctx
I0124 10:39:15.094396 31833 roi_pooling_layer.cpp:33] Spatial scale: 0.25
I0124 10:39:15.094429 31833 net.cpp:150] Setting up roi_pool_ctx
I0124 10:39:15.094434 31833 net.cpp:157] Top shape: 128 512 7 5 (2293760)
I0124 10:39:15.094436 31833 net.cpp:165] Memory required for data: 2623127548
I0124 10:39:15.094439 31833 layer_factory.hpp:77] Creating layer roi_pool
I0124 10:39:15.094444 31833 net.cpp:100] Creating Layer roi_pool
I0124 10:39:15.094449 31833 net.cpp:434] roi_pool <- roi_pool_org
I0124 10:39:15.094451 31833 net.cpp:434] roi_pool <- roi_pool_ctx
I0124 10:39:15.094455 31833 net.cpp:408] roi_pool -> roi_pool
I0124 10:39:15.094475 31833 net.cpp:150] Setting up roi_pool
I0124 10:39:15.094480 31833 net.cpp:157] Top shape: 128 1024 7 5 (4587520)
I0124 10:39:15.094482 31833 net.cpp:165] Memory required for data: 2641477628
I0124 10:39:15.094485 31833 layer_factory.hpp:77] Creating layer roi_c1
I0124 10:39:15.094491 31833 net.cpp:100] Creating Layer roi_c1
I0124 10:39:15.094496 31833 net.cpp:434] roi_c1 <- roi_pool
I0124 10:39:15.094501 31833 net.cpp:408] roi_c1 -> roi_c1
I0124 10:39:15.135010 31833 net.cpp:150] Setting up roi_c1
I0124 10:39:15.135035 31833 net.cpp:157] Top shape: 128 512 5 3 (983040)
I0124 10:39:15.135037 31833 net.cpp:165] Memory required for data: 2645409788
I0124 10:39:15.135046 31833 layer_factory.hpp:77] Creating layer roi_c1_relu
I0124 10:39:15.135056 31833 net.cpp:100] Creating Layer roi_c1_relu
I0124 10:39:15.135061 31833 net.cpp:434] roi_c1_relu <- roi_c1
I0124 10:39:15.135067 31833 net.cpp:395] roi_c1_relu -> roi_c1 (in-place)
I0124 10:39:15.135550 31833 net.cpp:150] Setting up roi_c1_relu
I0124 10:39:15.135561 31833 net.cpp:157] Top shape: 128 512 5 3 (983040)
I0124 10:39:15.135565 31833 net.cpp:165] Memory required for data: 2649341948
I0124 10:39:15.135567 31833 layer_factory.hpp:77] Creating layer fc6
I0124 10:39:15.135577 31833 net.cpp:100] Creating Layer fc6
I0124 10:39:15.135581 31833 net.cpp:434] fc6 <- roi_c1
I0124 10:39:15.135587 31833 net.cpp:408] fc6 -> fc6
I0124 10:39:15.261975 31833 net.cpp:150] Setting up fc6
I0124 10:39:15.262015 31833 net.cpp:157] Top shape: 128 2048 (262144)
I0124 10:39:15.262018 31833 net.cpp:165] Memory required for data: 2650390524
I0124 10:39:15.262027 31833 layer_factory.hpp:77] Creating layer relu6
I0124 10:39:15.262037 31833 net.cpp:100] Creating Layer relu6
I0124 10:39:15.262042 31833 net.cpp:434] relu6 <- fc6
I0124 10:39:15.262048 31833 net.cpp:395] relu6 -> fc6 (in-place)
I0124 10:39:15.262256 31833 net.cpp:150] Setting up relu6
I0124 10:39:15.262265 31833 net.cpp:157] Top shape: 128 2048 (262144)
I0124 10:39:15.262267 31833 net.cpp:165] Memory required for data: 2651439100
I0124 10:39:15.262269 31833 layer_factory.hpp:77] Creating layer drop6
I0124 10:39:15.262276 31833 net.cpp:100] Creating Layer drop6
I0124 10:39:15.262279 31833 net.cpp:434] drop6 <- fc6
I0124 10:39:15.262284 31833 net.cpp:395] drop6 -> fc6 (in-place)
I0124 10:39:15.262307 31833 net.cpp:150] Setting up drop6
I0124 10:39:15.262312 31833 net.cpp:157] Top shape: 128 2048 (262144)
I0124 10:39:15.262315 31833 net.cpp:165] Memory required for data: 2652487676
I0124 10:39:15.262316 31833 layer_factory.hpp:77] Creating layer fc6_drop6_0_split
I0124 10:39:15.262321 31833 net.cpp:100] Creating Layer fc6_drop6_0_split
I0124 10:39:15.262323 31833 net.cpp:434] fc6_drop6_0_split <- fc6
I0124 10:39:15.262328 31833 net.cpp:408] fc6_drop6_0_split -> fc6_drop6_0_split_0
I0124 10:39:15.262334 31833 net.cpp:408] fc6_drop6_0_split -> fc6_drop6_0_split_1
I0124 10:39:15.262367 31833 net.cpp:150] Setting up fc6_drop6_0_split
I0124 10:39:15.262372 31833 net.cpp:157] Top shape: 128 2048 (262144)
I0124 10:39:15.262375 31833 net.cpp:157] Top shape: 128 2048 (262144)
I0124 10:39:15.262377 31833 net.cpp:165] Memory required for data: 2654584828
I0124 10:39:15.262378 31833 layer_factory.hpp:77] Creating layer cls_pred
I0124 10:39:15.262384 31833 net.cpp:100] Creating Layer cls_pred
I0124 10:39:15.262387 31833 net.cpp:434] cls_pred <- fc6_drop6_0_split_0
I0124 10:39:15.262393 31833 net.cpp:408] cls_pred -> cls_pred
I0124 10:39:15.262536 31833 net.cpp:150] Setting up cls_pred
I0124 10:39:15.262542 31833 net.cpp:157] Top shape: 128 3 (384)
I0124 10:39:15.262543 31833 net.cpp:165] Memory required for data: 2654586364
I0124 10:39:15.262547 31833 layer_factory.hpp:77] Creating layer cls_pred_cls_pred_0_split
I0124 10:39:15.262552 31833 net.cpp:100] Creating Layer cls_pred_cls_pred_0_split
I0124 10:39:15.262553 31833 net.cpp:434] cls_pred_cls_pred_0_split <- cls_pred
I0124 10:39:15.262559 31833 net.cpp:408] cls_pred_cls_pred_0_split -> cls_pred_cls_pred_0_split_0
I0124 10:39:15.262564 31833 net.cpp:408] cls_pred_cls_pred_0_split -> cls_pred_cls_pred_0_split_1
I0124 10:39:15.262609 31833 net.cpp:150] Setting up cls_pred_cls_pred_0_split
I0124 10:39:15.262614 31833 net.cpp:157] Top shape: 128 3 (384)
I0124 10:39:15.262616 31833 net.cpp:157] Top shape: 128 3 (384)
I0124 10:39:15.262619 31833 net.cpp:165] Memory required for data: 2654589436
I0124 10:39:15.262620 31833 layer_factory.hpp:77] Creating layer bbox_pred
I0124 10:39:15.262625 31833 net.cpp:100] Creating Layer bbox_pred
I0124 10:39:15.262629 31833 net.cpp:434] bbox_pred <- fc6_drop6_0_split_1
I0124 10:39:15.262632 31833 net.cpp:408] bbox_pred -> bbox_pred
I0124 10:39:15.262903 31833 net.cpp:150] Setting up bbox_pred
I0124 10:39:15.262908 31833 net.cpp:157] Top shape: 128 12 (1536)
I0124 10:39:15.262910 31833 net.cpp:165] Memory required for data: 2654595580
I0124 10:39:15.262914 31833 layer_factory.hpp:77] Creating layer bbox_pred_bbox_pred_0_split
I0124 10:39:15.262917 31833 net.cpp:100] Creating Layer bbox_pred_bbox_pred_0_split
I0124 10:39:15.262919 31833 net.cpp:434] bbox_pred_bbox_pred_0_split <- bbox_pred
I0124 10:39:15.262925 31833 net.cpp:408] bbox_pred_bbox_pred_0_split -> bbox_pred_bbox_pred_0_split_0
I0124 10:39:15.262930 31833 net.cpp:408] bbox_pred_bbox_pred_0_split -> bbox_pred_bbox_pred_0_split_1
I0124 10:39:15.262955 31833 net.cpp:150] Setting up bbox_pred_bbox_pred_0_split
I0124 10:39:15.262959 31833 net.cpp:157] Top shape: 128 12 (1536)
I0124 10:39:15.262962 31833 net.cpp:157] Top shape: 128 12 (1536)
I0124 10:39:15.262964 31833 net.cpp:165] Memory required for data: 2654607868
I0124 10:39:15.262965 31833 layer_factory.hpp:77] Creating layer loss_cls
I0124 10:39:15.262972 31833 net.cpp:100] Creating Layer loss_cls
I0124 10:39:15.262976 31833 net.cpp:434] loss_cls <- cls_pred_cls_pred_0_split_0
I0124 10:39:15.262980 31833 net.cpp:434] loss_cls <- proposal_labels_proposal_info_1_split_0
…
I0124 10:39:15.279271 31833 image_gt_data_layer.cpp:235] output label size 2 : 2,6,36,48
I0124 10:39:15.279314 31833 image_gt_data_layer.cpp:235] output label size 3 : 2,6,36,48
I0124 10:39:15.279358 31833 image_gt_data_layer.cpp:235] output label size 4 : 2,6,18,24
I0124 10:39:15.279400 31833 image_gt_data_layer.cpp:235] output label size 5 : 2,6,18,24
I0124 10:39:15.279443 31833 image_gt_data_layer.cpp:235] output label size 6 : 2,6,9,12
I0124 10:39:15.279484 31833 image_gt_data_layer.cpp:250] output gt boxes size: 1,7,1,1
I0124 10:39:15.295043 31833 net.cpp:150] Setting up data
I0124 10:39:15.295061 31833 net.cpp:157] Top shape: 2 3 576 768 (2654208)
I0124 10:39:15.295065 31833 net.cpp:157] Top shape: 2 6 72 96 (82944)
I0124 10:39:15.295068 31833 net.cpp:157] Top shape: 2 6 72 96 (82944)
I0124 10:39:15.295070 31833 net.cpp:157] Top shape: 2 6 36 48 (20736)
I0124 10:39:15.295073 31833 net.cpp:157] Top shape: 2 6 36 48 (20736)
I0124 10:39:15.295075 31833 net.cpp:157] Top shape: 2 6 18 24 (5184)
I0124 10:39:15.295078 31833 net.cpp:157] Top shape: 2 6 18 24 (5184)
I0124 10:39:15.295080 31833 net.cpp:157] Top shape: 2 6 9 12 (1296)
I0124 10:39:15.295083 31833 net.cpp:157] Top shape: 1 7 1 1 (7)
I0124 10:39:15.295084 31833 net.cpp:165] Memory required for data: 11492956
I0124 10:39:15.295089 31833 layer_factory.hpp:77] Creating layer label_1_3x5_data_1_split
I0124 10:39:15.295104 31833 net.cpp:100] Creating Layer label_1_3x5_data_1_split
I0124 10:39:15.295106 31833 net.cpp:434] label_1_3x5_data_1_split <- label_1_3x5
I0124 10:39:15.295112 31833 net.cpp:408] label_1_3x5_data_1_split -> label_1_3x5_data_1_split_0
I0124 10:39:15.295120 31833 net.cpp:408] label_1_3x5_data_1_split -> label_1_3x5_data_1_split_1
I0124 10:39:15.295174 31833 net.cpp:150] Setting up label_1_3x5_data_1_split
I0124 10:39:15.295179 31833 net.cpp:157] Top shape: 2 6 72 96 (82944)
I0124 10:39:15.295181 31833 net.cpp:157] Top shape: 2 6 72 96 (82944)
I0124 10:39:15.295183 31833 net.cpp:165] Memory required for data: 12156508
I0124 10:39:15.295186 31833 layer_factory.hpp:77] Creating layer label_1_5x7_data_2_split
I0124 10:39:15.295191 31833 net.cpp:100] Creating Layer label_1_5x7_data_2_split
I0124 10:39:15.295193 31833 net.cpp:434] label_1_5x7_data_2_split <- label_1_5x7
I0124 10:39:15.295197 31833 net.cpp:408] label_1_5x7_data_2_split -> label_1_5x7_data_2_split_0
I0124 10:39:15.295203 31833 net.cpp:408] label_1_5x7_data_2_split -> label_1_5x7_data_2_split_1
I0124 10:39:15.295269 31833 net.cpp:150] Setting up label_1_5x7_data_2_split
I0124 10:39:15.295274 31833 net.cpp:157] Top shape: 2 6 72 96 (82944)
I0124 10:39:15.295276 31833 net.cpp:157] Top shape: 2 6 72 96 (82944)
I0124 10:39:15.295279 31833 net.cpp:165] Memory required for data: 12820060
I0124 10:39:15.295280 31833 layer_factory.hpp:77] Creating layer label_2_3x5_data_3_split
I0124 10:39:15.295284 31833 net.cpp:100] Creating Layer label_2_3x5_data_3_split
I0124 10:39:15.295287 31833 net.cpp:434] label_2_3x5_data_3_split <- label_2_3x5
I0124 10:39:15.295291 31833 net.cpp:408] label_2_3x5_data_3_split -> label_2_3x5_data_3_split_0
I0124 10:39:15.295295 31833 net.cpp:408] label_2_3x5_data_3_split -> label_2_3x5_data_3_split_1
I0124 10:39:15.295375 31833 net.cpp:150] Setting up label_2_3x5_data_3_split
I0124 10:39:15.295379 31833 net.cpp:157] Top shape: 2 6 36 48 (20736)
I0124 10:39:15.295382 31833 net.cpp:157] Top shape: 2 6 36 48 (20736)
I0124 10:39:15.295383 31833 net.cpp:165] Memory required for data: 12985948
I0124 10:39:15.295385 31833 layer_factory.hpp:77] Creating layer label_2_5x7_data_4_split
I0124 10:39:15.295392 31833 net.cpp:100] Creating Layer label_2_5x7_data_4_split
I0124 10:39:15.295394 31833 net.cpp:434] label_2_5x7_data_4_split <- label_2_5x7
I0124 10:39:15.295398 31833 net.cpp:408] label_2_5x7_data_4_split -> label_2_5x7_data_4_split_0
I0124 10:39:15.295406 31833 net.cpp:408] label_2_5x7_data_4_split -> label_2_5x7_data_4_split_1
I0124 10:39:15.295454 31833 net.cpp:150] Setting up label_2_5x7_data_4_split
I0124 10:39:15.295459 31833 net.cpp:157] Top shape: 2 6 36 48 (20736)
I0124 10:39:15.295461 31833 net.cpp:157] Top shape: 2 6 36 48 (20736)
I0124 10:39:15.295462 31833 net.cpp:165] Memory required for data: 13151836
I0124 10:39:15.295465 31833 layer_factory.hpp:77] Creating layer label_3_3x5_data_5_split
I0124 10:39:15.295469 31833 net.cpp:100] Creating Layer label_3_3x5_data_5_split
I0124 10:39:15.295470 31833 net.cpp:434] label_3_3x5_data_5_split <- label_3_3x5
I0124 10:39:15.295475 31833 net.cpp:408] label_3_3x5_data_5_split -> label_3_3x5_data_5_split_0
I0124 10:39:15.295480 31833 net.cpp:408] label_3_3x5_data_5_split -> label_3_3x5_data_5_split_1
I0124 10:39:15.295508 31833 net.cpp:150] Setting up label_3_3x5_data_5_split
I0124 10:39:15.295511 31833 net.cpp:157] Top shape: 2 6 18 24 (5184)
I0124 10:39:15.295514 31833 net.cpp:157] Top shape: 2 6 18 24 (5184)
I0124 10:39:15.295516 31833 net.cpp:165] Memory required for data: 13193308
I0124 10:39:15.295517 31833 layer_factory.hpp:77] Creating layer label_3_5x7_data_6_split
I0124 10:39:15.295521 31833 net.cpp:100] Creating Layer label_3_5x7_data_6_split
I0124 10:39:15.295523 31833 net.cpp:434] label_3_5x7_data_6_split <- label_3_5x7
I0124 10:39:15.295527 31833 net.cpp:408] label_3_5x7_data_6_split -> label_3_5x7_data_6_split_0
I0124 10:39:15.295531 31833 net.cpp:408] label_3_5x7_data_6_split -> label_3_5x7_data_6_split_1
I0124 10:39:15.295558 31833 net.cpp:150] Setting up label_3_5x7_data_6_split
I0124 10:39:15.295562 31833 net.cpp:157] Top shape: 2 6 18 24 (5184)
I0124 10:39:15.295564 31833 net.cpp:157] Top shape: 2 6 18 24 (5184)
I0124 10:39:15.295565 31833 net.cpp:165] Memory required for data: 13234780
I0124 10:39:15.295567 31833 layer_factory.hpp:77] Creating layer label_4_3x5_data_7_split
I0124 10:39:15.295572 31833 net.cpp:100] Creating Layer label_4_3x5_data_7_split
I0124 10:39:15.295573 31833 net.cpp:434] label_4_3x5_data_7_split <- label_4_3x5
I0124 10:39:15.295578 31833 net.cpp:408] label_4_3x5_data_7_split -> label_4_3x5_data_7_split_0
I0124 10:39:15.295583 31833 net.cpp:408] label_4_3x5_data_7_split -> label_4_3x5_data_7_split_1
I0124 10:39:15.295609 31833 net.cpp:150] Setting up label_4_3x5_data_7_split
I0124 10:39:15.295613 31833 net.cpp:157] Top shape: 2 6 9 12 (1296)
I0124 10:39:15.295615 31833 net.cpp:157] Top shape: 2 6 9 12 (1296)
I0124 10:39:15.295616 31833 net.cpp:165] Memory required for data: 13245148
I0124 10:39:15.295619 31833 layer_factory.hpp:77] Creating layer conv1_1
I0124 10:39:15.295627 31833 net.cpp:100] Creating Layer conv1_1
I0124 10:39:15.295629 31833 net.cpp:434] conv1_1 <- data
I0124 10:39:15.295635 31833 net.cpp:408] conv1_1 -> conv1_1
I0124 10:39:15.298985 31833 net.cpp:150] Setting up conv1_1
I0124 10:39:15.298997 31833 net.cpp:157] Top shape: 2 64 576 768 (56623104)
I0124 10:39:15.299000 31833 net.cpp:165] Memory required for data: 239737564
I0124 10:39:15.299012 31833 layer_factory.hpp:77] Creating layer relu1_1
I0124 10:39:15.299019 31833 net.cpp:100] Creating Layer relu1_1
I0124 10:39:15.299022 31833 net.cpp:434] relu1_1 <- conv1_1
I0124 10:39:15.299027 31833 net.cpp:395] relu1_1 -> conv1_1 (in-place)
I0124 10:39:15.299198 31833 net.cpp:150] Setting up relu1_1
I0124 10:39:15.299204 31833 net.cpp:157] Top shape: 2 64 576 768 (56623104)
I0124 10:39:15.299206 31833 net.cpp:165] Memory required for data: 466229980
I0124 10:39:15.299208 31833 layer_factory.hpp:77] Creating layer conv1_2
I0124 10:39:15.299217 31833 net.cpp:100] Creating Layer conv1_2
I0124 10:39:15.299219 31833 net.cpp:434] conv1_2 <- conv1_1
I0124 10:39:15.299224 31833 net.cpp:408] conv1_2 -> conv1_2
I0124 10:39:15.301561 31833 net.cpp:150] Setting up conv1_2
I0124 10:39:15.301573 31833 net.cpp:157] Top shape: 2 64 576 768 (56623104)
I0124 10:39:15.301574 31833 net.cpp:165] Memory required for data: 692722396
I0124 10:39:15.301585 31833 layer_factory.hpp:77] Creating layer relu1_2
I0124 10:39:15.301590 31833 net.cpp:100] Creating Layer relu1_2
I0124 10:39:15.301594 31833 net.cpp:434] relu1_2 <- conv1_2
I0124 10:39:15.301597 31833 net.cpp:395] relu1_2 -> conv1_2 (in-place)
I0124 10:39:15.301770 31833 net.cpp:150] Setting up relu1_2
I0124 10:39:15.301776 31833 net.cpp:157] Top shape: 2 64 576 768 (56623104)
I0124 10:39:15.301779 31833 net.cpp:165] Memory required for data: 919214812
I0124 10:39:15.301780 31833 layer_factory.hpp:77] Creating layer pool1
I0124 10:39:15.301786 31833 net.cpp:100] Creating Layer pool1
I0124 10:39:15.301789 31833 net.cpp:434] pool1 <- conv1_2
I0124 10:39:15.301793 31833 net.cpp:408] pool1 -> pool1
I0124 10:39:15.301837 31833 net.cpp:150] Setting up pool1
I0124 10:39:15.301841 31833 net.cpp:157] Top shape: 2 64 288 384 (14155776)
I0124 10:39:15.301842 31833 net.cpp:165] Memory required for data: 975837916
I0124 10:39:15.301844 31833 layer_factory.hpp:77] Creating layer conv2_1
I0124 10:39:15.301851 31833 net.cpp:100] Creating Layer conv2_1
I0124 10:39:15.301853 31833 net.cpp:434] conv2_1 <- pool1
I0124 10:39:15.301857 31833 net.cpp:408] conv2_1 -> conv2_1
I0124 10:39:15.303236 31833 net.cpp:150] Setting up conv2_1
I0124 10:39:15.303246 31833 net.cpp:157] Top shape: 2 128 288 384 (28311552)
I0124 10:39:15.303247 31833 net.cpp:165] Memory required for data: 1089084124
I0124 10:39:15.303256 31833 layer_factory.hpp:77] Creating layer relu2_1
I0124 10:39:15.303261 31833 net.cpp:100] Creating Layer relu2_1
I0124 10:39:15.303263 31833 net.cpp:434] relu2_1 <- conv2_1
I0124 10:39:15.303267 31833 net.cpp:395] relu2_1 -> conv2_1 (in-place)
I0124 10:39:15.303721 31833 net.cpp:150] Setting up relu2_1
I0124 10:39:15.303730 31833 net.cpp:157] Top shape: 2 128 288 384 (28311552)
I0124 10:39:15.303732 31833 net.cpp:165] Memory required for data: 1202330332
I0124 10:39:15.303735 31833 layer_factory.hpp:77] Creating layer conv2_2
I0124 10:39:15.303742 31833 net.cpp:100] Creating Layer conv2_2
I0124 10:39:15.303745 31833 net.cpp:434] conv2_2 <- conv2_1
I0124 10:39:15.303750 31833 net.cpp:408] conv2_2 -> conv2_2
I0124 10:39:15.305158 31833 net.cpp:150] Setting up conv2_2
I0124 10:39:15.305167 31833 net.cpp:157] Top shape: 2 128 288 384 (28311552)
I0124 10:39:15.305169 31833 net.cpp:165] Memory required for data: 1315576540
I0124 10:39:15.305174 31833 layer_factory.hpp:77] Creating layer relu2_2
I0124 10:39:15.305183 31833 net.cpp:100] Creating Layer relu2_2
I0124 10:39:15.305186 31833 net.cpp:434] relu2_2 <- conv2_2
I0124 10:39:15.305189 31833 net.cpp:395] relu2_2 -> conv2_2 (in-place)
I0124 10:39:15.305668 31833 net.cpp:150] Setting up relu2_2
I0124 10:39:15.305677 31833 net.cpp:157] Top shape: 2 128 288 384 (28311552)
I0124 10:39:15.305680 31833 net.cpp:165] Memory required for data: 1428822748
I0124 10:39:15.305681 31833 layer_factory.hpp:77] Creating layer pool2
I0124 10:39:15.305687 31833 net.cpp:100] Creating Layer pool2
I0124 10:39:15.305691 31833 net.cpp:434] pool2 <- conv2_2
I0124 10:39:15.305694 31833 net.cpp:408] pool2 -> pool2
I0124 10:39:15.305737 31833 net.cpp:150] Setting up pool2
I0124 10:39:15.305740 31833 net.cpp:157] Top shape: 2 128 144 192 (7077888)
I0124 10:39:15.305742 31833 net.cpp:165] Memory required for data: 1457134300
I0124 10:39:15.305744 31833 layer_factory.hpp:77] Creating layer conv3_1
I0124 10:39:15.305750 31833 net.cpp:100] Creating Layer conv3_1
I0124 10:39:15.305752 31833 net.cpp:434] conv3_1 <- pool2
I0124 10:39:15.305755 31833 net.cpp:408] conv3_1 -> conv3_1
I0124 10:39:15.307986 31833 net.cpp:150] Setting up conv3_1
I0124 10:39:15.307996 31833 net.cpp:157] Top shape: 2 256 144 192 (14155776)
I0124 10:39:15.307998 31833 net.cpp:165] Memory required for data: 1513757404
I0124 10:39:15.308007 31833 layer_factory.hpp:77] Creating layer relu3_1
I0124 10:39:15.308010 31833 net.cpp:100] Creating Layer relu3_1
I0124 10:39:15.308013 31833 net.cpp:434] relu3_1 <- conv3_1
I0124 10:39:15.308018 31833 net.cpp:395] relu3_1 -> conv3_1 (in-place)
I0124 10:39:15.308166 31833 net.cpp:150] Setting up relu3_1
I0124 10:39:15.308172 31833 net.cpp:157] Top shape: 2 256 144 192 (14155776)
I0124 10:39:15.308174 31833 net.cpp:165] Memory required for data: 1570380508
I0124 10:39:15.308176 31833 layer_factory.hpp:77] Creating layer conv3_2
I0124 10:39:15.308182 31833 net.cpp:100] Creating Layer conv3_2
I0124 10:39:15.308184 31833 net.cpp:434] conv3_2 <- conv3_1
I0124 10:39:15.308188 31833 net.cpp:408] conv3_2 -> conv3_2
I0124 10:39:15.310612 31833 net.cpp:150] Setting up conv3_2
I0124 10:39:15.310622 31833 net.cpp:157] Top shape: 2 256 144 192 (14155776)
I0124 10:39:15.310624 31833 net.cpp:165] Memory required for data: 1627003612
I0124 10:39:15.310629 31833 layer_factory.hpp:77] Creating layer relu3_2
I0124 10:39:15.310634 31833 net.cpp:100] Creating Layer relu3_2
I0124 10:39:15.310636 31833 net.cpp:434] relu3_2 <- conv3_2
I0124 10:39:15.310642 31833 net.cpp:395] relu3_2 -> conv3_2 (in-place)
I0124 10:39:15.310788 31833 net.cpp:150] Setting up relu3_2
I0124 10:39:15.310793 31833 net.cpp:157] Top shape: 2 256 144 192 (14155776)
I0124 10:39:15.310796 31833 net.cpp:165] Memory required for data: 1683626716
I0124 10:39:15.310797 31833 layer_factory.hpp:77] Creating layer conv3_3
I0124 10:39:15.310804 31833 net.cpp:100] Creating Layer conv3_3
I0124 10:39:15.310806 31833 net.cpp:434] conv3_3 <- conv3_2
I0124 10:39:15.310811 31833 net.cpp:408] conv3_3 -> conv3_3
I0124 10:39:15.313199 31833 net.cpp:150] Setting up conv3_3
I0124 10:39:15.313208 31833 net.cpp:157] Top shape: 2 256 144 192 (14155776)
I0124 10:39:15.313211 31833 net.cpp:165] Memory required for data: 1740249820
I0124 10:39:15.313216 31833 layer_factory.hpp:77] Creating layer relu3_3
I0124 10:39:15.313220 31833 net.cpp:100] Creating Layer relu3_3
I0124 10:39:15.313222 31833 net.cpp:434] relu3_3 <- conv3_3
I0124 10:39:15.313236 31833 net.cpp:395] relu3_3 -> conv3_3 (in-place)
I0124 10:39:15.313408 31833 net.cpp:150] Setting up relu3_3
I0124 10:39:15.313416 31833 net.cpp:157] Top shape: 2 256 144 192 (14155776)
I0124 10:39:15.313417 31833 net.cpp:165] Memory required for data: 1796872924
I0124 10:39:15.313419 31833 layer_factory.hpp:77] Creating layer pool3
I0124 10:39:15.313426 31833 net.cpp:100] Creating Layer pool3
I0124 10:39:15.313427 31833 net.cpp:434] pool3 <- conv3_3
I0124 10:39:15.313431 31833 net.cpp:408] pool3 -> pool3
I0124 10:39:15.313478 31833 net.cpp:150] Setting up pool3
I0124 10:39:15.313483 31833 net.cpp:157] Top shape: 2 256 72 96 (3538944)
I0124 10:39:15.313484 31833 net.cpp:165] Memory required for data: 1811028700
I0124 10:39:15.313486 31833 layer_factory.hpp:77] Creating layer conv4_1
I0124 10:39:15.313493 31833 net.cpp:100] Creating Layer conv4_1
I0124 10:39:15.313495 31833 net.cpp:434] conv4_1 <- pool3
I0124 10:39:15.313498 31833 net.cpp:408] conv4_1 -> conv4_1
I0124 10:39:15.316665 31833 net.cpp:150] Setting up conv4_1
I0124 10:39:15.316679 31833 net.cpp:157] Top shape: 2 512 72 96 (7077888)
I0124 10:39:15.316681 31833 net.cpp:165] Memory required for data: 1839340252
I0124 10:39:15.316689 31833 layer_factory.hpp:77] Creating layer relu4_1
I0124 10:39:15.316695 31833 net.cpp:100] Creating Layer relu4_1
I0124 10:39:15.316699 31833 net.cpp:434] relu4_1 <- conv4_1
I0124 10:39:15.316704 31833 net.cpp:395] relu4_1 -> conv4_1 (in-place)
I0124 10:39:15.316862 31833 net.cpp:150] Setting up relu4_1
I0124 10:39:15.316870 31833 net.cpp:157] Top shape: 2 512 72 96 (7077888)
I0124 10:39:15.316874 31833 net.cpp:165] Memory required for data: 1867651804
I0124 10:39:15.316877 31833 layer_factory.hpp:77] Creating layer conv4_2
I0124 10:39:15.316887 31833 net.cpp:100] Creating Layer conv4_2
I0124 10:39:15.316890 31833 net.cpp:434] conv4_2 <- conv4_1
I0124 10:39:15.316900 31833 net.cpp:408] conv4_2 -> conv4_2
I0124 10:39:15.321835 31833 net.cpp:150] Setting up conv4_2
I0124 10:39:15.321851 31833 net.cpp:157] Top shape: 2 512 72 96 (7077888)
I0124 10:39:15.321852 31833 net.cpp:165] Memory required for data: 1895963356
I0124 10:39:15.321866 31833 layer_factory.hpp:77] Creating layer relu4_2
I0124 10:39:15.321872 31833 net.cpp:100] Creating Layer relu4_2
I0124 10:39:15.321876 31833 net.cpp:434] relu4_2 <- conv4_2
I0124 10:39:15.321882 31833 net.cpp:395] relu4_2 -> conv4_2 (in-place)
I0124 10:39:15.322397 31833 net.cpp:150] Setting up relu4_2
I0124 10:39:15.322407 31833 net.cpp:157] Top shape: 2 512 72 96 (7077888)
I0124 10:39:15.322409 31833 net.cpp:165] Memory required for data: 1924274908
I0124 10:39:15.322412 31833 layer_factory.hpp:77] Creating layer conv4_3
I0124 10:39:15.322418 31833 net.cpp:100] Creating Layer conv4_3
I0124 10:39:15.322422 31833 net.cpp:434] conv4_3 <- conv4_2
I0124 10:39:15.322427 31833 net.cpp:408] conv4_3 -> conv4_3
I0124 10:39:15.327087 31833 net.cpp:150] Setting up conv4_3
I0124 10:39:15.327103 31833 net.cpp:157] Top shape: 2 512 72 96 (7077888)
I0124 10:39:15.327105 31833 net.cpp:165] Memory required for data: 1952586460
I0124 10:39:15.327113 31833 layer_factory.hpp:77] Creating layer relu4_3
I0124 10:39:15.327121 31833 net.cpp:100] Creating Layer relu4_3
I0124 10:39:15.327123 31833 net.cpp:434] relu4_3 <- conv4_3
I0124 10:39:15.327127 31833 net.cpp:395] relu4_3 -> conv4_3 (in-place)
I0124 10:39:15.327272 31833 net.cpp:150] Setting up relu4_3
I0124 10:39:15.327277 31833 net.cpp:157] Top shape: 2 512 72 96 (7077888)
I0124 10:39:15.327280 31833 net.cpp:165] Memory required for data: 1980898012
I0124 10:39:15.327281 31833 layer_factory.hpp:77] Creating layer conv4_3_relu4_3_0_split
I0124 10:39:15.327287 31833 net.cpp:100] Creating Layer conv4_3_relu4_3_0_split
I0124 10:39:15.327291 31833 net.cpp:434] conv4_3_relu4_3_0_split <- conv4_3
I0124 10:39:15.327296 31833 net.cpp:408] conv4_3_relu4_3_0_split -> conv4_3_relu4_3_0_split_0
I0124 10:39:15.327301 31833 net.cpp:408] conv4_3_relu4_3_0_split -> conv4_3_relu4_3_0_split_1
I0124 10:39:15.327306 31833 net.cpp:408] conv4_3_relu4_3_0_split -> conv4_3_relu4_3_0_split_2
I0124 10:39:15.327354 31833 net.cpp:150] Setting up conv4_3_relu4_3_0_split
I0124 10:39:15.327358 31833 net.cpp:157] Top shape: 2 512 72 96 (7077888)
I0124 10:39:15.327361 31833 net.cpp:157] Top shape: 2 512 72 96 (7077888)
I0124 10:39:15.327363 31833 net.cpp:157] Top shape: 2 512 72 96 (7077888)
I0124 10:39:15.327365 31833 net.cpp:165] Memory required for data: 2065832668
I0124 10:39:15.327368 31833 layer_factory.hpp:77] Creating layer loss1_conv1
I0124 10:39:15.327381 31833 net.cpp:100] Creating Layer loss1_conv1
I0124 10:39:15.327383 31833 net.cpp:434] loss1_conv1 <- conv4_3_relu4_3_0_split_0
I0124 10:39:15.327389 31833 net.cpp:408] loss1_conv1 -> loss1_conv1
I0124 10:39:15.348755 31833 net.cpp:150] Setting up loss1_conv1
I0124 10:39:15.348775 31833 net.cpp:157] Top shape: 2 512 72 96 (7077888)
I0124 10:39:15.348778 31833 net.cpp:165] Memory required for data: 2094144220
I0124 10:39:15.348788 31833 layer_factory.hpp:77] Creating layer loss_relu1
I0124 10:39:15.348795 31833 net.cpp:100] Creating Layer loss_relu1
I0124 10:39:15.348799 31833 net.cpp:434] loss_relu1 <- loss1_conv1
I0124 10:39:15.348806 31833 net.cpp:395] loss_relu1 -> loss1_conv1 (in-place)
I0124 10:39:15.348963 31833 net.cpp:150] Setting up loss_relu1
I0124 10:39:15.348971 31833 net.cpp:157] Top shape: 2 512 72 96 (7077888)
I0124 10:39:15.348973 31833 net.cpp:165] Memory required for data: 2122455772
I0124 10:39:15.348975 31833 layer_factory.hpp:77] Creating layer loss1_conv1_loss_relu1_0_split
I0124 10:39:15.348981 31833 net.cpp:100] Creating Layer loss1_conv1_loss_relu1_0_split
I0124 10:39:15.348984 31833 net.cpp:434] loss1_conv1_loss_relu1_0_split <- loss1_conv1
I0124 10:39:15.348989 31833 net.cpp:408] loss1_conv1_loss_relu1_0_split -> loss1_conv1_loss_relu1_0_split_0
I0124 10:39:15.348994 31833 net.cpp:408] loss1_conv1_loss_relu1_0_split -> loss1_conv1_loss_relu1_0_split_1
I0124 10:39:15.349035 31833 net.cpp:150] Setting up loss1_conv1_loss_relu1_0_split
I0124 10:39:15.349040 31833 net.cpp:157] Top shape: 2 512 72 96 (7077888)
I0124 10:39:15.349043 31833 net.cpp:157] Top shape: 2 512 72 96 (7077888)
I0124 10:39:15.349045 31833 net.cpp:165] Memory required for data: 2179078876
I0124 10:39:15.349047 31833 layer_factory.hpp:77] Creating layer LFCN_1_3x5
I0124 10:39:15.349056 31833 net.cpp:100] Creating Layer LFCN_1_3x5
I0124 10:39:15.349058 31833 net.cpp:434] LFCN_1_3x5 <- loss1_conv1_loss_relu1_0_split_0
I0124 10:39:15.349064 31833 net.cpp:408] LFCN_1_3x5 -> LFCN_1_3x5
I0124 10:39:15.350517 31833 net.cpp:150] Setting up LFCN_1_3x5
I0124 10:39:15.350525 31833 net.cpp:157] Top shape: 2 7 72 96 (96768)
I0124 10:39:15.350528 31833 net.cpp:165] Memory required for data: 2179465948
I0124 10:39:15.350533 31833 layer_factory.hpp:77] Creating layer LFCN_1_3x5_LFCN_1_3x5_0_split
I0124 10:39:15.350538 31833 net.cpp:100] Creating Layer LFCN_1_3x5_LFCN_1_3x5_0_split
I0124 10:39:15.350540 31833 net.cpp:434] LFCN_1_3x5_LFCN_1_3x5_0_split <- LFCN_1_3x5
I0124 10:39:15.350546 31833 net.cpp:408] LFCN_1_3x5_LFCN_1_3x5_0_split -> LFCN_1_3x5_LFCN_1_3x5_0_split_0
I0124 10:39:15.350553 31833 net.cpp:408] LFCN_1_3x5_LFCN_1_3x5_0_split -> LFCN_1_3x5_LFCN_1_3x5_0_split_1
I0124 10:39:15.350558 31833 net.cpp:408] LFCN_1_3x5_LFCN_1_3x5_0_split -> LFCN_1_3x5_LFCN_1_3x5_0_split_2
I0124 10:39:15.350605 31833 net.cpp:150] Setting up LFCN_1_3x5_LFCN_1_3x5_0_split
I0124 10:39:15.350610 31833 net.cpp:157] Top shape: 2 7 72 96 (96768)
I0124 10:39:15.350611 31833 net.cpp:157] Top shape: 2 7 72 96 (96768)
I0124 10:39:15.350615 31833 net.cpp:157] Top shape: 2 7 72 96 (96768)
I0124 10:39:15.350615 31833 net.cpp:165] Memory required for data: 2180627164
I0124 10:39:15.350617 31833 layer_factory.hpp:77] Creating layer detection_loss_1_3x5
I0124 10:39:15.350625 31833 net.cpp:100] Creating Layer detection_loss_1_3x5
I0124 10:39:15.350626 31833 net.cpp:434] detection_loss_1_3x5 <- LFCN_1_3x5_LFCN_1_3x5_0_split_0
I0124 10:39:15.350630 31833 net.cpp:434] detection_loss_1_3x5 <- label_1_3x5_data_1_split_0
I0124 10:39:15.350634 31833 net.cpp:408] detection_loss_1_3x5 -> loss_1_3x5
I0124 10:39:15.350643 31833 layer_factory.hpp:77] Creating layer detection_loss_1_3x5
I0124 10:39:15.350975 31833 net.cpp:150] Setting up detection_loss_1_3x5
I0124 10:39:15.350980 31833 net.cpp:157] Top shape: 1 1 1 2 (2)
I0124 10:39:15.350982 31833 net.cpp:160]     with loss weight 0.5
I0124 10:39:15.350991 31833 net.cpp:165] Memory required for data: 2180627172
I0124 10:39:15.350993 31833 layer_factory.hpp:77] Creating layer detection_accuracy_1_3x5
I0124 10:39:15.350998 31833 net.cpp:100] Creating Layer detection_accuracy_1_3x5
I0124 10:39:15.351001 31833 net.cpp:434] detection_accuracy_1_3x5 <- LFCN_1_3x5_LFCN_1_3x5_0_split_1
I0124 10:39:15.351006 31833 net.cpp:434] detection_accuracy_1_3x5 <- label_1_3x5_data_1_split_1
I0124 10:39:15.351009 31833 net.cpp:408] detection_accuracy_1_3x5 -> accuracy_1_3x5
I0124 10:39:15.351016 31833 net.cpp:408] detection_accuracy_1_3x5 -> boxiou_1_3x5
I0124 10:39:15.351052 31833 net.cpp:150] Setting up detection_accuracy_1_3x5
I0124 10:39:15.351056 31833 net.cpp:157] Top shape: 1 1 1 2 (2)
I0124 10:39:15.351058 31833 net.cpp:157] Top shape: 1 1 1 1 (1)
I0124 10:39:15.351060 31833 net.cpp:165] Memory required for data: 2180627184
I0124 10:39:15.351063 31833 layer_factory.hpp:77] Creating layer LFCN_1_5x7
I0124 10:39:15.351070 31833 net.cpp:100] Creating Layer LFCN_1_5x7
I0124 10:39:15.351073 31833 net.cpp:434] LFCN_1_5x7 <- loss1_conv1_loss_relu1_0_split_1
I0124 10:39:15.351078 31833 net.cpp:408] LFCN_1_5x7 -> LFCN_1_5x7
I0124 10:39:15.352975 31833 net.cpp:150] Setting up LFCN_1_5x7
I0124 10:39:15.352985 31833 net.cpp:157] Top shape: 2 7 72 96 (96768)
I0124 10:39:15.352988 31833 net.cpp:165] Memory required for data: 2181014256
I0124 10:39:15.352993 31833 layer_factory.hpp:77] Creating layer LFCN_1_5x7_LFCN_1_5x7_0_split
I0124 10:39:15.352998 31833 net.cpp:100] Creating Layer LFCN_1_5x7_LFCN_1_5x7_0_split
I0124 10:39:15.352999 31833 net.cpp:434] LFCN_1_5x7_LFCN_1_5x7_0_split <- LFCN_1_5x7
I0124 10:39:15.353005 31833 net.cpp:408] LFCN_1_5x7_LFCN_1_5x7_0_split -> LFCN_1_5x7_LFCN_1_5x7_0_split_0
I0124 10:39:15.353011 31833 net.cpp:408] LFCN_1_5x7_LFCN_1_5x7_0_split -> LFCN_1_5x7_LFCN_1_5x7_0_split_1
I0124 10:39:15.353016 31833 net.cpp:408] LFCN_1_5x7_LFCN_1_5x7_0_split -> LFCN_1_5x7_LFCN_1_5x7_0_split_2
I0124 10:39:15.353065 31833 net.cpp:150] Setting up LFCN_1_5x7_LFCN_1_5x7_0_split
I0124 10:39:15.353070 31833 net.cpp:157] Top shape: 2 7 72 96 (96768)
I0124 10:39:15.353071 31833 net.cpp:157] Top shape: 2 7 72 96 (96768)
I0124 10:39:15.353075 31833 net.cpp:157] Top shape: 2 7 72 96 (96768)
I0124 10:39:15.353075 31833 net.cpp:165] Memory required for data: 2182175472
I0124 10:39:15.353077 31833 layer_factory.hpp:77] Creating layer detection_loss_1_5x7
I0124 10:39:15.353082 31833 net.cpp:100] Creating Layer detection_loss_1_5x7
I0124 10:39:15.353085 31833 net.cpp:434] detection_loss_1_5x7 <- LFCN_1_5x7_LFCN_1_5x7_0_split_0
I0124 10:39:15.353088 31833 net.cpp:434] detection_loss_1_5x7 <- label_1_5x7_data_2_split_0
I0124 10:39:15.353094 31833 net.cpp:408] detection_loss_1_5x7 -> loss_1_5x7
I0124 10:39:15.353099 31833 layer_factory.hpp:77] Creating layer detection_loss_1_5x7
I0124 10:39:15.353421 31833 net.cpp:150] Setting up detection_loss_1_5x7
I0124 10:39:15.353428 31833 net.cpp:157] Top shape: 1 1 1 2 (2)
I0124 10:39:15.353430 31833 net.cpp:160]     with loss weight 0.9
I0124 10:39:15.353435 31833 net.cpp:165] Memory required for data: 2182175480
I0124 10:39:15.353437 31833 layer_factory.hpp:77] Creating layer detection_accuracy_1_5x7
I0124 10:39:15.353443 31833 net.cpp:100] Creating Layer detection_accuracy_1_5x7
I0124 10:39:15.353446 31833 net.cpp:434] detection_accuracy_1_5x7 <- LFCN_1_5x7_LFCN_1_5x7_0_split_1
I0124 10:39:15.353449 31833 net.cpp:434] detection_accuracy_1_5x7 <- label_1_5x7_data_2_split_1
I0124 10:39:15.353453 31833 net.cpp:408] detection_accuracy_1_5x7 -> accuracy_1_5x7
I0124 10:39:15.353461 31833 net.cpp:408] detection_accuracy_1_5x7 -> boxiou_1_5x7
I0124 10:39:15.353497 31833 net.cpp:150] Setting up detection_accuracy_1_5x7
I0124 10:39:15.353500 31833 net.cpp:157] Top shape: 1 1 1 2 (2)
I0124 10:39:15.353502 31833 net.cpp:157] Top shape: 1 1 1 1 (1)
I0124 10:39:15.353504 31833 net.cpp:165] Memory required for data: 2182175492
I0124 10:39:15.353507 31833 layer_factory.hpp:77] Creating layer pool4
I0124 10:39:15.353512 31833 net.cpp:100] Creating Layer pool4
I0124 10:39:15.353514 31833 net.cpp:434] pool4 <- conv4_3_relu4_3_0_split_1
I0124 10:39:15.353518 31833 net.cpp:408] pool4 -> pool4
I0124 10:39:15.353552 31833 net.cpp:150] Setting up pool4
I0124 10:39:15.353555 31833 net.cpp:157] Top shape: 2 512 36 48 (1769472)
I0124 10:39:15.353557 31833 net.cpp:165] Memory required for data: 2189253380
I0124 10:39:15.353559 31833 layer_factory.hpp:77] Creating layer conv5_1
I0124 10:39:15.353565 31833 net.cpp:100] Creating Layer conv5_1
I0124 10:39:15.353567 31833 net.cpp:434] conv5_1 <- pool4
I0124 10:39:15.353571 31833 net.cpp:408] conv5_1 -> conv5_1
I0124 10:39:15.358507 31833 net.cpp:150] Setting up conv5_1
I0124 10:39:15.358526 31833 net.cpp:157] Top shape: 2 512 36 48 (1769472)
I0124 10:39:15.358528 31833 net.cpp:165] Memory required for data: 2196331268
I0124 10:39:15.358536 31833 layer_factory.hpp:77] Creating layer relu5_1
I0124 10:39:15.358543 31833 net.cpp:100] Creating Layer relu5_1
I0124 10:39:15.358546 31833 net.cpp:434] relu5_1 <- conv5_1
I0124 10:39:15.358551 31833 net.cpp:395] relu5_1 -> conv5_1 (in-place)
I0124 10:39:15.358705 31833 net.cpp:150] Setting up relu5_1
I0124 10:39:15.358711 31833 net.cpp:157] Top shape: 2 512 36 48 (1769472)
I0124 10:39:15.358713 31833 net.cpp:165] Memory required for data: 2203409156
I0124 10:39:15.358716 31833 layer_factory.hpp:77] Creating layer conv5_2
I0124 10:39:15.358722 31833 net.cpp:100] Creating Layer conv5_2
I0124 10:39:15.358724 31833 net.cpp:434] conv5_2 <- conv5_1
I0124 10:39:15.358728 31833 net.cpp:408] conv5_2 -> conv5_2
I0124 10:39:15.364079 31833 net.cpp:150] Setting up conv5_2
I0124 10:39:15.364102 31833 net.cpp:157] Top shape: 2 512 36 48 (1769472)
I0124 10:39:15.364104 31833 net.cpp:165] Memory required for data: 2210487044
I0124 10:39:15.364114 31833 layer_factory.hpp:77] Creating layer relu5_2
I0124 10:39:15.364123 31833 net.cpp:100] Creating Layer relu5_2
I0124 10:39:15.364127 31833 net.cpp:434] relu5_2 <- conv5_2
I0124 10:39:15.364133 31833 net.cpp:395] relu5_2 -> conv5_2 (in-place)
I0124 10:39:15.364655 31833 net.cpp:150] Setting up relu5_2
I0124 10:39:15.364665 31833 net.cpp:157] Top shape: 2 512 36 48 (1769472)
I0124 10:39:15.364667 31833 net.cpp:165] Memory required for data: 2217564932
I0124 10:39:15.364670 31833 layer_factory.hpp:77] Creating layer conv5_3
I0124 10:39:15.364677 31833 net.cpp:100] Creating Layer conv5_3
I0124 10:39:15.364679 31833 net.cpp:434] conv5_3 <- conv5_2
I0124 10:39:15.364686 31833 net.cpp:408] conv5_3 -> conv5_3
I0124 10:39:15.370386 31833 net.cpp:150] Setting up conv5_3
I0124 10:39:15.370404 31833 net.cpp:157] Top shape: 2 512 36 48 (1769472)
I0124 10:39:15.370407 31833 net.cpp:165] Memory required for data: 2224642820
I0124 10:39:15.370415 31833 layer_factory.hpp:77] Creating layer relu5_3
I0124 10:39:15.370424 31833 net.cpp:100] Creating Layer relu5_3
I0124 10:39:15.370426 31833 net.cpp:434] relu5_3 <- conv5_3
I0124 10:39:15.370434 31833 net.cpp:395] relu5_3 -> conv5_3 (in-place)
I0124 10:39:15.370594 31833 net.cpp:150] Setting up relu5_3
I0124 10:39:15.370602 31833 net.cpp:157] Top shape: 2 512 36 48 (1769472)
I0124 10:39:15.370604 31833 net.cpp:165] Memory required for data: 2231720708
I0124 10:39:15.370606 31833 layer_factory.hpp:77] Creating layer conv5_3_relu5_3_0_split
I0124 10:39:15.370612 31833 net.cpp:100] Creating Layer conv5_3_relu5_3_0_split
I0124 10:39:15.370615 31833 net.cpp:434] conv5_3_relu5_3_0_split <- conv5_3
I0124 10:39:15.370620 31833 net.cpp:408] conv5_3_relu5_3_0_split -> conv5_3_relu5_3_0_split_0
I0124 10:39:15.370626 31833 net.cpp:408] conv5_3_relu5_3_0_split -> conv5_3_relu5_3_0_split_1
I0124 10:39:15.370632 31833 net.cpp:408] conv5_3_relu5_3_0_split -> conv5_3_relu5_3_0_split_2
I0124 10:39:15.370685 31833 net.cpp:150] Setting up conv5_3_relu5_3_0_split
I0124 10:39:15.370692 31833 net.cpp:157] Top shape: 2 512 36 48 (1769472)
I0124 10:39:15.370693 31833 net.cpp:157] Top shape: 2 512 36 48 (1769472)
I0124 10:39:15.370697 31833 net.cpp:157] Top shape: 2 512 36 48 (1769472)
I0124 10:39:15.370698 31833 net.cpp:165] Memory required for data: 2252954372
I0124 10:39:15.370700 31833 layer_factory.hpp:77] Creating layer LFCN_2_3x5
I0124 10:39:15.370709 31833 net.cpp:100] Creating Layer LFCN_2_3x5
I0124 10:39:15.370713 31833 net.cpp:434] LFCN_2_3x5 <- conv5_3_relu5_3_0_split_0
I0124 10:39:15.370718 31833 net.cpp:408] LFCN_2_3x5 -> LFCN_2_3x5
I0124 10:39:15.372197 31833 net.cpp:150] Setting up LFCN_2_3x5
I0124 10:39:15.372208 31833 net.cpp:157] Top shape: 2 7 36 48 (24192)
I0124 10:39:15.372211 31833 net.cpp:165] Memory required for data: 2253051140
I0124 10:39:15.372223 31833 layer_factory.hpp:77] Creating layer LFCN_2_3x5_LFCN_2_3x5_0_split
I0124 10:39:15.372229 31833 net.cpp:100] Creating Layer LFCN_2_3x5_LFCN_2_3x5_0_split
I0124 10:39:15.372231 31833 net.cpp:434] LFCN_2_3x5_LFCN_2_3x5_0_split <- LFCN_2_3x5
I0124 10:39:15.372236 31833 net.cpp:408] LFCN_2_3x5_LFCN_2_3x5_0_split -> LFCN_2_3x5_LFCN_2_3x5_0_split_0
I0124 10:39:15.372253 31833 net.cpp:408] LFCN_2_3x5_LFCN_2_3x5_0_split -> LFCN_2_3x5_LFCN_2_3x5_0_split_1
I0124 10:39:15.372258 31833 net.cpp:408] LFCN_2_3x5_LFCN_2_3x5_0_split -> LFCN_2_3x5_LFCN_2_3x5_0_split_2
I0124 10:39:15.372308 31833 net.cpp:150] Setting up LFCN_2_3x5_LFCN_2_3x5_0_split
I0124 10:39:15.372313 31833 net.cpp:157] Top shape: 2 7 36 48 (24192)
I0124 10:39:15.372316 31833 net.cpp:157] Top shape: 2 7 36 48 (24192)
I0124 10:39:15.372318 31833 net.cpp:157] Top shape: 2 7 36 48 (24192)
I0124 10:39:15.372320 31833 net.cpp:165] Memory required for data: 2253341444
I0124 10:39:15.372323 31833 layer_factory.hpp:77] Creating layer detection_loss_2_3x5
I0124 10:39:15.372328 31833 net.cpp:100] Creating Layer detection_loss_2_3x5
I0124 10:39:15.372329 31833 net.cpp:434] detection_loss_2_3x5 <- LFCN_2_3x5_LFCN_2_3x5_0_split_0
I0124 10:39:15.372334 31833 net.cpp:434] detection_loss_2_3x5 <- label_2_3x5_data_3_split_0
I0124 10:39:15.372339 31833 net.cpp:408] detection_loss_2_3x5 -> loss_2_3x5
I0124 10:39:15.372349 31833 layer_factory.hpp:77] Creating layer detection_loss_2_3x5
I0124 10:39:15.372674 31833 net.cpp:150] Setting up detection_loss_2_3x5
I0124 10:39:15.372681 31833 net.cpp:157] Top shape: 1 1 1 2 (2)
I0124 10:39:15.372684 31833 net.cpp:160]     with loss weight 1
I0124 10:39:15.372692 31833 net.cpp:165] Memory required for data: 2253341452
I0124 10:39:15.372694 31833 layer_factory.hpp:77] Creating layer detection_accuracy_2_3x5
I0124 10:39:15.372702 31833 net.cpp:100] Creating Layer detection_accuracy_2_3x5
I0124 10:39:15.372704 31833 net.cpp:434] detection_accuracy_2_3x5 <- LFCN_2_3x5_LFCN_2_3x5_0_split_1
I0124 10:39:15.372709 31833 net.cpp:434] detection_accuracy_2_3x5 <- label_2_3x5_data_3_split_1
I0124 10:39:15.372712 31833 net.cpp:408] detection_accuracy_2_3x5 -> accuracy_2_3x5
I0124 10:39:15.372720 31833 net.cpp:408] detection_accuracy_2_3x5 -> boxiou_2_3x5
I0124 10:39:15.372759 31833 net.cpp:150] Setting up detection_accuracy_2_3x5
I0124 10:39:15.372764 31833 net.cpp:157] Top shape: 1 1 1 2 (2)
I0124 10:39:15.372766 31833 net.cpp:157] Top shape: 1 1 1 1 (1)
I0124 10:39:15.372768 31833 net.cpp:165] Memory required for data: 2253341464
I0124 10:39:15.372771 31833 layer_factory.hpp:77] Creating layer LFCN_2_5x7
I0124 10:39:15.372777 31833 net.cpp:100] Creating Layer LFCN_2_5x7
I0124 10:39:15.372781 31833 net.cpp:434] LFCN_2_5x7 <- conv5_3_relu5_3_0_split_1
I0124 10:39:15.372786 31833 net.cpp:408] LFCN_2_5x7 -> LFCN_2_5x7
I0124 10:39:15.375533 31833 net.cpp:150] Setting up LFCN_2_5x7
I0124 10:39:15.375545 31833 net.cpp:157] Top shape: 2 7 36 48 (24192)
I0124 10:39:15.375548 31833 net.cpp:165] Memory required for data: 2253438232
I0124 10:39:15.375552 31833 layer_factory.hpp:77] Creating layer LFCN_2_5x7_LFCN_2_5x7_0_split
I0124 10:39:15.375560 31833 net.cpp:100] Creating Layer LFCN_2_5x7_LFCN_2_5x7_0_split
I0124 10:39:15.375562 31833 net.cpp:434] LFCN_2_5x7_LFCN_2_5x7_0_split <- LFCN_2_5x7
I0124 10:39:15.375566 31833 net.cpp:408] LFCN_2_5x7_LFCN_2_5x7_0_split -> LFCN_2_5x7_LFCN_2_5x7_0_split_0
I0124 10:39:15.375574 31833 net.cpp:408] LFCN_2_5x7_LFCN_2_5x7_0_split -> LFCN_2_5x7_LFCN_2_5x7_0_split_1
I0124 10:39:15.375579 31833 net.cpp:408] LFCN_2_5x7_LFCN_2_5x7_0_split -> LFCN_2_5x7_LFCN_2_5x7_0_split_2
I0124 10:39:15.375630 31833 net.cpp:150] Setting up LFCN_2_5x7_LFCN_2_5x7_0_split
I0124 10:39:15.375638 31833 net.cpp:157] Top shape: 2 7 36 48 (24192)
I0124 10:39:15.375639 31833 net.cpp:157] Top shape: 2 7 36 48 (24192)
I0124 10:39:15.375643 31833 net.cpp:157] Top shape: 2 7 36 48 (24192)
I0124 10:39:15.375643 31833 net.cpp:165] Memory required for data: 2253728536
I0124 10:39:15.375646 31833 layer_factory.hpp:77] Creating layer detection_loss_2_5x7
I0124 10:39:15.375650 31833 net.cpp:100] Creating Layer detection_loss_2_5x7
I0124 10:39:15.375653 31833 net.cpp:434] detection_loss_2_5x7 <- LFCN_2_5x7_LFCN_2_5x7_0_split_0
I0124 10:39:15.375656 31833 net.cpp:434] detection_loss_2_5x7 <- label_2_5x7_data_4_split_0
I0124 10:39:15.375663 31833 net.cpp:408] detection_loss_2_5x7 -> loss_2_5x7
I0124 10:39:15.375669 31833 layer_factory.hpp:77] Creating layer detection_loss_2_5x7
I0124 10:39:15.375989 31833 net.cpp:150] Setting up detection_loss_2_5x7
I0124 10:39:15.375996 31833 net.cpp:157] Top shape: 1 1 1 2 (2)
I0124 10:39:15.375998 31833 net.cpp:160]     with loss weight 1
I0124 10:39:15.376004 31833 net.cpp:165] Memory required for data: 2253728544
I0124 10:39:15.376008 31833 layer_factory.hpp:77] Creating layer detection_accuracy_2_5x7
I0124 10:39:15.376013 31833 net.cpp:100] Creating Layer detection_accuracy_2_5x7
I0124 10:39:15.376016 31833 net.cpp:434] detection_accuracy_2_5x7 <- LFCN_2_5x7_LFCN_2_5x7_0_split_1
I0124 10:39:15.376020 31833 net.cpp:434] detection_accuracy_2_5x7 <- label_2_5x7_data_4_split_1
I0124 10:39:15.376025 31833 net.cpp:408] detection_accuracy_2_5x7 -> accuracy_2_5x7
I0124 10:39:15.376031 31833 net.cpp:408] detection_accuracy_2_5x7 -> boxiou_2_5x7
I0124 10:39:15.376070 31833 net.cpp:150] Setting up detection_accuracy_2_5x7
I0124 10:39:15.376073 31833 net.cpp:157] Top shape: 1 1 1 2 (2)
I0124 10:39:15.376076 31833 net.cpp:157] Top shape: 1 1 1 1 (1)
I0124 10:39:15.376077 31833 net.cpp:165] Memory required for data: 2253728556
I0124 10:39:15.376080 31833 layer_factory.hpp:77] Creating layer pool5
I0124 10:39:15.376085 31833 net.cpp:100] Creating Layer pool5
I0124 10:39:15.376087 31833 net.cpp:434] pool5 <- conv5_3_relu5_3_0_split_2
I0124 10:39:15.376092 31833 net.cpp:408] pool5 -> pool5
I0124 10:39:15.376129 31833 net.cpp:150] Setting up pool5
I0124 10:39:15.376132 31833 net.cpp:157] Top shape: 2 512 18 24 (442368)
I0124 10:39:15.376134 31833 net.cpp:165] Memory required for data: 2255498028
I0124 10:39:15.376137 31833 layer_factory.hpp:77] Creating layer conv6_1
I0124 10:39:15.376144 31833 net.cpp:100] Creating Layer conv6_1
I0124 10:39:15.376147 31833 net.cpp:434] conv6_1 <- pool5
I0124 10:39:15.376152 31833 net.cpp:408] conv6_1 -> conv6_1
I0124 10:39:15.397356 31833 net.cpp:150] Setting up conv6_1
I0124 10:39:15.397377 31833 net.cpp:157] Top shape: 2 512 18 24 (442368)
I0124 10:39:15.397378 31833 net.cpp:165] Memory required for data: 2257267500
I0124 10:39:15.397387 31833 layer_factory.hpp:77] Creating layer relu6_1
I0124 10:39:15.397395 31833 net.cpp:100] Creating Layer relu6_1
I0124 10:39:15.397400 31833 net.cpp:434] relu6_1 <- conv6_1
I0124 10:39:15.397406 31833 net.cpp:395] relu6_1 -> conv6_1 (in-place)
I0124 10:39:15.397557 31833 net.cpp:150] Setting up relu6_1
I0124 10:39:15.397563 31833 net.cpp:157] Top shape: 2 512 18 24 (442368)
I0124 10:39:15.397565 31833 net.cpp:165] Memory required for data: 2259036972
I0124 10:39:15.397567 31833 layer_factory.hpp:77] Creating layer conv6_1_relu6_1_0_split
I0124 10:39:15.397573 31833 net.cpp:100] Creating Layer conv6_1_relu6_1_0_split
I0124 10:39:15.397575 31833 net.cpp:434] conv6_1_relu6_1_0_split <- conv6_1
I0124 10:39:15.397580 31833 net.cpp:408] conv6_1_relu6_1_0_split -> conv6_1_relu6_1_0_split_0
I0124 10:39:15.397586 31833 net.cpp:408] conv6_1_relu6_1_0_split -> conv6_1_relu6_1_0_split_1
I0124 10:39:15.397593 31833 net.cpp:408] conv6_1_relu6_1_0_split -> conv6_1_relu6_1_0_split_2
I0124 10:39:15.397645 31833 net.cpp:150] Setting up conv6_1_relu6_1_0_split
I0124 10:39:15.397650 31833 net.cpp:157] Top shape: 2 512 18 24 (442368)
I0124 10:39:15.397653 31833 net.cpp:157] Top shape: 2 512 18 24 (442368)
I0124 10:39:15.397655 31833 net.cpp:157] Top shape: 2 512 18 24 (442368)
I0124 10:39:15.397657 31833 net.cpp:165] Memory required for data: 2264345388
I0124 10:39:15.397660 31833 layer_factory.hpp:77] Creating layer LFCN_3_3x5
I0124 10:39:15.397668 31833 net.cpp:100] Creating Layer LFCN_3_3x5
I0124 10:39:15.397672 31833 net.cpp:434] LFCN_3_3x5 <- conv6_1_relu6_1_0_split_0
I0124 10:39:15.397680 31833 net.cpp:408] LFCN_3_3x5 -> LFCN_3_3x5
I0124 10:39:15.399914 31833 net.cpp:150] Setting up LFCN_3_3x5
I0124 10:39:15.399925 31833 net.cpp:157] Top shape: 2 7 18 24 (6048)
I0124 10:39:15.399927 31833 net.cpp:165] Memory required for data: 2264369580
I0124 10:39:15.399932 31833 layer_factory.hpp:77] Creating layer LFCN_3_3x5_LFCN_3_3x5_0_split
I0124 10:39:15.399950 31833 net.cpp:100] Creating Layer LFCN_3_3x5_LFCN_3_3x5_0_split
I0124 10:39:15.399952 31833 net.cpp:434] LFCN_3_3x5_LFCN_3_3x5_0_split <- LFCN_3_3x5
I0124 10:39:15.399957 31833 net.cpp:408] LFCN_3_3x5_LFCN_3_3x5_0_split -> LFCN_3_3x5_LFCN_3_3x5_0_split_0
I0124 10:39:15.399965 31833 net.cpp:408] LFCN_3_3x5_LFCN_3_3x5_0_split -> LFCN_3_3x5_LFCN_3_3x5_0_split_1
I0124 10:39:15.399969 31833 net.cpp:408] LFCN_3_3x5_LFCN_3_3x5_0_split -> LFCN_3_3x5_LFCN_3_3x5_0_split_2
I0124 10:39:15.400022 31833 net.cpp:150] Setting up LFCN_3_3x5_LFCN_3_3x5_0_split
I0124 10:39:15.400027 31833 net.cpp:157] Top shape: 2 7 18 24 (6048)
I0124 10:39:15.400029 31833 net.cpp:157] Top shape: 2 7 18 24 (6048)
I0124 10:39:15.400032 31833 net.cpp:157] Top shape: 2 7 18 24 (6048)
I0124 10:39:15.400033 31833 net.cpp:165] Memory required for data: 2264442156
I0124 10:39:15.400037 31833 layer_factory.hpp:77] Creating layer detection_loss_3_3x5
I0124 10:39:15.400043 31833 net.cpp:100] Creating Layer detection_loss_3_3x5
I0124 10:39:15.400045 31833 net.cpp:434] detection_loss_3_3x5 <- LFCN_3_3x5_LFCN_3_3x5_0_split_0
I0124 10:39:15.400048 31833 net.cpp:434] detection_loss_3_3x5 <- label_3_3x5_data_5_split_0
I0124 10:39:15.400054 31833 net.cpp:408] detection_loss_3_3x5 -> loss_3_3x5
I0124 10:39:15.400061 31833 layer_factory.hpp:77] Creating layer detection_loss_3_3x5
I0124 10:39:15.400379 31833 net.cpp:150] Setting up detection_loss_3_3x5
I0124 10:39:15.400388 31833 net.cpp:157] Top shape: 1 1 1 2 (2)
I0124 10:39:15.400389 31833 net.cpp:160]     with loss weight 1
I0124 10:39:15.400398 31833 net.cpp:165] Memory required for data: 2264442164
I0124 10:39:15.400400 31833 layer_factory.hpp:77] Creating layer detection_accuracy_3_3x5
I0124 10:39:15.400405 31833 net.cpp:100] Creating Layer detection_accuracy_3_3x5
I0124 10:39:15.400408 31833 net.cpp:434] detection_accuracy_3_3x5 <- LFCN_3_3x5_LFCN_3_3x5_0_split_1
I0124 10:39:15.400411 31833 net.cpp:434] detection_accuracy_3_3x5 <- label_3_3x5_data_5_split_1
I0124 10:39:15.400416 31833 net.cpp:408] detection_accuracy_3_3x5 -> accuracy_3_3x5
I0124 10:39:15.400423 31833 net.cpp:408] detection_accuracy_3_3x5 -> boxiou_3_3x5
I0124 10:39:15.400462 31833 net.cpp:150] Setting up detection_accuracy_3_3x5
I0124 10:39:15.400467 31833 net.cpp:157] Top shape: 1 1 1 2 (2)
I0124 10:39:15.400470 31833 net.cpp:157] Top shape: 1 1 1 1 (1)
I0124 10:39:15.400472 31833 net.cpp:165] Memory required for data: 2264442176
I0124 10:39:15.400475 31833 layer_factory.hpp:77] Creating layer LFCN_3_5x7
I0124 10:39:15.400481 31833 net.cpp:100] Creating Layer LFCN_3_5x7
I0124 10:39:15.400485 31833 net.cpp:434] LFCN_3_5x7 <- conv6_1_relu6_1_0_split_1
I0124 10:39:15.400490 31833 net.cpp:408] LFCN_3_5x7 -> LFCN_3_5x7
I0124 10:39:15.402447 31833 net.cpp:150] Setting up LFCN_3_5x7
I0124 10:39:15.402458 31833 net.cpp:157] Top shape: 2 7 18 24 (6048)
I0124 10:39:15.402462 31833 net.cpp:165] Memory required for data: 2264466368
I0124 10:39:15.402465 31833 layer_factory.hpp:77] Creating layer LFCN_3_5x7_LFCN_3_5x7_0_split
I0124 10:39:15.402472 31833 net.cpp:100] Creating Layer LFCN_3_5x7_LFCN_3_5x7_0_split
I0124 10:39:15.402475 31833 net.cpp:434] LFCN_3_5x7_LFCN_3_5x7_0_split <- LFCN_3_5x7
I0124 10:39:15.402479 31833 net.cpp:408] LFCN_3_5x7_LFCN_3_5x7_0_split -> LFCN_3_5x7_LFCN_3_5x7_0_split_0
I0124 10:39:15.402487 31833 net.cpp:408] LFCN_3_5x7_LFCN_3_5x7_0_split -> LFCN_3_5x7_LFCN_3_5x7_0_split_1
I0124 10:39:15.402493 31833 net.cpp:408] LFCN_3_5x7_LFCN_3_5x7_0_split -> LFCN_3_5x7_LFCN_3_5x7_0_split_2
I0124 10:39:15.402544 31833 net.cpp:150] Setting up LFCN_3_5x7_LFCN_3_5x7_0_split
I0124 10:39:15.402549 31833 net.cpp:157] Top shape: 2 7 18 24 (6048)
I0124 10:39:15.402551 31833 net.cpp:157] Top shape: 2 7 18 24 (6048)
I0124 10:39:15.402554 31833 net.cpp:157] Top shape: 2 7 18 24 (6048)
I0124 10:39:15.402555 31833 net.cpp:165] Memory required for data: 2264538944
I0124 10:39:15.402557 31833 layer_factory.hpp:77] Creating layer detection_loss_3_5x7
I0124 10:39:15.402564 31833 net.cpp:100] Creating Layer detection_loss_3_5x7
I0124 10:39:15.402565 31833 net.cpp:434] detection_loss_3_5x7 <- LFCN_3_5x7_LFCN_3_5x7_0_split_0
I0124 10:39:15.402570 31833 net.cpp:434] detection_loss_3_5x7 <- label_3_5x7_data_6_split_0
I0124 10:39:15.402575 31833 net.cpp:408] detection_loss_3_5x7 -> loss_3_5x7
I0124 10:39:15.402580 31833 layer_factory.hpp:77] Creating layer detection_loss_3_5x7
I0124 10:39:15.403237 31833 net.cpp:150] Setting up detection_loss_3_5x7
I0124 10:39:15.403249 31833 net.cpp:157] Top shape: 1 1 1 2 (2)
I0124 10:39:15.403250 31833 net.cpp:160]     with loss weight 1
I0124 10:39:15.403254 31833 net.cpp:165] Memory required for data: 2264538952
I0124 10:39:15.403257 31833 layer_factory.hpp:77] Creating layer detection_accuracy_3_5x7
I0124 10:39:15.403262 31833 net.cpp:100] Creating Layer detection_accuracy_3_5x7
I0124 10:39:15.403265 31833 net.cpp:434] detection_accuracy_3_5x7 <- LFCN_3_5x7_LFCN_3_5x7_0_split_1
I0124 10:39:15.403268 31833 net.cpp:434] detection_accuracy_3_5x7 <- label_3_5x7_data_6_split_1
I0124 10:39:15.403273 31833 net.cpp:408] detection_accuracy_3_5x7 -> accuracy_3_5x7
I0124 10:39:15.403280 31833 net.cpp:408] detection_accuracy_3_5x7 -> boxiou_3_5x7
I0124 10:39:15.403319 31833 net.cpp:150] Setting up detection_accuracy_3_5x7
I0124 10:39:15.403324 31833 net.cpp:157] Top shape: 1 1 1 2 (2)
I0124 10:39:15.403327 31833 net.cpp:157] Top shape: 1 1 1 1 (1)
I0124 10:39:15.403328 31833 net.cpp:165] Memory required for data: 2264538964
I0124 10:39:15.403331 31833 layer_factory.hpp:77] Creating layer pool6
I0124 10:39:15.403337 31833 net.cpp:100] Creating Layer pool6
I0124 10:39:15.403339 31833 net.cpp:434] pool6 <- conv6_1_relu6_1_0_split_2
I0124 10:39:15.403343 31833 net.cpp:408] pool6 -> pool6
I0124 10:39:15.403381 31833 net.cpp:150] Setting up pool6
I0124 10:39:15.403386 31833 net.cpp:157] Top shape: 2 512 9 12 (110592)
I0124 10:39:15.403388 31833 net.cpp:165] Memory required for data: 2264981332
I0124 10:39:15.403390 31833 layer_factory.hpp:77] Creating layer LFCN_4_3x5
I0124 10:39:15.403398 31833 net.cpp:100] Creating Layer LFCN_4_3x5
I0124 10:39:15.403399 31833 net.cpp:434] LFCN_4_3x5 <- pool6
I0124 10:39:15.403405 31833 net.cpp:408] LFCN_4_3x5 -> LFCN_4_3x5
I0124 10:39:15.404806 31833 net.cpp:150] Setting up LFCN_4_3x5
I0124 10:39:15.404817 31833 net.cpp:157] Top shape: 2 7 9 12 (1512)
I0124 10:39:15.404819 31833 net.cpp:165] Memory required for data: 2264987380
I0124 10:39:15.404824 31833 layer_factory.hpp:77] Creating layer LFCN_4_3x5_LFCN_4_3x5_0_split
I0124 10:39:15.404829 31833 net.cpp:100] Creating Layer LFCN_4_3x5_LFCN_4_3x5_0_split
I0124 10:39:15.404831 31833 net.cpp:434] LFCN_4_3x5_LFCN_4_3x5_0_split <- LFCN_4_3x5
I0124 10:39:15.404837 31833 net.cpp:408] LFCN_4_3x5_LFCN_4_3x5_0_split -> LFCN_4_3x5_LFCN_4_3x5_0_split_0
I0124 10:39:15.404844 31833 net.cpp:408] LFCN_4_3x5_LFCN_4_3x5_0_split -> LFCN_4_3x5_LFCN_4_3x5_0_split_1
I0124 10:39:15.404850 31833 net.cpp:408] LFCN_4_3x5_LFCN_4_3x5_0_split -> LFCN_4_3x5_LFCN_4_3x5_0_split_2
I0124 10:39:15.404904 31833 net.cpp:150] Setting up LFCN_4_3x5_LFCN_4_3x5_0_split
I0124 10:39:15.404909 31833 net.cpp:157] Top shape: 2 7 9 12 (1512)
I0124 10:39:15.404911 31833 net.cpp:157] Top shape: 2 7 9 12 (1512)
I0124 10:39:15.404914 31833 net.cpp:157] Top shape: 2 7 9 12 (1512)
I0124 10:39:15.404917 31833 net.cpp:165] Memory required for data: 2265005524
I0124 10:39:15.404918 31833 layer_factory.hpp:77] Creating layer detection_loss_4_3x5
I0124 10:39:15.404924 31833 net.cpp:100] Creating Layer detection_loss_4_3x5
I0124 10:39:15.404927 31833 net.cpp:434] detection_loss_4_3x5 <- LFCN_4_3x5_LFCN_4_3x5_0_split_0
I0124 10:39:15.404930 31833 net.cpp:434] detection_loss_4_3x5 <- label_4_3x5_data_7_split_0
I0124 10:39:15.404935 31833 net.cpp:408] detection_loss_4_3x5 -> loss_4_3x5
I0124 10:39:15.404942 31833 layer_factory.hpp:77] Creating layer detection_loss_4_3x5
I0124 10:39:15.405251 31833 net.cpp:150] Setting up detection_loss_4_3x5
I0124 10:39:15.405259 31833 net.cpp:157] Top shape: 1 1 1 2 (2)
I0124 10:39:15.405261 31833 net.cpp:160]     with loss weight 1
I0124 10:39:15.405266 31833 net.cpp:165] Memory required for data: 2265005532
I0124 10:39:15.405268 31833 layer_factory.hpp:77] Creating layer detection_accuracy_4_3x5
I0124 10:39:15.405273 31833 net.cpp:100] Creating Layer detection_accuracy_4_3x5
I0124 10:39:15.405275 31833 net.cpp:434] detection_accuracy_4_3x5 <- LFCN_4_3x5_LFCN_4_3x5_0_split_1
I0124 10:39:15.405279 31833 net.cpp:434] detection_accuracy_4_3x5 <- label_4_3x5_data_7_split_1
I0124 10:39:15.405283 31833 net.cpp:408] detection_accuracy_4_3x5 -> accuracy_4_3x5
I0124 10:39:15.405290 31833 net.cpp:408] detection_accuracy_4_3x5 -> boxiou_4_3x5
I0124 10:39:15.405333 31833 net.cpp:150] Setting up detection_accuracy_4_3x5
I0124 10:39:15.405339 31833 net.cpp:157] Top shape: 1 1 1 2 (2)
I0124 10:39:15.405341 31833 net.cpp:157] Top shape: 1 1 1 1 (1)
I0124 10:39:15.405342 31833 net.cpp:165] Memory required for data: 2265005544
I0124 10:39:15.405344 31833 layer_factory.hpp:77] Creating layer proposals
I0124 10:39:15.405352 31833 net.cpp:100] Creating Layer proposals
I0124 10:39:15.405355 31833 net.cpp:434] proposals <- LFCN_1_3x5_LFCN_1_3x5_0_split_2
I0124 10:39:15.405359 31833 net.cpp:434] proposals <- LFCN_1_5x7_LFCN_1_5x7_0_split_2
I0124 10:39:15.405362 31833 net.cpp:434] proposals <- LFCN_2_3x5_LFCN_2_3x5_0_split_2
I0124 10:39:15.405365 31833 net.cpp:434] proposals <- LFCN_2_5x7_LFCN_2_5x7_0_split_2
I0124 10:39:15.405367 31833 net.cpp:434] proposals <- LFCN_3_3x5_LFCN_3_3x5_0_split_2
I0124 10:39:15.405370 31833 net.cpp:434] proposals <- LFCN_3_5x7_LFCN_3_5x7_0_split_2
I0124 10:39:15.405372 31833 net.cpp:434] proposals <- LFCN_4_3x5_LFCN_4_3x5_0_split_2
I0124 10:39:15.405377 31833 net.cpp:408] proposals -> proposals
I0124 10:39:15.405402 31833 net.cpp:150] Setting up proposals
I0124 10:39:15.405407 31833 net.cpp:157] Top shape: 1 5 1 1 (5)
I0124 10:39:15.405409 31833 net.cpp:165] Memory required for data: 2265005564
I0124 10:39:15.405411 31833 layer_factory.hpp:77] Creating layer proposal_info
I0124 10:39:15.405421 31833 net.cpp:100] Creating Layer proposal_info
I0124 10:39:15.405426 31833 net.cpp:434] proposal_info <- proposals
I0124 10:39:15.405429 31833 net.cpp:434] proposal_info <- gt_boxes
I0124 10:39:15.405434 31833 net.cpp:408] proposal_info -> rois
I0124 10:39:15.405441 31833 net.cpp:408] proposal_info -> proposal_labels
I0124 10:39:15.405447 31833 net.cpp:408] proposal_info -> proposal_targets
I0124 10:39:15.405452 31833 net.cpp:408] proposal_info -> box_inside_weights
I0124 10:39:15.405457 31833 net.cpp:408] proposal_info -> box_outside_weights
I0124 10:39:15.405462 31833 net.cpp:408] proposal_info -> match_gt_boxes
I0124 10:39:15.405549 31833 net.cpp:150] Setting up proposal_info
I0124 10:39:15.405553 31833 net.cpp:157] Top shape: 64 5 1 1 (320)
I0124 10:39:15.405555 31833 net.cpp:157] Top shape: 64 1 1 1 (64)
I0124 10:39:15.405558 31833 net.cpp:157] Top shape: 64 12 1 1 (768)
I0124 10:39:15.405560 31833 net.cpp:157] Top shape: 64 12 1 1 (768)
I0124 10:39:15.405562 31833 net.cpp:157] Top shape: 64 12 1 1 (768)
I0124 10:39:15.405565 31833 net.cpp:157] Top shape: 64 6 1 1 (384)
I0124 10:39:15.405566 31833 net.cpp:165] Memory required for data: 2265017852
I0124 10:39:15.405568 31833 layer_factory.hpp:77] Creating layer rois_proposal_info_0_split
I0124 10:39:15.405571 31833 net.cpp:100] Creating Layer rois_proposal_info_0_split
I0124 10:39:15.405575 31833 net.cpp:434] rois_proposal_info_0_split <- rois
I0124 10:39:15.405578 31833 net.cpp:408] rois_proposal_info_0_split -> rois_proposal_info_0_split_0
I0124 10:39:15.405584 31833 net.cpp:408] rois_proposal_info_0_split -> rois_proposal_info_0_split_1
I0124 10:39:15.405588 31833 net.cpp:408] rois_proposal_info_0_split -> rois_proposal_info_0_split_2
I0124 10:39:15.405632 31833 net.cpp:150] Setting up rois_proposal_info_0_split
I0124 10:39:15.405635 31833 net.cpp:157] Top shape: 64 5 1 1 (320)
I0124 10:39:15.405638 31833 net.cpp:157] Top shape: 64 5 1 1 (320)
I0124 10:39:15.405640 31833 net.cpp:157] Top shape: 64 5 1 1 (320)
I0124 10:39:15.405642 31833 net.cpp:165] Memory required for data: 2265021692
I0124 10:39:15.405644 31833 layer_factory.hpp:77] Creating layer proposal_labels_proposal_info_1_split
I0124 10:39:15.405648 31833 net.cpp:100] Creating Layer proposal_labels_proposal_info_1_split
I0124 10:39:15.405650 31833 net.cpp:434] proposal_labels_proposal_info_1_split <- proposal_labels
I0124 10:39:15.405654 31833 net.cpp:408] proposal_labels_proposal_info_1_split -> proposal_labels_proposal_info_1_split_0
I0124 10:39:15.405658 31833 net.cpp:408] proposal_labels_proposal_info_1_split -> proposal_labels_proposal_info_1_split_1
I0124 10:39:15.405690 31833 net.cpp:150] Setting up proposal_labels_proposal_info_1_split
I0124 10:39:15.405694 31833 net.cpp:157] Top shape: 64 1 1 1 (64)
I0124 10:39:15.405696 31833 net.cpp:157] Top shape: 64 1 1 1 (64)
I0124 10:39:15.405697 31833 net.cpp:165] Memory required for data: 2265022204
I0124 10:39:15.405699 31833 layer_factory.hpp:77] Creating layer conv4_3_2x
I0124 10:39:15.405705 31833 net.cpp:100] Creating Layer conv4_3_2x
I0124 10:39:15.405709 31833 net.cpp:434] conv4_3_2x <- conv4_3_relu4_3_0_split_2
I0124 10:39:15.405712 31833 net.cpp:408] conv4_3_2x -> conv4_3_2x
I0124 10:39:15.406069 31833 net.cpp:150] Setting up conv4_3_2x
I0124 10:39:15.406075 31833 net.cpp:157] Top shape: 2 512 144 192 (28311552)
I0124 10:39:15.406076 31833 net.cpp:165] Memory required for data: 2378268412
I0124 10:39:15.406080 31833 layer_factory.hpp:77] Creating layer conv4_3_2x_conv4_3_2x_0_split
I0124 10:39:15.406083 31833 net.cpp:100] Creating Layer conv4_3_2x_conv4_3_2x_0_split
I0124 10:39:15.406085 31833 net.cpp:434] conv4_3_2x_conv4_3_2x_0_split <- conv4_3_2x
I0124 10:39:15.406090 31833 net.cpp:408] conv4_3_2x_conv4_3_2x_0_split -> conv4_3_2x_conv4_3_2x_0_split_0
I0124 10:39:15.406095 31833 net.cpp:408] conv4_3_2x_conv4_3_2x_0_split -> conv4_3_2x_conv4_3_2x_0_split_1
I0124 10:39:15.406127 31833 net.cpp:150] Setting up conv4_3_2x_conv4_3_2x_0_split
I0124 10:39:15.406131 31833 net.cpp:157] Top shape: 2 512 144 192 (28311552)
I0124 10:39:15.406133 31833 net.cpp:157] Top shape: 2 512 144 192 (28311552)
I0124 10:39:15.406136 31833 net.cpp:165] Memory required for data: 2604760828
I0124 10:39:15.406137 31833 layer_factory.hpp:77] Creating layer roi_pool_org
I0124 10:39:15.406142 31833 net.cpp:100] Creating Layer roi_pool_org
I0124 10:39:15.406146 31833 net.cpp:434] roi_pool_org <- conv4_3_2x_conv4_3_2x_0_split_0
I0124 10:39:15.406148 31833 net.cpp:434] roi_pool_org <- rois_proposal_info_0_split_0
I0124 10:39:15.406152 31833 net.cpp:408] roi_pool_org -> roi_pool_org
I0124 10:39:15.406157 31833 roi_pooling_layer.cpp:33] Spatial scale: 0.25
I0124 10:39:15.406191 31833 net.cpp:150] Setting up roi_pool_org
I0124 10:39:15.406195 31833 net.cpp:157] Top shape: 64 512 7 5 (1146880)
I0124 10:39:15.406198 31833 net.cpp:165] Memory required for data: 2609348348
I0124 10:39:15.406199 31833 layer_factory.hpp:77] Creating layer roi_pool_ctx
I0124 10:39:15.406203 31833 net.cpp:100] Creating Layer roi_pool_ctx
I0124 10:39:15.406205 31833 net.cpp:434] roi_pool_ctx <- conv4_3_2x_conv4_3_2x_0_split_1
I0124 10:39:15.406208 31833 net.cpp:434] roi_pool_ctx <- rois_proposal_info_0_split_1
I0124 10:39:15.406213 31833 net.cpp:408] roi_pool_ctx -> roi_pool_ctx
I0124 10:39:15.406216 31833 roi_pooling_layer.cpp:33] Spatial scale: 0.25
I0124 10:39:15.406250 31833 net.cpp:150] Setting up roi_pool_ctx
I0124 10:39:15.406252 31833 net.cpp:157] Top shape: 64 512 7 5 (1146880)
I0124 10:39:15.406255 31833 net.cpp:165] Memory required for data: 2613935868
I0124 10:39:15.406256 31833 layer_factory.hpp:77] Creating layer roi_pool
I0124 10:39:15.406260 31833 net.cpp:100] Creating Layer roi_pool
I0124 10:39:15.406262 31833 net.cpp:434] roi_pool <- roi_pool_org
I0124 10:39:15.406265 31833 net.cpp:434] roi_pool <- roi_pool_ctx
I0124 10:39:15.406268 31833 net.cpp:408] roi_pool -> roi_pool
I0124 10:39:15.406291 31833 net.cpp:150] Setting up roi_pool
I0124 10:39:15.406296 31833 net.cpp:157] Top shape: 64 1024 7 5 (2293760)
I0124 10:39:15.406297 31833 net.cpp:165] Memory required for data: 2623110908
I0124 10:39:15.406299 31833 layer_factory.hpp:77] Creating layer roi_c1
I0124 10:39:15.406306 31833 net.cpp:100] Creating Layer roi_c1
I0124 10:39:15.406308 31833 net.cpp:434] roi_c1 <- roi_pool
I0124 10:39:15.406312 31833 net.cpp:408] roi_c1 -> roi_c1
I0124 10:39:15.446364 31833 net.cpp:150] Setting up roi_c1
I0124 10:39:15.446385 31833 net.cpp:157] Top shape: 64 512 5 3 (491520)
I0124 10:39:15.446388 31833 net.cpp:165] Memory required for data: 2625076988
I0124 10:39:15.446396 31833 layer_factory.hpp:77] Creating layer roi_c1_relu
I0124 10:39:15.446405 31833 net.cpp:100] Creating Layer roi_c1_relu
I0124 10:39:15.446410 31833 net.cpp:434] roi_c1_relu <- roi_c1
I0124 10:39:15.446416 31833 net.cpp:395] roi_c1_relu -> roi_c1 (in-place)
I0124 10:39:15.446573 31833 net.cpp:150] Setting up roi_c1_relu
I0124 10:39:15.446579 31833 net.cpp:157] Top shape: 64 512 5 3 (491520)
I0124 10:39:15.446581 31833 net.cpp:165] Memory required for data: 2627043068
I0124 10:39:15.446584 31833 layer_factory.hpp:77] Creating layer fc6
I0124 10:39:15.446593 31833 net.cpp:100] Creating Layer fc6
I0124 10:39:15.446595 31833 net.cpp:434] fc6 <- roi_c1
I0124 10:39:15.446601 31833 net.cpp:408] fc6 -> fc6
I0124 10:39:15.569764 31833 net.cpp:150] Setting up fc6
I0124 10:39:15.569804 31833 net.cpp:157] Top shape: 64 2048 (131072)
I0124 10:39:15.569808 31833 net.cpp:165] Memory required for data: 2627567356
I0124 10:39:15.569816 31833 layer_factory.hpp:77] Creating layer relu6
I0124 10:39:15.569840 31833 net.cpp:100] Creating Layer relu6
I0124 10:39:15.569844 31833 net.cpp:434] relu6 <- fc6
I0124 10:39:15.569866 31833 net.cpp:395] relu6 -> fc6 (in-place)
I0124 10:39:15.570077 31833 net.cpp:150] Setting up relu6
I0124 10:39:15.570086 31833 net.cpp:157] Top shape: 64 2048 (131072)
I0124 10:39:15.570087 31833 net.cpp:165] Memory required for data: 2628091644
I0124 10:39:15.570089 31833 layer_factory.hpp:77] Creating layer drop6
I0124 10:39:15.570094 31833 net.cpp:100] Creating Layer drop6
I0124 10:39:15.570096 31833 net.cpp:434] drop6 <- fc6
I0124 10:39:15.570101 31833 net.cpp:395] drop6 -> fc6 (in-place)
I0124 10:39:15.570128 31833 net.cpp:150] Setting up drop6
I0124 10:39:15.570132 31833 net.cpp:157] Top shape: 64 2048 (131072)
I0124 10:39:15.570134 31833 net.cpp:165] Memory required for data: 2628615932
I0124 10:39:15.570137 31833 layer_factory.hpp:77] Creating layer fc6_drop6_0_split
I0124 10:39:15.570143 31833 net.cpp:100] Creating Layer fc6_drop6_0_split
I0124 10:39:15.570147 31833 net.cpp:434] fc6_drop6_0_split <- fc6
I0124 10:39:15.570150 31833 net.cpp:408] fc6_drop6_0_split -> fc6_drop6_0_split_0
I0124 10:39:15.570156 31833 net.cpp:408] fc6_drop6_0_split -> fc6_drop6_0_split_1
I0124 10:39:15.570194 31833 net.cpp:150] Setting up fc6_drop6_0_split
I0124 10:39:15.570199 31833 net.cpp:157] Top shape: 64 2048 (131072)
I0124 10:39:15.570200 31833 net.cpp:157] Top shape: 64 2048 (131072)
I0124 10:39:15.570202 31833 net.cpp:165] Memory required for data: 2629664508
I0124 10:39:15.570205 31833 layer_factory.hpp:77] Creating layer cls_pred
I0124 10:39:15.570211 31833 net.cpp:100] Creating Layer cls_pred
I0124 10:39:15.570214 31833 net.cpp:434] cls_pred <- fc6_drop6_0_split_0
I0124 10:39:15.570219 31833 net.cpp:408] cls_pred -> cls_pred
I0124 10:39:15.570374 31833 net.cpp:150] Setting up cls_pred
I0124 10:39:15.570379 31833 net.cpp:157] Top shape: 64 3 (192)
I0124 10:39:15.570380 31833 net.cpp:165] Memory required for data: 2629665276
I0124 10:39:15.570384 31833 layer_factory.hpp:77] Creating layer cls_pred_cls_pred_0_split
I0124 10:39:15.570390 31833 net.cpp:100] Creating Layer cls_pred_cls_pred_0_split
I0124 10:39:15.570392 31833 net.cpp:434] cls_pred_cls_pred_0_split <- cls_pred
I0124 10:39:15.570396 31833 net.cpp:408] cls_pred_cls_pred_0_split -> cls_pred_cls_pred_0_split_0
I0124 10:39:15.570401 31833 net.cpp:408] cls_pred_cls_pred_0_split -> cls_pred_cls_pred_0_split_1
I0124 10:39:15.570453 31833 net.cpp:150] Setting up cls_pred_cls_pred_0_split
I0124 10:39:15.570458 31833 net.cpp:157] Top shape: 64 3 (192)
I0124 10:39:15.570461 31833 net.cpp:157] Top shape: 64 3 (192)
I0124 10:39:15.570462 31833 net.cpp:165] Memory required for data: 2629666812
I0124 10:39:15.570466 31833 layer_factory.hpp:77] Creating layer bbox_pred
I0124 10:39:15.570469 31833 net.cpp:100] Creating Layer bbox_pred
I0124 10:39:15.570472 31833 net.cpp:434] bbox_pred <- fc6_drop6_0_split_1
I0124 10:39:15.570477 31833 net.cpp:408] bbox_pred -> bbox_pred
I0124 10:39:15.570760 31833 net.cpp:150] Setting up bbox_pred
I0124 10:39:15.570765 31833 net.cpp:157] Top shape: 64 12 (768)
I0124 10:39:15.570766 31833 net.cpp:165] Memory required for data: 2629669884
I0124 10:39:15.570770 31833 layer_factory.hpp:77] Creating layer bbox_pred_bbox_pred_0_split
I0124 10:39:15.570776 31833 net.cpp:100] Creating Layer bbox_pred_bbox_pred_0_split
I0124 10:39:15.570778 31833 net.cpp:434] bbox_pred_bbox_pred_0_split <- bbox_pred
I0124 10:39:15.570782 31833 net.cpp:408] bbox_pred_bbox_pred_0_split -> bbox_pred_bbox_pred_0_split_0
I0124 10:39:15.570787 31833 net.cpp:408] bbox_pred_bbox_pred_0_split -> bbox_pred_bbox_pred_0_split_1
I0124 10:39:15.570821 31833 net.cpp:150] Setting up bbox_pred_bbox_pred_0_split
I0124 10:39:15.570827 31833 net.cpp:157] Top shape: 64 12 (768)
I0124 10:39:15.570828 31833 net.cpp:157] Top shape: 64 12 (768)
I0124 10:39:15.570830 31833 net.cpp:165] Memory required for data: 2629676028
I0124 10:39:15.570832 31833 layer_factory.hpp:77] Creating layer loss_cls
I0124 10:39:15.570837 31833 net.cpp:100] Creating Layer loss_cls
I0124 10:39:15.570840 31833 net.cpp:434] loss_cls <- cls_pred_cls_pred_0_split_0
I0124 10:39:15.570843 31833 net.cpp:434] loss_cls <- proposal_labels_proposal_info_1_split_0
…
