…
    downsample_rate: 32
    downsample_rate: 32
    downsample_rate: 64
    coord_num: 4
    field_h: 60
    field_h: 84
    field_h: 120
    field_h: 168
    field_h: 240
    field_h: 336
    field_h: 480
    field_w: 40
    field_w: 56
    field_w: 80
    field_w: 112
    field_w: 160
    field_w: 224
    field_w: 320
    fg_threshold: 0.5
    resize_width: 1920
    resize_height: 576
    crop_width: 768
    crop_height: 576
    do_multiple_scale: true
    min_scale: 50
    max_scale: 420
    min_gt_height: 35
    shuffle: true
    output_gt_boxes: true
  }
}
layer {
  name: "conv1_1"
  type: "Convolution"
  bottom: "data"
  top: "conv1_1"
  param {
    lr_mult: 0
    decay_mult: 0
  }
  param {
    lr_mult: 0
    decay_mult: 0
  }
  convolution_param {
    num_output: 64
    pad: 1
    kernel_size: 3
  }
}
layer {
  name: "relu1_1"
  type: "ReLU"
  bottom: "conv1_1"
  top: "conv1_1"
}
layer {
  name: "conv1_2"
  type: "Convolution"
  bottom: "conv1_1"
  top: "conv1_2"
  param {
    lr_mult: 0
    decay_mult: 0
  }
  param {
    lr_mult: 0
    decay_mult: 0
  }
  convolution_param {
    num_output: 64
    pad: 1
    kernel_size: 3
  }
}
layer {
  name: "relu1_2"
  type: "ReLU"
  bottom: "conv1_2"
  top: "conv1_2"
}
layer {
  name: "pool1"
  type: "Pooling"
  bottom: "conv1_2"
  top: "pool1"
  pooling_param {
    pool: MAX
    kernel_size: 2
    stride: 2
  }
}
layer {
  name: "conv2_1"
  type: "Convolution"
  bottom: "pool1"
  top: "conv2_1"
  param {
    lr_mult: 0
    decay_mult: 0
  }
  param {
    lr_mult: 0
    decay_mult: 0
  }
  convolution_param {
    num_output: 128
    pad: 1
    kernel_size: 3
  }
}
layer {
  name: "relu2_1"
  type: "ReLU"
  bottom: "conv2_1"
  top: "conv2_1"
}
layer {
  name: "conv2_2"
  type: "Convolution"
  bottom: "conv2_1"
  top: "conv2_2"
  param {
    lr_mult: 0
    decay_mult: 0
  }
  param {
    lr_mult: 0
    decay_mult: 0
  }
  convolution_param {
    num_output: 128
    pad: 1
    kernel_size: 3
  }
}
layer {
  name: "relu2_2"
  type: "ReLU"
  bottom: "conv2_2"
  top: "conv2_2"
}
layer {
  name: "pool2"
  type: "Pooling"
  bottom: "conv2_2"
  top: "pool2"
  pooling_param {
    pool: MAX
    kernel_size: 2
    stride: 2
  }
}
layer {
  name: "conv3_1"
  type: "Convolution"
  bottom: "pool2"
  top: "conv3_1"
  convolution_param {
    num_output: 256
    pad: 1
    kernel_size: 3
  }
}
layer {
  name: "relu3_1"
  type: "ReLU"
  bottom: "conv3_1"
  top: "conv3_1"
}
layer {
  name: "conv3_2"
  type: "Convolution"
  bottom: "conv3_1"
  top: "conv3_2"
  convolution_param {
    num_output: 256
    pad: 1
    kernel_size: 3
  }
}
layer {
  name: "relu3_2"
  type: "ReLU"
  bottom: "conv3_2"
  top: "conv3_2"
}
layer {
  name: "conv3_3"
  type: "Convolution"
  bottom: "conv3_2"
  top: "conv3_3"
  convolution_param {
    num_output: 256
    pad: 1
    kernel_size: 3
  }
}
layer {
  name: "relu3_3"
  type: "ReLU"
  bottom: "conv3_3"
  top: "conv3_3"
}
layer {
  name: "pool3"
  type: "Pooling"
  bottom: "conv3_3"
  top: "pool3"
  pooling_param {
    pool: MAX
    kernel_size: 2
    stride: 2
  }
}
layer {
  name: "conv4_1"
  type: "Convolution"
  bottom: "pool3"
  top: "conv4_1"
  convolution_param {
    num_output: 512
    pad: 1
    kernel_size: 3
  }
}
layer {
  name: "relu4_1"
  type: "ReLU"
  bottom: "conv4_1"
  top: "conv4_1"
}
layer {
  name: "conv4_2"
  type: "Convolution"
  bottom: "conv4_1"
  top: "conv4_2"
  convolution_param {
    num_output: 512
    pad: 1
    kernel_size: 3
  }
}
layer {
  name: "relu4_2"
  type: "ReLU"
  bottom: "conv4_2"
  top: "conv4_2"
}
layer {
  name: "conv4_3"
  type: "Convolution"
  bottom: "conv4_2"
  top: "conv4_3"
  convolution_param {
    num_output: 512
    pad: 1
    kernel_size: 3
  }
}
layer {
  name: "relu4_3"
  type: "ReLU"
  bottom: "conv4_3"
  top: "conv4_3"
}
layer {
  name: "loss1_conv1"
  type: "Convolution"
  bottom: "conv4_3"
  top: "loss1_conv1"
  param {
    lr_mult: 1
    decay_mult: 1
  }
  param {
    lr_mult: 2
    decay_mult: 0
  }
  convolution_param {
    num_output: 512
    pad: 1
    kernel_size: 3
    weight_filler {
      type: "gaussian"
      std: 0.01
    }
    bias_filler {
      type: "constant"
    }
  }
}
layer {
  name: "loss_relu1"
  type: "ReLU"
  bottom: "loss1_conv1"
  top: "loss1_conv1"
}
layer {
  name: "LFCN_1_3x5"
  type: "Convolution"
  bottom: "loss1_conv1"
  top: "LFCN_1_3x5"
  param {
    lr_mult: 1
    decay_mult: 1
  }
  param {
    lr_mult: 2
    decay_mult: 0
  }
  convolution_param {
    num_output: 7
    weight_filler {
      type: "gaussian"
      std: 0.001
    }
    bias_filler {
      type: "constant"
    }
    pad_h: 2
    pad_w: 1
    kernel_h: 5
    kernel_w: 3
  }
}
layer {
  name: "detection_loss_1_3x5"
  type: "DetectionLoss"
  bottom: "LFCN_1_3x5"
  bottom: "label_1_3x5"
  top: "loss_1_3x5"
  loss_weight: 0.5
  detection_loss_param {
    cls_num: 3
    coord_num: 4
    lambda: 1
    field_h: 60
    field_w: 40
    downsample_rate: 8
    bb_smooth: true
    field_whr: 2
    field_xyr: 2
    bg_threshold: 0.2
    bg_multiple: 2
    sample_mode: "bootstrap"
    pos_neg_weighted: true
  }
}
layer {
  name: "detection_accuracy_1_3x5"
  type: "DetectionAccuracy"
  bottom: "LFCN_1_3x5"
  bottom: "label_1_3x5"
  top: "accuracy_1_3x5"
  top: "boxiou_1_3x5"
  detection_accuracy_param {
    cls_num: 3
    coord_num: 4
    field_h: 60
    field_w: 40
    downsample_rate: 8
    field_whr: 2
    field_xyr: 2
  }
}
layer {
  name: "LFCN_1_5x7"
  type: "Convolution"
  bottom: "loss1_conv1"
  top: "LFCN_1_5x7"
  param {
    lr_mult: 1
    decay_mult: 1
  }
  param {
    lr_mult: 2
    decay_mult: 0
  }
  convolution_param {
    num_output: 7
    weight_filler {
      type: "gaussian"
      std: 0.001
    }
    bias_filler {
      type: "constant"
    }
    pad_h: 3
    pad_w: 2
    kernel_h: 7
    kernel_w: 5
  }
}
layer {
  name: "detection_loss_1_5x7"
  type: "DetectionLoss"
  bottom: "LFCN_1_5x7"
  bottom: "label_1_5x7"
  top: "loss_1_5x7"
  loss_weight: 0.9
  detection_loss_param {
    cls_num: 3
    coord_num: 4
    lambda: 1
    field_h: 84
    field_w: 56
    downsample_rate: 8
    bb_smooth: true
    field_whr: 2
    field_xyr: 2
    bg_threshold: 0.2
    bg_multiple: 2
    sample_mode: "bootstrap"
    pos_neg_weighted: true
  }
}
layer {
  name: "detection_accuracy_1_5x7"
  type: "DetectionAccuracy"
  bottom: "LFCN_1_5x7"
  bottom: "label_1_5x7"
  top: "accuracy_1_5x7"
  top: "boxiou_1_5x7"
  detection_accuracy_param {
    cls_num: 3
    coord_num: 4
    field_h: 84
    field_w: 56
    downsample_rate: 8
    field_whr: 2
    field_xyr: 2
  }
}
layer {
  name: "pool4"
  type: "Pooling"
  bottom: "conv4_3"
  top: "pool4"
  pooling_param {
    pool: MAX
    kernel_size: 2
    stride: 2
  }
}
layer {
  name: "conv5_1"
  type: "Convolution"
  bottom: "pool4"
  top: "conv5_1"
  convolution_param {
    num_output: 512
    pad: 1
    kernel_size: 3
  }
}
layer {
  name: "relu5_1"
  type: "ReLU"
  bottom: "conv5_1"
  top: "conv5_1"
}
layer {
  name: "conv5_2"
  type: "Convolution"
  bottom: "conv5_1"
  top: "conv5_2"
  convolution_param {
    num_output: 512
    pad: 1
    kernel_size: 3
  }
}
layer {
  name: "relu5_2"
  type: "ReLU"
  bottom: "conv5_2"
  top: "conv5_2"
}
layer {
  name: "conv5_3"
  type: "Convolution"
  bottom: "conv5_2"
  top: "conv5_3"
  convolution_param {
    num_output: 512
    pad: 1
    kernel_size: 3
  }
}
layer {
  name: "relu5_3"
  type: "ReLU"
  bottom: "conv5_3"
  top: "conv5_3"
}
layer {
  name: "LFCN_2_3x5"
  type: "Convolution"
  bottom: "conv5_3"
  top: "LFCN_2_3x5"
  param {
    lr_mult: 1
    decay_mult: 1
  }
  param {
    lr_mult: 2
    decay_mult: 0
  }
  convolution_param {
    num_output: 7
    weight_filler {
      type: "gaussian"
      std: 0.001
    }
    bias_filler {
      type: "constant"
    }
    pad_h: 2
    pad_w: 1
    kernel_h: 5
    kernel_w: 3
  }
}
layer {
  name: "detection_loss_2_3x5"
  type: "DetectionLoss"
  bottom: "LFCN_2_3x5"
  bottom: "label_2_3x5"
  top: "loss_2_3x5"
  detection_loss_param {
    cls_num: 3
    coord_num: 4
    lambda: 1
    field_h: 120
    field_w: 80
    downsample_rate: 16
    bb_smooth: true
    field_whr: 2
    field_xyr: 2
    bg_threshold: 0.2
    bg_multiple: 2
    sample_mode: "bootstrap"
    pos_neg_weighted: true
  }
}
layer {
  name: "detection_accuracy_2_3x5"
  type: "DetectionAccuracy"
  bottom: "LFCN_2_3x5"
  bottom: "label_2_3x5"
  top: "accuracy_2_3x5"
  top: "boxiou_2_3x5"
  detection_accuracy_param {
    cls_num: 3
    coord_num: 4
    field_h: 120
    field_w: 80
    downsample_rate: 16
    field_whr: 2
    field_xyr: 2
  }
}
layer {
  name: "LFCN_2_5x7"
  type: "Convolution"
  bottom: "conv5_3"
  top: "LFCN_2_5x7"
  param {
    lr_mult: 1
    decay_mult: 1
  }
  param {
    lr_mult: 2
    decay_mult: 0
  }
  convolution_param {
    num_output: 7
    weight_filler {
      type: "gaussian"
      std: 0.001
    }
    bias_filler {
      type: "constant"
    }
    pad_h: 3
    pad_w: 2
    kernel_h: 7
    kernel_w: 5
  }
}
layer {
  name: "detection_loss_2_5x7"
  type: "DetectionLoss"
  bottom: "LFCN_2_5x7"
  bottom: "label_2_5x7"
  top: "loss_2_5x7"
  detection_loss_param {
    cls_num: 3
    coord_num: 4
    lambda: 1
    field_h: 168
    field_w: 112
    downsample_rate: 16
    bb_smooth: true
    field_whr: 2
    field_xyr: 2
    bg_threshold: 0.2
    bg_multiple: 2
    sample_mode: "bootstrap"
    pos_neg_weighted: true
  }
}
layer {
  name: "detection_accuracy_2_5x7"
  type: "DetectionAccuracy"
  bottom: "LFCN_2_5x7"
  bottom: "label_2_5x7"
  top: "accuracy_2_5x7"
  top: "boxiou_2_5x7"
  detection_accuracy_param {
    cls_num: 3
    coord_num: 4
    field_h: 168
    field_w: 112
    downsample_rate: 16
    field_whr: 2
    field_xyr: 2
  }
}
layer {
  name: "pool5"
  type: "Pooling"
  bottom: "conv5_3"
  top: "pool5"
  pooling_param {
    pool: MAX
    kernel_size: 2
    stride: 2
  }
}
layer {
  name: "conv6_1"
  type: "Convolution"
  bottom: "pool5"
  top: "conv6_1"
  param {
    lr_mult: 1
    decay_mult: 1
  }
  param {
    lr_mult: 2
    decay_mult: 0
  }
  convolution_param {
    num_output: 512
    pad: 1
    kernel_size: 3
    weight_filler {
      type: "gaussian"
      std: 0.01
    }
    bias_filler {
      type: "constant"
    }
  }
}
layer {
  name: "relu6_1"
  type: "ReLU"
  bottom: "conv6_1"
  top: "conv6_1"
}
layer {
  name: "LFCN_3_3x5"
  type: "Convolution"
  bottom: "conv6_1"
  top: "LFCN_3_3x5"
  param {
    lr_mult: 1
    decay_mult: 1
  }
  param {
    lr_mult: 2
    decay_mult: 0
  }
  convolution_param {
    num_output: 7
    weight_filler {
      type: "gaussian"
      std: 0.001
    }
    bias_filler {
      type: "constant"
    }
    pad_h: 2
    pad_w: 1
    kernel_h: 5
    kernel_w: 3
  }
}
layer {
  name: "detection_loss_3_3x5"
  type: "DetectionLoss"
  bottom: "LFCN_3_3x5"
  bottom: "label_3_3x5"
  top: "loss_3_3x5"
  detection_loss_param {
    cls_num: 3
    coord_num: 4
    lambda: 1
    field_h: 240
    field_w: 160
    downsample_rate: 32
    bb_smooth: true
    field_whr: 2
    field_xyr: 2
    bg_threshold: 0.2
    bg_multiple: 2
    sample_mode: "bootstrap"
    pos_neg_weighted: true
  }
}
layer {
  name: "detection_accuracy_3_3x5"
  type: "DetectionAccuracy"
  bottom: "LFCN_3_3x5"
  bottom: "label_3_3x5"
  top: "accuracy_3_3x5"
  top: "boxiou_3_3x5"
  detection_accuracy_param {
    cls_num: 3
    coord_num: 4
    field_h: 240
    field_w: 160
    downsample_rate: 32
    field_whr: 2
    field_xyr: 2
  }
}
layer {
  name: "LFCN_3_5x7"
  type: "Convolution"
  bottom: "conv6_1"
  top: "LFCN_3_5x7"
  param {
    lr_mult: 1
    decay_mult: 1
  }
  param {
    lr_mult: 2
    decay_mult: 0
  }
  convolution_param {
    num_output: 7
    weight_filler {
      type: "gaussian"
      std: 0.001
    }
    bias_filler {
      type: "constant"
    }
    pad_h: 3
    pad_w: 2
    kernel_h: 7
    kernel_w: 5
  }
}
layer {
  name: "detection_loss_3_5x7"
  type: "DetectionLoss"
  bottom: "LFCN_3_5x7"
  bottom: "label_3_5x7"
  top: "loss_3_5x7"
  detection_loss_param {
    cls_num: 3
    coord_num: 4
    lambda: 1
    field_h: 336
    field_w: 224
    downsample_rate: 32
    bb_smooth: true
    field_whr: 2
    field_xyr: 2
    bg_threshold: 0.2
    bg_multiple: 2
    sample_mode: "bootstrap"
    pos_neg_weighted: true
  }
}
layer {
  name: "detection_accuracy_3_5x7"
  type: "DetectionAccuracy"
  bottom: "LFCN_3_5x7"
  bottom: "label_3_5x7"
  top: "accuracy_3_5x7"
  top: "boxiou_3_5x7"
  detection_accuracy_param {
    cls_num: 3
    coord_num: 4
    field_h: 336
    field_w: 224
    downsample_rate: 32
    field_whr: 2
    field_xyr: 2
  }
}
layer {
  name: "pool6"
  type: "Pooling"
  bottom: "conv6_1"
  top: "pool6"
  pooling_param {
    pool: MAX
    kernel_size: 2
    stride: 2
  }
}
layer {
  name: "LFCN_4_3x5"
  type: "Convolution"
  bottom: "pool6"
  top: "LFCN_4_3x5"
  param {
    lr_mult: 1
    decay_mult: 1
  }
  param {
    lr_mult: 2
    decay_mult: 0
  }
  convolution_param {
    num_output: 7
    weight_filler {
      type: "gaussian"
      std: 0.001
    }
    bias_filler {
      type: "constant"
    }
    pad_h: 2
    pad_w: 1
    kernel_h: 5
    kernel_w: 3
  }
}
layer {
  name: "detection_loss_4_3x5"
  type: "DetectionLoss"
  bottom: "LFCN_4_3x5"
  bottom: "label_4_3x5"
  top: "loss_4_3x5"
  detection_loss_param {
    cls_num: 3
    coord_num: 4
    lambda: 1
    field_h: 480
    field_w: 320
    downsample_rate: 64
    bb_smooth: true
    field_whr: 2
    field_xyr: 2
    bg_threshold: 0.2
    bg_multiple: 2
    sample_mode: "bootstrap"
    pos_neg_weighted: true
  }
}
layer {
  name: "detection_accuracy_4_3x5"
  type: "DetectionAccuracy"
  bottom: "LFCN_4_3x5"
  bottom: "label_4_3x5"
  top: "accuracy_4_3x5"
  top: "boxiou_4_3x5"
  detection_accuracy_param {
    cls_num: 3
    coord_num: 4
    field_h: 480
    field_w: 320
    downsample_rate: 64
    field_whr: 2
    field_xyr: 2
  }
}
layer {
  name: "proposals"
  type: "BoxOutput"
  bottom: "LFCN_1_3x5"
  bottom: "LFCN_1_5x7"
  bottom: "LFCN_2_3x5"
  bottom: "LFCN_2_5x7"
  bottom: "LFCN_3_3x5"
  bottom: "LFCN_3_5x7"
  bottom: "LFCN_4_3x5"
  top: "proposals"
  propagate_down: false
  propagate_down: false
  propagate_down: false
  propagate_down: false
  propagate_down: false
  propagate_down: false
  propagate_down: false
  box_output_param {
    fg_thr: -15
    iou_thr: 0.65
    nms_type: "IOU"
    field_h: 60
    field_h: 84
    field_h: 120
    field_h: 168
    field_h: 240
    field_h: 336
    field_h: 480
    field_w: 40
    field_w: 56
    field_w: 80
    field_w: 112
    field_w: 160
    field_w: 224
    field_w: 320
    downsample_rate: 8
    downsample_rate: 8
    downsample_rate: 16
    downsample_rate: 16
    downsample_rate: 32
    downsample_rate: 32
    downsample_rate: 64
    field_whr: 2
    field_xyr: 2
    max_nms_num: 3000
  }
}
layer {
  name: "proposal_info"
  type: "ProposalTarget"
  bottom: "proposals"
  bottom: "gt_boxes"
  top: "rois"
  top: "proposal_labels"
  top: "proposal_targets"
  top: "box_inside_weights"
  top: "box_outside_weights"
  top: "match_gt_boxes"
  include {
    phase: TRAIN
  }
  propagate_down: false
  propagate_down: false
  proposal_target_param {
    cls_num: 3
    batch_size: 64
    fg_fraction: 0.25
    num_img_per_batch: 2
    fg_thr: 0.5
    bg_thr_hg: 0.45
    bg_thr_lw: 0.05
    img_width: 768
    img_height: 576
  }
  bbox_reg_param {
    bbox_mean: 0
    bbox_mean: 0
    bbox_mean: 0
    bbox_mean: 0
    bbox_std: 0.1
    bbox_std: 0.1
    bbox_std: 0.2
    bbox_std: 0.2
  }
}
layer {
  name: "conv4_3_2x"
  type: "Deconvolution"
  bottom: "conv4_3"
  top: "conv4_3_2x"
  param {
    lr_mult: 0
    decay_mult: 0
  }
  convolution_param {
    num_output: 512
    bias_term: false
    pad: 1
    kernel_size: 4
    group: 512
    stride: 2
    weight_filler {
      type: "bilinear"
    }
  }
}
layer {
  name: "roi_pool_org"
  type: "ROIPooling"
  bottom: "conv4_3_2x"
  bottom: "rois"
  top: "roi_pool_org"
  roi_pooling_param {
    pooled_h: 7
    pooled_w: 5
    spatial_scale: 0.25
    pad_ratio: 0
  }
}
layer {
  name: "roi_pool_ctx"
  type: "ROIPooling"
  bottom: "conv4_3_2x"
  bottom: "rois"
  top: "roi_pool_ctx"
  roi_pooling_param {
    pooled_h: 7
    pooled_w: 5
    spatial_scale: 0.25
    pad_ratio: 0.25
  }
}
layer {
  name: "roi_pool"
  type: "Concat"
  bottom: "roi_pool_org"
  bottom: "roi_pool_ctx"
  top: "roi_pool"
}
layer {
  name: "roi_c1"
  type: "Convolution"
  bottom: "roi_pool"
  top: "roi_c1"
  param {
    lr_mult: 1
    decay_mult: 1
  }
  param {
    lr_mult: 2
    decay_mult: 0
  }
  convolution_param {
    num_output: 512
    kernel_size: 3
    weight_filler {
      type: "gaussian"
      std: 0.01
    }
    bias_filler {
      type: "constant"
    }
  }
}
layer {
  name: "roi_c1_relu"
  type: "ReLU"
  bottom: "roi_c1"
  top: "roi_c1"
}
layer {
  name: "fc6"
  type: "InnerProduct"
  bottom: "roi_c1"
  top: "fc6"
  param {
    lr_mult: 1
  }
  param {
    lr_mult: 2
  }
  inner_product_param {
    num_output: 2048
    weight_filler {
      type: "gaussian"
      std: 0.001
    }
    bias_filler {
      type: "constant"
      value: 0
    }
  }
}
layer {
  name: "relu6"
  type: "ReLU"
  bottom: "fc6"
  top: "fc6"
}
layer {
  name: "drop6"
  type: "Dropout"
  bottom: "fc6"
  top: "fc6"
  dropout_param {
    dropout_ratio: 0.5
  }
}
layer {
  name: "cls_pred"
  type: "InnerProduct"
  bottom: "fc6"
  top: "cls_pred"
  param {
    lr_mult: 1
  }
  param {
    lr_mult: 2
  }
  inner_product_param {
    num_output: 3
    weight_filler {
      type: "gaussian"
      std: 0.01
    }
    bias_filler {
      type: "constant"
      value: 0
    }
  }
}
layer {
  name: "bbox_pred"
  type: "InnerProduct"
  bottom: "fc6"
  top: "bbox_pred"
  param {
    lr_mult: 1
  }
  param {
    lr_mult: 2
  }
  inner_product_param {
    num_output: 12
    weight_filler {
      type: "gaussian"
      std: 0.001
    }
    bias_filler {
      type: "constant"
      value: 0
    }
  }
}
layer {
  name: "loss_cls"
  type: "SoftmaxWithLoss"
  bottom: "cls_pred"
  bottom: "proposal_labels"
  top: "loss_cls"
  loss_weight: 1
  propagate_down: true
  propagate_down: false
}
layer {
  name: "cls_accuracy"
  type: "Accuracy"
  bottom: "cls_pred"
  bottom: "proposal_labels"
  top: "cls_accuracy"
}
layer {
  name: "loss_bbox"
  type: "SmoothL1Loss"
  bottom: "bbox_pred"
  bottom: "proposal_targets"
  bottom: "box_inside_weights"
  bottom: "box_outside_weights"
  top: "loss_bbox"
  loss_weight: 1
}
layer {
  name: "bbox_iou"
  type: "BboxAccuracy"
  bottom: "bbox_pred"
  bottom: "rois"
  bottom: "match_gt_boxes"
  top: "bbox_iou"
  top: "bbox_iou_pre"
  bbox_reg_param {
    bbox_mean: 0
    bbox_mean: 0
    bbox_mean: 0
    bbox_mean: 0
    bbox_std: 0.1
    bbox_std: 0.1
    bbox_std: 0.2
    bbox_std: 0.2
  }
}
I0208 00:15:43.814949 31203 layer_factory.hpp:77] Creating layer data
I0208 00:15:43.815038 31203 net.cpp:100] Creating Layer data
I0208 00:15:43.815063 31203 net.cpp:408] data -> data
…
I0208 00:15:44.208526 31203 image_gt_data_layer.cpp:235] output label size 2 : 2,6,36,48
I0208 00:15:44.208580 31203 image_gt_data_layer.cpp:235] output label size 3 : 2,6,36,48
I0208 00:15:44.208637 31203 image_gt_data_layer.cpp:235] output label size 4 : 2,6,18,24
I0208 00:15:44.208693 31203 image_gt_data_layer.cpp:235] output label size 5 : 2,6,18,24
I0208 00:15:44.208747 31203 image_gt_data_layer.cpp:235] output label size 6 : 2,6,9,12
I0208 00:15:44.208801 31203 image_gt_data_layer.cpp:250] output gt boxes size: 1,7,1,1
I0208 00:15:44.237920 31203 net.cpp:150] Setting up data
I0208 00:15:44.238016 31203 net.cpp:157] Top shape: 2 3 576 768 (2654208)
I0208 00:15:44.238041 31203 net.cpp:157] Top shape: 2 6 72 96 (82944)
I0208 00:15:44.238061 31203 net.cpp:157] Top shape: 2 6 72 96 (82944)
I0208 00:15:44.238080 31203 net.cpp:157] Top shape: 2 6 36 48 (20736)
I0208 00:15:44.238101 31203 net.cpp:157] Top shape: 2 6 36 48 (20736)
I0208 00:15:44.238119 31203 net.cpp:157] Top shape: 2 6 18 24 (5184)
I0208 00:15:44.238137 31203 net.cpp:157] Top shape: 2 6 18 24 (5184)
I0208 00:15:44.238155 31203 net.cpp:157] Top shape: 2 6 9 12 (1296)
I0208 00:15:44.238174 31203 net.cpp:157] Top shape: 1 7 1 1 (7)
I0208 00:15:44.238193 31203 net.cpp:165] Memory required for data: 11492956
I0208 00:15:44.238215 31203 layer_factory.hpp:77] Creating layer label_1_3x5_data_1_split
I0208 00:15:44.238245 31203 net.cpp:100] Creating Layer label_1_3x5_data_1_split
I0208 00:15:44.238262 31203 net.cpp:434] label_1_3x5_data_1_split <- label_1_3x5
I0208 00:15:44.238292 31203 net.cpp:408] label_1_3x5_data_1_split -> label_1_3x5_data_1_split_0
I0208 00:15:44.238315 31203 net.cpp:408] label_1_3x5_data_1_split -> label_1_3x5_data_1_split_1
I0208 00:15:44.238392 31203 net.cpp:150] Setting up label_1_3x5_data_1_split
I0208 00:15:44.238416 31203 net.cpp:157] Top shape: 2 6 72 96 (82944)
I0208 00:15:44.238431 31203 net.cpp:157] Top shape: 2 6 72 96 (82944)
I0208 00:15:44.238443 31203 net.cpp:165] Memory required for data: 12156508
I0208 00:15:44.238456 31203 layer_factory.hpp:77] Creating layer label_1_5x7_data_2_split
I0208 00:15:44.238472 31203 net.cpp:100] Creating Layer label_1_5x7_data_2_split
I0208 00:15:44.238487 31203 net.cpp:434] label_1_5x7_data_2_split <- label_1_5x7
I0208 00:15:44.238507 31203 net.cpp:408] label_1_5x7_data_2_split -> label_1_5x7_data_2_split_0
I0208 00:15:44.238528 31203 net.cpp:408] label_1_5x7_data_2_split -> label_1_5x7_data_2_split_1
I0208 00:15:44.238581 31203 net.cpp:150] Setting up label_1_5x7_data_2_split
I0208 00:15:44.238605 31203 net.cpp:157] Top shape: 2 6 72 96 (82944)
I0208 00:15:44.238620 31203 net.cpp:157] Top shape: 2 6 72 96 (82944)
I0208 00:15:44.238632 31203 net.cpp:165] Memory required for data: 12820060
I0208 00:15:44.238646 31203 layer_factory.hpp:77] Creating layer label_2_3x5_data_3_split
I0208 00:15:44.238662 31203 net.cpp:100] Creating Layer label_2_3x5_data_3_split
I0208 00:15:44.238677 31203 net.cpp:434] label_2_3x5_data_3_split <- label_2_3x5
I0208 00:15:44.238694 31203 net.cpp:408] label_2_3x5_data_3_split -> label_2_3x5_data_3_split_0
I0208 00:15:44.238715 31203 net.cpp:408] label_2_3x5_data_3_split -> label_2_3x5_data_3_split_1
I0208 00:15:44.238768 31203 net.cpp:150] Setting up label_2_3x5_data_3_split
I0208 00:15:44.238790 31203 net.cpp:157] Top shape: 2 6 36 48 (20736)
I0208 00:15:44.238804 31203 net.cpp:157] Top shape: 2 6 36 48 (20736)
I0208 00:15:44.238816 31203 net.cpp:165] Memory required for data: 12985948
I0208 00:15:44.238828 31203 layer_factory.hpp:77] Creating layer label_2_5x7_data_4_split
I0208 00:15:44.238860 31203 net.cpp:100] Creating Layer label_2_5x7_data_4_split
I0208 00:15:44.238878 31203 net.cpp:434] label_2_5x7_data_4_split <- label_2_5x7
I0208 00:15:44.238898 31203 net.cpp:408] label_2_5x7_data_4_split -> label_2_5x7_data_4_split_0
I0208 00:15:44.238919 31203 net.cpp:408] label_2_5x7_data_4_split -> label_2_5x7_data_4_split_1
I0208 00:15:44.238978 31203 net.cpp:150] Setting up label_2_5x7_data_4_split
I0208 00:15:44.239001 31203 net.cpp:157] Top shape: 2 6 36 48 (20736)
I0208 00:15:44.239017 31203 net.cpp:157] Top shape: 2 6 36 48 (20736)
I0208 00:15:44.239030 31203 net.cpp:165] Memory required for data: 13151836
I0208 00:15:44.239043 31203 layer_factory.hpp:77] Creating layer label_3_3x5_data_5_split
I0208 00:15:44.239059 31203 net.cpp:100] Creating Layer label_3_3x5_data_5_split
I0208 00:15:44.239073 31203 net.cpp:434] label_3_3x5_data_5_split <- label_3_3x5
I0208 00:15:44.239090 31203 net.cpp:408] label_3_3x5_data_5_split -> label_3_3x5_data_5_split_0
I0208 00:15:44.239110 31203 net.cpp:408] label_3_3x5_data_5_split -> label_3_3x5_data_5_split_1
I0208 00:15:44.239218 31203 net.cpp:150] Setting up label_3_3x5_data_5_split
I0208 00:15:44.239241 31203 net.cpp:157] Top shape: 2 6 18 24 (5184)
I0208 00:15:44.239256 31203 net.cpp:157] Top shape: 2 6 18 24 (5184)
I0208 00:15:44.239270 31203 net.cpp:165] Memory required for data: 13193308
I0208 00:15:44.239284 31203 layer_factory.hpp:77] Creating layer label_3_5x7_data_6_split
I0208 00:15:44.239305 31203 net.cpp:100] Creating Layer label_3_5x7_data_6_split
I0208 00:15:44.239321 31203 net.cpp:434] label_3_5x7_data_6_split <- label_3_5x7
I0208 00:15:44.239338 31203 net.cpp:408] label_3_5x7_data_6_split -> label_3_5x7_data_6_split_0
I0208 00:15:44.239359 31203 net.cpp:408] label_3_5x7_data_6_split -> label_3_5x7_data_6_split_1
I0208 00:15:44.240151 31203 net.cpp:150] Setting up label_3_5x7_data_6_split
I0208 00:15:44.240180 31203 net.cpp:157] Top shape: 2 6 18 24 (5184)
I0208 00:15:44.240195 31203 net.cpp:157] Top shape: 2 6 18 24 (5184)
I0208 00:15:44.240206 31203 net.cpp:165] Memory required for data: 13234780
I0208 00:15:44.240218 31203 layer_factory.hpp:77] Creating layer label_4_3x5_data_7_split
I0208 00:15:44.240234 31203 net.cpp:100] Creating Layer label_4_3x5_data_7_split
I0208 00:15:44.240248 31203 net.cpp:434] label_4_3x5_data_7_split <- label_4_3x5
I0208 00:15:44.240265 31203 net.cpp:408] label_4_3x5_data_7_split -> label_4_3x5_data_7_split_0
I0208 00:15:44.240288 31203 net.cpp:408] label_4_3x5_data_7_split -> label_4_3x5_data_7_split_1
I0208 00:15:44.240337 31203 net.cpp:150] Setting up label_4_3x5_data_7_split
I0208 00:15:44.240357 31203 net.cpp:157] Top shape: 2 6 9 12 (1296)
I0208 00:15:44.240371 31203 net.cpp:157] Top shape: 2 6 9 12 (1296)
I0208 00:15:44.240384 31203 net.cpp:165] Memory required for data: 13245148
I0208 00:15:44.240396 31203 layer_factory.hpp:77] Creating layer conv1_1
I0208 00:15:44.240428 31203 net.cpp:100] Creating Layer conv1_1
I0208 00:15:44.240444 31203 net.cpp:434] conv1_1 <- data
I0208 00:15:44.240461 31203 net.cpp:408] conv1_1 -> conv1_1
I0208 00:15:45.747530 31203 net.cpp:150] Setting up conv1_1
I0208 00:15:45.747561 31203 net.cpp:157] Top shape: 2 64 576 768 (56623104)
I0208 00:15:45.747566 31203 net.cpp:165] Memory required for data: 239737564
I0208 00:15:45.747592 31203 layer_factory.hpp:77] Creating layer relu1_1
I0208 00:15:45.747607 31203 net.cpp:100] Creating Layer relu1_1
I0208 00:15:45.747627 31203 net.cpp:434] relu1_1 <- conv1_1
I0208 00:15:45.747644 31203 net.cpp:395] relu1_1 -> conv1_1 (in-place)
I0208 00:15:45.747861 31203 net.cpp:150] Setting up relu1_1
I0208 00:15:45.747887 31203 net.cpp:157] Top shape: 2 64 576 768 (56623104)
I0208 00:15:45.747902 31203 net.cpp:165] Memory required for data: 466229980
I0208 00:15:45.747915 31203 layer_factory.hpp:77] Creating layer conv1_2
I0208 00:15:45.747939 31203 net.cpp:100] Creating Layer conv1_2
I0208 00:15:45.747947 31203 net.cpp:434] conv1_2 <- conv1_1
I0208 00:15:45.747954 31203 net.cpp:408] conv1_2 -> conv1_2
I0208 00:15:45.750074 31203 net.cpp:150] Setting up conv1_2
I0208 00:15:45.750102 31203 net.cpp:157] Top shape: 2 64 576 768 (56623104)
I0208 00:15:45.750105 31203 net.cpp:165] Memory required for data: 692722396
I0208 00:15:45.750121 31203 layer_factory.hpp:77] Creating layer relu1_2
I0208 00:15:45.750133 31203 net.cpp:100] Creating Layer relu1_2
I0208 00:15:45.750138 31203 net.cpp:434] relu1_2 <- conv1_2
I0208 00:15:45.750146 31203 net.cpp:395] relu1_2 -> conv1_2 (in-place)
I0208 00:15:45.750344 31203 net.cpp:150] Setting up relu1_2
I0208 00:15:45.750355 31203 net.cpp:157] Top shape: 2 64 576 768 (56623104)
I0208 00:15:45.750357 31203 net.cpp:165] Memory required for data: 919214812
I0208 00:15:45.750361 31203 layer_factory.hpp:77] Creating layer pool1
I0208 00:15:45.750371 31203 net.cpp:100] Creating Layer pool1
I0208 00:15:45.750387 31203 net.cpp:434] pool1 <- conv1_2
I0208 00:15:45.750406 31203 net.cpp:408] pool1 -> pool1
I0208 00:15:45.750491 31203 net.cpp:150] Setting up pool1
I0208 00:15:45.750511 31203 net.cpp:157] Top shape: 2 64 288 384 (14155776)
I0208 00:15:45.750524 31203 net.cpp:165] Memory required for data: 975837916
I0208 00:15:45.750536 31203 layer_factory.hpp:77] Creating layer conv2_1
I0208 00:15:45.750556 31203 net.cpp:100] Creating Layer conv2_1
I0208 00:15:45.750571 31203 net.cpp:434] conv2_1 <- pool1
I0208 00:15:45.750587 31203 net.cpp:408] conv2_1 -> conv2_1
I0208 00:15:45.752977 31203 net.cpp:150] Setting up conv2_1
I0208 00:15:45.753003 31203 net.cpp:157] Top shape: 2 128 288 384 (28311552)
I0208 00:15:45.753007 31203 net.cpp:165] Memory required for data: 1089084124
I0208 00:15:45.753024 31203 layer_factory.hpp:77] Creating layer relu2_1
I0208 00:15:45.753036 31203 net.cpp:100] Creating Layer relu2_1
I0208 00:15:45.753057 31203 net.cpp:434] relu2_1 <- conv2_1
I0208 00:15:45.753077 31203 net.cpp:395] relu2_1 -> conv2_1 (in-place)
I0208 00:15:45.753309 31203 net.cpp:150] Setting up relu2_1
I0208 00:15:45.753320 31203 net.cpp:157] Top shape: 2 128 288 384 (28311552)
I0208 00:15:45.753324 31203 net.cpp:165] Memory required for data: 1202330332
I0208 00:15:45.753327 31203 layer_factory.hpp:77] Creating layer conv2_2
I0208 00:15:45.753340 31203 net.cpp:100] Creating Layer conv2_2
I0208 00:15:45.753358 31203 net.cpp:434] conv2_2 <- conv2_1
I0208 00:15:45.753377 31203 net.cpp:408] conv2_2 -> conv2_2
I0208 00:15:45.754920 31203 net.cpp:150] Setting up conv2_2
I0208 00:15:45.754971 31203 net.cpp:157] Top shape: 2 128 288 384 (28311552)
I0208 00:15:45.754989 31203 net.cpp:165] Memory required for data: 1315576540
I0208 00:15:45.755007 31203 layer_factory.hpp:77] Creating layer relu2_2
I0208 00:15:45.755030 31203 net.cpp:100] Creating Layer relu2_2
I0208 00:15:45.755044 31203 net.cpp:434] relu2_2 <- conv2_2
I0208 00:15:45.755070 31203 net.cpp:395] relu2_2 -> conv2_2 (in-place)
I0208 00:15:45.755235 31203 net.cpp:150] Setting up relu2_2
I0208 00:15:45.755244 31203 net.cpp:157] Top shape: 2 128 288 384 (28311552)
I0208 00:15:45.755247 31203 net.cpp:165] Memory required for data: 1428822748
I0208 00:15:45.755251 31203 layer_factory.hpp:77] Creating layer pool2
I0208 00:15:45.755260 31203 net.cpp:100] Creating Layer pool2
I0208 00:15:45.755276 31203 net.cpp:434] pool2 <- conv2_2
I0208 00:15:45.755298 31203 net.cpp:408] pool2 -> pool2
I0208 00:15:45.755364 31203 net.cpp:150] Setting up pool2
I0208 00:15:45.755385 31203 net.cpp:157] Top shape: 2 128 144 192 (7077888)
I0208 00:15:45.755398 31203 net.cpp:165] Memory required for data: 1457134300
I0208 00:15:45.755410 31203 layer_factory.hpp:77] Creating layer conv3_1
I0208 00:15:45.755429 31203 net.cpp:100] Creating Layer conv3_1
I0208 00:15:45.755441 31203 net.cpp:434] conv3_1 <- pool2
I0208 00:15:45.755460 31203 net.cpp:408] conv3_1 -> conv3_1
I0208 00:15:45.758144 31203 net.cpp:150] Setting up conv3_1
I0208 00:15:45.758211 31203 net.cpp:157] Top shape: 2 256 144 192 (14155776)
I0208 00:15:45.758224 31203 net.cpp:165] Memory required for data: 1513757404
I0208 00:15:45.758249 31203 layer_factory.hpp:77] Creating layer relu3_1
I0208 00:15:45.758270 31203 net.cpp:100] Creating Layer relu3_1
I0208 00:15:45.758292 31203 net.cpp:434] relu3_1 <- conv3_1
I0208 00:15:45.758307 31203 net.cpp:395] relu3_1 -> conv3_1 (in-place)
I0208 00:15:45.758831 31203 net.cpp:150] Setting up relu3_1
I0208 00:15:45.758843 31203 net.cpp:157] Top shape: 2 256 144 192 (14155776)
I0208 00:15:45.758846 31203 net.cpp:165] Memory required for data: 1570380508
I0208 00:15:45.758850 31203 layer_factory.hpp:77] Creating layer conv3_2
I0208 00:15:45.758862 31203 net.cpp:100] Creating Layer conv3_2
I0208 00:15:45.758868 31203 net.cpp:434] conv3_2 <- conv3_1
I0208 00:15:45.758878 31203 net.cpp:408] conv3_2 -> conv3_2
I0208 00:15:45.762629 31203 net.cpp:150] Setting up conv3_2
I0208 00:15:45.762657 31203 net.cpp:157] Top shape: 2 256 144 192 (14155776)
I0208 00:15:45.762661 31203 net.cpp:165] Memory required for data: 1627003612
I0208 00:15:45.762673 31203 layer_factory.hpp:77] Creating layer relu3_2
I0208 00:15:45.762684 31203 net.cpp:100] Creating Layer relu3_2
I0208 00:15:45.762689 31203 net.cpp:434] relu3_2 <- conv3_2
I0208 00:15:45.762697 31203 net.cpp:395] relu3_2 -> conv3_2 (in-place)
I0208 00:15:45.763175 31203 net.cpp:150] Setting up relu3_2
I0208 00:15:45.763188 31203 net.cpp:157] Top shape: 2 256 144 192 (14155776)
I0208 00:15:45.763191 31203 net.cpp:165] Memory required for data: 1683626716
I0208 00:15:45.763196 31203 layer_factory.hpp:77] Creating layer conv3_3
I0208 00:15:45.763208 31203 net.cpp:100] Creating Layer conv3_3
I0208 00:15:45.763227 31203 net.cpp:434] conv3_3 <- conv3_2
I0208 00:15:45.763259 31203 net.cpp:408] conv3_3 -> conv3_3
I0208 00:15:45.765820 31203 net.cpp:150] Setting up conv3_3
I0208 00:15:45.765847 31203 net.cpp:157] Top shape: 2 256 144 192 (14155776)
I0208 00:15:45.765851 31203 net.cpp:165] Memory required for data: 1740249820
I0208 00:15:45.765861 31203 layer_factory.hpp:77] Creating layer relu3_3
I0208 00:15:45.765872 31203 net.cpp:100] Creating Layer relu3_3
I0208 00:15:45.765877 31203 net.cpp:434] relu3_3 <- conv3_3
I0208 00:15:45.765900 31203 net.cpp:395] relu3_3 -> conv3_3 (in-place)
I0208 00:15:45.766074 31203 net.cpp:150] Setting up relu3_3
I0208 00:15:45.766084 31203 net.cpp:157] Top shape: 2 256 144 192 (14155776)
I0208 00:15:45.766088 31203 net.cpp:165] Memory required for data: 1796872924
I0208 00:15:45.766091 31203 layer_factory.hpp:77] Creating layer pool3
I0208 00:15:45.766100 31203 net.cpp:100] Creating Layer pool3
I0208 00:15:45.766116 31203 net.cpp:434] pool3 <- conv3_3
I0208 00:15:45.766142 31203 net.cpp:408] pool3 -> pool3
I0208 00:15:45.766206 31203 net.cpp:150] Setting up pool3
I0208 00:15:45.766214 31203 net.cpp:157] Top shape: 2 256 72 96 (3538944)
I0208 00:15:45.766217 31203 net.cpp:165] Memory required for data: 1811028700
I0208 00:15:45.766222 31203 layer_factory.hpp:77] Creating layer conv4_1
I0208 00:15:45.766232 31203 net.cpp:100] Creating Layer conv4_1
I0208 00:15:45.766245 31203 net.cpp:434] conv4_1 <- pool3
I0208 00:15:45.766263 31203 net.cpp:408] conv4_1 -> conv4_1
I0208 00:15:45.770447 31203 net.cpp:150] Setting up conv4_1
I0208 00:15:45.770474 31203 net.cpp:157] Top shape: 2 512 72 96 (7077888)
I0208 00:15:45.770478 31203 net.cpp:165] Memory required for data: 1839340252
I0208 00:15:45.770488 31203 layer_factory.hpp:77] Creating layer relu4_1
I0208 00:15:45.770500 31203 net.cpp:100] Creating Layer relu4_1
I0208 00:15:45.770505 31203 net.cpp:434] relu4_1 <- conv4_1
I0208 00:15:45.770515 31203 net.cpp:395] relu4_1 -> conv4_1 (in-place)
I0208 00:15:45.770725 31203 net.cpp:150] Setting up relu4_1
I0208 00:15:45.770735 31203 net.cpp:157] Top shape: 2 512 72 96 (7077888)
I0208 00:15:45.770738 31203 net.cpp:165] Memory required for data: 1867651804
I0208 00:15:45.770742 31203 layer_factory.hpp:77] Creating layer conv4_2
I0208 00:15:45.770754 31203 net.cpp:100] Creating Layer conv4_2
I0208 00:15:45.770772 31203 net.cpp:434] conv4_2 <- conv4_1
I0208 00:15:45.770790 31203 net.cpp:408] conv4_2 -> conv4_2
I0208 00:15:45.777396 31203 net.cpp:150] Setting up conv4_2
I0208 00:15:45.777470 31203 net.cpp:157] Top shape: 2 512 72 96 (7077888)
I0208 00:15:45.777487 31203 net.cpp:165] Memory required for data: 1895963356
I0208 00:15:45.777529 31203 layer_factory.hpp:77] Creating layer relu4_2
I0208 00:15:45.777555 31203 net.cpp:100] Creating Layer relu4_2
I0208 00:15:45.777572 31203 net.cpp:434] relu4_2 <- conv4_2
I0208 00:15:45.777595 31203 net.cpp:395] relu4_2 -> conv4_2 (in-place)
I0208 00:15:45.777807 31203 net.cpp:150] Setting up relu4_2
I0208 00:15:45.777837 31203 net.cpp:157] Top shape: 2 512 72 96 (7077888)
I0208 00:15:45.777850 31203 net.cpp:165] Memory required for data: 1924274908
I0208 00:15:45.777864 31203 layer_factory.hpp:77] Creating layer conv4_3
I0208 00:15:45.777884 31203 net.cpp:100] Creating Layer conv4_3
I0208 00:15:45.777899 31203 net.cpp:434] conv4_3 <- conv4_2
I0208 00:15:45.777920 31203 net.cpp:408] conv4_3 -> conv4_3
I0208 00:15:45.783643 31203 net.cpp:150] Setting up conv4_3
I0208 00:15:45.783674 31203 net.cpp:157] Top shape: 2 512 72 96 (7077888)
I0208 00:15:45.783677 31203 net.cpp:165] Memory required for data: 1952586460
I0208 00:15:45.783689 31203 layer_factory.hpp:77] Creating layer relu4_3
I0208 00:15:45.783704 31203 net.cpp:100] Creating Layer relu4_3
I0208 00:15:45.783709 31203 net.cpp:434] relu4_3 <- conv4_3
I0208 00:15:45.783717 31203 net.cpp:395] relu4_3 -> conv4_3 (in-place)
I0208 00:15:45.783926 31203 net.cpp:150] Setting up relu4_3
I0208 00:15:45.783936 31203 net.cpp:157] Top shape: 2 512 72 96 (7077888)
I0208 00:15:45.783939 31203 net.cpp:165] Memory required for data: 1980898012
I0208 00:15:45.783942 31203 layer_factory.hpp:77] Creating layer conv4_3_relu4_3_0_split
I0208 00:15:45.783952 31203 net.cpp:100] Creating Layer conv4_3_relu4_3_0_split
I0208 00:15:45.783969 31203 net.cpp:434] conv4_3_relu4_3_0_split <- conv4_3
I0208 00:15:45.783988 31203 net.cpp:408] conv4_3_relu4_3_0_split -> conv4_3_relu4_3_0_split_0
I0208 00:15:45.784013 31203 net.cpp:408] conv4_3_relu4_3_0_split -> conv4_3_relu4_3_0_split_1
I0208 00:15:45.784032 31203 net.cpp:408] conv4_3_relu4_3_0_split -> conv4_3_relu4_3_0_split_2
I0208 00:15:45.784106 31203 net.cpp:150] Setting up conv4_3_relu4_3_0_split
I0208 00:15:45.784116 31203 net.cpp:157] Top shape: 2 512 72 96 (7077888)
I0208 00:15:45.784119 31203 net.cpp:157] Top shape: 2 512 72 96 (7077888)
I0208 00:15:45.784124 31203 net.cpp:157] Top shape: 2 512 72 96 (7077888)
I0208 00:15:45.784137 31203 net.cpp:165] Memory required for data: 2065832668
I0208 00:15:45.784149 31203 layer_factory.hpp:77] Creating layer loss1_conv1
I0208 00:15:45.784181 31203 net.cpp:100] Creating Layer loss1_conv1
I0208 00:15:45.784204 31203 net.cpp:434] loss1_conv1 <- conv4_3_relu4_3_0_split_0
I0208 00:15:45.784222 31203 net.cpp:408] loss1_conv1 -> loss1_conv1
I0208 00:15:45.807773 31203 net.cpp:150] Setting up loss1_conv1
I0208 00:15:45.807848 31203 net.cpp:157] Top shape: 2 512 72 96 (7077888)
I0208 00:15:45.807863 31203 net.cpp:165] Memory required for data: 2094144220
I0208 00:15:45.807884 31203 layer_factory.hpp:77] Creating layer loss_relu1
I0208 00:15:45.807909 31203 net.cpp:100] Creating Layer loss_relu1
I0208 00:15:45.807925 31203 net.cpp:434] loss_relu1 <- loss1_conv1
I0208 00:15:45.807948 31203 net.cpp:395] loss_relu1 -> loss1_conv1 (in-place)
I0208 00:15:45.808733 31203 net.cpp:150] Setting up loss_relu1
I0208 00:15:45.808770 31203 net.cpp:157] Top shape: 2 512 72 96 (7077888)
I0208 00:15:45.808787 31203 net.cpp:165] Memory required for data: 2122455772
I0208 00:15:45.808802 31203 layer_factory.hpp:77] Creating layer loss1_conv1_loss_relu1_0_split
I0208 00:15:45.808821 31203 net.cpp:100] Creating Layer loss1_conv1_loss_relu1_0_split
I0208 00:15:45.808837 31203 net.cpp:434] loss1_conv1_loss_relu1_0_split <- loss1_conv1
I0208 00:15:45.808856 31203 net.cpp:408] loss1_conv1_loss_relu1_0_split -> loss1_conv1_loss_relu1_0_split_0
I0208 00:15:45.808877 31203 net.cpp:408] loss1_conv1_loss_relu1_0_split -> loss1_conv1_loss_relu1_0_split_1
I0208 00:15:45.808962 31203 net.cpp:150] Setting up loss1_conv1_loss_relu1_0_split
I0208 00:15:45.808984 31203 net.cpp:157] Top shape: 2 512 72 96 (7077888)
I0208 00:15:45.809000 31203 net.cpp:157] Top shape: 2 512 72 96 (7077888)
I0208 00:15:45.809021 31203 net.cpp:165] Memory required for data: 2179078876
I0208 00:15:45.809036 31203 layer_factory.hpp:77] Creating layer LFCN_1_3x5
I0208 00:15:45.809061 31203 net.cpp:100] Creating Layer LFCN_1_3x5
I0208 00:15:45.809075 31203 net.cpp:434] LFCN_1_3x5 <- loss1_conv1_loss_relu1_0_split_0
I0208 00:15:45.809095 31203 net.cpp:408] LFCN_1_3x5 -> LFCN_1_3x5
I0208 00:15:45.810809 31203 net.cpp:150] Setting up LFCN_1_3x5
I0208 00:15:45.810881 31203 net.cpp:157] Top shape: 2 7 72 96 (96768)
I0208 00:15:45.810899 31203 net.cpp:165] Memory required for data: 2179465948
I0208 00:15:45.810919 31203 layer_factory.hpp:77] Creating layer LFCN_1_3x5_LFCN_1_3x5_0_split
I0208 00:15:45.810940 31203 net.cpp:100] Creating Layer LFCN_1_3x5_LFCN_1_3x5_0_split
I0208 00:15:45.810955 31203 net.cpp:434] LFCN_1_3x5_LFCN_1_3x5_0_split <- LFCN_1_3x5
I0208 00:15:45.810976 31203 net.cpp:408] LFCN_1_3x5_LFCN_1_3x5_0_split -> LFCN_1_3x5_LFCN_1_3x5_0_split_0
I0208 00:15:45.811002 31203 net.cpp:408] LFCN_1_3x5_LFCN_1_3x5_0_split -> LFCN_1_3x5_LFCN_1_3x5_0_split_1
I0208 00:15:45.811022 31203 net.cpp:408] LFCN_1_3x5_LFCN_1_3x5_0_split -> LFCN_1_3x5_LFCN_1_3x5_0_split_2
I0208 00:15:45.811112 31203 net.cpp:150] Setting up LFCN_1_3x5_LFCN_1_3x5_0_split
I0208 00:15:45.811136 31203 net.cpp:157] Top shape: 2 7 72 96 (96768)
I0208 00:15:45.811149 31203 net.cpp:157] Top shape: 2 7 72 96 (96768)
I0208 00:15:45.811166 31203 net.cpp:157] Top shape: 2 7 72 96 (96768)
I0208 00:15:45.811177 31203 net.cpp:165] Memory required for data: 2180627164
I0208 00:15:45.811192 31203 layer_factory.hpp:77] Creating layer detection_loss_1_3x5
I0208 00:15:45.811215 31203 net.cpp:100] Creating Layer detection_loss_1_3x5
I0208 00:15:45.811233 31203 net.cpp:434] detection_loss_1_3x5 <- LFCN_1_3x5_LFCN_1_3x5_0_split_0
I0208 00:15:45.811246 31203 net.cpp:434] detection_loss_1_3x5 <- label_1_3x5_data_1_split_0
I0208 00:15:45.811262 31203 net.cpp:408] detection_loss_1_3x5 -> loss_1_3x5
I0208 00:15:45.811288 31203 layer_factory.hpp:77] Creating layer detection_loss_1_3x5
I0208 00:15:45.812445 31203 net.cpp:150] Setting up detection_loss_1_3x5
I0208 00:15:45.812496 31203 net.cpp:157] Top shape: 1 1 1 2 (2)
I0208 00:15:45.812511 31203 net.cpp:160]     with loss weight 0.5
I0208 00:15:45.812549 31203 net.cpp:165] Memory required for data: 2180627172
I0208 00:15:45.812564 31203 layer_factory.hpp:77] Creating layer detection_accuracy_1_3x5
I0208 00:15:45.812583 31203 net.cpp:100] Creating Layer detection_accuracy_1_3x5
I0208 00:15:45.812599 31203 net.cpp:434] detection_accuracy_1_3x5 <- LFCN_1_3x5_LFCN_1_3x5_0_split_1
I0208 00:15:45.812618 31203 net.cpp:434] detection_accuracy_1_3x5 <- label_1_3x5_data_1_split_1
I0208 00:15:45.812639 31203 net.cpp:408] detection_accuracy_1_3x5 -> accuracy_1_3x5
I0208 00:15:45.812662 31203 net.cpp:408] detection_accuracy_1_3x5 -> boxiou_1_3x5
I0208 00:15:45.812732 31203 net.cpp:150] Setting up detection_accuracy_1_3x5
I0208 00:15:45.812753 31203 net.cpp:157] Top shape: 1 1 1 2 (2)
I0208 00:15:45.812765 31203 net.cpp:157] Top shape: 1 1 1 1 (1)
I0208 00:15:45.812774 31203 net.cpp:165] Memory required for data: 2180627184
I0208 00:15:45.812785 31203 layer_factory.hpp:77] Creating layer LFCN_1_5x7
I0208 00:15:45.812811 31203 net.cpp:100] Creating Layer LFCN_1_5x7
I0208 00:15:45.812827 31203 net.cpp:434] LFCN_1_5x7 <- loss1_conv1_loss_relu1_0_split_1
I0208 00:15:45.812844 31203 net.cpp:408] LFCN_1_5x7 -> LFCN_1_5x7
I0208 00:15:45.816090 31203 net.cpp:150] Setting up LFCN_1_5x7
I0208 00:15:45.816164 31203 net.cpp:157] Top shape: 2 7 72 96 (96768)
I0208 00:15:45.816179 31203 net.cpp:165] Memory required for data: 2181014256
I0208 00:15:45.816198 31203 layer_factory.hpp:77] Creating layer LFCN_1_5x7_LFCN_1_5x7_0_split
I0208 00:15:45.816221 31203 net.cpp:100] Creating Layer LFCN_1_5x7_LFCN_1_5x7_0_split
I0208 00:15:45.816239 31203 net.cpp:434] LFCN_1_5x7_LFCN_1_5x7_0_split <- LFCN_1_5x7
I0208 00:15:45.816262 31203 net.cpp:408] LFCN_1_5x7_LFCN_1_5x7_0_split -> LFCN_1_5x7_LFCN_1_5x7_0_split_0
I0208 00:15:45.816287 31203 net.cpp:408] LFCN_1_5x7_LFCN_1_5x7_0_split -> LFCN_1_5x7_LFCN_1_5x7_0_split_1
I0208 00:15:45.816318 31203 net.cpp:408] LFCN_1_5x7_LFCN_1_5x7_0_split -> LFCN_1_5x7_LFCN_1_5x7_0_split_2
I0208 00:15:45.816403 31203 net.cpp:150] Setting up LFCN_1_5x7_LFCN_1_5x7_0_split
I0208 00:15:45.816427 31203 net.cpp:157] Top shape: 2 7 72 96 (96768)
I0208 00:15:45.816443 31203 net.cpp:157] Top shape: 2 7 72 96 (96768)
I0208 00:15:45.816458 31203 net.cpp:157] Top shape: 2 7 72 96 (96768)
I0208 00:15:45.816470 31203 net.cpp:165] Memory required for data: 2182175472
I0208 00:15:45.816483 31203 layer_factory.hpp:77] Creating layer detection_loss_1_5x7
I0208 00:15:45.816501 31203 net.cpp:100] Creating Layer detection_loss_1_5x7
I0208 00:15:45.816516 31203 net.cpp:434] detection_loss_1_5x7 <- LFCN_1_5x7_LFCN_1_5x7_0_split_0
I0208 00:15:45.816532 31203 net.cpp:434] detection_loss_1_5x7 <- label_1_5x7_data_2_split_0
I0208 00:15:45.816552 31203 net.cpp:408] detection_loss_1_5x7 -> loss_1_5x7
I0208 00:15:45.816576 31203 layer_factory.hpp:77] Creating layer detection_loss_1_5x7
I0208 00:15:45.817034 31203 net.cpp:150] Setting up detection_loss_1_5x7
I0208 00:15:45.817060 31203 net.cpp:157] Top shape: 1 1 1 2 (2)
I0208 00:15:45.817075 31203 net.cpp:160]     with loss weight 0.9
I0208 00:15:45.817097 31203 net.cpp:165] Memory required for data: 2182175480
I0208 00:15:45.817111 31203 layer_factory.hpp:77] Creating layer detection_accuracy_1_5x7
I0208 00:15:45.817131 31203 net.cpp:100] Creating Layer detection_accuracy_1_5x7
I0208 00:15:45.817152 31203 net.cpp:434] detection_accuracy_1_5x7 <- LFCN_1_5x7_LFCN_1_5x7_0_split_1
I0208 00:15:45.817167 31203 net.cpp:434] detection_accuracy_1_5x7 <- label_1_5x7_data_2_split_1
I0208 00:15:45.817183 31203 net.cpp:408] detection_accuracy_1_5x7 -> accuracy_1_5x7
I0208 00:15:45.817203 31203 net.cpp:408] detection_accuracy_1_5x7 -> boxiou_1_5x7
I0208 00:15:45.817281 31203 net.cpp:150] Setting up detection_accuracy_1_5x7
I0208 00:15:45.817302 31203 net.cpp:157] Top shape: 1 1 1 2 (2)
I0208 00:15:45.817317 31203 net.cpp:157] Top shape: 1 1 1 1 (1)
I0208 00:15:45.817327 31203 net.cpp:165] Memory required for data: 2182175492
I0208 00:15:45.817339 31203 layer_factory.hpp:77] Creating layer pool4
I0208 00:15:45.817355 31203 net.cpp:100] Creating Layer pool4
I0208 00:15:45.817373 31203 net.cpp:434] pool4 <- conv4_3_relu4_3_0_split_1
I0208 00:15:45.817390 31203 net.cpp:408] pool4 -> pool4
I0208 00:15:45.817453 31203 net.cpp:150] Setting up pool4
I0208 00:15:45.817473 31203 net.cpp:157] Top shape: 2 512 36 48 (1769472)
I0208 00:15:45.817487 31203 net.cpp:165] Memory required for data: 2189253380
I0208 00:15:45.817497 31203 layer_factory.hpp:77] Creating layer conv5_1
I0208 00:15:45.817515 31203 net.cpp:100] Creating Layer conv5_1
I0208 00:15:45.817529 31203 net.cpp:434] conv5_1 <- pool4
I0208 00:15:45.817549 31203 net.cpp:408] conv5_1 -> conv5_1
I0208 00:15:45.824460 31203 net.cpp:150] Setting up conv5_1
I0208 00:15:45.824532 31203 net.cpp:157] Top shape: 2 512 36 48 (1769472)
I0208 00:15:45.824546 31203 net.cpp:165] Memory required for data: 2196331268
I0208 00:15:45.824566 31203 layer_factory.hpp:77] Creating layer relu5_1
I0208 00:15:45.824594 31203 net.cpp:100] Creating Layer relu5_1
I0208 00:15:45.824610 31203 net.cpp:434] relu5_1 <- conv5_1
I0208 00:15:45.824630 31203 net.cpp:395] relu5_1 -> conv5_1 (in-place)
I0208 00:15:45.824875 31203 net.cpp:150] Setting up relu5_1
I0208 00:15:45.824900 31203 net.cpp:157] Top shape: 2 512 36 48 (1769472)
I0208 00:15:45.824913 31203 net.cpp:165] Memory required for data: 2203409156
I0208 00:15:45.824928 31203 layer_factory.hpp:77] Creating layer conv5_2
I0208 00:15:45.824949 31203 net.cpp:100] Creating Layer conv5_2
I0208 00:15:45.824965 31203 net.cpp:434] conv5_2 <- conv5_1
I0208 00:15:45.824985 31203 net.cpp:408] conv5_2 -> conv5_2
I0208 00:15:45.832758 31203 net.cpp:150] Setting up conv5_2
I0208 00:15:45.832834 31203 net.cpp:157] Top shape: 2 512 36 48 (1769472)
I0208 00:15:45.832849 31203 net.cpp:165] Memory required for data: 2210487044
I0208 00:15:45.832870 31203 layer_factory.hpp:77] Creating layer relu5_2
I0208 00:15:45.832903 31203 net.cpp:100] Creating Layer relu5_2
I0208 00:15:45.832921 31203 net.cpp:434] relu5_2 <- conv5_2
I0208 00:15:45.832943 31203 net.cpp:395] relu5_2 -> conv5_2 (in-place)
I0208 00:15:45.833187 31203 net.cpp:150] Setting up relu5_2
I0208 00:15:45.833212 31203 net.cpp:157] Top shape: 2 512 36 48 (1769472)
I0208 00:15:45.833226 31203 net.cpp:165] Memory required for data: 2217564932
I0208 00:15:45.833240 31203 layer_factory.hpp:77] Creating layer conv5_3
I0208 00:15:45.833271 31203 net.cpp:100] Creating Layer conv5_3
I0208 00:15:45.833287 31203 net.cpp:434] conv5_3 <- conv5_2
I0208 00:15:45.833305 31203 net.cpp:408] conv5_3 -> conv5_3
I0208 00:15:45.840096 31203 net.cpp:150] Setting up conv5_3
I0208 00:15:45.840170 31203 net.cpp:157] Top shape: 2 512 36 48 (1769472)
I0208 00:15:45.840184 31203 net.cpp:165] Memory required for data: 2224642820
I0208 00:15:45.840204 31203 layer_factory.hpp:77] Creating layer relu5_3
I0208 00:15:45.840224 31203 net.cpp:100] Creating Layer relu5_3
I0208 00:15:45.840245 31203 net.cpp:434] relu5_3 <- conv5_3
I0208 00:15:45.840265 31203 net.cpp:395] relu5_3 -> conv5_3 (in-place)
I0208 00:15:45.840495 31203 net.cpp:150] Setting up relu5_3
I0208 00:15:45.840521 31203 net.cpp:157] Top shape: 2 512 36 48 (1769472)
I0208 00:15:45.840538 31203 net.cpp:165] Memory required for data: 2231720708
I0208 00:15:45.840553 31203 layer_factory.hpp:77] Creating layer conv5_3_relu5_3_0_split
I0208 00:15:45.840570 31203 net.cpp:100] Creating Layer conv5_3_relu5_3_0_split
I0208 00:15:45.840586 31203 net.cpp:434] conv5_3_relu5_3_0_split <- conv5_3
I0208 00:15:45.840608 31203 net.cpp:408] conv5_3_relu5_3_0_split -> conv5_3_relu5_3_0_split_0
I0208 00:15:45.840634 31203 net.cpp:408] conv5_3_relu5_3_0_split -> conv5_3_relu5_3_0_split_1
I0208 00:15:45.840661 31203 net.cpp:408] conv5_3_relu5_3_0_split -> conv5_3_relu5_3_0_split_2
I0208 00:15:45.840771 31203 net.cpp:150] Setting up conv5_3_relu5_3_0_split
I0208 00:15:45.840800 31203 net.cpp:157] Top shape: 2 512 36 48 (1769472)
I0208 00:15:45.840821 31203 net.cpp:157] Top shape: 2 512 36 48 (1769472)
I0208 00:15:45.840836 31203 net.cpp:157] Top shape: 2 512 36 48 (1769472)
I0208 00:15:45.840849 31203 net.cpp:165] Memory required for data: 2252954372
I0208 00:15:45.840864 31203 layer_factory.hpp:77] Creating layer LFCN_2_3x5
I0208 00:15:45.840889 31203 net.cpp:100] Creating Layer LFCN_2_3x5
I0208 00:15:45.840905 31203 net.cpp:434] LFCN_2_3x5 <- conv5_3_relu5_3_0_split_0
I0208 00:15:45.840927 31203 net.cpp:408] LFCN_2_3x5 -> LFCN_2_3x5
I0208 00:15:45.843322 31203 net.cpp:150] Setting up LFCN_2_3x5
I0208 00:15:45.843395 31203 net.cpp:157] Top shape: 2 7 36 48 (24192)
I0208 00:15:45.843412 31203 net.cpp:165] Memory required for data: 2253051140
I0208 00:15:45.843441 31203 layer_factory.hpp:77] Creating layer LFCN_2_3x5_LFCN_2_3x5_0_split
I0208 00:15:45.843467 31203 net.cpp:100] Creating Layer LFCN_2_3x5_LFCN_2_3x5_0_split
I0208 00:15:45.843484 31203 net.cpp:434] LFCN_2_3x5_LFCN_2_3x5_0_split <- LFCN_2_3x5
I0208 00:15:45.843505 31203 net.cpp:408] LFCN_2_3x5_LFCN_2_3x5_0_split -> LFCN_2_3x5_LFCN_2_3x5_0_split_0
I0208 00:15:45.843547 31203 net.cpp:408] LFCN_2_3x5_LFCN_2_3x5_0_split -> LFCN_2_3x5_LFCN_2_3x5_0_split_1
I0208 00:15:45.843572 31203 net.cpp:408] LFCN_2_3x5_LFCN_2_3x5_0_split -> LFCN_2_3x5_LFCN_2_3x5_0_split_2
I0208 00:15:45.843664 31203 net.cpp:150] Setting up LFCN_2_3x5_LFCN_2_3x5_0_split
I0208 00:15:45.843688 31203 net.cpp:157] Top shape: 2 7 36 48 (24192)
I0208 00:15:45.843703 31203 net.cpp:157] Top shape: 2 7 36 48 (24192)
I0208 00:15:45.843719 31203 net.cpp:157] Top shape: 2 7 36 48 (24192)
I0208 00:15:45.843734 31203 net.cpp:165] Memory required for data: 2253341444
I0208 00:15:45.843749 31203 layer_factory.hpp:77] Creating layer detection_loss_2_3x5
I0208 00:15:45.843773 31203 net.cpp:100] Creating Layer detection_loss_2_3x5
I0208 00:15:45.843789 31203 net.cpp:434] detection_loss_2_3x5 <- LFCN_2_3x5_LFCN_2_3x5_0_split_0
I0208 00:15:45.843807 31203 net.cpp:434] detection_loss_2_3x5 <- label_2_3x5_data_3_split_0
I0208 00:15:45.843827 31203 net.cpp:408] detection_loss_2_3x5 -> loss_2_3x5
I0208 00:15:45.843865 31203 layer_factory.hpp:77] Creating layer detection_loss_2_3x5
I0208 00:15:45.844888 31203 net.cpp:150] Setting up detection_loss_2_3x5
I0208 00:15:45.844907 31203 net.cpp:157] Top shape: 1 1 1 2 (2)
I0208 00:15:45.844910 31203 net.cpp:160]     with loss weight 1
I0208 00:15:45.844923 31203 net.cpp:165] Memory required for data: 2253341452
I0208 00:15:45.844928 31203 layer_factory.hpp:77] Creating layer detection_accuracy_2_3x5
I0208 00:15:45.844940 31203 net.cpp:100] Creating Layer detection_accuracy_2_3x5
I0208 00:15:45.844962 31203 net.cpp:434] detection_accuracy_2_3x5 <- LFCN_2_3x5_LFCN_2_3x5_0_split_1
I0208 00:15:45.844970 31203 net.cpp:434] detection_accuracy_2_3x5 <- label_2_3x5_data_3_split_1
I0208 00:15:45.844980 31203 net.cpp:408] detection_accuracy_2_3x5 -> accuracy_2_3x5
I0208 00:15:45.844998 31203 net.cpp:408] detection_accuracy_2_3x5 -> boxiou_2_3x5
I0208 00:15:45.845048 31203 net.cpp:150] Setting up detection_accuracy_2_3x5
I0208 00:15:45.845055 31203 net.cpp:157] Top shape: 1 1 1 2 (2)
I0208 00:15:45.845060 31203 net.cpp:157] Top shape: 1 1 1 1 (1)
I0208 00:15:45.845062 31203 net.cpp:165] Memory required for data: 2253341464
I0208 00:15:45.845067 31203 layer_factory.hpp:77] Creating layer LFCN_2_5x7
I0208 00:15:45.845079 31203 net.cpp:100] Creating Layer LFCN_2_5x7
I0208 00:15:45.845083 31203 net.cpp:434] LFCN_2_5x7 <- conv5_3_relu5_3_0_split_1
I0208 00:15:45.845093 31203 net.cpp:408] LFCN_2_5x7 -> LFCN_2_5x7
I0208 00:15:45.846698 31203 net.cpp:150] Setting up LFCN_2_5x7
I0208 00:15:45.846720 31203 net.cpp:157] Top shape: 2 7 36 48 (24192)
I0208 00:15:45.846724 31203 net.cpp:165] Memory required for data: 2253438232
I0208 00:15:45.846734 31203 layer_factory.hpp:77] Creating layer LFCN_2_5x7_LFCN_2_5x7_0_split
I0208 00:15:45.846742 31203 net.cpp:100] Creating Layer LFCN_2_5x7_LFCN_2_5x7_0_split
I0208 00:15:45.846781 31203 net.cpp:434] LFCN_2_5x7_LFCN_2_5x7_0_split <- LFCN_2_5x7
I0208 00:15:45.846793 31203 net.cpp:408] LFCN_2_5x7_LFCN_2_5x7_0_split -> LFCN_2_5x7_LFCN_2_5x7_0_split_0
I0208 00:15:45.846804 31203 net.cpp:408] LFCN_2_5x7_LFCN_2_5x7_0_split -> LFCN_2_5x7_LFCN_2_5x7_0_split_1
I0208 00:15:45.846812 31203 net.cpp:408] LFCN_2_5x7_LFCN_2_5x7_0_split -> LFCN_2_5x7_LFCN_2_5x7_0_split_2
I0208 00:15:45.846866 31203 net.cpp:150] Setting up LFCN_2_5x7_LFCN_2_5x7_0_split
I0208 00:15:45.846873 31203 net.cpp:157] Top shape: 2 7 36 48 (24192)
I0208 00:15:45.846877 31203 net.cpp:157] Top shape: 2 7 36 48 (24192)
I0208 00:15:45.846881 31203 net.cpp:157] Top shape: 2 7 36 48 (24192)
I0208 00:15:45.846892 31203 net.cpp:165] Memory required for data: 2253728536
I0208 00:15:45.846896 31203 layer_factory.hpp:77] Creating layer detection_loss_2_5x7
I0208 00:15:45.846906 31203 net.cpp:100] Creating Layer detection_loss_2_5x7
I0208 00:15:45.846910 31203 net.cpp:434] detection_loss_2_5x7 <- LFCN_2_5x7_LFCN_2_5x7_0_split_0
I0208 00:15:45.846916 31203 net.cpp:434] detection_loss_2_5x7 <- label_2_5x7_data_4_split_0
I0208 00:15:45.846930 31203 net.cpp:408] detection_loss_2_5x7 -> loss_2_5x7
I0208 00:15:45.846941 31203 layer_factory.hpp:77] Creating layer detection_loss_2_5x7
I0208 00:15:45.847681 31203 net.cpp:150] Setting up detection_loss_2_5x7
I0208 00:15:45.847693 31203 net.cpp:157] Top shape: 1 1 1 2 (2)
I0208 00:15:45.847697 31203 net.cpp:160]     with loss weight 1
I0208 00:15:45.847719 31203 net.cpp:165] Memory required for data: 2253728544
I0208 00:15:45.847724 31203 layer_factory.hpp:77] Creating layer detection_accuracy_2_5x7
I0208 00:15:45.847733 31203 net.cpp:100] Creating Layer detection_accuracy_2_5x7
I0208 00:15:45.847738 31203 net.cpp:434] detection_accuracy_2_5x7 <- LFCN_2_5x7_LFCN_2_5x7_0_split_1
I0208 00:15:45.847743 31203 net.cpp:434] detection_accuracy_2_5x7 <- label_2_5x7_data_4_split_1
I0208 00:15:45.847753 31203 net.cpp:408] detection_accuracy_2_5x7 -> accuracy_2_5x7
I0208 00:15:45.847762 31203 net.cpp:408] detection_accuracy_2_5x7 -> boxiou_2_5x7
I0208 00:15:45.847807 31203 net.cpp:150] Setting up detection_accuracy_2_5x7
I0208 00:15:45.847813 31203 net.cpp:157] Top shape: 1 1 1 2 (2)
I0208 00:15:45.847817 31203 net.cpp:157] Top shape: 1 1 1 1 (1)
I0208 00:15:45.847820 31203 net.cpp:165] Memory required for data: 2253728556
I0208 00:15:45.847823 31203 layer_factory.hpp:77] Creating layer pool5
I0208 00:15:45.847831 31203 net.cpp:100] Creating Layer pool5
I0208 00:15:45.847834 31203 net.cpp:434] pool5 <- conv5_3_relu5_3_0_split_2
I0208 00:15:45.847842 31203 net.cpp:408] pool5 -> pool5
I0208 00:15:45.847878 31203 net.cpp:150] Setting up pool5
I0208 00:15:45.847885 31203 net.cpp:157] Top shape: 2 512 18 24 (442368)
I0208 00:15:45.847889 31203 net.cpp:165] Memory required for data: 2255498028
I0208 00:15:45.847892 31203 layer_factory.hpp:77] Creating layer conv6_1
I0208 00:15:45.847913 31203 net.cpp:100] Creating Layer conv6_1
I0208 00:15:45.847918 31203 net.cpp:434] conv6_1 <- pool5
I0208 00:15:45.847924 31203 net.cpp:408] conv6_1 -> conv6_1
I0208 00:15:45.868903 31203 net.cpp:150] Setting up conv6_1
I0208 00:15:45.868932 31203 net.cpp:157] Top shape: 2 512 18 24 (442368)
I0208 00:15:45.868935 31203 net.cpp:165] Memory required for data: 2257267500
I0208 00:15:45.868947 31203 layer_factory.hpp:77] Creating layer relu6_1
I0208 00:15:45.868963 31203 net.cpp:100] Creating Layer relu6_1
I0208 00:15:45.868968 31203 net.cpp:434] relu6_1 <- conv6_1
I0208 00:15:45.869040 31203 net.cpp:395] relu6_1 -> conv6_1 (in-place)
I0208 00:15:45.869197 31203 net.cpp:150] Setting up relu6_1
I0208 00:15:45.869206 31203 net.cpp:157] Top shape: 2 512 18 24 (442368)
I0208 00:15:45.869210 31203 net.cpp:165] Memory required for data: 2259036972
I0208 00:15:45.869215 31203 layer_factory.hpp:77] Creating layer conv6_1_relu6_1_0_split
I0208 00:15:45.869222 31203 net.cpp:100] Creating Layer conv6_1_relu6_1_0_split
I0208 00:15:45.869231 31203 net.cpp:434] conv6_1_relu6_1_0_split <- conv6_1
I0208 00:15:45.869238 31203 net.cpp:408] conv6_1_relu6_1_0_split -> conv6_1_relu6_1_0_split_0
I0208 00:15:45.869256 31203 net.cpp:408] conv6_1_relu6_1_0_split -> conv6_1_relu6_1_0_split_1
I0208 00:15:45.869277 31203 net.cpp:408] conv6_1_relu6_1_0_split -> conv6_1_relu6_1_0_split_2
I0208 00:15:45.869333 31203 net.cpp:150] Setting up conv6_1_relu6_1_0_split
I0208 00:15:45.869339 31203 net.cpp:157] Top shape: 2 512 18 24 (442368)
I0208 00:15:45.869343 31203 net.cpp:157] Top shape: 2 512 18 24 (442368)
I0208 00:15:45.869348 31203 net.cpp:157] Top shape: 2 512 18 24 (442368)
I0208 00:15:45.869350 31203 net.cpp:165] Memory required for data: 2264345388
I0208 00:15:45.869354 31203 layer_factory.hpp:77] Creating layer LFCN_3_3x5
I0208 00:15:45.869369 31203 net.cpp:100] Creating Layer LFCN_3_3x5
I0208 00:15:45.869372 31203 net.cpp:434] LFCN_3_3x5 <- conv6_1_relu6_1_0_split_0
I0208 00:15:45.869380 31203 net.cpp:408] LFCN_3_3x5 -> LFCN_3_3x5
I0208 00:15:45.871469 31203 net.cpp:150] Setting up LFCN_3_3x5
I0208 00:15:45.871506 31203 net.cpp:157] Top shape: 2 7 18 24 (6048)
I0208 00:15:45.871523 31203 net.cpp:165] Memory required for data: 2264369580
I0208 00:15:45.871543 31203 layer_factory.hpp:77] Creating layer LFCN_3_3x5_LFCN_3_3x5_0_split
I0208 00:15:45.871578 31203 net.cpp:100] Creating Layer LFCN_3_3x5_LFCN_3_3x5_0_split
I0208 00:15:45.871596 31203 net.cpp:434] LFCN_3_3x5_LFCN_3_3x5_0_split <- LFCN_3_3x5
I0208 00:15:45.871616 31203 net.cpp:408] LFCN_3_3x5_LFCN_3_3x5_0_split -> LFCN_3_3x5_LFCN_3_3x5_0_split_0
I0208 00:15:45.871637 31203 net.cpp:408] LFCN_3_3x5_LFCN_3_3x5_0_split -> LFCN_3_3x5_LFCN_3_3x5_0_split_1
I0208 00:15:45.871657 31203 net.cpp:408] LFCN_3_3x5_LFCN_3_3x5_0_split -> LFCN_3_3x5_LFCN_3_3x5_0_split_2
I0208 00:15:45.871747 31203 net.cpp:150] Setting up LFCN_3_3x5_LFCN_3_3x5_0_split
I0208 00:15:45.871769 31203 net.cpp:157] Top shape: 2 7 18 24 (6048)
I0208 00:15:45.871785 31203 net.cpp:157] Top shape: 2 7 18 24 (6048)
I0208 00:15:45.871803 31203 net.cpp:157] Top shape: 2 7 18 24 (6048)
I0208 00:15:45.871819 31203 net.cpp:165] Memory required for data: 2264442156
I0208 00:15:45.871834 31203 layer_factory.hpp:77] Creating layer detection_loss_3_3x5
I0208 00:15:45.871855 31203 net.cpp:100] Creating Layer detection_loss_3_3x5
I0208 00:15:45.871881 31203 net.cpp:434] detection_loss_3_3x5 <- LFCN_3_3x5_LFCN_3_3x5_0_split_0
I0208 00:15:45.871901 31203 net.cpp:434] detection_loss_3_3x5 <- label_3_3x5_data_5_split_0
I0208 00:15:45.871924 31203 net.cpp:408] detection_loss_3_3x5 -> loss_3_3x5
I0208 00:15:45.871948 31203 layer_factory.hpp:77] Creating layer detection_loss_3_3x5
I0208 00:15:45.872449 31203 net.cpp:150] Setting up detection_loss_3_3x5
I0208 00:15:45.872478 31203 net.cpp:157] Top shape: 1 1 1 2 (2)
I0208 00:15:45.872494 31203 net.cpp:160]     with loss weight 1
I0208 00:15:45.872517 31203 net.cpp:165] Memory required for data: 2264442164
I0208 00:15:45.872534 31203 layer_factory.hpp:77] Creating layer detection_accuracy_3_3x5
I0208 00:15:45.872553 31203 net.cpp:100] Creating Layer detection_accuracy_3_3x5
I0208 00:15:45.872573 31203 net.cpp:434] detection_accuracy_3_3x5 <- LFCN_3_3x5_LFCN_3_3x5_0_split_1
I0208 00:15:45.872591 31203 net.cpp:434] detection_accuracy_3_3x5 <- label_3_3x5_data_5_split_1
I0208 00:15:45.872609 31203 net.cpp:408] detection_accuracy_3_3x5 -> accuracy_3_3x5
I0208 00:15:45.872630 31203 net.cpp:408] detection_accuracy_3_3x5 -> boxiou_3_3x5
I0208 00:15:45.872709 31203 net.cpp:150] Setting up detection_accuracy_3_3x5
I0208 00:15:45.872730 31203 net.cpp:157] Top shape: 1 1 1 2 (2)
I0208 00:15:45.872745 31203 net.cpp:157] Top shape: 1 1 1 1 (1)
I0208 00:15:45.872757 31203 net.cpp:165] Memory required for data: 2264442176
I0208 00:15:45.872768 31203 layer_factory.hpp:77] Creating layer LFCN_3_5x7
I0208 00:15:45.872792 31203 net.cpp:100] Creating Layer LFCN_3_5x7
I0208 00:15:45.872812 31203 net.cpp:434] LFCN_3_5x7 <- conv6_1_relu6_1_0_split_1
I0208 00:15:45.872834 31203 net.cpp:408] LFCN_3_5x7 -> LFCN_3_5x7
I0208 00:15:45.876778 31203 net.cpp:150] Setting up LFCN_3_5x7
I0208 00:15:45.876808 31203 net.cpp:157] Top shape: 2 7 18 24 (6048)
I0208 00:15:45.876813 31203 net.cpp:165] Memory required for data: 2264466368
I0208 00:15:45.876826 31203 layer_factory.hpp:77] Creating layer LFCN_3_5x7_LFCN_3_5x7_0_split
I0208 00:15:45.876839 31203 net.cpp:100] Creating Layer LFCN_3_5x7_LFCN_3_5x7_0_split
I0208 00:15:45.876847 31203 net.cpp:434] LFCN_3_5x7_LFCN_3_5x7_0_split <- LFCN_3_5x7
I0208 00:15:45.876869 31203 net.cpp:408] LFCN_3_5x7_LFCN_3_5x7_0_split -> LFCN_3_5x7_LFCN_3_5x7_0_split_0
I0208 00:15:45.876884 31203 net.cpp:408] LFCN_3_5x7_LFCN_3_5x7_0_split -> LFCN_3_5x7_LFCN_3_5x7_0_split_1
I0208 00:15:45.876893 31203 net.cpp:408] LFCN_3_5x7_LFCN_3_5x7_0_split -> LFCN_3_5x7_LFCN_3_5x7_0_split_2
I0208 00:15:45.876950 31203 net.cpp:150] Setting up LFCN_3_5x7_LFCN_3_5x7_0_split
I0208 00:15:45.876958 31203 net.cpp:157] Top shape: 2 7 18 24 (6048)
I0208 00:15:45.876971 31203 net.cpp:157] Top shape: 2 7 18 24 (6048)
I0208 00:15:45.876976 31203 net.cpp:157] Top shape: 2 7 18 24 (6048)
I0208 00:15:45.876979 31203 net.cpp:165] Memory required for data: 2264538944
I0208 00:15:45.876989 31203 layer_factory.hpp:77] Creating layer detection_loss_3_5x7
I0208 00:15:45.876998 31203 net.cpp:100] Creating Layer detection_loss_3_5x7
I0208 00:15:45.877002 31203 net.cpp:434] detection_loss_3_5x7 <- LFCN_3_5x7_LFCN_3_5x7_0_split_0
I0208 00:15:45.877008 31203 net.cpp:434] detection_loss_3_5x7 <- label_3_5x7_data_6_split_0
I0208 00:15:45.877018 31203 net.cpp:408] detection_loss_3_5x7 -> loss_3_5x7
I0208 00:15:45.877029 31203 layer_factory.hpp:77] Creating layer detection_loss_3_5x7
I0208 00:15:45.877367 31203 net.cpp:150] Setting up detection_loss_3_5x7
I0208 00:15:45.877377 31203 net.cpp:157] Top shape: 1 1 1 2 (2)
I0208 00:15:45.877382 31203 net.cpp:160]     with loss weight 1
I0208 00:15:45.877394 31203 net.cpp:165] Memory required for data: 2264538952
I0208 00:15:45.877398 31203 layer_factory.hpp:77] Creating layer detection_accuracy_3_5x7
I0208 00:15:45.877408 31203 net.cpp:100] Creating Layer detection_accuracy_3_5x7
I0208 00:15:45.877411 31203 net.cpp:434] detection_accuracy_3_5x7 <- LFCN_3_5x7_LFCN_3_5x7_0_split_1
I0208 00:15:45.877418 31203 net.cpp:434] detection_accuracy_3_5x7 <- label_3_5x7_data_6_split_1
I0208 00:15:45.877426 31203 net.cpp:408] detection_accuracy_3_5x7 -> accuracy_3_5x7
I0208 00:15:45.877435 31203 net.cpp:408] detection_accuracy_3_5x7 -> boxiou_3_5x7
I0208 00:15:45.877480 31203 net.cpp:150] Setting up detection_accuracy_3_5x7
I0208 00:15:45.877487 31203 net.cpp:157] Top shape: 1 1 1 2 (2)
I0208 00:15:45.877492 31203 net.cpp:157] Top shape: 1 1 1 1 (1)
I0208 00:15:45.877496 31203 net.cpp:165] Memory required for data: 2264538964
I0208 00:15:45.877499 31203 layer_factory.hpp:77] Creating layer pool6
I0208 00:15:45.877516 31203 net.cpp:100] Creating Layer pool6
I0208 00:15:45.877521 31203 net.cpp:434] pool6 <- conv6_1_relu6_1_0_split_2
I0208 00:15:45.877527 31203 net.cpp:408] pool6 -> pool6
I0208 00:15:45.877568 31203 net.cpp:150] Setting up pool6
I0208 00:15:45.877574 31203 net.cpp:157] Top shape: 2 512 9 12 (110592)
I0208 00:15:45.877578 31203 net.cpp:165] Memory required for data: 2264981332
I0208 00:15:45.877580 31203 layer_factory.hpp:77] Creating layer LFCN_4_3x5
I0208 00:15:45.877600 31203 net.cpp:100] Creating Layer LFCN_4_3x5
I0208 00:15:45.877605 31203 net.cpp:434] LFCN_4_3x5 <- pool6
I0208 00:15:45.877614 31203 net.cpp:408] LFCN_4_3x5 -> LFCN_4_3x5
I0208 00:15:45.879853 31203 net.cpp:150] Setting up LFCN_4_3x5
I0208 00:15:45.879866 31203 net.cpp:157] Top shape: 2 7 9 12 (1512)
I0208 00:15:45.879870 31203 net.cpp:165] Memory required for data: 2264987380
I0208 00:15:45.879878 31203 layer_factory.hpp:77] Creating layer LFCN_4_3x5_LFCN_4_3x5_0_split
I0208 00:15:45.879889 31203 net.cpp:100] Creating Layer LFCN_4_3x5_LFCN_4_3x5_0_split
I0208 00:15:45.879894 31203 net.cpp:434] LFCN_4_3x5_LFCN_4_3x5_0_split <- LFCN_4_3x5
I0208 00:15:45.879902 31203 net.cpp:408] LFCN_4_3x5_LFCN_4_3x5_0_split -> LFCN_4_3x5_LFCN_4_3x5_0_split_0
I0208 00:15:45.879912 31203 net.cpp:408] LFCN_4_3x5_LFCN_4_3x5_0_split -> LFCN_4_3x5_LFCN_4_3x5_0_split_1
I0208 00:15:45.879920 31203 net.cpp:408] LFCN_4_3x5_LFCN_4_3x5_0_split -> LFCN_4_3x5_LFCN_4_3x5_0_split_2
I0208 00:15:45.879972 31203 net.cpp:150] Setting up LFCN_4_3x5_LFCN_4_3x5_0_split
I0208 00:15:45.879978 31203 net.cpp:157] Top shape: 2 7 9 12 (1512)
I0208 00:15:45.879982 31203 net.cpp:157] Top shape: 2 7 9 12 (1512)
I0208 00:15:45.879987 31203 net.cpp:157] Top shape: 2 7 9 12 (1512)
I0208 00:15:45.880002 31203 net.cpp:165] Memory required for data: 2265005524
I0208 00:15:45.880007 31203 layer_factory.hpp:77] Creating layer detection_loss_4_3x5
I0208 00:15:45.880015 31203 net.cpp:100] Creating Layer detection_loss_4_3x5
I0208 00:15:45.880020 31203 net.cpp:434] detection_loss_4_3x5 <- LFCN_4_3x5_LFCN_4_3x5_0_split_0
I0208 00:15:45.880026 31203 net.cpp:434] detection_loss_4_3x5 <- label_4_3x5_data_7_split_0
I0208 00:15:45.880034 31203 net.cpp:408] detection_loss_4_3x5 -> loss_4_3x5
I0208 00:15:45.880044 31203 layer_factory.hpp:77] Creating layer detection_loss_4_3x5
I0208 00:15:45.880338 31203 net.cpp:150] Setting up detection_loss_4_3x5
I0208 00:15:45.880347 31203 net.cpp:157] Top shape: 1 1 1 2 (2)
I0208 00:15:45.880350 31203 net.cpp:160]     with loss weight 1
I0208 00:15:45.880362 31203 net.cpp:165] Memory required for data: 2265005532
I0208 00:15:45.880367 31203 layer_factory.hpp:77] Creating layer detection_accuracy_4_3x5
I0208 00:15:45.880376 31203 net.cpp:100] Creating Layer detection_accuracy_4_3x5
I0208 00:15:45.880380 31203 net.cpp:434] detection_accuracy_4_3x5 <- LFCN_4_3x5_LFCN_4_3x5_0_split_1
I0208 00:15:45.880385 31203 net.cpp:434] detection_accuracy_4_3x5 <- label_4_3x5_data_7_split_1
I0208 00:15:45.880395 31203 net.cpp:408] detection_accuracy_4_3x5 -> accuracy_4_3x5
I0208 00:15:45.880404 31203 net.cpp:408] detection_accuracy_4_3x5 -> boxiou_4_3x5
I0208 00:15:45.880445 31203 net.cpp:150] Setting up detection_accuracy_4_3x5
I0208 00:15:45.880450 31203 net.cpp:157] Top shape: 1 1 1 2 (2)
I0208 00:15:45.880455 31203 net.cpp:157] Top shape: 1 1 1 1 (1)
I0208 00:15:45.880458 31203 net.cpp:165] Memory required for data: 2265005544
I0208 00:15:45.880461 31203 layer_factory.hpp:77] Creating layer proposals
I0208 00:15:45.880475 31203 net.cpp:100] Creating Layer proposals
I0208 00:15:45.880481 31203 net.cpp:434] proposals <- LFCN_1_3x5_LFCN_1_3x5_0_split_2
I0208 00:15:45.880486 31203 net.cpp:434] proposals <- LFCN_1_5x7_LFCN_1_5x7_0_split_2
I0208 00:15:45.880491 31203 net.cpp:434] proposals <- LFCN_2_3x5_LFCN_2_3x5_0_split_2
I0208 00:15:45.880494 31203 net.cpp:434] proposals <- LFCN_2_5x7_LFCN_2_5x7_0_split_2
I0208 00:15:45.880498 31203 net.cpp:434] proposals <- LFCN_3_3x5_LFCN_3_3x5_0_split_2
I0208 00:15:45.880513 31203 net.cpp:434] proposals <- LFCN_3_5x7_LFCN_3_5x7_0_split_2
I0208 00:15:45.880518 31203 net.cpp:434] proposals <- LFCN_4_3x5_LFCN_4_3x5_0_split_2
I0208 00:15:45.880525 31203 net.cpp:408] proposals -> proposals
I0208 00:15:45.880558 31203 net.cpp:150] Setting up proposals
I0208 00:15:45.880564 31203 net.cpp:157] Top shape: 1 5 1 1 (5)
I0208 00:15:45.880568 31203 net.cpp:165] Memory required for data: 2265005564
I0208 00:15:45.880571 31203 layer_factory.hpp:77] Creating layer proposal_info
I0208 00:15:45.880590 31203 net.cpp:100] Creating Layer proposal_info
I0208 00:15:45.880595 31203 net.cpp:434] proposal_info <- proposals
I0208 00:15:45.880600 31203 net.cpp:434] proposal_info <- gt_boxes
I0208 00:15:45.880610 31203 net.cpp:408] proposal_info -> rois
I0208 00:15:45.880622 31203 net.cpp:408] proposal_info -> proposal_labels
I0208 00:15:45.880630 31203 net.cpp:408] proposal_info -> proposal_targets
I0208 00:15:45.880640 31203 net.cpp:408] proposal_info -> box_inside_weights
I0208 00:15:45.880650 31203 net.cpp:408] proposal_info -> box_outside_weights
I0208 00:15:45.880658 31203 net.cpp:408] proposal_info -> match_gt_boxes
I0208 00:15:45.880738 31203 net.cpp:150] Setting up proposal_info
I0208 00:15:45.880744 31203 net.cpp:157] Top shape: 64 5 1 1 (320)
I0208 00:15:45.880748 31203 net.cpp:157] Top shape: 64 1 1 1 (64)
I0208 00:15:45.880753 31203 net.cpp:157] Top shape: 64 12 1 1 (768)
I0208 00:15:45.880765 31203 net.cpp:157] Top shape: 64 12 1 1 (768)
I0208 00:15:45.880769 31203 net.cpp:157] Top shape: 64 12 1 1 (768)
I0208 00:15:45.880774 31203 net.cpp:157] Top shape: 64 6 1 1 (384)
I0208 00:15:45.880776 31203 net.cpp:165] Memory required for data: 2265017852
I0208 00:15:45.880779 31203 layer_factory.hpp:77] Creating layer rois_proposal_info_0_split
I0208 00:15:45.880786 31203 net.cpp:100] Creating Layer rois_proposal_info_0_split
I0208 00:15:45.880790 31203 net.cpp:434] rois_proposal_info_0_split <- rois
I0208 00:15:45.880796 31203 net.cpp:408] rois_proposal_info_0_split -> rois_proposal_info_0_split_0
I0208 00:15:45.880807 31203 net.cpp:408] rois_proposal_info_0_split -> rois_proposal_info_0_split_1
I0208 00:15:45.880815 31203 net.cpp:408] rois_proposal_info_0_split -> rois_proposal_info_0_split_2
I0208 00:15:45.880861 31203 net.cpp:150] Setting up rois_proposal_info_0_split
I0208 00:15:45.880867 31203 net.cpp:157] Top shape: 64 5 1 1 (320)
I0208 00:15:45.880870 31203 net.cpp:157] Top shape: 64 5 1 1 (320)
I0208 00:15:45.880874 31203 net.cpp:157] Top shape: 64 5 1 1 (320)
I0208 00:15:45.880877 31203 net.cpp:165] Memory required for data: 2265021692
I0208 00:15:45.880880 31203 layer_factory.hpp:77] Creating layer proposal_labels_proposal_info_1_split
I0208 00:15:45.880887 31203 net.cpp:100] Creating Layer proposal_labels_proposal_info_1_split
I0208 00:15:45.880892 31203 net.cpp:434] proposal_labels_proposal_info_1_split <- proposal_labels
I0208 00:15:45.880900 31203 net.cpp:408] proposal_labels_proposal_info_1_split -> proposal_labels_proposal_info_1_split_0
I0208 00:15:45.880908 31203 net.cpp:408] proposal_labels_proposal_info_1_split -> proposal_labels_proposal_info_1_split_1
I0208 00:15:45.880939 31203 net.cpp:150] Setting up proposal_labels_proposal_info_1_split
I0208 00:15:45.880945 31203 net.cpp:157] Top shape: 64 1 1 1 (64)
I0208 00:15:45.880949 31203 net.cpp:157] Top shape: 64 1 1 1 (64)
I0208 00:15:45.880951 31203 net.cpp:165] Memory required for data: 2265022204
I0208 00:15:45.880955 31203 layer_factory.hpp:77] Creating layer conv4_3_2x
I0208 00:15:45.880972 31203 net.cpp:100] Creating Layer conv4_3_2x
I0208 00:15:45.880977 31203 net.cpp:434] conv4_3_2x <- conv4_3_relu4_3_0_split_2
I0208 00:15:45.880983 31203 net.cpp:408] conv4_3_2x -> conv4_3_2x
I0208 00:15:45.881362 31203 net.cpp:150] Setting up conv4_3_2x
I0208 00:15:45.881372 31203 net.cpp:157] Top shape: 2 512 144 192 (28311552)
I0208 00:15:45.881376 31203 net.cpp:165] Memory required for data: 2378268412
I0208 00:15:45.881382 31203 layer_factory.hpp:77] Creating layer conv4_3_2x_conv4_3_2x_0_split
I0208 00:15:45.881389 31203 net.cpp:100] Creating Layer conv4_3_2x_conv4_3_2x_0_split
I0208 00:15:45.881394 31203 net.cpp:434] conv4_3_2x_conv4_3_2x_0_split <- conv4_3_2x
I0208 00:15:45.881402 31203 net.cpp:408] conv4_3_2x_conv4_3_2x_0_split -> conv4_3_2x_conv4_3_2x_0_split_0
I0208 00:15:45.881410 31203 net.cpp:408] conv4_3_2x_conv4_3_2x_0_split -> conv4_3_2x_conv4_3_2x_0_split_1
I0208 00:15:45.881446 31203 net.cpp:150] Setting up conv4_3_2x_conv4_3_2x_0_split
I0208 00:15:45.881453 31203 net.cpp:157] Top shape: 2 512 144 192 (28311552)
I0208 00:15:45.881456 31203 net.cpp:157] Top shape: 2 512 144 192 (28311552)
I0208 00:15:45.881459 31203 net.cpp:165] Memory required for data: 2604760828
I0208 00:15:45.881475 31203 layer_factory.hpp:77] Creating layer roi_pool_org
I0208 00:15:45.881484 31203 net.cpp:100] Creating Layer roi_pool_org
I0208 00:15:45.881487 31203 net.cpp:434] roi_pool_org <- conv4_3_2x_conv4_3_2x_0_split_0
I0208 00:15:45.881494 31203 net.cpp:434] roi_pool_org <- rois_proposal_info_0_split_0
I0208 00:15:45.881501 31203 net.cpp:408] roi_pool_org -> roi_pool_org
I0208 00:15:45.881511 31203 roi_pooling_layer.cpp:33] Spatial scale: 0.25
I0208 00:15:45.881556 31203 net.cpp:150] Setting up roi_pool_org
I0208 00:15:45.881562 31203 net.cpp:157] Top shape: 64 512 7 5 (1146880)
I0208 00:15:45.881566 31203 net.cpp:165] Memory required for data: 2609348348
I0208 00:15:45.881569 31203 layer_factory.hpp:77] Creating layer roi_pool_ctx
I0208 00:15:45.881577 31203 net.cpp:100] Creating Layer roi_pool_ctx
I0208 00:15:45.881580 31203 net.cpp:434] roi_pool_ctx <- conv4_3_2x_conv4_3_2x_0_split_1
I0208 00:15:45.881585 31203 net.cpp:434] roi_pool_ctx <- rois_proposal_info_0_split_1
I0208 00:15:45.881592 31203 net.cpp:408] roi_pool_ctx -> roi_pool_ctx
I0208 00:15:45.881602 31203 roi_pooling_layer.cpp:33] Spatial scale: 0.25
I0208 00:15:45.881636 31203 net.cpp:150] Setting up roi_pool_ctx
I0208 00:15:45.881641 31203 net.cpp:157] Top shape: 64 512 7 5 (1146880)
I0208 00:15:45.881644 31203 net.cpp:165] Memory required for data: 2613935868
I0208 00:15:45.881649 31203 layer_factory.hpp:77] Creating layer roi_pool
I0208 00:15:45.881654 31203 net.cpp:100] Creating Layer roi_pool
I0208 00:15:45.881659 31203 net.cpp:434] roi_pool <- roi_pool_org
I0208 00:15:45.881664 31203 net.cpp:434] roi_pool <- roi_pool_ctx
I0208 00:15:45.881671 31203 net.cpp:408] roi_pool -> roi_pool
I0208 00:15:45.881697 31203 net.cpp:150] Setting up roi_pool
I0208 00:15:45.881703 31203 net.cpp:157] Top shape: 64 1024 7 5 (2293760)
I0208 00:15:45.881706 31203 net.cpp:165] Memory required for data: 2623110908
I0208 00:15:45.881709 31203 layer_factory.hpp:77] Creating layer roi_c1
I0208 00:15:45.881721 31203 net.cpp:100] Creating Layer roi_c1
I0208 00:15:45.881726 31203 net.cpp:434] roi_c1 <- roi_pool
I0208 00:15:45.881733 31203 net.cpp:408] roi_c1 -> roi_c1
I0208 00:15:45.924612 31203 net.cpp:150] Setting up roi_c1
I0208 00:15:45.924643 31203 net.cpp:157] Top shape: 64 512 5 3 (491520)
I0208 00:15:45.924646 31203 net.cpp:165] Memory required for data: 2625076988
I0208 00:15:45.924657 31203 layer_factory.hpp:77] Creating layer roi_c1_relu
I0208 00:15:45.924669 31203 net.cpp:100] Creating Layer roi_c1_relu
I0208 00:15:45.924674 31203 net.cpp:434] roi_c1_relu <- roi_c1
I0208 00:15:45.924686 31203 net.cpp:395] roi_c1_relu -> roi_c1 (in-place)
I0208 00:15:45.925348 31203 net.cpp:150] Setting up roi_c1_relu
I0208 00:15:45.925364 31203 net.cpp:157] Top shape: 64 512 5 3 (491520)
I0208 00:15:45.925369 31203 net.cpp:165] Memory required for data: 2627043068
I0208 00:15:45.925372 31203 layer_factory.hpp:77] Creating layer fc6
I0208 00:15:45.925385 31203 net.cpp:100] Creating Layer fc6
I0208 00:15:45.925395 31203 net.cpp:434] fc6 <- roi_c1
I0208 00:15:45.925405 31203 net.cpp:408] fc6 -> fc6
I0208 00:15:46.067446 31203 net.cpp:150] Setting up fc6
I0208 00:15:46.067479 31203 net.cpp:157] Top shape: 64 2048 (131072)
I0208 00:15:46.067483 31203 net.cpp:165] Memory required for data: 2627567356
I0208 00:15:46.067497 31203 layer_factory.hpp:77] Creating layer relu6
I0208 00:15:46.067507 31203 net.cpp:100] Creating Layer relu6
I0208 00:15:46.067513 31203 net.cpp:434] relu6 <- fc6
I0208 00:15:46.067540 31203 net.cpp:395] relu6 -> fc6 (in-place)
I0208 00:15:46.067781 31203 net.cpp:150] Setting up relu6
I0208 00:15:46.067792 31203 net.cpp:157] Top shape: 64 2048 (131072)
I0208 00:15:46.067796 31203 net.cpp:165] Memory required for data: 2628091644
I0208 00:15:46.067800 31203 layer_factory.hpp:77] Creating layer drop6
I0208 00:15:46.067809 31203 net.cpp:100] Creating Layer drop6
I0208 00:15:46.067828 31203 net.cpp:434] drop6 <- fc6
I0208 00:15:46.067848 31203 net.cpp:395] drop6 -> fc6 (in-place)
I0208 00:15:46.067908 31203 net.cpp:150] Setting up drop6
I0208 00:15:46.067914 31203 net.cpp:157] Top shape: 64 2048 (131072)
I0208 00:15:46.067919 31203 net.cpp:165] Memory required for data: 2628615932
I0208 00:15:46.067922 31203 layer_factory.hpp:77] Creating layer fc6_drop6_0_split
I0208 00:15:46.067931 31203 net.cpp:100] Creating Layer fc6_drop6_0_split
I0208 00:15:46.067947 31203 net.cpp:434] fc6_drop6_0_split <- fc6
I0208 00:15:46.067976 31203 net.cpp:408] fc6_drop6_0_split -> fc6_drop6_0_split_0
I0208 00:15:46.068001 31203 net.cpp:408] fc6_drop6_0_split -> fc6_drop6_0_split_1
I0208 00:15:46.068053 31203 net.cpp:150] Setting up fc6_drop6_0_split
I0208 00:15:46.068063 31203 net.cpp:157] Top shape: 64 2048 (131072)
I0208 00:15:46.068068 31203 net.cpp:157] Top shape: 64 2048 (131072)
I0208 00:15:46.068070 31203 net.cpp:165] Memory required for data: 2629664508
I0208 00:15:46.068074 31203 layer_factory.hpp:77] Creating layer cls_pred
I0208 00:15:46.068084 31203 net.cpp:100] Creating Layer cls_pred
I0208 00:15:46.068089 31203 net.cpp:434] cls_pred <- fc6_drop6_0_split_0
I0208 00:15:46.068099 31203 net.cpp:408] cls_pred -> cls_pred
I0208 00:15:46.068259 31203 net.cpp:150] Setting up cls_pred
I0208 00:15:46.068267 31203 net.cpp:157] Top shape: 64 3 (192)
I0208 00:15:46.068270 31203 net.cpp:165] Memory required for data: 2629665276
I0208 00:15:46.068279 31203 layer_factory.hpp:77] Creating layer cls_pred_cls_pred_0_split
I0208 00:15:46.068286 31203 net.cpp:100] Creating Layer cls_pred_cls_pred_0_split
I0208 00:15:46.068292 31203 net.cpp:434] cls_pred_cls_pred_0_split <- cls_pred
I0208 00:15:46.068300 31203 net.cpp:408] cls_pred_cls_pred_0_split -> cls_pred_cls_pred_0_split_0
I0208 00:15:46.068308 31203 net.cpp:408] cls_pred_cls_pred_0_split -> cls_pred_cls_pred_0_split_1
I0208 00:15:46.068365 31203 net.cpp:150] Setting up cls_pred_cls_pred_0_split
I0208 00:15:46.068372 31203 net.cpp:157] Top shape: 64 3 (192)
I0208 00:15:46.068377 31203 net.cpp:157] Top shape: 64 3 (192)
I0208 00:15:46.068379 31203 net.cpp:165] Memory required for data: 2629666812
I0208 00:15:46.068383 31203 layer_factory.hpp:77] Creating layer bbox_pred
I0208 00:15:46.068392 31203 net.cpp:100] Creating Layer bbox_pred
I0208 00:15:46.068397 31203 net.cpp:434] bbox_pred <- fc6_drop6_0_split_1
I0208 00:15:46.068405 31203 net.cpp:408] bbox_pred -> bbox_pred
I0208 00:15:46.068694 31203 net.cpp:150] Setting up bbox_pred
I0208 00:15:46.068702 31203 net.cpp:157] Top shape: 64 12 (768)
I0208 00:15:46.068706 31203 net.cpp:165] Memory required for data: 2629669884
I0208 00:15:46.068712 31203 layer_factory.hpp:77] Creating layer bbox_pred_bbox_pred_0_split
I0208 00:15:46.068719 31203 net.cpp:100] Creating Layer bbox_pred_bbox_pred_0_split
I0208 00:15:46.068725 31203 net.cpp:434] bbox_pred_bbox_pred_0_split <- bbox_pred
I0208 00:15:46.068734 31203 net.cpp:408] bbox_pred_bbox_pred_0_split -> bbox_pred_bbox_pred_0_split_0
I0208 00:15:46.068744 31203 net.cpp:408] bbox_pred_bbox_pred_0_split -> bbox_pred_bbox_pred_0_split_1
I0208 00:15:46.068790 31203 net.cpp:150] Setting up bbox_pred_bbox_pred_0_split
I0208 00:15:46.068796 31203 net.cpp:157] Top shape: 64 12 (768)
I0208 00:15:46.068800 31203 net.cpp:157] Top shape: 64 12 (768)
I0208 00:15:46.068804 31203 net.cpp:165] Memory required for data: 2629676028
I0208 00:15:46.068806 31203 layer_factory.hpp:77] Creating layer loss_cls
I0208 00:15:46.068814 31203 net.cpp:100] Creating Layer loss_cls
I0208 00:15:46.068817 31203 net.cpp:434] loss_cls <- cls_pred_cls_pred_0_split_0
I0208 00:15:46.068823 31203 net.cpp:434] loss_cls <- proposal_labels_proposal_info_1_split_0
…
