…
    downsample_rate: 32
    downsample_rate: 32
    downsample_rate: 64
    coord_num: 4
    field_h: 60
    field_h: 84
    field_h: 120
    field_h: 168
    field_h: 240
    field_h: 336
    field_h: 480
    field_w: 40
    field_w: 56
    field_w: 80
    field_w: 112
    field_w: 160
    field_w: 224
    field_w: 320
    fg_threshold: 0.5
    resize_width: 1920
    resize_height: 576
    crop_width: 768
    crop_height: 576
    do_multiple_scale: true
    min_scale: 50
    max_scale: 420
    min_gt_height: 35
    shuffle: true
    output_gt_boxes: true
  }
}
layer {
  name: "conv1_1"
  type: "Convolution"
  bottom: "data"
  top: "conv1_1"
  param {
    lr_mult: 0
    decay_mult: 0
  }
  param {
    lr_mult: 0
    decay_mult: 0
  }
  convolution_param {
    num_output: 64
    pad: 1
    kernel_size: 3
  }
}
layer {
  name: "relu1_1"
  type: "ReLU"
  bottom: "conv1_1"
  top: "conv1_1"
}
layer {
  name: "conv1_2"
  type: "Convolution"
  bottom: "conv1_1"
  top: "conv1_2"
  param {
    lr_mult: 0
    decay_mult: 0
  }
  param {
    lr_mult: 0
    decay_mult: 0
  }
  convolution_param {
    num_output: 64
    pad: 1
    kernel_size: 3
  }
}
layer {
  name: "relu1_2"
  type: "ReLU"
  bottom: "conv1_2"
  top: "conv1_2"
}
layer {
  name: "pool1"
  type: "Pooling"
  bottom: "conv1_2"
  top: "pool1"
  pooling_param {
    pool: MAX
    kernel_size: 2
    stride: 2
  }
}
layer {
  name: "conv2_1"
  type: "Convolution"
  bottom: "pool1"
  top: "conv2_1"
  param {
    lr_mult: 0
    decay_mult: 0
  }
  param {
    lr_mult: 0
    decay_mult: 0
  }
  convolution_param {
    num_output: 128
    pad: 1
    kernel_size: 3
  }
}
layer {
  name: "relu2_1"
  type: "ReLU"
  bottom: "conv2_1"
  top: "conv2_1"
}
layer {
  name: "conv2_2"
  type: "Convolution"
  bottom: "conv2_1"
  top: "conv2_2"
  param {
    lr_mult: 0
    decay_mult: 0
  }
  param {
    lr_mult: 0
    decay_mult: 0
  }
  convolution_param {
    num_output: 128
    pad: 1
    kernel_size: 3
  }
}
layer {
  name: "relu2_2"
  type: "ReLU"
  bottom: "conv2_2"
  top: "conv2_2"
}
layer {
  name: "pool2"
  type: "Pooling"
  bottom: "conv2_2"
  top: "pool2"
  pooling_param {
    pool: MAX
    kernel_size: 2
    stride: 2
  }
}
layer {
  name: "conv3_1"
  type: "Convolution"
  bottom: "pool2"
  top: "conv3_1"
  convolution_param {
    num_output: 256
    pad: 1
    kernel_size: 3
  }
}
layer {
  name: "relu3_1"
  type: "ReLU"
  bottom: "conv3_1"
  top: "conv3_1"
}
layer {
  name: "conv3_2"
  type: "Convolution"
  bottom: "conv3_1"
  top: "conv3_2"
  convolution_param {
    num_output: 256
    pad: 1
    kernel_size: 3
  }
}
layer {
  name: "relu3_2"
  type: "ReLU"
  bottom: "conv3_2"
  top: "conv3_2"
}
layer {
  name: "conv3_3"
  type: "Convolution"
  bottom: "conv3_2"
  top: "conv3_3"
  convolution_param {
    num_output: 256
    pad: 1
    kernel_size: 3
  }
}
layer {
  name: "relu3_3"
  type: "ReLU"
  bottom: "conv3_3"
  top: "conv3_3"
}
layer {
  name: "pool3"
  type: "Pooling"
  bottom: "conv3_3"
  top: "pool3"
  pooling_param {
    pool: MAX
    kernel_size: 2
    stride: 2
  }
}
layer {
  name: "conv4_1"
  type: "Convolution"
  bottom: "pool3"
  top: "conv4_1"
  convolution_param {
    num_output: 512
    pad: 1
    kernel_size: 3
  }
}
layer {
  name: "relu4_1"
  type: "ReLU"
  bottom: "conv4_1"
  top: "conv4_1"
}
layer {
  name: "conv4_2"
  type: "Convolution"
  bottom: "conv4_1"
  top: "conv4_2"
  convolution_param {
    num_output: 512
    pad: 1
    kernel_size: 3
  }
}
layer {
  name: "relu4_2"
  type: "ReLU"
  bottom: "conv4_2"
  top: "conv4_2"
}
layer {
  name: "conv4_3"
  type: "Convolution"
  bottom: "conv4_2"
  top: "conv4_3"
  convolution_param {
    num_output: 512
    pad: 1
    kernel_size: 3
  }
}
layer {
  name: "relu4_3"
  type: "ReLU"
  bottom: "conv4_3"
  top: "conv4_3"
}
layer {
  name: "loss1_conv1"
  type: "Convolution"
  bottom: "conv4_3"
  top: "loss1_conv1"
  param {
    lr_mult: 1
    decay_mult: 1
  }
  param {
    lr_mult: 2
    decay_mult: 0
  }
  convolution_param {
    num_output: 512
    pad: 1
    kernel_size: 3
    weight_filler {
      type: "gaussian"
      std: 0.01
    }
    bias_filler {
      type: "constant"
    }
  }
}
layer {
  name: "loss_relu1"
  type: "ReLU"
  bottom: "loss1_conv1"
  top: "loss1_conv1"
}
layer {
  name: "LFCN_1_3x5"
  type: "Convolution"
  bottom: "loss1_conv1"
  top: "LFCN_1_3x5"
  param {
    lr_mult: 1
    decay_mult: 1
  }
  param {
    lr_mult: 2
    decay_mult: 0
  }
  convolution_param {
    num_output: 7
    weight_filler {
      type: "gaussian"
      std: 0.001
    }
    bias_filler {
      type: "constant"
    }
    pad_h: 2
    pad_w: 1
    kernel_h: 5
    kernel_w: 3
  }
}
layer {
  name: "detection_loss_1_3x5"
  type: "DetectionLoss"
  bottom: "LFCN_1_3x5"
  bottom: "label_1_3x5"
  top: "loss_1_3x5"
  loss_weight: 0.5
  detection_loss_param {
    cls_num: 3
    coord_num: 4
    lambda: 1
    field_h: 60
    field_w: 40
    downsample_rate: 8
    bb_smooth: true
    field_whr: 2
    field_xyr: 2
    bg_threshold: 0.2
    bg_multiple: 2
    sample_mode: "bootstrap"
    pos_neg_weighted: true
  }
}
layer {
  name: "detection_accuracy_1_3x5"
  type: "DetectionAccuracy"
  bottom: "LFCN_1_3x5"
  bottom: "label_1_3x5"
  top: "accuracy_1_3x5"
  top: "boxiou_1_3x5"
  detection_accuracy_param {
    cls_num: 3
    coord_num: 4
    field_h: 60
    field_w: 40
    downsample_rate: 8
    field_whr: 2
    field_xyr: 2
  }
}
layer {
  name: "LFCN_1_5x7"
  type: "Convolution"
  bottom: "loss1_conv1"
  top: "LFCN_1_5x7"
  param {
    lr_mult: 1
    decay_mult: 1
  }
  param {
    lr_mult: 2
    decay_mult: 0
  }
  convolution_param {
    num_output: 7
    weight_filler {
      type: "gaussian"
      std: 0.001
    }
    bias_filler {
      type: "constant"
    }
    pad_h: 3
    pad_w: 2
    kernel_h: 7
    kernel_w: 5
  }
}
layer {
  name: "detection_loss_1_5x7"
  type: "DetectionLoss"
  bottom: "LFCN_1_5x7"
  bottom: "label_1_5x7"
  top: "loss_1_5x7"
  loss_weight: 0.9
  detection_loss_param {
    cls_num: 3
    coord_num: 4
    lambda: 1
    field_h: 84
    field_w: 56
    downsample_rate: 8
    bb_smooth: true
    field_whr: 2
    field_xyr: 2
    bg_threshold: 0.2
    bg_multiple: 2
    sample_mode: "bootstrap"
    pos_neg_weighted: true
  }
}
layer {
  name: "detection_accuracy_1_5x7"
  type: "DetectionAccuracy"
  bottom: "LFCN_1_5x7"
  bottom: "label_1_5x7"
  top: "accuracy_1_5x7"
  top: "boxiou_1_5x7"
  detection_accuracy_param {
    cls_num: 3
    coord_num: 4
    field_h: 84
    field_w: 56
    downsample_rate: 8
    field_whr: 2
    field_xyr: 2
  }
}
layer {
  name: "pool4"
  type: "Pooling"
  bottom: "conv4_3"
  top: "pool4"
  pooling_param {
    pool: MAX
    kernel_size: 2
    stride: 2
  }
}
layer {
  name: "conv5_1"
  type: "Convolution"
  bottom: "pool4"
  top: "conv5_1"
  convolution_param {
    num_output: 512
    pad: 1
    kernel_size: 3
  }
}
layer {
  name: "relu5_1"
  type: "ReLU"
  bottom: "conv5_1"
  top: "conv5_1"
}
layer {
  name: "conv5_2"
  type: "Convolution"
  bottom: "conv5_1"
  top: "conv5_2"
  convolution_param {
    num_output: 512
    pad: 1
    kernel_size: 3
  }
}
layer {
  name: "relu5_2"
  type: "ReLU"
  bottom: "conv5_2"
  top: "conv5_2"
}
layer {
  name: "conv5_3"
  type: "Convolution"
  bottom: "conv5_2"
  top: "conv5_3"
  convolution_param {
    num_output: 512
    pad: 1
    kernel_size: 3
  }
}
layer {
  name: "relu5_3"
  type: "ReLU"
  bottom: "conv5_3"
  top: "conv5_3"
}
layer {
  name: "LFCN_2_3x5"
  type: "Convolution"
  bottom: "conv5_3"
  top: "LFCN_2_3x5"
  param {
    lr_mult: 1
    decay_mult: 1
  }
  param {
    lr_mult: 2
    decay_mult: 0
  }
  convolution_param {
    num_output: 7
    weight_filler {
      type: "gaussian"
      std: 0.001
    }
    bias_filler {
      type: "constant"
    }
    pad_h: 2
    pad_w: 1
    kernel_h: 5
    kernel_w: 3
  }
}
layer {
  name: "detection_loss_2_3x5"
  type: "DetectionLoss"
  bottom: "LFCN_2_3x5"
  bottom: "label_2_3x5"
  top: "loss_2_3x5"
  detection_loss_param {
    cls_num: 3
    coord_num: 4
    lambda: 1
    field_h: 120
    field_w: 80
    downsample_rate: 16
    bb_smooth: true
    field_whr: 2
    field_xyr: 2
    bg_threshold: 0.2
    bg_multiple: 2
    sample_mode: "bootstrap"
    pos_neg_weighted: true
  }
}
layer {
  name: "detection_accuracy_2_3x5"
  type: "DetectionAccuracy"
  bottom: "LFCN_2_3x5"
  bottom: "label_2_3x5"
  top: "accuracy_2_3x5"
  top: "boxiou_2_3x5"
  detection_accuracy_param {
    cls_num: 3
    coord_num: 4
    field_h: 120
    field_w: 80
    downsample_rate: 16
    field_whr: 2
    field_xyr: 2
  }
}
layer {
  name: "LFCN_2_5x7"
  type: "Convolution"
  bottom: "conv5_3"
  top: "LFCN_2_5x7"
  param {
    lr_mult: 1
    decay_mult: 1
  }
  param {
    lr_mult: 2
    decay_mult: 0
  }
  convolution_param {
    num_output: 7
    weight_filler {
      type: "gaussian"
      std: 0.001
    }
    bias_filler {
      type: "constant"
    }
    pad_h: 3
    pad_w: 2
    kernel_h: 7
    kernel_w: 5
  }
}
layer {
  name: "detection_loss_2_5x7"
  type: "DetectionLoss"
  bottom: "LFCN_2_5x7"
  bottom: "label_2_5x7"
  top: "loss_2_5x7"
  detection_loss_param {
    cls_num: 3
    coord_num: 4
    lambda: 1
    field_h: 168
    field_w: 112
    downsample_rate: 16
    bb_smooth: true
    field_whr: 2
    field_xyr: 2
    bg_threshold: 0.2
    bg_multiple: 2
    sample_mode: "bootstrap"
    pos_neg_weighted: true
  }
}
layer {
  name: "detection_accuracy_2_5x7"
  type: "DetectionAccuracy"
  bottom: "LFCN_2_5x7"
  bottom: "label_2_5x7"
  top: "accuracy_2_5x7"
  top: "boxiou_2_5x7"
  detection_accuracy_param {
    cls_num: 3
    coord_num: 4
    field_h: 168
    field_w: 112
    downsample_rate: 16
    field_whr: 2
    field_xyr: 2
  }
}
layer {
  name: "pool5"
  type: "Pooling"
  bottom: "conv5_3"
  top: "pool5"
  pooling_param {
    pool: MAX
    kernel_size: 2
    stride: 2
  }
}
layer {
  name: "conv6_1"
  type: "Convolution"
  bottom: "pool5"
  top: "conv6_1"
  param {
    lr_mult: 1
    decay_mult: 1
  }
  param {
    lr_mult: 2
    decay_mult: 0
  }
  convolution_param {
    num_output: 512
    pad: 1
    kernel_size: 3
    weight_filler {
      type: "gaussian"
      std: 0.01
    }
    bias_filler {
      type: "constant"
    }
  }
}
layer {
  name: "relu6_1"
  type: "ReLU"
  bottom: "conv6_1"
  top: "conv6_1"
}
layer {
  name: "LFCN_3_3x5"
  type: "Convolution"
  bottom: "conv6_1"
  top: "LFCN_3_3x5"
  param {
    lr_mult: 1
    decay_mult: 1
  }
  param {
    lr_mult: 2
    decay_mult: 0
  }
  convolution_param {
    num_output: 7
    weight_filler {
      type: "gaussian"
      std: 0.001
    }
    bias_filler {
      type: "constant"
    }
    pad_h: 2
    pad_w: 1
    kernel_h: 5
    kernel_w: 3
  }
}
layer {
  name: "detection_loss_3_3x5"
  type: "DetectionLoss"
  bottom: "LFCN_3_3x5"
  bottom: "label_3_3x5"
  top: "loss_3_3x5"
  detection_loss_param {
    cls_num: 3
    coord_num: 4
    lambda: 1
    field_h: 240
    field_w: 160
    downsample_rate: 32
    bb_smooth: true
    field_whr: 2
    field_xyr: 2
    bg_threshold: 0.2
    bg_multiple: 2
    sample_mode: "bootstrap"
    pos_neg_weighted: true
  }
}
layer {
  name: "detection_accuracy_3_3x5"
  type: "DetectionAccuracy"
  bottom: "LFCN_3_3x5"
  bottom: "label_3_3x5"
  top: "accuracy_3_3x5"
  top: "boxiou_3_3x5"
  detection_accuracy_param {
    cls_num: 3
    coord_num: 4
    field_h: 240
    field_w: 160
    downsample_rate: 32
    field_whr: 2
    field_xyr: 2
  }
}
layer {
  name: "LFCN_3_5x7"
  type: "Convolution"
  bottom: "conv6_1"
  top: "LFCN_3_5x7"
  param {
    lr_mult: 1
    decay_mult: 1
  }
  param {
    lr_mult: 2
    decay_mult: 0
  }
  convolution_param {
    num_output: 7
    weight_filler {
      type: "gaussian"
      std: 0.001
    }
    bias_filler {
      type: "constant"
    }
    pad_h: 3
    pad_w: 2
    kernel_h: 7
    kernel_w: 5
  }
}
layer {
  name: "detection_loss_3_5x7"
  type: "DetectionLoss"
  bottom: "LFCN_3_5x7"
  bottom: "label_3_5x7"
  top: "loss_3_5x7"
  detection_loss_param {
    cls_num: 3
    coord_num: 4
    lambda: 1
    field_h: 336
    field_w: 224
    downsample_rate: 32
    bb_smooth: true
    field_whr: 2
    field_xyr: 2
    bg_threshold: 0.2
    bg_multiple: 2
    sample_mode: "bootstrap"
    pos_neg_weighted: true
  }
}
layer {
  name: "detection_accuracy_3_5x7"
  type: "DetectionAccuracy"
  bottom: "LFCN_3_5x7"
  bottom: "label_3_5x7"
  top: "accuracy_3_5x7"
  top: "boxiou_3_5x7"
  detection_accuracy_param {
    cls_num: 3
    coord_num: 4
    field_h: 336
    field_w: 224
    downsample_rate: 32
    field_whr: 2
    field_xyr: 2
  }
}
layer {
  name: "pool6"
  type: "Pooling"
  bottom: "conv6_1"
  top: "pool6"
  pooling_param {
    pool: MAX
    kernel_size: 2
    stride: 2
  }
}
layer {
  name: "LFCN_4_3x5"
  type: "Convolution"
  bottom: "pool6"
  top: "LFCN_4_3x5"
  param {
    lr_mult: 1
    decay_mult: 1
  }
  param {
    lr_mult: 2
    decay_mult: 0
  }
  convolution_param {
    num_output: 7
    weight_filler {
      type: "gaussian"
      std: 0.001
    }
    bias_filler {
      type: "constant"
    }
    pad_h: 2
    pad_w: 1
    kernel_h: 5
    kernel_w: 3
  }
}
layer {
  name: "detection_loss_4_3x5"
  type: "DetectionLoss"
  bottom: "LFCN_4_3x5"
  bottom: "label_4_3x5"
  top: "loss_4_3x5"
  detection_loss_param {
    cls_num: 3
    coord_num: 4
    lambda: 1
    field_h: 480
    field_w: 320
    downsample_rate: 64
    bb_smooth: true
    field_whr: 2
    field_xyr: 2
    bg_threshold: 0.2
    bg_multiple: 2
    sample_mode: "bootstrap"
    pos_neg_weighted: true
  }
}
layer {
  name: "detection_accuracy_4_3x5"
  type: "DetectionAccuracy"
  bottom: "LFCN_4_3x5"
  bottom: "label_4_3x5"
  top: "accuracy_4_3x5"
  top: "boxiou_4_3x5"
  detection_accuracy_param {
    cls_num: 3
    coord_num: 4
    field_h: 480
    field_w: 320
    downsample_rate: 64
    field_whr: 2
    field_xyr: 2
  }
}
layer {
  name: "proposals"
  type: "BoxOutput"
  bottom: "LFCN_1_3x5"
  bottom: "LFCN_1_5x7"
  bottom: "LFCN_2_3x5"
  bottom: "LFCN_2_5x7"
  bottom: "LFCN_3_3x5"
  bottom: "LFCN_3_5x7"
  bottom: "LFCN_4_3x5"
  top: "proposals"
  propagate_down: false
  propagate_down: false
  propagate_down: false
  propagate_down: false
  propagate_down: false
  propagate_down: false
  propagate_down: false
  box_output_param {
    fg_thr: -15
    iou_thr: 0.65
    nms_type: "IOU"
    field_h: 60
    field_h: 84
    field_h: 120
    field_h: 168
    field_h: 240
    field_h: 336
    field_h: 480
    field_w: 40
    field_w: 56
    field_w: 80
    field_w: 112
    field_w: 160
    field_w: 224
    field_w: 320
    downsample_rate: 8
    downsample_rate: 8
    downsample_rate: 16
    downsample_rate: 16
    downsample_rate: 32
    downsample_rate: 32
    downsample_rate: 64
    field_whr: 2
    field_xyr: 2
    max_nms_num: 3000
  }
}
layer {
  name: "proposal_info"
  type: "ProposalTarget"
  bottom: "proposals"
  bottom: "gt_boxes"
  top: "rois"
  top: "proposal_labels"
  top: "proposal_targets"
  top: "box_inside_weights"
  top: "box_outside_weights"
  top: "match_gt_boxes"
  include {
    phase: TRAIN
  }
  propagate_down: false
  propagate_down: false
  proposal_target_param {
    cls_num: 3
    batch_size: 128
    fg_fraction: 0.25
    num_img_per_batch: 4
    fg_thr: 0.5
    bg_thr_hg: 0.45
    bg_thr_lw: 0.05
    img_width: 768
    img_height: 576
  }
  bbox_reg_param {
    bbox_mean: 0
    bbox_mean: 0
    bbox_mean: 0
    bbox_mean: 0
    bbox_std: 0.1
    bbox_std: 0.1
    bbox_std: 0.2
    bbox_std: 0.2
  }
}
layer {
  name: "conv4_3_2x"
  type: "Deconvolution"
  bottom: "conv4_3"
  top: "conv4_3_2x"
  param {
    lr_mult: 0
    decay_mult: 0
  }
  convolution_param {
    num_output: 512
    bias_term: false
    pad: 1
    kernel_size: 4
    group: 512
    stride: 2
    weight_filler {
      type: "bilinear"
    }
  }
}
layer {
  name: "roi_pool_org"
  type: "ROIPooling"
  bottom: "conv4_3_2x"
  bottom: "rois"
  top: "roi_pool_org"
  roi_pooling_param {
    pooled_h: 7
    pooled_w: 5
    spatial_scale: 0.25
    pad_ratio: 0
  }
}
layer {
  name: "roi_pool_ctx"
  type: "ROIPooling"
  bottom: "conv4_3_2x"
  bottom: "rois"
  top: "roi_pool_ctx"
  roi_pooling_param {
    pooled_h: 7
    pooled_w: 5
    spatial_scale: 0.25
    pad_ratio: 0.25
  }
}
layer {
  name: "roi_pool"
  type: "Concat"
  bottom: "roi_pool_org"
  bottom: "roi_pool_ctx"
  top: "roi_pool"
}
layer {
  name: "roi_c1"
  type: "Convolution"
  bottom: "roi_pool"
  top: "roi_c1"
  param {
    lr_mult: 1
    decay_mult: 1
  }
  param {
    lr_mult: 2
    decay_mult: 0
  }
  convolution_param {
    num_output: 512
    kernel_size: 3
    weight_filler {
      type: "gaussian"
      std: 0.01
    }
    bias_filler {
      type: "constant"
    }
  }
}
layer {
  name: "roi_c1_relu"
  type: "ReLU"
  bottom: "roi_c1"
  top: "roi_c1"
}
layer {
  name: "fc6"
  type: "InnerProduct"
  bottom: "roi_c1"
  top: "fc6"
  param {
    lr_mult: 1
  }
  param {
    lr_mult: 2
  }
  inner_product_param {
    num_output: 2048
    weight_filler {
      type: "gaussian"
      std: 0.001
    }
    bias_filler {
      type: "constant"
      value: 0
    }
  }
}
layer {
  name: "relu6"
  type: "ReLU"
  bottom: "fc6"
  top: "fc6"
}
layer {
  name: "drop6"
  type: "Dropout"
  bottom: "fc6"
  top: "fc6"
  dropout_param {
    dropout_ratio: 0.5
  }
}
layer {
  name: "cls_pred"
  type: "InnerProduct"
  bottom: "fc6"
  top: "cls_pred"
  param {
    lr_mult: 1
  }
  param {
    lr_mult: 2
  }
  inner_product_param {
    num_output: 3
    weight_filler {
      type: "gaussian"
      std: 0.01
    }
    bias_filler {
      type: "constant"
      value: 0
    }
  }
}
layer {
  name: "bbox_pred"
  type: "InnerProduct"
  bottom: "fc6"
  top: "bbox_pred"
  param {
    lr_mult: 1
  }
  param {
    lr_mult: 2
  }
  inner_product_param {
    num_output: 12
    weight_filler {
      type: "gaussian"
      std: 0.001
    }
    bias_filler {
      type: "constant"
      value: 0
    }
  }
}
layer {
  name: "loss_cls"
  type: "SoftmaxWithLoss"
  bottom: "cls_pred"
  bottom: "proposal_labels"
  top: "loss_cls"
  loss_weight: 1
  propagate_down: true
  propagate_down: false
}
layer {
  name: "cls_accuracy"
  type: "Accuracy"
  bottom: "cls_pred"
  bottom: "proposal_labels"
  top: "cls_accuracy"
}
layer {
  name: "loss_bbox"
  type: "SmoothL1Loss"
  bottom: "bbox_pred"
  bottom: "proposal_targets"
  bottom: "box_inside_weights"
  bottom: "box_outside_weights"
  top: "loss_bbox"
  loss_weight: 1
}
layer {
  name: "bbox_iou"
  type: "BboxAccuracy"
  bottom: "bbox_pred"
  bottom: "rois"
  bottom: "match_gt_boxes"
  top: "bbox_iou"
  top: "bbox_iou_pre"
  bbox_reg_param {
    bbox_mean: 0
    bbox_mean: 0
    bbox_mean: 0
    bbox_mean: 0
    bbox_std: 0.1
    bbox_std: 0.1
    bbox_std: 0.2
    bbox_std: 0.2
  }
}
I1029 19:45:36.300433 12312 layer_factory.hpp:77] Creating layer data
I1029 19:45:36.300474 12312 net.cpp:100] Creating Layer data
I1029 19:45:36.300480 12312 net.cpp:408] data -> data
…
I1029 19:45:36.323520 12312 image_gt_data_layer.cpp:235] output label size 2 : 4,6,36,48
I1029 19:45:36.323549 12312 image_gt_data_layer.cpp:235] output label size 3 : 4,6,36,48
I1029 19:45:36.323578 12312 image_gt_data_layer.cpp:235] output label size 4 : 4,6,18,24
I1029 19:45:36.323607 12312 image_gt_data_layer.cpp:235] output label size 5 : 4,6,18,24
I1029 19:45:36.323637 12312 image_gt_data_layer.cpp:235] output label size 6 : 4,6,9,12
I1029 19:45:36.323664 12312 image_gt_data_layer.cpp:250] output gt boxes size: 1,7,1,1
I1029 19:45:36.355496 12312 net.cpp:150] Setting up data
I1029 19:45:36.355522 12312 net.cpp:157] Top shape: 4 3 576 768 (5308416)
I1029 19:45:36.355526 12312 net.cpp:157] Top shape: 4 6 72 96 (165888)
I1029 19:45:36.355530 12312 net.cpp:157] Top shape: 4 6 72 96 (165888)
I1029 19:45:36.355531 12312 net.cpp:157] Top shape: 4 6 36 48 (41472)
I1029 19:45:36.355535 12312 net.cpp:157] Top shape: 4 6 36 48 (41472)
I1029 19:45:36.355536 12312 net.cpp:157] Top shape: 4 6 18 24 (10368)
I1029 19:45:36.355540 12312 net.cpp:157] Top shape: 4 6 18 24 (10368)
I1029 19:45:36.355541 12312 net.cpp:157] Top shape: 4 6 9 12 (2592)
I1029 19:45:36.355545 12312 net.cpp:157] Top shape: 1 7 1 1 (7)
I1029 19:45:36.355546 12312 net.cpp:165] Memory required for data: 22985884
I1029 19:45:36.355552 12312 layer_factory.hpp:77] Creating layer label_1_3x5_data_1_split
I1029 19:45:36.355563 12312 net.cpp:100] Creating Layer label_1_3x5_data_1_split
I1029 19:45:36.355568 12312 net.cpp:434] label_1_3x5_data_1_split <- label_1_3x5
I1029 19:45:36.355579 12312 net.cpp:408] label_1_3x5_data_1_split -> label_1_3x5_data_1_split_0
I1029 19:45:36.355587 12312 net.cpp:408] label_1_3x5_data_1_split -> label_1_3x5_data_1_split_1
I1029 19:45:36.355648 12312 net.cpp:150] Setting up label_1_3x5_data_1_split
I1029 19:45:36.355654 12312 net.cpp:157] Top shape: 4 6 72 96 (165888)
I1029 19:45:36.355657 12312 net.cpp:157] Top shape: 4 6 72 96 (165888)
I1029 19:45:36.355659 12312 net.cpp:165] Memory required for data: 24312988
I1029 19:45:36.355660 12312 layer_factory.hpp:77] Creating layer label_1_5x7_data_2_split
I1029 19:45:36.355665 12312 net.cpp:100] Creating Layer label_1_5x7_data_2_split
I1029 19:45:36.355669 12312 net.cpp:434] label_1_5x7_data_2_split <- label_1_5x7
I1029 19:45:36.355672 12312 net.cpp:408] label_1_5x7_data_2_split -> label_1_5x7_data_2_split_0
I1029 19:45:36.355676 12312 net.cpp:408] label_1_5x7_data_2_split -> label_1_5x7_data_2_split_1
I1029 19:45:36.355698 12312 net.cpp:150] Setting up label_1_5x7_data_2_split
I1029 19:45:36.355703 12312 net.cpp:157] Top shape: 4 6 72 96 (165888)
I1029 19:45:36.355706 12312 net.cpp:157] Top shape: 4 6 72 96 (165888)
I1029 19:45:36.355708 12312 net.cpp:165] Memory required for data: 25640092
I1029 19:45:36.355710 12312 layer_factory.hpp:77] Creating layer label_2_3x5_data_3_split
I1029 19:45:36.355715 12312 net.cpp:100] Creating Layer label_2_3x5_data_3_split
I1029 19:45:36.355716 12312 net.cpp:434] label_2_3x5_data_3_split <- label_2_3x5
I1029 19:45:36.355720 12312 net.cpp:408] label_2_3x5_data_3_split -> label_2_3x5_data_3_split_0
I1029 19:45:36.355725 12312 net.cpp:408] label_2_3x5_data_3_split -> label_2_3x5_data_3_split_1
I1029 19:45:36.355744 12312 net.cpp:150] Setting up label_2_3x5_data_3_split
I1029 19:45:36.355747 12312 net.cpp:157] Top shape: 4 6 36 48 (41472)
I1029 19:45:36.355751 12312 net.cpp:157] Top shape: 4 6 36 48 (41472)
I1029 19:45:36.355752 12312 net.cpp:165] Memory required for data: 25971868
I1029 19:45:36.355753 12312 layer_factory.hpp:77] Creating layer label_2_5x7_data_4_split
I1029 19:45:36.355757 12312 net.cpp:100] Creating Layer label_2_5x7_data_4_split
I1029 19:45:36.355759 12312 net.cpp:434] label_2_5x7_data_4_split <- label_2_5x7
I1029 19:45:36.355763 12312 net.cpp:408] label_2_5x7_data_4_split -> label_2_5x7_data_4_split_0
I1029 19:45:36.355767 12312 net.cpp:408] label_2_5x7_data_4_split -> label_2_5x7_data_4_split_1
I1029 19:45:36.355788 12312 net.cpp:150] Setting up label_2_5x7_data_4_split
I1029 19:45:36.355792 12312 net.cpp:157] Top shape: 4 6 36 48 (41472)
I1029 19:45:36.355794 12312 net.cpp:157] Top shape: 4 6 36 48 (41472)
I1029 19:45:36.355795 12312 net.cpp:165] Memory required for data: 26303644
I1029 19:45:36.355798 12312 layer_factory.hpp:77] Creating layer label_3_3x5_data_5_split
I1029 19:45:36.355800 12312 net.cpp:100] Creating Layer label_3_3x5_data_5_split
I1029 19:45:36.355803 12312 net.cpp:434] label_3_3x5_data_5_split <- label_3_3x5
I1029 19:45:36.355806 12312 net.cpp:408] label_3_3x5_data_5_split -> label_3_3x5_data_5_split_0
I1029 19:45:36.355810 12312 net.cpp:408] label_3_3x5_data_5_split -> label_3_3x5_data_5_split_1
I1029 19:45:36.355829 12312 net.cpp:150] Setting up label_3_3x5_data_5_split
I1029 19:45:36.355832 12312 net.cpp:157] Top shape: 4 6 18 24 (10368)
I1029 19:45:36.355835 12312 net.cpp:157] Top shape: 4 6 18 24 (10368)
I1029 19:45:36.355836 12312 net.cpp:165] Memory required for data: 26386588
I1029 19:45:36.355839 12312 layer_factory.hpp:77] Creating layer label_3_5x7_data_6_split
I1029 19:45:36.355842 12312 net.cpp:100] Creating Layer label_3_5x7_data_6_split
I1029 19:45:36.355844 12312 net.cpp:434] label_3_5x7_data_6_split <- label_3_5x7
I1029 19:45:36.355847 12312 net.cpp:408] label_3_5x7_data_6_split -> label_3_5x7_data_6_split_0
I1029 19:45:36.355850 12312 net.cpp:408] label_3_5x7_data_6_split -> label_3_5x7_data_6_split_1
I1029 19:45:36.355870 12312 net.cpp:150] Setting up label_3_5x7_data_6_split
I1029 19:45:36.355875 12312 net.cpp:157] Top shape: 4 6 18 24 (10368)
I1029 19:45:36.355877 12312 net.cpp:157] Top shape: 4 6 18 24 (10368)
I1029 19:45:36.355878 12312 net.cpp:165] Memory required for data: 26469532
I1029 19:45:36.355880 12312 layer_factory.hpp:77] Creating layer label_4_3x5_data_7_split
I1029 19:45:36.355883 12312 net.cpp:100] Creating Layer label_4_3x5_data_7_split
I1029 19:45:36.355885 12312 net.cpp:434] label_4_3x5_data_7_split <- label_4_3x5
I1029 19:45:36.355890 12312 net.cpp:408] label_4_3x5_data_7_split -> label_4_3x5_data_7_split_0
I1029 19:45:36.355893 12312 net.cpp:408] label_4_3x5_data_7_split -> label_4_3x5_data_7_split_1
I1029 19:45:36.355912 12312 net.cpp:150] Setting up label_4_3x5_data_7_split
I1029 19:45:36.355916 12312 net.cpp:157] Top shape: 4 6 9 12 (2592)
I1029 19:45:36.355918 12312 net.cpp:157] Top shape: 4 6 9 12 (2592)
I1029 19:45:36.355921 12312 net.cpp:165] Memory required for data: 26490268
I1029 19:45:36.355922 12312 layer_factory.hpp:77] Creating layer conv1_1
I1029 19:45:36.355934 12312 net.cpp:100] Creating Layer conv1_1
I1029 19:45:36.355937 12312 net.cpp:434] conv1_1 <- data
I1029 19:45:36.355940 12312 net.cpp:408] conv1_1 -> conv1_1
I1029 19:45:36.851346 12312 net.cpp:150] Setting up conv1_1
I1029 19:45:36.851369 12312 net.cpp:157] Top shape: 4 64 576 768 (113246208)
I1029 19:45:36.851372 12312 net.cpp:165] Memory required for data: 479475100
I1029 19:45:36.851389 12312 layer_factory.hpp:77] Creating layer relu1_1
I1029 19:45:36.851397 12312 net.cpp:100] Creating Layer relu1_1
I1029 19:45:36.851402 12312 net.cpp:434] relu1_1 <- conv1_1
I1029 19:45:36.851405 12312 net.cpp:395] relu1_1 -> conv1_1 (in-place)
I1029 19:45:36.851544 12312 net.cpp:150] Setting up relu1_1
I1029 19:45:36.851552 12312 net.cpp:157] Top shape: 4 64 576 768 (113246208)
I1029 19:45:36.851553 12312 net.cpp:165] Memory required for data: 932459932
I1029 19:45:36.851557 12312 layer_factory.hpp:77] Creating layer conv1_2
I1029 19:45:36.851564 12312 net.cpp:100] Creating Layer conv1_2
I1029 19:45:36.851568 12312 net.cpp:434] conv1_2 <- conv1_1
I1029 19:45:36.851572 12312 net.cpp:408] conv1_2 -> conv1_2
I1029 19:45:36.853687 12312 net.cpp:150] Setting up conv1_2
I1029 19:45:36.853698 12312 net.cpp:157] Top shape: 4 64 576 768 (113246208)
I1029 19:45:36.853700 12312 net.cpp:165] Memory required for data: 1385444764
I1029 19:45:36.853708 12312 layer_factory.hpp:77] Creating layer relu1_2
I1029 19:45:36.853713 12312 net.cpp:100] Creating Layer relu1_2
I1029 19:45:36.853714 12312 net.cpp:434] relu1_2 <- conv1_2
I1029 19:45:36.853718 12312 net.cpp:395] relu1_2 -> conv1_2 (in-place)
I1029 19:45:36.853854 12312 net.cpp:150] Setting up relu1_2
I1029 19:45:36.853862 12312 net.cpp:157] Top shape: 4 64 576 768 (113246208)
I1029 19:45:36.853863 12312 net.cpp:165] Memory required for data: 1838429596
I1029 19:45:36.853865 12312 layer_factory.hpp:77] Creating layer pool1
I1029 19:45:36.853871 12312 net.cpp:100] Creating Layer pool1
I1029 19:45:36.853873 12312 net.cpp:434] pool1 <- conv1_2
I1029 19:45:36.853878 12312 net.cpp:408] pool1 -> pool1
I1029 19:45:36.853917 12312 net.cpp:150] Setting up pool1
I1029 19:45:36.853922 12312 net.cpp:157] Top shape: 4 64 288 384 (28311552)
I1029 19:45:36.853924 12312 net.cpp:165] Memory required for data: 1951675804
I1029 19:45:36.853926 12312 layer_factory.hpp:77] Creating layer conv2_1
I1029 19:45:36.853931 12312 net.cpp:100] Creating Layer conv2_1
I1029 19:45:36.853935 12312 net.cpp:434] conv2_1 <- pool1
I1029 19:45:36.853938 12312 net.cpp:408] conv2_1 -> conv2_1
I1029 19:45:36.855870 12312 net.cpp:150] Setting up conv2_1
I1029 19:45:36.855880 12312 net.cpp:157] Top shape: 4 128 288 384 (56623104)
I1029 19:45:36.855882 12312 net.cpp:165] Memory required for data: 2178168220
I1029 19:45:36.855890 12312 layer_factory.hpp:77] Creating layer relu2_1
I1029 19:45:36.855895 12312 net.cpp:100] Creating Layer relu2_1
I1029 19:45:36.855897 12312 net.cpp:434] relu2_1 <- conv2_1
I1029 19:45:36.855901 12312 net.cpp:395] relu2_1 -> conv2_1 (in-place)
I1029 19:45:36.856032 12312 net.cpp:150] Setting up relu2_1
I1029 19:45:36.856040 12312 net.cpp:157] Top shape: 4 128 288 384 (56623104)
I1029 19:45:36.856042 12312 net.cpp:165] Memory required for data: 2404660636
I1029 19:45:36.856045 12312 layer_factory.hpp:77] Creating layer conv2_2
I1029 19:45:36.856050 12312 net.cpp:100] Creating Layer conv2_2
I1029 19:45:36.856053 12312 net.cpp:434] conv2_2 <- conv2_1
I1029 19:45:36.856057 12312 net.cpp:408] conv2_2 -> conv2_2
I1029 19:45:36.857321 12312 net.cpp:150] Setting up conv2_2
I1029 19:45:36.857332 12312 net.cpp:157] Top shape: 4 128 288 384 (56623104)
I1029 19:45:36.857350 12312 net.cpp:165] Memory required for data: 2631153052
I1029 19:45:36.857355 12312 layer_factory.hpp:77] Creating layer relu2_2
I1029 19:45:36.857363 12312 net.cpp:100] Creating Layer relu2_2
I1029 19:45:36.857367 12312 net.cpp:434] relu2_2 <- conv2_2
I1029 19:45:36.857372 12312 net.cpp:395] relu2_2 -> conv2_2 (in-place)
I1029 19:45:36.857507 12312 net.cpp:150] Setting up relu2_2
I1029 19:45:36.857514 12312 net.cpp:157] Top shape: 4 128 288 384 (56623104)
I1029 19:45:36.857517 12312 net.cpp:165] Memory required for data: 2857645468
I1029 19:45:36.857519 12312 layer_factory.hpp:77] Creating layer pool2
I1029 19:45:36.857523 12312 net.cpp:100] Creating Layer pool2
I1029 19:45:36.857525 12312 net.cpp:434] pool2 <- conv2_2
I1029 19:45:36.857529 12312 net.cpp:408] pool2 -> pool2
I1029 19:45:36.857565 12312 net.cpp:150] Setting up pool2
I1029 19:45:36.857569 12312 net.cpp:157] Top shape: 4 128 144 192 (14155776)
I1029 19:45:36.857571 12312 net.cpp:165] Memory required for data: 2914268572
I1029 19:45:36.857573 12312 layer_factory.hpp:77] Creating layer conv3_1
I1029 19:45:36.857578 12312 net.cpp:100] Creating Layer conv3_1
I1029 19:45:36.857579 12312 net.cpp:434] conv3_1 <- pool2
I1029 19:45:36.857583 12312 net.cpp:408] conv3_1 -> conv3_1
I1029 19:45:36.859664 12312 net.cpp:150] Setting up conv3_1
I1029 19:45:36.859676 12312 net.cpp:157] Top shape: 4 256 144 192 (28311552)
I1029 19:45:36.859678 12312 net.cpp:165] Memory required for data: 3027514780
I1029 19:45:36.859685 12312 layer_factory.hpp:77] Creating layer relu3_1
I1029 19:45:36.859689 12312 net.cpp:100] Creating Layer relu3_1
I1029 19:45:36.859693 12312 net.cpp:434] relu3_1 <- conv3_1
I1029 19:45:36.859695 12312 net.cpp:395] relu3_1 -> conv3_1 (in-place)
I1029 19:45:36.860157 12312 net.cpp:150] Setting up relu3_1
I1029 19:45:36.860167 12312 net.cpp:157] Top shape: 4 256 144 192 (28311552)
I1029 19:45:36.860170 12312 net.cpp:165] Memory required for data: 3140760988
I1029 19:45:36.860172 12312 layer_factory.hpp:77] Creating layer conv3_2
I1029 19:45:36.860177 12312 net.cpp:100] Creating Layer conv3_2
I1029 19:45:36.860179 12312 net.cpp:434] conv3_2 <- conv3_1
I1029 19:45:36.860183 12312 net.cpp:408] conv3_2 -> conv3_2
I1029 19:45:36.862192 12312 net.cpp:150] Setting up conv3_2
I1029 19:45:36.862203 12312 net.cpp:157] Top shape: 4 256 144 192 (28311552)
I1029 19:45:36.862205 12312 net.cpp:165] Memory required for data: 3254007196
I1029 19:45:36.862210 12312 layer_factory.hpp:77] Creating layer relu3_2
I1029 19:45:36.862215 12312 net.cpp:100] Creating Layer relu3_2
I1029 19:45:36.862217 12312 net.cpp:434] relu3_2 <- conv3_2
I1029 19:45:36.862221 12312 net.cpp:395] relu3_2 -> conv3_2 (in-place)
I1029 19:45:36.862628 12312 net.cpp:150] Setting up relu3_2
I1029 19:45:36.862638 12312 net.cpp:157] Top shape: 4 256 144 192 (28311552)
I1029 19:45:36.862640 12312 net.cpp:165] Memory required for data: 3367253404
I1029 19:45:36.862643 12312 layer_factory.hpp:77] Creating layer conv3_3
I1029 19:45:36.862648 12312 net.cpp:100] Creating Layer conv3_3
I1029 19:45:36.862650 12312 net.cpp:434] conv3_3 <- conv3_2
I1029 19:45:36.862654 12312 net.cpp:408] conv3_3 -> conv3_3
I1029 19:45:36.864890 12312 net.cpp:150] Setting up conv3_3
I1029 19:45:36.864902 12312 net.cpp:157] Top shape: 4 256 144 192 (28311552)
I1029 19:45:36.864904 12312 net.cpp:165] Memory required for data: 3480499612
I1029 19:45:36.864908 12312 layer_factory.hpp:77] Creating layer relu3_3
I1029 19:45:36.864913 12312 net.cpp:100] Creating Layer relu3_3
I1029 19:45:36.864915 12312 net.cpp:434] relu3_3 <- conv3_3
I1029 19:45:36.864918 12312 net.cpp:395] relu3_3 -> conv3_3 (in-place)
I1029 19:45:36.865053 12312 net.cpp:150] Setting up relu3_3
I1029 19:45:36.865061 12312 net.cpp:157] Top shape: 4 256 144 192 (28311552)
I1029 19:45:36.865063 12312 net.cpp:165] Memory required for data: 3593745820
I1029 19:45:36.865065 12312 layer_factory.hpp:77] Creating layer pool3
I1029 19:45:36.865069 12312 net.cpp:100] Creating Layer pool3
I1029 19:45:36.865072 12312 net.cpp:434] pool3 <- conv3_3
I1029 19:45:36.865075 12312 net.cpp:408] pool3 -> pool3
I1029 19:45:36.865113 12312 net.cpp:150] Setting up pool3
I1029 19:45:36.865118 12312 net.cpp:157] Top shape: 4 256 72 96 (7077888)
I1029 19:45:36.865120 12312 net.cpp:165] Memory required for data: 3622057372
I1029 19:45:36.865123 12312 layer_factory.hpp:77] Creating layer conv4_1
I1029 19:45:36.865126 12312 net.cpp:100] Creating Layer conv4_1
I1029 19:45:36.865128 12312 net.cpp:434] conv4_1 <- pool3
I1029 19:45:36.865133 12312 net.cpp:408] conv4_1 -> conv4_1
I1029 19:45:36.868852 12312 net.cpp:150] Setting up conv4_1
I1029 19:45:36.868863 12312 net.cpp:157] Top shape: 4 512 72 96 (14155776)
I1029 19:45:36.868866 12312 net.cpp:165] Memory required for data: 3678680476
I1029 19:45:36.868871 12312 layer_factory.hpp:77] Creating layer relu4_1
I1029 19:45:36.868875 12312 net.cpp:100] Creating Layer relu4_1
I1029 19:45:36.868878 12312 net.cpp:434] relu4_1 <- conv4_1
I1029 19:45:36.868881 12312 net.cpp:395] relu4_1 -> conv4_1 (in-place)
I1029 19:45:36.869020 12312 net.cpp:150] Setting up relu4_1
I1029 19:45:36.869029 12312 net.cpp:157] Top shape: 4 512 72 96 (14155776)
I1029 19:45:36.869030 12312 net.cpp:165] Memory required for data: 3735303580
I1029 19:45:36.869032 12312 layer_factory.hpp:77] Creating layer conv4_2
I1029 19:45:36.869037 12312 net.cpp:100] Creating Layer conv4_2
I1029 19:45:36.869041 12312 net.cpp:434] conv4_2 <- conv4_1
I1029 19:45:36.869045 12312 net.cpp:408] conv4_2 -> conv4_2
I1029 19:45:36.873234 12312 net.cpp:150] Setting up conv4_2
I1029 19:45:36.873250 12312 net.cpp:157] Top shape: 4 512 72 96 (14155776)
I1029 19:45:36.873252 12312 net.cpp:165] Memory required for data: 3791926684
I1029 19:45:36.873262 12312 layer_factory.hpp:77] Creating layer relu4_2
I1029 19:45:36.873267 12312 net.cpp:100] Creating Layer relu4_2
I1029 19:45:36.873271 12312 net.cpp:434] relu4_2 <- conv4_2
I1029 19:45:36.873276 12312 net.cpp:395] relu4_2 -> conv4_2 (in-place)
I1029 19:45:36.873419 12312 net.cpp:150] Setting up relu4_2
I1029 19:45:36.873425 12312 net.cpp:157] Top shape: 4 512 72 96 (14155776)
I1029 19:45:36.873426 12312 net.cpp:165] Memory required for data: 3848549788
I1029 19:45:36.873428 12312 layer_factory.hpp:77] Creating layer conv4_3
I1029 19:45:36.873435 12312 net.cpp:100] Creating Layer conv4_3
I1029 19:45:36.873437 12312 net.cpp:434] conv4_3 <- conv4_2
I1029 19:45:36.873441 12312 net.cpp:408] conv4_3 -> conv4_3
I1029 19:45:36.877715 12312 net.cpp:150] Setting up conv4_3
I1029 19:45:36.877746 12312 net.cpp:157] Top shape: 4 512 72 96 (14155776)
I1029 19:45:36.877748 12312 net.cpp:165] Memory required for data: 3905172892
I1029 19:45:36.877755 12312 layer_factory.hpp:77] Creating layer relu4_3
I1029 19:45:36.877761 12312 net.cpp:100] Creating Layer relu4_3
I1029 19:45:36.877763 12312 net.cpp:434] relu4_3 <- conv4_3
I1029 19:45:36.877768 12312 net.cpp:395] relu4_3 -> conv4_3 (in-place)
I1029 19:45:36.877894 12312 net.cpp:150] Setting up relu4_3
I1029 19:45:36.877902 12312 net.cpp:157] Top shape: 4 512 72 96 (14155776)
I1029 19:45:36.877902 12312 net.cpp:165] Memory required for data: 3961795996
I1029 19:45:36.877905 12312 layer_factory.hpp:77] Creating layer conv4_3_relu4_3_0_split
I1029 19:45:36.877910 12312 net.cpp:100] Creating Layer conv4_3_relu4_3_0_split
I1029 19:45:36.877913 12312 net.cpp:434] conv4_3_relu4_3_0_split <- conv4_3
I1029 19:45:36.877918 12312 net.cpp:408] conv4_3_relu4_3_0_split -> conv4_3_relu4_3_0_split_0
I1029 19:45:36.877924 12312 net.cpp:408] conv4_3_relu4_3_0_split -> conv4_3_relu4_3_0_split_1
I1029 19:45:36.877929 12312 net.cpp:408] conv4_3_relu4_3_0_split -> conv4_3_relu4_3_0_split_2
I1029 19:45:36.877970 12312 net.cpp:150] Setting up conv4_3_relu4_3_0_split
I1029 19:45:36.877975 12312 net.cpp:157] Top shape: 4 512 72 96 (14155776)
I1029 19:45:36.877977 12312 net.cpp:157] Top shape: 4 512 72 96 (14155776)
I1029 19:45:36.877980 12312 net.cpp:157] Top shape: 4 512 72 96 (14155776)
I1029 19:45:36.877982 12312 net.cpp:165] Memory required for data: 4131665308
I1029 19:45:36.877985 12312 layer_factory.hpp:77] Creating layer loss1_conv1
I1029 19:45:36.877996 12312 net.cpp:100] Creating Layer loss1_conv1
I1029 19:45:36.878000 12312 net.cpp:434] loss1_conv1 <- conv4_3_relu4_3_0_split_0
I1029 19:45:36.878005 12312 net.cpp:408] loss1_conv1 -> loss1_conv1
I1029 19:45:36.897778 12312 net.cpp:150] Setting up loss1_conv1
I1029 19:45:36.897795 12312 net.cpp:157] Top shape: 4 512 72 96 (14155776)
I1029 19:45:36.897797 12312 net.cpp:165] Memory required for data: 4188288412
I1029 19:45:36.897804 12312 layer_factory.hpp:77] Creating layer loss_relu1
I1029 19:45:36.897811 12312 net.cpp:100] Creating Layer loss_relu1
I1029 19:45:36.897815 12312 net.cpp:434] loss_relu1 <- loss1_conv1
I1029 19:45:36.897819 12312 net.cpp:395] loss_relu1 -> loss1_conv1 (in-place)
I1029 19:45:36.898262 12312 net.cpp:150] Setting up loss_relu1
I1029 19:45:36.898272 12312 net.cpp:157] Top shape: 4 512 72 96 (14155776)
I1029 19:45:36.898274 12312 net.cpp:165] Memory required for data: 4244911516
I1029 19:45:36.898277 12312 layer_factory.hpp:77] Creating layer loss1_conv1_loss_relu1_0_split
I1029 19:45:36.898283 12312 net.cpp:100] Creating Layer loss1_conv1_loss_relu1_0_split
I1029 19:45:36.898285 12312 net.cpp:434] loss1_conv1_loss_relu1_0_split <- loss1_conv1
I1029 19:45:36.898289 12312 net.cpp:408] loss1_conv1_loss_relu1_0_split -> loss1_conv1_loss_relu1_0_split_0
I1029 19:45:36.898295 12312 net.cpp:408] loss1_conv1_loss_relu1_0_split -> loss1_conv1_loss_relu1_0_split_1
I1029 19:45:36.898330 12312 net.cpp:150] Setting up loss1_conv1_loss_relu1_0_split
I1029 19:45:36.898335 12312 net.cpp:157] Top shape: 4 512 72 96 (14155776)
I1029 19:45:36.898337 12312 net.cpp:157] Top shape: 4 512 72 96 (14155776)
I1029 19:45:36.898339 12312 net.cpp:165] Memory required for data: 4358157724
I1029 19:45:36.898341 12312 layer_factory.hpp:77] Creating layer LFCN_1_3x5
I1029 19:45:36.898349 12312 net.cpp:100] Creating Layer LFCN_1_3x5
I1029 19:45:36.898350 12312 net.cpp:434] LFCN_1_3x5 <- loss1_conv1_loss_relu1_0_split_0
I1029 19:45:36.898355 12312 net.cpp:408] LFCN_1_3x5 -> LFCN_1_3x5
I1029 19:45:36.899315 12312 net.cpp:150] Setting up LFCN_1_3x5
I1029 19:45:36.899323 12312 net.cpp:157] Top shape: 4 7 72 96 (193536)
I1029 19:45:36.899325 12312 net.cpp:165] Memory required for data: 4358931868
I1029 19:45:36.899329 12312 layer_factory.hpp:77] Creating layer LFCN_1_3x5_LFCN_1_3x5_0_split
I1029 19:45:36.899350 12312 net.cpp:100] Creating Layer LFCN_1_3x5_LFCN_1_3x5_0_split
I1029 19:45:36.899353 12312 net.cpp:434] LFCN_1_3x5_LFCN_1_3x5_0_split <- LFCN_1_3x5
I1029 19:45:36.899358 12312 net.cpp:408] LFCN_1_3x5_LFCN_1_3x5_0_split -> LFCN_1_3x5_LFCN_1_3x5_0_split_0
I1029 19:45:36.899363 12312 net.cpp:408] LFCN_1_3x5_LFCN_1_3x5_0_split -> LFCN_1_3x5_LFCN_1_3x5_0_split_1
I1029 19:45:36.899369 12312 net.cpp:408] LFCN_1_3x5_LFCN_1_3x5_0_split -> LFCN_1_3x5_LFCN_1_3x5_0_split_2
I1029 19:45:36.899405 12312 net.cpp:150] Setting up LFCN_1_3x5_LFCN_1_3x5_0_split
I1029 19:45:36.899410 12312 net.cpp:157] Top shape: 4 7 72 96 (193536)
I1029 19:45:36.899412 12312 net.cpp:157] Top shape: 4 7 72 96 (193536)
I1029 19:45:36.899415 12312 net.cpp:157] Top shape: 4 7 72 96 (193536)
I1029 19:45:36.899416 12312 net.cpp:165] Memory required for data: 4361254300
I1029 19:45:36.899417 12312 layer_factory.hpp:77] Creating layer detection_loss_1_3x5
I1029 19:45:36.899425 12312 net.cpp:100] Creating Layer detection_loss_1_3x5
I1029 19:45:36.899427 12312 net.cpp:434] detection_loss_1_3x5 <- LFCN_1_3x5_LFCN_1_3x5_0_split_0
I1029 19:45:36.899430 12312 net.cpp:434] detection_loss_1_3x5 <- label_1_3x5_data_1_split_0
I1029 19:45:36.899435 12312 net.cpp:408] detection_loss_1_3x5 -> loss_1_3x5
I1029 19:45:36.899442 12312 layer_factory.hpp:77] Creating layer detection_loss_1_3x5
I1029 19:45:36.900082 12312 net.cpp:150] Setting up detection_loss_1_3x5
I1029 19:45:36.900091 12312 net.cpp:157] Top shape: 1 1 1 2 (2)
I1029 19:45:36.900094 12312 net.cpp:160]     with loss weight 0.5
I1029 19:45:36.900130 12312 net.cpp:165] Memory required for data: 4361254308
I1029 19:45:36.900132 12312 layer_factory.hpp:77] Creating layer detection_accuracy_1_3x5
I1029 19:45:36.900138 12312 net.cpp:100] Creating Layer detection_accuracy_1_3x5
I1029 19:45:36.900141 12312 net.cpp:434] detection_accuracy_1_3x5 <- LFCN_1_3x5_LFCN_1_3x5_0_split_1
I1029 19:45:36.900144 12312 net.cpp:434] detection_accuracy_1_3x5 <- label_1_3x5_data_1_split_1
I1029 19:45:36.900149 12312 net.cpp:408] detection_accuracy_1_3x5 -> accuracy_1_3x5
I1029 19:45:36.900156 12312 net.cpp:408] detection_accuracy_1_3x5 -> boxiou_1_3x5
I1029 19:45:36.900187 12312 net.cpp:150] Setting up detection_accuracy_1_3x5
I1029 19:45:36.900192 12312 net.cpp:157] Top shape: 1 1 1 2 (2)
I1029 19:45:36.900195 12312 net.cpp:157] Top shape: 1 1 1 1 (1)
I1029 19:45:36.900197 12312 net.cpp:165] Memory required for data: 4361254320
I1029 19:45:36.900198 12312 layer_factory.hpp:77] Creating layer LFCN_1_5x7
I1029 19:45:36.900204 12312 net.cpp:100] Creating Layer LFCN_1_5x7
I1029 19:45:36.900208 12312 net.cpp:434] LFCN_1_5x7 <- loss1_conv1_loss_relu1_0_split_1
I1029 19:45:36.900213 12312 net.cpp:408] LFCN_1_5x7 -> LFCN_1_5x7
I1029 19:45:36.901981 12312 net.cpp:150] Setting up LFCN_1_5x7
I1029 19:45:36.901993 12312 net.cpp:157] Top shape: 4 7 72 96 (193536)
I1029 19:45:36.901994 12312 net.cpp:165] Memory required for data: 4362028464
I1029 19:45:36.901999 12312 layer_factory.hpp:77] Creating layer LFCN_1_5x7_LFCN_1_5x7_0_split
I1029 19:45:36.902004 12312 net.cpp:100] Creating Layer LFCN_1_5x7_LFCN_1_5x7_0_split
I1029 19:45:36.902006 12312 net.cpp:434] LFCN_1_5x7_LFCN_1_5x7_0_split <- LFCN_1_5x7
I1029 19:45:36.902012 12312 net.cpp:408] LFCN_1_5x7_LFCN_1_5x7_0_split -> LFCN_1_5x7_LFCN_1_5x7_0_split_0
I1029 19:45:36.902017 12312 net.cpp:408] LFCN_1_5x7_LFCN_1_5x7_0_split -> LFCN_1_5x7_LFCN_1_5x7_0_split_1
I1029 19:45:36.902021 12312 net.cpp:408] LFCN_1_5x7_LFCN_1_5x7_0_split -> LFCN_1_5x7_LFCN_1_5x7_0_split_2
I1029 19:45:36.902061 12312 net.cpp:150] Setting up LFCN_1_5x7_LFCN_1_5x7_0_split
I1029 19:45:36.902066 12312 net.cpp:157] Top shape: 4 7 72 96 (193536)
I1029 19:45:36.902068 12312 net.cpp:157] Top shape: 4 7 72 96 (193536)
I1029 19:45:36.902070 12312 net.cpp:157] Top shape: 4 7 72 96 (193536)
I1029 19:45:36.902072 12312 net.cpp:165] Memory required for data: 4364350896
I1029 19:45:36.902074 12312 layer_factory.hpp:77] Creating layer detection_loss_1_5x7
I1029 19:45:36.902079 12312 net.cpp:100] Creating Layer detection_loss_1_5x7
I1029 19:45:36.902081 12312 net.cpp:434] detection_loss_1_5x7 <- LFCN_1_5x7_LFCN_1_5x7_0_split_0
I1029 19:45:36.902084 12312 net.cpp:434] detection_loss_1_5x7 <- label_1_5x7_data_2_split_0
I1029 19:45:36.902088 12312 net.cpp:408] detection_loss_1_5x7 -> loss_1_5x7
I1029 19:45:36.902093 12312 layer_factory.hpp:77] Creating layer detection_loss_1_5x7
I1029 19:45:36.902390 12312 net.cpp:150] Setting up detection_loss_1_5x7
I1029 19:45:36.902397 12312 net.cpp:157] Top shape: 1 1 1 2 (2)
I1029 19:45:36.902400 12312 net.cpp:160]     with loss weight 0.9
I1029 19:45:36.902405 12312 net.cpp:165] Memory required for data: 4364350904
I1029 19:45:36.902407 12312 layer_factory.hpp:77] Creating layer detection_accuracy_1_5x7
I1029 19:45:36.902411 12312 net.cpp:100] Creating Layer detection_accuracy_1_5x7
I1029 19:45:36.902415 12312 net.cpp:434] detection_accuracy_1_5x7 <- LFCN_1_5x7_LFCN_1_5x7_0_split_1
I1029 19:45:36.902418 12312 net.cpp:434] detection_accuracy_1_5x7 <- label_1_5x7_data_2_split_1
I1029 19:45:36.902421 12312 net.cpp:408] detection_accuracy_1_5x7 -> accuracy_1_5x7
I1029 19:45:36.902426 12312 net.cpp:408] detection_accuracy_1_5x7 -> boxiou_1_5x7
I1029 19:45:36.902454 12312 net.cpp:150] Setting up detection_accuracy_1_5x7
I1029 19:45:36.902459 12312 net.cpp:157] Top shape: 1 1 1 2 (2)
I1029 19:45:36.902462 12312 net.cpp:157] Top shape: 1 1 1 1 (1)
I1029 19:45:36.902463 12312 net.cpp:165] Memory required for data: 4364350916
I1029 19:45:36.902465 12312 layer_factory.hpp:77] Creating layer pool4
I1029 19:45:36.902468 12312 net.cpp:100] Creating Layer pool4
I1029 19:45:36.902472 12312 net.cpp:434] pool4 <- conv4_3_relu4_3_0_split_1
I1029 19:45:36.902475 12312 net.cpp:408] pool4 -> pool4
I1029 19:45:36.902503 12312 net.cpp:150] Setting up pool4
I1029 19:45:36.902506 12312 net.cpp:157] Top shape: 4 512 36 48 (3538944)
I1029 19:45:36.902508 12312 net.cpp:165] Memory required for data: 4378506692
I1029 19:45:36.902510 12312 layer_factory.hpp:77] Creating layer conv5_1
I1029 19:45:36.902515 12312 net.cpp:100] Creating Layer conv5_1
I1029 19:45:36.902518 12312 net.cpp:434] conv5_1 <- pool4
I1029 19:45:36.902521 12312 net.cpp:408] conv5_1 -> conv5_1
I1029 19:45:36.906956 12312 net.cpp:150] Setting up conv5_1
I1029 19:45:36.906970 12312 net.cpp:157] Top shape: 4 512 36 48 (3538944)
I1029 19:45:36.906972 12312 net.cpp:165] Memory required for data: 4392662468
I1029 19:45:36.906977 12312 layer_factory.hpp:77] Creating layer relu5_1
I1029 19:45:36.906982 12312 net.cpp:100] Creating Layer relu5_1
I1029 19:45:36.906986 12312 net.cpp:434] relu5_1 <- conv5_1
I1029 19:45:36.906991 12312 net.cpp:395] relu5_1 -> conv5_1 (in-place)
I1029 19:45:36.907138 12312 net.cpp:150] Setting up relu5_1
I1029 19:45:36.907145 12312 net.cpp:157] Top shape: 4 512 36 48 (3538944)
I1029 19:45:36.907146 12312 net.cpp:165] Memory required for data: 4406818244
I1029 19:45:36.907148 12312 layer_factory.hpp:77] Creating layer conv5_2
I1029 19:45:36.907153 12312 net.cpp:100] Creating Layer conv5_2
I1029 19:45:36.907156 12312 net.cpp:434] conv5_2 <- conv5_1
I1029 19:45:36.907160 12312 net.cpp:408] conv5_2 -> conv5_2
I1029 19:45:36.911356 12312 net.cpp:150] Setting up conv5_2
I1029 19:45:36.911371 12312 net.cpp:157] Top shape: 4 512 36 48 (3538944)
I1029 19:45:36.911373 12312 net.cpp:165] Memory required for data: 4420974020
I1029 19:45:36.911381 12312 layer_factory.hpp:77] Creating layer relu5_2
I1029 19:45:36.911386 12312 net.cpp:100] Creating Layer relu5_2
I1029 19:45:36.911388 12312 net.cpp:434] relu5_2 <- conv5_2
I1029 19:45:36.911392 12312 net.cpp:395] relu5_2 -> conv5_2 (in-place)
I1029 19:45:36.911527 12312 net.cpp:150] Setting up relu5_2
I1029 19:45:36.911535 12312 net.cpp:157] Top shape: 4 512 36 48 (3538944)
I1029 19:45:36.911536 12312 net.cpp:165] Memory required for data: 4435129796
I1029 19:45:36.911538 12312 layer_factory.hpp:77] Creating layer conv5_3
I1029 19:45:36.911545 12312 net.cpp:100] Creating Layer conv5_3
I1029 19:45:36.911547 12312 net.cpp:434] conv5_3 <- conv5_2
I1029 19:45:36.911551 12312 net.cpp:408] conv5_3 -> conv5_3
I1029 19:45:36.915762 12312 net.cpp:150] Setting up conv5_3
I1029 19:45:36.915778 12312 net.cpp:157] Top shape: 4 512 36 48 (3538944)
I1029 19:45:36.915781 12312 net.cpp:165] Memory required for data: 4449285572
I1029 19:45:36.915786 12312 layer_factory.hpp:77] Creating layer relu5_3
I1029 19:45:36.915791 12312 net.cpp:100] Creating Layer relu5_3
I1029 19:45:36.915794 12312 net.cpp:434] relu5_3 <- conv5_3
I1029 19:45:36.915798 12312 net.cpp:395] relu5_3 -> conv5_3 (in-place)
I1029 19:45:36.915933 12312 net.cpp:150] Setting up relu5_3
I1029 19:45:36.915940 12312 net.cpp:157] Top shape: 4 512 36 48 (3538944)
I1029 19:45:36.915941 12312 net.cpp:165] Memory required for data: 4463441348
I1029 19:45:36.915943 12312 layer_factory.hpp:77] Creating layer conv5_3_relu5_3_0_split
I1029 19:45:36.915948 12312 net.cpp:100] Creating Layer conv5_3_relu5_3_0_split
I1029 19:45:36.915951 12312 net.cpp:434] conv5_3_relu5_3_0_split <- conv5_3
I1029 19:45:36.915956 12312 net.cpp:408] conv5_3_relu5_3_0_split -> conv5_3_relu5_3_0_split_0
I1029 19:45:36.915961 12312 net.cpp:408] conv5_3_relu5_3_0_split -> conv5_3_relu5_3_0_split_1
I1029 19:45:36.915966 12312 net.cpp:408] conv5_3_relu5_3_0_split -> conv5_3_relu5_3_0_split_2
I1029 19:45:36.916007 12312 net.cpp:150] Setting up conv5_3_relu5_3_0_split
I1029 19:45:36.916012 12312 net.cpp:157] Top shape: 4 512 36 48 (3538944)
I1029 19:45:36.916013 12312 net.cpp:157] Top shape: 4 512 36 48 (3538944)
I1029 19:45:36.916015 12312 net.cpp:157] Top shape: 4 512 36 48 (3538944)
I1029 19:45:36.916018 12312 net.cpp:165] Memory required for data: 4505908676
I1029 19:45:36.916019 12312 layer_factory.hpp:77] Creating layer LFCN_2_3x5
I1029 19:45:36.916026 12312 net.cpp:100] Creating Layer LFCN_2_3x5
I1029 19:45:36.916029 12312 net.cpp:434] LFCN_2_3x5 <- conv5_3_relu5_3_0_split_0
I1029 19:45:36.916033 12312 net.cpp:408] LFCN_2_3x5 -> LFCN_2_3x5
I1029 19:45:36.917335 12312 net.cpp:150] Setting up LFCN_2_3x5
I1029 19:45:36.917345 12312 net.cpp:157] Top shape: 4 7 36 48 (48384)
I1029 19:45:36.917363 12312 net.cpp:165] Memory required for data: 4506102212
I1029 19:45:36.917372 12312 layer_factory.hpp:77] Creating layer LFCN_2_3x5_LFCN_2_3x5_0_split
I1029 19:45:36.917376 12312 net.cpp:100] Creating Layer LFCN_2_3x5_LFCN_2_3x5_0_split
I1029 19:45:36.917379 12312 net.cpp:434] LFCN_2_3x5_LFCN_2_3x5_0_split <- LFCN_2_3x5
I1029 19:45:36.917383 12312 net.cpp:408] LFCN_2_3x5_LFCN_2_3x5_0_split -> LFCN_2_3x5_LFCN_2_3x5_0_split_0
I1029 19:45:36.917398 12312 net.cpp:408] LFCN_2_3x5_LFCN_2_3x5_0_split -> LFCN_2_3x5_LFCN_2_3x5_0_split_1
I1029 19:45:36.917403 12312 net.cpp:408] LFCN_2_3x5_LFCN_2_3x5_0_split -> LFCN_2_3x5_LFCN_2_3x5_0_split_2
I1029 19:45:36.917444 12312 net.cpp:150] Setting up LFCN_2_3x5_LFCN_2_3x5_0_split
I1029 19:45:36.917449 12312 net.cpp:157] Top shape: 4 7 36 48 (48384)
I1029 19:45:36.917451 12312 net.cpp:157] Top shape: 4 7 36 48 (48384)
I1029 19:45:36.917454 12312 net.cpp:157] Top shape: 4 7 36 48 (48384)
I1029 19:45:36.917455 12312 net.cpp:165] Memory required for data: 4506682820
I1029 19:45:36.917457 12312 layer_factory.hpp:77] Creating layer detection_loss_2_3x5
I1029 19:45:36.917462 12312 net.cpp:100] Creating Layer detection_loss_2_3x5
I1029 19:45:36.917465 12312 net.cpp:434] detection_loss_2_3x5 <- LFCN_2_3x5_LFCN_2_3x5_0_split_0
I1029 19:45:36.917469 12312 net.cpp:434] detection_loss_2_3x5 <- label_2_3x5_data_3_split_0
I1029 19:45:36.917472 12312 net.cpp:408] detection_loss_2_3x5 -> loss_2_3x5
I1029 19:45:36.917479 12312 layer_factory.hpp:77] Creating layer detection_loss_2_3x5
I1029 19:45:36.918064 12312 net.cpp:150] Setting up detection_loss_2_3x5
I1029 19:45:36.918073 12312 net.cpp:157] Top shape: 1 1 1 2 (2)
I1029 19:45:36.918076 12312 net.cpp:160]     with loss weight 1
I1029 19:45:36.918085 12312 net.cpp:165] Memory required for data: 4506682828
I1029 19:45:36.918088 12312 layer_factory.hpp:77] Creating layer detection_accuracy_2_3x5
I1029 19:45:36.918093 12312 net.cpp:100] Creating Layer detection_accuracy_2_3x5
I1029 19:45:36.918097 12312 net.cpp:434] detection_accuracy_2_3x5 <- LFCN_2_3x5_LFCN_2_3x5_0_split_1
I1029 19:45:36.918100 12312 net.cpp:434] detection_accuracy_2_3x5 <- label_2_3x5_data_3_split_1
I1029 19:45:36.918104 12312 net.cpp:408] detection_accuracy_2_3x5 -> accuracy_2_3x5
I1029 19:45:36.918112 12312 net.cpp:408] detection_accuracy_2_3x5 -> boxiou_2_3x5
I1029 19:45:36.918143 12312 net.cpp:150] Setting up detection_accuracy_2_3x5
I1029 19:45:36.918146 12312 net.cpp:157] Top shape: 1 1 1 2 (2)
I1029 19:45:36.918149 12312 net.cpp:157] Top shape: 1 1 1 1 (1)
I1029 19:45:36.918150 12312 net.cpp:165] Memory required for data: 4506682840
I1029 19:45:36.918153 12312 layer_factory.hpp:77] Creating layer LFCN_2_5x7
I1029 19:45:36.918159 12312 net.cpp:100] Creating Layer LFCN_2_5x7
I1029 19:45:36.918162 12312 net.cpp:434] LFCN_2_5x7 <- conv5_3_relu5_3_0_split_1
I1029 19:45:36.918166 12312 net.cpp:408] LFCN_2_5x7 -> LFCN_2_5x7
I1029 19:45:36.920362 12312 net.cpp:150] Setting up LFCN_2_5x7
I1029 19:45:36.920373 12312 net.cpp:157] Top shape: 4 7 36 48 (48384)
I1029 19:45:36.920377 12312 net.cpp:165] Memory required for data: 4506876376
I1029 19:45:36.920380 12312 layer_factory.hpp:77] Creating layer LFCN_2_5x7_LFCN_2_5x7_0_split
I1029 19:45:36.920385 12312 net.cpp:100] Creating Layer LFCN_2_5x7_LFCN_2_5x7_0_split
I1029 19:45:36.920388 12312 net.cpp:434] LFCN_2_5x7_LFCN_2_5x7_0_split <- LFCN_2_5x7
I1029 19:45:36.920393 12312 net.cpp:408] LFCN_2_5x7_LFCN_2_5x7_0_split -> LFCN_2_5x7_LFCN_2_5x7_0_split_0
I1029 19:45:36.920399 12312 net.cpp:408] LFCN_2_5x7_LFCN_2_5x7_0_split -> LFCN_2_5x7_LFCN_2_5x7_0_split_1
I1029 19:45:36.920403 12312 net.cpp:408] LFCN_2_5x7_LFCN_2_5x7_0_split -> LFCN_2_5x7_LFCN_2_5x7_0_split_2
I1029 19:45:36.920445 12312 net.cpp:150] Setting up LFCN_2_5x7_LFCN_2_5x7_0_split
I1029 19:45:36.920450 12312 net.cpp:157] Top shape: 4 7 36 48 (48384)
I1029 19:45:36.920452 12312 net.cpp:157] Top shape: 4 7 36 48 (48384)
I1029 19:45:36.920454 12312 net.cpp:157] Top shape: 4 7 36 48 (48384)
I1029 19:45:36.920456 12312 net.cpp:165] Memory required for data: 4507456984
I1029 19:45:36.920459 12312 layer_factory.hpp:77] Creating layer detection_loss_2_5x7
I1029 19:45:36.920462 12312 net.cpp:100] Creating Layer detection_loss_2_5x7
I1029 19:45:36.920465 12312 net.cpp:434] detection_loss_2_5x7 <- LFCN_2_5x7_LFCN_2_5x7_0_split_0
I1029 19:45:36.920469 12312 net.cpp:434] detection_loss_2_5x7 <- label_2_5x7_data_4_split_0
I1029 19:45:36.920472 12312 net.cpp:408] detection_loss_2_5x7 -> loss_2_5x7
I1029 19:45:36.920477 12312 layer_factory.hpp:77] Creating layer detection_loss_2_5x7
I1029 19:45:36.921056 12312 net.cpp:150] Setting up detection_loss_2_5x7
I1029 19:45:36.921066 12312 net.cpp:157] Top shape: 1 1 1 2 (2)
I1029 19:45:36.921069 12312 net.cpp:160]     with loss weight 1
I1029 19:45:36.921075 12312 net.cpp:165] Memory required for data: 4507456992
I1029 19:45:36.921077 12312 layer_factory.hpp:77] Creating layer detection_accuracy_2_5x7
I1029 19:45:36.921082 12312 net.cpp:100] Creating Layer detection_accuracy_2_5x7
I1029 19:45:36.921085 12312 net.cpp:434] detection_accuracy_2_5x7 <- LFCN_2_5x7_LFCN_2_5x7_0_split_1
I1029 19:45:36.921089 12312 net.cpp:434] detection_accuracy_2_5x7 <- label_2_5x7_data_4_split_1
I1029 19:45:36.921093 12312 net.cpp:408] detection_accuracy_2_5x7 -> accuracy_2_5x7
I1029 19:45:36.921098 12312 net.cpp:408] detection_accuracy_2_5x7 -> boxiou_2_5x7
I1029 19:45:36.921129 12312 net.cpp:150] Setting up detection_accuracy_2_5x7
I1029 19:45:36.921134 12312 net.cpp:157] Top shape: 1 1 1 2 (2)
I1029 19:45:36.921136 12312 net.cpp:157] Top shape: 1 1 1 1 (1)
I1029 19:45:36.921138 12312 net.cpp:165] Memory required for data: 4507457004
I1029 19:45:36.921139 12312 layer_factory.hpp:77] Creating layer pool5
I1029 19:45:36.921144 12312 net.cpp:100] Creating Layer pool5
I1029 19:45:36.921147 12312 net.cpp:434] pool5 <- conv5_3_relu5_3_0_split_2
I1029 19:45:36.921150 12312 net.cpp:408] pool5 -> pool5
I1029 19:45:36.921178 12312 net.cpp:150] Setting up pool5
I1029 19:45:36.921182 12312 net.cpp:157] Top shape: 4 512 18 24 (884736)
I1029 19:45:36.921185 12312 net.cpp:165] Memory required for data: 4510995948
I1029 19:45:36.921186 12312 layer_factory.hpp:77] Creating layer conv6_1
I1029 19:45:36.921192 12312 net.cpp:100] Creating Layer conv6_1
I1029 19:45:36.921195 12312 net.cpp:434] conv6_1 <- pool5
I1029 19:45:36.921200 12312 net.cpp:408] conv6_1 -> conv6_1
I1029 19:45:36.940816 12312 net.cpp:150] Setting up conv6_1
I1029 19:45:36.940834 12312 net.cpp:157] Top shape: 4 512 18 24 (884736)
I1029 19:45:36.940835 12312 net.cpp:165] Memory required for data: 4514534892
I1029 19:45:36.940841 12312 layer_factory.hpp:77] Creating layer relu6_1
I1029 19:45:36.940847 12312 net.cpp:100] Creating Layer relu6_1
I1029 19:45:36.940852 12312 net.cpp:434] relu6_1 <- conv6_1
I1029 19:45:36.940856 12312 net.cpp:395] relu6_1 -> conv6_1 (in-place)
I1029 19:45:36.940987 12312 net.cpp:150] Setting up relu6_1
I1029 19:45:36.940994 12312 net.cpp:157] Top shape: 4 512 18 24 (884736)
I1029 19:45:36.940996 12312 net.cpp:165] Memory required for data: 4518073836
I1029 19:45:36.940999 12312 layer_factory.hpp:77] Creating layer conv6_1_relu6_1_0_split
I1029 19:45:36.941002 12312 net.cpp:100] Creating Layer conv6_1_relu6_1_0_split
I1029 19:45:36.941005 12312 net.cpp:434] conv6_1_relu6_1_0_split <- conv6_1
I1029 19:45:36.941009 12312 net.cpp:408] conv6_1_relu6_1_0_split -> conv6_1_relu6_1_0_split_0
I1029 19:45:36.941015 12312 net.cpp:408] conv6_1_relu6_1_0_split -> conv6_1_relu6_1_0_split_1
I1029 19:45:36.941020 12312 net.cpp:408] conv6_1_relu6_1_0_split -> conv6_1_relu6_1_0_split_2
I1029 19:45:36.941061 12312 net.cpp:150] Setting up conv6_1_relu6_1_0_split
I1029 19:45:36.941066 12312 net.cpp:157] Top shape: 4 512 18 24 (884736)
I1029 19:45:36.941068 12312 net.cpp:157] Top shape: 4 512 18 24 (884736)
I1029 19:45:36.941071 12312 net.cpp:157] Top shape: 4 512 18 24 (884736)
I1029 19:45:36.941072 12312 net.cpp:165] Memory required for data: 4528690668
I1029 19:45:36.941074 12312 layer_factory.hpp:77] Creating layer LFCN_3_3x5
I1029 19:45:36.941082 12312 net.cpp:100] Creating Layer LFCN_3_3x5
I1029 19:45:36.941084 12312 net.cpp:434] LFCN_3_3x5 <- conv6_1_relu6_1_0_split_0
I1029 19:45:36.941089 12312 net.cpp:408] LFCN_3_3x5 -> LFCN_3_3x5
I1029 19:45:36.943121 12312 net.cpp:150] Setting up LFCN_3_3x5
I1029 19:45:36.943132 12312 net.cpp:157] Top shape: 4 7 18 24 (12096)
I1029 19:45:36.943135 12312 net.cpp:165] Memory required for data: 4528739052
I1029 19:45:36.943138 12312 layer_factory.hpp:77] Creating layer LFCN_3_3x5_LFCN_3_3x5_0_split
I1029 19:45:36.943152 12312 net.cpp:100] Creating Layer LFCN_3_3x5_LFCN_3_3x5_0_split
I1029 19:45:36.943156 12312 net.cpp:434] LFCN_3_3x5_LFCN_3_3x5_0_split <- LFCN_3_3x5
I1029 19:45:36.943159 12312 net.cpp:408] LFCN_3_3x5_LFCN_3_3x5_0_split -> LFCN_3_3x5_LFCN_3_3x5_0_split_0
I1029 19:45:36.943166 12312 net.cpp:408] LFCN_3_3x5_LFCN_3_3x5_0_split -> LFCN_3_3x5_LFCN_3_3x5_0_split_1
I1029 19:45:36.943171 12312 net.cpp:408] LFCN_3_3x5_LFCN_3_3x5_0_split -> LFCN_3_3x5_LFCN_3_3x5_0_split_2
I1029 19:45:36.943212 12312 net.cpp:150] Setting up LFCN_3_3x5_LFCN_3_3x5_0_split
I1029 19:45:36.943217 12312 net.cpp:157] Top shape: 4 7 18 24 (12096)
I1029 19:45:36.943219 12312 net.cpp:157] Top shape: 4 7 18 24 (12096)
I1029 19:45:36.943222 12312 net.cpp:157] Top shape: 4 7 18 24 (12096)
I1029 19:45:36.943223 12312 net.cpp:165] Memory required for data: 4528884204
I1029 19:45:36.943225 12312 layer_factory.hpp:77] Creating layer detection_loss_3_3x5
I1029 19:45:36.943231 12312 net.cpp:100] Creating Layer detection_loss_3_3x5
I1029 19:45:36.943233 12312 net.cpp:434] detection_loss_3_3x5 <- LFCN_3_3x5_LFCN_3_3x5_0_split_0
I1029 19:45:36.943238 12312 net.cpp:434] detection_loss_3_3x5 <- label_3_3x5_data_5_split_0
I1029 19:45:36.943241 12312 net.cpp:408] detection_loss_3_3x5 -> loss_3_3x5
I1029 19:45:36.943248 12312 layer_factory.hpp:77] Creating layer detection_loss_3_3x5
I1029 19:45:36.943526 12312 net.cpp:150] Setting up detection_loss_3_3x5
I1029 19:45:36.943533 12312 net.cpp:157] Top shape: 1 1 1 2 (2)
I1029 19:45:36.943534 12312 net.cpp:160]     with loss weight 1
I1029 19:45:36.943542 12312 net.cpp:165] Memory required for data: 4528884212
I1029 19:45:36.943545 12312 layer_factory.hpp:77] Creating layer detection_accuracy_3_3x5
I1029 19:45:36.943550 12312 net.cpp:100] Creating Layer detection_accuracy_3_3x5
I1029 19:45:36.943554 12312 net.cpp:434] detection_accuracy_3_3x5 <- LFCN_3_3x5_LFCN_3_3x5_0_split_1
I1029 19:45:36.943557 12312 net.cpp:434] detection_accuracy_3_3x5 <- label_3_3x5_data_5_split_1
I1029 19:45:36.943562 12312 net.cpp:408] detection_accuracy_3_3x5 -> accuracy_3_3x5
I1029 19:45:36.943567 12312 net.cpp:408] detection_accuracy_3_3x5 -> boxiou_3_3x5
I1029 19:45:36.943598 12312 net.cpp:150] Setting up detection_accuracy_3_3x5
I1029 19:45:36.943603 12312 net.cpp:157] Top shape: 1 1 1 2 (2)
I1029 19:45:36.943604 12312 net.cpp:157] Top shape: 1 1 1 1 (1)
I1029 19:45:36.943606 12312 net.cpp:165] Memory required for data: 4528884224
I1029 19:45:36.943608 12312 layer_factory.hpp:77] Creating layer LFCN_3_5x7
I1029 19:45:36.943614 12312 net.cpp:100] Creating Layer LFCN_3_5x7
I1029 19:45:36.943619 12312 net.cpp:434] LFCN_3_5x7 <- conv6_1_relu6_1_0_split_1
I1029 19:45:36.943624 12312 net.cpp:408] LFCN_3_5x7 -> LFCN_3_5x7
I1029 19:45:36.945425 12312 net.cpp:150] Setting up LFCN_3_5x7
I1029 19:45:36.945436 12312 net.cpp:157] Top shape: 4 7 18 24 (12096)
I1029 19:45:36.945438 12312 net.cpp:165] Memory required for data: 4528932608
I1029 19:45:36.945442 12312 layer_factory.hpp:77] Creating layer LFCN_3_5x7_LFCN_3_5x7_0_split
I1029 19:45:36.945447 12312 net.cpp:100] Creating Layer LFCN_3_5x7_LFCN_3_5x7_0_split
I1029 19:45:36.945449 12312 net.cpp:434] LFCN_3_5x7_LFCN_3_5x7_0_split <- LFCN_3_5x7
I1029 19:45:36.945454 12312 net.cpp:408] LFCN_3_5x7_LFCN_3_5x7_0_split -> LFCN_3_5x7_LFCN_3_5x7_0_split_0
I1029 19:45:36.945461 12312 net.cpp:408] LFCN_3_5x7_LFCN_3_5x7_0_split -> LFCN_3_5x7_LFCN_3_5x7_0_split_1
I1029 19:45:36.945466 12312 net.cpp:408] LFCN_3_5x7_LFCN_3_5x7_0_split -> LFCN_3_5x7_LFCN_3_5x7_0_split_2
I1029 19:45:36.945507 12312 net.cpp:150] Setting up LFCN_3_5x7_LFCN_3_5x7_0_split
I1029 19:45:36.945511 12312 net.cpp:157] Top shape: 4 7 18 24 (12096)
I1029 19:45:36.945513 12312 net.cpp:157] Top shape: 4 7 18 24 (12096)
I1029 19:45:36.945516 12312 net.cpp:157] Top shape: 4 7 18 24 (12096)
I1029 19:45:36.945518 12312 net.cpp:165] Memory required for data: 4529077760
I1029 19:45:36.945519 12312 layer_factory.hpp:77] Creating layer detection_loss_3_5x7
I1029 19:45:36.945524 12312 net.cpp:100] Creating Layer detection_loss_3_5x7
I1029 19:45:36.945526 12312 net.cpp:434] detection_loss_3_5x7 <- LFCN_3_5x7_LFCN_3_5x7_0_split_0
I1029 19:45:36.945529 12312 net.cpp:434] detection_loss_3_5x7 <- label_3_5x7_data_6_split_0
I1029 19:45:36.945533 12312 net.cpp:408] detection_loss_3_5x7 -> loss_3_5x7
I1029 19:45:36.945539 12312 layer_factory.hpp:77] Creating layer detection_loss_3_5x7
I1029 19:45:36.945816 12312 net.cpp:150] Setting up detection_loss_3_5x7
I1029 19:45:36.945822 12312 net.cpp:157] Top shape: 1 1 1 2 (2)
I1029 19:45:36.945824 12312 net.cpp:160]     with loss weight 1
I1029 19:45:36.945828 12312 net.cpp:165] Memory required for data: 4529077768
I1029 19:45:36.945830 12312 layer_factory.hpp:77] Creating layer detection_accuracy_3_5x7
I1029 19:45:36.945837 12312 net.cpp:100] Creating Layer detection_accuracy_3_5x7
I1029 19:45:36.945839 12312 net.cpp:434] detection_accuracy_3_5x7 <- LFCN_3_5x7_LFCN_3_5x7_0_split_1
I1029 19:45:36.945843 12312 net.cpp:434] detection_accuracy_3_5x7 <- label_3_5x7_data_6_split_1
I1029 19:45:36.945847 12312 net.cpp:408] detection_accuracy_3_5x7 -> accuracy_3_5x7
I1029 19:45:36.945852 12312 net.cpp:408] detection_accuracy_3_5x7 -> boxiou_3_5x7
I1029 19:45:36.945884 12312 net.cpp:150] Setting up detection_accuracy_3_5x7
I1029 19:45:36.945888 12312 net.cpp:157] Top shape: 1 1 1 2 (2)
I1029 19:45:36.945891 12312 net.cpp:157] Top shape: 1 1 1 1 (1)
I1029 19:45:36.945893 12312 net.cpp:165] Memory required for data: 4529077780
I1029 19:45:36.945894 12312 layer_factory.hpp:77] Creating layer pool6
I1029 19:45:36.945899 12312 net.cpp:100] Creating Layer pool6
I1029 19:45:36.945902 12312 net.cpp:434] pool6 <- conv6_1_relu6_1_0_split_2
I1029 19:45:36.945905 12312 net.cpp:408] pool6 -> pool6
I1029 19:45:36.945935 12312 net.cpp:150] Setting up pool6
I1029 19:45:36.945940 12312 net.cpp:157] Top shape: 4 512 9 12 (221184)
I1029 19:45:36.945941 12312 net.cpp:165] Memory required for data: 4529962516
I1029 19:45:36.945942 12312 layer_factory.hpp:77] Creating layer LFCN_4_3x5
I1029 19:45:36.945948 12312 net.cpp:100] Creating Layer LFCN_4_3x5
I1029 19:45:36.945951 12312 net.cpp:434] LFCN_4_3x5 <- pool6
I1029 19:45:36.945955 12312 net.cpp:408] LFCN_4_3x5 -> LFCN_4_3x5
I1029 19:45:36.947238 12312 net.cpp:150] Setting up LFCN_4_3x5
I1029 19:45:36.947248 12312 net.cpp:157] Top shape: 4 7 9 12 (3024)
I1029 19:45:36.947252 12312 net.cpp:165] Memory required for data: 4529974612
I1029 19:45:36.947255 12312 layer_factory.hpp:77] Creating layer LFCN_4_3x5_LFCN_4_3x5_0_split
I1029 19:45:36.947262 12312 net.cpp:100] Creating Layer LFCN_4_3x5_LFCN_4_3x5_0_split
I1029 19:45:36.947265 12312 net.cpp:434] LFCN_4_3x5_LFCN_4_3x5_0_split <- LFCN_4_3x5
I1029 19:45:36.947270 12312 net.cpp:408] LFCN_4_3x5_LFCN_4_3x5_0_split -> LFCN_4_3x5_LFCN_4_3x5_0_split_0
I1029 19:45:36.947275 12312 net.cpp:408] LFCN_4_3x5_LFCN_4_3x5_0_split -> LFCN_4_3x5_LFCN_4_3x5_0_split_1
I1029 19:45:36.947280 12312 net.cpp:408] LFCN_4_3x5_LFCN_4_3x5_0_split -> LFCN_4_3x5_LFCN_4_3x5_0_split_2
I1029 19:45:36.947329 12312 net.cpp:150] Setting up LFCN_4_3x5_LFCN_4_3x5_0_split
I1029 19:45:36.947333 12312 net.cpp:157] Top shape: 4 7 9 12 (3024)
I1029 19:45:36.947335 12312 net.cpp:157] Top shape: 4 7 9 12 (3024)
I1029 19:45:36.947337 12312 net.cpp:157] Top shape: 4 7 9 12 (3024)
I1029 19:45:36.947340 12312 net.cpp:165] Memory required for data: 4530010900
I1029 19:45:36.947341 12312 layer_factory.hpp:77] Creating layer detection_loss_4_3x5
I1029 19:45:36.947346 12312 net.cpp:100] Creating Layer detection_loss_4_3x5
I1029 19:45:36.947350 12312 net.cpp:434] detection_loss_4_3x5 <- LFCN_4_3x5_LFCN_4_3x5_0_split_0
I1029 19:45:36.947353 12312 net.cpp:434] detection_loss_4_3x5 <- label_4_3x5_data_7_split_0
I1029 19:45:36.947356 12312 net.cpp:408] detection_loss_4_3x5 -> loss_4_3x5
I1029 19:45:36.947361 12312 layer_factory.hpp:77] Creating layer detection_loss_4_3x5
I1029 19:45:36.947630 12312 net.cpp:150] Setting up detection_loss_4_3x5
I1029 19:45:36.947638 12312 net.cpp:157] Top shape: 1 1 1 2 (2)
I1029 19:45:36.947638 12312 net.cpp:160]     with loss weight 1
I1029 19:45:36.947643 12312 net.cpp:165] Memory required for data: 4530010908
I1029 19:45:36.947645 12312 layer_factory.hpp:77] Creating layer detection_accuracy_4_3x5
I1029 19:45:36.947651 12312 net.cpp:100] Creating Layer detection_accuracy_4_3x5
I1029 19:45:36.947655 12312 net.cpp:434] detection_accuracy_4_3x5 <- LFCN_4_3x5_LFCN_4_3x5_0_split_1
I1029 19:45:36.947659 12312 net.cpp:434] detection_accuracy_4_3x5 <- label_4_3x5_data_7_split_1
I1029 19:45:36.947661 12312 net.cpp:408] detection_accuracy_4_3x5 -> accuracy_4_3x5
I1029 19:45:36.947666 12312 net.cpp:408] detection_accuracy_4_3x5 -> boxiou_4_3x5
I1029 19:45:36.947697 12312 net.cpp:150] Setting up detection_accuracy_4_3x5
I1029 19:45:36.947702 12312 net.cpp:157] Top shape: 1 1 1 2 (2)
I1029 19:45:36.947705 12312 net.cpp:157] Top shape: 1 1 1 1 (1)
I1029 19:45:36.947706 12312 net.cpp:165] Memory required for data: 4530010920
I1029 19:45:36.947708 12312 layer_factory.hpp:77] Creating layer proposals
I1029 19:45:36.947715 12312 net.cpp:100] Creating Layer proposals
I1029 19:45:36.947717 12312 net.cpp:434] proposals <- LFCN_1_3x5_LFCN_1_3x5_0_split_2
I1029 19:45:36.947721 12312 net.cpp:434] proposals <- LFCN_1_5x7_LFCN_1_5x7_0_split_2
I1029 19:45:36.947724 12312 net.cpp:434] proposals <- LFCN_2_3x5_LFCN_2_3x5_0_split_2
I1029 19:45:36.947726 12312 net.cpp:434] proposals <- LFCN_2_5x7_LFCN_2_5x7_0_split_2
I1029 19:45:36.947728 12312 net.cpp:434] proposals <- LFCN_3_3x5_LFCN_3_3x5_0_split_2
I1029 19:45:36.947731 12312 net.cpp:434] proposals <- LFCN_3_5x7_LFCN_3_5x7_0_split_2
I1029 19:45:36.947733 12312 net.cpp:434] proposals <- LFCN_4_3x5_LFCN_4_3x5_0_split_2
I1029 19:45:36.947736 12312 net.cpp:408] proposals -> proposals
I1029 19:45:36.947757 12312 net.cpp:150] Setting up proposals
I1029 19:45:36.947762 12312 net.cpp:157] Top shape: 1 5 1 1 (5)
I1029 19:45:36.947763 12312 net.cpp:165] Memory required for data: 4530010940
I1029 19:45:36.947765 12312 layer_factory.hpp:77] Creating layer proposal_info
I1029 19:45:36.947773 12312 net.cpp:100] Creating Layer proposal_info
I1029 19:45:36.947777 12312 net.cpp:434] proposal_info <- proposals
I1029 19:45:36.947779 12312 net.cpp:434] proposal_info <- gt_boxes
I1029 19:45:36.947783 12312 net.cpp:408] proposal_info -> rois
I1029 19:45:36.947790 12312 net.cpp:408] proposal_info -> proposal_labels
I1029 19:45:36.947798 12312 net.cpp:408] proposal_info -> proposal_targets
I1029 19:45:36.947803 12312 net.cpp:408] proposal_info -> box_inside_weights
I1029 19:45:36.947808 12312 net.cpp:408] proposal_info -> box_outside_weights
I1029 19:45:36.947813 12312 net.cpp:408] proposal_info -> match_gt_boxes
I1029 19:45:36.947881 12312 net.cpp:150] Setting up proposal_info
I1029 19:45:36.947886 12312 net.cpp:157] Top shape: 128 5 1 1 (640)
I1029 19:45:36.947888 12312 net.cpp:157] Top shape: 128 1 1 1 (128)
I1029 19:45:36.947890 12312 net.cpp:157] Top shape: 128 12 1 1 (1536)
I1029 19:45:36.947893 12312 net.cpp:157] Top shape: 128 12 1 1 (1536)
I1029 19:45:36.947896 12312 net.cpp:157] Top shape: 128 12 1 1 (1536)
I1029 19:45:36.947898 12312 net.cpp:157] Top shape: 128 6 1 1 (768)
I1029 19:45:36.947899 12312 net.cpp:165] Memory required for data: 4530035516
I1029 19:45:36.947901 12312 layer_factory.hpp:77] Creating layer rois_proposal_info_0_split
I1029 19:45:36.947906 12312 net.cpp:100] Creating Layer rois_proposal_info_0_split
I1029 19:45:36.947907 12312 net.cpp:434] rois_proposal_info_0_split <- rois
I1029 19:45:36.947911 12312 net.cpp:408] rois_proposal_info_0_split -> rois_proposal_info_0_split_0
I1029 19:45:36.947916 12312 net.cpp:408] rois_proposal_info_0_split -> rois_proposal_info_0_split_1
I1029 19:45:36.947921 12312 net.cpp:408] rois_proposal_info_0_split -> rois_proposal_info_0_split_2
I1029 19:45:36.947954 12312 net.cpp:150] Setting up rois_proposal_info_0_split
I1029 19:45:36.947958 12312 net.cpp:157] Top shape: 128 5 1 1 (640)
I1029 19:45:36.947962 12312 net.cpp:157] Top shape: 128 5 1 1 (640)
I1029 19:45:36.947963 12312 net.cpp:157] Top shape: 128 5 1 1 (640)
I1029 19:45:36.947965 12312 net.cpp:165] Memory required for data: 4530043196
I1029 19:45:36.947966 12312 layer_factory.hpp:77] Creating layer proposal_labels_proposal_info_1_split
I1029 19:45:36.947970 12312 net.cpp:100] Creating Layer proposal_labels_proposal_info_1_split
I1029 19:45:36.947973 12312 net.cpp:434] proposal_labels_proposal_info_1_split <- proposal_labels
I1029 19:45:36.947976 12312 net.cpp:408] proposal_labels_proposal_info_1_split -> proposal_labels_proposal_info_1_split_0
I1029 19:45:36.947980 12312 net.cpp:408] proposal_labels_proposal_info_1_split -> proposal_labels_proposal_info_1_split_1
I1029 19:45:36.948007 12312 net.cpp:150] Setting up proposal_labels_proposal_info_1_split
I1029 19:45:36.948011 12312 net.cpp:157] Top shape: 128 1 1 1 (128)
I1029 19:45:36.948014 12312 net.cpp:157] Top shape: 128 1 1 1 (128)
I1029 19:45:36.948014 12312 net.cpp:165] Memory required for data: 4530044220
I1029 19:45:36.948016 12312 layer_factory.hpp:77] Creating layer conv4_3_2x
I1029 19:45:36.948021 12312 net.cpp:100] Creating Layer conv4_3_2x
I1029 19:45:36.948024 12312 net.cpp:434] conv4_3_2x <- conv4_3_relu4_3_0_split_2
I1029 19:45:36.948027 12312 net.cpp:408] conv4_3_2x -> conv4_3_2x
I1029 19:45:36.948349 12312 net.cpp:150] Setting up conv4_3_2x
I1029 19:45:36.948355 12312 net.cpp:157] Top shape: 4 512 144 192 (56623104)
I1029 19:45:36.948356 12312 net.cpp:165] Memory required for data: 4756536636
I1029 19:45:36.948360 12312 layer_factory.hpp:77] Creating layer conv4_3_2x_conv4_3_2x_0_split
I1029 19:45:36.948364 12312 net.cpp:100] Creating Layer conv4_3_2x_conv4_3_2x_0_split
I1029 19:45:36.948367 12312 net.cpp:434] conv4_3_2x_conv4_3_2x_0_split <- conv4_3_2x
I1029 19:45:36.948371 12312 net.cpp:408] conv4_3_2x_conv4_3_2x_0_split -> conv4_3_2x_conv4_3_2x_0_split_0
I1029 19:45:36.948375 12312 net.cpp:408] conv4_3_2x_conv4_3_2x_0_split -> conv4_3_2x_conv4_3_2x_0_split_1
I1029 19:45:36.948403 12312 net.cpp:150] Setting up conv4_3_2x_conv4_3_2x_0_split
I1029 19:45:36.948408 12312 net.cpp:157] Top shape: 4 512 144 192 (56623104)
I1029 19:45:36.948411 12312 net.cpp:157] Top shape: 4 512 144 192 (56623104)
I1029 19:45:36.948412 12312 net.cpp:165] Memory required for data: 5209521468
I1029 19:45:36.948415 12312 layer_factory.hpp:77] Creating layer roi_pool_org
I1029 19:45:36.948420 12312 net.cpp:100] Creating Layer roi_pool_org
I1029 19:45:36.948421 12312 net.cpp:434] roi_pool_org <- conv4_3_2x_conv4_3_2x_0_split_0
I1029 19:45:36.948424 12312 net.cpp:434] roi_pool_org <- rois_proposal_info_0_split_0
I1029 19:45:36.948427 12312 net.cpp:408] roi_pool_org -> roi_pool_org
I1029 19:45:36.948433 12312 roi_pooling_layer.cpp:33] Spatial scale: 0.25
I1029 19:45:36.948463 12312 net.cpp:150] Setting up roi_pool_org
I1029 19:45:36.948467 12312 net.cpp:157] Top shape: 128 512 7 5 (2293760)
I1029 19:45:36.948469 12312 net.cpp:165] Memory required for data: 5218696508
I1029 19:45:36.948472 12312 layer_factory.hpp:77] Creating layer roi_pool_ctx
I1029 19:45:36.948475 12312 net.cpp:100] Creating Layer roi_pool_ctx
I1029 19:45:36.948477 12312 net.cpp:434] roi_pool_ctx <- conv4_3_2x_conv4_3_2x_0_split_1
I1029 19:45:36.948480 12312 net.cpp:434] roi_pool_ctx <- rois_proposal_info_0_split_1
I1029 19:45:36.948483 12312 net.cpp:408] roi_pool_ctx -> roi_pool_ctx
I1029 19:45:36.948487 12312 roi_pooling_layer.cpp:33] Spatial scale: 0.25
I1029 19:45:36.948514 12312 net.cpp:150] Setting up roi_pool_ctx
I1029 19:45:36.948519 12312 net.cpp:157] Top shape: 128 512 7 5 (2293760)
I1029 19:45:36.948520 12312 net.cpp:165] Memory required for data: 5227871548
I1029 19:45:36.948523 12312 layer_factory.hpp:77] Creating layer roi_pool
I1029 19:45:36.948526 12312 net.cpp:100] Creating Layer roi_pool
I1029 19:45:36.948530 12312 net.cpp:434] roi_pool <- roi_pool_org
I1029 19:45:36.948532 12312 net.cpp:434] roi_pool <- roi_pool_ctx
I1029 19:45:36.948536 12312 net.cpp:408] roi_pool -> roi_pool
I1029 19:45:36.948554 12312 net.cpp:150] Setting up roi_pool
I1029 19:45:36.948557 12312 net.cpp:157] Top shape: 128 1024 7 5 (4587520)
I1029 19:45:36.948559 12312 net.cpp:165] Memory required for data: 5246221628
I1029 19:45:36.948560 12312 layer_factory.hpp:77] Creating layer roi_c1
I1029 19:45:36.948567 12312 net.cpp:100] Creating Layer roi_c1
I1029 19:45:36.948570 12312 net.cpp:434] roi_c1 <- roi_pool
I1029 19:45:36.948575 12312 net.cpp:408] roi_c1 -> roi_c1
I1029 19:45:36.987332 12312 net.cpp:150] Setting up roi_c1
I1029 19:45:36.987370 12312 net.cpp:157] Top shape: 128 512 5 3 (983040)
I1029 19:45:36.987375 12312 net.cpp:165] Memory required for data: 5250153788
I1029 19:45:36.987382 12312 layer_factory.hpp:77] Creating layer roi_c1_relu
I1029 19:45:36.987390 12312 net.cpp:100] Creating Layer roi_c1_relu
I1029 19:45:36.987393 12312 net.cpp:434] roi_c1_relu <- roi_c1
I1029 19:45:36.987398 12312 net.cpp:395] roi_c1_relu -> roi_c1 (in-place)
I1029 19:45:36.987854 12312 net.cpp:150] Setting up roi_c1_relu
I1029 19:45:36.987864 12312 net.cpp:157] Top shape: 128 512 5 3 (983040)
I1029 19:45:36.987865 12312 net.cpp:165] Memory required for data: 5254085948
I1029 19:45:36.987867 12312 layer_factory.hpp:77] Creating layer fc6
I1029 19:45:36.987876 12312 net.cpp:100] Creating Layer fc6
I1029 19:45:36.987879 12312 net.cpp:434] fc6 <- roi_c1
I1029 19:45:36.987884 12312 net.cpp:408] fc6 -> fc6
I1029 19:45:37.110589 12312 net.cpp:150] Setting up fc6
I1029 19:45:37.110610 12312 net.cpp:157] Top shape: 128 2048 (262144)
I1029 19:45:37.110612 12312 net.cpp:165] Memory required for data: 5255134524
I1029 19:45:37.110620 12312 layer_factory.hpp:77] Creating layer relu6
I1029 19:45:37.110628 12312 net.cpp:100] Creating Layer relu6
I1029 19:45:37.110631 12312 net.cpp:434] relu6 <- fc6
I1029 19:45:37.110637 12312 net.cpp:395] relu6 -> fc6 (in-place)
I1029 19:45:37.110857 12312 net.cpp:150] Setting up relu6
I1029 19:45:37.110863 12312 net.cpp:157] Top shape: 128 2048 (262144)
I1029 19:45:37.110865 12312 net.cpp:165] Memory required for data: 5256183100
I1029 19:45:37.110867 12312 layer_factory.hpp:77] Creating layer drop6
I1029 19:45:37.110873 12312 net.cpp:100] Creating Layer drop6
I1029 19:45:37.110875 12312 net.cpp:434] drop6 <- fc6
I1029 19:45:37.110878 12312 net.cpp:395] drop6 -> fc6 (in-place)
I1029 19:45:37.110899 12312 net.cpp:150] Setting up drop6
I1029 19:45:37.110904 12312 net.cpp:157] Top shape: 128 2048 (262144)
I1029 19:45:37.110906 12312 net.cpp:165] Memory required for data: 5257231676
I1029 19:45:37.110908 12312 layer_factory.hpp:77] Creating layer fc6_drop6_0_split
I1029 19:45:37.110913 12312 net.cpp:100] Creating Layer fc6_drop6_0_split
I1029 19:45:37.110914 12312 net.cpp:434] fc6_drop6_0_split <- fc6
I1029 19:45:37.110919 12312 net.cpp:408] fc6_drop6_0_split -> fc6_drop6_0_split_0
I1029 19:45:37.110924 12312 net.cpp:408] fc6_drop6_0_split -> fc6_drop6_0_split_1
I1029 19:45:37.110955 12312 net.cpp:150] Setting up fc6_drop6_0_split
I1029 19:45:37.110960 12312 net.cpp:157] Top shape: 128 2048 (262144)
I1029 19:45:37.110963 12312 net.cpp:157] Top shape: 128 2048 (262144)
I1029 19:45:37.110965 12312 net.cpp:165] Memory required for data: 5259328828
I1029 19:45:37.110966 12312 layer_factory.hpp:77] Creating layer cls_pred
I1029 19:45:37.110971 12312 net.cpp:100] Creating Layer cls_pred
I1029 19:45:37.110973 12312 net.cpp:434] cls_pred <- fc6_drop6_0_split_0
I1029 19:45:37.110978 12312 net.cpp:408] cls_pred -> cls_pred
I1029 19:45:37.111114 12312 net.cpp:150] Setting up cls_pred
I1029 19:45:37.111119 12312 net.cpp:157] Top shape: 128 3 (384)
I1029 19:45:37.111120 12312 net.cpp:165] Memory required for data: 5259330364
I1029 19:45:37.111124 12312 layer_factory.hpp:77] Creating layer cls_pred_cls_pred_0_split
I1029 19:45:37.111127 12312 net.cpp:100] Creating Layer cls_pred_cls_pred_0_split
I1029 19:45:37.111130 12312 net.cpp:434] cls_pred_cls_pred_0_split <- cls_pred
I1029 19:45:37.111135 12312 net.cpp:408] cls_pred_cls_pred_0_split -> cls_pred_cls_pred_0_split_0
I1029 19:45:37.111138 12312 net.cpp:408] cls_pred_cls_pred_0_split -> cls_pred_cls_pred_0_split_1
I1029 19:45:37.111176 12312 net.cpp:150] Setting up cls_pred_cls_pred_0_split
I1029 19:45:37.111181 12312 net.cpp:157] Top shape: 128 3 (384)
I1029 19:45:37.111186 12312 net.cpp:157] Top shape: 128 3 (384)
I1029 19:45:37.111186 12312 net.cpp:165] Memory required for data: 5259333436
I1029 19:45:37.111188 12312 layer_factory.hpp:77] Creating layer bbox_pred
I1029 19:45:37.111191 12312 net.cpp:100] Creating Layer bbox_pred
I1029 19:45:37.111194 12312 net.cpp:434] bbox_pred <- fc6_drop6_0_split_1
I1029 19:45:37.111197 12312 net.cpp:408] bbox_pred -> bbox_pred
I1029 19:45:37.111457 12312 net.cpp:150] Setting up bbox_pred
I1029 19:45:37.111462 12312 net.cpp:157] Top shape: 128 12 (1536)
I1029 19:45:37.111464 12312 net.cpp:165] Memory required for data: 5259339580
I1029 19:45:37.111467 12312 layer_factory.hpp:77] Creating layer bbox_pred_bbox_pred_0_split
I1029 19:45:37.111470 12312 net.cpp:100] Creating Layer bbox_pred_bbox_pred_0_split
I1029 19:45:37.111472 12312 net.cpp:434] bbox_pred_bbox_pred_0_split <- bbox_pred
I1029 19:45:37.111477 12312 net.cpp:408] bbox_pred_bbox_pred_0_split -> bbox_pred_bbox_pred_0_split_0
I1029 19:45:37.111482 12312 net.cpp:408] bbox_pred_bbox_pred_0_split -> bbox_pred_bbox_pred_0_split_1
I1029 19:45:37.111505 12312 net.cpp:150] Setting up bbox_pred_bbox_pred_0_split
I1029 19:45:37.111510 12312 net.cpp:157] Top shape: 128 12 (1536)
I1029 19:45:37.111511 12312 net.cpp:157] Top shape: 128 12 (1536)
I1029 19:45:37.111513 12312 net.cpp:165] Memory required for data: 5259351868
I1029 19:45:37.111515 12312 layer_factory.hpp:77] Creating layer loss_cls
I1029 19:45:37.111519 12312 net.cpp:100] Creating Layer loss_cls
I1029 19:45:37.111521 12312 net.cpp:434] loss_cls <- cls_pred_cls_pred_0_split_0
I1029 19:45:37.111526 12312 net.cpp:434] loss_cls <- proposal_labels_proposal_info_1_split_0
…
I1029 19:45:37.123248 12312 image_gt_data_layer.cpp:235] output label size 2 : 2,6,36,48
I1029 19:45:37.123287 12312 image_gt_data_layer.cpp:235] output label size 3 : 2,6,36,48
I1029 19:45:37.123328 12312 image_gt_data_layer.cpp:235] output label size 4 : 2,6,18,24
I1029 19:45:37.123368 12312 image_gt_data_layer.cpp:235] output label size 5 : 2,6,18,24
I1029 19:45:37.123409 12312 image_gt_data_layer.cpp:235] output label size 6 : 2,6,9,12
I1029 19:45:37.123450 12312 image_gt_data_layer.cpp:250] output gt boxes size: 1,7,1,1
I1029 19:45:37.138080 12312 net.cpp:150] Setting up data
I1029 19:45:37.138099 12312 net.cpp:157] Top shape: 2 3 576 768 (2654208)
I1029 19:45:37.138103 12312 net.cpp:157] Top shape: 2 6 72 96 (82944)
I1029 19:45:37.138105 12312 net.cpp:157] Top shape: 2 6 72 96 (82944)
I1029 19:45:37.138108 12312 net.cpp:157] Top shape: 2 6 36 48 (20736)
I1029 19:45:37.138109 12312 net.cpp:157] Top shape: 2 6 36 48 (20736)
I1029 19:45:37.138113 12312 net.cpp:157] Top shape: 2 6 18 24 (5184)
I1029 19:45:37.138114 12312 net.cpp:157] Top shape: 2 6 18 24 (5184)
I1029 19:45:37.138118 12312 net.cpp:157] Top shape: 2 6 9 12 (1296)
I1029 19:45:37.138119 12312 net.cpp:157] Top shape: 1 7 1 1 (7)
I1029 19:45:37.138120 12312 net.cpp:165] Memory required for data: 11492956
I1029 19:45:37.138125 12312 layer_factory.hpp:77] Creating layer label_1_3x5_data_1_split
I1029 19:45:37.138137 12312 net.cpp:100] Creating Layer label_1_3x5_data_1_split
I1029 19:45:37.138140 12312 net.cpp:434] label_1_3x5_data_1_split <- label_1_3x5
I1029 19:45:37.138147 12312 net.cpp:408] label_1_3x5_data_1_split -> label_1_3x5_data_1_split_0
I1029 19:45:37.138154 12312 net.cpp:408] label_1_3x5_data_1_split -> label_1_3x5_data_1_split_1
I1029 19:45:37.138243 12312 net.cpp:150] Setting up label_1_3x5_data_1_split
I1029 19:45:37.138249 12312 net.cpp:157] Top shape: 2 6 72 96 (82944)
I1029 19:45:37.138252 12312 net.cpp:157] Top shape: 2 6 72 96 (82944)
I1029 19:45:37.138253 12312 net.cpp:165] Memory required for data: 12156508
I1029 19:45:37.138255 12312 layer_factory.hpp:77] Creating layer label_1_5x7_data_2_split
I1029 19:45:37.138258 12312 net.cpp:100] Creating Layer label_1_5x7_data_2_split
I1029 19:45:37.138260 12312 net.cpp:434] label_1_5x7_data_2_split <- label_1_5x7
I1029 19:45:37.138267 12312 net.cpp:408] label_1_5x7_data_2_split -> label_1_5x7_data_2_split_0
I1029 19:45:37.138272 12312 net.cpp:408] label_1_5x7_data_2_split -> label_1_5x7_data_2_split_1
I1029 19:45:37.138348 12312 net.cpp:150] Setting up label_1_5x7_data_2_split
I1029 19:45:37.138352 12312 net.cpp:157] Top shape: 2 6 72 96 (82944)
I1029 19:45:37.138355 12312 net.cpp:157] Top shape: 2 6 72 96 (82944)
I1029 19:45:37.138356 12312 net.cpp:165] Memory required for data: 12820060
I1029 19:45:37.138358 12312 layer_factory.hpp:77] Creating layer label_2_3x5_data_3_split
I1029 19:45:37.138362 12312 net.cpp:100] Creating Layer label_2_3x5_data_3_split
I1029 19:45:37.138365 12312 net.cpp:434] label_2_3x5_data_3_split <- label_2_3x5
I1029 19:45:37.138368 12312 net.cpp:408] label_2_3x5_data_3_split -> label_2_3x5_data_3_split_0
I1029 19:45:37.138372 12312 net.cpp:408] label_2_3x5_data_3_split -> label_2_3x5_data_3_split_1
I1029 19:45:37.138435 12312 net.cpp:150] Setting up label_2_3x5_data_3_split
I1029 19:45:37.138440 12312 net.cpp:157] Top shape: 2 6 36 48 (20736)
I1029 19:45:37.138442 12312 net.cpp:157] Top shape: 2 6 36 48 (20736)
I1029 19:45:37.138444 12312 net.cpp:165] Memory required for data: 12985948
I1029 19:45:37.138445 12312 layer_factory.hpp:77] Creating layer label_2_5x7_data_4_split
I1029 19:45:37.138449 12312 net.cpp:100] Creating Layer label_2_5x7_data_4_split
I1029 19:45:37.138451 12312 net.cpp:434] label_2_5x7_data_4_split <- label_2_5x7
I1029 19:45:37.138456 12312 net.cpp:408] label_2_5x7_data_4_split -> label_2_5x7_data_4_split_0
I1029 19:45:37.138460 12312 net.cpp:408] label_2_5x7_data_4_split -> label_2_5x7_data_4_split_1
I1029 19:45:37.138490 12312 net.cpp:150] Setting up label_2_5x7_data_4_split
I1029 19:45:37.138494 12312 net.cpp:157] Top shape: 2 6 36 48 (20736)
I1029 19:45:37.138496 12312 net.cpp:157] Top shape: 2 6 36 48 (20736)
I1029 19:45:37.138497 12312 net.cpp:165] Memory required for data: 13151836
I1029 19:45:37.138499 12312 layer_factory.hpp:77] Creating layer label_3_3x5_data_5_split
I1029 19:45:37.138502 12312 net.cpp:100] Creating Layer label_3_3x5_data_5_split
I1029 19:45:37.138504 12312 net.cpp:434] label_3_3x5_data_5_split <- label_3_3x5
I1029 19:45:37.138507 12312 net.cpp:408] label_3_3x5_data_5_split -> label_3_3x5_data_5_split_0
I1029 19:45:37.138510 12312 net.cpp:408] label_3_3x5_data_5_split -> label_3_3x5_data_5_split_1
I1029 19:45:37.138536 12312 net.cpp:150] Setting up label_3_3x5_data_5_split
I1029 19:45:37.138540 12312 net.cpp:157] Top shape: 2 6 18 24 (5184)
I1029 19:45:37.138541 12312 net.cpp:157] Top shape: 2 6 18 24 (5184)
I1029 19:45:37.138542 12312 net.cpp:165] Memory required for data: 13193308
I1029 19:45:37.138545 12312 layer_factory.hpp:77] Creating layer label_3_5x7_data_6_split
I1029 19:45:37.138547 12312 net.cpp:100] Creating Layer label_3_5x7_data_6_split
I1029 19:45:37.138550 12312 net.cpp:434] label_3_5x7_data_6_split <- label_3_5x7
I1029 19:45:37.138552 12312 net.cpp:408] label_3_5x7_data_6_split -> label_3_5x7_data_6_split_0
I1029 19:45:37.138556 12312 net.cpp:408] label_3_5x7_data_6_split -> label_3_5x7_data_6_split_1
I1029 19:45:37.138581 12312 net.cpp:150] Setting up label_3_5x7_data_6_split
I1029 19:45:37.138584 12312 net.cpp:157] Top shape: 2 6 18 24 (5184)
I1029 19:45:37.138587 12312 net.cpp:157] Top shape: 2 6 18 24 (5184)
I1029 19:45:37.138588 12312 net.cpp:165] Memory required for data: 13234780
I1029 19:45:37.138590 12312 layer_factory.hpp:77] Creating layer label_4_3x5_data_7_split
I1029 19:45:37.138593 12312 net.cpp:100] Creating Layer label_4_3x5_data_7_split
I1029 19:45:37.138595 12312 net.cpp:434] label_4_3x5_data_7_split <- label_4_3x5
I1029 19:45:37.138597 12312 net.cpp:408] label_4_3x5_data_7_split -> label_4_3x5_data_7_split_0
I1029 19:45:37.138602 12312 net.cpp:408] label_4_3x5_data_7_split -> label_4_3x5_data_7_split_1
I1029 19:45:37.138626 12312 net.cpp:150] Setting up label_4_3x5_data_7_split
I1029 19:45:37.138629 12312 net.cpp:157] Top shape: 2 6 9 12 (1296)
I1029 19:45:37.138631 12312 net.cpp:157] Top shape: 2 6 9 12 (1296)
I1029 19:45:37.138633 12312 net.cpp:165] Memory required for data: 13245148
I1029 19:45:37.138634 12312 layer_factory.hpp:77] Creating layer conv1_1
I1029 19:45:37.138643 12312 net.cpp:100] Creating Layer conv1_1
I1029 19:45:37.138645 12312 net.cpp:434] conv1_1 <- data
I1029 19:45:37.138649 12312 net.cpp:408] conv1_1 -> conv1_1
I1029 19:45:37.141830 12312 net.cpp:150] Setting up conv1_1
I1029 19:45:37.141842 12312 net.cpp:157] Top shape: 2 64 576 768 (56623104)
I1029 19:45:37.141844 12312 net.cpp:165] Memory required for data: 239737564
I1029 19:45:37.141855 12312 layer_factory.hpp:77] Creating layer relu1_1
I1029 19:45:37.141860 12312 net.cpp:100] Creating Layer relu1_1
I1029 19:45:37.141862 12312 net.cpp:434] relu1_1 <- conv1_1
I1029 19:45:37.141865 12312 net.cpp:395] relu1_1 -> conv1_1 (in-place)
I1029 19:45:37.142026 12312 net.cpp:150] Setting up relu1_1
I1029 19:45:37.142031 12312 net.cpp:157] Top shape: 2 64 576 768 (56623104)
I1029 19:45:37.142033 12312 net.cpp:165] Memory required for data: 466229980
I1029 19:45:37.142035 12312 layer_factory.hpp:77] Creating layer conv1_2
I1029 19:45:37.142043 12312 net.cpp:100] Creating Layer conv1_2
I1029 19:45:37.142045 12312 net.cpp:434] conv1_2 <- conv1_1
I1029 19:45:37.142050 12312 net.cpp:408] conv1_2 -> conv1_2
I1029 19:45:37.144278 12312 net.cpp:150] Setting up conv1_2
I1029 19:45:37.144286 12312 net.cpp:157] Top shape: 2 64 576 768 (56623104)
I1029 19:45:37.144289 12312 net.cpp:165] Memory required for data: 692722396
I1029 19:45:37.144295 12312 layer_factory.hpp:77] Creating layer relu1_2
I1029 19:45:37.144301 12312 net.cpp:100] Creating Layer relu1_2
I1029 19:45:37.144304 12312 net.cpp:434] relu1_2 <- conv1_2
I1029 19:45:37.144307 12312 net.cpp:395] relu1_2 -> conv1_2 (in-place)
I1029 19:45:37.144459 12312 net.cpp:150] Setting up relu1_2
I1029 19:45:37.144464 12312 net.cpp:157] Top shape: 2 64 576 768 (56623104)
I1029 19:45:37.144466 12312 net.cpp:165] Memory required for data: 919214812
I1029 19:45:37.144469 12312 layer_factory.hpp:77] Creating layer pool1
I1029 19:45:37.144474 12312 net.cpp:100] Creating Layer pool1
I1029 19:45:37.144475 12312 net.cpp:434] pool1 <- conv1_2
I1029 19:45:37.144479 12312 net.cpp:408] pool1 -> pool1
I1029 19:45:37.144518 12312 net.cpp:150] Setting up pool1
I1029 19:45:37.144522 12312 net.cpp:157] Top shape: 2 64 288 384 (14155776)
I1029 19:45:37.144524 12312 net.cpp:165] Memory required for data: 975837916
I1029 19:45:37.144526 12312 layer_factory.hpp:77] Creating layer conv2_1
I1029 19:45:37.144539 12312 net.cpp:100] Creating Layer conv2_1
I1029 19:45:37.144542 12312 net.cpp:434] conv2_1 <- pool1
I1029 19:45:37.144547 12312 net.cpp:408] conv2_1 -> conv2_1
I1029 19:45:37.146214 12312 net.cpp:150] Setting up conv2_1
I1029 19:45:37.146224 12312 net.cpp:157] Top shape: 2 128 288 384 (28311552)
I1029 19:45:37.146226 12312 net.cpp:165] Memory required for data: 1089084124
I1029 19:45:37.146234 12312 layer_factory.hpp:77] Creating layer relu2_1
I1029 19:45:37.146237 12312 net.cpp:100] Creating Layer relu2_1
I1029 19:45:37.146239 12312 net.cpp:434] relu2_1 <- conv2_1
I1029 19:45:37.146244 12312 net.cpp:395] relu2_1 -> conv2_1 (in-place)
I1029 19:45:37.146695 12312 net.cpp:150] Setting up relu2_1
I1029 19:45:37.146703 12312 net.cpp:157] Top shape: 2 128 288 384 (28311552)
I1029 19:45:37.146704 12312 net.cpp:165] Memory required for data: 1202330332
I1029 19:45:37.146706 12312 layer_factory.hpp:77] Creating layer conv2_2
I1029 19:45:37.146713 12312 net.cpp:100] Creating Layer conv2_2
I1029 19:45:37.146715 12312 net.cpp:434] conv2_2 <- conv2_1
I1029 19:45:37.146719 12312 net.cpp:408] conv2_2 -> conv2_2
I1029 19:45:37.148869 12312 net.cpp:150] Setting up conv2_2
I1029 19:45:37.148878 12312 net.cpp:157] Top shape: 2 128 288 384 (28311552)
I1029 19:45:37.148880 12312 net.cpp:165] Memory required for data: 1315576540
I1029 19:45:37.148885 12312 layer_factory.hpp:77] Creating layer relu2_2
I1029 19:45:37.148892 12312 net.cpp:100] Creating Layer relu2_2
I1029 19:45:37.148895 12312 net.cpp:434] relu2_2 <- conv2_2
I1029 19:45:37.148897 12312 net.cpp:395] relu2_2 -> conv2_2 (in-place)
I1029 19:45:37.149049 12312 net.cpp:150] Setting up relu2_2
I1029 19:45:37.149055 12312 net.cpp:157] Top shape: 2 128 288 384 (28311552)
I1029 19:45:37.149057 12312 net.cpp:165] Memory required for data: 1428822748
I1029 19:45:37.149058 12312 layer_factory.hpp:77] Creating layer pool2
I1029 19:45:37.149062 12312 net.cpp:100] Creating Layer pool2
I1029 19:45:37.149065 12312 net.cpp:434] pool2 <- conv2_2
I1029 19:45:37.149070 12312 net.cpp:408] pool2 -> pool2
I1029 19:45:37.149107 12312 net.cpp:150] Setting up pool2
I1029 19:45:37.149111 12312 net.cpp:157] Top shape: 2 128 144 192 (7077888)
I1029 19:45:37.149113 12312 net.cpp:165] Memory required for data: 1457134300
I1029 19:45:37.149116 12312 layer_factory.hpp:77] Creating layer conv3_1
I1029 19:45:37.149119 12312 net.cpp:100] Creating Layer conv3_1
I1029 19:45:37.149121 12312 net.cpp:434] conv3_1 <- pool2
I1029 19:45:37.149125 12312 net.cpp:408] conv3_1 -> conv3_1
I1029 19:45:37.150559 12312 net.cpp:150] Setting up conv3_1
I1029 19:45:37.150568 12312 net.cpp:157] Top shape: 2 256 144 192 (14155776)
I1029 19:45:37.150570 12312 net.cpp:165] Memory required for data: 1513757404
I1029 19:45:37.150578 12312 layer_factory.hpp:77] Creating layer relu3_1
I1029 19:45:37.150583 12312 net.cpp:100] Creating Layer relu3_1
I1029 19:45:37.150585 12312 net.cpp:434] relu3_1 <- conv3_1
I1029 19:45:37.150588 12312 net.cpp:395] relu3_1 -> conv3_1 (in-place)
I1029 19:45:37.150734 12312 net.cpp:150] Setting up relu3_1
I1029 19:45:37.150739 12312 net.cpp:157] Top shape: 2 256 144 192 (14155776)
I1029 19:45:37.150741 12312 net.cpp:165] Memory required for data: 1570380508
I1029 19:45:37.150743 12312 layer_factory.hpp:77] Creating layer conv3_2
I1029 19:45:37.150749 12312 net.cpp:100] Creating Layer conv3_2
I1029 19:45:37.150751 12312 net.cpp:434] conv3_2 <- conv3_1
I1029 19:45:37.150755 12312 net.cpp:408] conv3_2 -> conv3_2
I1029 19:45:37.153187 12312 net.cpp:150] Setting up conv3_2
I1029 19:45:37.153197 12312 net.cpp:157] Top shape: 2 256 144 192 (14155776)
I1029 19:45:37.153198 12312 net.cpp:165] Memory required for data: 1627003612
I1029 19:45:37.153203 12312 layer_factory.hpp:77] Creating layer relu3_2
I1029 19:45:37.153208 12312 net.cpp:100] Creating Layer relu3_2
I1029 19:45:37.153210 12312 net.cpp:434] relu3_2 <- conv3_2
I1029 19:45:37.153213 12312 net.cpp:395] relu3_2 -> conv3_2 (in-place)
I1029 19:45:37.153365 12312 net.cpp:150] Setting up relu3_2
I1029 19:45:37.153370 12312 net.cpp:157] Top shape: 2 256 144 192 (14155776)
I1029 19:45:37.153373 12312 net.cpp:165] Memory required for data: 1683626716
I1029 19:45:37.153374 12312 layer_factory.hpp:77] Creating layer conv3_3
I1029 19:45:37.153380 12312 net.cpp:100] Creating Layer conv3_3
I1029 19:45:37.153383 12312 net.cpp:434] conv3_3 <- conv3_2
I1029 19:45:37.153388 12312 net.cpp:408] conv3_3 -> conv3_3
I1029 19:45:37.155762 12312 net.cpp:150] Setting up conv3_3
I1029 19:45:37.155771 12312 net.cpp:157] Top shape: 2 256 144 192 (14155776)
I1029 19:45:37.155774 12312 net.cpp:165] Memory required for data: 1740249820
I1029 19:45:37.155778 12312 layer_factory.hpp:77] Creating layer relu3_3
I1029 19:45:37.155782 12312 net.cpp:100] Creating Layer relu3_3
I1029 19:45:37.155784 12312 net.cpp:434] relu3_3 <- conv3_3
I1029 19:45:37.155787 12312 net.cpp:395] relu3_3 -> conv3_3 (in-place)
I1029 19:45:37.155936 12312 net.cpp:150] Setting up relu3_3
I1029 19:45:37.155941 12312 net.cpp:157] Top shape: 2 256 144 192 (14155776)
I1029 19:45:37.155942 12312 net.cpp:165] Memory required for data: 1796872924
I1029 19:45:37.155946 12312 layer_factory.hpp:77] Creating layer pool3
I1029 19:45:37.155951 12312 net.cpp:100] Creating Layer pool3
I1029 19:45:37.155952 12312 net.cpp:434] pool3 <- conv3_3
I1029 19:45:37.155956 12312 net.cpp:408] pool3 -> pool3
I1029 19:45:37.156003 12312 net.cpp:150] Setting up pool3
I1029 19:45:37.156008 12312 net.cpp:157] Top shape: 2 256 72 96 (3538944)
I1029 19:45:37.156010 12312 net.cpp:165] Memory required for data: 1811028700
I1029 19:45:37.156013 12312 layer_factory.hpp:77] Creating layer conv4_1
I1029 19:45:37.156016 12312 net.cpp:100] Creating Layer conv4_1
I1029 19:45:37.156018 12312 net.cpp:434] conv4_1 <- pool3
I1029 19:45:37.156023 12312 net.cpp:408] conv4_1 -> conv4_1
I1029 19:45:37.159111 12312 net.cpp:150] Setting up conv4_1
I1029 19:45:37.159121 12312 net.cpp:157] Top shape: 2 512 72 96 (7077888)
I1029 19:45:37.159123 12312 net.cpp:165] Memory required for data: 1839340252
I1029 19:45:37.159127 12312 layer_factory.hpp:77] Creating layer relu4_1
I1029 19:45:37.159132 12312 net.cpp:100] Creating Layer relu4_1
I1029 19:45:37.159133 12312 net.cpp:434] relu4_1 <- conv4_1
I1029 19:45:37.159137 12312 net.cpp:395] relu4_1 -> conv4_1 (in-place)
I1029 19:45:37.159286 12312 net.cpp:150] Setting up relu4_1
I1029 19:45:37.159292 12312 net.cpp:157] Top shape: 2 512 72 96 (7077888)
I1029 19:45:37.159294 12312 net.cpp:165] Memory required for data: 1867651804
I1029 19:45:37.159296 12312 layer_factory.hpp:77] Creating layer conv4_2
I1029 19:45:37.159301 12312 net.cpp:100] Creating Layer conv4_2
I1029 19:45:37.159303 12312 net.cpp:434] conv4_2 <- conv4_1
I1029 19:45:37.159307 12312 net.cpp:408] conv4_2 -> conv4_2
I1029 19:45:37.163617 12312 net.cpp:150] Setting up conv4_2
I1029 19:45:37.163630 12312 net.cpp:157] Top shape: 2 512 72 96 (7077888)
I1029 19:45:37.163632 12312 net.cpp:165] Memory required for data: 1895963356
I1029 19:45:37.163643 12312 layer_factory.hpp:77] Creating layer relu4_2
I1029 19:45:37.163650 12312 net.cpp:100] Creating Layer relu4_2
I1029 19:45:37.163652 12312 net.cpp:434] relu4_2 <- conv4_2
I1029 19:45:37.163655 12312 net.cpp:395] relu4_2 -> conv4_2 (in-place)
I1029 19:45:37.164124 12312 net.cpp:150] Setting up relu4_2
I1029 19:45:37.164131 12312 net.cpp:157] Top shape: 2 512 72 96 (7077888)
I1029 19:45:37.164134 12312 net.cpp:165] Memory required for data: 1924274908
I1029 19:45:37.164135 12312 layer_factory.hpp:77] Creating layer conv4_3
I1029 19:45:37.164141 12312 net.cpp:100] Creating Layer conv4_3
I1029 19:45:37.164144 12312 net.cpp:434] conv4_3 <- conv4_2
I1029 19:45:37.164149 12312 net.cpp:408] conv4_3 -> conv4_3
I1029 19:45:37.168475 12312 net.cpp:150] Setting up conv4_3
I1029 19:45:37.168488 12312 net.cpp:157] Top shape: 2 512 72 96 (7077888)
I1029 19:45:37.168490 12312 net.cpp:165] Memory required for data: 1952586460
I1029 19:45:37.168495 12312 layer_factory.hpp:77] Creating layer relu4_3
I1029 19:45:37.168500 12312 net.cpp:100] Creating Layer relu4_3
I1029 19:45:37.168503 12312 net.cpp:434] relu4_3 <- conv4_3
I1029 19:45:37.168509 12312 net.cpp:395] relu4_3 -> conv4_3 (in-place)
I1029 19:45:37.168648 12312 net.cpp:150] Setting up relu4_3
I1029 19:45:37.168653 12312 net.cpp:157] Top shape: 2 512 72 96 (7077888)
I1029 19:45:37.168654 12312 net.cpp:165] Memory required for data: 1980898012
I1029 19:45:37.168656 12312 layer_factory.hpp:77] Creating layer conv4_3_relu4_3_0_split
I1029 19:45:37.168661 12312 net.cpp:100] Creating Layer conv4_3_relu4_3_0_split
I1029 19:45:37.168663 12312 net.cpp:434] conv4_3_relu4_3_0_split <- conv4_3
I1029 19:45:37.168668 12312 net.cpp:408] conv4_3_relu4_3_0_split -> conv4_3_relu4_3_0_split_0
I1029 19:45:37.168673 12312 net.cpp:408] conv4_3_relu4_3_0_split -> conv4_3_relu4_3_0_split_1
I1029 19:45:37.168675 12312 net.cpp:408] conv4_3_relu4_3_0_split -> conv4_3_relu4_3_0_split_2
I1029 19:45:37.168725 12312 net.cpp:150] Setting up conv4_3_relu4_3_0_split
I1029 19:45:37.168727 12312 net.cpp:157] Top shape: 2 512 72 96 (7077888)
I1029 19:45:37.168730 12312 net.cpp:157] Top shape: 2 512 72 96 (7077888)
I1029 19:45:37.168731 12312 net.cpp:157] Top shape: 2 512 72 96 (7077888)
I1029 19:45:37.168733 12312 net.cpp:165] Memory required for data: 2065832668
I1029 19:45:37.168735 12312 layer_factory.hpp:77] Creating layer loss1_conv1
I1029 19:45:37.168748 12312 net.cpp:100] Creating Layer loss1_conv1
I1029 19:45:37.168751 12312 net.cpp:434] loss1_conv1 <- conv4_3_relu4_3_0_split_0
I1029 19:45:37.168754 12312 net.cpp:408] loss1_conv1 -> loss1_conv1
I1029 19:45:37.376571 12312 net.cpp:150] Setting up loss1_conv1
I1029 19:45:37.376610 12312 net.cpp:157] Top shape: 2 512 72 96 (7077888)
I1029 19:45:37.376616 12312 net.cpp:165] Memory required for data: 2094144220
I1029 19:45:37.376631 12312 layer_factory.hpp:77] Creating layer loss_relu1
I1029 19:45:37.376646 12312 net.cpp:100] Creating Layer loss_relu1
I1029 19:45:37.376654 12312 net.cpp:434] loss_relu1 <- loss1_conv1
I1029 19:45:37.376663 12312 net.cpp:395] loss_relu1 -> loss1_conv1 (in-place)
I1029 19:45:37.377005 12312 net.cpp:150] Setting up loss_relu1
I1029 19:45:37.377023 12312 net.cpp:157] Top shape: 2 512 72 96 (7077888)
I1029 19:45:37.377028 12312 net.cpp:165] Memory required for data: 2122455772
I1029 19:45:37.377033 12312 layer_factory.hpp:77] Creating layer loss1_conv1_loss_relu1_0_split
I1029 19:45:37.377043 12312 net.cpp:100] Creating Layer loss1_conv1_loss_relu1_0_split
I1029 19:45:37.377048 12312 net.cpp:434] loss1_conv1_loss_relu1_0_split <- loss1_conv1
I1029 19:45:37.377055 12312 net.cpp:408] loss1_conv1_loss_relu1_0_split -> loss1_conv1_loss_relu1_0_split_0
I1029 19:45:37.377068 12312 net.cpp:408] loss1_conv1_loss_relu1_0_split -> loss1_conv1_loss_relu1_0_split_1
I1029 19:45:37.377146 12312 net.cpp:150] Setting up loss1_conv1_loss_relu1_0_split
I1029 19:45:37.377157 12312 net.cpp:157] Top shape: 2 512 72 96 (7077888)
I1029 19:45:37.377164 12312 net.cpp:157] Top shape: 2 512 72 96 (7077888)
I1029 19:45:37.377168 12312 net.cpp:165] Memory required for data: 2179078876
I1029 19:45:37.377174 12312 layer_factory.hpp:77] Creating layer LFCN_1_3x5
I1029 19:45:37.377192 12312 net.cpp:100] Creating Layer LFCN_1_3x5
I1029 19:45:37.377199 12312 net.cpp:434] LFCN_1_3x5 <- loss1_conv1_loss_relu1_0_split_0
I1029 19:45:37.377209 12312 net.cpp:408] LFCN_1_3x5 -> LFCN_1_3x5
I1029 19:45:37.383144 12312 net.cpp:150] Setting up LFCN_1_3x5
I1029 19:45:37.383177 12312 net.cpp:157] Top shape: 2 7 72 96 (96768)
I1029 19:45:37.383188 12312 net.cpp:165] Memory required for data: 2179465948
I1029 19:45:37.383208 12312 layer_factory.hpp:77] Creating layer LFCN_1_3x5_LFCN_1_3x5_0_split
I1029 19:45:37.383229 12312 net.cpp:100] Creating Layer LFCN_1_3x5_LFCN_1_3x5_0_split
I1029 19:45:37.383242 12312 net.cpp:434] LFCN_1_3x5_LFCN_1_3x5_0_split <- LFCN_1_3x5
I1029 19:45:37.383262 12312 net.cpp:408] LFCN_1_3x5_LFCN_1_3x5_0_split -> LFCN_1_3x5_LFCN_1_3x5_0_split_0
I1029 19:45:37.383286 12312 net.cpp:408] LFCN_1_3x5_LFCN_1_3x5_0_split -> LFCN_1_3x5_LFCN_1_3x5_0_split_1
I1029 19:45:37.383316 12312 net.cpp:408] LFCN_1_3x5_LFCN_1_3x5_0_split -> LFCN_1_3x5_LFCN_1_3x5_0_split_2
I1029 19:45:37.383503 12312 net.cpp:150] Setting up LFCN_1_3x5_LFCN_1_3x5_0_split
I1029 19:45:37.383524 12312 net.cpp:157] Top shape: 2 7 72 96 (96768)
I1029 19:45:37.383536 12312 net.cpp:157] Top shape: 2 7 72 96 (96768)
I1029 19:45:37.383549 12312 net.cpp:157] Top shape: 2 7 72 96 (96768)
I1029 19:45:37.383559 12312 net.cpp:165] Memory required for data: 2180627164
I1029 19:45:37.383572 12312 layer_factory.hpp:77] Creating layer detection_loss_1_3x5
I1029 19:45:37.383592 12312 net.cpp:100] Creating Layer detection_loss_1_3x5
I1029 19:45:37.383605 12312 net.cpp:434] detection_loss_1_3x5 <- LFCN_1_3x5_LFCN_1_3x5_0_split_0
I1029 19:45:37.383617 12312 net.cpp:434] detection_loss_1_3x5 <- label_1_3x5_data_1_split_0
I1029 19:45:37.383640 12312 net.cpp:408] detection_loss_1_3x5 -> loss_1_3x5
I1029 19:45:37.383666 12312 layer_factory.hpp:77] Creating layer detection_loss_1_3x5
I1029 19:45:37.384946 12312 net.cpp:150] Setting up detection_loss_1_3x5
I1029 19:45:37.384973 12312 net.cpp:157] Top shape: 1 1 1 2 (2)
I1029 19:45:37.384985 12312 net.cpp:160]     with loss weight 0.5
I1029 19:45:37.385010 12312 net.cpp:165] Memory required for data: 2180627172
I1029 19:45:37.385020 12312 layer_factory.hpp:77] Creating layer detection_accuracy_1_3x5
I1029 19:45:37.385040 12312 net.cpp:100] Creating Layer detection_accuracy_1_3x5
I1029 19:45:37.385052 12312 net.cpp:434] detection_accuracy_1_3x5 <- LFCN_1_3x5_LFCN_1_3x5_0_split_1
I1029 19:45:37.385069 12312 net.cpp:434] detection_accuracy_1_3x5 <- label_1_3x5_data_1_split_1
I1029 19:45:37.385087 12312 net.cpp:408] detection_accuracy_1_3x5 -> accuracy_1_3x5
I1029 19:45:37.385108 12312 net.cpp:408] detection_accuracy_1_3x5 -> boxiou_1_3x5
I1029 19:45:37.385243 12312 net.cpp:150] Setting up detection_accuracy_1_3x5
I1029 19:45:37.385262 12312 net.cpp:157] Top shape: 1 1 1 2 (2)
I1029 19:45:37.385277 12312 net.cpp:157] Top shape: 1 1 1 1 (1)
I1029 19:45:37.385285 12312 net.cpp:165] Memory required for data: 2180627184
I1029 19:45:37.385298 12312 layer_factory.hpp:77] Creating layer LFCN_1_5x7
I1029 19:45:37.385324 12312 net.cpp:100] Creating Layer LFCN_1_5x7
I1029 19:45:37.385336 12312 net.cpp:434] LFCN_1_5x7 <- loss1_conv1_loss_relu1_0_split_1
I1029 19:45:37.385354 12312 net.cpp:408] LFCN_1_5x7 -> LFCN_1_5x7
I1029 19:45:37.396174 12312 net.cpp:150] Setting up LFCN_1_5x7
I1029 19:45:37.396206 12312 net.cpp:157] Top shape: 2 7 72 96 (96768)
I1029 19:45:37.396217 12312 net.cpp:165] Memory required for data: 2181014256
I1029 19:45:37.396236 12312 layer_factory.hpp:77] Creating layer LFCN_1_5x7_LFCN_1_5x7_0_split
I1029 19:45:37.396258 12312 net.cpp:100] Creating Layer LFCN_1_5x7_LFCN_1_5x7_0_split
I1029 19:45:37.396270 12312 net.cpp:434] LFCN_1_5x7_LFCN_1_5x7_0_split <- LFCN_1_5x7
I1029 19:45:37.396284 12312 net.cpp:408] LFCN_1_5x7_LFCN_1_5x7_0_split -> LFCN_1_5x7_LFCN_1_5x7_0_split_0
I1029 19:45:37.396307 12312 net.cpp:408] LFCN_1_5x7_LFCN_1_5x7_0_split -> LFCN_1_5x7_LFCN_1_5x7_0_split_1
I1029 19:45:37.396332 12312 net.cpp:408] LFCN_1_5x7_LFCN_1_5x7_0_split -> LFCN_1_5x7_LFCN_1_5x7_0_split_2
I1029 19:45:37.396507 12312 net.cpp:150] Setting up LFCN_1_5x7_LFCN_1_5x7_0_split
I1029 19:45:37.396525 12312 net.cpp:157] Top shape: 2 7 72 96 (96768)
I1029 19:45:37.396538 12312 net.cpp:157] Top shape: 2 7 72 96 (96768)
I1029 19:45:37.396553 12312 net.cpp:157] Top shape: 2 7 72 96 (96768)
I1029 19:45:37.396562 12312 net.cpp:165] Memory required for data: 2182175472
I1029 19:45:37.396570 12312 layer_factory.hpp:77] Creating layer detection_loss_1_5x7
I1029 19:45:37.396589 12312 net.cpp:100] Creating Layer detection_loss_1_5x7
I1029 19:45:37.396601 12312 net.cpp:434] detection_loss_1_5x7 <- LFCN_1_5x7_LFCN_1_5x7_0_split_0
I1029 19:45:37.396615 12312 net.cpp:434] detection_loss_1_5x7 <- label_1_5x7_data_2_split_0
I1029 19:45:37.396633 12312 net.cpp:408] detection_loss_1_5x7 -> loss_1_5x7
I1029 19:45:37.396656 12312 layer_factory.hpp:77] Creating layer detection_loss_1_5x7
I1029 19:45:37.397828 12312 net.cpp:150] Setting up detection_loss_1_5x7
I1029 19:45:37.397853 12312 net.cpp:157] Top shape: 1 1 1 2 (2)
I1029 19:45:37.397863 12312 net.cpp:160]     with loss weight 0.9
I1029 19:45:37.397883 12312 net.cpp:165] Memory required for data: 2182175480
I1029 19:45:37.397894 12312 layer_factory.hpp:77] Creating layer detection_accuracy_1_5x7
I1029 19:45:37.397912 12312 net.cpp:100] Creating Layer detection_accuracy_1_5x7
I1029 19:45:37.397922 12312 net.cpp:434] detection_accuracy_1_5x7 <- LFCN_1_5x7_LFCN_1_5x7_0_split_1
I1029 19:45:37.397938 12312 net.cpp:434] detection_accuracy_1_5x7 <- label_1_5x7_data_2_split_1
I1029 19:45:37.397958 12312 net.cpp:408] detection_accuracy_1_5x7 -> accuracy_1_5x7
I1029 19:45:37.397979 12312 net.cpp:408] detection_accuracy_1_5x7 -> boxiou_1_5x7
I1029 19:45:37.398109 12312 net.cpp:150] Setting up detection_accuracy_1_5x7
I1029 19:45:37.398126 12312 net.cpp:157] Top shape: 1 1 1 2 (2)
I1029 19:45:37.398140 12312 net.cpp:157] Top shape: 1 1 1 1 (1)
I1029 19:45:37.398149 12312 net.cpp:165] Memory required for data: 2182175492
I1029 19:45:37.398159 12312 layer_factory.hpp:77] Creating layer pool4
I1029 19:45:37.398175 12312 net.cpp:100] Creating Layer pool4
I1029 19:45:37.398186 12312 net.cpp:434] pool4 <- conv4_3_relu4_3_0_split_1
I1029 19:45:37.398205 12312 net.cpp:408] pool4 -> pool4
I1029 19:45:37.398324 12312 net.cpp:150] Setting up pool4
I1029 19:45:37.398344 12312 net.cpp:157] Top shape: 2 512 36 48 (1769472)
I1029 19:45:37.398355 12312 net.cpp:165] Memory required for data: 2189253380
I1029 19:45:37.398363 12312 layer_factory.hpp:77] Creating layer conv5_1
I1029 19:45:37.398380 12312 net.cpp:100] Creating Layer conv5_1
I1029 19:45:37.398391 12312 net.cpp:434] conv5_1 <- pool4
I1029 19:45:37.398407 12312 net.cpp:408] conv5_1 -> conv5_1
I1029 19:45:37.413030 12312 net.cpp:150] Setting up conv5_1
I1029 19:45:37.413069 12312 net.cpp:157] Top shape: 2 512 36 48 (1769472)
I1029 19:45:37.413076 12312 net.cpp:165] Memory required for data: 2196331268
I1029 19:45:37.413095 12312 layer_factory.hpp:77] Creating layer relu5_1
I1029 19:45:37.413115 12312 net.cpp:100] Creating Layer relu5_1
I1029 19:45:37.413127 12312 net.cpp:434] relu5_1 <- conv5_1
I1029 19:45:37.413141 12312 net.cpp:395] relu5_1 -> conv5_1 (in-place)
I1029 19:45:37.413619 12312 net.cpp:150] Setting up relu5_1
I1029 19:45:37.413637 12312 net.cpp:157] Top shape: 2 512 36 48 (1769472)
I1029 19:45:37.413645 12312 net.cpp:165] Memory required for data: 2203409156
I1029 19:45:37.413652 12312 layer_factory.hpp:77] Creating layer conv5_2
I1029 19:45:37.413672 12312 net.cpp:100] Creating Layer conv5_2
I1029 19:45:37.413682 12312 net.cpp:434] conv5_2 <- conv5_1
I1029 19:45:37.413698 12312 net.cpp:408] conv5_2 -> conv5_2
I1029 19:45:37.427162 12312 net.cpp:150] Setting up conv5_2
I1029 19:45:37.427196 12312 net.cpp:157] Top shape: 2 512 36 48 (1769472)
I1029 19:45:37.427206 12312 net.cpp:165] Memory required for data: 2210487044
I1029 19:45:37.427223 12312 layer_factory.hpp:77] Creating layer relu5_2
I1029 19:45:37.427238 12312 net.cpp:100] Creating Layer relu5_2
I1029 19:45:37.427249 12312 net.cpp:434] relu5_2 <- conv5_2
I1029 19:45:37.427268 12312 net.cpp:395] relu5_2 -> conv5_2 (in-place)
I1029 19:45:37.428763 12312 net.cpp:150] Setting up relu5_2
I1029 19:45:37.428800 12312 net.cpp:157] Top shape: 2 512 36 48 (1769472)
I1029 19:45:37.428812 12312 net.cpp:165] Memory required for data: 2217564932
I1029 19:45:37.428820 12312 layer_factory.hpp:77] Creating layer conv5_3
I1029 19:45:37.428841 12312 net.cpp:100] Creating Layer conv5_3
I1029 19:45:37.428850 12312 net.cpp:434] conv5_3 <- conv5_2
I1029 19:45:37.428869 12312 net.cpp:408] conv5_3 -> conv5_3
I1029 19:45:37.441676 12312 net.cpp:150] Setting up conv5_3
I1029 19:45:37.441714 12312 net.cpp:157] Top shape: 2 512 36 48 (1769472)
I1029 19:45:37.441721 12312 net.cpp:165] Memory required for data: 2224642820
I1029 19:45:37.441740 12312 layer_factory.hpp:77] Creating layer relu5_3
I1029 19:45:37.441758 12312 net.cpp:100] Creating Layer relu5_3
I1029 19:45:37.441771 12312 net.cpp:434] relu5_3 <- conv5_3
I1029 19:45:37.441789 12312 net.cpp:395] relu5_3 -> conv5_3 (in-place)
I1029 19:45:37.442229 12312 net.cpp:150] Setting up relu5_3
I1029 19:45:37.442245 12312 net.cpp:157] Top shape: 2 512 36 48 (1769472)
I1029 19:45:37.442260 12312 net.cpp:165] Memory required for data: 2231720708
I1029 19:45:37.442267 12312 layer_factory.hpp:77] Creating layer conv5_3_relu5_3_0_split
I1029 19:45:37.442284 12312 net.cpp:100] Creating Layer conv5_3_relu5_3_0_split
I1029 19:45:37.442292 12312 net.cpp:434] conv5_3_relu5_3_0_split <- conv5_3
I1029 19:45:37.442307 12312 net.cpp:408] conv5_3_relu5_3_0_split -> conv5_3_relu5_3_0_split_0
I1029 19:45:37.442324 12312 net.cpp:408] conv5_3_relu5_3_0_split -> conv5_3_relu5_3_0_split_1
I1029 19:45:37.442340 12312 net.cpp:408] conv5_3_relu5_3_0_split -> conv5_3_relu5_3_0_split_2
I1029 19:45:37.442492 12312 net.cpp:150] Setting up conv5_3_relu5_3_0_split
I1029 19:45:37.442507 12312 net.cpp:157] Top shape: 2 512 36 48 (1769472)
I1029 19:45:37.442518 12312 net.cpp:157] Top shape: 2 512 36 48 (1769472)
I1029 19:45:37.442528 12312 net.cpp:157] Top shape: 2 512 36 48 (1769472)
I1029 19:45:37.442536 12312 net.cpp:165] Memory required for data: 2252954372
I1029 19:45:37.442544 12312 layer_factory.hpp:77] Creating layer LFCN_2_3x5
I1029 19:45:37.442567 12312 net.cpp:100] Creating Layer LFCN_2_3x5
I1029 19:45:37.442579 12312 net.cpp:434] LFCN_2_3x5 <- conv5_3_relu5_3_0_split_0
I1029 19:45:37.442596 12312 net.cpp:408] LFCN_2_3x5 -> LFCN_2_3x5
I1029 19:45:37.449249 12312 net.cpp:150] Setting up LFCN_2_3x5
I1029 19:45:37.449276 12312 net.cpp:157] Top shape: 2 7 36 48 (24192)
I1029 19:45:37.449285 12312 net.cpp:165] Memory required for data: 2253051140
I1029 19:45:37.449312 12312 layer_factory.hpp:77] Creating layer LFCN_2_3x5_LFCN_2_3x5_0_split
I1029 19:45:37.449331 12312 net.cpp:100] Creating Layer LFCN_2_3x5_LFCN_2_3x5_0_split
I1029 19:45:37.449342 12312 net.cpp:434] LFCN_2_3x5_LFCN_2_3x5_0_split <- LFCN_2_3x5
I1029 19:45:37.449360 12312 net.cpp:408] LFCN_2_3x5_LFCN_2_3x5_0_split -> LFCN_2_3x5_LFCN_2_3x5_0_split_0
I1029 19:45:37.449396 12312 net.cpp:408] LFCN_2_3x5_LFCN_2_3x5_0_split -> LFCN_2_3x5_LFCN_2_3x5_0_split_1
I1029 19:45:37.449414 12312 net.cpp:408] LFCN_2_3x5_LFCN_2_3x5_0_split -> LFCN_2_3x5_LFCN_2_3x5_0_split_2
I1029 19:45:37.449551 12312 net.cpp:150] Setting up LFCN_2_3x5_LFCN_2_3x5_0_split
I1029 19:45:37.449566 12312 net.cpp:157] Top shape: 2 7 36 48 (24192)
I1029 19:45:37.449575 12312 net.cpp:157] Top shape: 2 7 36 48 (24192)
I1029 19:45:37.449585 12312 net.cpp:157] Top shape: 2 7 36 48 (24192)
I1029 19:45:37.449591 12312 net.cpp:165] Memory required for data: 2253341444
I1029 19:45:37.449599 12312 layer_factory.hpp:77] Creating layer detection_loss_2_3x5
I1029 19:45:37.449614 12312 net.cpp:100] Creating Layer detection_loss_2_3x5
I1029 19:45:37.449622 12312 net.cpp:434] detection_loss_2_3x5 <- LFCN_2_3x5_LFCN_2_3x5_0_split_0
I1029 19:45:37.449632 12312 net.cpp:434] detection_loss_2_3x5 <- label_2_3x5_data_3_split_0
I1029 19:45:37.449648 12312 net.cpp:408] detection_loss_2_3x5 -> loss_2_3x5
I1029 19:45:37.449667 12312 layer_factory.hpp:77] Creating layer detection_loss_2_3x5
I1029 19:45:37.450531 12312 net.cpp:150] Setting up detection_loss_2_3x5
I1029 19:45:37.450549 12312 net.cpp:157] Top shape: 1 1 1 2 (2)
I1029 19:45:37.450556 12312 net.cpp:160]     with loss weight 1
I1029 19:45:37.450573 12312 net.cpp:165] Memory required for data: 2253341452
I1029 19:45:37.450580 12312 layer_factory.hpp:77] Creating layer detection_accuracy_2_3x5
I1029 19:45:37.450592 12312 net.cpp:100] Creating Layer detection_accuracy_2_3x5
I1029 19:45:37.450600 12312 net.cpp:434] detection_accuracy_2_3x5 <- LFCN_2_3x5_LFCN_2_3x5_0_split_1
I1029 19:45:37.450609 12312 net.cpp:434] detection_accuracy_2_3x5 <- label_2_3x5_data_3_split_1
I1029 19:45:37.450623 12312 net.cpp:408] detection_accuracy_2_3x5 -> accuracy_2_3x5
I1029 19:45:37.450639 12312 net.cpp:408] detection_accuracy_2_3x5 -> boxiou_2_3x5
I1029 19:45:37.450736 12312 net.cpp:150] Setting up detection_accuracy_2_3x5
I1029 19:45:37.450749 12312 net.cpp:157] Top shape: 1 1 1 2 (2)
I1029 19:45:37.450758 12312 net.cpp:157] Top shape: 1 1 1 1 (1)
I1029 19:45:37.450764 12312 net.cpp:165] Memory required for data: 2253341464
I1029 19:45:37.450773 12312 layer_factory.hpp:77] Creating layer LFCN_2_5x7
I1029 19:45:37.450789 12312 net.cpp:100] Creating Layer LFCN_2_5x7
I1029 19:45:37.450798 12312 net.cpp:434] LFCN_2_5x7 <- conv5_3_relu5_3_0_split_1
I1029 19:45:37.450812 12312 net.cpp:408] LFCN_2_5x7 -> LFCN_2_5x7
I1029 19:45:37.458379 12312 net.cpp:150] Setting up LFCN_2_5x7
I1029 19:45:37.458410 12312 net.cpp:157] Top shape: 2 7 36 48 (24192)
I1029 19:45:37.458416 12312 net.cpp:165] Memory required for data: 2253438232
I1029 19:45:37.458432 12312 layer_factory.hpp:77] Creating layer LFCN_2_5x7_LFCN_2_5x7_0_split
I1029 19:45:37.458449 12312 net.cpp:100] Creating Layer LFCN_2_5x7_LFCN_2_5x7_0_split
I1029 19:45:37.458457 12312 net.cpp:434] LFCN_2_5x7_LFCN_2_5x7_0_split <- LFCN_2_5x7
I1029 19:45:37.458469 12312 net.cpp:408] LFCN_2_5x7_LFCN_2_5x7_0_split -> LFCN_2_5x7_LFCN_2_5x7_0_split_0
I1029 19:45:37.458492 12312 net.cpp:408] LFCN_2_5x7_LFCN_2_5x7_0_split -> LFCN_2_5x7_LFCN_2_5x7_0_split_1
I1029 19:45:37.458506 12312 net.cpp:408] LFCN_2_5x7_LFCN_2_5x7_0_split -> LFCN_2_5x7_LFCN_2_5x7_0_split_2
I1029 19:45:37.458640 12312 net.cpp:150] Setting up LFCN_2_5x7_LFCN_2_5x7_0_split
I1029 19:45:37.458653 12312 net.cpp:157] Top shape: 2 7 36 48 (24192)
I1029 19:45:37.458664 12312 net.cpp:157] Top shape: 2 7 36 48 (24192)
I1029 19:45:37.458676 12312 net.cpp:157] Top shape: 2 7 36 48 (24192)
I1029 19:45:37.458683 12312 net.cpp:165] Memory required for data: 2253728536
I1029 19:45:37.458691 12312 layer_factory.hpp:77] Creating layer detection_loss_2_5x7
I1029 19:45:37.458705 12312 net.cpp:100] Creating Layer detection_loss_2_5x7
I1029 19:45:37.458714 12312 net.cpp:434] detection_loss_2_5x7 <- LFCN_2_5x7_LFCN_2_5x7_0_split_0
I1029 19:45:37.458724 12312 net.cpp:434] detection_loss_2_5x7 <- label_2_5x7_data_4_split_0
I1029 19:45:37.458740 12312 net.cpp:408] detection_loss_2_5x7 -> loss_2_5x7
I1029 19:45:37.458758 12312 layer_factory.hpp:77] Creating layer detection_loss_2_5x7
I1029 19:45:37.459651 12312 net.cpp:150] Setting up detection_loss_2_5x7
I1029 19:45:37.459672 12312 net.cpp:157] Top shape: 1 1 1 2 (2)
I1029 19:45:37.459681 12312 net.cpp:160]     with loss weight 1
I1029 19:45:37.459698 12312 net.cpp:165] Memory required for data: 2253728544
I1029 19:45:37.459707 12312 layer_factory.hpp:77] Creating layer detection_accuracy_2_5x7
I1029 19:45:37.459719 12312 net.cpp:100] Creating Layer detection_accuracy_2_5x7
I1029 19:45:37.459728 12312 net.cpp:434] detection_accuracy_2_5x7 <- LFCN_2_5x7_LFCN_2_5x7_0_split_1
I1029 19:45:37.459738 12312 net.cpp:434] detection_accuracy_2_5x7 <- label_2_5x7_data_4_split_1
I1029 19:45:37.459751 12312 net.cpp:408] detection_accuracy_2_5x7 -> accuracy_2_5x7
I1029 19:45:37.459770 12312 net.cpp:408] detection_accuracy_2_5x7 -> boxiou_2_5x7
I1029 19:45:37.459872 12312 net.cpp:150] Setting up detection_accuracy_2_5x7
I1029 19:45:37.459884 12312 net.cpp:157] Top shape: 1 1 1 2 (2)
I1029 19:45:37.459895 12312 net.cpp:157] Top shape: 1 1 1 1 (1)
I1029 19:45:37.459903 12312 net.cpp:165] Memory required for data: 2253728556
I1029 19:45:37.459910 12312 layer_factory.hpp:77] Creating layer pool5
I1029 19:45:37.459923 12312 net.cpp:100] Creating Layer pool5
I1029 19:45:37.459933 12312 net.cpp:434] pool5 <- conv5_3_relu5_3_0_split_2
I1029 19:45:37.459944 12312 net.cpp:408] pool5 -> pool5
I1029 19:45:37.460039 12312 net.cpp:150] Setting up pool5
I1029 19:45:37.460052 12312 net.cpp:157] Top shape: 2 512 18 24 (442368)
I1029 19:45:37.460060 12312 net.cpp:165] Memory required for data: 2255498028
I1029 19:45:37.460067 12312 layer_factory.hpp:77] Creating layer conv6_1
I1029 19:45:37.460085 12312 net.cpp:100] Creating Layer conv6_1
I1029 19:45:37.460094 12312 net.cpp:434] conv6_1 <- pool5
I1029 19:45:37.460109 12312 net.cpp:408] conv6_1 -> conv6_1
I1029 19:45:37.518834 12312 net.cpp:150] Setting up conv6_1
I1029 19:45:37.518867 12312 net.cpp:157] Top shape: 2 512 18 24 (442368)
I1029 19:45:37.518873 12312 net.cpp:165] Memory required for data: 2257267500
I1029 19:45:37.518888 12312 layer_factory.hpp:77] Creating layer relu6_1
I1029 19:45:37.518903 12312 net.cpp:100] Creating Layer relu6_1
I1029 19:45:37.518910 12312 net.cpp:434] relu6_1 <- conv6_1
I1029 19:45:37.518921 12312 net.cpp:395] relu6_1 -> conv6_1 (in-place)
I1029 19:45:37.519232 12312 net.cpp:150] Setting up relu6_1
I1029 19:45:37.519246 12312 net.cpp:157] Top shape: 2 512 18 24 (442368)
I1029 19:45:37.519250 12312 net.cpp:165] Memory required for data: 2259036972
I1029 19:45:37.519255 12312 layer_factory.hpp:77] Creating layer conv6_1_relu6_1_0_split
I1029 19:45:37.519265 12312 net.cpp:100] Creating Layer conv6_1_relu6_1_0_split
I1029 19:45:37.519270 12312 net.cpp:434] conv6_1_relu6_1_0_split <- conv6_1
I1029 19:45:37.519282 12312 net.cpp:408] conv6_1_relu6_1_0_split -> conv6_1_relu6_1_0_split_0
I1029 19:45:37.519294 12312 net.cpp:408] conv6_1_relu6_1_0_split -> conv6_1_relu6_1_0_split_1
I1029 19:45:37.519304 12312 net.cpp:408] conv6_1_relu6_1_0_split -> conv6_1_relu6_1_0_split_2
I1029 19:45:37.519421 12312 net.cpp:150] Setting up conv6_1_relu6_1_0_split
I1029 19:45:37.519433 12312 net.cpp:157] Top shape: 2 512 18 24 (442368)
I1029 19:45:37.519440 12312 net.cpp:157] Top shape: 2 512 18 24 (442368)
I1029 19:45:37.519448 12312 net.cpp:157] Top shape: 2 512 18 24 (442368)
I1029 19:45:37.519451 12312 net.cpp:165] Memory required for data: 2264345388
I1029 19:45:37.519456 12312 layer_factory.hpp:77] Creating layer LFCN_3_3x5
I1029 19:45:37.519472 12312 net.cpp:100] Creating Layer LFCN_3_3x5
I1029 19:45:37.519480 12312 net.cpp:434] LFCN_3_3x5 <- conv6_1_relu6_1_0_split_0
I1029 19:45:37.519491 12312 net.cpp:408] LFCN_3_3x5 -> LFCN_3_3x5
I1029 19:45:37.522940 12312 net.cpp:150] Setting up LFCN_3_3x5
I1029 19:45:37.522991 12312 net.cpp:157] Top shape: 2 7 18 24 (6048)
I1029 19:45:37.523001 12312 net.cpp:165] Memory required for data: 2264369580
I1029 19:45:37.523012 12312 layer_factory.hpp:77] Creating layer LFCN_3_3x5_LFCN_3_3x5_0_split
I1029 19:45:37.523041 12312 net.cpp:100] Creating Layer LFCN_3_3x5_LFCN_3_3x5_0_split
I1029 19:45:37.523051 12312 net.cpp:434] LFCN_3_3x5_LFCN_3_3x5_0_split <- LFCN_3_3x5
I1029 19:45:37.523061 12312 net.cpp:408] LFCN_3_3x5_LFCN_3_3x5_0_split -> LFCN_3_3x5_LFCN_3_3x5_0_split_0
I1029 19:45:37.523072 12312 net.cpp:408] LFCN_3_3x5_LFCN_3_3x5_0_split -> LFCN_3_3x5_LFCN_3_3x5_0_split_1
I1029 19:45:37.523083 12312 net.cpp:408] LFCN_3_3x5_LFCN_3_3x5_0_split -> LFCN_3_3x5_LFCN_3_3x5_0_split_2
I1029 19:45:37.523195 12312 net.cpp:150] Setting up LFCN_3_3x5_LFCN_3_3x5_0_split
I1029 19:45:37.523207 12312 net.cpp:157] Top shape: 2 7 18 24 (6048)
I1029 19:45:37.523216 12312 net.cpp:157] Top shape: 2 7 18 24 (6048)
I1029 19:45:37.523226 12312 net.cpp:157] Top shape: 2 7 18 24 (6048)
I1029 19:45:37.523229 12312 net.cpp:165] Memory required for data: 2264442156
I1029 19:45:37.523236 12312 layer_factory.hpp:77] Creating layer detection_loss_3_3x5
I1029 19:45:37.523247 12312 net.cpp:100] Creating Layer detection_loss_3_3x5
I1029 19:45:37.523257 12312 net.cpp:434] detection_loss_3_3x5 <- LFCN_3_3x5_LFCN_3_3x5_0_split_0
I1029 19:45:37.523264 12312 net.cpp:434] detection_loss_3_3x5 <- label_3_3x5_data_5_split_0
I1029 19:45:37.523277 12312 net.cpp:408] detection_loss_3_3x5 -> loss_3_3x5
I1029 19:45:37.523291 12312 layer_factory.hpp:77] Creating layer detection_loss_3_3x5
I1029 19:45:37.523962 12312 net.cpp:150] Setting up detection_loss_3_3x5
I1029 19:45:37.523977 12312 net.cpp:157] Top shape: 1 1 1 2 (2)
I1029 19:45:37.523984 12312 net.cpp:160]     with loss weight 1
I1029 19:45:37.524001 12312 net.cpp:165] Memory required for data: 2264442164
I1029 19:45:37.524006 12312 layer_factory.hpp:77] Creating layer detection_accuracy_3_3x5
I1029 19:45:37.524018 12312 net.cpp:100] Creating Layer detection_accuracy_3_3x5
I1029 19:45:37.524024 12312 net.cpp:434] detection_accuracy_3_3x5 <- LFCN_3_3x5_LFCN_3_3x5_0_split_1
I1029 19:45:37.524032 12312 net.cpp:434] detection_accuracy_3_3x5 <- label_3_3x5_data_5_split_1
I1029 19:45:37.524044 12312 net.cpp:408] detection_accuracy_3_3x5 -> accuracy_3_3x5
I1029 19:45:37.524058 12312 net.cpp:408] detection_accuracy_3_3x5 -> boxiou_3_3x5
I1029 19:45:37.524140 12312 net.cpp:150] Setting up detection_accuracy_3_3x5
I1029 19:45:37.524152 12312 net.cpp:157] Top shape: 1 1 1 2 (2)
I1029 19:45:37.524158 12312 net.cpp:157] Top shape: 1 1 1 1 (1)
I1029 19:45:37.524163 12312 net.cpp:165] Memory required for data: 2264442176
I1029 19:45:37.524168 12312 layer_factory.hpp:77] Creating layer LFCN_3_5x7
I1029 19:45:37.524186 12312 net.cpp:100] Creating Layer LFCN_3_5x7
I1029 19:45:37.524194 12312 net.cpp:434] LFCN_3_5x7 <- conv6_1_relu6_1_0_split_1
I1029 19:45:37.524204 12312 net.cpp:408] LFCN_3_5x7 -> LFCN_3_5x7
I1029 19:45:37.528899 12312 net.cpp:150] Setting up LFCN_3_5x7
I1029 19:45:37.528923 12312 net.cpp:157] Top shape: 2 7 18 24 (6048)
I1029 19:45:37.528928 12312 net.cpp:165] Memory required for data: 2264466368
I1029 19:45:37.528941 12312 layer_factory.hpp:77] Creating layer LFCN_3_5x7_LFCN_3_5x7_0_split
I1029 19:45:37.528954 12312 net.cpp:100] Creating Layer LFCN_3_5x7_LFCN_3_5x7_0_split
I1029 19:45:37.528961 12312 net.cpp:434] LFCN_3_5x7_LFCN_3_5x7_0_split <- LFCN_3_5x7
I1029 19:45:37.528975 12312 net.cpp:408] LFCN_3_5x7_LFCN_3_5x7_0_split -> LFCN_3_5x7_LFCN_3_5x7_0_split_0
I1029 19:45:37.528990 12312 net.cpp:408] LFCN_3_5x7_LFCN_3_5x7_0_split -> LFCN_3_5x7_LFCN_3_5x7_0_split_1
I1029 19:45:37.529000 12312 net.cpp:408] LFCN_3_5x7_LFCN_3_5x7_0_split -> LFCN_3_5x7_LFCN_3_5x7_0_split_2
I1029 19:45:37.529103 12312 net.cpp:150] Setting up LFCN_3_5x7_LFCN_3_5x7_0_split
I1029 19:45:37.529114 12312 net.cpp:157] Top shape: 2 7 18 24 (6048)
I1029 19:45:37.529121 12312 net.cpp:157] Top shape: 2 7 18 24 (6048)
I1029 19:45:37.529129 12312 net.cpp:157] Top shape: 2 7 18 24 (6048)
I1029 19:45:37.529132 12312 net.cpp:165] Memory required for data: 2264538944
I1029 19:45:37.529136 12312 layer_factory.hpp:77] Creating layer detection_loss_3_5x7
I1029 19:45:37.529145 12312 net.cpp:100] Creating Layer detection_loss_3_5x7
I1029 19:45:37.529151 12312 net.cpp:434] detection_loss_3_5x7 <- LFCN_3_5x7_LFCN_3_5x7_0_split_0
I1029 19:45:37.529160 12312 net.cpp:434] detection_loss_3_5x7 <- label_3_5x7_data_6_split_0
I1029 19:45:37.529170 12312 net.cpp:408] detection_loss_3_5x7 -> loss_3_5x7
I1029 19:45:37.529184 12312 layer_factory.hpp:77] Creating layer detection_loss_3_5x7
I1029 19:45:37.530467 12312 net.cpp:150] Setting up detection_loss_3_5x7
I1029 19:45:37.530484 12312 net.cpp:157] Top shape: 1 1 1 2 (2)
I1029 19:45:37.530488 12312 net.cpp:160]     with loss weight 1
I1029 19:45:37.530503 12312 net.cpp:165] Memory required for data: 2264538952
I1029 19:45:37.530509 12312 layer_factory.hpp:77] Creating layer detection_accuracy_3_5x7
I1029 19:45:37.530522 12312 net.cpp:100] Creating Layer detection_accuracy_3_5x7
I1029 19:45:37.530530 12312 net.cpp:434] detection_accuracy_3_5x7 <- LFCN_3_5x7_LFCN_3_5x7_0_split_1
I1029 19:45:37.530539 12312 net.cpp:434] detection_accuracy_3_5x7 <- label_3_5x7_data_6_split_1
I1029 19:45:37.530551 12312 net.cpp:408] detection_accuracy_3_5x7 -> accuracy_3_5x7
I1029 19:45:37.530565 12312 net.cpp:408] detection_accuracy_3_5x7 -> boxiou_3_5x7
I1029 19:45:37.530649 12312 net.cpp:150] Setting up detection_accuracy_3_5x7
I1029 19:45:37.530660 12312 net.cpp:157] Top shape: 1 1 1 2 (2)
I1029 19:45:37.530669 12312 net.cpp:157] Top shape: 1 1 1 1 (1)
I1029 19:45:37.530673 12312 net.cpp:165] Memory required for data: 2264538964
I1029 19:45:37.530678 12312 layer_factory.hpp:77] Creating layer pool6
I1029 19:45:37.530689 12312 net.cpp:100] Creating Layer pool6
I1029 19:45:37.530696 12312 net.cpp:434] pool6 <- conv6_1_relu6_1_0_split_2
I1029 19:45:37.530706 12312 net.cpp:408] pool6 -> pool6
I1029 19:45:37.530778 12312 net.cpp:150] Setting up pool6
I1029 19:45:37.530789 12312 net.cpp:157] Top shape: 2 512 9 12 (110592)
I1029 19:45:37.530797 12312 net.cpp:165] Memory required for data: 2264981332
I1029 19:45:37.530800 12312 layer_factory.hpp:77] Creating layer LFCN_4_3x5
I1029 19:45:37.530817 12312 net.cpp:100] Creating Layer LFCN_4_3x5
I1029 19:45:37.530824 12312 net.cpp:434] LFCN_4_3x5 <- pool6
I1029 19:45:37.530835 12312 net.cpp:408] LFCN_4_3x5 -> LFCN_4_3x5
I1029 19:45:37.534271 12312 net.cpp:150] Setting up LFCN_4_3x5
I1029 19:45:37.534296 12312 net.cpp:157] Top shape: 2 7 9 12 (1512)
I1029 19:45:37.534299 12312 net.cpp:165] Memory required for data: 2264987380
I1029 19:45:37.534312 12312 layer_factory.hpp:77] Creating layer LFCN_4_3x5_LFCN_4_3x5_0_split
I1029 19:45:37.534324 12312 net.cpp:100] Creating Layer LFCN_4_3x5_LFCN_4_3x5_0_split
I1029 19:45:37.534330 12312 net.cpp:434] LFCN_4_3x5_LFCN_4_3x5_0_split <- LFCN_4_3x5
I1029 19:45:37.534342 12312 net.cpp:408] LFCN_4_3x5_LFCN_4_3x5_0_split -> LFCN_4_3x5_LFCN_4_3x5_0_split_0
I1029 19:45:37.534356 12312 net.cpp:408] LFCN_4_3x5_LFCN_4_3x5_0_split -> LFCN_4_3x5_LFCN_4_3x5_0_split_1
I1029 19:45:37.534368 12312 net.cpp:408] LFCN_4_3x5_LFCN_4_3x5_0_split -> LFCN_4_3x5_LFCN_4_3x5_0_split_2
I1029 19:45:37.534474 12312 net.cpp:150] Setting up LFCN_4_3x5_LFCN_4_3x5_0_split
I1029 19:45:37.534484 12312 net.cpp:157] Top shape: 2 7 9 12 (1512)
I1029 19:45:37.534492 12312 net.cpp:157] Top shape: 2 7 9 12 (1512)
I1029 19:45:37.534499 12312 net.cpp:157] Top shape: 2 7 9 12 (1512)
I1029 19:45:37.534503 12312 net.cpp:165] Memory required for data: 2265005524
I1029 19:45:37.534508 12312 layer_factory.hpp:77] Creating layer detection_loss_4_3x5
I1029 19:45:37.534519 12312 net.cpp:100] Creating Layer detection_loss_4_3x5
I1029 19:45:37.534526 12312 net.cpp:434] detection_loss_4_3x5 <- LFCN_4_3x5_LFCN_4_3x5_0_split_0
I1029 19:45:37.534533 12312 net.cpp:434] detection_loss_4_3x5 <- label_4_3x5_data_7_split_0
I1029 19:45:37.534543 12312 net.cpp:408] detection_loss_4_3x5 -> loss_4_3x5
I1029 19:45:37.534555 12312 layer_factory.hpp:77] Creating layer detection_loss_4_3x5
I1029 19:45:37.535197 12312 net.cpp:150] Setting up detection_loss_4_3x5
I1029 19:45:37.535212 12312 net.cpp:157] Top shape: 1 1 1 2 (2)
I1029 19:45:37.535215 12312 net.cpp:160]     with loss weight 1
I1029 19:45:37.535231 12312 net.cpp:165] Memory required for data: 2265005532
I1029 19:45:37.535236 12312 layer_factory.hpp:77] Creating layer detection_accuracy_4_3x5
I1029 19:45:37.535245 12312 net.cpp:100] Creating Layer detection_accuracy_4_3x5
I1029 19:45:37.535253 12312 net.cpp:434] detection_accuracy_4_3x5 <- LFCN_4_3x5_LFCN_4_3x5_0_split_1
I1029 19:45:37.535260 12312 net.cpp:434] detection_accuracy_4_3x5 <- label_4_3x5_data_7_split_1
I1029 19:45:37.535270 12312 net.cpp:408] detection_accuracy_4_3x5 -> accuracy_4_3x5
I1029 19:45:37.535284 12312 net.cpp:408] detection_accuracy_4_3x5 -> boxiou_4_3x5
I1029 19:45:37.535363 12312 net.cpp:150] Setting up detection_accuracy_4_3x5
I1029 19:45:37.535373 12312 net.cpp:157] Top shape: 1 1 1 2 (2)
I1029 19:45:37.535379 12312 net.cpp:157] Top shape: 1 1 1 1 (1)
I1029 19:45:37.535383 12312 net.cpp:165] Memory required for data: 2265005544
I1029 19:45:37.535387 12312 layer_factory.hpp:77] Creating layer proposals
I1029 19:45:37.535401 12312 net.cpp:100] Creating Layer proposals
I1029 19:45:37.535408 12312 net.cpp:434] proposals <- LFCN_1_3x5_LFCN_1_3x5_0_split_2
I1029 19:45:37.535415 12312 net.cpp:434] proposals <- LFCN_1_5x7_LFCN_1_5x7_0_split_2
I1029 19:45:37.535424 12312 net.cpp:434] proposals <- LFCN_2_3x5_LFCN_2_3x5_0_split_2
I1029 19:45:37.535430 12312 net.cpp:434] proposals <- LFCN_2_5x7_LFCN_2_5x7_0_split_2
I1029 19:45:37.535435 12312 net.cpp:434] proposals <- LFCN_3_3x5_LFCN_3_3x5_0_split_2
I1029 19:45:37.535444 12312 net.cpp:434] proposals <- LFCN_3_5x7_LFCN_3_5x7_0_split_2
I1029 19:45:37.535449 12312 net.cpp:434] proposals <- LFCN_4_3x5_LFCN_4_3x5_0_split_2
I1029 19:45:37.535457 12312 net.cpp:408] proposals -> proposals
I1029 19:45:37.535504 12312 net.cpp:150] Setting up proposals
I1029 19:45:37.535514 12312 net.cpp:157] Top shape: 1 5 1 1 (5)
I1029 19:45:37.535518 12312 net.cpp:165] Memory required for data: 2265005564
I1029 19:45:37.535522 12312 layer_factory.hpp:77] Creating layer proposal_info
I1029 19:45:37.535534 12312 net.cpp:100] Creating Layer proposal_info
I1029 19:45:37.535540 12312 net.cpp:434] proposal_info <- proposals
I1029 19:45:37.535547 12312 net.cpp:434] proposal_info <- gt_boxes
I1029 19:45:37.535560 12312 net.cpp:408] proposal_info -> rois
I1029 19:45:37.535573 12312 net.cpp:408] proposal_info -> proposal_labels
I1029 19:45:37.535586 12312 net.cpp:408] proposal_info -> proposal_targets
I1029 19:45:37.535598 12312 net.cpp:408] proposal_info -> box_inside_weights
I1029 19:45:37.535611 12312 net.cpp:408] proposal_info -> box_outside_weights
I1029 19:45:37.535624 12312 net.cpp:408] proposal_info -> match_gt_boxes
I1029 19:45:37.535800 12312 net.cpp:150] Setting up proposal_info
I1029 19:45:37.535810 12312 net.cpp:157] Top shape: 64 5 1 1 (320)
I1029 19:45:37.535820 12312 net.cpp:157] Top shape: 64 1 1 1 (64)
I1029 19:45:37.535825 12312 net.cpp:157] Top shape: 64 12 1 1 (768)
I1029 19:45:37.535831 12312 net.cpp:157] Top shape: 64 12 1 1 (768)
I1029 19:45:37.535838 12312 net.cpp:157] Top shape: 64 12 1 1 (768)
I1029 19:45:37.535845 12312 net.cpp:157] Top shape: 64 6 1 1 (384)
I1029 19:45:37.535848 12312 net.cpp:165] Memory required for data: 2265017852
I1029 19:45:37.535852 12312 layer_factory.hpp:77] Creating layer rois_proposal_info_0_split
I1029 19:45:37.535859 12312 net.cpp:100] Creating Layer rois_proposal_info_0_split
I1029 19:45:37.535866 12312 net.cpp:434] rois_proposal_info_0_split <- rois
I1029 19:45:37.535874 12312 net.cpp:408] rois_proposal_info_0_split -> rois_proposal_info_0_split_0
I1029 19:45:37.535886 12312 net.cpp:408] rois_proposal_info_0_split -> rois_proposal_info_0_split_1
I1029 19:45:37.535897 12312 net.cpp:408] rois_proposal_info_0_split -> rois_proposal_info_0_split_2
I1029 19:45:37.535987 12312 net.cpp:150] Setting up rois_proposal_info_0_split
I1029 19:45:37.535997 12312 net.cpp:157] Top shape: 64 5 1 1 (320)
I1029 19:45:37.536002 12312 net.cpp:157] Top shape: 64 5 1 1 (320)
I1029 19:45:37.536008 12312 net.cpp:157] Top shape: 64 5 1 1 (320)
I1029 19:45:37.536015 12312 net.cpp:165] Memory required for data: 2265021692
I1029 19:45:37.536018 12312 layer_factory.hpp:77] Creating layer proposal_labels_proposal_info_1_split
I1029 19:45:37.536026 12312 net.cpp:100] Creating Layer proposal_labels_proposal_info_1_split
I1029 19:45:37.536031 12312 net.cpp:434] proposal_labels_proposal_info_1_split <- proposal_labels
I1029 19:45:37.536038 12312 net.cpp:408] proposal_labels_proposal_info_1_split -> proposal_labels_proposal_info_1_split_0
I1029 19:45:37.536051 12312 net.cpp:408] proposal_labels_proposal_info_1_split -> proposal_labels_proposal_info_1_split_1
I1029 19:45:37.536115 12312 net.cpp:150] Setting up proposal_labels_proposal_info_1_split
I1029 19:45:37.536124 12312 net.cpp:157] Top shape: 64 1 1 1 (64)
I1029 19:45:37.536130 12312 net.cpp:157] Top shape: 64 1 1 1 (64)
I1029 19:45:37.536136 12312 net.cpp:165] Memory required for data: 2265022204
I1029 19:45:37.536141 12312 layer_factory.hpp:77] Creating layer conv4_3_2x
I1029 19:45:37.536154 12312 net.cpp:100] Creating Layer conv4_3_2x
I1029 19:45:37.536161 12312 net.cpp:434] conv4_3_2x <- conv4_3_relu4_3_0_split_2
I1029 19:45:37.536170 12312 net.cpp:408] conv4_3_2x -> conv4_3_2x
I1029 19:45:37.537094 12312 net.cpp:150] Setting up conv4_3_2x
I1029 19:45:37.537108 12312 net.cpp:157] Top shape: 2 512 144 192 (28311552)
I1029 19:45:37.537116 12312 net.cpp:165] Memory required for data: 2378268412
I1029 19:45:37.537124 12312 layer_factory.hpp:77] Creating layer conv4_3_2x_conv4_3_2x_0_split
I1029 19:45:37.537133 12312 net.cpp:100] Creating Layer conv4_3_2x_conv4_3_2x_0_split
I1029 19:45:37.537140 12312 net.cpp:434] conv4_3_2x_conv4_3_2x_0_split <- conv4_3_2x
I1029 19:45:37.537149 12312 net.cpp:408] conv4_3_2x_conv4_3_2x_0_split -> conv4_3_2x_conv4_3_2x_0_split_0
I1029 19:45:37.537161 12312 net.cpp:408] conv4_3_2x_conv4_3_2x_0_split -> conv4_3_2x_conv4_3_2x_0_split_1
I1029 19:45:37.537232 12312 net.cpp:150] Setting up conv4_3_2x_conv4_3_2x_0_split
I1029 19:45:37.537243 12312 net.cpp:157] Top shape: 2 512 144 192 (28311552)
I1029 19:45:37.537251 12312 net.cpp:157] Top shape: 2 512 144 192 (28311552)
I1029 19:45:37.537256 12312 net.cpp:165] Memory required for data: 2604760828
I1029 19:45:37.537261 12312 layer_factory.hpp:77] Creating layer roi_pool_org
I1029 19:45:37.537268 12312 net.cpp:100] Creating Layer roi_pool_org
I1029 19:45:37.537276 12312 net.cpp:434] roi_pool_org <- conv4_3_2x_conv4_3_2x_0_split_0
I1029 19:45:37.537282 12312 net.cpp:434] roi_pool_org <- rois_proposal_info_0_split_0
I1029 19:45:37.537291 12312 net.cpp:408] roi_pool_org -> roi_pool_org
I1029 19:45:37.537302 12312 roi_pooling_layer.cpp:33] Spatial scale: 0.25
I1029 19:45:37.537374 12312 net.cpp:150] Setting up roi_pool_org
I1029 19:45:37.537385 12312 net.cpp:157] Top shape: 64 512 7 5 (1146880)
I1029 19:45:37.537391 12312 net.cpp:165] Memory required for data: 2609348348
I1029 19:45:37.537395 12312 layer_factory.hpp:77] Creating layer roi_pool_ctx
I1029 19:45:37.537403 12312 net.cpp:100] Creating Layer roi_pool_ctx
I1029 19:45:37.537408 12312 net.cpp:434] roi_pool_ctx <- conv4_3_2x_conv4_3_2x_0_split_1
I1029 19:45:37.537415 12312 net.cpp:434] roi_pool_ctx <- rois_proposal_info_0_split_1
I1029 19:45:37.537423 12312 net.cpp:408] roi_pool_ctx -> roi_pool_ctx
I1029 19:45:37.537433 12312 roi_pooling_layer.cpp:33] Spatial scale: 0.25
I1029 19:45:37.537503 12312 net.cpp:150] Setting up roi_pool_ctx
I1029 19:45:37.537513 12312 net.cpp:157] Top shape: 64 512 7 5 (1146880)
I1029 19:45:37.537516 12312 net.cpp:165] Memory required for data: 2613935868
I1029 19:45:37.537521 12312 layer_factory.hpp:77] Creating layer roi_pool
I1029 19:45:37.537528 12312 net.cpp:100] Creating Layer roi_pool
I1029 19:45:37.537534 12312 net.cpp:434] roi_pool <- roi_pool_org
I1029 19:45:37.537540 12312 net.cpp:434] roi_pool <- roi_pool_ctx
I1029 19:45:37.537549 12312 net.cpp:408] roi_pool -> roi_pool
I1029 19:45:37.537597 12312 net.cpp:150] Setting up roi_pool
I1029 19:45:37.537607 12312 net.cpp:157] Top shape: 64 1024 7 5 (2293760)
I1029 19:45:37.537611 12312 net.cpp:165] Memory required for data: 2623110908
I1029 19:45:37.537616 12312 layer_factory.hpp:77] Creating layer roi_c1
I1029 19:45:37.537629 12312 net.cpp:100] Creating Layer roi_c1
I1029 19:45:37.537636 12312 net.cpp:434] roi_c1 <- roi_pool
I1029 19:45:37.537647 12312 net.cpp:408] roi_c1 -> roi_c1
I1029 19:45:37.611860 12312 net.cpp:150] Setting up roi_c1
I1029 19:45:37.611886 12312 net.cpp:157] Top shape: 64 512 5 3 (491520)
I1029 19:45:37.611888 12312 net.cpp:165] Memory required for data: 2625076988
I1029 19:45:37.611898 12312 layer_factory.hpp:77] Creating layer roi_c1_relu
I1029 19:45:37.611905 12312 net.cpp:100] Creating Layer roi_c1_relu
I1029 19:45:37.611909 12312 net.cpp:434] roi_c1_relu <- roi_c1
I1029 19:45:37.611917 12312 net.cpp:395] roi_c1_relu -> roi_c1 (in-place)
I1029 19:45:37.612105 12312 net.cpp:150] Setting up roi_c1_relu
I1029 19:45:37.612115 12312 net.cpp:157] Top shape: 64 512 5 3 (491520)
I1029 19:45:37.612118 12312 net.cpp:165] Memory required for data: 2627043068
I1029 19:45:37.612120 12312 layer_factory.hpp:77] Creating layer fc6
I1029 19:45:37.612126 12312 net.cpp:100] Creating Layer fc6
I1029 19:45:37.612129 12312 net.cpp:434] fc6 <- roi_c1
I1029 19:45:37.612136 12312 net.cpp:408] fc6 -> fc6
I1029 19:45:37.746691 12312 net.cpp:150] Setting up fc6
I1029 19:45:37.746716 12312 net.cpp:157] Top shape: 64 2048 (131072)
I1029 19:45:37.746718 12312 net.cpp:165] Memory required for data: 2627567356
I1029 19:45:37.746727 12312 layer_factory.hpp:77] Creating layer relu6
I1029 19:45:37.746734 12312 net.cpp:100] Creating Layer relu6
I1029 19:45:37.746738 12312 net.cpp:434] relu6 <- fc6
I1029 19:45:37.746745 12312 net.cpp:395] relu6 -> fc6 (in-place)
I1029 19:45:37.746960 12312 net.cpp:150] Setting up relu6
I1029 19:45:37.746968 12312 net.cpp:157] Top shape: 64 2048 (131072)
I1029 19:45:37.746969 12312 net.cpp:165] Memory required for data: 2628091644
I1029 19:45:37.746971 12312 layer_factory.hpp:77] Creating layer drop6
I1029 19:45:37.746976 12312 net.cpp:100] Creating Layer drop6
I1029 19:45:37.746978 12312 net.cpp:434] drop6 <- fc6
I1029 19:45:37.746982 12312 net.cpp:395] drop6 -> fc6 (in-place)
I1029 19:45:37.747009 12312 net.cpp:150] Setting up drop6
I1029 19:45:37.747015 12312 net.cpp:157] Top shape: 64 2048 (131072)
I1029 19:45:37.747017 12312 net.cpp:165] Memory required for data: 2628615932
I1029 19:45:37.747018 12312 layer_factory.hpp:77] Creating layer fc6_drop6_0_split
I1029 19:45:37.747022 12312 net.cpp:100] Creating Layer fc6_drop6_0_split
I1029 19:45:37.747025 12312 net.cpp:434] fc6_drop6_0_split <- fc6
I1029 19:45:37.747028 12312 net.cpp:408] fc6_drop6_0_split -> fc6_drop6_0_split_0
I1029 19:45:37.747033 12312 net.cpp:408] fc6_drop6_0_split -> fc6_drop6_0_split_1
I1029 19:45:37.747071 12312 net.cpp:150] Setting up fc6_drop6_0_split
I1029 19:45:37.747076 12312 net.cpp:157] Top shape: 64 2048 (131072)
I1029 19:45:37.747077 12312 net.cpp:157] Top shape: 64 2048 (131072)
I1029 19:45:37.747079 12312 net.cpp:165] Memory required for data: 2629664508
I1029 19:45:37.747081 12312 layer_factory.hpp:77] Creating layer cls_pred
I1029 19:45:37.747087 12312 net.cpp:100] Creating Layer cls_pred
I1029 19:45:37.747089 12312 net.cpp:434] cls_pred <- fc6_drop6_0_split_0
I1029 19:45:37.747095 12312 net.cpp:408] cls_pred -> cls_pred
I1029 19:45:37.747248 12312 net.cpp:150] Setting up cls_pred
I1029 19:45:37.747256 12312 net.cpp:157] Top shape: 64 3 (192)
I1029 19:45:37.747257 12312 net.cpp:165] Memory required for data: 2629665276
I1029 19:45:37.747262 12312 layer_factory.hpp:77] Creating layer cls_pred_cls_pred_0_split
I1029 19:45:37.747265 12312 net.cpp:100] Creating Layer cls_pred_cls_pred_0_split
I1029 19:45:37.747267 12312 net.cpp:434] cls_pred_cls_pred_0_split <- cls_pred
I1029 19:45:37.747270 12312 net.cpp:408] cls_pred_cls_pred_0_split -> cls_pred_cls_pred_0_split_0
I1029 19:45:37.747275 12312 net.cpp:408] cls_pred_cls_pred_0_split -> cls_pred_cls_pred_0_split_1
I1029 19:45:37.747326 12312 net.cpp:150] Setting up cls_pred_cls_pred_0_split
I1029 19:45:37.747331 12312 net.cpp:157] Top shape: 64 3 (192)
I1029 19:45:37.747335 12312 net.cpp:157] Top shape: 64 3 (192)
I1029 19:45:37.747336 12312 net.cpp:165] Memory required for data: 2629666812
I1029 19:45:37.747339 12312 layer_factory.hpp:77] Creating layer bbox_pred
I1029 19:45:37.747342 12312 net.cpp:100] Creating Layer bbox_pred
I1029 19:45:37.747344 12312 net.cpp:434] bbox_pred <- fc6_drop6_0_split_1
I1029 19:45:37.747349 12312 net.cpp:408] bbox_pred -> bbox_pred
I1029 19:45:37.747643 12312 net.cpp:150] Setting up bbox_pred
I1029 19:45:37.747648 12312 net.cpp:157] Top shape: 64 12 (768)
I1029 19:45:37.747650 12312 net.cpp:165] Memory required for data: 2629669884
I1029 19:45:37.747653 12312 layer_factory.hpp:77] Creating layer bbox_pred_bbox_pred_0_split
I1029 19:45:37.747658 12312 net.cpp:100] Creating Layer bbox_pred_bbox_pred_0_split
I1029 19:45:37.747659 12312 net.cpp:434] bbox_pred_bbox_pred_0_split <- bbox_pred
I1029 19:45:37.747663 12312 net.cpp:408] bbox_pred_bbox_pred_0_split -> bbox_pred_bbox_pred_0_split_0
I1029 19:45:37.747666 12312 net.cpp:408] bbox_pred_bbox_pred_0_split -> bbox_pred_bbox_pred_0_split_1
I1029 19:45:37.747701 12312 net.cpp:150] Setting up bbox_pred_bbox_pred_0_split
I1029 19:45:37.747705 12312 net.cpp:157] Top shape: 64 12 (768)
I1029 19:45:37.747707 12312 net.cpp:157] Top shape: 64 12 (768)
I1029 19:45:37.747709 12312 net.cpp:165] Memory required for data: 2629676028
I1029 19:45:37.747710 12312 layer_factory.hpp:77] Creating layer loss_cls
I1029 19:45:37.747714 12312 net.cpp:100] Creating Layer loss_cls
I1029 19:45:37.747717 12312 net.cpp:434] loss_cls <- cls_pred_cls_pred_0_split_0
I1029 19:45:37.747720 12312 net.cpp:434] loss_cls <- proposal_labels_proposal_info_1_split_0
…
