…
    downsample_rate: 16
    downsample_rate: 32
    downsample_rate: 32
    downsample_rate: 64
    coord_num: 4
    field_h: 60
    field_h: 84
    field_h: 120
    field_h: 168
    field_h: 240
    field_h: 336
    field_h: 480
    field_w: 40
    field_w: 56
    field_w: 80
    field_w: 112
    field_w: 160
    field_w: 224
    field_w: 360
    fg_threshold: 0.5
    resize_width: 1920
    resize_height: 576
    crop_width: 768
    crop_height: 576
    do_multiple_scale: true
    min_scale: 60
    max_scale: 480
    min_gt_height: 30
    shuffle: true
  }
}
layer {
  name: "conv1_1"
  type: "Convolution"
  bottom: "data"
  top: "conv1_1"
  convolution_param {
    num_output: 64
    pad: 1
    kernel_size: 3
  }
}
layer {
  name: "relu1_1"
  type: "ReLU"
  bottom: "conv1_1"
  top: "conv1_1"
}
layer {
  name: "conv1_2"
  type: "Convolution"
  bottom: "conv1_1"
  top: "conv1_2"
  convolution_param {
    num_output: 64
    pad: 1
    kernel_size: 3
  }
}
layer {
  name: "relu1_2"
  type: "ReLU"
  bottom: "conv1_2"
  top: "conv1_2"
}
layer {
  name: "pool1"
  type: "Pooling"
  bottom: "conv1_2"
  top: "pool1"
  pooling_param {
    pool: MAX
    kernel_size: 2
    stride: 2
  }
}
layer {
  name: "conv2_1"
  type: "Convolution"
  bottom: "pool1"
  top: "conv2_1"
  convolution_param {
    num_output: 128
    pad: 1
    kernel_size: 3
  }
}
layer {
  name: "relu2_1"
  type: "ReLU"
  bottom: "conv2_1"
  top: "conv2_1"
}
layer {
  name: "conv2_2"
  type: "Convolution"
  bottom: "conv2_1"
  top: "conv2_2"
  convolution_param {
    num_output: 128
    pad: 1
    kernel_size: 3
  }
}
layer {
  name: "relu2_2"
  type: "ReLU"
  bottom: "conv2_2"
  top: "conv2_2"
}
layer {
  name: "pool2"
  type: "Pooling"
  bottom: "conv2_2"
  top: "pool2"
  pooling_param {
    pool: MAX
    kernel_size: 2
    stride: 2
  }
}
layer {
  name: "conv3_1"
  type: "Convolution"
  bottom: "pool2"
  top: "conv3_1"
  convolution_param {
    num_output: 256
    pad: 1
    kernel_size: 3
  }
}
layer {
  name: "relu3_1"
  type: "ReLU"
  bottom: "conv3_1"
  top: "conv3_1"
}
layer {
  name: "conv3_2"
  type: "Convolution"
  bottom: "conv3_1"
  top: "conv3_2"
  convolution_param {
    num_output: 256
    pad: 1
    kernel_size: 3
  }
}
layer {
  name: "relu3_2"
  type: "ReLU"
  bottom: "conv3_2"
  top: "conv3_2"
}
layer {
  name: "conv3_3"
  type: "Convolution"
  bottom: "conv3_2"
  top: "conv3_3"
  convolution_param {
    num_output: 256
    pad: 1
    kernel_size: 3
  }
}
layer {
  name: "relu3_3"
  type: "ReLU"
  bottom: "conv3_3"
  top: "conv3_3"
}
layer {
  name: "pool3"
  type: "Pooling"
  bottom: "conv3_3"
  top: "pool3"
  pooling_param {
    pool: MAX
    kernel_size: 2
    stride: 2
  }
}
layer {
  name: "conv4_1"
  type: "Convolution"
  bottom: "pool3"
  top: "conv4_1"
  convolution_param {
    num_output: 512
    pad: 1
    kernel_size: 3
  }
}
layer {
  name: "relu4_1"
  type: "ReLU"
  bottom: "conv4_1"
  top: "conv4_1"
}
layer {
  name: "conv4_2"
  type: "Convolution"
  bottom: "conv4_1"
  top: "conv4_2"
  convolution_param {
    num_output: 512
    pad: 1
    kernel_size: 3
  }
}
layer {
  name: "relu4_2"
  type: "ReLU"
  bottom: "conv4_2"
  top: "conv4_2"
}
layer {
  name: "conv4_3"
  type: "Convolution"
  bottom: "conv4_2"
  top: "conv4_3"
  convolution_param {
    num_output: 512
    pad: 1
    kernel_size: 3
  }
}
layer {
  name: "relu4_3"
  type: "ReLU"
  bottom: "conv4_3"
  top: "conv4_3"
}
layer {
  name: "loss1_conv1"
  type: "Convolution"
  bottom: "conv4_3"
  top: "loss1_conv1"
  param {
    lr_mult: 1
    decay_mult: 1
  }
  param {
    lr_mult: 2
    decay_mult: 0
  }
  convolution_param {
    num_output: 512
    pad: 1
    kernel_size: 3
    weight_filler {
      type: "gaussian"
      std: 0.01
    }
    bias_filler {
      type: "constant"
    }
  }
}
layer {
  name: "loss_relu1"
  type: "ReLU"
  bottom: "loss1_conv1"
  top: "loss1_conv1"
}
layer {
  name: "LFCN_1_3x5"
  type: "Convolution"
  bottom: "loss1_conv1"
  top: "LFCN_1_3x5"
  param {
    lr_mult: 1
    decay_mult: 1
  }
  param {
    lr_mult: 2
    decay_mult: 0
  }
  convolution_param {
    num_output: 7
    weight_filler {
      type: "gaussian"
      std: 0.001
    }
    bias_filler {
      type: "constant"
    }
    pad_h: 2
    pad_w: 1
    kernel_h: 5
    kernel_w: 3
  }
}
layer {
  name: "detection_loss_1_3x5"
  type: "DetectionLoss"
  bottom: "LFCN_1_3x5"
  bottom: "label_1_3x5"
  top: "loss_1_3x5"
  loss_weight: 0.9
  detection_loss_param {
    cls_num: 3
    coord_num: 4
    lambda: 0.5
    field_h: 60
    field_w: 40
    downsample_rate: 8
    bb_smooth: true
    field_whr: 2
    field_xyr: 2
    bg_threshold: 0.2
    bg_multiple: 2
    sample_mode: "random"
    pos_neg_weighted: true
  }
}
layer {
  name: "detection_accuracy_1_3x5"
  type: "DetectionAccuracy"
  bottom: "LFCN_1_3x5"
  bottom: "label_1_3x5"
  top: "accuracy_1_3x5"
  top: "boxiou_1_3x5"
  detection_accuracy_param {
    cls_num: 3
    coord_num: 4
    field_h: 60
    field_w: 40
    downsample_rate: 8
    field_whr: 2
    field_xyr: 2
  }
}
layer {
  name: "LFCN_1_5x7"
  type: "Convolution"
  bottom: "loss1_conv1"
  top: "LFCN_1_5x7"
  param {
    lr_mult: 1
    decay_mult: 1
  }
  param {
    lr_mult: 2
    decay_mult: 0
  }
  convolution_param {
    num_output: 7
    weight_filler {
      type: "gaussian"
      std: 0.001
    }
    bias_filler {
      type: "constant"
    }
    pad_h: 3
    pad_w: 2
    kernel_h: 7
    kernel_w: 5
  }
}
layer {
  name: "detection_loss_1_5x7"
  type: "DetectionLoss"
  bottom: "LFCN_1_5x7"
  bottom: "label_1_5x7"
  top: "loss_1_5x7"
  loss_weight: 0.9
  detection_loss_param {
    cls_num: 3
    coord_num: 4
    lambda: 0.5
    field_h: 84
    field_w: 56
    downsample_rate: 8
    bb_smooth: true
    field_whr: 2
    field_xyr: 2
    bg_threshold: 0.2
    bg_multiple: 2
    sample_mode: "random"
    pos_neg_weighted: true
  }
}
layer {
  name: "detection_accuracy_1_5x7"
  type: "DetectionAccuracy"
  bottom: "LFCN_1_5x7"
  bottom: "label_1_5x7"
  top: "accuracy_1_5x7"
  top: "boxiou_1_5x7"
  detection_accuracy_param {
    cls_num: 3
    coord_num: 4
    field_h: 84
    field_w: 56
    downsample_rate: 8
    field_whr: 2
    field_xyr: 2
  }
}
layer {
  name: "pool4"
  type: "Pooling"
  bottom: "conv4_3"
  top: "pool4"
  pooling_param {
    pool: MAX
    kernel_size: 2
    stride: 2
  }
}
layer {
  name: "conv5_1"
  type: "Convolution"
  bottom: "pool4"
  top: "conv5_1"
  convolution_param {
    num_output: 512
    pad: 1
    kernel_size: 3
  }
}
layer {
  name: "relu5_1"
  type: "ReLU"
  bottom: "conv5_1"
  top: "conv5_1"
}
layer {
  name: "conv5_2"
  type: "Convolution"
  bottom: "conv5_1"
  top: "conv5_2"
  convolution_param {
    num_output: 512
    pad: 1
    kernel_size: 3
  }
}
layer {
  name: "relu5_2"
  type: "ReLU"
  bottom: "conv5_2"
  top: "conv5_2"
}
layer {
  name: "conv5_3"
  type: "Convolution"
  bottom: "conv5_2"
  top: "conv5_3"
  convolution_param {
    num_output: 512
    pad: 1
    kernel_size: 3
  }
}
layer {
  name: "relu5_3"
  type: "ReLU"
  bottom: "conv5_3"
  top: "conv5_3"
}
layer {
  name: "LFCN_2_3x5"
  type: "Convolution"
  bottom: "conv5_3"
  top: "LFCN_2_3x5"
  param {
    lr_mult: 1
    decay_mult: 1
  }
  param {
    lr_mult: 2
    decay_mult: 0
  }
  convolution_param {
    num_output: 7
    weight_filler {
      type: "gaussian"
      std: 0.001
    }
    bias_filler {
      type: "constant"
    }
    pad_h: 2
    pad_w: 1
    kernel_h: 5
    kernel_w: 3
  }
}
layer {
  name: "detection_loss_2_3x5"
  type: "DetectionLoss"
  bottom: "LFCN_2_3x5"
  bottom: "label_2_3x5"
  top: "loss_2_3x5"
  detection_loss_param {
    cls_num: 3
    coord_num: 4
    lambda: 0.5
    field_h: 120
    field_w: 80
    downsample_rate: 16
    bb_smooth: true
    field_whr: 2
    field_xyr: 2
    bg_threshold: 0.2
    bg_multiple: 2
    sample_mode: "random"
    pos_neg_weighted: true
  }
}
layer {
  name: "detection_accuracy_2_3x5"
  type: "DetectionAccuracy"
  bottom: "LFCN_2_3x5"
  bottom: "label_2_3x5"
  top: "accuracy_2_3x5"
  top: "boxiou_2_3x5"
  detection_accuracy_param {
    cls_num: 3
    coord_num: 4
    field_h: 120
    field_w: 80
    downsample_rate: 16
    field_whr: 2
    field_xyr: 2
  }
}
layer {
  name: "LFCN_2_5x7"
  type: "Convolution"
  bottom: "conv5_3"
  top: "LFCN_2_5x7"
  param {
    lr_mult: 1
    decay_mult: 1
  }
  param {
    lr_mult: 2
    decay_mult: 0
  }
  convolution_param {
    num_output: 7
    weight_filler {
      type: "gaussian"
      std: 0.001
    }
    bias_filler {
      type: "constant"
    }
    pad_h: 3
    pad_w: 2
    kernel_h: 7
    kernel_w: 5
  }
}
layer {
  name: "detection_loss_2_5x7"
  type: "DetectionLoss"
  bottom: "LFCN_2_5x7"
  bottom: "label_2_5x7"
  top: "loss_2_5x7"
  detection_loss_param {
    cls_num: 3
    coord_num: 4
    lambda: 0.5
    field_h: 168
    field_w: 112
    downsample_rate: 16
    bb_smooth: true
    field_whr: 2
    field_xyr: 2
    bg_threshold: 0.2
    bg_multiple: 2
    sample_mode: "random"
    pos_neg_weighted: true
  }
}
layer {
  name: "detection_accuracy_2_5x7"
  type: "DetectionAccuracy"
  bottom: "LFCN_2_5x7"
  bottom: "label_2_5x7"
  top: "accuracy_2_5x7"
  top: "boxiou_2_5x7"
  detection_accuracy_param {
    cls_num: 3
    coord_num: 4
    field_h: 168
    field_w: 112
    downsample_rate: 16
    field_whr: 2
    field_xyr: 2
  }
}
layer {
  name: "pool5"
  type: "Pooling"
  bottom: "conv5_3"
  top: "pool5"
  pooling_param {
    pool: MAX
    kernel_size: 2
    stride: 2
  }
}
layer {
  name: "conv6_1"
  type: "Convolution"
  bottom: "pool5"
  top: "conv6_1"
  param {
    lr_mult: 1
    decay_mult: 1
  }
  param {
    lr_mult: 2
    decay_mult: 0
  }
  convolution_param {
    num_output: 512
    pad: 1
    kernel_size: 3
    weight_filler {
      type: "gaussian"
      std: 0.01
    }
    bias_filler {
      type: "constant"
    }
  }
}
layer {
  name: "relu6_1"
  type: "ReLU"
  bottom: "conv6_1"
  top: "conv6_1"
}
layer {
  name: "LFCN_3_3x5"
  type: "Convolution"
  bottom: "conv6_1"
  top: "LFCN_3_3x5"
  param {
    lr_mult: 1
    decay_mult: 1
  }
  param {
    lr_mult: 2
    decay_mult: 0
  }
  convolution_param {
    num_output: 7
    weight_filler {
      type: "gaussian"
      std: 0.001
    }
    bias_filler {
      type: "constant"
    }
    pad_h: 2
    pad_w: 1
    kernel_h: 5
    kernel_w: 3
  }
}
layer {
  name: "detection_loss_3_3x5"
  type: "DetectionLoss"
  bottom: "LFCN_3_3x5"
  bottom: "label_3_3x5"
  top: "loss_3_3x5"
  detection_loss_param {
    cls_num: 3
    coord_num: 4
    lambda: 0.5
    field_h: 240
    field_w: 160
    downsample_rate: 32
    bb_smooth: true
    field_whr: 2
    field_xyr: 2
    bg_threshold: 0.2
    bg_multiple: 2
    sample_mode: "random"
    pos_neg_weighted: true
  }
}
layer {
  name: "detection_accuracy_3_3x5"
  type: "DetectionAccuracy"
  bottom: "LFCN_3_3x5"
  bottom: "label_3_3x5"
  top: "accuracy_3_3x5"
  top: "boxiou_3_3x5"
  detection_accuracy_param {
    cls_num: 3
    coord_num: 4
    field_h: 240
    field_w: 160
    downsample_rate: 32
    field_whr: 2
    field_xyr: 2
  }
}
layer {
  name: "LFCN_3_5x7"
  type: "Convolution"
  bottom: "conv6_1"
  top: "LFCN_3_5x7"
  param {
    lr_mult: 1
    decay_mult: 1
  }
  param {
    lr_mult: 2
    decay_mult: 0
  }
  convolution_param {
    num_output: 7
    weight_filler {
      type: "gaussian"
      std: 0.001
    }
    bias_filler {
      type: "constant"
    }
    pad_h: 3
    pad_w: 2
    kernel_h: 7
    kernel_w: 5
  }
}
layer {
  name: "detection_loss_3_5x7"
  type: "DetectionLoss"
  bottom: "LFCN_3_5x7"
  bottom: "label_3_5x7"
  top: "loss_3_5x7"
  detection_loss_param {
    cls_num: 3
    coord_num: 4
    lambda: 0.5
    field_h: 336
    field_w: 224
    downsample_rate: 32
    bb_smooth: true
    field_whr: 2
    field_xyr: 2
    bg_threshold: 0.2
    bg_multiple: 2
    sample_mode: "random"
    pos_neg_weighted: true
  }
}
layer {
  name: "detection_accuracy_3_5x7"
  type: "DetectionAccuracy"
  bottom: "LFCN_3_5x7"
  bottom: "label_3_5x7"
  top: "accuracy_3_5x7"
  top: "boxiou_3_5x7"
  detection_accuracy_param {
    cls_num: 3
    coord_num: 4
    field_h: 336
    field_w: 224
    downsample_rate: 32
    field_whr: 2
    field_xyr: 2
  }
}
layer {
  name: "pool6"
  type: "Pooling"
  bottom: "conv6_1"
  top: "pool6"
  pooling_param {
    pool: MAX
    kernel_size: 2
    stride: 2
  }
}
layer {
  name: "LFCN_4_3x5"
  type: "Convolution"
  bottom: "pool6"
  top: "LFCN_4_3x5"
  param {
    lr_mult: 1
    decay_mult: 1
  }
  param {
    lr_mult: 2
    decay_mult: 0
  }
  convolution_param {
    num_output: 7
    weight_filler {
      type: "gaussian"
      std: 0.001
    }
    bias_filler {
      type: "constant"
    }
    pad_h: 2
    pad_w: 1
    kernel_h: 5
    kernel_w: 3
  }
}
layer {
  name: "detection_loss_4_3x5"
  type: "DetectionLoss"
  bottom: "LFCN_4_3x5"
  bottom: "label_4_3x5"
  top: "loss_4_3x5"
  detection_loss_param {
    cls_num: 3
    coord_num: 4
    lambda: 0.5
    field_h: 480
    field_w: 360
    downsample_rate: 64
    bb_smooth: true
    field_whr: 2
    field_xyr: 2
    bg_threshold: 0.2
    bg_multiple: 2
    sample_mode: "random"
    pos_neg_weighted: true
  }
}
layer {
  name: "detection_accuracy_4_3x5"
  type: "DetectionAccuracy"
  bottom: "LFCN_4_3x5"
  bottom: "label_4_3x5"
  top: "accuracy_4_3x5"
  top: "boxiou_4_3x5"
  detection_accuracy_param {
    cls_num: 3
    coord_num: 4
    field_h: 480
    field_w: 360
    downsample_rate: 64
    field_whr: 2
    field_xyr: 2
  }
}
I1029 17:39:38.415024 10950 layer_factory.hpp:77] Creating layer data
I1029 17:39:38.415061 10950 net.cpp:100] Creating Layer data
I1029 17:39:38.415069 10950 net.cpp:408] data -> data
…
I1029 17:39:38.444357 10950 image_gt_data_layer.cpp:235] output label size 1 : 4,6,72,96
I1029 17:39:38.444396 10950 image_gt_data_layer.cpp:235] output label size 2 : 4,6,36,48
I1029 17:39:38.444432 10950 image_gt_data_layer.cpp:235] output label size 3 : 4,6,36,48
I1029 17:39:38.444469 10950 image_gt_data_layer.cpp:235] output label size 4 : 4,6,18,24
I1029 17:39:38.444506 10950 image_gt_data_layer.cpp:235] output label size 5 : 4,6,18,24
I1029 17:39:38.444545 10950 image_gt_data_layer.cpp:235] output label size 6 : 4,6,9,12
I1029 17:39:38.481580 10950 net.cpp:150] Setting up data
I1029 17:39:38.481607 10950 net.cpp:157] Top shape: 4 3 576 768 (5308416)
I1029 17:39:38.481611 10950 net.cpp:157] Top shape: 4 6 72 96 (165888)
I1029 17:39:38.481614 10950 net.cpp:157] Top shape: 4 6 72 96 (165888)
I1029 17:39:38.481617 10950 net.cpp:157] Top shape: 4 6 36 48 (41472)
I1029 17:39:38.481621 10950 net.cpp:157] Top shape: 4 6 36 48 (41472)
I1029 17:39:38.481623 10950 net.cpp:157] Top shape: 4 6 18 24 (10368)
I1029 17:39:38.481626 10950 net.cpp:157] Top shape: 4 6 18 24 (10368)
I1029 17:39:38.481628 10950 net.cpp:157] Top shape: 4 6 9 12 (2592)
I1029 17:39:38.481631 10950 net.cpp:165] Memory required for data: 22985856
I1029 17:39:38.481637 10950 layer_factory.hpp:77] Creating layer label_1_3x5_data_1_split
I1029 17:39:38.481649 10950 net.cpp:100] Creating Layer label_1_3x5_data_1_split
I1029 17:39:38.481654 10950 net.cpp:434] label_1_3x5_data_1_split <- label_1_3x5
I1029 17:39:38.481665 10950 net.cpp:408] label_1_3x5_data_1_split -> label_1_3x5_data_1_split_0
I1029 17:39:38.481675 10950 net.cpp:408] label_1_3x5_data_1_split -> label_1_3x5_data_1_split_1
I1029 17:39:38.481734 10950 net.cpp:150] Setting up label_1_3x5_data_1_split
I1029 17:39:38.481741 10950 net.cpp:157] Top shape: 4 6 72 96 (165888)
I1029 17:39:38.481745 10950 net.cpp:157] Top shape: 4 6 72 96 (165888)
I1029 17:39:38.481746 10950 net.cpp:165] Memory required for data: 24312960
I1029 17:39:38.481748 10950 layer_factory.hpp:77] Creating layer label_1_5x7_data_2_split
I1029 17:39:38.481755 10950 net.cpp:100] Creating Layer label_1_5x7_data_2_split
I1029 17:39:38.481756 10950 net.cpp:434] label_1_5x7_data_2_split <- label_1_5x7
I1029 17:39:38.481760 10950 net.cpp:408] label_1_5x7_data_2_split -> label_1_5x7_data_2_split_0
I1029 17:39:38.481765 10950 net.cpp:408] label_1_5x7_data_2_split -> label_1_5x7_data_2_split_1
I1029 17:39:38.481789 10950 net.cpp:150] Setting up label_1_5x7_data_2_split
I1029 17:39:38.481794 10950 net.cpp:157] Top shape: 4 6 72 96 (165888)
I1029 17:39:38.481798 10950 net.cpp:157] Top shape: 4 6 72 96 (165888)
I1029 17:39:38.481799 10950 net.cpp:165] Memory required for data: 25640064
I1029 17:39:38.481802 10950 layer_factory.hpp:77] Creating layer label_2_3x5_data_3_split
I1029 17:39:38.481806 10950 net.cpp:100] Creating Layer label_2_3x5_data_3_split
I1029 17:39:38.481808 10950 net.cpp:434] label_2_3x5_data_3_split <- label_2_3x5
I1029 17:39:38.481812 10950 net.cpp:408] label_2_3x5_data_3_split -> label_2_3x5_data_3_split_0
I1029 17:39:38.481817 10950 net.cpp:408] label_2_3x5_data_3_split -> label_2_3x5_data_3_split_1
I1029 17:39:38.481838 10950 net.cpp:150] Setting up label_2_3x5_data_3_split
I1029 17:39:38.481843 10950 net.cpp:157] Top shape: 4 6 36 48 (41472)
I1029 17:39:38.481848 10950 net.cpp:157] Top shape: 4 6 36 48 (41472)
I1029 17:39:38.481849 10950 net.cpp:165] Memory required for data: 25971840
I1029 17:39:38.481851 10950 layer_factory.hpp:77] Creating layer label_2_5x7_data_4_split
I1029 17:39:38.481856 10950 net.cpp:100] Creating Layer label_2_5x7_data_4_split
I1029 17:39:38.481858 10950 net.cpp:434] label_2_5x7_data_4_split <- label_2_5x7
I1029 17:39:38.481863 10950 net.cpp:408] label_2_5x7_data_4_split -> label_2_5x7_data_4_split_0
I1029 17:39:38.481868 10950 net.cpp:408] label_2_5x7_data_4_split -> label_2_5x7_data_4_split_1
I1029 17:39:38.481892 10950 net.cpp:150] Setting up label_2_5x7_data_4_split
I1029 17:39:38.481899 10950 net.cpp:157] Top shape: 4 6 36 48 (41472)
I1029 17:39:38.481901 10950 net.cpp:157] Top shape: 4 6 36 48 (41472)
I1029 17:39:38.481904 10950 net.cpp:165] Memory required for data: 26303616
I1029 17:39:38.481905 10950 layer_factory.hpp:77] Creating layer label_3_3x5_data_5_split
I1029 17:39:38.481909 10950 net.cpp:100] Creating Layer label_3_3x5_data_5_split
I1029 17:39:38.481911 10950 net.cpp:434] label_3_3x5_data_5_split <- label_3_3x5
I1029 17:39:38.481916 10950 net.cpp:408] label_3_3x5_data_5_split -> label_3_3x5_data_5_split_0
I1029 17:39:38.481923 10950 net.cpp:408] label_3_3x5_data_5_split -> label_3_3x5_data_5_split_1
I1029 17:39:38.481947 10950 net.cpp:150] Setting up label_3_3x5_data_5_split
I1029 17:39:38.481953 10950 net.cpp:157] Top shape: 4 6 18 24 (10368)
I1029 17:39:38.481956 10950 net.cpp:157] Top shape: 4 6 18 24 (10368)
I1029 17:39:38.481958 10950 net.cpp:165] Memory required for data: 26386560
I1029 17:39:38.481961 10950 layer_factory.hpp:77] Creating layer label_3_5x7_data_6_split
I1029 17:39:38.481966 10950 net.cpp:100] Creating Layer label_3_5x7_data_6_split
I1029 17:39:38.481967 10950 net.cpp:434] label_3_5x7_data_6_split <- label_3_5x7
I1029 17:39:38.481971 10950 net.cpp:408] label_3_5x7_data_6_split -> label_3_5x7_data_6_split_0
I1029 17:39:38.481976 10950 net.cpp:408] label_3_5x7_data_6_split -> label_3_5x7_data_6_split_1
I1029 17:39:38.482002 10950 net.cpp:150] Setting up label_3_5x7_data_6_split
I1029 17:39:38.482007 10950 net.cpp:157] Top shape: 4 6 18 24 (10368)
I1029 17:39:38.482010 10950 net.cpp:157] Top shape: 4 6 18 24 (10368)
I1029 17:39:38.482012 10950 net.cpp:165] Memory required for data: 26469504
I1029 17:39:38.482014 10950 layer_factory.hpp:77] Creating layer label_4_3x5_data_7_split
I1029 17:39:38.482019 10950 net.cpp:100] Creating Layer label_4_3x5_data_7_split
I1029 17:39:38.482022 10950 net.cpp:434] label_4_3x5_data_7_split <- label_4_3x5
I1029 17:39:38.482024 10950 net.cpp:408] label_4_3x5_data_7_split -> label_4_3x5_data_7_split_0
I1029 17:39:38.482030 10950 net.cpp:408] label_4_3x5_data_7_split -> label_4_3x5_data_7_split_1
I1029 17:39:38.482053 10950 net.cpp:150] Setting up label_4_3x5_data_7_split
I1029 17:39:38.482059 10950 net.cpp:157] Top shape: 4 6 9 12 (2592)
I1029 17:39:38.482062 10950 net.cpp:157] Top shape: 4 6 9 12 (2592)
I1029 17:39:38.482064 10950 net.cpp:165] Memory required for data: 26490240
I1029 17:39:38.482066 10950 layer_factory.hpp:77] Creating layer conv1_1
I1029 17:39:38.482079 10950 net.cpp:100] Creating Layer conv1_1
I1029 17:39:38.482084 10950 net.cpp:434] conv1_1 <- data
I1029 17:39:38.482087 10950 net.cpp:408] conv1_1 -> conv1_1
I1029 17:39:38.740370 10950 net.cpp:150] Setting up conv1_1
I1029 17:39:38.740393 10950 net.cpp:157] Top shape: 4 64 576 768 (113246208)
I1029 17:39:38.740396 10950 net.cpp:165] Memory required for data: 479475072
I1029 17:39:38.740414 10950 layer_factory.hpp:77] Creating layer relu1_1
I1029 17:39:38.740423 10950 net.cpp:100] Creating Layer relu1_1
I1029 17:39:38.740427 10950 net.cpp:434] relu1_1 <- conv1_1
I1029 17:39:38.740430 10950 net.cpp:395] relu1_1 -> conv1_1 (in-place)
I1029 17:39:38.740572 10950 net.cpp:150] Setting up relu1_1
I1029 17:39:38.740581 10950 net.cpp:157] Top shape: 4 64 576 768 (113246208)
I1029 17:39:38.740583 10950 net.cpp:165] Memory required for data: 932459904
I1029 17:39:38.740586 10950 layer_factory.hpp:77] Creating layer conv1_2
I1029 17:39:38.740592 10950 net.cpp:100] Creating Layer conv1_2
I1029 17:39:38.740594 10950 net.cpp:434] conv1_2 <- conv1_1
I1029 17:39:38.740598 10950 net.cpp:408] conv1_2 -> conv1_2
I1029 17:39:38.742725 10950 net.cpp:150] Setting up conv1_2
I1029 17:39:38.742738 10950 net.cpp:157] Top shape: 4 64 576 768 (113246208)
I1029 17:39:38.742739 10950 net.cpp:165] Memory required for data: 1385444736
I1029 17:39:38.742746 10950 layer_factory.hpp:77] Creating layer relu1_2
I1029 17:39:38.742751 10950 net.cpp:100] Creating Layer relu1_2
I1029 17:39:38.742753 10950 net.cpp:434] relu1_2 <- conv1_2
I1029 17:39:38.742758 10950 net.cpp:395] relu1_2 -> conv1_2 (in-place)
I1029 17:39:38.742893 10950 net.cpp:150] Setting up relu1_2
I1029 17:39:38.742900 10950 net.cpp:157] Top shape: 4 64 576 768 (113246208)
I1029 17:39:38.742903 10950 net.cpp:165] Memory required for data: 1838429568
I1029 17:39:38.742905 10950 layer_factory.hpp:77] Creating layer pool1
I1029 17:39:38.742911 10950 net.cpp:100] Creating Layer pool1
I1029 17:39:38.742913 10950 net.cpp:434] pool1 <- conv1_2
I1029 17:39:38.742918 10950 net.cpp:408] pool1 -> pool1
I1029 17:39:38.742956 10950 net.cpp:150] Setting up pool1
I1029 17:39:38.742962 10950 net.cpp:157] Top shape: 4 64 288 384 (28311552)
I1029 17:39:38.742964 10950 net.cpp:165] Memory required for data: 1951675776
I1029 17:39:38.742966 10950 layer_factory.hpp:77] Creating layer conv2_1
I1029 17:39:38.742971 10950 net.cpp:100] Creating Layer conv2_1
I1029 17:39:38.742974 10950 net.cpp:434] conv2_1 <- pool1
I1029 17:39:38.742976 10950 net.cpp:408] conv2_1 -> conv2_1
I1029 17:39:38.744945 10950 net.cpp:150] Setting up conv2_1
I1029 17:39:38.744956 10950 net.cpp:157] Top shape: 4 128 288 384 (56623104)
I1029 17:39:38.744958 10950 net.cpp:165] Memory required for data: 2178168192
I1029 17:39:38.744966 10950 layer_factory.hpp:77] Creating layer relu2_1
I1029 17:39:38.744971 10950 net.cpp:100] Creating Layer relu2_1
I1029 17:39:38.744972 10950 net.cpp:434] relu2_1 <- conv2_1
I1029 17:39:38.744976 10950 net.cpp:395] relu2_1 -> conv2_1 (in-place)
I1029 17:39:38.745113 10950 net.cpp:150] Setting up relu2_1
I1029 17:39:38.745121 10950 net.cpp:157] Top shape: 4 128 288 384 (56623104)
I1029 17:39:38.745123 10950 net.cpp:165] Memory required for data: 2404660608
I1029 17:39:38.745126 10950 layer_factory.hpp:77] Creating layer conv2_2
I1029 17:39:38.745131 10950 net.cpp:100] Creating Layer conv2_2
I1029 17:39:38.745133 10950 net.cpp:434] conv2_2 <- conv2_1
I1029 17:39:38.745137 10950 net.cpp:408] conv2_2 -> conv2_2
I1029 17:39:38.746390 10950 net.cpp:150] Setting up conv2_2
I1029 17:39:38.746402 10950 net.cpp:157] Top shape: 4 128 288 384 (56623104)
I1029 17:39:38.746404 10950 net.cpp:165] Memory required for data: 2631153024
I1029 17:39:38.746409 10950 layer_factory.hpp:77] Creating layer relu2_2
I1029 17:39:38.746417 10950 net.cpp:100] Creating Layer relu2_2
I1029 17:39:38.746419 10950 net.cpp:434] relu2_2 <- conv2_2
I1029 17:39:38.746423 10950 net.cpp:395] relu2_2 -> conv2_2 (in-place)
I1029 17:39:38.746562 10950 net.cpp:150] Setting up relu2_2
I1029 17:39:38.746570 10950 net.cpp:157] Top shape: 4 128 288 384 (56623104)
I1029 17:39:38.746572 10950 net.cpp:165] Memory required for data: 2857645440
I1029 17:39:38.746574 10950 layer_factory.hpp:77] Creating layer pool2
I1029 17:39:38.746578 10950 net.cpp:100] Creating Layer pool2
I1029 17:39:38.746580 10950 net.cpp:434] pool2 <- conv2_2
I1029 17:39:38.746584 10950 net.cpp:408] pool2 -> pool2
I1029 17:39:38.746618 10950 net.cpp:150] Setting up pool2
I1029 17:39:38.746623 10950 net.cpp:157] Top shape: 4 128 144 192 (14155776)
I1029 17:39:38.746624 10950 net.cpp:165] Memory required for data: 2914268544
I1029 17:39:38.746626 10950 layer_factory.hpp:77] Creating layer conv3_1
I1029 17:39:38.746631 10950 net.cpp:100] Creating Layer conv3_1
I1029 17:39:38.746634 10950 net.cpp:434] conv3_1 <- pool2
I1029 17:39:38.746636 10950 net.cpp:408] conv3_1 -> conv3_1
I1029 17:39:38.748673 10950 net.cpp:150] Setting up conv3_1
I1029 17:39:38.748685 10950 net.cpp:157] Top shape: 4 256 144 192 (28311552)
I1029 17:39:38.748687 10950 net.cpp:165] Memory required for data: 3027514752
I1029 17:39:38.748695 10950 layer_factory.hpp:77] Creating layer relu3_1
I1029 17:39:38.748699 10950 net.cpp:100] Creating Layer relu3_1
I1029 17:39:38.748703 10950 net.cpp:434] relu3_1 <- conv3_1
I1029 17:39:38.748705 10950 net.cpp:395] relu3_1 -> conv3_1 (in-place)
I1029 17:39:38.749135 10950 net.cpp:150] Setting up relu3_1
I1029 17:39:38.749146 10950 net.cpp:157] Top shape: 4 256 144 192 (28311552)
I1029 17:39:38.749148 10950 net.cpp:165] Memory required for data: 3140760960
I1029 17:39:38.749150 10950 layer_factory.hpp:77] Creating layer conv3_2
I1029 17:39:38.749156 10950 net.cpp:100] Creating Layer conv3_2
I1029 17:39:38.749158 10950 net.cpp:434] conv3_2 <- conv3_1
I1029 17:39:38.749163 10950 net.cpp:408] conv3_2 -> conv3_2
I1029 17:39:38.751138 10950 net.cpp:150] Setting up conv3_2
I1029 17:39:38.751149 10950 net.cpp:157] Top shape: 4 256 144 192 (28311552)
I1029 17:39:38.751152 10950 net.cpp:165] Memory required for data: 3254007168
I1029 17:39:38.751157 10950 layer_factory.hpp:77] Creating layer relu3_2
I1029 17:39:38.751161 10950 net.cpp:100] Creating Layer relu3_2
I1029 17:39:38.751164 10950 net.cpp:434] relu3_2 <- conv3_2
I1029 17:39:38.751168 10950 net.cpp:395] relu3_2 -> conv3_2 (in-place)
I1029 17:39:38.751581 10950 net.cpp:150] Setting up relu3_2
I1029 17:39:38.751591 10950 net.cpp:157] Top shape: 4 256 144 192 (28311552)
I1029 17:39:38.751593 10950 net.cpp:165] Memory required for data: 3367253376
I1029 17:39:38.751595 10950 layer_factory.hpp:77] Creating layer conv3_3
I1029 17:39:38.751602 10950 net.cpp:100] Creating Layer conv3_3
I1029 17:39:38.751605 10950 net.cpp:434] conv3_3 <- conv3_2
I1029 17:39:38.751608 10950 net.cpp:408] conv3_3 -> conv3_3
I1029 17:39:38.753899 10950 net.cpp:150] Setting up conv3_3
I1029 17:39:38.753911 10950 net.cpp:157] Top shape: 4 256 144 192 (28311552)
I1029 17:39:38.753913 10950 net.cpp:165] Memory required for data: 3480499584
I1029 17:39:38.753918 10950 layer_factory.hpp:77] Creating layer relu3_3
I1029 17:39:38.753923 10950 net.cpp:100] Creating Layer relu3_3
I1029 17:39:38.753926 10950 net.cpp:434] relu3_3 <- conv3_3
I1029 17:39:38.753929 10950 net.cpp:395] relu3_3 -> conv3_3 (in-place)
I1029 17:39:38.754065 10950 net.cpp:150] Setting up relu3_3
I1029 17:39:38.754071 10950 net.cpp:157] Top shape: 4 256 144 192 (28311552)
I1029 17:39:38.754073 10950 net.cpp:165] Memory required for data: 3593745792
I1029 17:39:38.754076 10950 layer_factory.hpp:77] Creating layer pool3
I1029 17:39:38.754081 10950 net.cpp:100] Creating Layer pool3
I1029 17:39:38.754082 10950 net.cpp:434] pool3 <- conv3_3
I1029 17:39:38.754086 10950 net.cpp:408] pool3 -> pool3
I1029 17:39:38.754120 10950 net.cpp:150] Setting up pool3
I1029 17:39:38.754127 10950 net.cpp:157] Top shape: 4 256 72 96 (7077888)
I1029 17:39:38.754128 10950 net.cpp:165] Memory required for data: 3622057344
I1029 17:39:38.754130 10950 layer_factory.hpp:77] Creating layer conv4_1
I1029 17:39:38.754135 10950 net.cpp:100] Creating Layer conv4_1
I1029 17:39:38.754137 10950 net.cpp:434] conv4_1 <- pool3
I1029 17:39:38.754140 10950 net.cpp:408] conv4_1 -> conv4_1
I1029 17:39:38.758354 10950 net.cpp:150] Setting up conv4_1
I1029 17:39:38.758373 10950 net.cpp:157] Top shape: 4 512 72 96 (14155776)
I1029 17:39:38.758375 10950 net.cpp:165] Memory required for data: 3678680448
I1029 17:39:38.758383 10950 layer_factory.hpp:77] Creating layer relu4_1
I1029 17:39:38.758390 10950 net.cpp:100] Creating Layer relu4_1
I1029 17:39:38.758394 10950 net.cpp:434] relu4_1 <- conv4_1
I1029 17:39:38.758397 10950 net.cpp:395] relu4_1 -> conv4_1 (in-place)
I1029 17:39:38.758543 10950 net.cpp:150] Setting up relu4_1
I1029 17:39:38.758551 10950 net.cpp:157] Top shape: 4 512 72 96 (14155776)
I1029 17:39:38.758553 10950 net.cpp:165] Memory required for data: 3735303552
I1029 17:39:38.758556 10950 layer_factory.hpp:77] Creating layer conv4_2
I1029 17:39:38.758563 10950 net.cpp:100] Creating Layer conv4_2
I1029 17:39:38.758564 10950 net.cpp:434] conv4_2 <- conv4_1
I1029 17:39:38.758569 10950 net.cpp:408] conv4_2 -> conv4_2
I1029 17:39:38.763365 10950 net.cpp:150] Setting up conv4_2
I1029 17:39:38.763387 10950 net.cpp:157] Top shape: 4 512 72 96 (14155776)
I1029 17:39:38.763391 10950 net.cpp:165] Memory required for data: 3791926656
I1029 17:39:38.763402 10950 layer_factory.hpp:77] Creating layer relu4_2
I1029 17:39:38.763411 10950 net.cpp:100] Creating Layer relu4_2
I1029 17:39:38.763414 10950 net.cpp:434] relu4_2 <- conv4_2
I1029 17:39:38.763420 10950 net.cpp:395] relu4_2 -> conv4_2 (in-place)
I1029 17:39:38.763552 10950 net.cpp:150] Setting up relu4_2
I1029 17:39:38.763561 10950 net.cpp:157] Top shape: 4 512 72 96 (14155776)
I1029 17:39:38.763562 10950 net.cpp:165] Memory required for data: 3848549760
I1029 17:39:38.763566 10950 layer_factory.hpp:77] Creating layer conv4_3
I1029 17:39:38.763571 10950 net.cpp:100] Creating Layer conv4_3
I1029 17:39:38.763573 10950 net.cpp:434] conv4_3 <- conv4_2
I1029 17:39:38.763577 10950 net.cpp:408] conv4_3 -> conv4_3
I1029 17:39:38.768007 10950 net.cpp:150] Setting up conv4_3
I1029 17:39:38.768025 10950 net.cpp:157] Top shape: 4 512 72 96 (14155776)
I1029 17:39:38.768028 10950 net.cpp:165] Memory required for data: 3905172864
I1029 17:39:38.768034 10950 layer_factory.hpp:77] Creating layer relu4_3
I1029 17:39:38.768040 10950 net.cpp:100] Creating Layer relu4_3
I1029 17:39:38.768043 10950 net.cpp:434] relu4_3 <- conv4_3
I1029 17:39:38.768048 10950 net.cpp:395] relu4_3 -> conv4_3 (in-place)
I1029 17:39:38.768182 10950 net.cpp:150] Setting up relu4_3
I1029 17:39:38.768190 10950 net.cpp:157] Top shape: 4 512 72 96 (14155776)
I1029 17:39:38.768193 10950 net.cpp:165] Memory required for data: 3961795968
I1029 17:39:38.768194 10950 layer_factory.hpp:77] Creating layer conv4_3_relu4_3_0_split
I1029 17:39:38.768199 10950 net.cpp:100] Creating Layer conv4_3_relu4_3_0_split
I1029 17:39:38.768201 10950 net.cpp:434] conv4_3_relu4_3_0_split <- conv4_3
I1029 17:39:38.768205 10950 net.cpp:408] conv4_3_relu4_3_0_split -> conv4_3_relu4_3_0_split_0
I1029 17:39:38.768210 10950 net.cpp:408] conv4_3_relu4_3_0_split -> conv4_3_relu4_3_0_split_1
I1029 17:39:38.768242 10950 net.cpp:150] Setting up conv4_3_relu4_3_0_split
I1029 17:39:38.768247 10950 net.cpp:157] Top shape: 4 512 72 96 (14155776)
I1029 17:39:38.768250 10950 net.cpp:157] Top shape: 4 512 72 96 (14155776)
I1029 17:39:38.768252 10950 net.cpp:165] Memory required for data: 4075042176
I1029 17:39:38.768254 10950 layer_factory.hpp:77] Creating layer loss1_conv1
I1029 17:39:38.768267 10950 net.cpp:100] Creating Layer loss1_conv1
I1029 17:39:38.768271 10950 net.cpp:434] loss1_conv1 <- conv4_3_relu4_3_0_split_0
I1029 17:39:38.768275 10950 net.cpp:408] loss1_conv1 -> loss1_conv1
I1029 17:39:38.789836 10950 net.cpp:150] Setting up loss1_conv1
I1029 17:39:38.789860 10950 net.cpp:157] Top shape: 4 512 72 96 (14155776)
I1029 17:39:38.789863 10950 net.cpp:165] Memory required for data: 4131665280
I1029 17:39:38.789871 10950 layer_factory.hpp:77] Creating layer loss_relu1
I1029 17:39:38.789878 10950 net.cpp:100] Creating Layer loss_relu1
I1029 17:39:38.789883 10950 net.cpp:434] loss_relu1 <- loss1_conv1
I1029 17:39:38.789890 10950 net.cpp:395] loss_relu1 -> loss1_conv1 (in-place)
I1029 17:39:38.790377 10950 net.cpp:150] Setting up loss_relu1
I1029 17:39:38.790388 10950 net.cpp:157] Top shape: 4 512 72 96 (14155776)
I1029 17:39:38.790390 10950 net.cpp:165] Memory required for data: 4188288384
I1029 17:39:38.790393 10950 layer_factory.hpp:77] Creating layer loss1_conv1_loss_relu1_0_split
I1029 17:39:38.790398 10950 net.cpp:100] Creating Layer loss1_conv1_loss_relu1_0_split
I1029 17:39:38.790400 10950 net.cpp:434] loss1_conv1_loss_relu1_0_split <- loss1_conv1
I1029 17:39:38.790405 10950 net.cpp:408] loss1_conv1_loss_relu1_0_split -> loss1_conv1_loss_relu1_0_split_0
I1029 17:39:38.790411 10950 net.cpp:408] loss1_conv1_loss_relu1_0_split -> loss1_conv1_loss_relu1_0_split_1
I1029 17:39:38.790457 10950 net.cpp:150] Setting up loss1_conv1_loss_relu1_0_split
I1029 17:39:38.790464 10950 net.cpp:157] Top shape: 4 512 72 96 (14155776)
I1029 17:39:38.790467 10950 net.cpp:157] Top shape: 4 512 72 96 (14155776)
I1029 17:39:38.790469 10950 net.cpp:165] Memory required for data: 4301534592
I1029 17:39:38.790472 10950 layer_factory.hpp:77] Creating layer LFCN_1_3x5
I1029 17:39:38.790479 10950 net.cpp:100] Creating Layer LFCN_1_3x5
I1029 17:39:38.790482 10950 net.cpp:434] LFCN_1_3x5 <- loss1_conv1_loss_relu1_0_split_0
I1029 17:39:38.790488 10950 net.cpp:408] LFCN_1_3x5 -> LFCN_1_3x5
I1029 17:39:38.791512 10950 net.cpp:150] Setting up LFCN_1_3x5
I1029 17:39:38.791522 10950 net.cpp:157] Top shape: 4 7 72 96 (193536)
I1029 17:39:38.791523 10950 net.cpp:165] Memory required for data: 4302308736
I1029 17:39:38.791528 10950 layer_factory.hpp:77] Creating layer LFCN_1_3x5_LFCN_1_3x5_0_split
I1029 17:39:38.791533 10950 net.cpp:100] Creating Layer LFCN_1_3x5_LFCN_1_3x5_0_split
I1029 17:39:38.791535 10950 net.cpp:434] LFCN_1_3x5_LFCN_1_3x5_0_split <- LFCN_1_3x5
I1029 17:39:38.791539 10950 net.cpp:408] LFCN_1_3x5_LFCN_1_3x5_0_split -> LFCN_1_3x5_LFCN_1_3x5_0_split_0
I1029 17:39:38.791544 10950 net.cpp:408] LFCN_1_3x5_LFCN_1_3x5_0_split -> LFCN_1_3x5_LFCN_1_3x5_0_split_1
I1029 17:39:38.791574 10950 net.cpp:150] Setting up LFCN_1_3x5_LFCN_1_3x5_0_split
I1029 17:39:38.791579 10950 net.cpp:157] Top shape: 4 7 72 96 (193536)
I1029 17:39:38.791581 10950 net.cpp:157] Top shape: 4 7 72 96 (193536)
I1029 17:39:38.791584 10950 net.cpp:165] Memory required for data: 4303857024
I1029 17:39:38.791585 10950 layer_factory.hpp:77] Creating layer detection_loss_1_3x5
I1029 17:39:38.791599 10950 net.cpp:100] Creating Layer detection_loss_1_3x5
I1029 17:39:38.791604 10950 net.cpp:434] detection_loss_1_3x5 <- LFCN_1_3x5_LFCN_1_3x5_0_split_0
I1029 17:39:38.791607 10950 net.cpp:434] detection_loss_1_3x5 <- label_1_3x5_data_1_split_0
I1029 17:39:38.791611 10950 net.cpp:408] detection_loss_1_3x5 -> loss_1_3x5
I1029 17:39:38.791620 10950 layer_factory.hpp:77] Creating layer detection_loss_1_3x5
I1029 17:39:38.792273 10950 net.cpp:150] Setting up detection_loss_1_3x5
I1029 17:39:38.792284 10950 net.cpp:157] Top shape: 1 1 1 2 (2)
I1029 17:39:38.792285 10950 net.cpp:160]     with loss weight 0.9
I1029 17:39:38.792301 10950 net.cpp:165] Memory required for data: 4303857032
I1029 17:39:38.792304 10950 layer_factory.hpp:77] Creating layer detection_accuracy_1_3x5
I1029 17:39:38.792310 10950 net.cpp:100] Creating Layer detection_accuracy_1_3x5
I1029 17:39:38.792313 10950 net.cpp:434] detection_accuracy_1_3x5 <- LFCN_1_3x5_LFCN_1_3x5_0_split_1
I1029 17:39:38.792317 10950 net.cpp:434] detection_accuracy_1_3x5 <- label_1_3x5_data_1_split_1
I1029 17:39:38.792321 10950 net.cpp:408] detection_accuracy_1_3x5 -> accuracy_1_3x5
I1029 17:39:38.792328 10950 net.cpp:408] detection_accuracy_1_3x5 -> boxiou_1_3x5
I1029 17:39:38.792367 10950 net.cpp:150] Setting up detection_accuracy_1_3x5
I1029 17:39:38.792373 10950 net.cpp:157] Top shape: 1 1 1 2 (2)
I1029 17:39:38.792376 10950 net.cpp:157] Top shape: 1 1 1 1 (1)
I1029 17:39:38.792378 10950 net.cpp:165] Memory required for data: 4303857044
I1029 17:39:38.792379 10950 layer_factory.hpp:77] Creating layer LFCN_1_5x7
I1029 17:39:38.792385 10950 net.cpp:100] Creating Layer LFCN_1_5x7
I1029 17:39:38.792388 10950 net.cpp:434] LFCN_1_5x7 <- loss1_conv1_loss_relu1_0_split_1
I1029 17:39:38.792392 10950 net.cpp:408] LFCN_1_5x7 -> LFCN_1_5x7
I1029 17:39:38.794466 10950 net.cpp:150] Setting up LFCN_1_5x7
I1029 17:39:38.794504 10950 net.cpp:157] Top shape: 4 7 72 96 (193536)
I1029 17:39:38.794522 10950 net.cpp:165] Memory required for data: 4304631188
I1029 17:39:38.794540 10950 layer_factory.hpp:77] Creating layer LFCN_1_5x7_LFCN_1_5x7_0_split
I1029 17:39:38.794559 10950 net.cpp:100] Creating Layer LFCN_1_5x7_LFCN_1_5x7_0_split
I1029 17:39:38.794576 10950 net.cpp:434] LFCN_1_5x7_LFCN_1_5x7_0_split <- LFCN_1_5x7
I1029 17:39:38.794595 10950 net.cpp:408] LFCN_1_5x7_LFCN_1_5x7_0_split -> LFCN_1_5x7_LFCN_1_5x7_0_split_0
I1029 17:39:38.794625 10950 net.cpp:408] LFCN_1_5x7_LFCN_1_5x7_0_split -> LFCN_1_5x7_LFCN_1_5x7_0_split_1
I1029 17:39:38.794692 10950 net.cpp:150] Setting up LFCN_1_5x7_LFCN_1_5x7_0_split
I1029 17:39:38.794713 10950 net.cpp:157] Top shape: 4 7 72 96 (193536)
I1029 17:39:38.794729 10950 net.cpp:157] Top shape: 4 7 72 96 (193536)
I1029 17:39:38.794742 10950 net.cpp:165] Memory required for data: 4306179476
I1029 17:39:38.794757 10950 layer_factory.hpp:77] Creating layer detection_loss_1_5x7
I1029 17:39:38.794775 10950 net.cpp:100] Creating Layer detection_loss_1_5x7
I1029 17:39:38.794791 10950 net.cpp:434] detection_loss_1_5x7 <- LFCN_1_5x7_LFCN_1_5x7_0_split_0
I1029 17:39:38.794808 10950 net.cpp:434] detection_loss_1_5x7 <- label_1_5x7_data_2_split_0
I1029 17:39:38.794826 10950 net.cpp:408] detection_loss_1_5x7 -> loss_1_5x7
I1029 17:39:38.794857 10950 layer_factory.hpp:77] Creating layer detection_loss_1_5x7
I1029 17:39:38.795351 10950 net.cpp:150] Setting up detection_loss_1_5x7
I1029 17:39:38.795361 10950 net.cpp:157] Top shape: 1 1 1 2 (2)
I1029 17:39:38.795363 10950 net.cpp:160]     with loss weight 0.9
I1029 17:39:38.795367 10950 net.cpp:165] Memory required for data: 4306179484
I1029 17:39:38.795370 10950 layer_factory.hpp:77] Creating layer detection_accuracy_1_5x7
I1029 17:39:38.795375 10950 net.cpp:100] Creating Layer detection_accuracy_1_5x7
I1029 17:39:38.795378 10950 net.cpp:434] detection_accuracy_1_5x7 <- LFCN_1_5x7_LFCN_1_5x7_0_split_1
I1029 17:39:38.795382 10950 net.cpp:434] detection_accuracy_1_5x7 <- label_1_5x7_data_2_split_1
I1029 17:39:38.795387 10950 net.cpp:408] detection_accuracy_1_5x7 -> accuracy_1_5x7
I1029 17:39:38.795392 10950 net.cpp:408] detection_accuracy_1_5x7 -> boxiou_1_5x7
I1029 17:39:38.795423 10950 net.cpp:150] Setting up detection_accuracy_1_5x7
I1029 17:39:38.795439 10950 net.cpp:157] Top shape: 1 1 1 2 (2)
I1029 17:39:38.795441 10950 net.cpp:157] Top shape: 1 1 1 1 (1)
I1029 17:39:38.795442 10950 net.cpp:165] Memory required for data: 4306179496
I1029 17:39:38.795444 10950 layer_factory.hpp:77] Creating layer pool4
I1029 17:39:38.795449 10950 net.cpp:100] Creating Layer pool4
I1029 17:39:38.795452 10950 net.cpp:434] pool4 <- conv4_3_relu4_3_0_split_1
I1029 17:39:38.795456 10950 net.cpp:408] pool4 -> pool4
I1029 17:39:38.795487 10950 net.cpp:150] Setting up pool4
I1029 17:39:38.795492 10950 net.cpp:157] Top shape: 4 512 36 48 (3538944)
I1029 17:39:38.795495 10950 net.cpp:165] Memory required for data: 4320335272
I1029 17:39:38.795496 10950 layer_factory.hpp:77] Creating layer conv5_1
I1029 17:39:38.795502 10950 net.cpp:100] Creating Layer conv5_1
I1029 17:39:38.795505 10950 net.cpp:434] conv5_1 <- pool4
I1029 17:39:38.795508 10950 net.cpp:408] conv5_1 -> conv5_1
I1029 17:39:38.800802 10950 net.cpp:150] Setting up conv5_1
I1029 17:39:38.800825 10950 net.cpp:157] Top shape: 4 512 36 48 (3538944)
I1029 17:39:38.800828 10950 net.cpp:165] Memory required for data: 4334491048
I1029 17:39:38.800837 10950 layer_factory.hpp:77] Creating layer relu5_1
I1029 17:39:38.800844 10950 net.cpp:100] Creating Layer relu5_1
I1029 17:39:38.800848 10950 net.cpp:434] relu5_1 <- conv5_1
I1029 17:39:38.800854 10950 net.cpp:395] relu5_1 -> conv5_1 (in-place)
I1029 17:39:38.801007 10950 net.cpp:150] Setting up relu5_1
I1029 17:39:38.801014 10950 net.cpp:157] Top shape: 4 512 36 48 (3538944)
I1029 17:39:38.801017 10950 net.cpp:165] Memory required for data: 4348646824
I1029 17:39:38.801018 10950 layer_factory.hpp:77] Creating layer conv5_2
I1029 17:39:38.801025 10950 net.cpp:100] Creating Layer conv5_2
I1029 17:39:38.801028 10950 net.cpp:434] conv5_2 <- conv5_1
I1029 17:39:38.801033 10950 net.cpp:408] conv5_2 -> conv5_2
I1029 17:39:38.806002 10950 net.cpp:150] Setting up conv5_2
I1029 17:39:38.806027 10950 net.cpp:157] Top shape: 4 512 36 48 (3538944)
I1029 17:39:38.806030 10950 net.cpp:165] Memory required for data: 4362802600
I1029 17:39:38.806038 10950 layer_factory.hpp:77] Creating layer relu5_2
I1029 17:39:38.806046 10950 net.cpp:100] Creating Layer relu5_2
I1029 17:39:38.806051 10950 net.cpp:434] relu5_2 <- conv5_2
I1029 17:39:38.806056 10950 net.cpp:395] relu5_2 -> conv5_2 (in-place)
I1029 17:39:38.806198 10950 net.cpp:150] Setting up relu5_2
I1029 17:39:38.806205 10950 net.cpp:157] Top shape: 4 512 36 48 (3538944)
I1029 17:39:38.806207 10950 net.cpp:165] Memory required for data: 4376958376
I1029 17:39:38.806210 10950 layer_factory.hpp:77] Creating layer conv5_3
I1029 17:39:38.806216 10950 net.cpp:100] Creating Layer conv5_3
I1029 17:39:38.806219 10950 net.cpp:434] conv5_3 <- conv5_2
I1029 17:39:38.806223 10950 net.cpp:408] conv5_3 -> conv5_3
I1029 17:39:38.810969 10950 net.cpp:150] Setting up conv5_3
I1029 17:39:38.810998 10950 net.cpp:157] Top shape: 4 512 36 48 (3538944)
I1029 17:39:38.811002 10950 net.cpp:165] Memory required for data: 4391114152
I1029 17:39:38.811010 10950 layer_factory.hpp:77] Creating layer relu5_3
I1029 17:39:38.811019 10950 net.cpp:100] Creating Layer relu5_3
I1029 17:39:38.811024 10950 net.cpp:434] relu5_3 <- conv5_3
I1029 17:39:38.811030 10950 net.cpp:395] relu5_3 -> conv5_3 (in-place)
I1029 17:39:38.811180 10950 net.cpp:150] Setting up relu5_3
I1029 17:39:38.811188 10950 net.cpp:157] Top shape: 4 512 36 48 (3538944)
I1029 17:39:38.811190 10950 net.cpp:165] Memory required for data: 4405269928
I1029 17:39:38.811192 10950 layer_factory.hpp:77] Creating layer conv5_3_relu5_3_0_split
I1029 17:39:38.811197 10950 net.cpp:100] Creating Layer conv5_3_relu5_3_0_split
I1029 17:39:38.811200 10950 net.cpp:434] conv5_3_relu5_3_0_split <- conv5_3
I1029 17:39:38.811204 10950 net.cpp:408] conv5_3_relu5_3_0_split -> conv5_3_relu5_3_0_split_0
I1029 17:39:38.811209 10950 net.cpp:408] conv5_3_relu5_3_0_split -> conv5_3_relu5_3_0_split_1
I1029 17:39:38.811214 10950 net.cpp:408] conv5_3_relu5_3_0_split -> conv5_3_relu5_3_0_split_2
I1029 17:39:38.811259 10950 net.cpp:150] Setting up conv5_3_relu5_3_0_split
I1029 17:39:38.811264 10950 net.cpp:157] Top shape: 4 512 36 48 (3538944)
I1029 17:39:38.811266 10950 net.cpp:157] Top shape: 4 512 36 48 (3538944)
I1029 17:39:38.811269 10950 net.cpp:157] Top shape: 4 512 36 48 (3538944)
I1029 17:39:38.811270 10950 net.cpp:165] Memory required for data: 4447737256
I1029 17:39:38.811272 10950 layer_factory.hpp:77] Creating layer LFCN_2_3x5
I1029 17:39:38.811280 10950 net.cpp:100] Creating Layer LFCN_2_3x5
I1029 17:39:38.811282 10950 net.cpp:434] LFCN_2_3x5 <- conv5_3_relu5_3_0_split_0
I1029 17:39:38.811287 10950 net.cpp:408] LFCN_2_3x5 -> LFCN_2_3x5
I1029 17:39:38.812625 10950 net.cpp:150] Setting up LFCN_2_3x5
I1029 17:39:38.812638 10950 net.cpp:157] Top shape: 4 7 36 48 (48384)
I1029 17:39:38.812639 10950 net.cpp:165] Memory required for data: 4447930792
I1029 17:39:38.812649 10950 layer_factory.hpp:77] Creating layer LFCN_2_3x5_LFCN_2_3x5_0_split
I1029 17:39:38.812656 10950 net.cpp:100] Creating Layer LFCN_2_3x5_LFCN_2_3x5_0_split
I1029 17:39:38.812659 10950 net.cpp:434] LFCN_2_3x5_LFCN_2_3x5_0_split <- LFCN_2_3x5
I1029 17:39:38.812664 10950 net.cpp:408] LFCN_2_3x5_LFCN_2_3x5_0_split -> LFCN_2_3x5_LFCN_2_3x5_0_split_0
I1029 17:39:38.812669 10950 net.cpp:408] LFCN_2_3x5_LFCN_2_3x5_0_split -> LFCN_2_3x5_LFCN_2_3x5_0_split_1
I1029 17:39:38.812702 10950 net.cpp:150] Setting up LFCN_2_3x5_LFCN_2_3x5_0_split
I1029 17:39:38.812707 10950 net.cpp:157] Top shape: 4 7 36 48 (48384)
I1029 17:39:38.812711 10950 net.cpp:157] Top shape: 4 7 36 48 (48384)
I1029 17:39:38.812712 10950 net.cpp:165] Memory required for data: 4448317864
I1029 17:39:38.812714 10950 layer_factory.hpp:77] Creating layer detection_loss_2_3x5
I1029 17:39:38.812721 10950 net.cpp:100] Creating Layer detection_loss_2_3x5
I1029 17:39:38.812722 10950 net.cpp:434] detection_loss_2_3x5 <- LFCN_2_3x5_LFCN_2_3x5_0_split_0
I1029 17:39:38.812726 10950 net.cpp:434] detection_loss_2_3x5 <- label_2_3x5_data_3_split_0
I1029 17:39:38.812731 10950 net.cpp:408] detection_loss_2_3x5 -> loss_2_3x5
I1029 17:39:38.812737 10950 layer_factory.hpp:77] Creating layer detection_loss_2_3x5
I1029 17:39:38.813349 10950 net.cpp:150] Setting up detection_loss_2_3x5
I1029 17:39:38.813360 10950 net.cpp:157] Top shape: 1 1 1 2 (2)
I1029 17:39:38.813362 10950 net.cpp:160]     with loss weight 1
I1029 17:39:38.813371 10950 net.cpp:165] Memory required for data: 4448317872
I1029 17:39:38.813374 10950 layer_factory.hpp:77] Creating layer detection_accuracy_2_3x5
I1029 17:39:38.813381 10950 net.cpp:100] Creating Layer detection_accuracy_2_3x5
I1029 17:39:38.813383 10950 net.cpp:434] detection_accuracy_2_3x5 <- LFCN_2_3x5_LFCN_2_3x5_0_split_1
I1029 17:39:38.813387 10950 net.cpp:434] detection_accuracy_2_3x5 <- label_2_3x5_data_3_split_1
I1029 17:39:38.813392 10950 net.cpp:408] detection_accuracy_2_3x5 -> accuracy_2_3x5
I1029 17:39:38.813397 10950 net.cpp:408] detection_accuracy_2_3x5 -> boxiou_2_3x5
I1029 17:39:38.813438 10950 net.cpp:150] Setting up detection_accuracy_2_3x5
I1029 17:39:38.813443 10950 net.cpp:157] Top shape: 1 1 1 2 (2)
I1029 17:39:38.813447 10950 net.cpp:157] Top shape: 1 1 1 1 (1)
I1029 17:39:38.813448 10950 net.cpp:165] Memory required for data: 4448317884
I1029 17:39:38.813450 10950 layer_factory.hpp:77] Creating layer LFCN_2_5x7
I1029 17:39:38.813457 10950 net.cpp:100] Creating Layer LFCN_2_5x7
I1029 17:39:38.813460 10950 net.cpp:434] LFCN_2_5x7 <- conv5_3_relu5_3_0_split_1
I1029 17:39:38.813464 10950 net.cpp:408] LFCN_2_5x7 -> LFCN_2_5x7
I1029 17:39:38.815778 10950 net.cpp:150] Setting up LFCN_2_5x7
I1029 17:39:38.815790 10950 net.cpp:157] Top shape: 4 7 36 48 (48384)
I1029 17:39:38.815793 10950 net.cpp:165] Memory required for data: 4448511420
I1029 17:39:38.815798 10950 layer_factory.hpp:77] Creating layer LFCN_2_5x7_LFCN_2_5x7_0_split
I1029 17:39:38.815802 10950 net.cpp:100] Creating Layer LFCN_2_5x7_LFCN_2_5x7_0_split
I1029 17:39:38.815804 10950 net.cpp:434] LFCN_2_5x7_LFCN_2_5x7_0_split <- LFCN_2_5x7
I1029 17:39:38.815809 10950 net.cpp:408] LFCN_2_5x7_LFCN_2_5x7_0_split -> LFCN_2_5x7_LFCN_2_5x7_0_split_0
I1029 17:39:38.815814 10950 net.cpp:408] LFCN_2_5x7_LFCN_2_5x7_0_split -> LFCN_2_5x7_LFCN_2_5x7_0_split_1
I1029 17:39:38.815847 10950 net.cpp:150] Setting up LFCN_2_5x7_LFCN_2_5x7_0_split
I1029 17:39:38.815851 10950 net.cpp:157] Top shape: 4 7 36 48 (48384)
I1029 17:39:38.815855 10950 net.cpp:157] Top shape: 4 7 36 48 (48384)
I1029 17:39:38.815856 10950 net.cpp:165] Memory required for data: 4448898492
I1029 17:39:38.815858 10950 layer_factory.hpp:77] Creating layer detection_loss_2_5x7
I1029 17:39:38.815863 10950 net.cpp:100] Creating Layer detection_loss_2_5x7
I1029 17:39:38.815865 10950 net.cpp:434] detection_loss_2_5x7 <- LFCN_2_5x7_LFCN_2_5x7_0_split_0
I1029 17:39:38.815868 10950 net.cpp:434] detection_loss_2_5x7 <- label_2_5x7_data_4_split_0
I1029 17:39:38.815872 10950 net.cpp:408] detection_loss_2_5x7 -> loss_2_5x7
I1029 17:39:38.815877 10950 layer_factory.hpp:77] Creating layer detection_loss_2_5x7
I1029 17:39:38.816470 10950 net.cpp:150] Setting up detection_loss_2_5x7
I1029 17:39:38.816481 10950 net.cpp:157] Top shape: 1 1 1 2 (2)
I1029 17:39:38.816483 10950 net.cpp:160]     with loss weight 1
I1029 17:39:38.816488 10950 net.cpp:165] Memory required for data: 4448898500
I1029 17:39:38.816489 10950 layer_factory.hpp:77] Creating layer detection_accuracy_2_5x7
I1029 17:39:38.816495 10950 net.cpp:100] Creating Layer detection_accuracy_2_5x7
I1029 17:39:38.816498 10950 net.cpp:434] detection_accuracy_2_5x7 <- LFCN_2_5x7_LFCN_2_5x7_0_split_1
I1029 17:39:38.816501 10950 net.cpp:434] detection_accuracy_2_5x7 <- label_2_5x7_data_4_split_1
I1029 17:39:38.816506 10950 net.cpp:408] detection_accuracy_2_5x7 -> accuracy_2_5x7
I1029 17:39:38.816511 10950 net.cpp:408] detection_accuracy_2_5x7 -> boxiou_2_5x7
I1029 17:39:38.816545 10950 net.cpp:150] Setting up detection_accuracy_2_5x7
I1029 17:39:38.816548 10950 net.cpp:157] Top shape: 1 1 1 2 (2)
I1029 17:39:38.816551 10950 net.cpp:157] Top shape: 1 1 1 1 (1)
I1029 17:39:38.816552 10950 net.cpp:165] Memory required for data: 4448898512
I1029 17:39:38.816555 10950 layer_factory.hpp:77] Creating layer pool5
I1029 17:39:38.816558 10950 net.cpp:100] Creating Layer pool5
I1029 17:39:38.816561 10950 net.cpp:434] pool5 <- conv5_3_relu5_3_0_split_2
I1029 17:39:38.816565 10950 net.cpp:408] pool5 -> pool5
I1029 17:39:38.816593 10950 net.cpp:150] Setting up pool5
I1029 17:39:38.816598 10950 net.cpp:157] Top shape: 4 512 18 24 (884736)
I1029 17:39:38.816601 10950 net.cpp:165] Memory required for data: 4452437456
I1029 17:39:38.816603 10950 layer_factory.hpp:77] Creating layer conv6_1
I1029 17:39:38.816609 10950 net.cpp:100] Creating Layer conv6_1
I1029 17:39:38.816612 10950 net.cpp:434] conv6_1 <- pool5
I1029 17:39:38.816615 10950 net.cpp:408] conv6_1 -> conv6_1
I1029 17:39:38.837148 10950 net.cpp:150] Setting up conv6_1
I1029 17:39:38.837173 10950 net.cpp:157] Top shape: 4 512 18 24 (884736)
I1029 17:39:38.837177 10950 net.cpp:165] Memory required for data: 4455976400
I1029 17:39:38.837185 10950 layer_factory.hpp:77] Creating layer relu6_1
I1029 17:39:38.837193 10950 net.cpp:100] Creating Layer relu6_1
I1029 17:39:38.837196 10950 net.cpp:434] relu6_1 <- conv6_1
I1029 17:39:38.837203 10950 net.cpp:395] relu6_1 -> conv6_1 (in-place)
I1029 17:39:38.837337 10950 net.cpp:150] Setting up relu6_1
I1029 17:39:38.837345 10950 net.cpp:157] Top shape: 4 512 18 24 (884736)
I1029 17:39:38.837347 10950 net.cpp:165] Memory required for data: 4459515344
I1029 17:39:38.837349 10950 layer_factory.hpp:77] Creating layer conv6_1_relu6_1_0_split
I1029 17:39:38.837354 10950 net.cpp:100] Creating Layer conv6_1_relu6_1_0_split
I1029 17:39:38.837357 10950 net.cpp:434] conv6_1_relu6_1_0_split <- conv6_1
I1029 17:39:38.837361 10950 net.cpp:408] conv6_1_relu6_1_0_split -> conv6_1_relu6_1_0_split_0
I1029 17:39:38.837366 10950 net.cpp:408] conv6_1_relu6_1_0_split -> conv6_1_relu6_1_0_split_1
I1029 17:39:38.837370 10950 net.cpp:408] conv6_1_relu6_1_0_split -> conv6_1_relu6_1_0_split_2
I1029 17:39:38.837414 10950 net.cpp:150] Setting up conv6_1_relu6_1_0_split
I1029 17:39:38.837419 10950 net.cpp:157] Top shape: 4 512 18 24 (884736)
I1029 17:39:38.837421 10950 net.cpp:157] Top shape: 4 512 18 24 (884736)
I1029 17:39:38.837424 10950 net.cpp:157] Top shape: 4 512 18 24 (884736)
I1029 17:39:38.837425 10950 net.cpp:165] Memory required for data: 4470132176
I1029 17:39:38.837427 10950 layer_factory.hpp:77] Creating layer LFCN_3_3x5
I1029 17:39:38.837435 10950 net.cpp:100] Creating Layer LFCN_3_3x5
I1029 17:39:38.837437 10950 net.cpp:434] LFCN_3_3x5 <- conv6_1_relu6_1_0_split_0
I1029 17:39:38.837441 10950 net.cpp:408] LFCN_3_3x5 -> LFCN_3_3x5
I1029 17:39:38.839646 10950 net.cpp:150] Setting up LFCN_3_3x5
I1029 17:39:38.839658 10950 net.cpp:157] Top shape: 4 7 18 24 (12096)
I1029 17:39:38.839660 10950 net.cpp:165] Memory required for data: 4470180560
I1029 17:39:38.839665 10950 layer_factory.hpp:77] Creating layer LFCN_3_3x5_LFCN_3_3x5_0_split
I1029 17:39:38.839680 10950 net.cpp:100] Creating Layer LFCN_3_3x5_LFCN_3_3x5_0_split
I1029 17:39:38.839684 10950 net.cpp:434] LFCN_3_3x5_LFCN_3_3x5_0_split <- LFCN_3_3x5
I1029 17:39:38.839689 10950 net.cpp:408] LFCN_3_3x5_LFCN_3_3x5_0_split -> LFCN_3_3x5_LFCN_3_3x5_0_split_0
I1029 17:39:38.839694 10950 net.cpp:408] LFCN_3_3x5_LFCN_3_3x5_0_split -> LFCN_3_3x5_LFCN_3_3x5_0_split_1
I1029 17:39:38.839727 10950 net.cpp:150] Setting up LFCN_3_3x5_LFCN_3_3x5_0_split
I1029 17:39:38.839731 10950 net.cpp:157] Top shape: 4 7 18 24 (12096)
I1029 17:39:38.839735 10950 net.cpp:157] Top shape: 4 7 18 24 (12096)
I1029 17:39:38.839735 10950 net.cpp:165] Memory required for data: 4470277328
I1029 17:39:38.839737 10950 layer_factory.hpp:77] Creating layer detection_loss_3_3x5
I1029 17:39:38.839745 10950 net.cpp:100] Creating Layer detection_loss_3_3x5
I1029 17:39:38.839747 10950 net.cpp:434] detection_loss_3_3x5 <- LFCN_3_3x5_LFCN_3_3x5_0_split_0
I1029 17:39:38.839751 10950 net.cpp:434] detection_loss_3_3x5 <- label_3_3x5_data_5_split_0
I1029 17:39:38.839756 10950 net.cpp:408] detection_loss_3_3x5 -> loss_3_3x5
I1029 17:39:38.839762 10950 layer_factory.hpp:77] Creating layer detection_loss_3_3x5
I1029 17:39:38.840041 10950 net.cpp:150] Setting up detection_loss_3_3x5
I1029 17:39:38.840050 10950 net.cpp:157] Top shape: 1 1 1 2 (2)
I1029 17:39:38.840052 10950 net.cpp:160]     with loss weight 1
I1029 17:39:38.840061 10950 net.cpp:165] Memory required for data: 4470277336
I1029 17:39:38.840065 10950 layer_factory.hpp:77] Creating layer detection_accuracy_3_3x5
I1029 17:39:38.840070 10950 net.cpp:100] Creating Layer detection_accuracy_3_3x5
I1029 17:39:38.840071 10950 net.cpp:434] detection_accuracy_3_3x5 <- LFCN_3_3x5_LFCN_3_3x5_0_split_1
I1029 17:39:38.840075 10950 net.cpp:434] detection_accuracy_3_3x5 <- label_3_3x5_data_5_split_1
I1029 17:39:38.840080 10950 net.cpp:408] detection_accuracy_3_3x5 -> accuracy_3_3x5
I1029 17:39:38.840085 10950 net.cpp:408] detection_accuracy_3_3x5 -> boxiou_3_3x5
I1029 17:39:38.840118 10950 net.cpp:150] Setting up detection_accuracy_3_3x5
I1029 17:39:38.840122 10950 net.cpp:157] Top shape: 1 1 1 2 (2)
I1029 17:39:38.840126 10950 net.cpp:157] Top shape: 1 1 1 1 (1)
I1029 17:39:38.840126 10950 net.cpp:165] Memory required for data: 4470277348
I1029 17:39:38.840129 10950 layer_factory.hpp:77] Creating layer LFCN_3_5x7
I1029 17:39:38.840137 10950 net.cpp:100] Creating Layer LFCN_3_5x7
I1029 17:39:38.840139 10950 net.cpp:434] LFCN_3_5x7 <- conv6_1_relu6_1_0_split_1
I1029 17:39:38.840143 10950 net.cpp:408] LFCN_3_5x7 -> LFCN_3_5x7
I1029 17:39:38.842031 10950 net.cpp:150] Setting up LFCN_3_5x7
I1029 17:39:38.842042 10950 net.cpp:157] Top shape: 4 7 18 24 (12096)
I1029 17:39:38.842046 10950 net.cpp:165] Memory required for data: 4470325732
I1029 17:39:38.842049 10950 layer_factory.hpp:77] Creating layer LFCN_3_5x7_LFCN_3_5x7_0_split
I1029 17:39:38.842056 10950 net.cpp:100] Creating Layer LFCN_3_5x7_LFCN_3_5x7_0_split
I1029 17:39:38.842057 10950 net.cpp:434] LFCN_3_5x7_LFCN_3_5x7_0_split <- LFCN_3_5x7
I1029 17:39:38.842062 10950 net.cpp:408] LFCN_3_5x7_LFCN_3_5x7_0_split -> LFCN_3_5x7_LFCN_3_5x7_0_split_0
I1029 17:39:38.842067 10950 net.cpp:408] LFCN_3_5x7_LFCN_3_5x7_0_split -> LFCN_3_5x7_LFCN_3_5x7_0_split_1
I1029 17:39:38.842103 10950 net.cpp:150] Setting up LFCN_3_5x7_LFCN_3_5x7_0_split
I1029 17:39:38.842108 10950 net.cpp:157] Top shape: 4 7 18 24 (12096)
I1029 17:39:38.842109 10950 net.cpp:157] Top shape: 4 7 18 24 (12096)
I1029 17:39:38.842111 10950 net.cpp:165] Memory required for data: 4470422500
I1029 17:39:38.842113 10950 layer_factory.hpp:77] Creating layer detection_loss_3_5x7
I1029 17:39:38.842118 10950 net.cpp:100] Creating Layer detection_loss_3_5x7
I1029 17:39:38.842120 10950 net.cpp:434] detection_loss_3_5x7 <- LFCN_3_5x7_LFCN_3_5x7_0_split_0
I1029 17:39:38.842124 10950 net.cpp:434] detection_loss_3_5x7 <- label_3_5x7_data_6_split_0
I1029 17:39:38.842128 10950 net.cpp:408] detection_loss_3_5x7 -> loss_3_5x7
I1029 17:39:38.842133 10950 layer_factory.hpp:77] Creating layer detection_loss_3_5x7
I1029 17:39:38.842419 10950 net.cpp:150] Setting up detection_loss_3_5x7
I1029 17:39:38.842428 10950 net.cpp:157] Top shape: 1 1 1 2 (2)
I1029 17:39:38.842430 10950 net.cpp:160]     with loss weight 1
I1029 17:39:38.842434 10950 net.cpp:165] Memory required for data: 4470422508
I1029 17:39:38.842437 10950 layer_factory.hpp:77] Creating layer detection_accuracy_3_5x7
I1029 17:39:38.842442 10950 net.cpp:100] Creating Layer detection_accuracy_3_5x7
I1029 17:39:38.842444 10950 net.cpp:434] detection_accuracy_3_5x7 <- LFCN_3_5x7_LFCN_3_5x7_0_split_1
I1029 17:39:38.842447 10950 net.cpp:434] detection_accuracy_3_5x7 <- label_3_5x7_data_6_split_1
I1029 17:39:38.842452 10950 net.cpp:408] detection_accuracy_3_5x7 -> accuracy_3_5x7
I1029 17:39:38.842455 10950 net.cpp:408] detection_accuracy_3_5x7 -> boxiou_3_5x7
I1029 17:39:38.842489 10950 net.cpp:150] Setting up detection_accuracy_3_5x7
I1029 17:39:38.842494 10950 net.cpp:157] Top shape: 1 1 1 2 (2)
I1029 17:39:38.842496 10950 net.cpp:157] Top shape: 1 1 1 1 (1)
I1029 17:39:38.842497 10950 net.cpp:165] Memory required for data: 4470422520
I1029 17:39:38.842499 10950 layer_factory.hpp:77] Creating layer pool6
I1029 17:39:38.842504 10950 net.cpp:100] Creating Layer pool6
I1029 17:39:38.842507 10950 net.cpp:434] pool6 <- conv6_1_relu6_1_0_split_2
I1029 17:39:38.842511 10950 net.cpp:408] pool6 -> pool6
I1029 17:39:38.842541 10950 net.cpp:150] Setting up pool6
I1029 17:39:38.842547 10950 net.cpp:157] Top shape: 4 512 9 12 (221184)
I1029 17:39:38.842550 10950 net.cpp:165] Memory required for data: 4471307256
I1029 17:39:38.842551 10950 layer_factory.hpp:77] Creating layer LFCN_4_3x5
I1029 17:39:38.842557 10950 net.cpp:100] Creating Layer LFCN_4_3x5
I1029 17:39:38.842559 10950 net.cpp:434] LFCN_4_3x5 <- pool6
I1029 17:39:38.842564 10950 net.cpp:408] LFCN_4_3x5 -> LFCN_4_3x5
I1029 17:39:38.843912 10950 net.cpp:150] Setting up LFCN_4_3x5
I1029 17:39:38.843922 10950 net.cpp:157] Top shape: 4 7 9 12 (3024)
I1029 17:39:38.843924 10950 net.cpp:165] Memory required for data: 4471319352
I1029 17:39:38.843930 10950 layer_factory.hpp:77] Creating layer LFCN_4_3x5_LFCN_4_3x5_0_split
I1029 17:39:38.843935 10950 net.cpp:100] Creating Layer LFCN_4_3x5_LFCN_4_3x5_0_split
I1029 17:39:38.843937 10950 net.cpp:434] LFCN_4_3x5_LFCN_4_3x5_0_split <- LFCN_4_3x5
I1029 17:39:38.843941 10950 net.cpp:408] LFCN_4_3x5_LFCN_4_3x5_0_split -> LFCN_4_3x5_LFCN_4_3x5_0_split_0
I1029 17:39:38.843946 10950 net.cpp:408] LFCN_4_3x5_LFCN_4_3x5_0_split -> LFCN_4_3x5_LFCN_4_3x5_0_split_1
I1029 17:39:38.843986 10950 net.cpp:150] Setting up LFCN_4_3x5_LFCN_4_3x5_0_split
I1029 17:39:38.843991 10950 net.cpp:157] Top shape: 4 7 9 12 (3024)
I1029 17:39:38.843994 10950 net.cpp:157] Top shape: 4 7 9 12 (3024)
I1029 17:39:38.843997 10950 net.cpp:165] Memory required for data: 4471343544
I1029 17:39:38.843997 10950 layer_factory.hpp:77] Creating layer detection_loss_4_3x5
I1029 17:39:38.844003 10950 net.cpp:100] Creating Layer detection_loss_4_3x5
I1029 17:39:38.844005 10950 net.cpp:434] detection_loss_4_3x5 <- LFCN_4_3x5_LFCN_4_3x5_0_split_0
I1029 17:39:38.844009 10950 net.cpp:434] detection_loss_4_3x5 <- label_4_3x5_data_7_split_0
I1029 17:39:38.844012 10950 net.cpp:408] detection_loss_4_3x5 -> loss_4_3x5
I1029 17:39:38.844017 10950 layer_factory.hpp:77] Creating layer detection_loss_4_3x5
I1029 17:39:38.844303 10950 net.cpp:150] Setting up detection_loss_4_3x5
I1029 17:39:38.844311 10950 net.cpp:157] Top shape: 1 1 1 2 (2)
I1029 17:39:38.844313 10950 net.cpp:160]     with loss weight 1
I1029 17:39:38.844317 10950 net.cpp:165] Memory required for data: 4471343552
I1029 17:39:38.844319 10950 layer_factory.hpp:77] Creating layer detection_accuracy_4_3x5
I1029 17:39:38.844324 10950 net.cpp:100] Creating Layer detection_accuracy_4_3x5
I1029 17:39:38.844326 10950 net.cpp:434] detection_accuracy_4_3x5 <- LFCN_4_3x5_LFCN_4_3x5_0_split_1
I1029 17:39:38.844331 10950 net.cpp:434] detection_accuracy_4_3x5 <- label_4_3x5_data_7_split_1
I1029 17:39:38.844336 10950 net.cpp:408] detection_accuracy_4_3x5 -> accuracy_4_3x5
I1029 17:39:38.844341 10950 net.cpp:408] detection_accuracy_4_3x5 -> boxiou_4_3x5
I1029 17:39:38.844374 10950 net.cpp:150] Setting up detection_accuracy_4_3x5
I1029 17:39:38.844378 10950 net.cpp:157] Top shape: 1 1 1 2 (2)
I1029 17:39:38.844380 10950 net.cpp:157] Top shape: 1 1 1 1 (1)
I1029 17:39:38.844383 10950 net.cpp:165] Memory required for data: 4471343564
I1029 17:39:38.844383 10950 net.cpp:228] detection_accuracy_4_3x5 does not need backward computation.
I1029 17:39:38.844386 10950 net.cpp:226] detection_loss_4_3x5 needs backward computation.
I1029 17:39:38.844389 10950 net.cpp:226] LFCN_4_3x5_LFCN_4_3x5_0_split needs backward computation.
I1029 17:39:38.844391 10950 net.cpp:226] LFCN_4_3x5 needs backward computation.
…
I1029 17:39:38.863574 10950 image_gt_data_layer.cpp:235] output label size 1 : 2,6,72,96
I1029 17:39:38.863616 10950 image_gt_data_layer.cpp:235] output label size 2 : 2,6,36,48
I1029 17:39:38.863658 10950 image_gt_data_layer.cpp:235] output label size 3 : 2,6,36,48
I1029 17:39:38.863700 10950 image_gt_data_layer.cpp:235] output label size 4 : 2,6,18,24
I1029 17:39:38.863742 10950 image_gt_data_layer.cpp:235] output label size 5 : 2,6,18,24
I1029 17:39:38.863785 10950 image_gt_data_layer.cpp:235] output label size 6 : 2,6,9,12
I1029 17:39:38.879886 10950 net.cpp:150] Setting up data
I1029 17:39:38.879909 10950 net.cpp:157] Top shape: 2 3 576 768 (2654208)
I1029 17:39:38.879911 10950 net.cpp:157] Top shape: 2 6 72 96 (82944)
I1029 17:39:38.879914 10950 net.cpp:157] Top shape: 2 6 72 96 (82944)
I1029 17:39:38.879916 10950 net.cpp:157] Top shape: 2 6 36 48 (20736)
I1029 17:39:38.879920 10950 net.cpp:157] Top shape: 2 6 36 48 (20736)
I1029 17:39:38.879922 10950 net.cpp:157] Top shape: 2 6 18 24 (5184)
I1029 17:39:38.879925 10950 net.cpp:157] Top shape: 2 6 18 24 (5184)
I1029 17:39:38.879927 10950 net.cpp:157] Top shape: 2 6 9 12 (1296)
I1029 17:39:38.879930 10950 net.cpp:165] Memory required for data: 11492928
I1029 17:39:38.879935 10950 layer_factory.hpp:77] Creating layer label_1_3x5_data_1_split
I1029 17:39:38.879945 10950 net.cpp:100] Creating Layer label_1_3x5_data_1_split
I1029 17:39:38.879948 10950 net.cpp:434] label_1_3x5_data_1_split <- label_1_3x5
I1029 17:39:38.879957 10950 net.cpp:408] label_1_3x5_data_1_split -> label_1_3x5_data_1_split_0
I1029 17:39:38.879967 10950 net.cpp:408] label_1_3x5_data_1_split -> label_1_3x5_data_1_split_1
I1029 17:39:38.880048 10950 net.cpp:150] Setting up label_1_3x5_data_1_split
I1029 17:39:38.880053 10950 net.cpp:157] Top shape: 2 6 72 96 (82944)
I1029 17:39:38.880056 10950 net.cpp:157] Top shape: 2 6 72 96 (82944)
I1029 17:39:38.880058 10950 net.cpp:165] Memory required for data: 12156480
I1029 17:39:38.880059 10950 layer_factory.hpp:77] Creating layer label_1_5x7_data_2_split
I1029 17:39:38.880065 10950 net.cpp:100] Creating Layer label_1_5x7_data_2_split
I1029 17:39:38.880067 10950 net.cpp:434] label_1_5x7_data_2_split <- label_1_5x7
I1029 17:39:38.880071 10950 net.cpp:408] label_1_5x7_data_2_split -> label_1_5x7_data_2_split_0
I1029 17:39:38.880077 10950 net.cpp:408] label_1_5x7_data_2_split -> label_1_5x7_data_2_split_1
I1029 17:39:38.880107 10950 net.cpp:150] Setting up label_1_5x7_data_2_split
I1029 17:39:38.880111 10950 net.cpp:157] Top shape: 2 6 72 96 (82944)
I1029 17:39:38.880113 10950 net.cpp:157] Top shape: 2 6 72 96 (82944)
I1029 17:39:38.880115 10950 net.cpp:165] Memory required for data: 12820032
I1029 17:39:38.880116 10950 layer_factory.hpp:77] Creating layer label_2_3x5_data_3_split
I1029 17:39:38.880121 10950 net.cpp:100] Creating Layer label_2_3x5_data_3_split
I1029 17:39:38.880123 10950 net.cpp:434] label_2_3x5_data_3_split <- label_2_3x5
I1029 17:39:38.880126 10950 net.cpp:408] label_2_3x5_data_3_split -> label_2_3x5_data_3_split_0
I1029 17:39:38.880131 10950 net.cpp:408] label_2_3x5_data_3_split -> label_2_3x5_data_3_split_1
I1029 17:39:38.880158 10950 net.cpp:150] Setting up label_2_3x5_data_3_split
I1029 17:39:38.880162 10950 net.cpp:157] Top shape: 2 6 36 48 (20736)
I1029 17:39:38.880164 10950 net.cpp:157] Top shape: 2 6 36 48 (20736)
I1029 17:39:38.880167 10950 net.cpp:165] Memory required for data: 12985920
I1029 17:39:38.880167 10950 layer_factory.hpp:77] Creating layer label_2_5x7_data_4_split
I1029 17:39:38.880173 10950 net.cpp:100] Creating Layer label_2_5x7_data_4_split
I1029 17:39:38.880175 10950 net.cpp:434] label_2_5x7_data_4_split <- label_2_5x7
I1029 17:39:38.880178 10950 net.cpp:408] label_2_5x7_data_4_split -> label_2_5x7_data_4_split_0
I1029 17:39:38.880183 10950 net.cpp:408] label_2_5x7_data_4_split -> label_2_5x7_data_4_split_1
I1029 17:39:38.880210 10950 net.cpp:150] Setting up label_2_5x7_data_4_split
I1029 17:39:38.880214 10950 net.cpp:157] Top shape: 2 6 36 48 (20736)
I1029 17:39:38.880216 10950 net.cpp:157] Top shape: 2 6 36 48 (20736)
I1029 17:39:38.880218 10950 net.cpp:165] Memory required for data: 13151808
I1029 17:39:38.880219 10950 layer_factory.hpp:77] Creating layer label_3_3x5_data_5_split
I1029 17:39:38.880224 10950 net.cpp:100] Creating Layer label_3_3x5_data_5_split
I1029 17:39:38.880226 10950 net.cpp:434] label_3_3x5_data_5_split <- label_3_3x5
I1029 17:39:38.880229 10950 net.cpp:408] label_3_3x5_data_5_split -> label_3_3x5_data_5_split_0
I1029 17:39:38.880234 10950 net.cpp:408] label_3_3x5_data_5_split -> label_3_3x5_data_5_split_1
I1029 17:39:38.880261 10950 net.cpp:150] Setting up label_3_3x5_data_5_split
I1029 17:39:38.880265 10950 net.cpp:157] Top shape: 2 6 18 24 (5184)
I1029 17:39:38.880267 10950 net.cpp:157] Top shape: 2 6 18 24 (5184)
I1029 17:39:38.880270 10950 net.cpp:165] Memory required for data: 13193280
I1029 17:39:38.880271 10950 layer_factory.hpp:77] Creating layer label_3_5x7_data_6_split
I1029 17:39:38.880275 10950 net.cpp:100] Creating Layer label_3_5x7_data_6_split
I1029 17:39:38.880275 10950 net.cpp:434] label_3_5x7_data_6_split <- label_3_5x7
I1029 17:39:38.880280 10950 net.cpp:408] label_3_5x7_data_6_split -> label_3_5x7_data_6_split_0
I1029 17:39:38.880285 10950 net.cpp:408] label_3_5x7_data_6_split -> label_3_5x7_data_6_split_1
I1029 17:39:38.880311 10950 net.cpp:150] Setting up label_3_5x7_data_6_split
I1029 17:39:38.880314 10950 net.cpp:157] Top shape: 2 6 18 24 (5184)
I1029 17:39:38.880316 10950 net.cpp:157] Top shape: 2 6 18 24 (5184)
I1029 17:39:38.880318 10950 net.cpp:165] Memory required for data: 13234752
I1029 17:39:38.880319 10950 layer_factory.hpp:77] Creating layer label_4_3x5_data_7_split
I1029 17:39:38.880323 10950 net.cpp:100] Creating Layer label_4_3x5_data_7_split
I1029 17:39:38.880326 10950 net.cpp:434] label_4_3x5_data_7_split <- label_4_3x5
I1029 17:39:38.880328 10950 net.cpp:408] label_4_3x5_data_7_split -> label_4_3x5_data_7_split_0
I1029 17:39:38.880331 10950 net.cpp:408] label_4_3x5_data_7_split -> label_4_3x5_data_7_split_1
I1029 17:39:38.880357 10950 net.cpp:150] Setting up label_4_3x5_data_7_split
I1029 17:39:38.880362 10950 net.cpp:157] Top shape: 2 6 9 12 (1296)
I1029 17:39:38.880363 10950 net.cpp:157] Top shape: 2 6 9 12 (1296)
I1029 17:39:38.880365 10950 net.cpp:165] Memory required for data: 13245120
I1029 17:39:38.880367 10950 layer_factory.hpp:77] Creating layer conv1_1
I1029 17:39:38.880375 10950 net.cpp:100] Creating Layer conv1_1
I1029 17:39:38.880378 10950 net.cpp:434] conv1_1 <- data
I1029 17:39:38.880381 10950 net.cpp:408] conv1_1 -> conv1_1
I1029 17:39:38.883790 10950 net.cpp:150] Setting up conv1_1
I1029 17:39:38.883805 10950 net.cpp:157] Top shape: 2 64 576 768 (56623104)
I1029 17:39:38.883806 10950 net.cpp:165] Memory required for data: 239737536
I1029 17:39:38.883819 10950 layer_factory.hpp:77] Creating layer relu1_1
I1029 17:39:38.883826 10950 net.cpp:100] Creating Layer relu1_1
I1029 17:39:38.883829 10950 net.cpp:434] relu1_1 <- conv1_1
I1029 17:39:38.883833 10950 net.cpp:395] relu1_1 -> conv1_1 (in-place)
I1029 17:39:38.884325 10950 net.cpp:150] Setting up relu1_1
I1029 17:39:38.884335 10950 net.cpp:157] Top shape: 2 64 576 768 (56623104)
I1029 17:39:38.884335 10950 net.cpp:165] Memory required for data: 466229952
I1029 17:39:38.884338 10950 layer_factory.hpp:77] Creating layer conv1_2
I1029 17:39:38.884346 10950 net.cpp:100] Creating Layer conv1_2
I1029 17:39:38.884347 10950 net.cpp:434] conv1_2 <- conv1_1
I1029 17:39:38.884352 10950 net.cpp:408] conv1_2 -> conv1_2
I1029 17:39:38.886453 10950 net.cpp:150] Setting up conv1_2
I1029 17:39:38.886463 10950 net.cpp:157] Top shape: 2 64 576 768 (56623104)
I1029 17:39:38.886466 10950 net.cpp:165] Memory required for data: 692722368
I1029 17:39:38.886472 10950 layer_factory.hpp:77] Creating layer relu1_2
I1029 17:39:38.886478 10950 net.cpp:100] Creating Layer relu1_2
I1029 17:39:38.886481 10950 net.cpp:434] relu1_2 <- conv1_2
I1029 17:39:38.886484 10950 net.cpp:395] relu1_2 -> conv1_2 (in-place)
I1029 17:39:38.886641 10950 net.cpp:150] Setting up relu1_2
I1029 17:39:38.886646 10950 net.cpp:157] Top shape: 2 64 576 768 (56623104)
I1029 17:39:38.886648 10950 net.cpp:165] Memory required for data: 919214784
I1029 17:39:38.886651 10950 layer_factory.hpp:77] Creating layer pool1
I1029 17:39:38.886656 10950 net.cpp:100] Creating Layer pool1
I1029 17:39:38.886657 10950 net.cpp:434] pool1 <- conv1_2
I1029 17:39:38.886662 10950 net.cpp:408] pool1 -> pool1
I1029 17:39:38.886705 10950 net.cpp:150] Setting up pool1
I1029 17:39:38.886709 10950 net.cpp:157] Top shape: 2 64 288 384 (14155776)
I1029 17:39:38.886711 10950 net.cpp:165] Memory required for data: 975837888
I1029 17:39:38.886713 10950 layer_factory.hpp:77] Creating layer conv2_1
I1029 17:39:38.886719 10950 net.cpp:100] Creating Layer conv2_1
I1029 17:39:38.886721 10950 net.cpp:434] conv2_1 <- pool1
I1029 17:39:38.886724 10950 net.cpp:408] conv2_1 -> conv2_1
I1029 17:39:38.888150 10950 net.cpp:150] Setting up conv2_1
I1029 17:39:38.888159 10950 net.cpp:157] Top shape: 2 128 288 384 (28311552)
I1029 17:39:38.888161 10950 net.cpp:165] Memory required for data: 1089084096
I1029 17:39:38.888169 10950 layer_factory.hpp:77] Creating layer relu2_1
I1029 17:39:38.888175 10950 net.cpp:100] Creating Layer relu2_1
I1029 17:39:38.888176 10950 net.cpp:434] relu2_1 <- conv2_1
I1029 17:39:38.888180 10950 net.cpp:395] relu2_1 -> conv2_1 (in-place)
I1029 17:39:38.888334 10950 net.cpp:150] Setting up relu2_1
I1029 17:39:38.888340 10950 net.cpp:157] Top shape: 2 128 288 384 (28311552)
I1029 17:39:38.888341 10950 net.cpp:165] Memory required for data: 1202330304
I1029 17:39:38.888345 10950 layer_factory.hpp:77] Creating layer conv2_2
I1029 17:39:38.888350 10950 net.cpp:100] Creating Layer conv2_2
I1029 17:39:38.888352 10950 net.cpp:434] conv2_2 <- conv2_1
I1029 17:39:38.888356 10950 net.cpp:408] conv2_2 -> conv2_2
I1029 17:39:38.890622 10950 net.cpp:150] Setting up conv2_2
I1029 17:39:38.890633 10950 net.cpp:157] Top shape: 2 128 288 384 (28311552)
I1029 17:39:38.890635 10950 net.cpp:165] Memory required for data: 1315576512
I1029 17:39:38.890640 10950 layer_factory.hpp:77] Creating layer relu2_2
I1029 17:39:38.890648 10950 net.cpp:100] Creating Layer relu2_2
I1029 17:39:38.890651 10950 net.cpp:434] relu2_2 <- conv2_2
I1029 17:39:38.890655 10950 net.cpp:395] relu2_2 -> conv2_2 (in-place)
I1029 17:39:38.890818 10950 net.cpp:150] Setting up relu2_2
I1029 17:39:38.890825 10950 net.cpp:157] Top shape: 2 128 288 384 (28311552)
I1029 17:39:38.890826 10950 net.cpp:165] Memory required for data: 1428822720
I1029 17:39:38.890828 10950 layer_factory.hpp:77] Creating layer pool2
I1029 17:39:38.890833 10950 net.cpp:100] Creating Layer pool2
I1029 17:39:38.890836 10950 net.cpp:434] pool2 <- conv2_2
I1029 17:39:38.890839 10950 net.cpp:408] pool2 -> pool2
I1029 17:39:38.890882 10950 net.cpp:150] Setting up pool2
I1029 17:39:38.890885 10950 net.cpp:157] Top shape: 2 128 144 192 (7077888)
I1029 17:39:38.890887 10950 net.cpp:165] Memory required for data: 1457134272
I1029 17:39:38.890888 10950 layer_factory.hpp:77] Creating layer conv3_1
I1029 17:39:38.890894 10950 net.cpp:100] Creating Layer conv3_1
I1029 17:39:38.890897 10950 net.cpp:434] conv3_1 <- pool2
I1029 17:39:38.890899 10950 net.cpp:408] conv3_1 -> conv3_1
I1029 17:39:38.892699 10950 net.cpp:150] Setting up conv3_1
I1029 17:39:38.892707 10950 net.cpp:157] Top shape: 2 256 144 192 (14155776)
I1029 17:39:38.892709 10950 net.cpp:165] Memory required for data: 1513757376
I1029 17:39:38.892716 10950 layer_factory.hpp:77] Creating layer relu3_1
I1029 17:39:38.892722 10950 net.cpp:100] Creating Layer relu3_1
I1029 17:39:38.892725 10950 net.cpp:434] relu3_1 <- conv3_1
I1029 17:39:38.892729 10950 net.cpp:395] relu3_1 -> conv3_1 (in-place)
I1029 17:39:38.892886 10950 net.cpp:150] Setting up relu3_1
I1029 17:39:38.892894 10950 net.cpp:157] Top shape: 2 256 144 192 (14155776)
I1029 17:39:38.892896 10950 net.cpp:165] Memory required for data: 1570380480
I1029 17:39:38.892899 10950 layer_factory.hpp:77] Creating layer conv3_2
I1029 17:39:38.892904 10950 net.cpp:100] Creating Layer conv3_2
I1029 17:39:38.892905 10950 net.cpp:434] conv3_2 <- conv3_1
I1029 17:39:38.892910 10950 net.cpp:408] conv3_2 -> conv3_2
I1029 17:39:38.895894 10950 net.cpp:150] Setting up conv3_2
I1029 17:39:38.895905 10950 net.cpp:157] Top shape: 2 256 144 192 (14155776)
I1029 17:39:38.895907 10950 net.cpp:165] Memory required for data: 1627003584
I1029 17:39:38.895912 10950 layer_factory.hpp:77] Creating layer relu3_2
I1029 17:39:38.895917 10950 net.cpp:100] Creating Layer relu3_2
I1029 17:39:38.895920 10950 net.cpp:434] relu3_2 <- conv3_2
I1029 17:39:38.895925 10950 net.cpp:395] relu3_2 -> conv3_2 (in-place)
I1029 17:39:38.896080 10950 net.cpp:150] Setting up relu3_2
I1029 17:39:38.896085 10950 net.cpp:157] Top shape: 2 256 144 192 (14155776)
I1029 17:39:38.896086 10950 net.cpp:165] Memory required for data: 1683626688
I1029 17:39:38.896090 10950 layer_factory.hpp:77] Creating layer conv3_3
I1029 17:39:38.896095 10950 net.cpp:100] Creating Layer conv3_3
I1029 17:39:38.896097 10950 net.cpp:434] conv3_3 <- conv3_2
I1029 17:39:38.896101 10950 net.cpp:408] conv3_3 -> conv3_3
I1029 17:39:38.898694 10950 net.cpp:150] Setting up conv3_3
I1029 17:39:38.898706 10950 net.cpp:157] Top shape: 2 256 144 192 (14155776)
I1029 17:39:38.898708 10950 net.cpp:165] Memory required for data: 1740249792
I1029 17:39:38.898715 10950 layer_factory.hpp:77] Creating layer relu3_3
I1029 17:39:38.898720 10950 net.cpp:100] Creating Layer relu3_3
I1029 17:39:38.898723 10950 net.cpp:434] relu3_3 <- conv3_3
I1029 17:39:38.898727 10950 net.cpp:395] relu3_3 -> conv3_3 (in-place)
I1029 17:39:38.899210 10950 net.cpp:150] Setting up relu3_3
I1029 17:39:38.899220 10950 net.cpp:157] Top shape: 2 256 144 192 (14155776)
I1029 17:39:38.899222 10950 net.cpp:165] Memory required for data: 1796872896
I1029 17:39:38.899224 10950 layer_factory.hpp:77] Creating layer pool3
I1029 17:39:38.899230 10950 net.cpp:100] Creating Layer pool3
I1029 17:39:38.899232 10950 net.cpp:434] pool3 <- conv3_3
I1029 17:39:38.899237 10950 net.cpp:408] pool3 -> pool3
I1029 17:39:38.899281 10950 net.cpp:150] Setting up pool3
I1029 17:39:38.899287 10950 net.cpp:157] Top shape: 2 256 72 96 (3538944)
I1029 17:39:38.899289 10950 net.cpp:165] Memory required for data: 1811028672
I1029 17:39:38.899291 10950 layer_factory.hpp:77] Creating layer conv4_1
I1029 17:39:38.899296 10950 net.cpp:100] Creating Layer conv4_1
I1029 17:39:38.899298 10950 net.cpp:434] conv4_1 <- pool3
I1029 17:39:38.899302 10950 net.cpp:408] conv4_1 -> conv4_1
I1029 17:39:38.902690 10950 net.cpp:150] Setting up conv4_1
I1029 17:39:38.902700 10950 net.cpp:157] Top shape: 2 512 72 96 (7077888)
I1029 17:39:38.902703 10950 net.cpp:165] Memory required for data: 1839340224
I1029 17:39:38.902709 10950 layer_factory.hpp:77] Creating layer relu4_1
I1029 17:39:38.902714 10950 net.cpp:100] Creating Layer relu4_1
I1029 17:39:38.902716 10950 net.cpp:434] relu4_1 <- conv4_1
I1029 17:39:38.902720 10950 net.cpp:395] relu4_1 -> conv4_1 (in-place)
I1029 17:39:38.902874 10950 net.cpp:150] Setting up relu4_1
I1029 17:39:38.902880 10950 net.cpp:157] Top shape: 2 512 72 96 (7077888)
I1029 17:39:38.902882 10950 net.cpp:165] Memory required for data: 1867651776
I1029 17:39:38.902884 10950 layer_factory.hpp:77] Creating layer conv4_2
I1029 17:39:38.902890 10950 net.cpp:100] Creating Layer conv4_2
I1029 17:39:38.902894 10950 net.cpp:434] conv4_2 <- conv4_1
I1029 17:39:38.902899 10950 net.cpp:408] conv4_2 -> conv4_2
I1029 17:39:38.907598 10950 net.cpp:150] Setting up conv4_2
I1029 17:39:38.907618 10950 net.cpp:157] Top shape: 2 512 72 96 (7077888)
I1029 17:39:38.907619 10950 net.cpp:165] Memory required for data: 1895963328
I1029 17:39:38.907631 10950 layer_factory.hpp:77] Creating layer relu4_2
I1029 17:39:38.907639 10950 net.cpp:100] Creating Layer relu4_2
I1029 17:39:38.907642 10950 net.cpp:434] relu4_2 <- conv4_2
I1029 17:39:38.907649 10950 net.cpp:395] relu4_2 -> conv4_2 (in-place)
I1029 17:39:38.907794 10950 net.cpp:150] Setting up relu4_2
I1029 17:39:38.907800 10950 net.cpp:157] Top shape: 2 512 72 96 (7077888)
I1029 17:39:38.907802 10950 net.cpp:165] Memory required for data: 1924274880
I1029 17:39:38.907804 10950 layer_factory.hpp:77] Creating layer conv4_3
I1029 17:39:38.907811 10950 net.cpp:100] Creating Layer conv4_3
I1029 17:39:38.907814 10950 net.cpp:434] conv4_3 <- conv4_2
I1029 17:39:38.907817 10950 net.cpp:408] conv4_3 -> conv4_3
I1029 17:39:38.912621 10950 net.cpp:150] Setting up conv4_3
I1029 17:39:38.912638 10950 net.cpp:157] Top shape: 2 512 72 96 (7077888)
I1029 17:39:38.912641 10950 net.cpp:165] Memory required for data: 1952586432
I1029 17:39:38.912648 10950 layer_factory.hpp:77] Creating layer relu4_3
I1029 17:39:38.912657 10950 net.cpp:100] Creating Layer relu4_3
I1029 17:39:38.912660 10950 net.cpp:434] relu4_3 <- conv4_3
I1029 17:39:38.912664 10950 net.cpp:395] relu4_3 -> conv4_3 (in-place)
I1029 17:39:38.912820 10950 net.cpp:150] Setting up relu4_3
I1029 17:39:38.912827 10950 net.cpp:157] Top shape: 2 512 72 96 (7077888)
I1029 17:39:38.912829 10950 net.cpp:165] Memory required for data: 1980897984
I1029 17:39:38.912832 10950 layer_factory.hpp:77] Creating layer conv4_3_relu4_3_0_split
I1029 17:39:38.912837 10950 net.cpp:100] Creating Layer conv4_3_relu4_3_0_split
I1029 17:39:38.912838 10950 net.cpp:434] conv4_3_relu4_3_0_split <- conv4_3
I1029 17:39:38.912842 10950 net.cpp:408] conv4_3_relu4_3_0_split -> conv4_3_relu4_3_0_split_0
I1029 17:39:38.912848 10950 net.cpp:408] conv4_3_relu4_3_0_split -> conv4_3_relu4_3_0_split_1
I1029 17:39:38.912888 10950 net.cpp:150] Setting up conv4_3_relu4_3_0_split
I1029 17:39:38.912891 10950 net.cpp:157] Top shape: 2 512 72 96 (7077888)
I1029 17:39:38.912894 10950 net.cpp:157] Top shape: 2 512 72 96 (7077888)
I1029 17:39:38.912895 10950 net.cpp:165] Memory required for data: 2037521088
I1029 17:39:38.912897 10950 layer_factory.hpp:77] Creating layer loss1_conv1
I1029 17:39:38.912911 10950 net.cpp:100] Creating Layer loss1_conv1
I1029 17:39:38.912914 10950 net.cpp:434] loss1_conv1 <- conv4_3_relu4_3_0_split_0
I1029 17:39:38.912919 10950 net.cpp:408] loss1_conv1 -> loss1_conv1
I1029 17:39:38.934206 10950 net.cpp:150] Setting up loss1_conv1
I1029 17:39:38.934226 10950 net.cpp:157] Top shape: 2 512 72 96 (7077888)
I1029 17:39:38.934228 10950 net.cpp:165] Memory required for data: 2065832640
I1029 17:39:38.934237 10950 layer_factory.hpp:77] Creating layer loss_relu1
I1029 17:39:38.934243 10950 net.cpp:100] Creating Layer loss_relu1
I1029 17:39:38.934247 10950 net.cpp:434] loss_relu1 <- loss1_conv1
I1029 17:39:38.934253 10950 net.cpp:395] loss_relu1 -> loss1_conv1 (in-place)
I1029 17:39:38.934401 10950 net.cpp:150] Setting up loss_relu1
I1029 17:39:38.934408 10950 net.cpp:157] Top shape: 2 512 72 96 (7077888)
I1029 17:39:38.934412 10950 net.cpp:165] Memory required for data: 2094144192
I1029 17:39:38.934413 10950 layer_factory.hpp:77] Creating layer loss1_conv1_loss_relu1_0_split
I1029 17:39:38.934417 10950 net.cpp:100] Creating Layer loss1_conv1_loss_relu1_0_split
I1029 17:39:38.934420 10950 net.cpp:434] loss1_conv1_loss_relu1_0_split <- loss1_conv1
I1029 17:39:38.934427 10950 net.cpp:408] loss1_conv1_loss_relu1_0_split -> loss1_conv1_loss_relu1_0_split_0
I1029 17:39:38.934432 10950 net.cpp:408] loss1_conv1_loss_relu1_0_split -> loss1_conv1_loss_relu1_0_split_1
I1029 17:39:38.934473 10950 net.cpp:150] Setting up loss1_conv1_loss_relu1_0_split
I1029 17:39:38.934478 10950 net.cpp:157] Top shape: 2 512 72 96 (7077888)
I1029 17:39:38.934481 10950 net.cpp:157] Top shape: 2 512 72 96 (7077888)
I1029 17:39:38.934484 10950 net.cpp:165] Memory required for data: 2150767296
I1029 17:39:38.934484 10950 layer_factory.hpp:77] Creating layer LFCN_1_3x5
I1029 17:39:38.934494 10950 net.cpp:100] Creating Layer LFCN_1_3x5
I1029 17:39:38.934496 10950 net.cpp:434] LFCN_1_3x5 <- loss1_conv1_loss_relu1_0_split_0
I1029 17:39:38.934501 10950 net.cpp:408] LFCN_1_3x5 -> LFCN_1_3x5
I1029 17:39:38.935940 10950 net.cpp:150] Setting up LFCN_1_3x5
I1029 17:39:38.935951 10950 net.cpp:157] Top shape: 2 7 72 96 (96768)
I1029 17:39:38.935953 10950 net.cpp:165] Memory required for data: 2151154368
I1029 17:39:38.935958 10950 layer_factory.hpp:77] Creating layer LFCN_1_3x5_LFCN_1_3x5_0_split
I1029 17:39:38.935962 10950 net.cpp:100] Creating Layer LFCN_1_3x5_LFCN_1_3x5_0_split
I1029 17:39:38.935966 10950 net.cpp:434] LFCN_1_3x5_LFCN_1_3x5_0_split <- LFCN_1_3x5
I1029 17:39:38.935971 10950 net.cpp:408] LFCN_1_3x5_LFCN_1_3x5_0_split -> LFCN_1_3x5_LFCN_1_3x5_0_split_0
I1029 17:39:38.935976 10950 net.cpp:408] LFCN_1_3x5_LFCN_1_3x5_0_split -> LFCN_1_3x5_LFCN_1_3x5_0_split_1
I1029 17:39:38.936015 10950 net.cpp:150] Setting up LFCN_1_3x5_LFCN_1_3x5_0_split
I1029 17:39:38.936019 10950 net.cpp:157] Top shape: 2 7 72 96 (96768)
I1029 17:39:38.936022 10950 net.cpp:157] Top shape: 2 7 72 96 (96768)
I1029 17:39:38.936023 10950 net.cpp:165] Memory required for data: 2151928512
I1029 17:39:38.936025 10950 layer_factory.hpp:77] Creating layer detection_loss_1_3x5
I1029 17:39:38.936031 10950 net.cpp:100] Creating Layer detection_loss_1_3x5
I1029 17:39:38.936034 10950 net.cpp:434] detection_loss_1_3x5 <- LFCN_1_3x5_LFCN_1_3x5_0_split_0
I1029 17:39:38.936038 10950 net.cpp:434] detection_loss_1_3x5 <- label_1_3x5_data_1_split_0
I1029 17:39:38.936041 10950 net.cpp:408] detection_loss_1_3x5 -> loss_1_3x5
I1029 17:39:38.936048 10950 layer_factory.hpp:77] Creating layer detection_loss_1_3x5
I1029 17:39:38.936369 10950 net.cpp:150] Setting up detection_loss_1_3x5
I1029 17:39:38.936375 10950 net.cpp:157] Top shape: 1 1 1 2 (2)
I1029 17:39:38.936378 10950 net.cpp:160]     with loss weight 0.9
I1029 17:39:38.936386 10950 net.cpp:165] Memory required for data: 2151928520
I1029 17:39:38.936388 10950 layer_factory.hpp:77] Creating layer detection_accuracy_1_3x5
I1029 17:39:38.936393 10950 net.cpp:100] Creating Layer detection_accuracy_1_3x5
I1029 17:39:38.936396 10950 net.cpp:434] detection_accuracy_1_3x5 <- LFCN_1_3x5_LFCN_1_3x5_0_split_1
I1029 17:39:38.936399 10950 net.cpp:434] detection_accuracy_1_3x5 <- label_1_3x5_data_1_split_1
I1029 17:39:38.936404 10950 net.cpp:408] detection_accuracy_1_3x5 -> accuracy_1_3x5
I1029 17:39:38.936409 10950 net.cpp:408] detection_accuracy_1_3x5 -> boxiou_1_3x5
I1029 17:39:38.936444 10950 net.cpp:150] Setting up detection_accuracy_1_3x5
I1029 17:39:38.936449 10950 net.cpp:157] Top shape: 1 1 1 2 (2)
I1029 17:39:38.936450 10950 net.cpp:157] Top shape: 1 1 1 1 (1)
I1029 17:39:38.936452 10950 net.cpp:165] Memory required for data: 2151928532
I1029 17:39:38.936453 10950 layer_factory.hpp:77] Creating layer LFCN_1_5x7
I1029 17:39:38.936461 10950 net.cpp:100] Creating Layer LFCN_1_5x7
I1029 17:39:38.936465 10950 net.cpp:434] LFCN_1_5x7 <- loss1_conv1_loss_relu1_0_split_1
I1029 17:39:38.936467 10950 net.cpp:408] LFCN_1_5x7 -> LFCN_1_5x7
I1029 17:39:38.939740 10950 net.cpp:150] Setting up LFCN_1_5x7
I1029 17:39:38.939755 10950 net.cpp:157] Top shape: 2 7 72 96 (96768)
I1029 17:39:38.939757 10950 net.cpp:165] Memory required for data: 2152315604
I1029 17:39:38.939764 10950 layer_factory.hpp:77] Creating layer LFCN_1_5x7_LFCN_1_5x7_0_split
I1029 17:39:38.939771 10950 net.cpp:100] Creating Layer LFCN_1_5x7_LFCN_1_5x7_0_split
I1029 17:39:38.939774 10950 net.cpp:434] LFCN_1_5x7_LFCN_1_5x7_0_split <- LFCN_1_5x7
I1029 17:39:38.939781 10950 net.cpp:408] LFCN_1_5x7_LFCN_1_5x7_0_split -> LFCN_1_5x7_LFCN_1_5x7_0_split_0
I1029 17:39:38.939786 10950 net.cpp:408] LFCN_1_5x7_LFCN_1_5x7_0_split -> LFCN_1_5x7_LFCN_1_5x7_0_split_1
I1029 17:39:38.939826 10950 net.cpp:150] Setting up LFCN_1_5x7_LFCN_1_5x7_0_split
I1029 17:39:38.939831 10950 net.cpp:157] Top shape: 2 7 72 96 (96768)
I1029 17:39:38.939832 10950 net.cpp:157] Top shape: 2 7 72 96 (96768)
I1029 17:39:38.939834 10950 net.cpp:165] Memory required for data: 2153089748
I1029 17:39:38.939836 10950 layer_factory.hpp:77] Creating layer detection_loss_1_5x7
I1029 17:39:38.939841 10950 net.cpp:100] Creating Layer detection_loss_1_5x7
I1029 17:39:38.939844 10950 net.cpp:434] detection_loss_1_5x7 <- LFCN_1_5x7_LFCN_1_5x7_0_split_0
I1029 17:39:38.939847 10950 net.cpp:434] detection_loss_1_5x7 <- label_1_5x7_data_2_split_0
I1029 17:39:38.939852 10950 net.cpp:408] detection_loss_1_5x7 -> loss_1_5x7
I1029 17:39:38.939858 10950 layer_factory.hpp:77] Creating layer detection_loss_1_5x7
I1029 17:39:38.940533 10950 net.cpp:150] Setting up detection_loss_1_5x7
I1029 17:39:38.940542 10950 net.cpp:157] Top shape: 1 1 1 2 (2)
I1029 17:39:38.940543 10950 net.cpp:160]     with loss weight 0.9
I1029 17:39:38.940551 10950 net.cpp:165] Memory required for data: 2153089756
I1029 17:39:38.940553 10950 layer_factory.hpp:77] Creating layer detection_accuracy_1_5x7
I1029 17:39:38.940559 10950 net.cpp:100] Creating Layer detection_accuracy_1_5x7
I1029 17:39:38.940562 10950 net.cpp:434] detection_accuracy_1_5x7 <- LFCN_1_5x7_LFCN_1_5x7_0_split_1
I1029 17:39:38.940567 10950 net.cpp:434] detection_accuracy_1_5x7 <- label_1_5x7_data_2_split_1
I1029 17:39:38.940570 10950 net.cpp:408] detection_accuracy_1_5x7 -> accuracy_1_5x7
I1029 17:39:38.940575 10950 net.cpp:408] detection_accuracy_1_5x7 -> boxiou_1_5x7
I1029 17:39:38.940615 10950 net.cpp:150] Setting up detection_accuracy_1_5x7
I1029 17:39:38.940619 10950 net.cpp:157] Top shape: 1 1 1 2 (2)
I1029 17:39:38.940621 10950 net.cpp:157] Top shape: 1 1 1 1 (1)
I1029 17:39:38.940623 10950 net.cpp:165] Memory required for data: 2153089768
I1029 17:39:38.940625 10950 layer_factory.hpp:77] Creating layer pool4
I1029 17:39:38.940629 10950 net.cpp:100] Creating Layer pool4
I1029 17:39:38.940632 10950 net.cpp:434] pool4 <- conv4_3_relu4_3_0_split_1
I1029 17:39:38.940636 10950 net.cpp:408] pool4 -> pool4
I1029 17:39:38.940671 10950 net.cpp:150] Setting up pool4
I1029 17:39:38.940675 10950 net.cpp:157] Top shape: 2 512 36 48 (1769472)
I1029 17:39:38.940677 10950 net.cpp:165] Memory required for data: 2160167656
I1029 17:39:38.940678 10950 layer_factory.hpp:77] Creating layer conv5_1
I1029 17:39:38.940685 10950 net.cpp:100] Creating Layer conv5_1
I1029 17:39:38.940687 10950 net.cpp:434] conv5_1 <- pool4
I1029 17:39:38.940690 10950 net.cpp:408] conv5_1 -> conv5_1
I1029 17:39:38.945374 10950 net.cpp:150] Setting up conv5_1
I1029 17:39:38.945387 10950 net.cpp:157] Top shape: 2 512 36 48 (1769472)
I1029 17:39:38.945389 10950 net.cpp:165] Memory required for data: 2167245544
I1029 17:39:38.945395 10950 layer_factory.hpp:77] Creating layer relu5_1
I1029 17:39:38.945401 10950 net.cpp:100] Creating Layer relu5_1
I1029 17:39:38.945405 10950 net.cpp:434] relu5_1 <- conv5_1
I1029 17:39:38.945410 10950 net.cpp:395] relu5_1 -> conv5_1 (in-place)
I1029 17:39:38.945566 10950 net.cpp:150] Setting up relu5_1
I1029 17:39:38.945574 10950 net.cpp:157] Top shape: 2 512 36 48 (1769472)
I1029 17:39:38.945574 10950 net.cpp:165] Memory required for data: 2174323432
I1029 17:39:38.945576 10950 layer_factory.hpp:77] Creating layer conv5_2
I1029 17:39:38.945582 10950 net.cpp:100] Creating Layer conv5_2
I1029 17:39:38.945585 10950 net.cpp:434] conv5_2 <- conv5_1
I1029 17:39:38.945588 10950 net.cpp:408] conv5_2 -> conv5_2
I1029 17:39:38.950201 10950 net.cpp:150] Setting up conv5_2
I1029 17:39:38.950215 10950 net.cpp:157] Top shape: 2 512 36 48 (1769472)
I1029 17:39:38.950217 10950 net.cpp:165] Memory required for data: 2181401320
I1029 17:39:38.950222 10950 layer_factory.hpp:77] Creating layer relu5_2
I1029 17:39:38.950229 10950 net.cpp:100] Creating Layer relu5_2
I1029 17:39:38.950233 10950 net.cpp:434] relu5_2 <- conv5_2
I1029 17:39:38.950237 10950 net.cpp:395] relu5_2 -> conv5_2 (in-place)
I1029 17:39:38.950393 10950 net.cpp:150] Setting up relu5_2
I1029 17:39:38.950399 10950 net.cpp:157] Top shape: 2 512 36 48 (1769472)
I1029 17:39:38.950402 10950 net.cpp:165] Memory required for data: 2188479208
I1029 17:39:38.950403 10950 layer_factory.hpp:77] Creating layer conv5_3
I1029 17:39:38.950409 10950 net.cpp:100] Creating Layer conv5_3
I1029 17:39:38.950412 10950 net.cpp:434] conv5_3 <- conv5_2
I1029 17:39:38.950417 10950 net.cpp:408] conv5_3 -> conv5_3
I1029 17:39:38.955916 10950 net.cpp:150] Setting up conv5_3
I1029 17:39:38.955937 10950 net.cpp:157] Top shape: 2 512 36 48 (1769472)
I1029 17:39:38.955940 10950 net.cpp:165] Memory required for data: 2195557096
I1029 17:39:38.955947 10950 layer_factory.hpp:77] Creating layer relu5_3
I1029 17:39:38.955955 10950 net.cpp:100] Creating Layer relu5_3
I1029 17:39:38.955958 10950 net.cpp:434] relu5_3 <- conv5_3
I1029 17:39:38.955966 10950 net.cpp:395] relu5_3 -> conv5_3 (in-place)
I1029 17:39:38.956123 10950 net.cpp:150] Setting up relu5_3
I1029 17:39:38.956130 10950 net.cpp:157] Top shape: 2 512 36 48 (1769472)
I1029 17:39:38.956131 10950 net.cpp:165] Memory required for data: 2202634984
I1029 17:39:38.956133 10950 layer_factory.hpp:77] Creating layer conv5_3_relu5_3_0_split
I1029 17:39:38.956140 10950 net.cpp:100] Creating Layer conv5_3_relu5_3_0_split
I1029 17:39:38.956142 10950 net.cpp:434] conv5_3_relu5_3_0_split <- conv5_3
I1029 17:39:38.956146 10950 net.cpp:408] conv5_3_relu5_3_0_split -> conv5_3_relu5_3_0_split_0
I1029 17:39:38.956151 10950 net.cpp:408] conv5_3_relu5_3_0_split -> conv5_3_relu5_3_0_split_1
I1029 17:39:38.956156 10950 net.cpp:408] conv5_3_relu5_3_0_split -> conv5_3_relu5_3_0_split_2
I1029 17:39:38.956210 10950 net.cpp:150] Setting up conv5_3_relu5_3_0_split
I1029 17:39:38.956214 10950 net.cpp:157] Top shape: 2 512 36 48 (1769472)
I1029 17:39:38.956217 10950 net.cpp:157] Top shape: 2 512 36 48 (1769472)
I1029 17:39:38.956218 10950 net.cpp:157] Top shape: 2 512 36 48 (1769472)
I1029 17:39:38.956220 10950 net.cpp:165] Memory required for data: 2223868648
I1029 17:39:38.956223 10950 layer_factory.hpp:77] Creating layer LFCN_2_3x5
I1029 17:39:38.956231 10950 net.cpp:100] Creating Layer LFCN_2_3x5
I1029 17:39:38.956233 10950 net.cpp:434] LFCN_2_3x5 <- conv5_3_relu5_3_0_split_0
I1029 17:39:38.956239 10950 net.cpp:408] LFCN_2_3x5 -> LFCN_2_3x5
I1029 17:39:38.959484 10950 net.cpp:150] Setting up LFCN_2_3x5
I1029 17:39:38.959504 10950 net.cpp:157] Top shape: 2 7 36 48 (24192)
I1029 17:39:38.959507 10950 net.cpp:165] Memory required for data: 2223965416
I1029 17:39:38.959522 10950 layer_factory.hpp:77] Creating layer LFCN_2_3x5_LFCN_2_3x5_0_split
I1029 17:39:38.959529 10950 net.cpp:100] Creating Layer LFCN_2_3x5_LFCN_2_3x5_0_split
I1029 17:39:38.959533 10950 net.cpp:434] LFCN_2_3x5_LFCN_2_3x5_0_split <- LFCN_2_3x5
I1029 17:39:38.959540 10950 net.cpp:408] LFCN_2_3x5_LFCN_2_3x5_0_split -> LFCN_2_3x5_LFCN_2_3x5_0_split_0
I1029 17:39:38.959547 10950 net.cpp:408] LFCN_2_3x5_LFCN_2_3x5_0_split -> LFCN_2_3x5_LFCN_2_3x5_0_split_1
I1029 17:39:38.959589 10950 net.cpp:150] Setting up LFCN_2_3x5_LFCN_2_3x5_0_split
I1029 17:39:38.959594 10950 net.cpp:157] Top shape: 2 7 36 48 (24192)
I1029 17:39:38.959596 10950 net.cpp:157] Top shape: 2 7 36 48 (24192)
I1029 17:39:38.959597 10950 net.cpp:165] Memory required for data: 2224158952
I1029 17:39:38.959599 10950 layer_factory.hpp:77] Creating layer detection_loss_2_3x5
I1029 17:39:38.959604 10950 net.cpp:100] Creating Layer detection_loss_2_3x5
I1029 17:39:38.959606 10950 net.cpp:434] detection_loss_2_3x5 <- LFCN_2_3x5_LFCN_2_3x5_0_split_0
I1029 17:39:38.959610 10950 net.cpp:434] detection_loss_2_3x5 <- label_2_3x5_data_3_split_0
I1029 17:39:38.959616 10950 net.cpp:408] detection_loss_2_3x5 -> loss_2_3x5
I1029 17:39:38.959625 10950 layer_factory.hpp:77] Creating layer detection_loss_2_3x5
I1029 17:39:38.959950 10950 net.cpp:150] Setting up detection_loss_2_3x5
I1029 17:39:38.959957 10950 net.cpp:157] Top shape: 1 1 1 2 (2)
I1029 17:39:38.959959 10950 net.cpp:160]     with loss weight 1
I1029 17:39:38.959969 10950 net.cpp:165] Memory required for data: 2224158960
I1029 17:39:38.959970 10950 layer_factory.hpp:77] Creating layer detection_accuracy_2_3x5
I1029 17:39:38.959975 10950 net.cpp:100] Creating Layer detection_accuracy_2_3x5
I1029 17:39:38.959978 10950 net.cpp:434] detection_accuracy_2_3x5 <- LFCN_2_3x5_LFCN_2_3x5_0_split_1
I1029 17:39:38.959981 10950 net.cpp:434] detection_accuracy_2_3x5 <- label_2_3x5_data_3_split_1
I1029 17:39:38.959986 10950 net.cpp:408] detection_accuracy_2_3x5 -> accuracy_2_3x5
I1029 17:39:38.959991 10950 net.cpp:408] detection_accuracy_2_3x5 -> boxiou_2_3x5
I1029 17:39:38.960044 10950 net.cpp:150] Setting up detection_accuracy_2_3x5
I1029 17:39:38.960048 10950 net.cpp:157] Top shape: 1 1 1 2 (2)
I1029 17:39:38.960052 10950 net.cpp:157] Top shape: 1 1 1 1 (1)
I1029 17:39:38.960052 10950 net.cpp:165] Memory required for data: 2224158972
I1029 17:39:38.960054 10950 layer_factory.hpp:77] Creating layer LFCN_2_5x7
I1029 17:39:38.960062 10950 net.cpp:100] Creating Layer LFCN_2_5x7
I1029 17:39:38.960065 10950 net.cpp:434] LFCN_2_5x7 <- conv5_3_relu5_3_0_split_1
I1029 17:39:38.960070 10950 net.cpp:408] LFCN_2_5x7 -> LFCN_2_5x7
I1029 17:39:38.962169 10950 net.cpp:150] Setting up LFCN_2_5x7
I1029 17:39:38.962180 10950 net.cpp:157] Top shape: 2 7 36 48 (24192)
I1029 17:39:38.962182 10950 net.cpp:165] Memory required for data: 2224255740
I1029 17:39:38.962188 10950 layer_factory.hpp:77] Creating layer LFCN_2_5x7_LFCN_2_5x7_0_split
I1029 17:39:38.962191 10950 net.cpp:100] Creating Layer LFCN_2_5x7_LFCN_2_5x7_0_split
I1029 17:39:38.962194 10950 net.cpp:434] LFCN_2_5x7_LFCN_2_5x7_0_split <- LFCN_2_5x7
I1029 17:39:38.962199 10950 net.cpp:408] LFCN_2_5x7_LFCN_2_5x7_0_split -> LFCN_2_5x7_LFCN_2_5x7_0_split_0
I1029 17:39:38.962205 10950 net.cpp:408] LFCN_2_5x7_LFCN_2_5x7_0_split -> LFCN_2_5x7_LFCN_2_5x7_0_split_1
I1029 17:39:38.962244 10950 net.cpp:150] Setting up LFCN_2_5x7_LFCN_2_5x7_0_split
I1029 17:39:38.962249 10950 net.cpp:157] Top shape: 2 7 36 48 (24192)
I1029 17:39:38.962251 10950 net.cpp:157] Top shape: 2 7 36 48 (24192)
I1029 17:39:38.962254 10950 net.cpp:165] Memory required for data: 2224449276
I1029 17:39:38.962255 10950 layer_factory.hpp:77] Creating layer detection_loss_2_5x7
I1029 17:39:38.962260 10950 net.cpp:100] Creating Layer detection_loss_2_5x7
I1029 17:39:38.962262 10950 net.cpp:434] detection_loss_2_5x7 <- LFCN_2_5x7_LFCN_2_5x7_0_split_0
I1029 17:39:38.962265 10950 net.cpp:434] detection_loss_2_5x7 <- label_2_5x7_data_4_split_0
I1029 17:39:38.962270 10950 net.cpp:408] detection_loss_2_5x7 -> loss_2_5x7
I1029 17:39:38.962275 10950 layer_factory.hpp:77] Creating layer detection_loss_2_5x7
I1029 17:39:38.962597 10950 net.cpp:150] Setting up detection_loss_2_5x7
I1029 17:39:38.962604 10950 net.cpp:157] Top shape: 1 1 1 2 (2)
I1029 17:39:38.962605 10950 net.cpp:160]     with loss weight 1
I1029 17:39:38.962611 10950 net.cpp:165] Memory required for data: 2224449284
I1029 17:39:38.962613 10950 layer_factory.hpp:77] Creating layer detection_accuracy_2_5x7
I1029 17:39:38.962617 10950 net.cpp:100] Creating Layer detection_accuracy_2_5x7
I1029 17:39:38.962620 10950 net.cpp:434] detection_accuracy_2_5x7 <- LFCN_2_5x7_LFCN_2_5x7_0_split_1
I1029 17:39:38.962625 10950 net.cpp:434] detection_accuracy_2_5x7 <- label_2_5x7_data_4_split_1
I1029 17:39:38.962628 10950 net.cpp:408] detection_accuracy_2_5x7 -> accuracy_2_5x7
I1029 17:39:38.962633 10950 net.cpp:408] detection_accuracy_2_5x7 -> boxiou_2_5x7
I1029 17:39:38.962671 10950 net.cpp:150] Setting up detection_accuracy_2_5x7
I1029 17:39:38.962676 10950 net.cpp:157] Top shape: 1 1 1 2 (2)
I1029 17:39:38.962677 10950 net.cpp:157] Top shape: 1 1 1 1 (1)
I1029 17:39:38.962679 10950 net.cpp:165] Memory required for data: 2224449296
I1029 17:39:38.962680 10950 layer_factory.hpp:77] Creating layer pool5
I1029 17:39:38.962685 10950 net.cpp:100] Creating Layer pool5
I1029 17:39:38.962687 10950 net.cpp:434] pool5 <- conv5_3_relu5_3_0_split_2
I1029 17:39:38.962692 10950 net.cpp:408] pool5 -> pool5
I1029 17:39:38.962725 10950 net.cpp:150] Setting up pool5
I1029 17:39:38.962730 10950 net.cpp:157] Top shape: 2 512 18 24 (442368)
I1029 17:39:38.962733 10950 net.cpp:165] Memory required for data: 2226218768
I1029 17:39:38.962734 10950 layer_factory.hpp:77] Creating layer conv6_1
I1029 17:39:38.962740 10950 net.cpp:100] Creating Layer conv6_1
I1029 17:39:38.962743 10950 net.cpp:434] conv6_1 <- pool5
I1029 17:39:38.962748 10950 net.cpp:408] conv6_1 -> conv6_1
I1029 17:39:38.984647 10950 net.cpp:150] Setting up conv6_1
I1029 17:39:38.984669 10950 net.cpp:157] Top shape: 2 512 18 24 (442368)
I1029 17:39:38.984673 10950 net.cpp:165] Memory required for data: 2227988240
I1029 17:39:38.984679 10950 layer_factory.hpp:77] Creating layer relu6_1
I1029 17:39:38.984688 10950 net.cpp:100] Creating Layer relu6_1
I1029 17:39:38.984694 10950 net.cpp:434] relu6_1 <- conv6_1
I1029 17:39:38.984699 10950 net.cpp:395] relu6_1 -> conv6_1 (in-place)
I1029 17:39:38.985229 10950 net.cpp:150] Setting up relu6_1
I1029 17:39:38.985239 10950 net.cpp:157] Top shape: 2 512 18 24 (442368)
I1029 17:39:38.985241 10950 net.cpp:165] Memory required for data: 2229757712
I1029 17:39:38.985244 10950 layer_factory.hpp:77] Creating layer conv6_1_relu6_1_0_split
I1029 17:39:38.985250 10950 net.cpp:100] Creating Layer conv6_1_relu6_1_0_split
I1029 17:39:38.985252 10950 net.cpp:434] conv6_1_relu6_1_0_split <- conv6_1
I1029 17:39:38.985258 10950 net.cpp:408] conv6_1_relu6_1_0_split -> conv6_1_relu6_1_0_split_0
I1029 17:39:38.985265 10950 net.cpp:408] conv6_1_relu6_1_0_split -> conv6_1_relu6_1_0_split_1
I1029 17:39:38.985270 10950 net.cpp:408] conv6_1_relu6_1_0_split -> conv6_1_relu6_1_0_split_2
I1029 17:39:38.985324 10950 net.cpp:150] Setting up conv6_1_relu6_1_0_split
I1029 17:39:38.985330 10950 net.cpp:157] Top shape: 2 512 18 24 (442368)
I1029 17:39:38.985333 10950 net.cpp:157] Top shape: 2 512 18 24 (442368)
I1029 17:39:38.985335 10950 net.cpp:157] Top shape: 2 512 18 24 (442368)
I1029 17:39:38.985337 10950 net.cpp:165] Memory required for data: 2235066128
I1029 17:39:38.985339 10950 layer_factory.hpp:77] Creating layer LFCN_3_3x5
I1029 17:39:38.985348 10950 net.cpp:100] Creating Layer LFCN_3_3x5
I1029 17:39:38.985350 10950 net.cpp:434] LFCN_3_3x5 <- conv6_1_relu6_1_0_split_0
I1029 17:39:38.985355 10950 net.cpp:408] LFCN_3_3x5 -> LFCN_3_3x5
I1029 17:39:38.986832 10950 net.cpp:150] Setting up LFCN_3_3x5
I1029 17:39:38.986843 10950 net.cpp:157] Top shape: 2 7 18 24 (6048)
I1029 17:39:38.986846 10950 net.cpp:165] Memory required for data: 2235090320
I1029 17:39:38.986850 10950 layer_factory.hpp:77] Creating layer LFCN_3_3x5_LFCN_3_3x5_0_split
I1029 17:39:38.986866 10950 net.cpp:100] Creating Layer LFCN_3_3x5_LFCN_3_3x5_0_split
I1029 17:39:38.986871 10950 net.cpp:434] LFCN_3_3x5_LFCN_3_3x5_0_split <- LFCN_3_3x5
I1029 17:39:38.986874 10950 net.cpp:408] LFCN_3_3x5_LFCN_3_3x5_0_split -> LFCN_3_3x5_LFCN_3_3x5_0_split_0
I1029 17:39:38.986879 10950 net.cpp:408] LFCN_3_3x5_LFCN_3_3x5_0_split -> LFCN_3_3x5_LFCN_3_3x5_0_split_1
I1029 17:39:38.986922 10950 net.cpp:150] Setting up LFCN_3_3x5_LFCN_3_3x5_0_split
I1029 17:39:38.986927 10950 net.cpp:157] Top shape: 2 7 18 24 (6048)
I1029 17:39:38.986930 10950 net.cpp:157] Top shape: 2 7 18 24 (6048)
I1029 17:39:38.986932 10950 net.cpp:165] Memory required for data: 2235138704
I1029 17:39:38.986933 10950 layer_factory.hpp:77] Creating layer detection_loss_3_3x5
I1029 17:39:38.986941 10950 net.cpp:100] Creating Layer detection_loss_3_3x5
I1029 17:39:38.986943 10950 net.cpp:434] detection_loss_3_3x5 <- LFCN_3_3x5_LFCN_3_3x5_0_split_0
I1029 17:39:38.986948 10950 net.cpp:434] detection_loss_3_3x5 <- label_3_3x5_data_5_split_0
I1029 17:39:38.986953 10950 net.cpp:408] detection_loss_3_3x5 -> loss_3_3x5
I1029 17:39:38.986960 10950 layer_factory.hpp:77] Creating layer detection_loss_3_3x5
I1029 17:39:38.987280 10950 net.cpp:150] Setting up detection_loss_3_3x5
I1029 17:39:38.987288 10950 net.cpp:157] Top shape: 1 1 1 2 (2)
I1029 17:39:38.987290 10950 net.cpp:160]     with loss weight 1
I1029 17:39:38.987299 10950 net.cpp:165] Memory required for data: 2235138712
I1029 17:39:38.987301 10950 layer_factory.hpp:77] Creating layer detection_accuracy_3_3x5
I1029 17:39:38.987308 10950 net.cpp:100] Creating Layer detection_accuracy_3_3x5
I1029 17:39:38.987310 10950 net.cpp:434] detection_accuracy_3_3x5 <- LFCN_3_3x5_LFCN_3_3x5_0_split_1
I1029 17:39:38.987314 10950 net.cpp:434] detection_accuracy_3_3x5 <- label_3_3x5_data_5_split_1
I1029 17:39:38.987318 10950 net.cpp:408] detection_accuracy_3_3x5 -> accuracy_3_3x5
I1029 17:39:38.987324 10950 net.cpp:408] detection_accuracy_3_3x5 -> boxiou_3_3x5
I1029 17:39:38.987363 10950 net.cpp:150] Setting up detection_accuracy_3_3x5
I1029 17:39:38.987368 10950 net.cpp:157] Top shape: 1 1 1 2 (2)
I1029 17:39:38.987371 10950 net.cpp:157] Top shape: 1 1 1 1 (1)
I1029 17:39:38.987372 10950 net.cpp:165] Memory required for data: 2235138724
I1029 17:39:38.987375 10950 layer_factory.hpp:77] Creating layer LFCN_3_5x7
I1029 17:39:38.987381 10950 net.cpp:100] Creating Layer LFCN_3_5x7
I1029 17:39:38.987383 10950 net.cpp:434] LFCN_3_5x7 <- conv6_1_relu6_1_0_split_1
I1029 17:39:38.987390 10950 net.cpp:408] LFCN_3_5x7 -> LFCN_3_5x7
I1029 17:39:38.989373 10950 net.cpp:150] Setting up LFCN_3_5x7
I1029 17:39:38.989385 10950 net.cpp:157] Top shape: 2 7 18 24 (6048)
I1029 17:39:38.989387 10950 net.cpp:165] Memory required for data: 2235162916
I1029 17:39:38.989392 10950 layer_factory.hpp:77] Creating layer LFCN_3_5x7_LFCN_3_5x7_0_split
I1029 17:39:38.989395 10950 net.cpp:100] Creating Layer LFCN_3_5x7_LFCN_3_5x7_0_split
I1029 17:39:38.989398 10950 net.cpp:434] LFCN_3_5x7_LFCN_3_5x7_0_split <- LFCN_3_5x7
I1029 17:39:38.989403 10950 net.cpp:408] LFCN_3_5x7_LFCN_3_5x7_0_split -> LFCN_3_5x7_LFCN_3_5x7_0_split_0
I1029 17:39:38.989409 10950 net.cpp:408] LFCN_3_5x7_LFCN_3_5x7_0_split -> LFCN_3_5x7_LFCN_3_5x7_0_split_1
I1029 17:39:38.989449 10950 net.cpp:150] Setting up LFCN_3_5x7_LFCN_3_5x7_0_split
I1029 17:39:38.989457 10950 net.cpp:157] Top shape: 2 7 18 24 (6048)
I1029 17:39:38.989459 10950 net.cpp:157] Top shape: 2 7 18 24 (6048)
I1029 17:39:38.989461 10950 net.cpp:165] Memory required for data: 2235211300
I1029 17:39:38.989464 10950 layer_factory.hpp:77] Creating layer detection_loss_3_5x7
I1029 17:39:38.989468 10950 net.cpp:100] Creating Layer detection_loss_3_5x7
I1029 17:39:38.989470 10950 net.cpp:434] detection_loss_3_5x7 <- LFCN_3_5x7_LFCN_3_5x7_0_split_0
I1029 17:39:38.989473 10950 net.cpp:434] detection_loss_3_5x7 <- label_3_5x7_data_6_split_0
I1029 17:39:38.989477 10950 net.cpp:408] detection_loss_3_5x7 -> loss_3_5x7
I1029 17:39:38.989483 10950 layer_factory.hpp:77] Creating layer detection_loss_3_5x7
I1029 17:39:38.989807 10950 net.cpp:150] Setting up detection_loss_3_5x7
I1029 17:39:38.989815 10950 net.cpp:157] Top shape: 1 1 1 2 (2)
I1029 17:39:38.989817 10950 net.cpp:160]     with loss weight 1
I1029 17:39:38.989822 10950 net.cpp:165] Memory required for data: 2235211308
I1029 17:39:38.989825 10950 layer_factory.hpp:77] Creating layer detection_accuracy_3_5x7
I1029 17:39:38.989830 10950 net.cpp:100] Creating Layer detection_accuracy_3_5x7
I1029 17:39:38.989832 10950 net.cpp:434] detection_accuracy_3_5x7 <- LFCN_3_5x7_LFCN_3_5x7_0_split_1
I1029 17:39:38.989835 10950 net.cpp:434] detection_accuracy_3_5x7 <- label_3_5x7_data_6_split_1
I1029 17:39:38.989840 10950 net.cpp:408] detection_accuracy_3_5x7 -> accuracy_3_5x7
I1029 17:39:38.989845 10950 net.cpp:408] detection_accuracy_3_5x7 -> boxiou_3_5x7
I1029 17:39:38.989884 10950 net.cpp:150] Setting up detection_accuracy_3_5x7
I1029 17:39:38.989888 10950 net.cpp:157] Top shape: 1 1 1 2 (2)
I1029 17:39:38.989892 10950 net.cpp:157] Top shape: 1 1 1 1 (1)
I1029 17:39:38.989892 10950 net.cpp:165] Memory required for data: 2235211320
I1029 17:39:38.989894 10950 layer_factory.hpp:77] Creating layer pool6
I1029 17:39:38.989899 10950 net.cpp:100] Creating Layer pool6
I1029 17:39:38.989902 10950 net.cpp:434] pool6 <- conv6_1_relu6_1_0_split_2
I1029 17:39:38.989907 10950 net.cpp:408] pool6 -> pool6
I1029 17:39:38.989943 10950 net.cpp:150] Setting up pool6
I1029 17:39:38.989948 10950 net.cpp:157] Top shape: 2 512 9 12 (110592)
I1029 17:39:38.989949 10950 net.cpp:165] Memory required for data: 2235653688
I1029 17:39:38.989951 10950 layer_factory.hpp:77] Creating layer LFCN_4_3x5
I1029 17:39:38.989959 10950 net.cpp:100] Creating Layer LFCN_4_3x5
I1029 17:39:38.989961 10950 net.cpp:434] LFCN_4_3x5 <- pool6
I1029 17:39:38.989965 10950 net.cpp:408] LFCN_4_3x5 -> LFCN_4_3x5
I1029 17:39:38.991920 10950 net.cpp:150] Setting up LFCN_4_3x5
I1029 17:39:38.991935 10950 net.cpp:157] Top shape: 2 7 9 12 (1512)
I1029 17:39:38.991937 10950 net.cpp:165] Memory required for data: 2235659736
I1029 17:39:38.991942 10950 layer_factory.hpp:77] Creating layer LFCN_4_3x5_LFCN_4_3x5_0_split
I1029 17:39:38.991947 10950 net.cpp:100] Creating Layer LFCN_4_3x5_LFCN_4_3x5_0_split
I1029 17:39:38.991950 10950 net.cpp:434] LFCN_4_3x5_LFCN_4_3x5_0_split <- LFCN_4_3x5
I1029 17:39:38.991956 10950 net.cpp:408] LFCN_4_3x5_LFCN_4_3x5_0_split -> LFCN_4_3x5_LFCN_4_3x5_0_split_0
I1029 17:39:38.991961 10950 net.cpp:408] LFCN_4_3x5_LFCN_4_3x5_0_split -> LFCN_4_3x5_LFCN_4_3x5_0_split_1
I1029 17:39:38.992005 10950 net.cpp:150] Setting up LFCN_4_3x5_LFCN_4_3x5_0_split
I1029 17:39:38.992009 10950 net.cpp:157] Top shape: 2 7 9 12 (1512)
I1029 17:39:38.992012 10950 net.cpp:157] Top shape: 2 7 9 12 (1512)
I1029 17:39:38.992013 10950 net.cpp:165] Memory required for data: 2235671832
I1029 17:39:38.992015 10950 layer_factory.hpp:77] Creating layer detection_loss_4_3x5
I1029 17:39:38.992022 10950 net.cpp:100] Creating Layer detection_loss_4_3x5
I1029 17:39:38.992033 10950 net.cpp:434] detection_loss_4_3x5 <- LFCN_4_3x5_LFCN_4_3x5_0_split_0
I1029 17:39:38.992036 10950 net.cpp:434] detection_loss_4_3x5 <- label_4_3x5_data_7_split_0
I1029 17:39:38.992040 10950 net.cpp:408] detection_loss_4_3x5 -> loss_4_3x5
I1029 17:39:38.992046 10950 layer_factory.hpp:77] Creating layer detection_loss_4_3x5
I1029 17:39:38.992370 10950 net.cpp:150] Setting up detection_loss_4_3x5
I1029 17:39:38.992377 10950 net.cpp:157] Top shape: 1 1 1 2 (2)
I1029 17:39:38.992379 10950 net.cpp:160]     with loss weight 1
I1029 17:39:38.992384 10950 net.cpp:165] Memory required for data: 2235671840
I1029 17:39:38.992388 10950 layer_factory.hpp:77] Creating layer detection_accuracy_4_3x5
I1029 17:39:38.992393 10950 net.cpp:100] Creating Layer detection_accuracy_4_3x5
I1029 17:39:38.992394 10950 net.cpp:434] detection_accuracy_4_3x5 <- LFCN_4_3x5_LFCN_4_3x5_0_split_1
I1029 17:39:38.992398 10950 net.cpp:434] detection_accuracy_4_3x5 <- label_4_3x5_data_7_split_1
I1029 17:39:38.992403 10950 net.cpp:408] detection_accuracy_4_3x5 -> accuracy_4_3x5
I1029 17:39:38.992408 10950 net.cpp:408] detection_accuracy_4_3x5 -> boxiou_4_3x5
I1029 17:39:38.992451 10950 net.cpp:150] Setting up detection_accuracy_4_3x5
I1029 17:39:38.992458 10950 net.cpp:157] Top shape: 1 1 1 2 (2)
I1029 17:39:38.992461 10950 net.cpp:157] Top shape: 1 1 1 1 (1)
I1029 17:39:38.992462 10950 net.cpp:165] Memory required for data: 2235671852
I1029 17:39:38.992465 10950 net.cpp:228] detection_accuracy_4_3x5 does not need backward computation.
I1029 17:39:38.992468 10950 net.cpp:226] detection_loss_4_3x5 needs backward computation.
I1029 17:39:38.992471 10950 net.cpp:226] LFCN_4_3x5_LFCN_4_3x5_0_split needs backward computation.
I1029 17:39:38.992473 10950 net.cpp:226] LFCN_4_3x5 needs backward computation.
…
